module {
  func.func private @func1(%arg0: tensor<9x9xi32>, %arg1: tensor<7x7xf16>) {
    %c17207_i16 = arith.constant 17207 : i16
    %cst = arith.constant 1.25418419E+9 : f32
    %cst_0 = arith.constant 1.266400e+04 : f16
    %c1416631668_i64 = arith.constant 1416631668 : i64
    %c1321725939_i64 = arith.constant 1321725939 : i64
    %c-29219_i16 = arith.constant -29219 : i16
    %c10949_i16 = arith.constant 10949 : i16
    %c-30369_i16 = arith.constant -30369 : i16
    %cst_1 = arith.constant 0x4DF7D01B : f32
    %true = arith.constant true
    %true_2 = arith.constant true
    %cst_3 = arith.constant 2.505600e+04 : f16
    %c610206965_i32 = arith.constant 610206965 : i32
    %c384628122_i32 = arith.constant 384628122 : i32
    %cst_4 = arith.constant 7.396000e+03 : f16
    %c1603447190_i32 = arith.constant 1603447190 : i32
    %0 = tensor.empty() : tensor<9xi64>
    %1 = tensor.empty() : tensor<9x7xi64>
    %2 = tensor.empty() : tensor<9x7xf16>
    %3 = tensor.empty() : tensor<9x9xi1>
    %4 = tensor.empty() : tensor<9xi64>
    %5 = tensor.empty() : tensor<9xi1>
    %6 = tensor.empty() : tensor<9x7xi32>
    %7 = tensor.empty() : tensor<7x7xf16>
    %8 = tensor.empty() : tensor<9x7xi64>
    %9 = tensor.empty() : tensor<9xi32>
    %10 = tensor.empty() : tensor<9x7xf32>
    %11 = tensor.empty() : tensor<9x7xi1>
    %12 = tensor.empty() : tensor<9x7xi16>
    %13 = tensor.empty() : tensor<9x7xf32>
    %14 = tensor.empty() : tensor<9xi32>
    %15 = tensor.empty() : tensor<9x9xi16>
    %c0 = arith.constant 0 : index
    %c1 = arith.constant 1 : index
    %c2 = arith.constant 2 : index
    %c3 = arith.constant 3 : index
    %c4 = arith.constant 4 : index
    %c5 = arith.constant 5 : index
    %c6 = arith.constant 6 : index
    %c7 = arith.constant 7 : index
    %c8 = arith.constant 8 : index
    %c9 = arith.constant 9 : index
    %c10 = arith.constant 10 : index
    %c11 = arith.constant 11 : index
    %c12 = arith.constant 12 : index
    %c13 = arith.constant 13 : index
    %c14 = arith.constant 14 : index
    %c15 = arith.constant 15 : index
    %alloc = memref.alloc() : memref<9x9xf32>
    %alloc_5 = memref.alloc() : memref<9x7xi32>
    %alloc_6 = memref.alloc() : memref<9xi32>
    %alloc_7 = memref.alloc() : memref<9xi1>
    %alloc_8 = memref.alloc() : memref<7x7xf16>
    %alloc_9 = memref.alloc() : memref<9xi32>
    %alloc_10 = memref.alloc() : memref<7x7xf32>
    %alloc_11 = memref.alloc() : memref<7x7xf16>
    %alloc_12 = memref.alloc() : memref<9xi32>
    %alloc_13 = memref.alloc() : memref<7x7xi1>
    %alloc_14 = memref.alloc() : memref<9x9xi16>
    %alloc_15 = memref.alloc() : memref<9x9xf32>
    %alloc_16 = memref.alloc() : memref<9x9xi1>
    %alloc_17 = memref.alloc() : memref<7x7xi32>
    %alloc_18 = memref.alloc() : memref<9xi16>
    %alloc_19 = memref.alloc() : memref<9x7xf32>
    %16 = tensor.empty() : tensor<9xi1>
    %17 = linalg.copy ins(%5 : tensor<9xi1>) outs(%16 : tensor<9xi1>) -> tensor<9xi1>
    %18 = tensor.empty() : tensor<9xi64>
    %transposed = linalg.transpose ins(%0 : tensor<9xi64>) outs(%18 : tensor<9xi64>) permutation = [0] 
    %alloc_20 = memref.alloc() : memref<9xi1>
    linalg.reduce ins(%3 : tensor<9x9xi1>) outs(%alloc_20 : memref<9xi1>) dimensions = [0] 
      (%in: i1, %init: i1) {
        %246 = vector.broadcast %cst_1 : f32 to vector<9xf32>
        %247 = vector.broadcast %cst : f32 to vector<9x9xf32>
        %248 = vector.fma %247, %247, %247 : vector<9x9xf32>
        affine.store %c610206965_i32, %alloc_9[%c0] : memref<9xi32>
        %249 = index.add %c15, %c13
        %250 = math.roundeven %13 : tensor<9x7xf32>
        affine.store %true, %alloc_7[%c10] : memref<9xi1>
        %251 = bufferization.clone %alloc_16 : memref<9x9xi1> to memref<9x9xi1>
        %splat_50 = tensor.splat %c17207_i16 : tensor<9x9xi16>
        memref.alloca_scope  {
          %252 = vector.flat_transpose %246 {columns = 3 : i32, rows = 3 : i32} : vector<9xf32> -> vector<9xf32>
          %253 = math.ctlz %4 : tensor<9xi64>
          vector.print %248 : vector<9x9xf32>
          %inserted_52 = tensor.insert %init into %11[%c4, %c3] : tensor<9x7xi1>
          %254 = math.absf %cst_0 : f16
          %255 = math.tan %cst : f32
          %256 = index.ceildivu %c9, %c5
          %257 = index.sub %c5, %c12
          %258 = vector.flat_transpose %246 {columns = 3 : i32, rows = 3 : i32} : vector<9xf32> -> vector<9xf32>
          %259 = index.ceildivs %c6, %c12
          %260 = index.ceildivu %c12, %c8
          %261 = arith.minf %cst, %cst_1 : f32
          %262 = math.expm1 %7 : tensor<7x7xf16>
          %263 = math.copysign %cst_0, %cst_0 : f16
          %264 = vector.broadcast %cst_0 : f16 to vector<9xf16>
          %265 = memref.realloc %alloc_12 : memref<9xi32> to memref<13xi32>
          %266 = arith.minui %c-29219_i16, %c-30369_i16 : i16
          %267 = arith.ori %c610206965_i32, %c610206965_i32 : i32
          %268 = index.floordivs %c5, %c0
          %269 = math.round %2 : tensor<9x7xf16>
          %270 = math.tan %10 : tensor<9x7xf32>
          %expanded_53 = tensor.expand_shape %12 [[0], [1, 2]] : tensor<9x7xi16> into tensor<9x7x1xi16>
          %271 = math.powf %2, %2 : tensor<9x7xf16>
          %272 = index.sizeof
          %273 = arith.divf %cst_3, %cst_4 : f16
          %274 = arith.minf %cst_4, %cst_3 : f16
          %splat_54 = tensor.splat %c10949_i16 : tensor<9x9xi16>
          %275 = math.tan %cst : f32
          %276 = vector.multi_reduction <add>, %246, %258 [] : vector<9xf32> to vector<9xf32>
          %277 = math.log10 %2 : tensor<9x7xf16>
          %278 = vector.broadcast %cst_3 : f16 to vector<9x9xf16>
          %279 = vector.outerproduct %264, %264, %278 {kind = #vector.kind<minf>} : vector<9xf16>, vector<9xf16>
          %alloca = memref.alloca() : memref<9x7xi32>
        }
        %false_51 = arith.constant false
        linalg.yield %false_51 : i1
      }
    %19 = scf.parallel (%arg2, %arg3) = (%c10, %c10) to (%c5, %c13) step (%c5, %c13) init (%11) -> tensor<9x7xi1> {
      %246 = tensor.empty() : tensor<9x9x9xi64>
      %247 = linalg.generic {indexing_maps = [affine_map<(d0, d1, d2) -> (d0, d1, d2)>], iterator_types = ["parallel", "parallel", "parallel"]} outs(%246 : tensor<9x9x9xi64>) {
      ^bb0(%out: i64):
        %262 = arith.cmpf one, %cst_4, %cst_3 : f16
        %263 = index.floordivs %c2, %c8
        %264 = vector.broadcast %cst_0 : f16 to vector<7xf16>
        %265 = vector.matrix_multiply %264, %264 {lhs_columns = 7 : i32, lhs_rows = 1 : i32, rhs_columns = 1 : i32} : (vector<7xf16>, vector<7xf16>) -> vector<1xf16>
        %266 = math.absf %10 : tensor<9x7xf32>
        %267 = tensor.empty(%c15) : tensor<7x?xi16>
        %268 = tensor.empty() : tensor<7x7xf16>
        %269 = index.add %c10, %c0
        %270 = vector.broadcast %cst_1 : f32 to vector<7xf32>
        %271 = vector.broadcast %true_2 : i1 to vector<7xi1>
        %272 = vector.maskedload %alloc_10[%c4, %c4], %271, %270 : memref<7x7xf32>, vector<7xi1>, vector<7xf32> into vector<7xf32>
        %273 = arith.maxf %cst_4, %cst_0 : f16
        %274 = math.absi %1 : tensor<9x7xi64>
        %275 = vector.contract {indexing_maps = [affine_map<(d0) -> (d0)>, affine_map<(d0) -> (d0)>, affine_map<(d0) -> ()>], iterator_types = ["reduction"], kind = #vector.kind<add>} %272, %272, %cst_1 : vector<7xf32>, vector<7xf32> into f32
        %276 = math.log1p %7 : tensor<7x7xf16>
        %277 = arith.cmpi ult, %c-30369_i16, %c17207_i16 : i16
        %278 = index.maxu %c11, %c14
        %279 = vector.broadcast %cst_1 : f32 to vector<f32>
        vector.transfer_write %279, %alloc_15[%c6, %arg3] : vector<f32>, memref<9x9xf32>
        %280 = affine.apply affine_map<(d0, d1, d2, d3) -> (d0 * -128)>(%c1, %arg2, %c4, %c9)
        %false_53 = index.bool.constant false
        vector.print %272 : vector<7xf32>
        %281 = index.ceildivu %arg3, %c12
        %282 = index.sub %263, %arg2
        %283 = math.absf %2 : tensor<9x7xf16>
        %284 = arith.addi %out, %c1416631668_i64 : i64
        %285 = vector.broadcast %false_53 : i1 to vector<7x7xi1>
        %286 = vector.outerproduct %271, %271, %285 {kind = #vector.kind<minui>} : vector<7xi1>, vector<7xi1>
        %287 = math.copysign %10, %10 : tensor<9x7xf32>
        %288 = math.copysign %13, %13 : tensor<9x7xf32>
        %false_54 = index.bool.constant false
        %289 = math.fpowi %cst_0, %c610206965_i32 : f16, i32
        %290 = vector.contract {indexing_maps = [affine_map<(d0) -> (d0)>, affine_map<(d0) -> (d0)>, affine_map<(d0) -> ()>], iterator_types = ["reduction"], kind = #vector.kind<and>} %271, %271, %false_53 : vector<7xi1>, vector<7xi1> into i1
        %291 = math.exp2 %2 : tensor<9x7xf16>
        %292 = arith.maxsi %c1603447190_i32, %c384628122_i32 : i32
        %293 = index.divu %280, %c7
        %cast = tensor.cast %10 : tensor<9x7xf32> to tensor<?x?xf32>
        linalg.yield %out : i64
      } -> tensor<9x9x9xi64>
      %248 = math.log1p %13 : tensor<9x7xf32>
      %expanded_50 = tensor.expand_shape %11 [[0], [1, 2]] : tensor<9x7xi1> into tensor<9x7x1xi1>
      %249 = arith.subi %c-29219_i16, %c-29219_i16 : i16
      %250 = arith.cmpf ole, %cst_4, %cst_4 : f16
      %251 = arith.shrsi %c1321725939_i64, %c1321725939_i64 : i64
      %252 = vector.load %alloc_5[%c4, %c6] : memref<9x7xi32>, vector<7x7xi32>
      %253 = vector.transpose %252, [0, 1] : vector<7x7xi32> to vector<7x7xi32>
      %254 = vector.broadcast %cst_0 : f16 to vector<13xf16>
      %255 = vector.flat_transpose %254 {columns = 13 : i32, rows = 1 : i32} : vector<13xf16> -> vector<13xf16>
      affine.store %cst, %alloc_15[%c2, %c9] : memref<9x9xf32>
      vector.print %254 : vector<13xf16>
      %256 = vector.insertelement %cst_0, %254[%c2 : index] : vector<13xf16>
      %257 = math.exp %2 : tensor<9x7xf16>
      vector.print %252 : vector<7x7xi32>
      %258 = math.absf %10 : tensor<9x7xf32>
      %alloc_51 = memref.alloc() : memref<7xi1>
      %alloc_52 = memref.alloc() : memref<7x1x9xi1>
      %259 = tensor.empty() : tensor<7x1xi1>
      %260 = linalg.generic {indexing_maps = [affine_map<(d0, d1, d2) -> (d1)>, affine_map<(d0, d1, d2) -> (d1, d2, d0)>, affine_map<(d0, d1, d2) -> (d1, d2)>, affine_map<(d0, d1, d2) -> (d0, d1, d2)>], iterator_types = ["parallel", "parallel", "parallel"]} ins(%alloc_51, %alloc_52, %259 : memref<7xi1>, memref<7x1x9xi1>, tensor<7x1xi1>) outs(%expanded_50 : tensor<9x7x1xi1>) {
      ^bb0(%in: i1, %in_53: i1, %in_54: i1, %out: i1):
        %262 = math.absi %12 : tensor<9x7xi16>
        %inserted_55 = tensor.insert %cst_1 into %13[%c7, %c4] : tensor<9x7xf32>
        %263 = arith.divui %c1603447190_i32, %c1603447190_i32 : i32
        %264 = tensor.empty() : tensor<9xi64>
        %265 = index.sizeof
        %rank_56 = tensor.rank %3 : tensor<9x9xi1>
        %266 = arith.cmpf uge, %cst_1, %cst : f32
        %267 = math.roundeven %10 : tensor<9x7xf32>
        %268 = math.cos %cst_0 : f16
        %269 = memref.atomic_rmw addf %cst_1, %alloc[%c0, %c6] : (f32, memref<9x9xf32>) -> f32
        %270 = arith.cmpf oge, %cst_1, %cst_1 : f32
        %271 = vector.insertelement %cst_0, %254[%c8 : index] : vector<13xf16>
        %272 = vector.load %alloc_16[%c0, %c2] : memref<9x9xi1>, vector<7x7xi1>
        %273 = arith.addi %c1603447190_i32, %c384628122_i32 : i32
        %274 = arith.addi %c1416631668_i64, %c1416631668_i64 : i64
        %275 = affine.load %alloc_10[%c7, %c1] : memref<7x7xf32>
        %276 = arith.mulf %275, %cst_1 : f32
        %277 = math.log1p %13 : tensor<9x7xf32>
        %278 = vector.extract_strided_slice %252 {offsets = [5], sizes = [2], strides = [1]} : vector<7x7xi32> to vector<2x7xi32>
        %279 = affine.apply affine_map<(d0, d1, d2, d3) -> (d1 * -8)>(%c9, %c13, %arg2, %c8)
        %280 = bufferization.clone %alloc_13 : memref<7x7xi1> to memref<7x7xi1>
        %281 = arith.minf %cst_1, %cst : f32
        %282 = index.maxu %c10, %rank_56
        %283 = vector.broadcast %c-30369_i16 : i16 to vector<13xi16>
        %284 = vector.broadcast %out : i1 to vector<13xi1>
        %285 = vector.maskedload %alloc_14[%c7, %c6], %284, %283 : memref<9x9xi16>, vector<13xi1>, vector<13xi16> into vector<13xi16>
        %286 = vector.reduction <add>, %254 : vector<13xf16> into f16
        %287 = math.expm1 %2 : tensor<9x7xf16>
        %288 = vector.extract %272[4] : vector<7x7xi1>
        memref.store %c384628122_i32, %alloc_17[%c1, %c2] : memref<7x7xi32>
        %289 = arith.muli %c-29219_i16, %c-30369_i16 : i16
        bufferization.dealloc_tensor %5 : tensor<9xi1>
        %290 = math.log1p %2 : tensor<9x7xf16>
        %291 = index.sizeof
        linalg.yield %true : i1
      } -> tensor<9x7x1xi1>
      %261 = tensor.empty() : tensor<9x7xi1>
      scf.reduce(%261)  : tensor<9x7xi1> {
      ^bb0(%arg4: tensor<9x7xi1>, %arg5: tensor<9x7xi1>):
        %262 = math.round %7 : tensor<7x7xf16>
        %263 = math.cttz %arg4 : tensor<9x7xi1>
        %264 = math.exp2 %10 : tensor<9x7xf32>
        %265 = bufferization.clone %alloc_14 : memref<9x9xi16> to memref<9x9xi16>
        %266 = index.ceildivu %c9, %c8
        %267 = index.mul %c13, %c11
        %inserted_53 = tensor.insert %c1603447190_i32 into %14[%c6] : tensor<9xi32>
        %268 = index.add %c12, %c11
        %269 = tensor.empty() : tensor<9x7xi1>
        scf.reduce.return %269 : tensor<9x7xi1>
      }
      scf.yield
    }
    %20 = affine.vector_load %alloc_18[%c7] : memref<9xi16>, vector<13xi16>
    affine.vector_store %20, %alloc_18[%c15] : memref<9xi16>, vector<13xi16>
    %alloc_21 = memref.alloc() : memref<9xi1>
    %21 = tensor.empty() : tensor<i1>
    %22 = linalg.dot ins(%alloc_20, %alloc_21 : memref<9xi1>, memref<9xi1>) outs(%21 : tensor<i1>) -> tensor<i1>
    %23 = vector.broadcast %c10949_i16 : i16 to vector<13x7x13xi16>
    %24 = vector.broadcast %c10949_i16 : i16 to vector<13x13xi16>
    %dest, %accumulated_value = vector.scan <maxui>, %23, %24 {inclusive = true, reduction_dim = 1 : i64} : vector<13x7x13xi16>, vector<13x13xi16>
    memref.alloca_scope  {
      %246 = index.sizeof
      %alloc_50 = memref.alloc() : memref<9x7xf16>
      memref.tensor_store %2, %alloc_50 : memref<9x7xf16>
      affine.for %arg2 = 0 to 110 {
      }
      %247 = arith.remf %cst_3, %cst_0 : f16
      %248 = math.exp2 %cst_0 : f16
      %249 = arith.shrui %c17207_i16, %c17207_i16 : i16
      %250 = arith.maxsi %true_2, %true : i1
      %251 = arith.cmpf oeq, %cst, %cst_1 : f32
      %252 = vector.broadcast %c11 : index to vector<9xindex>
      %253 = vector.broadcast %true_2 : i1 to vector<9xi1>
      vector.scatter %alloc_13[%c2, %c4] [%252], %253, %253 : memref<7x7xi1>, vector<9xindex>, vector<9xi1>, vector<9xi1>
      %254 = vector.flat_transpose %20 {columns = 13 : i32, rows = 1 : i32} : vector<13xi16> -> vector<13xi16>
      %255 = vector.broadcast %c384628122_i32 : i32 to vector<i32>
      %256 = vector.transfer_write %255, %14[%c3] : vector<i32>, tensor<9xi32>
      %257 = arith.negf %cst_0 : f16
      %258 = index.maxu %c4, %c14
      %259 = vector.broadcast %c-29219_i16 : i16 to vector<i16>
      %260 = vector.transfer_write %259, %12[%c0, %258] : vector<i16>, tensor<9x7xi16>
      %true_51 = index.bool.constant true
      %261 = math.round %7 : tensor<7x7xf16>
      %262 = arith.divui %c10949_i16, %c-30369_i16 : i16
      %263 = vector.broadcast %cst_4 : f16 to vector<9x7xf16>
      %264 = vector.multi_reduction <mul>, %254, %c10949_i16 [0] : vector<13xi16> to i16
      %265 = arith.muli %c10949_i16, %c-29219_i16 : i16
      %266 = vector.multi_reduction <or>, %254, %254 [] : vector<13xi16> to vector<13xi16>
      %267 = vector.broadcast %264 : i16 to vector<13x13xi16>
      %268 = vector.outerproduct %20, %254, %267 {kind = #vector.kind<minui>} : vector<13xi16>, vector<13xi16>
      %269 = vector.broadcast %c-30369_i16 : i16 to vector<9xi16>
      %270 = vector.bitcast %269 : vector<9xi16> to vector<9xi16>
      %271 = index.casts %c9 : index to i32
      %272 = vector.matrix_multiply %270, %269 {lhs_columns = 9 : i32, lhs_rows = 1 : i32, rhs_columns = 1 : i32} : (vector<9xi16>, vector<9xi16>) -> vector<1xi16>
      %273 = math.log1p %10 : tensor<9x7xf32>
      %274 = index.ceildivs %c2, %c12
      %275 = arith.mulf %cst_0, %cst_3 : f16
      %extracted_52 = tensor.extract %12[%c5, %c3] : tensor<9x7xi16>
      %276 = tensor.empty() : tensor<9x7xi16>
      %mapped_53 = linalg.map ins(%12 : tensor<9x7xi16>) outs(%276 : tensor<9x7xi16>)
        (%in: i16) {
          %278 = math.expm1 %2 : tensor<9x7xf16>
          %false_54 = arith.constant false
          vector.print %254 : vector<13xi16>
          %279 = math.expm1 %13 : tensor<9x7xf32>
          %280 = vector.transpose %259, [] : vector<i16> to vector<i16>
          %281 = vector.shuffle %20, %20 [2, 5, 8, 11, 12, 15, 17, 20, 24, 25] : vector<13xi16>, vector<13xi16>
          %282 = index.mul %c12, %c7
          %283 = arith.addf %cst_4, %cst_3 : f16
          %alloc_55 = memref.alloc() : memref<9x7xi16>
          %284 = math.log2 %cst_4 : f16
          %285 = arith.maxsi %c384628122_i32, %c384628122_i32 : i32
          %286 = math.exp2 %2 : tensor<9x7xf16>
          %287 = vector.broadcast %cst_1 : f32 to vector<9x7xf32>
          %288 = vector.fma %287, %287, %287 : vector<9x7xf32>
          %289 = arith.addf %cst_1, %cst_1 : f32
          %290 = vector.extract_strided_slice %269 {offsets = [7], sizes = [2], strides = [1]} : vector<9xi16> to vector<2xi16>
          %291 = vector.broadcast %cst : f32 to vector<7xf32>
          %dest_56, %accumulated_value_57 = vector.scan <add>, %287, %291 {inclusive = true, reduction_dim = 0 : i64} : vector<9x7xf32>, vector<7xf32>
          memref.store %cst, %alloc_19[%c6, %c6] : memref<9x7xf32>
          %292 = arith.subi %c-30369_i16, %c10949_i16 : i16
          %293 = arith.remsi %c610206965_i32, %c610206965_i32 : i32
          %294 = memref.atomic_rmw andi %c384628122_i32, %alloc_9[%c2] : (i32, memref<9xi32>) -> i32
          %295 = arith.remui %c1416631668_i64, %c1321725939_i64 : i64
          %296 = arith.divui %true, %true : i1
          vector.print %254 : vector<13xi16>
          %297 = math.tan %13 : tensor<9x7xf32>
          %298 = vector.transpose %20, [0] : vector<13xi16> to vector<13xi16>
          memref.store %c610206965_i32, %alloc_17[%c5, %c2] : memref<7x7xi32>
          %299 = math.roundeven %cst_4 : f16
          memref.store %cst_1, %alloc_15[%c8, %c6] : memref<9x9xf32>
          %300 = vector.load %alloc_20[%c4] : memref<9xi1>, vector<9x7xi1>
          %301 = math.ctpop %c-29219_i16 : i16
          vector.print %259 : vector<i16>
          %302 = math.log %2 : tensor<9x7xf16>
          %c0_i16 = arith.constant 0 : i16
          linalg.yield %c0_i16 : i16
        }
      %277 = vector.extract %254[3] : vector<13xi16>
    }
    %25 = arith.shli %c1603447190_i32, %c1603447190_i32 : i32
    %26 = vector.extract %20[6] : vector<13xi16>
    %splat = tensor.splat %true_2 : tensor<9x7xi1>
    %27 = vector.multi_reduction <xor>, %20, %c-30369_i16 [0] : vector<13xi16> to i16
    %28 = memref.realloc %alloc_12 : memref<9xi32> to memref<9xi32>
    %29 = math.ctpop %16 : tensor<9xi1>
    %30 = vector.load %alloc_17[%c1, %c2] : memref<7x7xi32>, vector<9x7xi32>
    %31 = vector.transpose %20, [0] : vector<13xi16> to vector<13xi16>
    %32 = math.absi %c1321725939_i64 : i64
    %33 = math.cttz %6 : tensor<9x7xi32>
    %34 = arith.floordivsi %c1603447190_i32, %c384628122_i32 : i32
    %35 = math.floor %10 : tensor<9x7xf32>
    %36 = memref.realloc %alloc_21 : memref<9xi1> to memref<4xi1>
    %37 = index.ceildivu %c8, %c6
    %38 = vector.broadcast %c1321725939_i64 : i64 to vector<i64>
    %39 = vector.transfer_write %38, %4[%c6] : vector<i64>, tensor<9xi64>
    %40 = affine.for %arg2 = 0 to 62 iter_args(%arg3 = %alloc_20) -> (memref<9xi1>) {
      affine.yield %alloc_20 : memref<9xi1>
    }
    %41 = memref.alloca_scope  -> (memref<9xi64>) {
      %246 = index.ceildivs %c11, %c15
      %inserted_50 = tensor.insert %c1416631668_i64 into %4[%c8] : tensor<9xi64>
      %247 = vector.broadcast %c14 : index to vector<7xindex>
      %248 = vector.broadcast %true_2 : i1 to vector<7xi1>
      %249 = vector.broadcast %c610206965_i32 : i32 to vector<7xi32>
      vector.scatter %alloc_5[%c4, %c6] [%247], %248, %249 : memref<9x7xi32>, vector<7xindex>, vector<7xi1>, vector<7xi32>
      %250 = tensor.empty() : tensor<7x7xi32>
      %251 = math.fpowi %7, %250 : tensor<7x7xf16>, tensor<7x7xi32>
      %extracted_51 = tensor.extract %11[%c7, %c0] : tensor<9x7xi1>
      %alloc_52 = memref.alloc() : memref<9x7xi16>
      memref.tensor_store %12, %alloc_52 : memref<9x7xi16>
      %252 = vector.insertelement %c-29219_i16, %20[%c12 : index] : vector<13xi16>
      %253 = scf.index_switch %c13 -> index 
      case 1 {
        %280 = vector.insert %c17207_i16, %20 [0] : i16 into vector<13xi16>
        %281 = index.ceildivu %c8, %c5
        %282 = index.castu %c610206965_i32 : i32 to index
        %283 = arith.remf %cst_1, %cst_1 : f32
        memref.tensor_store %3, %alloc_16 : memref<9x9xi1>
        %284 = math.expm1 %10 : tensor<9x7xf32>
        %285 = affine.load %alloc[%c13, %c9] : memref<9x9xf32>
        %286 = arith.remf %cst_1, %cst : f32
        %287 = vector.insertelement %27, %20[%246 : index] : vector<13xi16>
        %288 = vector.insertelement %c1321725939_i64, %38[] : vector<i64>
        %289 = math.floor %10 : tensor<9x7xf32>
        %290 = vector.splat %c-29219_i16 : vector<7x7xi16>
        %291 = vector.shuffle %20, %20 [4, 5, 7, 8, 11, 16, 17, 20, 22, 24] : vector<13xi16>, vector<13xi16>
        %292 = math.absi %c10949_i16 : i16
        %293 = vector.broadcast %c1603447190_i32 : i32 to vector<7x7xi32>
        %294 = vector.broadcast %extracted_51 : i1 to vector<7x7xi1>
        %295 = vector.gather %250[%c4, %c2] [%293], %294, %293 : tensor<7x7xi32>, vector<7x7xi32>, vector<7x7xi1>, vector<7x7xi32> into vector<7x7xi32>
        %296 = arith.ceildivsi %c610206965_i32, %c1603447190_i32 : i32
        scf.yield %c11 : index
      }
      default {
        %expanded_55 = tensor.expand_shape %16 [[0, 1]] : tensor<9xi1> into tensor<9x1xi1>
        %280 = vector.reduction <mul>, %20 : vector<13xi16> into i16
        %281 = arith.floordivsi %c610206965_i32, %c1603447190_i32 : i32
        %282 = vector.broadcast %true_2 : i1 to vector<7xi1>
        %283 = vector.maskedload %alloc_20[%c5], %282, %282 : memref<9xi1>, vector<7xi1>, vector<7xi1> into vector<7xi1>
        %284 = arith.minf %cst, %cst_1 : f32
        %285 = arith.minsi %27, %c-30369_i16 : i16
        %286 = math.exp2 %2 : tensor<9x7xf16>
        %287 = vector.broadcast %c13 : index to vector<4xindex>
        %288 = vector.broadcast %extracted_51 : i1 to vector<4xi1>
        %289 = vector.broadcast %c610206965_i32 : i32 to vector<4xi32>
        vector.scatter %alloc_9[%c5] [%287], %288, %289 : memref<9xi32>, vector<4xindex>, vector<4xi1>, vector<4xi32>
        %290 = arith.minf %cst_4, %cst_0 : f16
        %291 = math.exp2 %2 : tensor<9x7xf16>
        %292 = bufferization.to_memref %7 : memref<7x7xf16>
        %293 = math.exp2 %cst_0 : f16
        %294 = arith.subi %27, %c10949_i16 : i16
        %295 = vector.matrix_multiply %282, %283 {lhs_columns = 7 : i32, lhs_rows = 1 : i32, rhs_columns = 1 : i32} : (vector<7xi1>, vector<7xi1>) -> vector<1xi1>
        %296 = vector.broadcast %37 : index to vector<7xindex>
        %297 = vector.broadcast %cst_1 : f32 to vector<7xf32>
        vector.scatter %alloc_15[%c3, %c1] [%296], %283, %297 : memref<9x9xf32>, vector<7xindex>, vector<7xi1>, vector<7xf32>
        %298 = vector.matrix_multiply %283, %282 {lhs_columns = 7 : i32, lhs_rows = 1 : i32, rhs_columns = 1 : i32} : (vector<7xi1>, vector<7xi1>) -> vector<1xi1>
        scf.yield %c15 : index
      }
      %254 = index.maxu %c5, %c15
      %255 = arith.andi %c1321725939_i64, %c1321725939_i64 : i64
      %256 = affine.load %alloc_18[%c4] : memref<9xi16>
      %257 = math.absf %cst_0 : f16
      %c0_i64 = arith.constant 0 : i64
      %258 = vector.transfer_read %1[%c3, %c8], %c0_i64 : tensor<9x7xi64>, vector<i64>
      %259 = index.sizeof
      %260 = bufferization.to_tensor %alloc_16 : memref<9x9xi1>
      %261 = vector.insertelement %c-30369_i16, %20[%c4 : index] : vector<13xi16>
      %262 = vector.broadcast %c4 : index to vector<9xindex>
      %263 = vector.broadcast %true : i1 to vector<9xi1>
      %264 = vector.broadcast %cst : f32 to vector<9xf32>
      vector.scatter %alloc_19[%c0, %c5] [%262], %263, %264 : memref<9x7xf32>, vector<9xindex>, vector<9xi1>, vector<9xf32>
      %265 = arith.maxsi %c17207_i16, %c17207_i16 : i16
      %266 = index.sub %c8, %c5
      %267 = math.ctlz %transposed : tensor<9xi64>
      %268 = vector.insertelement %c-29219_i16, %20[%c8 : index] : vector<13xi16>
      %269 = math.powf %2, %2 : tensor<9x7xf16>
      %extracted_53 = tensor.extract %1[%c2, %c2] : tensor<9x7xi64>
      %270 = arith.addf %cst_3, %cst_0 : f16
      %271 = bufferization.to_tensor %alloc_8 : memref<7x7xf16>
      %272 = math.ceil %2 : tensor<9x7xf16>
      %273 = vector.broadcast %true_2 : i1 to vector<7xi1>
      %274 = vector.maskedload %alloc_21[%c4], %273, %273 : memref<9xi1>, vector<7xi1>, vector<7xi1> into vector<7xi1>
      %275 = math.expm1 %cst : f32
      %276 = math.atan2 %7, %7 : tensor<7x7xf16>
      %277 = arith.divui %c-30369_i16, %27 : i16
      %278 = math.log10 %13 : tensor<9x7xf32>
      %279 = math.tan %cst_3 : f16
      %alloc_54 = memref.alloc() : memref<9xi64>
      memref.alloca_scope.return %alloc_54 : memref<9xi64>
    }
    %42 = math.ctlz %splat : tensor<9x7xi1>
    %43 = math.absf %10 : tensor<9x7xf32>
    %44 = arith.shrui %27, %c-29219_i16 : i16
    %45 = arith.addf %cst_0, %cst_3 : f16
    %46 = memref.realloc %41 : memref<9xi64> to memref<7xi64>
    %47 = arith.remsi %27, %27 : i16
    %48 = math.cttz %c384628122_i32 : i32
    %49 = vector.matrix_multiply %20, %20 {lhs_columns = 13 : i32, lhs_rows = 1 : i32, rhs_columns = 1 : i32} : (vector<13xi16>, vector<13xi16>) -> vector<1xi16>
    %50 = vector.broadcast %true_2 : i1 to vector<i1>
    %51 = vector.transfer_write %50, %splat[%c13, %c4] : vector<i1>, tensor<9x7xi1>
    %collapsed = tensor.collapse_shape %10 [[0, 1]] : tensor<9x7xf32> into tensor<63xf32>
    %rank = tensor.rank %transposed : tensor<9xi64>
    %true_22 = index.bool.constant true
    %52 = vector.extract %20[1] : vector<13xi16>
    %53 = math.exp2 %collapsed : tensor<63xf32>
    %54 = arith.floordivsi %true, %true_22 : i1
    %55 = math.roundeven %7 : tensor<7x7xf16>
    %56 = vector.broadcast %cst_3 : f16 to vector<9x9xf16>
    %57 = arith.addf %cst, %cst : f32
    %58 = index.casts %true_22 : i1 to index
    %true_23 = index.bool.constant true
    %59 = arith.negf %cst_4 : f16
    %60 = arith.negf %cst_3 : f16
    %61 = scf.index_switch %c15 -> vector<7x7xf32> 
    case 1 {
      %246 = vector.broadcast %cst_3 : f16 to vector<f16>
      vector.transfer_write %246, %alloc_8[%c4, %c1] : vector<f16>, memref<7x7xf16>
      %247 = arith.divui %c-29219_i16, %c-30369_i16 : i16
      %248 = arith.mulf %cst_3, %cst_4 : f16
      %249 = index.ceildivu %c12, %c5
      %250 = arith.ceildivsi %c-29219_i16, %27 : i16
      %251 = arith.shrui %c1416631668_i64, %c1321725939_i64 : i64
      %252 = index.sub %c2, %c3
      %extracted_50 = tensor.extract %1[%c4, %c4] : tensor<9x7xi64>
      %253 = index.sizeof
      %254 = arith.maxsi %c1321725939_i64, %c1416631668_i64 : i64
      %255 = math.cos %10 : tensor<9x7xf32>
      %256 = math.exp %cst : f32
      %257 = arith.cmpf une, %cst_0, %cst_3 : f16
      %258 = arith.cmpi sgt, %27, %27 : i16
      %259 = math.roundeven %cst_4 : f16
      %260 = arith.maxsi %27, %c17207_i16 : i16
      %261 = vector.broadcast %cst : f32 to vector<7x7xf32>
      scf.yield %261 : vector<7x7xf32>
    }
    case 2 {
      %246 = arith.minsi %c-30369_i16, %c-29219_i16 : i16
      %247 = math.copysign %13, %10 : tensor<9x7xf32>
      %248 = math.log %2 : tensor<9x7xf16>
      %249 = arith.ori %c17207_i16, %c-29219_i16 : i16
      %250 = vector.broadcast %c9 : index to vector<13xindex>
      %251 = vector.broadcast %true : i1 to vector<13xi1>
      %252 = vector.broadcast %c610206965_i32 : i32 to vector<13xi32>
      vector.scatter %alloc_12[%c8] [%250], %251, %252 : memref<9xi32>, vector<13xindex>, vector<13xi1>, vector<13xi32>
      %253 = vector.broadcast %c6 : index to vector<13xindex>
      %254 = vector.broadcast %true : i1 to vector<13xi1>
      vector.scatter %alloc_13[%c4, %c6] [%253], %254, %254 : memref<7x7xi1>, vector<13xindex>, vector<13xi1>, vector<13xi1>
      %255 = vector.insertelement %c1321725939_i64, %38[] : vector<i64>
      %256 = arith.divf %cst_1, %cst_1 : f32
      %true_50 = index.bool.constant true
      %257 = vector.broadcast %c1416631668_i64 : i64 to vector<9x9xi64>
      %258 = vector.broadcast %true : i1 to vector<9x9xi1>
      %259 = vector.broadcast %c1603447190_i32 : i32 to vector<9x9xi32>
      %260 = vector.gather %41[%c10] [%259], %258, %257 : memref<9xi64>, vector<9x9xi32>, vector<9x9xi1>, vector<9x9xi64> into vector<9x9xi64>
      %261 = vector.matrix_multiply %49, %20 {lhs_columns = 1 : i32, lhs_rows = 1 : i32, rhs_columns = 13 : i32} : (vector<1xi16>, vector<13xi16>) -> vector<13xi16>
      %262 = arith.addi %c-29219_i16, %c-29219_i16 : i16
      %263 = math.log %cst_1 : f32
      %inserted_51 = tensor.insert %c1321725939_i64 into %1[%c0, %c0] : tensor<9x7xi64>
      %264 = vector.load %41[%c1] : memref<9xi64>, vector<9x9xi64>
      %265 = memref.realloc %alloc_21 : memref<9xi1> to memref<7xi1>
      %266 = vector.broadcast %cst_1 : f32 to vector<7x7xf32>
      scf.yield %266 : vector<7x7xf32>
    }
    default {
      %246 = arith.divf %cst_3, %cst_0 : f16
      %247 = math.copysign %cst_0, %cst_4 : f16
      %248 = vector.shuffle %56, %56 [0, 3, 4, 9, 10, 17] : vector<9x9xf16>, vector<9x9xf16>
      %249 = vector.load %alloc_20[%c5] : memref<9xi1>, vector<9x9xi1>
      %250 = vector.bitcast %30 : vector<9x7xi32> to vector<9x7xi32>
      %251 = index.add %c8, %c15
      %252 = vector.transpose %49, [0] : vector<1xi16> to vector<1xi16>
      %253 = vector.broadcast %cst : f32 to vector<9x7xf32>
      %254 = vector.fma %253, %253, %253 : vector<9x7xf32>
      %255 = math.copysign %10, %10 : tensor<9x7xf32>
      %256 = vector.bitcast %49 : vector<1xi16> to vector<1xi16>
      %257 = arith.xori %c17207_i16, %c-30369_i16 : i16
      %258 = arith.andi %c-29219_i16, %c17207_i16 : i16
      %259 = math.roundeven %cst : f32
      %260 = bufferization.to_tensor %alloc_16 : memref<9x9xi1>
      %261 = arith.remf %cst, %cst_1 : f32
      %262 = index.maxu %c1, %251
      %263 = vector.broadcast %cst_1 : f32 to vector<7x7xf32>
      scf.yield %263 : vector<7x7xf32>
    }
    %62 = vector.broadcast %c17207_i16 : i16 to vector<1x1xi16>
    %63 = vector.outerproduct %49, %49, %62 {kind = #vector.kind<maxsi>} : vector<1xi16>, vector<1xi16>
    %64 = arith.muli %c384628122_i32, %c384628122_i32 : i32
    %65 = index.add %c12, %c5
    %66 = math.roundeven %2 : tensor<9x7xf16>
    %67 = index.divu %c5, %c14
    %68 = bufferization.clone %41 : memref<9xi64> to memref<9xi64>
    bufferization.dealloc_tensor %12 : tensor<9x7xi16>
    %69 = math.expm1 %7 : tensor<7x7xf16>
    %70 = vector.broadcast %true_23 : i1 to vector<9xi1>
    %71 = vector.maskedload %alloc_20[%c6], %70, %70 : memref<9xi1>, vector<9xi1>, vector<9xi1> into vector<9xi1>
    %72 = scf.execute_region -> memref<9xi1> {
      %246 = arith.divf %cst_1, %cst_1 : f32
      %247 = vector.extract %30[2] : vector<9x7xi32>
      %248 = affine.for %arg2 = 0 to 124 iter_args(%arg3 = %8) -> (tensor<9x7xi64>) {
        affine.yield %1 : tensor<9x7xi64>
      }
      %false_50 = index.bool.constant false
      %249 = arith.cmpf ugt, %cst_0, %cst_0 : f16
      %250 = math.roundeven %7 : tensor<7x7xf16>
      %251 = tensor.empty() : tensor<9xi1>
      %mapped_51 = linalg.map ins(%alloc_21, %16, %alloc_7 : memref<9xi1>, tensor<9xi1>, memref<9xi1>) outs(%251 : tensor<9xi1>)
        (%in: i1, %in_53: i1, %in_54: i1) {
          %260 = vector.broadcast %c610206965_i32 : i32 to vector<9xi32>
          %dest_55, %accumulated_value_56 = vector.scan <mul>, %30, %260 {inclusive = false, reduction_dim = 1 : i64} : vector<9x7xi32>, vector<9xi32>
          %261 = math.ctlz %splat : tensor<9x7xi1>
          %262 = vector.extract %70[8] : vector<9xi1>
          %263 = affine.min affine_map<(d0, d1, d2, d3) -> (d2 + d0, d3 ceildiv 2 + 1, d3 ceildiv 2 - 64)>(%c4, %c0, %37, %c7)
          %264 = arith.minf %cst, %cst_1 : f32
          %265 = vector.load %alloc_13[%c6, %c0] : memref<7x7xi1>, vector<9xi1>
          %266 = arith.negf %cst_0 : f16
          %267 = arith.shrui %27, %c10949_i16 : i16
          %268 = arith.remsi %true_2, %false_50 : i1
          %269 = index.sub %c4, %263
          %270 = arith.ceildivsi %c384628122_i32, %c610206965_i32 : i32
          %271 = vector.insert %c17207_i16, %20 [11] : i16 into vector<13xi16>
          %alloc_57 = memref.alloc() : memref<9xi16>
          %272 = index.sizeof
          %273 = vector.insert %c384628122_i32, %247 [5] : i32 into vector<7xi32>
          %274 = arith.mulf %cst_3, %cst_4 : f16
          %cst_58 = arith.constant 1.000000e+00 : f32
          %275 = vector.transfer_read %10[%c4, %c12], %cst_58 : tensor<9x7xf32>, vector<f32>
          %276 = math.roundeven %collapsed : tensor<63xf32>
          %277 = math.floor %cst_4 : f16
          %278 = arith.remf %cst_4, %cst_3 : f16
          %rank_59 = tensor.rank %7 : tensor<7x7xf16>
          %279 = vector.transpose %247, [0] : vector<7xi32> to vector<7xi32>
          %280 = arith.remsi %c10949_i16, %c-29219_i16 : i16
          %true_60 = arith.constant true
          %281 = math.ipowi %c1603447190_i32, %c384628122_i32 : i32
          %282 = bufferization.clone %alloc_21 : memref<9xi1> to memref<9xi1>
          %283 = math.copysign %cst_4, %cst_4 : f16
          %284 = vector.broadcast %cst_58 : f32 to vector<9x9xf32>
          %285 = vector.fma %284, %284, %284 : vector<9x9xf32>
          %286 = arith.divui %true, %true_22 : i1
          %287 = index.casts %c1416631668_i64 : i64 to index
          %288 = vector.transpose %30, [1, 0] : vector<9x7xi32> to vector<7x9xi32>
          %289 = vector.bitcast %70 : vector<9xi1> to vector<9xi1>
          %true_61 = arith.constant true
          linalg.yield %true_61 : i1
        }
      %252 = arith.maxf %cst_4, %cst_4 : f16
      %253 = affine.load %alloc_5[%c1, %c5] : memref<9x7xi32>
      %254 = vector.bitcast %20 : vector<13xi16> to vector<13xi16>
      %255 = arith.shrsi %c10949_i16, %c17207_i16 : i16
      %256 = math.exp %10 : tensor<9x7xf32>
      %generated_52 = tensor.generate %c14, %c13 {
      ^bb0(%arg2: index, %arg3: index):
        %260 = vector.bitcast %71 : vector<9xi1> to vector<9xi1>
        %261 = arith.remf %cst_3, %cst_4 : f16
        %262 = math.roundeven %7 : tensor<7x7xf16>
        %true_53 = index.bool.constant true
        tensor.yield %true : i1
      } : tensor<?x?xi1>
      %257 = math.cttz %true_2 : i1
      %258 = math.tan %cst_0 : f16
      %259 = index.maxu %65, %rank
      scf.yield %alloc_7 : memref<9xi1>
    }
    %expanded = tensor.expand_shape %1 [[0], [1, 2]] : tensor<9x7xi64> into tensor<9x7x1xi64>
    %alloc_24 = memref.alloc() : memref<7x7xi32>
    memref.copy %alloc_17, %alloc_24 : memref<7x7xi32> to memref<7x7xi32>
    %73 = math.cttz %c17207_i16 : i16
    %74 = math.sqrt %7 : tensor<7x7xf16>
    %false = index.bool.constant false
    %75 = vector.broadcast %c10949_i16 : i16 to vector<1x1xi16>
    %76 = vector.outerproduct %49, %49, %75 {kind = #vector.kind<add>} : vector<1xi16>, vector<1xi16>
    %rank_25 = tensor.rank %6 : tensor<9x7xi32>
    %77 = linalg.generic {indexing_maps = [affine_map<(d0, d1, d2) -> (d0, d1, d2)>], iterator_types = ["parallel", "parallel", "parallel"]} outs(%expanded : tensor<9x7x1xi64>) {
    ^bb0(%out: i64):
      %246 = vector.bitcast %56 : vector<9x9xf16> to vector<9x9xf16>
      %true_50 = arith.constant true
      %247 = affine.load %alloc_16[%c11, %c3] : memref<9x9xi1>
      %248 = bufferization.to_tensor %alloc_19 : memref<9x7xf32>
      %249 = vector.insertelement %out, %38[] : vector<i64>
      %250 = vector.broadcast %c17207_i16 : i16 to vector<9x7xi16>
      %251 = vector.load %alloc_15[%c8, %c2] : memref<9x9xf32>, vector<7x7xf32>
      %252 = arith.addf %cst_4, %cst_0 : f16
      %253 = arith.mulf %cst_3, %cst_4 : f16
      memref.assume_alignment %alloc_5, 2 : memref<9x7xi32>
      %254 = vector.broadcast %247 : i1 to vector<i1>
      %255 = vector.transfer_write %254, %16[%c1] : vector<i1>, tensor<9xi1>
      %256 = vector.broadcast %true_22 : i1 to vector<7xi1>
      %257 = vector.maskedload %alloc_20[%c5], %256, %256 : memref<9xi1>, vector<7xi1>, vector<7xi1> into vector<7xi1>
      %258 = vector.broadcast %cst_1 : f32 to vector<f32>
      vector.transfer_write %258, %alloc_19[%37, %c5] : vector<f32>, memref<9x7xf32>
      %259 = arith.maxf %cst_3, %cst_0 : f16
      %260 = vector.flat_transpose %256 {columns = 7 : i32, rows = 1 : i32} : vector<7xi1> -> vector<7xi1>
      %true_51 = index.bool.constant true
      %261 = tensor.empty() : tensor<9x7xi64>
      %262 = vector.extract %256[2] : vector<7xi1>
      %collapsed_52 = tensor.collapse_shape %13 [[0, 1]] : tensor<9x7xf32> into tensor<63xf32>
      %263 = math.tan %cst_3 : f16
      %264 = index.add %37, %c3
      %265 = index.ceildivu %rank_25, %c6
      %266 = arith.xori %true, %false : i1
      affine.store %cst_1, %alloc[%c4, %c1] : memref<9x9xf32>
      %267 = arith.shrsi %true_51, %true : i1
      %alloc_53 = memref.alloc() : memref<9x7xf16>
      memref.assume_alignment %alloc_20, 1 : memref<9xi1>
      %268 = memref.realloc %68 : memref<9xi64> to memref<13xi64>
      %269 = arith.floordivsi %c610206965_i32, %c384628122_i32 : i32
      %alloca = memref.alloca() : memref<9x9xi64>
      %270 = arith.divui %247, %true : i1
      %271 = math.log1p %cst_3 : f16
      linalg.yield %c1321725939_i64 : i64
    } -> tensor<9x7x1xi64>
    %cst_26 = arith.constant 1.43915533E+9 : f32
    affine.store %false, %alloc_21[%c5] : memref<9xi1>
    %78 = scf.while (%arg2 = %c1321725939_i64) : (i64) -> i64 {
      %246 = math.exp2 %13 : tensor<9x7xf32>
      scf.execute_region {
        %250 = index.sub %c10, %c6
        %251 = math.floor %7 : tensor<7x7xf16>
        %252 = math.expm1 %7 : tensor<7x7xf16>
        %253 = index.add %c3, %65
        %254 = math.exp2 %collapsed : tensor<63xf32>
        %255 = vector.insertelement %27, %49[%250 : index] : vector<1xi16>
        %256 = vector.broadcast %false : i1 to vector<9x9xi1>
        %257 = vector.outerproduct %71, %70, %256 {kind = #vector.kind<xor>} : vector<9xi1>, vector<9xi1>
        bufferization.dealloc_tensor %3 : tensor<9x9xi1>
        %258 = arith.divui %c1416631668_i64, %arg2 : i64
        vector.print %71 : vector<9xi1>
        %259 = arith.maxui %c610206965_i32, %c1603447190_i32 : i32
        %260 = arith.shrsi %true, %false : i1
        %261 = arith.addf %cst_0, %cst_4 : f16
        %262 = vector.extract_strided_slice %56 {offsets = [2], sizes = [6], strides = [1]} : vector<9x9xf16> to vector<6x9xf16>
        %263 = math.floor %7 : tensor<7x7xf16>
        %collapsed_52 = tensor.collapse_shape %splat [[0, 1]] : tensor<9x7xi1> into tensor<63xi1>
        scf.yield
      }
      affine.store %c610206965_i32, %alloc_9[%c12] : memref<9xi32>
      %generated_50 = tensor.generate %37 {
      ^bb0(%arg3: index, %arg4: index):
        %250 = math.expm1 %7 : tensor<7x7xf16>
        memref.store %c610206965_i32, %alloc_6[%c0] : memref<9xi32>
        %251 = vector.broadcast %cst_1 : f32 to vector<7x7xf32>
        %252 = vector.fma %251, %251, %251 : vector<7x7xf32>
        %expanded_52 = tensor.expand_shape %9 [[0, 1]] : tensor<9xi32> into tensor<9x1xi32>
        tensor.yield %c10949_i16 : i16
      } : tensor<?x7xi16>
      %inserted_51 = tensor.insert %true_2 into %17[%c2] : tensor<9xi1>
      %247 = affine.load %72[%c9] : memref<9xi1>
      %248 = vector.broadcast %c610206965_i32 : i32 to vector<9x7xi32>
      %249 = vector.extract %56[5] : vector<9x9xf16>
      scf.condition(%true_23) %c1416631668_i64 : i64
    } do {
    ^bb0(%arg2: i64):
      %246 = arith.divf %cst_0, %cst_4 : f16
      %collapsed_50 = tensor.collapse_shape %6 [[0, 1]] : tensor<9x7xi32> into tensor<63xi32>
      %247 = vector.broadcast %cst : f32 to vector<7x7xf32>
      %248 = vector.fma %247, %247, %247 : vector<7x7xf32>
      %249 = vector.broadcast %cst_1 : f32 to vector<7xf32>
      %250 = vector.insert %249, %247 [6] : vector<7xf32> into vector<7x7xf32>
      %251 = arith.shrsi %arg2, %c1321725939_i64 : i64
      %252 = index.sub %c8, %37
      %253 = vector.broadcast %true_23 : i1 to vector<9x9xi1>
      %254 = vector.outerproduct %71, %71, %253 {kind = #vector.kind<add>} : vector<9xi1>, vector<9xi1>
      %255 = math.exp2 %cst_0 : f16
      %cst_51 = arith.constant 3.027200e+04 : f16
      %256 = index.casts %rank_25 : index to i32
      %257 = index.divu %c6, %c0
      %258 = vector.insertelement %false, %71[%58 : index] : vector<9xi1>
      %259 = index.maxu %c1, %rank
      %260 = tensor.empty(%c15, %c0) : tensor<?x?xf16>
      %261 = bufferization.clone %41 : memref<9xi64> to memref<9xi64>
      %262 = index.ceildivs %c8, %259
      scf.yield %c1416631668_i64 : i64
    }
    %79 = memref.atomic_rmw addf %cst_0, %alloc_8[%c1, %c4] : (f16, memref<7x7xf16>) -> f16
    %80 = bufferization.clone %alloc_10 : memref<7x7xf32> to memref<7x7xf32>
    %81 = math.roundeven %cst_0 : f16
    %82 = linalg.generic {indexing_maps = [affine_map<(d0, d1, d2) -> (d0, d1, d2)>], iterator_types = ["parallel", "parallel", "parallel"]} outs(%expanded : tensor<9x7x1xi64>) {
    ^bb0(%out: i64):
      %246 = math.cttz %22 : tensor<i1>
      %splat_50 = tensor.splat %cst_0 : tensor<9x9xf16>
      %247 = math.log %13 : tensor<9x7xf32>
      %248 = math.cttz %21 : tensor<i1>
      %249 = arith.ceildivsi %out, %c1416631668_i64 : i64
      %250 = arith.ori %true_2, %true_23 : i1
      %251 = index.sizeof
      %252 = arith.mulf %cst_3, %cst_0 : f16
      %253 = memref.alloca_scope  -> (memref<9x7xi32>) {
        %275 = index.mul %c7, %rank
        %276 = arith.shrui %c-30369_i16, %c-30369_i16 : i16
        %277 = memref.atomic_rmw mins %c1416631668_i64, %41[%c6] : (i64, memref<9xi64>) -> i64
        memref.assume_alignment %68, 4 : memref<9xi64>
        %278 = arith.muli %out, %c1416631668_i64 : i64
        memref.assume_alignment %68, 1 : memref<9xi64>
        %279 = math.log1p %7 : tensor<7x7xf16>
        %280 = vector.broadcast %cst : f32 to vector<9x9xf32>
        %281 = vector.fma %280, %280, %280 : vector<9x9xf32>
        %282 = vector.broadcast %c1603447190_i32 : i32 to vector<i32>
        vector.transfer_write %282, %alloc_12[%c1] : vector<i32>, memref<9xi32>
        %283 = arith.maxf %cst_3, %cst_3 : f16
        %alloc_52 = memref.alloc() : memref<7x7xf32>
        %alloc_53 = memref.alloc() : memref<9xi32>
        affine.store %cst_1, %alloc[%c5, %c7] : memref<9x9xf32>
        %284 = arith.ori %c384628122_i32, %c1603447190_i32 : i32
        %285 = arith.negf %cst_4 : f16
        %286 = index.casts %c610206965_i32 : i32 to index
        %287 = bufferization.clone %alloc_8 : memref<7x7xf16> to memref<7x7xf16>
        %288 = math.exp %10 : tensor<9x7xf32>
        %289 = vector.contract {indexing_maps = [affine_map<(d0, d1, d2) -> (d2, d0)>, affine_map<(d0, d1, d2) -> (d2, d1)>, affine_map<(d0, d1, d2) -> (d0, d1)>], iterator_types = ["parallel", "parallel", "reduction"], kind = #vector.kind<add>} %56, %56, %56 : vector<9x9xf16>, vector<9x9xf16> into vector<9x9xf16>
        %cast = tensor.cast %7 : tensor<7x7xf16> to tensor<?x?xf16>
        %290 = arith.addi %true_23, %true_23 : i1
        %291 = vector.insert %true_2, %70 [4] : i1 into vector<9xi1>
        %292 = vector.matrix_multiply %71, %70 {lhs_columns = 9 : i32, lhs_rows = 1 : i32, rhs_columns = 1 : i32} : (vector<9xi1>, vector<9xi1>) -> vector<1xi1>
        %293 = index.divu %37, %251
        %294 = bufferization.to_tensor %alloc_14 : memref<9x9xi16>
        %295 = vector.broadcast %cst_1 : f32 to vector<9x9xf32>
        %296 = vector.fma %295, %295, %295 : vector<9x9xf32>
        %297 = vector.extract_strided_slice %281 {offsets = [6], sizes = [1], strides = [1]} : vector<9x9xf32> to vector<1x9xf32>
        %298 = vector.broadcast %c-30369_i16 : i16 to vector<13x13xi16>
        %299 = vector.outerproduct %20, %20, %298 {kind = #vector.kind<minsi>} : vector<13xi16>, vector<13xi16>
        %300 = memref.realloc %alloc_18 : memref<9xi16> to memref<13xi16>
        %301 = arith.remf %cst, %cst : f32
        %302 = index.divu %251, %251
        %303 = tensor.empty() : tensor<9x7xf32>
        memref.alloca_scope.return %alloc_5 : memref<9x7xi32>
      }
      %254 = math.log %7 : tensor<7x7xf16>
      %255 = arith.addf %cst, %cst_1 : f32
      %256 = bufferization.to_memref %7 : memref<7x7xf16>
      %257 = arith.negf %cst_1 : f32
      %258 = math.tan %cst_4 : f16
      affine.for %arg2 = 0 to 54 {
      }
      %259 = memref.atomic_rmw maxu %c1603447190_i32, %alloc_6[%c3] : (i32, memref<9xi32>) -> i32
      %260 = vector.broadcast %37 : index to vector<13xindex>
      %261 = vector.broadcast %true_2 : i1 to vector<13xi1>
      vector.scatter %72[%c7] [%260], %261, %261 : memref<9xi1>, vector<13xindex>, vector<13xi1>, vector<13xi1>
      %262 = math.powf %cst, %cst : f32
      %263 = index.casts %c610206965_i32 : i32 to index
      %264 = linalg.generic {indexing_maps = [affine_map<(d0, d1, d2) -> (d0, d1, d2)>], iterator_types = ["parallel", "parallel", "parallel"]} outs(%expanded : tensor<9x7x1xi64>) {
      ^bb0(%out_52: i64):
        %275 = index.ceildivu %67, %c15
        %276 = vector.broadcast %c10949_i16 : i16 to vector<13x13xi16>
        %277 = vector.outerproduct %20, %20, %276 {kind = #vector.kind<minsi>} : vector<13xi16>, vector<13xi16>
        %278 = affine.apply affine_map<(d0) -> (d0 + 1)>(%251)
        %279 = math.powf %cst_1, %cst : f32
        %280 = vector.contract {indexing_maps = [affine_map<(d0) -> (d0)>, affine_map<(d0) -> (d0)>, affine_map<(d0) -> ()>], iterator_types = ["reduction"], kind = #vector.kind<minui>} %49, %49, %c-30369_i16 : vector<1xi16>, vector<1xi16> into i16
        %rank_53 = tensor.rank %splat_50 : tensor<9x9xf16>
        %281 = vector.broadcast %cst : f32 to vector<9x9xf32>
        %282 = vector.fma %281, %281, %281 : vector<9x9xf32>
        %283 = arith.divf %cst_1, %cst_1 : f32
        %284 = math.absi %3 : tensor<9x9xi1>
        %285 = math.log1p %2 : tensor<9x7xf16>
        %286 = math.exp %collapsed : tensor<63xf32>
        %287 = vector.insertelement %c10949_i16, %49[%275 : index] : vector<1xi16>
        %288 = arith.floordivsi %c-29219_i16, %c10949_i16 : i16
        %289 = index.add %c4, %275
        %290 = index.divu %c8, %c1
        %291 = math.floor %cst_4 : f16
        %292 = arith.shrsi %c-30369_i16, %27 : i16
        %293 = vector.flat_transpose %49 {columns = 1 : i32, rows = 1 : i32} : vector<1xi16> -> vector<1xi16>
        %294 = arith.shrui %c1416631668_i64, %c1321725939_i64 : i64
        %295 = vector.extract %56[0] : vector<9x9xf16>
        %296 = math.fpowi %2, %6 : tensor<9x7xf16>, tensor<9x7xi32>
        %297 = arith.divsi %true_23, %true_23 : i1
        %298 = math.copysign %cst_3, %cst_0 : f16
        %299 = arith.maxf %cst, %cst : f32
        %300 = math.tanh %10 : tensor<9x7xf32>
        %301 = math.tanh %2 : tensor<9x7xf16>
        %302 = vector.reduction <minui>, %293 : vector<1xi16> into i16
        vector.print %281 : vector<9x9xf32>
        %303 = math.copysign %10, %10 : tensor<9x7xf32>
        %304 = arith.ceildivsi %c-30369_i16, %c10949_i16 : i16
        %305 = arith.remf %cst_4, %cst_0 : f16
        %306 = vector.contract {indexing_maps = [affine_map<(d0, d1) -> (d1)>, affine_map<(d0, d1) -> (d1, d0)>, affine_map<(d0, d1) -> (d0)>], iterator_types = ["parallel", "reduction"], kind = #vector.kind<minf>} %295, %56, %295 : vector<9xf16>, vector<9x9xf16> into vector<9xf16>
        linalg.yield %out : i64
      } -> tensor<9x7x1xi64>
      %265 = vector.flat_transpose %49 {columns = 1 : i32, rows = 1 : i32} : vector<1xi16> -> vector<1xi16>
      %266 = math.sqrt %2 : tensor<9x7xf16>
      %267 = math.tan %splat_50 : tensor<9x9xf16>
      %c-19712_i16 = arith.constant -19712 : i16
      %268 = arith.cmpi sge, %true_23, %true_2 : i1
      %269 = vector.multi_reduction <add>, %49, %c17207_i16 [0] : vector<1xi16> to i16
      %270 = linalg.generic {indexing_maps = [affine_map<(d0, d1, d2) -> (d0, d1, d2)>], iterator_types = ["parallel", "parallel", "parallel"]} outs(%expanded : tensor<9x7x1xi64>) {
      ^bb0(%out_52: i64):
        %275 = vector.extract_strided_slice %265 {offsets = [0], sizes = [1], strides = [1]} : vector<1xi16> to vector<1xi16>
        %276 = vector.broadcast %cst_3 : f16 to vector<9x9xf16>
        %277 = arith.shrsi %c-29219_i16, %c-29219_i16 : i16
        %alloc_53 = memref.alloc() : memref<9x7xi16>
        bufferization.dealloc_tensor %22 : tensor<i1>
        %alloc_54 = memref.alloc() : memref<7x7xf32>
        %expanded_55 = tensor.expand_shape %splat_50 [[0], [1, 2]] : tensor<9x9xf16> into tensor<9x9x1xf16>
        %278 = arith.floordivsi %c384628122_i32, %c1603447190_i32 : i32
        %279 = bufferization.to_tensor %80 : memref<7x7xf32>
        %280 = arith.mulf %cst_1, %cst_1 : f32
        %281 = vector.load %253[%c2, %c4] : memref<9x7xi32>, vector<9x9xi32>
        %rank_56 = tensor.rank %8 : tensor<9x7xi64>
        %282 = math.cttz %true : i1
        %283 = vector.broadcast %65 : index to vector<9xindex>
        %284 = vector.broadcast %cst_1 : f32 to vector<9xf32>
        vector.scatter %alloc_19[%c6, %c6] [%283], %71, %284 : memref<9x7xf32>, vector<9xindex>, vector<9xi1>, vector<9xf32>
        %285 = arith.negf %cst_3 : f16
        %286 = arith.remf %cst, %cst : f32
        %extracted_57 = tensor.extract %9[%c0] : tensor<9xi32>
        %287 = arith.negf %cst_1 : f32
        %288 = affine.load %80[%c4, %c9] : memref<7x7xf32>
        %289 = math.log10 %279 : tensor<7x7xf32>
        %290 = arith.ori %c-30369_i16, %c-29219_i16 : i16
        %291 = math.absf %279 : tensor<7x7xf32>
        %292 = math.exp2 %expanded_55 : tensor<9x9x1xf16>
        %293 = vector.insertelement %c10949_i16, %275[%c14 : index] : vector<1xi16>
        %294 = index.sub %c11, %c1
        %295 = index.sub %263, %c5
        %296 = index.ceildivs %c7, %c0
        %297 = vector.multi_reduction <minsi>, %281, %281 [] : vector<9x9xi32> to vector<9x9xi32>
        affine.store %c384628122_i32, %alloc_6[%c10] : memref<9xi32>
        %298 = arith.mulf %cst_4, %cst_4 : f16
        %299 = vector.extract_strided_slice %49 {offsets = [0], sizes = [1], strides = [1]} : vector<1xi16> to vector<1xi16>
        bufferization.dealloc_tensor %5 : tensor<9xi1>
        linalg.yield %out_52 : i64
      } -> tensor<9x7x1xi64>
      %271 = math.ipowi %17, %16 : tensor<9xi1>
      %272 = index.sizeof
      %273 = math.ceil %cst_0 : f16
      %274 = vector.broadcast %cst_3 : f16 to vector<f16>
      vector.transfer_write %274, %256[%c15, %c14] : vector<f16>, memref<7x7xf16>
      %collapsed_51 = tensor.collapse_shape %11 [[0, 1]] : tensor<9x7xi1> into tensor<63xi1>
      linalg.yield %c1416631668_i64 : i64
    } -> tensor<9x7x1xi64>
    %83 = math.floor %collapsed : tensor<63xf32>
    %from_elements = tensor.from_elements %c1416631668_i64, %c1321725939_i64, %c1321725939_i64, %c1321725939_i64, %c1321725939_i64, %c1321725939_i64, %c1416631668_i64, %c1321725939_i64, %c1416631668_i64, %c1416631668_i64, %c1416631668_i64, %c1321725939_i64, %c1321725939_i64, %c1321725939_i64, %c1321725939_i64, %c1321725939_i64, %c1416631668_i64, %c1416631668_i64, %c1416631668_i64, %c1416631668_i64, %c1321725939_i64, %c1416631668_i64, %c1321725939_i64, %c1321725939_i64, %c1321725939_i64, %c1321725939_i64, %c1416631668_i64, %c1321725939_i64, %c1321725939_i64, %c1321725939_i64, %c1321725939_i64, %c1321725939_i64, %c1416631668_i64, %c1321725939_i64, %c1321725939_i64, %c1416631668_i64, %c1321725939_i64, %c1321725939_i64, %c1321725939_i64, %c1321725939_i64, %c1321725939_i64, %c1321725939_i64, %c1321725939_i64, %c1416631668_i64, %c1416631668_i64, %c1416631668_i64, %c1321725939_i64, %c1321725939_i64, %c1416631668_i64, %c1321725939_i64, %c1321725939_i64, %c1321725939_i64, %c1321725939_i64, %c1416631668_i64, %c1416631668_i64, %c1321725939_i64, %c1416631668_i64, %c1416631668_i64, %c1416631668_i64, %c1321725939_i64, %c1321725939_i64, %c1321725939_i64, %c1416631668_i64, %c1321725939_i64, %c1416631668_i64, %c1416631668_i64, %c1416631668_i64, %c1416631668_i64, %c1416631668_i64, %c1321725939_i64, %c1321725939_i64, %c1416631668_i64, %c1321725939_i64, %c1321725939_i64, %c1321725939_i64, %c1321725939_i64, %c1416631668_i64, %c1321725939_i64, %c1321725939_i64, %c1321725939_i64, %c1416631668_i64 : tensor<9x9xi64>
    %84 = vector.shuffle %50, %50 [0, 1] : vector<i1>, vector<i1>
    %85 = math.cttz %4 : tensor<9xi64>
    %86 = arith.shrui %c1416631668_i64, %c1321725939_i64 : i64
    %alloc_27 = memref.alloc() : memref<9x9xi64>
    bufferization.dealloc_tensor %2 : tensor<9x7xf16>
    %87 = arith.remf %cst_4, %cst_3 : f16
    %88 = memref.realloc %alloc_6 : memref<9xi32> to memref<7xi32>
    %alloc_28 = memref.alloc() : memref<9x7xf32>
    %89 = arith.remf %cst_0, %cst_0 : f16
    %90 = vector.broadcast %cst : f32 to vector<9x9xf32>
    %91 = vector.fma %90, %90, %90 : vector<9x9xf32>
    %92 = index.ceildivu %c9, %c15
    %93 = arith.maxsi %c10949_i16, %c17207_i16 : i16
    %94 = math.powf %13, %13 : tensor<9x7xf32>
    %95 = index.add %92, %c0
    %expanded_29 = tensor.expand_shape %3 [[0], [1, 2]] : tensor<9x9xi1> into tensor<9x9x1xi1>
    %96 = arith.addi %c1416631668_i64, %c1321725939_i64 : i64
    %97 = math.tan %13 : tensor<9x7xf32>
    %98 = affine.if affine_set<(d0, d1, d2, d3) : (0 == 0)>(%c13, %c7, %c7, %c6) -> f16 {
      %246 = math.tan %cst_1 : f32
      %247 = math.log10 %collapsed : tensor<63xf32>
      %generated_50 = tensor.generate %c13, %c13 {
      ^bb0(%arg2: index, %arg3: index):
        %249 = index.divu %arg2, %arg2
        %250 = math.fpowi %cst_1, %c610206965_i32 : f32, i32
        %true_52 = index.bool.constant true
        %extracted_53 = tensor.extract %17[%c4] : tensor<9xi1>
        tensor.yield %c1603447190_i32 : i32
      } : tensor<?x?xi32>
      scf.index_switch %c4 
      case 1 {
        %rank_52 = tensor.rank %7 : tensor<7x7xf16>
        %249 = index.add %37, %c10
        %250 = vector.broadcast %true_23 : i1 to vector<9x9xi1>
        %251 = math.floor %10 : tensor<9x7xf32>
        %252 = index.sub %c15, %67
        %253 = vector.matrix_multiply %49, %49 {lhs_columns = 1 : i32, lhs_rows = 1 : i32, rhs_columns = 1 : i32} : (vector<1xi16>, vector<1xi16>) -> vector<1xi16>
        %254 = vector.flat_transpose %49 {columns = 1 : i32, rows = 1 : i32} : vector<1xi16> -> vector<1xi16>
        %255 = vector.broadcast %cst : f32 to vector<9x9xf32>
        %256 = vector.fma %255, %90, %90 : vector<9x9xf32>
        %257 = arith.shli %c1321725939_i64, %c1321725939_i64 : i64
        %258 = arith.remsi %c1416631668_i64, %c1321725939_i64 : i64
        %259 = arith.andi %c-29219_i16, %c10949_i16 : i16
        %260 = math.roundeven %2 : tensor<9x7xf16>
        %261 = arith.cmpf ord, %cst_0, %cst_0 : f16
        memref.tensor_store %16, %alloc_7 : memref<9xi1>
        %262 = memref.atomic_rmw minf %cst_1, %80[%c0, %c6] : (f32, memref<7x7xf32>) -> f32
        %263 = index.casts %c11 : index to i32
        scf.yield
      }
      case 2 {
        %249 = math.tan %13 : tensor<9x7xf32>
        %splat_52 = tensor.splat %c1321725939_i64 : tensor<9x9xi64>
        %250 = arith.divf %cst_3, %cst_4 : f16
        %251 = arith.addf %cst_0, %cst_3 : f16
        %252 = vector.multi_reduction <maxui>, %49, %49 [] : vector<1xi16> to vector<1xi16>
        %253 = arith.negf %cst_0 : f16
        %254 = math.floor %7 : tensor<7x7xf16>
        %255 = memref.atomic_rmw assign %c384628122_i32, %alloc_6[%c1] : (i32, memref<9xi32>) -> i32
        %256 = math.expm1 %13 : tensor<9x7xf32>
        %c529094651_i64 = arith.constant 529094651 : i64
        %257 = math.log1p %7 : tensor<7x7xf16>
        %258 = arith.mulf %cst_3, %cst_4 : f16
        %259 = arith.shrui %c1603447190_i32, %c1603447190_i32 : i32
        %260 = arith.minf %cst_0, %cst_0 : f16
        %261 = arith.divsi %27, %c17207_i16 : i16
        %262 = math.ctlz %5 : tensor<9xi1>
        scf.yield
      }
      case 3 {
        %249 = arith.addf %cst_4, %cst_4 : f16
        %250 = math.ctlz %c10949_i16 : i16
        %251 = arith.ori %c1416631668_i64, %c1416631668_i64 : i64
        %252 = math.fpowi %13, %6 : tensor<9x7xf32>, tensor<9x7xi32>
        %253 = vector.reduction <add>, %20 : vector<13xi16> into i16
        %254 = vector.broadcast %cst : f32 to vector<9x7xf32>
        %255 = vector.fma %254, %254, %254 : vector<9x7xf32>
        %256 = vector.broadcast %c1603447190_i32 : i32 to vector<7x7xi32>
        %257 = vector.contract {indexing_maps = [affine_map<(d0, d1, d2) -> (d2, d0)>, affine_map<(d0, d1, d2) -> (d2, d1)>, affine_map<(d0, d1, d2) -> (d0, d1)>], iterator_types = ["parallel", "parallel", "reduction"], kind = #vector.kind<or>} %30, %30, %256 : vector<9x7xi32>, vector<9x7xi32> into vector<7x7xi32>
        %true_52 = index.bool.constant true
        bufferization.dealloc_tensor %15 : tensor<9x9xi16>
        %258 = math.expm1 %10 : tensor<9x7xf32>
        %alloc_53 = memref.alloc() : memref<9x9xi16>
        memref.copy %alloc_14, %alloc_53 : memref<9x9xi16> to memref<9x9xi16>
        %259 = arith.mulf %cst_4, %cst_4 : f16
        %260 = vector.broadcast %c15 : index to vector<9xindex>
        %261 = vector.broadcast %c17207_i16 : i16 to vector<9xi16>
        vector.scatter %alloc_14[%c2, %c1] [%260], %71, %261 : memref<9x9xi16>, vector<9xindex>, vector<9xi1>, vector<9xi16>
        affine.store %true_2, %alloc_7[%c12] : memref<9xi1>
        vector.print %38 : vector<i64>
        %262 = arith.shrsi %c-29219_i16, %c10949_i16 : i16
        scf.yield
      }
      case 4 {
        %expanded_52 = tensor.expand_shape %from_elements [[0], [1, 2]] : tensor<9x9xi64> into tensor<9x9x1xi64>
        %249 = index.maxu %65, %c14
        %250 = arith.remsi %false, %true_2 : i1
        %rank_53 = tensor.rank %3 : tensor<9x9xi1>
        %251 = math.log %cst_3 : f16
        %252 = vector.broadcast %true_2 : i1 to vector<i1>
        vector.transfer_write %252, %72[%c1] : vector<i1>, memref<9xi1>
        %253 = vector.multi_reduction <maxf>, %56, %cst_4 [0, 1] : vector<9x9xf16> to f16
        %254 = math.tan %10 : tensor<9x7xf32>
        %255 = math.copysign %cst_4, %cst_0 : f16
        %256 = math.tan %13 : tensor<9x7xf32>
        bufferization.dealloc_tensor %from_elements : tensor<9x9xi64>
        %rank_54 = tensor.rank %splat : tensor<9x7xi1>
        %257 = math.log10 %cst_3 : f16
        %258 = math.log1p %cst_3 : f16
        %259 = index.mul %c6, %c15
        %260 = arith.addi %c1416631668_i64, %c1416631668_i64 : i64
        scf.yield
      }
      default {
        %alloc_52 = memref.alloc() : memref<9x9xi16>
        memref.copy %alloc_14, %alloc_52 : memref<9x9xi16> to memref<9x9xi16>
        %249 = arith.minf %cst_4, %cst_3 : f16
        %250 = arith.andi %c17207_i16, %c17207_i16 : i16
        %251 = arith.shli %c1603447190_i32, %c610206965_i32 : i32
        %252 = math.log1p %2 : tensor<9x7xf16>
        %253 = index.ceildivu %67, %c4
        %254 = math.copysign %7, %7 : tensor<7x7xf16>
        %255 = bufferization.clone %alloc_9 : memref<9xi32> to memref<9xi32>
        %256 = arith.mulf %cst, %cst_1 : f32
        %257 = vector.flat_transpose %71 {columns = 3 : i32, rows = 3 : i32} : vector<9xi1> -> vector<9xi1>
        %258 = math.sqrt %collapsed : tensor<63xf32>
        %259 = math.cttz %18 : tensor<9xi64>
        %260 = math.copysign %cst_1, %cst : f32
        %261 = vector.load %41[%c4] : memref<9xi64>, vector<7x7xi64>
        %262 = index.casts %c610206965_i32 : i32 to index
        %263 = arith.muli %c1603447190_i32, %c384628122_i32 : i32
      }
      vector.print %38 : vector<i64>
      %inserted_51 = tensor.insert %27 into %15[%c4, %c5] : tensor<9x9xi16>
      %c1401109772_i64 = arith.constant 1401109772 : i64
      %248 = math.log1p %7 : tensor<7x7xf16>
      affine.yield %cst_4 : f16
    } else {
      %246 = arith.addf %cst_4, %cst_3 : f16
      %247 = arith.remf %cst_1, %cst_1 : f32
      %248 = vector.broadcast %cst_1 : f32 to vector<9xf32>
      %249 = vector.multi_reduction <maxf>, %91, %248 [1] : vector<9x9xf32> to vector<9xf32>
      %false_50 = index.bool.constant false
      scf.index_switch %c9 
      case 1 {
        %252 = arith.andi %false_50, %true_23 : i1
        %253 = vector.extract %49[0] : vector<1xi16>
        %254 = vector.broadcast %true : i1 to vector<7xi1>
        %255 = vector.maskedload %alloc_7[%c0], %254, %254 : memref<9xi1>, vector<7xi1>, vector<7xi1> into vector<7xi1>
        %256 = index.ceildivu %c8, %c6
        %257 = math.copysign %cst_3, %cst_3 : f16
        %258 = arith.ceildivsi %c17207_i16, %c10949_i16 : i16
        %259 = vector.bitcast %90 : vector<9x9xf32> to vector<9x9xf32>
        %260 = index.mul %c8, %c4
        %261 = memref.realloc %alloc_18 : memref<9xi16> to memref<13xi16>
        bufferization.dealloc_tensor %expanded_29 : tensor<9x9x1xi1>
        %262 = bufferization.clone %alloc_18 : memref<9xi16> to memref<9xi16>
        %263 = math.absf %13 : tensor<9x7xf32>
        %264 = vector.broadcast %c17207_i16 : i16 to vector<i16>
        vector.transfer_write %264, %alloc_18[%58] : vector<i16>, memref<9xi16>
        %265 = arith.floordivsi %c1416631668_i64, %c1321725939_i64 : i64
        %266 = math.copysign %2, %2 : tensor<9x7xf16>
        %267 = arith.minf %cst_1, %cst_1 : f32
        scf.yield
      }
      case 2 {
        %252 = tensor.empty() : tensor<9x7xi16>
        %253 = arith.shli %c17207_i16, %c10949_i16 : i16
        %254 = math.roundeven %cst_1 : f32
        %255 = bufferization.clone %alloc_21 : memref<9xi1> to memref<9xi1>
        %dest_52, %accumulated_value_53 = vector.scan <minf>, %90, %248 {inclusive = false, reduction_dim = 0 : i64} : vector<9x9xf32>, vector<9xf32>
        %256 = math.log1p %cst : f32
        memref.store %c610206965_i32, %alloc_12[%c2] : memref<9xi32>
        %257 = arith.addf %cst, %cst : f32
        %258 = math.log %cst_3 : f16
        %259 = arith.andi %c1416631668_i64, %c1416631668_i64 : i64
        %260 = arith.remf %cst_0, %cst_4 : f16
        %261 = vector.extract %91[2] : vector<9x9xf32>
        %262 = arith.xori %c1321725939_i64, %c1321725939_i64 : i64
        %263 = arith.shli %c10949_i16, %c10949_i16 : i16
        %264 = tensor.empty(%c12) : tensor<9x?xi1>
        %265 = index.add %37, %c15
        scf.yield
      }
      default {
        %252 = index.floordivs %c14, %c4
        %alloc_52 = memref.alloc() : memref<7x4xi64>
        %253 = tensor.empty() : tensor<9x4xi64>
        %254 = linalg.matmul ins(%1, %alloc_52 : tensor<9x7xi64>, memref<7x4xi64>) outs(%253 : tensor<9x4xi64>) -> tensor<9x4xi64>
        %255 = math.exp2 %10 : tensor<9x7xf32>
        %256 = math.exp2 %cst : f32
        %257 = index.ceildivu %c2, %67
        %258 = arith.cmpi slt, %c-29219_i16, %c-29219_i16 : i16
        %259 = math.cttz %c-30369_i16 : i16
        %260 = vector.extract %71[6] : vector<9xi1>
        %261 = affine.apply affine_map<(d0, d1, d2, d3) -> (((d3 floordiv 4) * 32) floordiv 64)>(%c7, %c9, %c2, %37)
        %extracted_53 = tensor.extract %8[%c0, %c0] : tensor<9x7xi64>
        %262 = memref.atomic_rmw mins %c1321725939_i64, %41[%c5] : (i64, memref<9xi64>) -> i64
        %263 = math.powf %7, %7 : tensor<7x7xf16>
        %264 = arith.addi %c1321725939_i64, %c1416631668_i64 : i64
        %265 = arith.shrsi %false, %true_22 : i1
        %266 = affine.min affine_map<(d0) -> (d0 floordiv 4, d0 * 7 - 64, -d0 + d0 floordiv 4, d0 * 7 + 1)>(%67)
        %267 = affine.load %alloc_13[%c11, %c1] : memref<7x7xi1>
      }
      %250 = arith.floordivsi %true_22, %false : i1
      %251 = index.castu %false : i1 to index
      %generated_51 = tensor.generate %95, %c11 {
      ^bb0(%arg2: index, %arg3: index):
        %252 = vector.broadcast %c-30369_i16 : i16 to vector<13x13xi16>
        %253 = vector.outerproduct %20, %20, %252 {kind = #vector.kind<maxsi>} : vector<13xi16>, vector<13xi16>
        %254 = arith.ceildivsi %true, %true_2 : i1
        %255 = vector.outerproduct %248, %248, %90 {kind = #vector.kind<add>} : vector<9xf32>, vector<9xf32>
        %256 = index.sub %c14, %c0
        tensor.yield %cst : f32
      } : tensor<?x?xf32>
      affine.yield %cst_4 : f16
    }
    %99 = vector.contract {indexing_maps = [affine_map<(d0) -> (d0)>, affine_map<(d0) -> (d0)>, affine_map<(d0) -> ()>], iterator_types = ["reduction"], kind = #vector.kind<add>} %20, %20, %27 : vector<13xi16>, vector<13xi16> into i16
    %100 = arith.ori %c610206965_i32, %c1603447190_i32 : i32
    %101 = vector.extract %30[4] : vector<9x7xi32>
    %102 = scf.index_switch %c9 -> tensor<9x7xf32> 
    case 1 {
      %246 = math.log10 %10 : tensor<9x7xf32>
      %247 = index.castu %c10949_i16 : i16 to index
      %248 = math.exp2 %10 : tensor<9x7xf32>
      %249 = arith.divui %c610206965_i32, %c610206965_i32 : i32
      %250 = arith.ori %false, %true_22 : i1
      bufferization.dealloc_tensor %1 : tensor<9x7xi64>
      %251 = arith.cmpf ole, %cst_0, %cst_0 : f16
      %252 = math.log %cst_0 : f16
      %253 = arith.floordivsi %c1321725939_i64, %c1416631668_i64 : i64
      %254 = arith.cmpi sgt, %true, %true_22 : i1
      %255 = arith.mulf %cst_4, %cst_3 : f16
      %256 = index.add %c9, %c11
      %257 = vector.broadcast %cst_1 : f32 to vector<9xf32>
      %258 = vector.fma %257, %257, %257 : vector<9xf32>
      %259 = vector.broadcast %rank : index to vector<13xindex>
      %260 = vector.broadcast %true_23 : i1 to vector<13xi1>
      %261 = vector.broadcast %cst : f32 to vector<13xf32>
      vector.scatter %alloc_10[%c3, %c0] [%259], %260, %261 : memref<7x7xf32>, vector<13xindex>, vector<13xi1>, vector<13xf32>
      %262 = bufferization.clone %alloc_14 : memref<9x9xi16> to memref<9x9xi16>
      %263 = vector.broadcast %c1321725939_i64 : i64 to vector<i64>
      %264 = vector.transfer_write %263, %0[%c3] : vector<i64>, tensor<9xi64>
      scf.yield %13 : tensor<9x7xf32>
    }
    case 2 {
      %246 = arith.cmpf olt, %cst_1, %cst : f32
      %247 = math.log10 %cst_0 : f16
      %inserted_50 = tensor.insert %cst_1 into %13[%c4, %c2] : tensor<9x7xf32>
      %248 = math.log10 %13 : tensor<9x7xf32>
      %249 = math.ipowi %from_elements, %from_elements : tensor<9x9xi64>
      %250 = scf.while (%arg2 = %c384628122_i32) : (i32) -> i32 {
        %258 = vector.broadcast %65 : index to vector<9xindex>
        %259 = vector.broadcast %c1416631668_i64 : i64 to vector<9xi64>
        vector.scatter %68[%c5] [%258], %71, %259 : memref<9xi64>, vector<9xindex>, vector<9xi1>, vector<9xi64>
        %260 = math.roundeven %13 : tensor<9x7xf32>
        %261 = arith.addi %c1416631668_i64, %c1321725939_i64 : i64
        %262 = bufferization.clone %alloc_7 : memref<9xi1> to memref<9xi1>
        %263 = index.ceildivs %c13, %c5
        %264 = index.ceildivs %95, %c7
        %265 = vector.broadcast %cst : f32 to vector<9xf32>
        %266 = vector.fma %265, %265, %265 : vector<9xf32>
        %267 = vector.bitcast %265 : vector<9xf32> to vector<9xi32>
        scf.condition(%false) %c1603447190_i32 : i32
      } do {
      ^bb0(%arg2: i32):
        %258 = index.casts %true_2 : i1 to index
        %259 = vector.broadcast %cst : f32 to vector<f32>
        vector.transfer_write %259, %alloc_19[%rank, %c10] : vector<f32>, memref<9x7xf32>
        %260 = affine.apply affine_map<(d0, d1, d2) -> ((d1 floordiv 64) ceildiv 4)>(%c11, %c0, %c15)
        %261 = vector.broadcast %c12 : index to vector<9xindex>
        vector.scatter %alloc_21[%c4] [%261], %70, %71 : memref<9xi1>, vector<9xindex>, vector<9xi1>, vector<9xi1>
        %262 = index.floordivs %c4, %c12
        %263 = vector.broadcast %c1603447190_i32 : i32 to vector<9x7xi32>
        %264 = index.add %c9, %c9
        %extracted_52 = tensor.extract %10[%c8, %c5] : tensor<9x7xf32>
        %265 = vector.broadcast %27 : i16 to vector<13x13xi16>
        %266 = vector.outerproduct %20, %20, %265 {kind = #vector.kind<mul>} : vector<13xi16>, vector<13xi16>
        %267 = vector.broadcast %262 : index to vector<9xindex>
        vector.scatter %alloc_13[%c4, %c2] [%267], %71, %71 : memref<7x7xi1>, vector<9xindex>, vector<9xi1>, vector<9xi1>
        %268 = vector.broadcast %true_23 : i1 to vector<i1>
        %269 = vector.transfer_write %268, %17[%c6] : vector<i1>, tensor<9xi1>
        %270 = arith.shrsi %c1603447190_i32, %c384628122_i32 : i32
        %271 = math.powf %cst, %cst_1 : f32
        %272 = arith.divf %cst_0, %cst_4 : f16
        %273 = index.ceildivu %c10, %c8
        %274 = arith.minf %cst_3, %cst_3 : f16
        scf.yield %c1603447190_i32 : i32
      }
      %251 = vector.broadcast %true : i1 to vector<9x9xi1>
      %252 = vector.outerproduct %71, %70, %251 {kind = #vector.kind<maxsi>} : vector<9xi1>, vector<9xi1>
      %collapsed_51 = tensor.collapse_shape %expanded [[0, 1], [2]] : tensor<9x7x1xi64> into tensor<63x1xi64>
      %alloca = memref.alloca() : memref<9x7xf16>
      %253 = vector.insertelement %c1321725939_i64, %38[] : vector<i64>
      %254 = vector.shuffle %30, %30 [0, 1, 2, 3, 5, 10, 11, 13, 14, 15, 16] : vector<9x7xi32>, vector<9x7xi32>
      memref.store %c1603447190_i32, %alloc_17[%c4, %c3] : memref<7x7xi32>
      memref.tensor_store %4, %41 : memref<9xi64>
      %255 = vector.broadcast %c384628122_i32 : i32 to vector<7x7xi32>
      %256 = vector.outerproduct %101, %101, %255 {kind = #vector.kind<maxsi>} : vector<7xi32>, vector<7xi32>
      %257 = bufferization.clone %alloc_21 : memref<9xi1> to memref<9xi1>
      bufferization.dealloc_tensor %10 : tensor<9x7xf32>
      scf.yield %10 : tensor<9x7xf32>
    }
    default {
      %246 = arith.shrsi %true_22, %true_22 : i1
      %247 = affine.load %alloc_18[%c7] : memref<9xi16>
      %248 = math.absf %collapsed : tensor<63xf32>
      %249 = vector.extract %20[9] : vector<13xi16>
      %250 = arith.divui %true, %true_23 : i1
      vector.print %50 : vector<i1>
      %251 = arith.cmpf oeq, %cst_4, %cst_0 : f16
      %252 = arith.maxf %cst_1, %cst : f32
      %253 = index.mul %c11, %c15
      %254 = scf.execute_region -> vector<9x7xf32> {
        vector.print %71 : vector<9xi1>
        %261 = arith.shrui %c1321725939_i64, %c1416631668_i64 : i64
        %262 = vector.contract {indexing_maps = [affine_map<(d0) -> (d0)>, affine_map<(d0) -> (d0)>, affine_map<(d0) -> ()>], iterator_types = ["reduction"], kind = #vector.kind<xor>} %20, %20, %c-30369_i16 : vector<13xi16>, vector<13xi16> into i16
        %263 = math.log %10 : tensor<9x7xf32>
        %264 = math.log1p %cst_1 : f32
        %265 = arith.shrui %c610206965_i32, %c1603447190_i32 : i32
        %266 = math.absi %3 : tensor<9x9xi1>
        %267 = arith.mulf %cst_0, %cst_3 : f16
        %268 = index.maxu %67, %c0
        %269 = affine.load %41[%c0] : memref<9xi64>
        %extracted_51 = tensor.extract %0[%c0] : tensor<9xi64>
        %270 = vector.broadcast %c1416631668_i64 : i64 to vector<7xi64>
        %271 = vector.transfer_write %270, %8[%95, %c9] {permutation_map = affine_map<(d0, d1) -> (d0)>} : vector<7xi64>, tensor<9x7xi64>
        %272 = math.fpowi %2, %6 : tensor<9x7xf16>, tensor<9x7xi32>
        %273 = vector.broadcast %c384628122_i32 : i32 to vector<7x7xi32>
        %274 = vector.outerproduct %101, %101, %273 {kind = #vector.kind<and>} : vector<7xi32>, vector<7xi32>
        %expanded_52 = tensor.expand_shape %0 [[0, 1]] : tensor<9xi64> into tensor<9x1xi64>
        %275 = vector.contract {indexing_maps = [affine_map<(d0, d1, d2) -> (d2, d0)>, affine_map<(d0, d1, d2) -> (d2, d1)>, affine_map<(d0, d1, d2) -> (d0, d1)>], iterator_types = ["parallel", "parallel", "reduction"], kind = #vector.kind<add>} %56, %56, %56 : vector<9x9xf16>, vector<9x9xf16> into vector<9x9xf16>
        %276 = vector.broadcast %cst : f32 to vector<9x7xf32>
        scf.yield %276 : vector<9x7xf32>
      }
      affine.store %cst, %alloc_15[%c6, %c13] : memref<9x9xf32>
      %255 = vector.broadcast %cst : f32 to vector<9xf32>
      %256 = vector.insert %255, %90 [3] : vector<9xf32> into vector<9x9xf32>
      %257 = vector.insertelement %cst, %255[%c10 : index] : vector<9xf32>
      %258 = vector.broadcast %c384628122_i32 : i32 to vector<i32>
      %259 = vector.transfer_write %258, %14[%c1] : vector<i32>, tensor<9xi32>
      %collapsed_50 = tensor.collapse_shape %13 [[0, 1]] : tensor<9x7xf32> into tensor<63xf32>
      %260 = math.log10 %13 : tensor<9x7xf32>
      scf.yield %13 : tensor<9x7xf32>
    }
    %103 = index.mul %c3, %c4
    %104 = vector.shuffle %90, %91 [0, 3, 4, 5, 6, 7, 8, 13, 15] : vector<9x9xf32>, vector<9x9xf32>
    %105 = memref.atomic_rmw mins %c1416631668_i64, %68[%c5] : (i64, memref<9xi64>) -> i64
    %106 = arith.ceildivsi %c10949_i16, %c-30369_i16 : i16
    %107 = math.log1p %13 : tensor<9x7xf32>
    %108 = math.absf %cst_3 : f16
    %109 = index.add %103, %c12
    %110 = vector.broadcast %c1603447190_i32 : i32 to vector<4xi32>
    %111 = vector.broadcast %false : i1 to vector<4xi1>
    %112 = vector.maskedload %alloc_17[%c1, %c5], %111, %110 : memref<7x7xi32>, vector<4xi1>, vector<4xi32> into vector<4xi32>
    %113 = arith.addf %cst_0, %cst_4 : f16
    %114 = math.exp2 %10 : tensor<9x7xf32>
    %115 = vector.broadcast %true_2 : i1 to vector<4x4xi1>
    %116 = vector.outerproduct %111, %111, %115 {kind = #vector.kind<maxui>} : vector<4xi1>, vector<4xi1>
    %117 = math.ctpop %22 : tensor<i1>
    %splat_30 = tensor.splat %true : tensor<9x9xi1>
    memref.alloca_scope  {
      %246 = vector.extract %20[3] : vector<13xi16>
      %247 = math.cttz %true_23 : i1
      %248 = arith.addi %true_23, %true_2 : i1
      %inserted_50 = tensor.insert %c-29219_i16 into %12[%c1, %c4] : tensor<9x7xi16>
      %249 = vector.broadcast %c10949_i16 : i16 to vector<1x1xi16>
      %250 = vector.outerproduct %49, %49, %249 {kind = #vector.kind<and>} : vector<1xi16>, vector<1xi16>
      %251 = index.divu %c12, %c15
      %252 = math.absi %12 : tensor<9x7xi16>
      %253 = math.floor %7 : tensor<7x7xf16>
      %254 = math.ipowi %12, %12 : tensor<9x7xi16>
      %255 = math.expm1 %2 : tensor<9x7xf16>
      affine.store %true_22, %alloc_21[%c14] : memref<9xi1>
      %256 = vector.extract %49[0] : vector<1xi16>
      %257 = scf.index_switch %c10 -> vector<9x9xf16> 
      case 1 {
        %273 = arith.andi %true_2, %true_22 : i1
        %274 = math.expm1 %cst_4 : f16
        %false_55 = arith.constant false
        %275 = vector.transfer_read %alloc_7[%c15], %false_55 : memref<9xi1>, vector<i1>
        %276 = vector.broadcast %c610206965_i32 : i32 to vector<9xi32>
        %277 = vector.contract {indexing_maps = [affine_map<(d0, d1) -> (d0, d1)>, affine_map<(d0, d1) -> (d1)>, affine_map<(d0, d1) -> (d0)>], iterator_types = ["parallel", "reduction"], kind = #vector.kind<maxsi>} %30, %101, %276 : vector<9x7xi32>, vector<7xi32> into vector<9xi32>
        %278 = bufferization.clone %alloc_16 : memref<9x9xi1> to memref<9x9xi1>
        %279 = math.copysign %cst_1, %cst_1 : f32
        %280 = math.copysign %10, %10 : tensor<9x7xf32>
        %281 = vector.load %alloc_16[%c7, %c5] : memref<9x9xi1>, vector<9x9xi1>
        %inserted_56 = tensor.insert %c1321725939_i64 into %expanded[%c6, %c5, %c0] : tensor<9x7x1xi64>
        %282 = math.fpowi %13, %6 : tensor<9x7xf32>, tensor<9x7xi32>
        %283 = math.tan %collapsed : tensor<63xf32>
        vector.print %71 : vector<9xi1>
        %284 = bufferization.clone %alloc_18 : memref<9xi16> to memref<9xi16>
        memref.copy %alloc_9, %alloc_6 : memref<9xi32> to memref<9xi32>
        %285 = index.ceildivu %rank, %c12
        %alloc_57 = memref.alloc() : memref<9x9xi16>
        scf.yield %56 : vector<9x9xf16>
      }
      case 2 {
        vector.print %38 : vector<i64>
        %273 = arith.cmpf olt, %cst_3, %cst_4 : f16
        %274 = index.sub %c3, %c0
        %275 = vector.shuffle %56, %56 [0, 5, 7, 9, 10, 13, 16] : vector<9x9xf16>, vector<9x9xf16>
        %276 = math.fpowi %2, %6 : tensor<9x7xf16>, tensor<9x7xi32>
        %277 = index.sizeof
        %278 = arith.shrsi %true_22, %true : i1
        memref.tensor_store %5, %alloc_7 : memref<9xi1>
        %279 = vector.broadcast %cst : f32 to vector<9x9xf32>
        %280 = vector.fma %279, %90, %279 : vector<9x9xf32>
        affine.store %true_2, %72[%c8] : memref<9xi1>
        %281 = arith.divf %cst_3, %cst_3 : f16
        %282 = arith.divui %true_22, %false : i1
        %283 = arith.maxsi %c1603447190_i32, %c610206965_i32 : i32
        %284 = arith.remf %cst_0, %cst_0 : f16
        %285 = vector.insertelement %true, %70[%rank : index] : vector<9xi1>
        %286 = math.roundeven %cst_1 : f32
        scf.yield %56 : vector<9x9xf16>
      }
      default {
        %273 = math.fpowi %cst_4, %c1603447190_i32 : f16, i32
        memref.assume_alignment %alloc_14, 16 : memref<9x9xi16>
        %274 = arith.addi %true, %true_23 : i1
        %275 = arith.addf %cst_3, %cst_3 : f16
        %276 = vector.broadcast %cst : f32 to vector<9x7xf32>
        %277 = vector.fma %276, %276, %276 : vector<9x7xf32>
        %278 = index.mul %c15, %c14
        %279 = arith.maxsi %c-30369_i16, %c17207_i16 : i16
        %280 = vector.transpose %276, [1, 0] : vector<9x7xf32> to vector<7x9xf32>
        %281 = index.ceildivu %c10, %c0
        %282 = math.copysign %cst_3, %cst_3 : f16
        %283 = arith.andi %true_2, %true_2 : i1
        %284 = arith.ori %true_23, %true_23 : i1
        %285 = math.copysign %cst, %cst : f32
        %286 = vector.broadcast %c13 : index to vector<9xindex>
        %287 = vector.broadcast %cst : f32 to vector<9xf32>
        vector.scatter %alloc_10[%c1, %c0] [%286], %70, %287 : memref<7x7xf32>, vector<9xindex>, vector<9xi1>, vector<9xf32>
        %288 = bufferization.to_tensor %alloc_12 : memref<9xi32>
        %289 = vector.broadcast %c610206965_i32 : i32 to vector<4x4xi32>
        %290 = vector.outerproduct %110, %112, %289 {kind = #vector.kind<xor>} : vector<4xi32>, vector<4xi32>
        scf.yield %56 : vector<9x9xf16>
      }
      %258 = vector.broadcast %37 : index to vector<4xindex>
      %259 = vector.broadcast %cst : f32 to vector<4xf32>
      vector.scatter %80[%c6, %c6] [%258], %111, %259 : memref<7x7xf32>, vector<4xindex>, vector<4xi1>, vector<4xf32>
      %260 = vector.matrix_multiply %101, %112 {lhs_columns = 1 : i32, lhs_rows = 7 : i32, rhs_columns = 4 : i32} : (vector<7xi32>, vector<4xi32>) -> vector<28xi32>
      %261 = arith.muli %true_23, %false : i1
      %262 = vector.insert %c-30369_i16, %49 [0] : i16 into vector<1xi16>
      %263 = math.log1p %cst_4 : f16
      %inserted_51 = tensor.insert %c1416631668_i64 into %8[%c7, %c4] : tensor<9x7xi64>
      memref.tensor_store %9, %alloc_6 : memref<9xi32>
      %264 = vector.broadcast %cst_1 : f32 to vector<7xf32>
      %265 = vector.broadcast %true_22 : i1 to vector<7xi1>
      %266 = vector.maskedload %alloc_10[%c2, %c6], %265, %264 : memref<7x7xf32>, vector<7xi1>, vector<7xf32> into vector<7xf32>
      affine.for %arg2 = 0 to 104 {
      }
      %267 = math.log10 %cst_1 : f32
      %alloc_52 = memref.alloc() : memref<9x7xi16>
      %alloc_53 = memref.alloc() : memref<9x9xi32>
      %expanded_54 = tensor.expand_shape %2 [[0], [1, 2]] : tensor<9x7xf16> into tensor<9x7x1xf16>
      %268 = index.maxu %92, %c0
      %269 = math.copysign %7, %7 : tensor<7x7xf16>
      %270 = math.absi %21 : tensor<i1>
      vector.print %49 : vector<1xi16>
      %271 = vector.flat_transpose %265 {columns = 7 : i32, rows = 1 : i32} : vector<7xi1> -> vector<7xi1>
      %272 = vector.extract_strided_slice %260 {offsets = [16], sizes = [3], strides = [1]} : vector<28xi32> to vector<3xi32>
    }
    %118 = math.floor %cst_3 : f16
    %119 = arith.divui %c10949_i16, %c-29219_i16 : i16
    bufferization.dealloc_tensor %transposed : tensor<9xi64>
    %120 = scf.while (%arg2 = %alloc_5) : (memref<9x7xi32>) -> memref<9x7xi32> {
      %246 = vector.shuffle %20, %20 [0, 2, 12, 13, 14, 15, 17, 20, 21, 25] : vector<13xi16>, vector<13xi16>
      %247 = arith.remsi %c1416631668_i64, %c1321725939_i64 : i64
      %248 = bufferization.to_memref %10 : memref<9x7xf32>
      %249 = memref.realloc %41 : memref<9xi64> to memref<9xi64>
      %250 = index.ceildivs %58, %c13
      memref.alloca_scope  {
        %252 = index.maxu %37, %c9
        %253 = vector.extract_strided_slice %91 {offsets = [0], sizes = [8], strides = [1]} : vector<9x9xf32> to vector<8x9xf32>
        %254 = math.ctlz %12 : tensor<9x7xi16>
        %255 = arith.divf %cst_4, %cst_4 : f16
        %256 = arith.remf %cst_1, %cst_1 : f32
        %257 = vector.extract %90[0] : vector<9x9xf32>
        %258 = vector.broadcast %cst_0 : f16 to vector<f16>
        %259 = vector.transfer_write %258, %7[%c3, %c8] : vector<f16>, tensor<7x7xf16>
        %260 = tensor.empty() : tensor<63xi32>
        %261 = math.fpowi %collapsed, %260 : tensor<63xf32>, tensor<63xi32>
        %262 = index.sub %67, %67
        %263 = bufferization.clone %alloc_18 : memref<9xi16> to memref<9xi16>
        %264 = arith.andi %c10949_i16, %c17207_i16 : i16
        %265 = vector.insert %c1603447190_i32, %101 [1] : i32 into vector<7xi32>
        %266 = affine.load %alloc_5[%c15, %c6] : memref<9x7xi32>
        %267 = arith.mulf %cst_1, %cst : f32
        %268 = vector.load %arg2[%c1, %c3] : memref<9x7xi32>, vector<9x7xi32>
        %c1_i64 = arith.constant 1 : i64
        %269 = vector.transfer_read %4[%c3], %c1_i64 : tensor<9xi64>, vector<i64>
        memref.assume_alignment %248, 1 : memref<9x7xf32>
        %collapsed_50 = tensor.collapse_shape %expanded [[0, 1], [2]] : tensor<9x7x1xi64> into tensor<63x1xi64>
        %rank_51 = tensor.rank %0 : tensor<9xi64>
        %270 = arith.maxf %cst, %cst_1 : f32
        %c0_i64 = arith.constant 0 : i64
        %c0_i64_52 = arith.constant 0 : i64
        %271 = vector.transfer_read %transposed[%rank], %c0_i64_52 : tensor<9xi64>, vector<i64>
        %272 = arith.shrui %false, %false : i1
        bufferization.dealloc_tensor %8 : tensor<9x7xi64>
        %273 = math.tan %2 : tensor<9x7xf16>
        %274 = vector.bitcast %70 : vector<9xi1> to vector<9xi1>
        %275 = arith.maxf %cst_4, %cst_3 : f16
        %276 = arith.shrui %c384628122_i32, %c610206965_i32 : i32
        %277 = memref.realloc %263 : memref<9xi16> to memref<13xi16>
        %278 = math.log1p %cst_4 : f16
        %279 = bufferization.to_memref %22 : memref<i1>
        %280 = arith.cmpf oeq, %cst_4, %cst_4 : f16
        %expanded_53 = tensor.expand_shape %splat [[0], [1, 2]] : tensor<9x7xi1> into tensor<9x7x1xi1>
      }
      %251 = math.roundeven %cst_0 : f16
      vector.print %110 : vector<4xi32>
      scf.condition(%true_2) %alloc_5 : memref<9x7xi32>
    } do {
    ^bb0(%arg2: memref<9x7xi32>):
      %246 = math.log2 %cst_0 : f16
      %collapsed_50 = tensor.collapse_shape %splat_30 [[0, 1]] : tensor<9x9xi1> into tensor<81xi1>
      %alloca = memref.alloca() : memref<9xi32>
      %247 = arith.addi %c-29219_i16, %27 : i16
      %248 = math.copysign %collapsed, %collapsed : tensor<63xf32>
      memref.copy %alloc_7, %alloc_20 : memref<9xi1> to memref<9xi1>
      %249 = vector.load %alloc_17[%c2, %c4] : memref<7x7xi32>, vector<9x7xi32>
      %250 = index.ceildivu %c5, %37
      %251 = index.castu %rank_25 : index to i32
      %252 = index.sub %65, %c5
      %253 = math.expm1 %7 : tensor<7x7xf16>
      %254 = arith.divui %c1416631668_i64, %c1416631668_i64 : i64
      %255 = arith.ori %c-30369_i16, %c-30369_i16 : i16
      %256 = bufferization.clone %alloc_13 : memref<7x7xi1> to memref<7x7xi1>
      %expanded_51 = tensor.expand_shape %0 [[0, 1]] : tensor<9xi64> into tensor<9x1xi64>
      %257 = arith.remsi %c1321725939_i64, %c1416631668_i64 : i64
      scf.yield %arg2 : memref<9x7xi32>
    }
    %121 = vector.matrix_multiply %70, %111 {lhs_columns = 1 : i32, lhs_rows = 9 : i32, rhs_columns = 4 : i32} : (vector<9xi1>, vector<4xi1>) -> vector<36xi1>
    %122 = arith.remui %c-29219_i16, %c-30369_i16 : i16
    %123 = vector.insertelement %false, %121[%c1 : index] : vector<36xi1>
    %collapsed_31 = tensor.collapse_shape %8 [[0, 1]] : tensor<9x7xi64> into tensor<63xi64>
    %124 = vector.shuffle %112, %101 [0, 3, 4, 6, 8, 9] : vector<4xi32>, vector<7xi32>
    %125 = math.log %13 : tensor<9x7xf32>
    %126 = arith.floordivsi %27, %c-29219_i16 : i16
    %127 = math.cttz %collapsed_31 : tensor<63xi64>
    %128 = arith.ori %false, %false : i1
    %129 = tensor.empty() : tensor<9xi1>
    %mapped = linalg.map ins(%5, %5 : tensor<9xi1>, tensor<9xi1>) outs(%129 : tensor<9xi1>)
      (%in: i1, %in_50: i1) {
        %246 = index.add %c14, %c7
        %247 = vector.broadcast %c-29219_i16 : i16 to vector<9xi16>
        %true_51 = index.bool.constant true
        %248 = bufferization.to_memref %splat : memref<9x7xi1>
        %249 = vector.insert %c-29219_i16, %20 [12] : i16 into vector<13xi16>
        %250 = affine.min affine_map<(d0, d1, d2, d3) -> (d2 ceildiv 16)>(%c7, %c6, %c2, %c12)
        %extracted_52 = tensor.extract %4[%c7] : tensor<9xi64>
        %251 = arith.cmpf olt, %cst_0, %cst_3 : f16
        %252 = arith.addi %true, %true : i1
        %253 = arith.mulf %cst, %cst : f32
        %254 = math.fpowi %cst_0, %c1603447190_i32 : f16, i32
        %255 = math.roundeven %collapsed : tensor<63xf32>
        %splat_53 = tensor.splat %c10949_i16 : tensor<9x7xi16>
        %256 = vector.broadcast %true_51 : i1 to vector<36x36xi1>
        %257 = vector.outerproduct %121, %121, %256 {kind = #vector.kind<mul>} : vector<36xi1>, vector<36xi1>
        %258 = math.log1p %cst_0 : f16
        %extracted_54 = tensor.extract %from_elements[%c5, %c2] : tensor<9x9xi64>
        %259 = index.ceildivs %37, %c13
        %260 = vector.broadcast %cst_1 : f32 to vector<9xf32>
        %261 = vector.fma %260, %260, %260 : vector<9xf32>
        %262 = math.tan %cst : f32
        %263 = math.fpowi %10, %6 : tensor<9x7xf32>, tensor<9x7xi32>
        %264 = arith.ori %27, %c-29219_i16 : i16
        %265 = math.log %collapsed : tensor<63xf32>
        %266 = vector.broadcast %cst_1 : f32 to vector<9x7xf32>
        %267 = vector.fma %266, %266, %266 : vector<9x7xf32>
        %268 = math.exp2 %10 : tensor<9x7xf32>
        %269 = vector.reduction <or>, %112 : vector<4xi32> into i32
        %270 = vector.bitcast %90 : vector<9x9xf32> to vector<9x9xf32>
        vector.print %260 : vector<9xf32>
        %271 = math.tan %13 : tensor<9x7xf32>
        %272 = vector.load %alloc_7[%c6] : memref<9xi1>, vector<9x7xi1>
        affine.store %true_51, %alloc_16[%c6, %c12] : memref<9x9xi1>
        %273 = index.divu %c15, %c15
        %274 = memref.load %alloc_14[%c1, %c2] : memref<9x9xi16>
        %false_55 = arith.constant false
        linalg.yield %false_55 : i1
      }
    %130 = arith.remf %cst_3, %cst_4 : f16
    %131 = arith.ori %c17207_i16, %c17207_i16 : i16
    %132 = scf.index_switch %c15 -> tensor<9x9xf16> 
    case 1 {
      %246 = math.expm1 %2 : tensor<9x7xf16>
      %247 = arith.cmpi slt, %c610206965_i32, %c384628122_i32 : i32
      %248 = index.mul %37, %c11
      %249 = math.copysign %collapsed, %collapsed : tensor<63xf32>
      %250 = arith.andi %true_23, %true_23 : i1
      %251 = vector.broadcast %cst_1 : f32 to vector<9xf32>
      %252 = vector.fma %251, %251, %251 : vector<9xf32>
      %generated_50 = tensor.generate %67, %c6 {
      ^bb0(%arg2: index, %arg3: index):
        %261 = memref.atomic_rmw andi %c1416631668_i64, %41[%c0] : (i64, memref<9xi64>) -> i64
        %262 = vector.broadcast %c1603447190_i32 : i32 to vector<9xi32>
        %dest_52, %accumulated_value_53 = vector.scan <maxsi>, %30, %262 {inclusive = false, reduction_dim = 1 : i64} : vector<9x7xi32>, vector<9xi32>
        %263 = index.sizeof
        %alloc_54 = memref.alloc() : memref<9xf32>
        tensor.yield %cst_4 : f16
      } : tensor<?x?xf16>
      %253 = arith.mulf %cst_0, %cst_4 : f16
      %254 = arith.shrsi %c10949_i16, %c17207_i16 : i16
      %255 = arith.shrui %false, %true_22 : i1
      %256 = math.log10 %cst_4 : f16
      %257 = bufferization.clone %68 : memref<9xi64> to memref<9xi64>
      %258 = arith.maxsi %27, %27 : i16
      %259 = arith.shrui %c-29219_i16, %c-30369_i16 : i16
      memref.assume_alignment %alloc_18, 1 : memref<9xi16>
      %expanded_51 = tensor.expand_shape %8 [[0], [1, 2]] : tensor<9x7xi64> into tensor<9x7x1xi64>
      %260 = tensor.empty() : tensor<9x9xf16>
      scf.yield %260 : tensor<9x9xf16>
    }
    case 2 {
      %inserted_50 = tensor.insert %c384628122_i32 into %14[%c3] : tensor<9xi32>
      %246 = index.ceildivu %c8, %67
      %247 = arith.divf %cst_4, %cst_4 : f16
      %248 = vector.splat %c9 : vector<9xindex>
      vector.print %71 : vector<9xi1>
      %249 = math.log2 %2 : tensor<9x7xf16>
      %250 = arith.shrui %c384628122_i32, %c610206965_i32 : i32
      %cst_51 = arith.constant 1.14419379E+9 : f32
      %251 = index.maxu %c2, %109
      scf.index_switch %c8 
      case 1 {
        %257 = vector.broadcast %cst_3 : f16 to vector<4xf16>
        %258 = vector.maskedload %alloc_11[%c2, %c4], %111, %257 : memref<7x7xf16>, vector<4xi1>, vector<4xf16> into vector<4xf16>
        %259 = affine.load %alloc_15[%c5, %c6] : memref<9x9xf32>
        %alloc_52 = memref.alloc() : memref<9xf16>
        %260 = index.divu %c13, %c10
        %261 = vector.broadcast %c384628122_i32 : i32 to vector<i32>
        vector.transfer_write %261, %alloc_9[%c12] : vector<i32>, memref<9xi32>
        %262 = arith.divf %cst_4, %cst_4 : f16
        %rank_53 = tensor.rank %collapsed : tensor<63xf32>
        %263 = affine.load %alloc_18[%c5] : memref<9xi16>
        %264 = vector.insertelement %c384628122_i32, %112[%c13 : index] : vector<4xi32>
        %265 = vector.broadcast %c1416631668_i64 : i64 to vector<i64>
        %266 = vector.transfer_write %265, %4[%c15] : vector<i64>, tensor<9xi64>
        %alloc_54 = memref.alloc() : memref<9xi1>
        %267 = vector.broadcast %37 : index to vector<13xindex>
        %268 = vector.broadcast %true_23 : i1 to vector<13xi1>
        %269 = vector.broadcast %c1321725939_i64 : i64 to vector<13xi64>
        vector.scatter %68[%c4] [%267], %268, %269 : memref<9xi64>, vector<13xindex>, vector<13xi1>, vector<13xi64>
        %270 = math.log1p %cst : f32
        %271 = arith.shli %c1416631668_i64, %c1321725939_i64 : i64
        %272 = math.expm1 %collapsed : tensor<63xf32>
        %273 = arith.remf %cst_4, %cst_4 : f16
        scf.yield
      }
      default {
        %257 = arith.minf %cst_3, %cst_3 : f16
        %true_52 = index.bool.constant true
        %258 = index.sub %67, %c13
        %expanded_53 = tensor.expand_shape %15 [[0], [1, 2]] : tensor<9x9xi16> into tensor<9x9x1xi16>
        %259 = affine.load %alloc_14[%c0, %c6] : memref<9x9xi16>
        %260 = math.absf %cst_4 : f16
        %261 = math.cttz %4 : tensor<9xi64>
        %262 = vector.multi_reduction <add>, %91, %cst_1 [0, 1] : vector<9x9xf32> to f32
        %263 = bufferization.to_memref %splat : memref<9x7xi1>
        %264 = arith.maxsi %false, %true_52 : i1
        %265 = vector.contract {indexing_maps = [affine_map<(d0, d1, d2) -> (d2, d0)>, affine_map<(d0, d1, d2) -> (d2, d1)>, affine_map<(d0, d1, d2) -> (d0, d1)>], iterator_types = ["parallel", "parallel", "reduction"], kind = #vector.kind<add>} %90, %90, %91 : vector<9x9xf32>, vector<9x9xf32> into vector<9x9xf32>
        %266 = vector.flat_transpose %110 {columns = 2 : i32, rows = 2 : i32} : vector<4xi32> -> vector<4xi32>
        %rank_54 = tensor.rank %21 : tensor<i1>
        %extracted_55 = tensor.extract %4[%c1] : tensor<9xi64>
        %expanded_56 = tensor.expand_shape %6 [[0], [1, 2]] : tensor<9x7xi32> into tensor<9x7x1xi32>
        %267 = arith.shli %c384628122_i32, %c610206965_i32 : i32
      }
      affine.store %cst, %alloc_10[%c10, %c9] : memref<7x7xf32>
      %252 = arith.remsi %c10949_i16, %c-30369_i16 : i16
      %253 = index.sub %58, %c9
      affine.store %c1321725939_i64, %68[%c8] : memref<9xi64>
      %254 = math.floor %2 : tensor<9x7xf16>
      %255 = math.exp2 %10 : tensor<9x7xf32>
      %256 = tensor.empty() : tensor<9x9xf16>
      scf.yield %256 : tensor<9x9xf16>
    }
    case 3 {
      %246 = math.floor %13 : tensor<9x7xf32>
      %alloc_50 = memref.alloc() : memref<9x7xi64>
      %247 = arith.shli %c-29219_i16, %c10949_i16 : i16
      %248 = vector.matrix_multiply %121, %70 {lhs_columns = 9 : i32, lhs_rows = 4 : i32, rhs_columns = 1 : i32} : (vector<36xi1>, vector<9xi1>) -> vector<4xi1>
      vector.print %49 : vector<1xi16>
      %249 = index.sizeof
      %250 = arith.shrui %true_2, %false : i1
      %251 = index.floordivs %c15, %c4
      %252 = vector.shuffle %248, %70 [1, 2, 4, 7, 9, 10, 11, 12] : vector<4xi1>, vector<9xi1>
      %dest_51, %accumulated_value_52 = vector.scan <and>, %30, %101 {inclusive = true, reduction_dim = 0 : i64} : vector<9x7xi32>, vector<7xi32>
      %253 = vector.flat_transpose %111 {columns = 2 : i32, rows = 2 : i32} : vector<4xi1> -> vector<4xi1>
      %254 = math.powf %cst_3, %cst_3 : f16
      %255 = math.copysign %collapsed, %collapsed : tensor<63xf32>
      %256 = arith.ceildivsi %true_2, %true_2 : i1
      %257 = arith.mulf %cst_4, %cst_4 : f16
      %258 = index.divu %rank_25, %c4
      %259 = tensor.empty() : tensor<9x9xf16>
      scf.yield %259 : tensor<9x9xf16>
    }
    default {
      %246 = arith.remsi %c10949_i16, %c17207_i16 : i16
      %false_50 = index.bool.constant false
      %247 = index.casts %c384628122_i32 : i32 to index
      memref.store %c610206965_i32, %alloc_6[%c1] : memref<9xi32>
      %248 = linalg.generic {indexing_maps = [affine_map<(d0, d1, d2) -> (d0, d1, d2)>], iterator_types = ["parallel", "parallel", "parallel"]} outs(%expanded : tensor<9x7x1xi64>) {
      ^bb0(%out: i64):
        %259 = index.floordivs %c7, %67
        %260 = index.sizeof
        %261 = bufferization.clone %72 : memref<9xi1> to memref<9xi1>
        %262 = math.expm1 %2 : tensor<9x7xf16>
        %263 = arith.cmpf ogt, %cst_1, %cst : f32
        %264 = vector.extract %90[3] : vector<9x9xf32>
        %265 = math.exp2 %13 : tensor<9x7xf32>
        %266 = arith.addi %c1603447190_i32, %c384628122_i32 : i32
        %267 = vector.flat_transpose %112 {columns = 2 : i32, rows = 2 : i32} : vector<4xi32> -> vector<4xi32>
        %268 = index.maxu %c0, %67
        %269 = arith.maxsi %false, %false_50 : i1
        %false_53 = index.bool.constant false
        %270 = index.sub %c3, %c13
        %splat_54 = tensor.splat %c-29219_i16 : tensor<9x7xi16>
        %271 = arith.cmpf ole, %cst_0, %cst_3 : f16
        %272 = index.maxu %c6, %c9
        %273 = math.copysign %7, %7 : tensor<7x7xf16>
        %274 = vector.shuffle %90, %91 [0, 2, 4, 7, 8, 9, 11, 14, 16] : vector<9x9xf32>, vector<9x9xf32>
        %275 = math.exp2 %10 : tensor<9x7xf32>
        %276 = vector.broadcast %c384628122_i32 : i32 to vector<4x4xi32>
        %277 = vector.outerproduct %112, %112, %276 {kind = #vector.kind<xor>} : vector<4xi32>, vector<4xi32>
        %278 = math.tan %cst_4 : f16
        %279 = vector.broadcast %true_23 : i1 to vector<i1>
        vector.transfer_write %279, %alloc_16[%c11, %c10] : vector<i1>, memref<9x9xi1>
        %280 = index.ceildivs %c4, %92
        vector.print %49 : vector<1xi16>
        %281 = memref.realloc %68 : memref<9xi64> to memref<9xi64>
        %282 = vector.extract %90[0] : vector<9x9xf32>
        %283 = math.copysign %13, %10 : tensor<9x7xf32>
        memref.copy %alloc_21, %261 : memref<9xi1> to memref<9xi1>
        %284 = math.round %13 : tensor<9x7xf32>
        %285 = vector.insertelement %c1416631668_i64, %38[] : vector<i64>
        %286 = math.log1p %cst : f32
        %287 = index.sub %c9, %rank_25
        linalg.yield %out : i64
      } -> tensor<9x7x1xi64>
      %249 = vector.broadcast %cst : f32 to vector<9x9xf32>
      %250 = vector.fma %249, %249, %90 : vector<9x9xf32>
      %251 = math.ctpop %11 : tensor<9x7xi1>
      %252 = vector.broadcast %c10949_i16 : i16 to vector<1x1xi16>
      %253 = vector.outerproduct %49, %49, %252 {kind = #vector.kind<maxsi>} : vector<1xi16>, vector<1xi16>
      %254 = math.copysign %cst_3, %cst_4 : f16
      %rank_51 = tensor.rank %1 : tensor<9x7xi64>
      affine.store %true, %alloc_20[%c0] : memref<9xi1>
      %c-26012_i16 = arith.constant -26012 : i16
      %255 = vector.multi_reduction <xor>, %111, %111 [] : vector<4xi1> to vector<4xi1>
      %256 = math.log1p %cst_4 : f16
      %257 = affine.load %alloc_8[%c5, %c13] : memref<7x7xf16>
      %expanded_52 = tensor.expand_shape %1 [[0], [1, 2]] : tensor<9x7xi64> into tensor<9x7x1xi64>
      %258 = tensor.empty() : tensor<9x9xf16>
      scf.yield %258 : tensor<9x9xf16>
    }
    memref.copy %alloc, %alloc_15 : memref<9x9xf32> to memref<9x9xf32>
    %133 = vector.broadcast %true_23 : i1 to vector<7xi1>
    %134 = vector.maskedload %alloc_17[%c0, %c2], %133, %101 : memref<7x7xi32>, vector<7xi1>, vector<7xi32> into vector<7xi32>
    %135 = arith.floordivsi %c1321725939_i64, %c1321725939_i64 : i64
    bufferization.dealloc_tensor %16 : tensor<9xi1>
    %136 = math.exp2 %collapsed : tensor<63xf32>
    %137 = affine.load %alloc_16[%c2, %c9] : memref<9x9xi1>
    %138 = vector.broadcast %27 : i16 to vector<i16>
    vector.transfer_write %138, %alloc_18[%c10] : vector<i16>, memref<9xi16>
    %139 = arith.shrsi %137, %true_23 : i1
    %140 = arith.shrsi %true_22, %true_23 : i1
    %141 = math.ipowi %8, %8 : tensor<9x7xi64>
    %142 = math.fpowi %10, %6 : tensor<9x7xf32>, tensor<9x7xi32>
    %143 = scf.while (%arg2 = %71) : (vector<9xi1>) -> vector<9xi1> {
      affine.for %arg3 = 0 to 66 {
      }
      %246 = arith.negf %cst_3 : f16
      %splat_50 = tensor.splat %c17207_i16 : tensor<9x9xi16>
      %247 = vector.multi_reduction <xor>, %30, %101 [0] : vector<9x7xi32> to vector<7xi32>
      %248 = index.castu %true_22 : i1 to index
      %249 = math.copysign %cst_3, %cst_4 : f16
      bufferization.dealloc_tensor %22 : tensor<i1>
      %250 = math.copysign %13, %10 : tensor<9x7xf32>
      scf.condition(%true_23) %71 : vector<9xi1>
    } do {
    ^bb0(%arg2: vector<9xi1>):
      %246 = arith.addi %true_22, %true_23 : i1
      %247 = arith.mulf %cst_1, %cst_1 : f32
      %248 = vector.transpose %134, [0] : vector<7xi32> to vector<7xi32>
      %249 = memref.atomic_rmw assign %cst_0, %alloc_11[%c3, %c6] : (f16, memref<7x7xf16>) -> f16
      %250 = vector.load %alloc_14[%c2, %c6] : memref<9x9xi16>, vector<9x9xi16>
      %251 = vector.broadcast %false : i1 to vector<i1>
      %252 = vector.transfer_write %251, %16[%c5] : vector<i1>, tensor<9xi1>
      %253 = math.roundeven %13 : tensor<9x7xf32>
      %254 = vector.broadcast %c1416631668_i64 : i64 to vector<13xi64>
      %255 = vector.broadcast %true : i1 to vector<13xi1>
      %256 = vector.maskedload %68[%c2], %255, %254 : memref<9xi64>, vector<13xi1>, vector<13xi64> into vector<13xi64>
      %257 = arith.ori %c-30369_i16, %c10949_i16 : i16
      %258 = vector.broadcast %c-29219_i16 : i16 to vector<4xi16>
      %259 = vector.maskedload %alloc_18[%c4], %111, %258 : memref<9xi16>, vector<4xi1>, vector<4xi16> into vector<4xi16>
      %260 = bufferization.to_memref %15 : memref<9x9xi16>
      %261 = vector.load %41[%c2] : memref<9xi64>, vector<9x7xi64>
      %c952512146_i32 = arith.constant 952512146 : i32
      %262 = vector.insertelement %c384628122_i32, %101[%103 : index] : vector<7xi32>
      %263 = arith.addf %cst_1, %cst_1 : f32
      %264 = vector.extract_strided_slice %20 {offsets = [3], sizes = [8], strides = [1]} : vector<13xi16> to vector<8xi16>
      scf.yield %70 : vector<9xi1>
    }
    memref.store %c1416631668_i64, %68[%c0] : memref<9xi64>
    %144 = math.roundeven %cst_1 : f32
    %145 = affine.apply affine_map<(d0, d1) -> ((-(((d1 + 4) * 4) floordiv 16)) mod 8)>(%c10, %103)
    %146 = index.sub %c8, %67
    memref.alloca_scope  {
      %246 = affine.load %alloc_11[%c14, %c9] : memref<7x7xf16>
      %247 = vector.extract %121[30] : vector<36xi1>
      %248 = arith.addi %true, %true : i1
      %249 = index.sizeof
      %250 = index.sub %65, %95
      %251 = vector.broadcast %cst : f32 to vector<4xf32>
      %252 = vector.maskedload %alloc_10[%c3, %c0], %111, %251 : memref<7x7xf32>, vector<4xi1>, vector<4xf32> into vector<4xf32>
      %253 = bufferization.clone %68 : memref<9xi64> to memref<9xi64>
      %254 = affine.for %arg2 = 0 to 46 iter_args(%arg3 = %14) -> (tensor<9xi32>) {
        affine.yield %9 : tensor<9xi32>
      }
      %255 = index.floordivs %c15, %c1
      %256 = arith.cmpi sle, %c1321725939_i64, %c1416631668_i64 : i64
      %257 = math.copysign %cst_0, %246 : f16
      affine.for %arg2 = 0 to 77 {
      }
      %258 = arith.floordivsi %c10949_i16, %27 : i16
      %259 = tensor.empty() : tensor<7x7xi16>
      %260 = arith.remf %cst_0, %246 : f16
      affine.store %c17207_i16, %alloc_14[%c1, %c6] : memref<9x9xi16>
      %261 = index.casts %true_22 : i1 to index
      %true_50 = arith.constant true
      %262 = vector.transfer_read %3[%249, %95], %true_50 : tensor<9x9xi1>, vector<4xi1>
      %263 = vector.transpose %38, [] : vector<i64> to vector<i64>
      %264 = math.copysign %7, %7 : tensor<7x7xf16>
      %265 = index.sizeof
      %266 = vector.contract {indexing_maps = [affine_map<(d0) -> (d0)>, affine_map<(d0) -> (d0)>, affine_map<(d0) -> ()>], iterator_types = ["reduction"], kind = #vector.kind<maxsi>} %20, %20, %c10949_i16 : vector<13xi16>, vector<13xi16> into i16
      %267 = vector.multi_reduction <add>, %20, %20 [] : vector<13xi16> to vector<13xi16>
      %c350114181_i64 = arith.constant 350114181 : i64
      %268 = arith.shrsi %c1321725939_i64, %c1416631668_i64 : i64
      %269 = math.tan %13 : tensor<9x7xf32>
      %270 = vector.extract %112[0] : vector<4xi32>
      %271 = math.rsqrt %13 : tensor<9x7xf32>
      %extracted_51 = tensor.extract %13[%c0, %c2] : tensor<9x7xf32>
      %272 = arith.remf %cst_4, %cst_3 : f16
      %273 = math.ipowi %true, %true_2 : i1
      %274 = vector.extract %110[1] : vector<4xi32>
    }
    %147 = linalg.generic {indexing_maps = [affine_map<(d0, d1, d2) -> (d0, d1, d2)>], iterator_types = ["parallel", "parallel", "parallel"]} outs(%expanded : tensor<9x7x1xi64>) {
    ^bb0(%out: i64):
      %246 = index.ceildivs %c1, %c11
      %247 = math.roundeven %cst_3 : f16
      %248 = arith.remf %cst_4, %cst_0 : f16
      %249 = bufferization.to_memref %5 : memref<9xi1>
      %250 = vector.flat_transpose %110 {columns = 2 : i32, rows = 2 : i32} : vector<4xi32> -> vector<4xi32>
      %expanded_50 = tensor.expand_shape %collapsed_31 [[0, 1]] : tensor<63xi64> into tensor<63x1xi64>
      %251 = memref.atomic_rmw minu %c610206965_i32, %alloc_5[%c7, %c0] : (i32, memref<9x7xi32>) -> i32
      %252 = vector.broadcast %cst : f32 to vector<9xf32>
      %253 = vector.fma %252, %252, %252 : vector<9xf32>
      %254 = index.maxu %c7, %103
      %255 = arith.floordivsi %c384628122_i32, %c1603447190_i32 : i32
      %256 = arith.divsi %c10949_i16, %27 : i16
      %257 = index.sizeof
      %258 = index.maxu %c3, %103
      %259 = vector.insertelement %c1321725939_i64, %38[] : vector<i64>
      %260 = arith.xori %false, %true_2 : i1
      %261 = arith.addi %c17207_i16, %c-29219_i16 : i16
      %alloc_51 = memref.alloc() : memref<9x1xi1>
      %262 = linalg.generic {indexing_maps = [affine_map<(d0, d1, d2) -> (d1, d2)>, affine_map<(d0, d1, d2) -> (d0, d1, d2)>], iterator_types = ["parallel", "parallel", "parallel"]} ins(%alloc_51 : memref<9x1xi1>) outs(%expanded_29 : tensor<9x9x1xi1>) {
      ^bb0(%in: i1, %out_53: i1):
        %rank_54 = tensor.rank %12 : tensor<9x7xi16>
        %276 = bufferization.to_tensor %68 : memref<9xi64>
        %collapsed_55 = tensor.collapse_shape %6 [[0, 1]] : tensor<9x7xi32> into tensor<63xi32>
        %277 = arith.cmpf ord, %cst_3, %cst_4 : f16
        %278 = vector.contract {indexing_maps = [affine_map<(d0) -> (d0)>, affine_map<(d0) -> (d0)>, affine_map<(d0) -> ()>], iterator_types = ["reduction"], kind = #vector.kind<add>} %71, %70, %true_2 : vector<9xi1>, vector<9xi1> into i1
        %279 = math.expm1 %10 : tensor<9x7xf32>
        %280 = tensor.empty(%c0) : tensor<?xi32>
        %281 = math.ctlz %4 : tensor<9xi64>
        %282 = vector.shuffle %20, %20 [3, 4, 8, 9, 10, 12, 13, 14, 16, 19, 21, 23] : vector<13xi16>, vector<13xi16>
        %283 = arith.divui %27, %c-30369_i16 : i16
        %dest_56, %accumulated_value_57 = vector.scan <add>, %91, %252 {inclusive = false, reduction_dim = 0 : i64} : vector<9x9xf32>, vector<9xf32>
        %true_58 = index.bool.constant true
        %284 = vector.bitcast %134 : vector<7xi32> to vector<7xi32>
        %285 = affine.load %alloc_6[%c3] : memref<9xi32>
        %286 = vector.outerproduct %253, %253, %91 {kind = #vector.kind<minf>} : vector<9xf32>, vector<9xf32>
        %extracted_59 = tensor.extract %2[%c2, %c0] : tensor<9x7xf16>
        %287 = index.sub %c3, %109
        %288 = arith.ori %c384628122_i32, %c1603447190_i32 : i32
        %289 = affine.min affine_map<(d0, d1) -> (0, 0, d0 ceildiv 128)>(%c10, %c2)
        %290 = math.copysign %7, %7 : tensor<7x7xf16>
        vector.print %253 : vector<9xf32>
        %291 = math.copysign %7, %7 : tensor<7x7xf16>
        %292 = vector.broadcast %cst : f32 to vector<f32>
        %293 = vector.transfer_write %292, %10[%c14, %145] : vector<f32>, tensor<9x7xf32>
        %294 = arith.negf %extracted_59 : f16
        %295 = vector.extract_strided_slice %253 {offsets = [3], sizes = [1], strides = [1]} : vector<9xf32> to vector<1xf32>
        %296 = arith.ori %137, %false : i1
        %297 = vector.shuffle %30, %30 [0, 2, 5, 7, 10, 11, 13, 17] : vector<9x7xi32>, vector<9x7xi32>
        %298 = math.floor %13 : tensor<9x7xf32>
        %299 = vector.broadcast %cst : f32 to vector<f32>
        vector.transfer_write %299, %80[%rank, %rank_54] : vector<f32>, memref<7x7xf32>
        %300 = arith.mulf %extracted_59, %extracted_59 : f16
        %301 = math.ctlz %15 : tensor<9x9xi16>
        %splat_60 = tensor.splat %true : tensor<9x7xi1>
        linalg.yield %true_23 : i1
      } -> tensor<9x9x1xi1>
      %263 = vector.extract_strided_slice %30 {offsets = [7], sizes = [2], strides = [1]} : vector<9x7xi32> to vector<2x7xi32>
      %264 = vector.splat %145 : vector<9x7xindex>
      %265 = memref.atomic_rmw maxs %c610206965_i32, %alloc_9[%c5] : (i32, memref<9xi32>) -> i32
      %266 = math.roundeven %7 : tensor<7x7xf16>
      %267 = vector.shuffle %91, %91 [0, 1, 2, 5, 7, 8, 9, 14, 15, 16, 17] : vector<9x9xf32>, vector<9x9xf32>
      %268 = arith.mulf %cst, %cst_1 : f32
      vector.print %71 : vector<9xi1>
      %269 = arith.divui %true_2, %true : i1
      %270 = memref.atomic_rmw minf %cst_4, %alloc_11[%c3, %c5] : (f16, memref<7x7xf16>) -> f16
      %271 = bufferization.clone %alloc : memref<9x9xf32> to memref<9x9xf32>
      %rank_52 = tensor.rank %13 : tensor<9x7xf32>
      %272 = arith.divui %c17207_i16, %c10949_i16 : i16
      %273 = affine.max affine_map<(d0, d1, d2) -> ((d2 + d0 - 16) mod 128, d2, d2 - (d1 + d2 - 16) - 16, d1 ceildiv 64)>(%rank_52, %c13, %95)
      %274 = vector.matrix_multiply %112, %112 {lhs_columns = 4 : i32, lhs_rows = 1 : i32, rhs_columns = 1 : i32} : (vector<4xi32>, vector<4xi32>) -> vector<1xi32>
      %275 = index.sub %rank, %146
      linalg.yield %out : i64
    } -> tensor<9x7x1xi64>
    %148 = arith.ceildivsi %true_22, %false : i1
    %149 = index.maxu %c15, %c13
    %150 = vector.broadcast %c384628122_i32 : i32 to vector<i32>
    %151 = vector.transfer_write %150, %14[%c15] : vector<i32>, tensor<9xi32>
    %expanded_32 = tensor.expand_shape %1 [[0], [1, 2]] : tensor<9x7xi64> into tensor<9x7x1xi64>
    %152 = affine.load %alloc_17[%c7, %c2] : memref<7x7xi32>
    %153 = bufferization.to_tensor %alloc : memref<9x9xf32>
    %154 = math.cttz %21 : tensor<i1>
    %155 = arith.ceildivsi %27, %27 : i16
    %156 = arith.shrsi %137, %true : i1
    %157 = math.copysign %cst_4, %cst_3 : f16
    %158 = index.ceildivu %109, %67
    %159 = math.cttz %expanded_32 : tensor<9x7x1xi64>
    %160 = index.maxu %c0, %c7
    %splat_33 = tensor.splat %c384628122_i32 : tensor<7x7xi32>
    %161 = arith.negf %cst_3 : f16
    %162 = vector.broadcast %c384628122_i32 : i32 to vector<13xi32>
    %163 = vector.transfer_write %162, %6[%c12, %c3] {permutation_map = affine_map<(d0, d1) -> (d0)>} : vector<13xi32>, tensor<9x7xi32>
    %164 = scf.while (%arg2 = %alloc_21) : (memref<9xi1>) -> memref<9xi1> {
      %true_50 = index.bool.constant true
      %246 = index.sizeof
      %247 = index.casts %true_2 : i1 to index
      %248 = math.tan %cst_0 : f16
      %249 = math.roundeven %2 : tensor<9x7xf16>
      %250 = arith.remsi %c1321725939_i64, %c1321725939_i64 : i64
      %251 = vector.load %alloc_10[%c5, %c0] : memref<7x7xf32>, vector<9x9xf32>
      %252 = arith.floordivsi %true_50, %true_23 : i1
      scf.condition(%true) %alloc_7 : memref<9xi1>
    } do {
    ^bb0(%arg2: memref<9xi1>):
      %246 = arith.cmpf ole, %cst_4, %cst_4 : f16
      %generated_50 = tensor.generate %rank_25, %158 {
      ^bb0(%arg3: index, %arg4: index):
        %258 = vector.insert %c10949_i16, %20 [4] : i16 into vector<13xi16>
        %259 = arith.divui %c-30369_i16, %c-29219_i16 : i16
        %260 = math.log10 %10 : tensor<9x7xf32>
        %collapsed_53 = tensor.collapse_shape %15 [[0, 1]] : tensor<9x9xi16> into tensor<81xi16>
        tensor.yield %c1321725939_i64 : i64
      } : tensor<?x?xi64>
      %247 = math.log1p %2 : tensor<9x7xf16>
      %alloca = memref.alloca() : memref<9x9xf32>
      %248 = arith.cmpf ole, %cst_1, %cst : f32
      %249 = vector.matrix_multiply %49, %20 {lhs_columns = 1 : i32, lhs_rows = 1 : i32, rhs_columns = 13 : i32} : (vector<1xi16>, vector<13xi16>) -> vector<13xi16>
      %250 = arith.addi %27, %c10949_i16 : i16
      vector.print %133 : vector<7xi1>
      %251 = arith.divf %cst_0, %cst_4 : f16
      %252 = arith.addf %cst_3, %cst_0 : f16
      scf.execute_region {
        %258 = arith.addf %cst_1, %cst : f32
        %259 = bufferization.to_memref %8 : memref<9x7xi64>
        %260 = affine.apply affine_map<(d0, d1, d2) -> (d0 - 32)>(%37, %149, %c6)
        %261 = math.tan %cst_1 : f32
        %262 = vector.extract %90[3] : vector<9x9xf32>
        %c-13205_i16 = arith.constant -13205 : i16
        %263 = arith.negf %cst : f32
        %rank_53 = tensor.rank %14 : tensor<9xi32>
        %264 = vector.bitcast %71 : vector<9xi1> to vector<9xi1>
        memref.store %true_2, %alloc_16[%c8, %c7] : memref<9x9xi1>
        %265 = arith.remf %cst, %cst : f32
        %266 = arith.remsi %true_2, %true_22 : i1
        %267 = vector.broadcast %true_22 : i1 to vector<9xi1>
        %268 = affine.load %alloc_8[%c8, %c8] : memref<7x7xf16>
        %269 = vector.shuffle %49, %249 [2, 5, 11] : vector<1xi16>, vector<13xi16>
        %c1_i64 = arith.constant 1 : i64
        %270 = vector.transfer_read %collapsed_31[%103], %c1_i64 : tensor<63xi64>, vector<i64>
        scf.yield
      }
      %253 = vector.broadcast %92 : index to vector<4xindex>
      vector.scatter %arg2[%c2] [%253], %111, %111 : memref<9xi1>, vector<4xindex>, vector<4xi1>, vector<4xi1>
      %254 = math.floor %cst : f32
      %255 = math.sqrt %2 : tensor<9x7xf16>
      %256 = vector.broadcast %c610206965_i32 : i32 to vector<9xi32>
      %dest_51, %accumulated_value_52 = vector.scan <or>, %30, %256 {inclusive = true, reduction_dim = 1 : i64} : vector<9x7xi32>, vector<9xi32>
      %257 = index.sub %145, %rank
      scf.yield %alloc_20 : memref<9xi1>
    }
    %165 = index.ceildivu %c14, %145
    %splat_34 = tensor.splat %c610206965_i32 : tensor<9xi32>
    %166 = vector.contract {indexing_maps = [affine_map<(d0) -> (d0)>, affine_map<(d0) -> (d0)>, affine_map<(d0) -> ()>], iterator_types = ["reduction"], kind = #vector.kind<or>} %20, %20, %c-29219_i16 : vector<13xi16>, vector<13xi16> into i16
    %167 = vector.multi_reduction <xor>, %30, %134 [0] : vector<9x7xi32> to vector<7xi32>
    scf.index_switch %146 
    case 1 {
      %246 = vector.load %alloc_6[%c7] : memref<9xi32>, vector<9x9xi32>
      %247 = index.casts %c4 : index to i32
      %248 = scf.while (%arg2 = %true) : (i1) -> i1 {
        %259 = arith.cmpf une, %cst_0, %cst_4 : f16
        %260 = arith.negf %cst_3 : f16
        %extracted_52 = tensor.extract %3[%c8, %c4] : tensor<9x9xi1>
        %261 = bufferization.to_tensor %alloc_16 : memref<9x9xi1>
        %262 = vector.insert %true_22, %121 [9] : i1 into vector<36xi1>
        %expanded_53 = tensor.expand_shape %11 [[0], [1, 2]] : tensor<9x7xi1> into tensor<9x7x1xi1>
        %263 = math.tan %10 : tensor<9x7xf32>
        %264 = vector.transpose %71, [0] : vector<9xi1> to vector<9xi1>
        scf.condition(%true_23) %extracted_52 : i1
      } do {
      ^bb0(%arg2: i1):
        %259 = arith.cmpf uno, %cst_0, %cst_4 : f16
        %260 = math.copysign %13, %10 : tensor<9x7xf32>
        %261 = arith.divf %cst_1, %cst : f32
        %262 = memref.realloc %alloc_6 : memref<9xi32> to memref<7xi32>
        %263 = vector.broadcast %cst : f32 to vector<7x7xf32>
        %264 = vector.fma %263, %263, %263 : vector<7x7xf32>
        %265 = vector.broadcast %c610206965_i32 : i32 to vector<i32>
        %266 = vector.transfer_write %265, %9[%67] : vector<i32>, tensor<9xi32>
        %extracted_52 = tensor.extract %from_elements[%c5, %c5] : tensor<9x9xi64>
        %false_53 = index.bool.constant false
        %267 = vector.broadcast %c6 : index to vector<13xindex>
        %268 = vector.broadcast %true_23 : i1 to vector<13xi1>
        vector.scatter %alloc_21[%c6] [%267], %268, %268 : memref<9xi1>, vector<13xindex>, vector<13xi1>, vector<13xi1>
        %269 = memref.realloc %41 : memref<9xi64> to memref<4xi64>
        %true_54 = index.bool.constant true
        %270 = arith.maxf %cst_0, %cst_4 : f16
        %271 = vector.broadcast %true : i1 to vector<7xi1>
        %272 = vector.transfer_write %271, %3[%c10, %c7] {permutation_map = affine_map<(d0, d1) -> (d0)>} : vector<7xi1>, tensor<9x9xi1>
        %inserted_55 = tensor.insert %137 into %11[%c8, %c4] : tensor<9x7xi1>
        %273 = arith.andi %c-30369_i16, %c-30369_i16 : i16
        %274 = index.mul %58, %160
        scf.yield %true_2 : i1
      }
      bufferization.dealloc_tensor %7 : tensor<7x7xf16>
      %249 = math.copysign %cst_0, %cst_4 : f16
      %inserted_50 = tensor.insert %true_23 into %expanded_29[%c0, %c1, %c0] : tensor<9x9x1xi1>
      %250 = vector.broadcast %cst_1 : f32 to vector<9x7xf32>
      %251 = vector.fma %250, %250, %250 : vector<9x7xf32>
      %252 = index.maxu %c3, %37
      %253 = math.round %2 : tensor<9x7xf16>
      %254 = arith.shrsi %c-30369_i16, %c10949_i16 : i16
      bufferization.dealloc_tensor %from_elements : tensor<9x9xi64>
      %extracted_51 = tensor.extract %9[%c2] : tensor<9xi32>
      %255 = vector.bitcast %111 : vector<4xi1> to vector<4xi1>
      %256 = arith.cmpi ule, %c384628122_i32, %c610206965_i32 : i32
      %257 = math.roundeven %2 : tensor<9x7xf16>
      %258 = affine.load %alloc_8[%c13, %c12] : memref<7x7xf16>
      scf.yield
    }
    default {
      %246 = math.powf %10, %13 : tensor<9x7xf32>
      %247 = vector.broadcast %149 : index to vector<9xindex>
      %248 = vector.broadcast %c-29219_i16 : i16 to vector<9xi16>
      vector.scatter %alloc_18[%c0] [%247], %70, %248 : memref<9xi16>, vector<9xindex>, vector<9xi1>, vector<9xi16>
      %inserted_50 = tensor.insert %c1321725939_i64 into %8[%c3, %c0] : tensor<9x7xi64>
      %249 = arith.remsi %true_22, %true_23 : i1
      %250 = arith.remsi %false, %137 : i1
      %251 = math.ctpop %11 : tensor<9x7xi1>
      %252 = math.cttz %15 : tensor<9x9xi16>
      %253 = arith.addf %cst_0, %cst_0 : f16
      %254 = arith.minf %cst_3, %cst_4 : f16
      %255 = math.expm1 %13 : tensor<9x7xf32>
      %256 = index.sizeof
      bufferization.dealloc_tensor %splat : tensor<9x7xi1>
      %257 = vector.transpose %121, [0] : vector<36xi1> to vector<36xi1>
      %258 = vector.broadcast %cst : f32 to vector<9xf32>
      %259 = vector.fma %258, %258, %258 : vector<9xf32>
      affine.for %arg2 = 0 to 72 {
      }
      %260 = index.divu %c13, %c15
    }
    %168 = math.tan %cst_1 : f32
    %169 = vector.extract %134[1] : vector<7xi32>
    %170 = math.cos %cst : f32
    %171 = arith.xori %false, %false : i1
    %172 = index.divu %c6, %103
    %173 = index.sub %92, %c0
    %174 = math.copysign %collapsed, %collapsed : tensor<63xf32>
    %175 = vector.broadcast %cst : f32 to vector<9x7xf32>
    %176 = vector.bitcast %133 : vector<7xi1> to vector<7xi1>
    %alloc_35 = memref.alloc() : memref<9x7xf16>
    %177 = math.cos %10 : tensor<9x7xf32>
    %178 = memref.alloca_scope  -> (memref<7x7xf16>) {
      %expanded_50 = tensor.expand_shape %12 [[0], [1, 2]] : tensor<9x7xi16> into tensor<9x7x1xi16>
      %246 = math.log10 %cst_1 : f32
      %alloc_51 = memref.alloc() : memref<7x7xi1>
      %247 = vector.broadcast %c1321725939_i64 : i64 to vector<9x9xi64>
      %248 = vector.broadcast %false : i1 to vector<9x9xi1>
      %249 = vector.broadcast %c1603447190_i32 : i32 to vector<9x9xi32>
      %250 = vector.gather %8[%c3, %65] [%249], %248, %247 : tensor<9x7xi64>, vector<9x9xi32>, vector<9x9xi1>, vector<9x9xi64> into vector<9x9xi64>
      %251 = arith.ori %c1416631668_i64, %c1321725939_i64 : i64
      %252 = index.sizeof
      %253 = tensor.empty() : tensor<9x7xi16>
      %254 = arith.remf %cst_0, %cst_0 : f16
      %255 = vector.extract_strided_slice %121 {offsets = [26], sizes = [3], strides = [1]} : vector<36xi1> to vector<3xi1>
      %256 = vector.extract_strided_slice %90 {offsets = [4], sizes = [2], strides = [1]} : vector<9x9xf32> to vector<2x9xf32>
      %257 = arith.minf %cst_3, %cst_4 : f16
      %258 = math.tan %cst : f32
      %259 = index.mul %c14, %158
      %260 = vector.shuffle %134, %162 [0, 1, 2, 8, 10, 11, 13, 14, 18, 19] : vector<7xi32>, vector<13xi32>
      %261 = arith.remf %cst_4, %cst_4 : f16
      %262 = index.add %67, %95
      %263 = math.tan %2 : tensor<9x7xf16>
      %264 = arith.shli %true_23, %true_23 : i1
      %265 = math.ctlz %5 : tensor<9xi1>
      %extracted_52 = tensor.extract %13[%c3, %c4] : tensor<9x7xf32>
      %266 = arith.shrui %c610206965_i32, %c610206965_i32 : i32
      %267 = math.fpowi %10, %6 : tensor<9x7xf32>, tensor<9x7xi32>
      %268 = math.cttz %expanded_32 : tensor<9x7x1xi64>
      %269 = index.castu %true_23 : i1 to index
      %270 = arith.cmpi ugt, %c1321725939_i64, %c1416631668_i64 : i64
      %271 = vector.broadcast %cst : f32 to vector<9x7xf32>
      %272 = index.floordivs %149, %c4
      %273 = math.ctlz %12 : tensor<9x7xi16>
      bufferization.dealloc_tensor %12 : tensor<9x7xi16>
      vector.print %248 : vector<9x9xi1>
      %extracted_53 = tensor.extract %12[%c6, %c6] : tensor<9x7xi16>
      %274 = index.mul %c12, %rank
      memref.alloca_scope.return %alloc_11 : memref<7x7xf16>
    }
    %179 = vector.extract_strided_slice %134 {offsets = [4], sizes = [2], strides = [1]} : vector<7xi32> to vector<2xi32>
    %180 = math.log1p %2 : tensor<9x7xf16>
    affine.store %c610206965_i32, %alloc_17[%c11, %c4] : memref<7x7xi32>
    %181 = math.ctlz %c1603447190_i32 : i32
    %182 = vector.broadcast %true_2 : i1 to vector<36x36xi1>
    %183 = vector.outerproduct %121, %121, %182 {kind = #vector.kind<maxsi>} : vector<36xi1>, vector<36xi1>
    %184 = math.log10 %7 : tensor<7x7xf16>
    %185 = math.ceil %cst : f32
    %expanded_36 = tensor.expand_shape %6 [[0], [1, 2]] : tensor<9x7xi32> into tensor<9x7x1xi32>
    %186 = arith.ceildivsi %true_2, %false : i1
    %187 = scf.while (%arg2 = %175) : (vector<9x7xf32>) -> vector<9x7xf32> {
      %246 = math.round %cst_4 : f16
      %247 = bufferization.clone %alloc_18 : memref<9xi16> to memref<9xi16>
      %248 = vector.splat %173 : vector<9x7xindex>
      %249 = arith.remf %cst_0, %cst_0 : f16
      %250 = arith.mulf %cst_4, %cst_4 : f16
      scf.if %true {
        %252 = affine.load %178[%c8, %c12] : memref<7x7xf16>
        affine.store %cst_0, %alloc_8[%c6, %c2] : memref<7x7xf16>
        memref.copy %alloc_10, %80 : memref<7x7xf32> to memref<7x7xf32>
        %253 = index.sub %67, %58
        %254 = bufferization.to_tensor %alloc_10 : memref<7x7xf32>
        %255 = vector.multi_reduction <add>, %179, %152 [0] : vector<2xi32> to i32
        %256 = math.sqrt %254 : tensor<7x7xf32>
        affine.store %true_22, %alloc_16[%c0, %c4] : memref<9x9xi1>
      } else {
        %252 = vector.insert %152, %112 [0] : i32 into vector<4xi32>
        %253 = vector.broadcast %cst : f32 to vector<4xf32>
        %254 = vector.maskedload %alloc[%c6, %c5], %111, %253 : memref<9x9xf32>, vector<4xi1>, vector<4xf32> into vector<4xf32>
        %255 = affine.apply affine_map<(d0, d1, d2, d3) -> (((d3 floordiv 4) * 32) floordiv 64)>(%37, %c14, %146, %c12)
        %256 = arith.cmpf true, %cst, %cst_1 : f32
        %cst_50 = arith.constant 0x4D141EB0 : f32
        %257 = arith.minf %cst_4, %cst_0 : f16
        %258 = index.sub %65, %rank_25
        %259 = tensor.empty() : tensor<9x7xf32>
      }
      %251 = scf.execute_region -> memref<7x7xi64> {
        %252 = vector.broadcast %cst_1 : f32 to vector<9xf32>
        %253 = vector.insert %252, %91 [1] : vector<9xf32> into vector<9x9xf32>
        %254 = arith.addi %c1603447190_i32, %152 : i32
        %255 = math.powf %cst_1, %cst_1 : f32
        %256 = arith.maxsi %c1416631668_i64, %c1321725939_i64 : i64
        %extracted_50 = tensor.extract %expanded_29[%c7, %c4, %c0] : tensor<9x9x1xi1>
        %257 = memref.atomic_rmw maxs %c610206965_i32, %alloc_17[%c2, %c6] : (i32, memref<7x7xi32>) -> i32
        %258 = math.log10 %10 : tensor<9x7xf32>
        %259 = math.absi %17 : tensor<9xi1>
        %260 = index.maxu %c9, %c3
        %from_elements_51 = tensor.from_elements %c-30369_i16, %c17207_i16, %c-29219_i16, %c-29219_i16, %c17207_i16, %c-30369_i16, %c10949_i16, %c17207_i16, %27, %c-30369_i16, %c17207_i16, %c-29219_i16, %c-29219_i16, %c10949_i16, %c10949_i16, %c17207_i16, %c-30369_i16, %c-29219_i16, %27, %c-30369_i16, %c-29219_i16, %c17207_i16, %c10949_i16, %c-30369_i16, %c-29219_i16, %c17207_i16, %c10949_i16, %27, %27, %c17207_i16, %c10949_i16, %c-30369_i16, %27, %c-30369_i16, %c10949_i16, %c10949_i16, %c-30369_i16, %c-29219_i16, %c17207_i16, %c-29219_i16, %c10949_i16, %c10949_i16, %27, %27, %27, %c10949_i16, %c-30369_i16, %c17207_i16, %c17207_i16, %c17207_i16, %c10949_i16, %c10949_i16, %27, %c17207_i16, %c10949_i16, %c17207_i16, %c17207_i16, %c-29219_i16, %c-30369_i16, %27, %27, %27, %c17207_i16 : tensor<9x7xi16>
        %261 = vector.broadcast %c1321725939_i64 : i64 to vector<i64>
        %262 = vector.transfer_write %261, %0[%c8] : vector<i64>, tensor<9xi64>
        %263 = arith.negf %cst_1 : f32
        %264 = arith.cmpi sle, %false, %true_22 : i1
        %265 = arith.mulf %cst_0, %cst_0 : f16
        %266 = arith.divui %c384628122_i32, %152 : i32
        %267 = bufferization.to_tensor %alloc_7 : memref<9xi1>
        %alloc_52 = memref.alloc() : memref<7x7xi64>
        scf.yield %alloc_52 : memref<7x7xi64>
      }
      %alloca = memref.alloca() : memref<7x7xf32>
      scf.condition(%true_22) %175 : vector<9x7xf32>
    } do {
    ^bb0(%arg2: vector<9x7xf32>):
      %246 = arith.shrui %137, %137 : i1
      %collapsed_50 = tensor.collapse_shape %1 [[0, 1]] : tensor<9x7xi64> into tensor<63xi64>
      %247 = vector.contract {indexing_maps = [affine_map<(d0) -> (d0)>, affine_map<(d0) -> (d0)>, affine_map<(d0) -> ()>], iterator_types = ["reduction"], kind = #vector.kind<mul>} %179, %179, %c610206965_i32 : vector<2xi32>, vector<2xi32> into i32
      %248 = vector.broadcast %cst_1 : f32 to vector<4xf32>
      %249 = vector.maskedload %alloc_19[%c7, %c2], %111, %248 : memref<9x7xf32>, vector<4xi1>, vector<4xf32> into vector<4xf32>
      %250 = arith.divui %c1603447190_i32, %152 : i32
      memref.copy %alloc_10, %80 : memref<7x7xf32> to memref<7x7xf32>
      %rank_51 = tensor.rank %14 : tensor<9xi32>
      %251 = vector.broadcast %cst : f32 to vector<9x7xf32>
      %252 = vector.fma %251, %175, %251 : vector<9x7xf32>
      %253 = vector.insertelement %c10949_i16, %49[%160 : index] : vector<1xi16>
      %254 = math.copysign %13, %10 : tensor<9x7xf32>
      %255 = vector.broadcast %c610206965_i32 : i32 to vector<9x7xi32>
      %256 = math.floor %cst_0 : f16
      %257 = arith.ori %c1603447190_i32, %c610206965_i32 : i32
      %258 = math.expm1 %2 : tensor<9x7xf16>
      %expanded_52 = tensor.expand_shape %3 [[0], [1, 2]] : tensor<9x9xi1> into tensor<9x9x1xi1>
      %259 = arith.divf %cst, %cst : f32
      scf.yield %175 : vector<9x7xf32>
    }
    %188 = vector.multi_reduction <minf>, %56, %56 [] : vector<9x9xf16> to vector<9x9xf16>
    %189 = vector.contract {indexing_maps = [affine_map<(d0) -> (d0)>, affine_map<(d0) -> (d0)>, affine_map<(d0) -> ()>], iterator_types = ["reduction"], kind = #vector.kind<xor>} %134, %101, %c610206965_i32 : vector<7xi32>, vector<7xi32> into i32
    %190 = index.sub %158, %95
    %191 = arith.ori %true_2, %true_2 : i1
    %192 = affine.max affine_map<(d0, d1, d2, d3) -> (d3 - d1, (d2 * 8) ceildiv 64, d3 - d1 + d3 - d1 + 1)>(%c4, %165, %158, %c9)
    %expanded_37 = tensor.expand_shape %10 [[0], [1, 2]] : tensor<9x7xf32> into tensor<9x7x1xf32>
    %193 = affine.load %alloc_16[%c4, %c11] : memref<9x9xi1>
    %194 = tensor.empty(%103) : tensor<9x?xi1>
    %c1276994791_i32 = arith.constant 1276994791 : i32
    %195 = vector.broadcast %cst_3 : f16 to vector<9x7xf16>
    %196 = arith.maxsi %193, %true : i1
    %197 = arith.cmpi sle, %c10949_i16, %c17207_i16 : i16
    %198 = index.maxu %c11, %95
    %199 = arith.floordivsi %c10949_i16, %c10949_i16 : i16
    %200 = vector.transpose %179, [0] : vector<2xi32> to vector<2xi32>
    %201 = vector.broadcast %c384628122_i32 : i32 to vector<7x7xi32>
    %202 = vector.outerproduct %134, %134, %201 {kind = #vector.kind<minsi>} : vector<7xi32>, vector<7xi32>
    affine.store %cst, %alloc[%c9, %c3] : memref<9x9xf32>
    %generated = tensor.generate %c2, %c5 {
    ^bb0(%arg2: index, %arg3: index):
      %246 = math.exp2 %cst_3 : f16
      %247 = vector.broadcast %c1321725939_i64 : i64 to vector<9x9xi64>
      %248 = vector.broadcast %true_23 : i1 to vector<9x9xi1>
      %249 = vector.broadcast %c1603447190_i32 : i32 to vector<9x9xi32>
      %250 = vector.gather %from_elements[%rank_25, %95] [%249], %248, %247 : tensor<9x9xi64>, vector<9x9xi32>, vector<9x9xi1>, vector<9x9xi64> into vector<9x9xi64>
      %251 = vector.transpose %134, [0] : vector<7xi32> to vector<7xi32>
      %252 = vector.transpose %90, [0, 1] : vector<9x9xf32> to vector<9x9xf32>
      tensor.yield %cst_0 : f16
    } : tensor<?x?xf16>
    %203 = bufferization.clone %alloc_13 : memref<7x7xi1> to memref<7x7xi1>
    %extracted = tensor.extract %4[%c4] : tensor<9xi64>
    %204 = memref.atomic_rmw mins %c17207_i16, %alloc_14[%c1, %c5] : (i16, memref<9x9xi16>) -> i16
    %cst_38 = arith.constant 1.392000e+04 : f16
    scf.execute_region {
      %246 = index.ceildivs %65, %109
      %247 = math.expm1 %2 : tensor<9x7xf16>
      %splat_50 = tensor.splat %true_23 : tensor<9xi1>
      %248 = arith.divui %c1603447190_i32, %152 : i32
      %249 = index.sizeof
      %250 = index.ceildivs %c5, %c10
      %251 = arith.shrui %c17207_i16, %27 : i16
      %252 = vector.matrix_multiply %20, %49 {lhs_columns = 1 : i32, lhs_rows = 13 : i32, rhs_columns = 1 : i32} : (vector<13xi16>, vector<1xi16>) -> vector<13xi16>
      %253 = index.floordivs %c9, %249
      scf.index_switch %c6 
      case 1 {
        %260 = vector.multi_reduction <and>, %162, %152 [0] : vector<13xi32> to i32
        %collapsed_52 = tensor.collapse_shape %splat [[0, 1]] : tensor<9x7xi1> into tensor<63xi1>
        %261 = index.ceildivs %190, %c9
        %262 = math.fpowi %2, %6 : tensor<9x7xf16>, tensor<9x7xi32>
        %263 = arith.remf %cst_3, %cst_4 : f16
        bufferization.dealloc_tensor %7 : tensor<7x7xf16>
        vector.print %121 : vector<36xi1>
        %264 = index.castu %137 : i1 to index
        %265 = arith.minf %cst_3, %cst_0 : f16
        %266 = arith.divui %c10949_i16, %c-30369_i16 : i16
        %true_53 = index.bool.constant true
        vector.print %195 : vector<9x7xf16>
        %267 = index.sizeof
        %268 = vector.extract %111[0] : vector<4xi1>
        %269 = bufferization.to_tensor %alloc_13 : memref<7x7xi1>
        %270 = math.atan2 %13, %10 : tensor<9x7xf32>
        scf.yield
      }
      case 2 {
        %260 = affine.load %alloc_5[%c14, %c8] : memref<9x7xi32>
        %261 = vector.multi_reduction <minui>, %20, %20 [] : vector<13xi16> to vector<13xi16>
        %262 = bufferization.clone %203 : memref<7x7xi1> to memref<7x7xi1>
        %263 = arith.divui %true, %false : i1
        memref.store %c384628122_i32, %alloc_12[%c5] : memref<9xi32>
        %264 = arith.muli %c1603447190_i32, %260 : i32
        %extracted_52 = tensor.extract %9[%c5] : tensor<9xi32>
        %265 = bufferization.to_tensor %alloc_6 : memref<9xi32>
        %collapsed_53 = tensor.collapse_shape %13 [[0, 1]] : tensor<9x7xf32> into tensor<63xf32>
        %266 = affine.apply affine_map<(d0, d1) -> (0)>(%c1, %c0)
        %267 = vector.extract %110[3] : vector<4xi32>
        %268 = arith.minf %cst_4, %cst_3 : f16
        %269 = math.copysign %cst_0, %cst_3 : f16
        %alloc_54 = memref.alloc() : memref<i1>
        memref.tensor_store %21, %alloc_54 : memref<i1>
        %270 = bufferization.clone %203 : memref<7x7xi1> to memref<7x7xi1>
        %271 = vector.transpose %49, [0] : vector<1xi16> to vector<1xi16>
        scf.yield
      }
      default {
        %260 = affine.apply affine_map<(d0) -> (d0 + d0 - 12 - 8)>(%rank_25)
        %261 = vector.broadcast %c12 : index to vector<9xindex>
        %262 = vector.broadcast %cst : f32 to vector<9xf32>
        vector.scatter %alloc_10[%c4, %c1] [%261], %71, %262 : memref<7x7xf32>, vector<9xindex>, vector<9xi1>, vector<9xf32>
        %263 = tensor.empty(%109) : tensor<?x7xf16>
        %264 = bufferization.clone %72 : memref<9xi1> to memref<9xi1>
        affine.store %true_23, %alloc_13[%c5, %c11] : memref<7x7xi1>
        %265 = math.expm1 %expanded_37 : tensor<9x7x1xf32>
        %266 = vector.insertelement %c1603447190_i32, %150[] : vector<i32>
        %rank_52 = tensor.rank %4 : tensor<9xi64>
        memref.store %cst_3, %178[%c4, %c0] : memref<7x7xf16>
        %267 = vector.insertelement %c10949_i16, %138[] : vector<i16>
        %268 = math.absf %7 : tensor<7x7xf16>
        %269 = arith.mulf %cst, %cst : f32
        %270 = index.casts %253 : index to i32
        %alloc_53 = memref.alloc() : memref<9x9x1xi1>
        memref.tensor_store %expanded_29, %alloc_53 : memref<9x9x1xi1>
        %extracted_54 = tensor.extract %splat_50[%c8] : tensor<9xi1>
        %271 = arith.mulf %cst, %cst_1 : f32
      }
      %254 = arith.ceildivsi %27, %c-29219_i16 : i16
      %255 = affine.min affine_map<(d0, d1) -> ((d0 mod 32) ceildiv 32, -(d1 mod 32 + 64), -d0)>(%67, %c4)
      %256 = math.fpowi %2, %6 : tensor<9x7xf16>, tensor<9x7xi32>
      %alloc_51 = memref.alloc() : memref<1xi1>
      %257 = linalg.generic {indexing_maps = [affine_map<(d0, d1, d2) -> (d0, d1)>, affine_map<(d0, d1, d2) -> (d2)>, affine_map<(d0, d1, d2) -> (d0, d1)>, affine_map<(d0, d1, d2) -> (d0, d1, d2)>], iterator_types = ["parallel", "parallel", "parallel"]} ins(%alloc_16, %alloc_51, %splat_30 : memref<9x9xi1>, memref<1xi1>, tensor<9x9xi1>) outs(%expanded_29 : tensor<9x9x1xi1>) {
      ^bb0(%in: i1, %in_52: i1, %in_53: i1, %out: i1):
        %260 = math.copysign %2, %2 : tensor<9x7xf16>
        %cast = tensor.cast %transposed : tensor<9xi64> to tensor<?xi64>
        %261 = arith.addi %c-30369_i16, %c-30369_i16 : i16
        %extracted_54 = tensor.extract %1[%c6, %c0] : tensor<9x7xi64>
        %262 = math.expm1 %13 : tensor<9x7xf32>
        %263 = arith.andi %152, %c610206965_i32 : i32
        %264 = index.ceildivu %rank_25, %92
        %265 = arith.andi %c610206965_i32, %152 : i32
        bufferization.dealloc_tensor %expanded_32 : tensor<9x7x1xi64>
        %266 = tensor.empty() : tensor<9x9xi16>
        %267 = math.log10 %13 : tensor<9x7xf32>
        %268 = index.sub %253, %c10
        vector.print %70 : vector<9xi1>
        %269 = math.tan %collapsed : tensor<63xf32>
        %270 = math.powf %10, %13 : tensor<9x7xf32>
        %expanded_55 = tensor.expand_shape %expanded_32 [[0], [1], [2, 3]] : tensor<9x7x1xi64> into tensor<9x7x1x1xi64>
        %271 = bufferization.clone %alloc_10 : memref<7x7xf32> to memref<7x7xf32>
        %272 = vector.broadcast %c384628122_i32 : i32 to vector<9xi32>
        %dest_56, %accumulated_value_57 = vector.scan <maxsi>, %30, %272 {inclusive = false, reduction_dim = 1 : i64} : vector<9x7xi32>, vector<9xi32>
        %273 = vector.contract {indexing_maps = [affine_map<(d0, d1, d2) -> (d2, d0)>, affine_map<(d0, d1, d2) -> (d2, d1)>, affine_map<(d0, d1, d2) -> (d0, d1)>], iterator_types = ["parallel", "parallel", "reduction"], kind = #vector.kind<minf>} %56, %195, %195 : vector<9x9xf16>, vector<9x7xf16> into vector<9x7xf16>
        %274 = arith.mulf %cst_3, %cst_3 : f16
        %275 = bufferization.to_tensor %alloc_20 : memref<9xi1>
        %276 = vector.broadcast %cst_0 : f16 to vector<4xf16>
        %277 = vector.maskedload %alloc_8[%c0, %c3], %111, %276 : memref<7x7xf16>, vector<4xi1>, vector<4xf16> into vector<4xf16>
        %278 = arith.maxf %cst, %cst_1 : f32
        %279 = memref.atomic_rmw assign %cst, %alloc_15[%c0, %c1] : (f32, memref<9x9xf32>) -> f32
        %280 = arith.addf %cst_3, %cst_3 : f16
        %281 = math.log1p %2 : tensor<9x7xf16>
        %282 = index.castu %37 : index to i32
        memref.assume_alignment %72, 8 : memref<9xi1>
        %283 = arith.remsi %c1321725939_i64, %extracted_54 : i64
        %284 = arith.minf %cst_4, %cst_0 : f16
        %285 = math.floor %2 : tensor<9x7xf16>
        %286 = math.expm1 %153 : tensor<9x9xf32>
        linalg.yield %false : i1
      } -> tensor<9x9x1xi1>
      %258 = scf.while (%arg2 = %56) : (vector<9x9xf16>) -> vector<9x9xf16> {
        %260 = math.floor %cst_0 : f16
        %inserted_52 = tensor.insert %c1603447190_i32 into %14[%c6] : tensor<9xi32>
        %261 = vector.extract_strided_slice %110 {offsets = [0], sizes = [2], strides = [1]} : vector<4xi32> to vector<2xi32>
        %262 = vector.bitcast %90 : vector<9x9xf32> to vector<9x9xf32>
        %263 = math.tanh %10 : tensor<9x7xf32>
        %264 = arith.ceildivsi %true, %true_22 : i1
        bufferization.dealloc_tensor %5 : tensor<9xi1>
        %265 = arith.negf %cst : f32
        scf.condition(%true_2) %56 : vector<9x9xf16>
      } do {
      ^bb0(%arg2: vector<9x9xf16>):
        %260 = index.divu %65, %c5
        %261 = vector.load %alloc_5[%c0, %c4] : memref<9x7xi32>, vector<9xi32>
        %262 = vector.extract_strided_slice %30 {offsets = [1], sizes = [6], strides = [1]} : vector<9x7xi32> to vector<6x7xi32>
        %263 = arith.ori %193, %true_23 : i1
        %264 = bufferization.clone %alloc_16 : memref<9x9xi1> to memref<9x9xi1>
        %265 = bufferization.clone %alloc_10 : memref<7x7xf32> to memref<7x7xf32>
        memref.assume_alignment %265, 2 : memref<7x7xf32>
        %266 = vector.load %alloc_19[%c8, %c5] : memref<9x7xf32>, vector<9xf32>
        %267 = index.sizeof
        %268 = arith.shli %152, %c384628122_i32 : i32
        %269 = math.powf %cst_4, %cst_0 : f16
        %270 = math.expm1 %cst_4 : f16
        %271 = math.tan %expanded_37 : tensor<9x7x1xf32>
        %272 = index.floordivs %c11, %c9
        %273 = arith.muli %c17207_i16, %27 : i16
        %274 = memref.realloc %alloc_12 : memref<9xi32> to memref<4xi32>
        scf.yield %56 : vector<9x9xf16>
      }
      %259 = math.sqrt %13 : tensor<9x7xf32>
      scf.yield
    }
    %205 = affine.apply affine_map<(d0, d1) -> ((-(((d1 + 4) * 4) floordiv 16)) mod 8)>(%192, %149)
    %206 = vector.bitcast %101 : vector<7xi32> to vector<7xi32>
    affine.store %152, %alloc_12[%c6] : memref<9xi32>
    %207 = index.floordivs %c11, %103
    %208 = arith.remf %cst_4, %cst_0 : f16
    %209 = math.log1p %13 : tensor<9x7xf32>
    %collapsed_39 = tensor.collapse_shape %expanded_32 [[0, 1], [2]] : tensor<9x7x1xi64> into tensor<63x1xi64>
    %alloc_40 = memref.alloc() : memref<9xi32>
    %alloc_41 = memref.alloc() : memref<9x7xi32>
    memref.copy %alloc_5, %alloc_41 : memref<9x7xi32> to memref<9x7xi32>
    %210 = math.log10 %7 : tensor<7x7xf16>
    affine.store %c384628122_i32, %alloc_12[%c12] : memref<9xi32>
    %211 = math.powf %13, %13 : tensor<9x7xf32>
    %212 = arith.addi %true_22, %true : i1
    %false_42 = index.bool.constant false
    %213 = vector.extract %176[2] : vector<7xi1>
    %214 = arith.andi %c1416631668_i64, %c1416631668_i64 : i64
    %expanded_43 = tensor.expand_shape %12 [[0], [1, 2]] : tensor<9x7xi16> into tensor<9x7x1xi16>
    %cst_44 = arith.constant 1.572000e+04 : f16
    %expanded_45 = tensor.expand_shape %13 [[0], [1, 2]] : tensor<9x7xf32> into tensor<9x7x1xf32>
    %215 = math.expm1 %cst_3 : f16
    %216 = arith.cmpi sge, %c10949_i16, %c-30369_i16 : i16
    %217 = affine.apply affine_map<(d0, d1, d2) -> (d0 - 32)>(%92, %192, %c6)
    %218 = affine.min affine_map<(d0, d1, d2, d3) -> (d3 floordiv 8)>(%149, %c2, %92, %190)
    %219 = math.exp2 %10 : tensor<9x7xf32>
    %220 = arith.muli %152, %152 : i32
    %221 = vector.broadcast %cst_1 : f32 to vector<7x7xf32>
    %222 = vector.fma %221, %221, %221 : vector<7x7xf32>
    %223 = memref.alloca_scope  -> (memref<9x7xi64>) {
      %246 = arith.minf %cst_3, %cst_4 : f16
      %247 = affine.load %alloc_16[%c5, %c12] : memref<9x9xi1>
      %248 = bufferization.clone %alloc_9 : memref<9xi32> to memref<9xi32>
      %249 = scf.execute_region -> index {
        %collapsed_54 = tensor.collapse_shape %12 [[0, 1]] : tensor<9x7xi16> into tensor<63xi16>
        %274 = bufferization.clone %alloc_16 : memref<9x9xi1> to memref<9x9xi1>
        %275 = vector.maskedload %alloc_7[%c2], %176, %133 : memref<9xi1>, vector<7xi1>, vector<7xi1> into vector<7xi1>
        affine.store %cst, %alloc_15[%c12, %c12] : memref<9x9xf32>
        %276 = vector.shuffle %121, %71 [0, 3, 4, 6, 8, 11, 13, 15, 16, 18, 19, 20, 21, 27, 28, 34, 36, 41, 43, 44] : vector<36xi1>, vector<9xi1>
        %277 = arith.remsi %c-30369_i16, %c-30369_i16 : i16
        %278 = index.sub %c11, %c6
        %279 = vector.matrix_multiply %162, %206 {lhs_columns = 1 : i32, lhs_rows = 13 : i32, rhs_columns = 7 : i32} : (vector<13xi32>, vector<7xi32>) -> vector<91xi32>
        %280 = arith.ori %false, %true_23 : i1
        %281 = math.absf %cst : f32
        %282 = arith.addf %cst_3, %cst_0 : f16
        %283 = vector.matrix_multiply %49, %20 {lhs_columns = 1 : i32, lhs_rows = 1 : i32, rhs_columns = 13 : i32} : (vector<1xi16>, vector<13xi16>) -> vector<13xi16>
        %284 = tensor.empty() : tensor<7x7xi16>
        %285 = memref.realloc %41 : memref<9xi64> to memref<7xi64>
        %286 = arith.minui %27, %c-30369_i16 : i16
        %287 = tensor.empty(%95, %67) : tensor<?x?xi16>
        scf.yield %c15 : index
      }
      %250 = arith.addi %extracted, %c1321725939_i64 : i64
      memref.tensor_store %14, %248 : memref<9xi32>
      %251 = math.exp2 %7 : tensor<7x7xf16>
      %252 = arith.maxsi %27, %c17207_i16 : i16
      %253 = math.exp2 %7 : tensor<7x7xf16>
      bufferization.dealloc_tensor %1 : tensor<9x7xi64>
      %254 = arith.shli %c10949_i16, %c10949_i16 : i16
      %255 = arith.divf %cst_0, %cst_0 : f16
      %256 = vector.broadcast %cst : f32 to vector<9xf32>
      %257 = vector.fma %256, %256, %256 : vector<9xf32>
      %258 = vector.broadcast %152 : i32 to vector<7x7xi32>
      %259 = vector.broadcast %true_23 : i1 to vector<7x7xi1>
      %260 = vector.gather %6[%205, %c11] [%258], %259, %258 : tensor<9x7xi32>, vector<7x7xi32>, vector<7x7xi1>, vector<7x7xi32> into vector<7x7xi32>
      %261 = scf.while (%arg2 = %112) : (vector<4xi32>) -> vector<4xi32> {
        %274 = index.ceildivu %92, %95
        %275 = arith.andi %193, %247 : i1
        %276 = arith.addi %c1603447190_i32, %c384628122_i32 : i32
        %277 = math.tanh %expanded_37 : tensor<9x7x1xf32>
        %alloca = memref.alloca() : memref<7x7xf16>
        %278 = vector.contract {indexing_maps = [affine_map<(d0) -> (d0)>, affine_map<(d0) -> (d0)>, affine_map<(d0) -> ()>], iterator_types = ["reduction"], kind = #vector.kind<minsi>} %70, %71, %true_23 : vector<9xi1>, vector<9xi1> into i1
        %279 = vector.maskedload %alloc_16[%c7, %c4], %111, %111 : memref<9x9xi1>, vector<4xi1>, vector<4xi1> into vector<4xi1>
        %280 = index.ceildivs %rank_25, %217
        scf.condition(%false_42) %110 : vector<4xi32>
      } do {
      ^bb0(%arg2: vector<4xi32>):
        %collapsed_54 = tensor.collapse_shape %10 [[0, 1]] : tensor<9x7xf32> into tensor<63xf32>
        %274 = arith.cmpf true, %cst_1, %cst : f32
        bufferization.dealloc_tensor %11 : tensor<9x7xi1>
        %dest_55, %accumulated_value_56 = vector.scan <and>, %30, %206 {inclusive = true, reduction_dim = 0 : i64} : vector<9x7xi32>, vector<7xi32>
        memref.store %true_2, %alloc_20[%c4] : memref<9xi1>
        %275 = arith.ceildivsi %true_2, %false_42 : i1
        %alloc_57 = memref.alloc() : memref<9x7xf16>
        memref.tensor_store %2, %alloc_57 : memref<9x7xf16>
        %276 = index.casts %false_42 : i1 to index
        %277 = vector.load %alloc_15[%c1, %c3] : memref<9x9xf32>, vector<9x7xf32>
        %278 = bufferization.to_tensor %alloc_19 : memref<9x7xf32>
        %279 = vector.broadcast %137 : i1 to vector<13xi1>
        %280 = vector.maskedload %alloc_18[%c7], %279, %20 : memref<9xi16>, vector<13xi1>, vector<13xi16> into vector<13xi16>
        %281 = vector.broadcast %c1603447190_i32 : i32 to vector<13x13xi32>
        %282 = vector.outerproduct %162, %162, %281 {kind = #vector.kind<mul>} : vector<13xi32>, vector<13xi32>
        %283 = arith.divf %cst, %cst : f32
        %284 = vector.broadcast %218 : index to vector<7xindex>
        %285 = vector.broadcast %extracted : i64 to vector<7xi64>
        vector.scatter %41[%c7] [%284], %133, %285 : memref<9xi64>, vector<7xindex>, vector<7xi1>, vector<7xi64>
        %286 = arith.mulf %cst, %cst_1 : f32
        %287 = math.log10 %expanded_45 : tensor<9x7x1xf32>
        scf.yield %112 : vector<4xi32>
      }
      %262 = math.roundeven %153 : tensor<9x9xf32>
      affine.store %c384628122_i32, %alloc_5[%c3, %c7] : memref<9x7xi32>
      %263 = memref.load %alloc_18[%c1] : memref<9xi16>
      vector.print %91 : vector<9x9xf32>
      %264 = index.add %c6, %c7
      %generated_50 = tensor.generate %172, %190 {
      ^bb0(%arg2: index, %arg3: index):
        %274 = math.sqrt %13 : tensor<9x7xf32>
        %from_elements_54 = tensor.from_elements %c-29219_i16, %27, %c-30369_i16, %c-30369_i16, %c10949_i16, %c17207_i16, %27, %c-30369_i16, %c17207_i16, %27, %c-30369_i16, %c17207_i16, %c10949_i16, %c10949_i16, %27, %c-29219_i16, %27, %c-30369_i16, %c17207_i16, %c-29219_i16, %c-29219_i16, %27, %c-29219_i16, %c-29219_i16, %c17207_i16, %c17207_i16, %27, %c10949_i16, %c10949_i16, %27, %c10949_i16, %c-30369_i16, %c-29219_i16, %27, %27, %27, %27, %c17207_i16, %c-30369_i16, %c-29219_i16, %c17207_i16, %c-29219_i16, %c10949_i16, %c-30369_i16, %c17207_i16, %c10949_i16, %c17207_i16, %27, %c10949_i16, %c17207_i16, %c10949_i16, %27, %27, %c10949_i16, %c17207_i16, %c-29219_i16, %c-30369_i16, %27, %c17207_i16, %c-29219_i16, %c-29219_i16, %c-29219_i16, %c-29219_i16, %c10949_i16, %c-29219_i16, %27, %c-29219_i16, %27, %c-29219_i16, %c-29219_i16, %c-30369_i16, %c-30369_i16, %c17207_i16, %c17207_i16, %c-29219_i16, %c-30369_i16, %27, %c-30369_i16, %c-30369_i16, %c-29219_i16, %27 : tensor<9x9xi16>
        affine.store %cst_1, %alloc[%c12, %c3] : memref<9x9xf32>
        %275 = arith.mulf %cst_4, %cst_3 : f16
        tensor.yield %cst : f32
      } : tensor<?x?xf32>
      %265 = index.ceildivu %205, %rank
      %false_51 = arith.constant false
      %266 = math.cttz %true_22 : i1
      %267 = vector.bitcast %90 : vector<9x9xf32> to vector<9x9xf32>
      %268 = index.ceildivs %37, %265
      %269 = arith.ori %true_23, %true : i1
      %270 = arith.maxsi %true_2, %193 : i1
      %271 = arith.minf %cst_1, %cst : f32
      %expanded_52 = tensor.expand_shape %129 [[0, 1]] : tensor<9xi1> into tensor<9x1xi1>
      %272 = arith.andi %extracted, %c1321725939_i64 : i64
      %273 = vector.contract {indexing_maps = [affine_map<(d0) -> (d0)>, affine_map<(d0) -> (d0)>, affine_map<(d0) -> ()>], iterator_types = ["reduction"], kind = #vector.kind<and>} %121, %121, %247 : vector<36xi1>, vector<36xi1> into i1
      %alloc_53 = memref.alloc() : memref<9x7xi64>
      memref.alloca_scope.return %alloc_53 : memref<9x7xi64>
    }
    %224 = math.absf %cst_1 : f32
    %inserted = tensor.insert %cst into %10[%c3, %c1] : tensor<9x7xf32>
    %225 = tensor.empty() : tensor<7x7xf16>
    %226 = arith.andi %false, %false_42 : i1
    scf.index_switch %145 
    case 1 {
      %246 = index.sizeof
      %247 = math.floor %13 : tensor<9x7xf32>
      %248 = vector.extract_strided_slice %101 {offsets = [0], sizes = [3], strides = [1]} : vector<7xi32> to vector<3xi32>
      %249 = arith.remsi %c1321725939_i64, %extracted : i64
      memref.assume_alignment %alloc_14, 8 : memref<9x9xi16>
      %250 = vector.broadcast %c-29219_i16 : i16 to vector<13x13xi16>
      %251 = vector.outerproduct %20, %20, %250 {kind = #vector.kind<add>} : vector<13xi16>, vector<13xi16>
      vector.print %134 : vector<7xi32>
      %252 = index.maxs %207, %190
      %253 = arith.andi %extracted, %extracted : i64
      %254 = tensor.empty() : tensor<9x7xi64>
      %mapped_50 = linalg.map ins(%223, %8, %8 : memref<9x7xi64>, tensor<9x7xi64>, tensor<9x7xi64>) outs(%254 : tensor<9x7xi64>)
        (%in: i64, %in_52: i64, %in_53: i64) {
          %260 = bufferization.clone %alloc_12 : memref<9xi32> to memref<9xi32>
          %261 = vector.multi_reduction <or>, %71, %true [0] : vector<9xi1> to i1
          %262 = bufferization.clone %alloc_9 : memref<9xi32> to memref<9xi32>
          %263 = arith.minf %cst_4, %cst_0 : f16
          %264 = arith.addf %cst_4, %cst_0 : f16
          %265 = vector.contract {indexing_maps = [affine_map<(d0) -> (d0)>, affine_map<(d0) -> (d0)>, affine_map<(d0) -> ()>], iterator_types = ["reduction"], kind = #vector.kind<add>} %101, %206, %c384628122_i32 : vector<7xi32>, vector<7xi32> into i32
          %266 = arith.addi %true_23, %193 : i1
          %267 = index.ceildivs %103, %252
          %268 = vector.transpose %49, [0] : vector<1xi16> to vector<1xi16>
          %269 = index.mul %149, %160
          %inserted_54 = tensor.insert %in into %expanded_32[%c0, %c6, %c0] : tensor<9x7x1xi64>
          affine.store %cst_1, %alloc_10[%c13, %c7] : memref<7x7xf32>
          %270 = math.copysign %cst_3, %cst_0 : f16
          %271 = vector.insert %c1603447190_i32, %162 [2] : i32 into vector<13xi32>
          %272 = arith.shrui %true_22, %false_42 : i1
          affine.store %cst, %alloc_19[%c5, %c7] : memref<9x7xf32>
          %expanded_55 = tensor.expand_shape %225 [[0], [1, 2]] : tensor<7x7xf16> into tensor<7x7x1xf16>
          %273 = vector.extract %112[0] : vector<4xi32>
          %274 = arith.divui %193, %false_42 : i1
          %275 = index.sizeof
          %276 = bufferization.clone %alloc_9 : memref<9xi32> to memref<9xi32>
          %277 = arith.ori %27, %c10949_i16 : i16
          %278 = math.absf %expanded_55 : tensor<7x7x1xf16>
          %279 = vector.broadcast %true_23 : i1 to vector<13xi1>
          vector.transfer_write %279, %203[%c14, %c13] {permutation_map = affine_map<(d0, d1) -> (d0)>} : vector<13xi1>, memref<7x7xi1>
          %280 = bufferization.clone %276 : memref<9xi32> to memref<9xi32>
          %inserted_56 = tensor.insert %true into %splat[%c4, %c1] : tensor<9x7xi1>
          %281 = vector.extract %20[1] : vector<13xi16>
          %282 = arith.divf %cst_1, %cst_1 : f32
          %283 = vector.transpose %179, [0] : vector<2xi32> to vector<2xi32>
          %284 = vector.matrix_multiply %179, %162 {lhs_columns = 1 : i32, lhs_rows = 2 : i32, rhs_columns = 13 : i32} : (vector<2xi32>, vector<13xi32>) -> vector<26xi32>
          %285 = arith.ceildivsi %c384628122_i32, %c384628122_i32 : i32
          %286 = vector.matrix_multiply %49, %49 {lhs_columns = 1 : i32, lhs_rows = 1 : i32, rhs_columns = 1 : i32} : (vector<1xi16>, vector<1xi16>) -> vector<1xi16>
          %c0_i64 = arith.constant 0 : i64
          linalg.yield %c0_i64 : i64
        }
      %alloc_51 = memref.alloc() : memref<7x7xf16>
      %255 = bufferization.to_memref %12 : memref<9x7xi16>
      %256 = vector.load %alloc_7[%c7] : memref<9xi1>, vector<7x7xi1>
      %257 = vector.transpose %222, [0, 1] : vector<7x7xf32> to vector<7x7xf32>
      %258 = arith.floordivsi %137, %true_2 : i1
      %259 = vector.extract %134[3] : vector<7xi32>
      scf.yield
    }
    case 2 {
      %246 = arith.negf %cst_1 : f32
      %247 = affine.max affine_map<(d0, d1, d2, d3) -> (d2 ceildiv 2 + 1, d2, -d2, d3)>(%165, %207, %c11, %92)
      %248 = vector.broadcast %true_22 : i1 to vector<9x7xi1>
      %249 = vector.contract {indexing_maps = [affine_map<(d0, d1, d2) -> (d2, d0)>, affine_map<(d0, d1, d2) -> (d2, d1)>, affine_map<(d0, d1, d2) -> (d0, d1)>], iterator_types = ["parallel", "parallel", "reduction"], kind = #vector.kind<mul>} %56, %195, %195 : vector<9x9xf16>, vector<9x7xf16> into vector<9x7xf16>
      %250 = scf.while (%arg2 = %50) : (vector<i1>) -> vector<i1> {
        %extracted_52 = tensor.extract %2[%c4, %c1] : tensor<9x7xf16>
        %259 = arith.minui %c1603447190_i32, %c1603447190_i32 : i32
        %260 = vector.extract %121[2] : vector<36xi1>
        %261 = memref.atomic_rmw mins %c610206965_i32, %alloc_17[%c0, %c5] : (i32, memref<7x7xi32>) -> i32
        %262 = math.log10 %cst_4 : f16
        memref.copy %alloc_20, %alloc_21 : memref<9xi1> to memref<9xi1>
        bufferization.dealloc_tensor %0 : tensor<9xi64>
        %263 = vector.load %178[%c2, %c5] : memref<7x7xf16>, vector<9xf16>
        scf.condition(%193) %50 : vector<i1>
      } do {
      ^bb0(%arg2: vector<i1>):
        %259 = index.ceildivu %146, %37
        %260 = bufferization.clone %alloc_9 : memref<9xi32> to memref<9xi32>
        %261 = bufferization.clone %alloc_14 : memref<9x9xi16> to memref<9x9xi16>
        %262 = arith.andi %false, %false_42 : i1
        %263 = arith.floordivsi %c610206965_i32, %c610206965_i32 : i32
        %264 = arith.minsi %137, %137 : i1
        %265 = index.ceildivs %c6, %205
        %266 = vector.transpose %71, [0] : vector<9xi1> to vector<9xi1>
        %267 = vector.broadcast %c384628122_i32 : i32 to vector<9xi32>
        %268 = vector.maskedload %alloc_6[%c8], %71, %267 : memref<9xi32>, vector<9xi1>, vector<9xi32> into vector<9xi32>
        %269 = bufferization.to_memref %11 : memref<9x7xi1>
        %270 = memref.atomic_rmw andi %27, %alloc_18[%c7] : (i16, memref<9xi16>) -> i16
        %rank_52 = tensor.rank %8 : tensor<9x7xi64>
        %271 = math.copysign %225, %225 : tensor<7x7xf16>
        %272 = arith.shli %c1321725939_i64, %extracted : i64
        %273 = math.exp2 %13 : tensor<9x7xf32>
        %274 = arith.andi %c1603447190_i32, %c384628122_i32 : i32
        scf.yield %50 : vector<i1>
      }
      %251 = math.log2 %225 : tensor<7x7xf16>
      %generated_50 = tensor.generate %158 {
      ^bb0(%arg2: index):
        %259 = arith.remsi %c1321725939_i64, %extracted : i64
        %260 = math.exp2 %2 : tensor<9x7xf16>
        %261 = math.expm1 %13 : tensor<9x7xf32>
        %262 = arith.remsi %true_23, %false_42 : i1
        tensor.yield %cst_3 : f16
      } : tensor<?xf16>
      %252 = index.divu %207, %c13
      %253 = math.copysign %10, %13 : tensor<9x7xf32>
      %extracted_51 = tensor.extract %10[%c4, %c6] : tensor<9x7xf32>
      %254 = arith.minf %cst, %cst_1 : f32
      %255 = arith.cmpi ne, %c1603447190_i32, %c1603447190_i32 : i32
      %256 = arith.muli %c-30369_i16, %c-29219_i16 : i16
      %257 = math.fpowi %13, %6 : tensor<9x7xf32>, tensor<9x7xi32>
      %258 = arith.addf %cst_1, %cst_1 : f32
      memref.store %c1321725939_i64, %41[%c7] : memref<9xi64>
      scf.yield
    }
    case 3 {
      %246 = affine.min affine_map<(d0) -> (-d0)>(%rank)
      scf.index_switch %149 
      case 1 {
        %260 = math.log10 %7 : tensor<7x7xf16>
        %261 = math.log1p %2 : tensor<9x7xf16>
        %262 = arith.cmpi sle, %c1321725939_i64, %c1321725939_i64 : i64
        bufferization.dealloc_tensor %0 : tensor<9xi64>
        vector.print %133 : vector<7xi1>
        %263 = math.tan %expanded_37 : tensor<9x7x1xf32>
        %264 = bufferization.clone %alloc_20 : memref<9xi1> to memref<9xi1>
        vector.print %150 : vector<i32>
        %265 = arith.divf %cst_1, %cst : f32
        %inserted_52 = tensor.insert %extracted into %8[%c5, %c0] : tensor<9x7xi64>
        %extracted_53 = tensor.extract %expanded[%c7, %c2, %c0] : tensor<9x7x1xi64>
        %266 = vector.insertelement %137, %176[%c6 : index] : vector<7xi1>
        %267 = arith.shrsi %extracted_53, %c1321725939_i64 : i64
        %268 = arith.minf %cst_0, %cst_4 : f16
        %269 = arith.shrui %c1416631668_i64, %c1321725939_i64 : i64
        %270 = math.ceil %collapsed : tensor<63xf32>
        scf.yield
      }
      default {
        %260 = vector.transpose %221, [1, 0] : vector<7x7xf32> to vector<7x7xf32>
        %261 = math.tan %13 : tensor<9x7xf32>
        %262 = vector.shuffle %90, %91 [0, 1, 2, 4, 5, 6, 8, 10, 17] : vector<9x9xf32>, vector<9x9xf32>
        %263 = math.fpowi %cst_3, %c1603447190_i32 : f16, i32
        %264 = vector.extract_strided_slice %195 {offsets = [4], sizes = [4], strides = [1]} : vector<9x7xf16> to vector<4x7xf16>
        %265 = bufferization.clone %alloc_20 : memref<9xi1> to memref<9xi1>
        %266 = math.ipowi %9, %14 : tensor<9xi32>
        %267 = math.powf %10, %13 : tensor<9x7xf32>
        %268 = index.castu %109 : index to i32
        %269 = affine.apply affine_map<(d0) -> (d0 + d0 - 12 - 8)>(%c7)
        %270 = math.exp2 %expanded_45 : tensor<9x7x1xf32>
        %true_52 = index.bool.constant true
        %splat_53 = tensor.splat %cst_1 : tensor<9x7xf32>
        %271 = index.ceildivs %c13, %c3
        %272 = math.floor %13 : tensor<9x7xf32>
        vector.print %150 : vector<i32>
      }
      %247 = math.log %cst : f32
      %248 = arith.ori %193, %false_42 : i1
      %249 = math.powf %2, %2 : tensor<9x7xf16>
      vector.print %133 : vector<7xi1>
      %250 = arith.remsi %true_2, %193 : i1
      %251 = arith.maxui %c1321725939_i64, %c1321725939_i64 : i64
      %252 = math.cttz %transposed : tensor<9xi64>
      vector.print %71 : vector<9xi1>
      %alloc_50 = memref.alloc() : memref<7x1xi16>
      %alloc_51 = memref.alloc() : memref<1x7xi16>
      %253 = linalg.generic {indexing_maps = [affine_map<(d0, d1, d2) -> (d1, d2)>, affine_map<(d0, d1, d2) -> (d0)>, affine_map<(d0, d1, d2) -> (d2, d1)>, affine_map<(d0, d1, d2) -> (d0, d1, d2)>], iterator_types = ["parallel", "parallel", "parallel"]} ins(%alloc_50, %alloc_18, %alloc_51 : memref<7x1xi16>, memref<9xi16>, memref<1x7xi16>) outs(%expanded_43 : tensor<9x7x1xi16>) {
      ^bb0(%in: i16, %in_52: i16, %in_53: i16, %out: i16):
        %260 = math.powf %10, %13 : tensor<9x7xf32>
        %inserted_54 = tensor.insert %c1416631668_i64 into %0[%c8] : tensor<9xi64>
        memref.assume_alignment %alloc_16, 16 : memref<9x9xi1>
        %261 = vector.insertelement %c1603447190_i32, %206[%190 : index] : vector<7xi32>
        %262 = vector.shuffle %162, %101 [0, 6, 9, 11, 12, 13, 14, 16] : vector<13xi32>, vector<7xi32>
        %263 = math.tan %7 : tensor<7x7xf16>
        %264 = math.log %7 : tensor<7x7xf16>
        %265 = arith.divui %c1321725939_i64, %extracted : i64
        %inserted_55 = tensor.insert %true into %3[%c4, %c3] : tensor<9x9xi1>
        %266 = arith.ori %in_52, %in : i16
        %267 = memref.realloc %alloc_20 : memref<9xi1> to memref<4xi1>
        %268 = math.absi %8 : tensor<9x7xi64>
        %269 = arith.divui %c1321725939_i64, %c1321725939_i64 : i64
        %270 = arith.shrsi %c610206965_i32, %c384628122_i32 : i32
        %271 = arith.addf %cst_1, %cst_1 : f32
        %272 = vector.broadcast %false_42 : i1 to vector<9xi1>
        %273 = vector.transfer_write %272, %11[%c4, %c0] {permutation_map = affine_map<(d0, d1) -> (d0)>} : vector<9xi1>, tensor<9x7xi1>
        %274 = arith.divui %in_53, %27 : i16
        %275 = vector.shuffle %71, %176 [0, 1, 4, 5, 7, 9, 10, 11, 12, 14, 15] : vector<9xi1>, vector<7xi1>
        %276 = affine.min affine_map<(d0, d1, d2, d3) -> ((d2 - 32) mod 64, -(d2 mod 8) + d3 ceildiv 2, ((d2 - 32) mod 64) floordiv 64)>(%58, %103, %103, %165)
        %inserted_56 = tensor.insert %c384628122_i32 into %splat_33[%c1, %c4] : tensor<7x7xi32>
        %277 = vector.load %41[%c5] : memref<9xi64>, vector<9x7xi64>
        %278 = vector.extract %20[7] : vector<13xi16>
        %279 = index.floordivs %c3, %c0
        %280 = math.ctpop %c1416631668_i64 : i64
        %281 = arith.andi %true, %true_23 : i1
        %inserted_57 = tensor.insert %extracted into %0[%c4] : tensor<9xi64>
        %282 = math.cttz %false : i1
        %collapsed_58 = tensor.collapse_shape %7 [[0, 1]] : tensor<7x7xf16> into tensor<49xf16>
        %283 = arith.addi %27, %27 : i16
        %284 = math.sqrt %225 : tensor<7x7xf16>
        %285 = arith.ceildivsi %false_42, %false_42 : i1
        %286 = vector.extract %101[1] : vector<7xi32>
        linalg.yield %c-29219_i16 : i16
      } -> tensor<9x7x1xi16>
      %254 = vector.broadcast %extracted : i64 to vector<i64>
      %255 = vector.transfer_write %254, %18[%c4] : vector<i64>, tensor<9xi64>
      %256 = arith.addi %c-30369_i16, %27 : i16
      %257 = vector.insert %true, %111 [3] : i1 into vector<4xi1>
      %258 = index.sizeof
      %259 = arith.floordivsi %193, %true_2 : i1
      scf.yield
    }
    default {
      %246 = arith.shli %true_2, %137 : i1
      %247 = memref.realloc %alloc_18 : memref<9xi16> to memref<4xi16>
      %248 = vector.broadcast %true : i1 to vector<i1>
      %249 = vector.transfer_write %248, %11[%160, %c3] : vector<i1>, tensor<9x7xi1>
      %250 = math.ctlz %c17207_i16 : i16
      %251 = math.fpowi %7, %splat_33 : tensor<7x7xf16>, tensor<7x7xi32>
      %252 = math.ipowi %c384628122_i32, %152 : i32
      %253 = tensor.empty() : tensor<9xi64>
      %254 = math.tan %cst : f32
      %255 = math.copysign %153, %153 : tensor<9x9xf32>
      %256 = memref.realloc %alloc_20 : memref<9xi1> to memref<9xi1>
      %257 = math.exp2 %cst_3 : f16
      %258 = math.roundeven %225 : tensor<7x7xf16>
      %259 = vector.broadcast %cst_0 : f16 to vector<7xf16>
      %260 = vector.insert %259, %195 [6] : vector<7xf16> into vector<9x7xf16>
      %261 = vector.multi_reduction <minf>, %195, %cst_4 [0, 1] : vector<9x7xf16> to f16
      memref.assume_alignment %alloc, 2 : memref<9x9xf32>
      %262 = tensor.empty() : tensor<7x1xi64>
      %263 = tensor.empty() : tensor<7x9xi64>
      %264 = linalg.generic {indexing_maps = [affine_map<(d0, d1, d2) -> (d0, d1)>, affine_map<(d0, d1, d2) -> (d1, d2)>, affine_map<(d0, d1, d2) -> (d1, d0)>, affine_map<(d0, d1, d2) -> (d0, d1, d2)>], iterator_types = ["parallel", "parallel", "parallel"]} ins(%223, %262, %263 : memref<9x7xi64>, tensor<7x1xi64>, tensor<7x9xi64>) outs(%expanded_32 : tensor<9x7x1xi64>) {
      ^bb0(%in: i64, %in_50: i64, %in_51: i64, %out: i64):
        %collapsed_52 = tensor.collapse_shape %expanded [[0, 1], [2]] : tensor<9x7x1xi64> into tensor<63x1xi64>
        %265 = vector.extract_strided_slice %259 {offsets = [1], sizes = [4], strides = [1]} : vector<7xf16> to vector<4xf16>
        %266 = math.exp2 %expanded_45 : tensor<9x7x1xf32>
        %267 = index.sizeof
        %268 = vector.broadcast %cst : f32 to vector<7xf32>
        %dest_53, %accumulated_value_54 = vector.scan <mul>, %222, %268 {inclusive = false, reduction_dim = 0 : i64} : vector<7x7xf32>, vector<7xf32>
        %269 = math.exp2 %2 : tensor<9x7xf16>
        %270 = arith.ceildivsi %27, %c10949_i16 : i16
        %271 = index.sizeof
        %272 = index.add %58, %c11
        %273 = math.powf %13, %13 : tensor<9x7xf32>
        %274 = vector.contract {indexing_maps = [affine_map<(d0) -> (d0)>, affine_map<(d0) -> (d0)>, affine_map<(d0) -> ()>], iterator_types = ["reduction"], kind = #vector.kind<and>} %71, %71, %true_23 : vector<9xi1>, vector<9xi1> into i1
        %275 = vector.load %178[%c2, %c4] : memref<7x7xf16>, vector<7x7xf16>
        %276 = index.divu %c11, %c11
        %277 = vector.transpose %176, [0] : vector<7xi1> to vector<7xi1>
        %278 = math.roundeven %261 : f16
        %279 = math.log1p %cst_0 : f16
        %280 = math.cttz %152 : i32
        %281 = arith.divf %261, %261 : f16
        %282 = tensor.empty() : tensor<63xi32>
        %283 = math.fpowi %collapsed, %282 : tensor<63xf32>, tensor<63xi32>
        %284 = arith.shli %c-29219_i16, %27 : i16
        %285 = math.fpowi %13, %6 : tensor<9x7xf32>, tensor<9x7xi32>
        %286 = math.copysign %13, %10 : tensor<9x7xf32>
        %alloc_55 = memref.alloc() : memref<7x7xf32>
        %287 = math.log1p %2 : tensor<9x7xf16>
        %288 = arith.addi %in_50, %in : i64
        %false_56 = index.bool.constant false
        %289 = arith.shli %false, %false_42 : i1
        %290 = arith.addi %c1603447190_i32, %c610206965_i32 : i32
        %291 = arith.mulf %cst_0, %cst_0 : f16
        %292 = math.exp2 %cst : f32
        %293 = vector.transpose %134, [0] : vector<7xi32> to vector<7xi32>
        %294 = vector.broadcast %cst_1 : f32 to vector<9xf32>
        %295 = vector.fma %294, %294, %294 : vector<9xf32>
        linalg.yield %in : i64
      } -> tensor<9x7x1xi64>
    }
    %227 = vector.matrix_multiply %176, %111 {lhs_columns = 1 : i32, lhs_rows = 7 : i32, rhs_columns = 4 : i32} : (vector<7xi1>, vector<4xi1>) -> vector<28xi1>
    %228 = math.log10 %cst_4 : f16
    %229 = vector.transpose %91, [1, 0] : vector<9x9xf32> to vector<9x9xf32>
    %true_46 = index.bool.constant true
    %cst_47 = arith.constant 1.569600e+04 : f16
    %230 = vector.broadcast %c17207_i16 : i16 to vector<13x13xi16>
    %231 = vector.outerproduct %20, %20, %230 {kind = #vector.kind<or>} : vector<13xi16>, vector<13xi16>
    %232 = math.floor %2 : tensor<9x7xf16>
    %233 = vector.multi_reduction <mul>, %71, %71 [] : vector<9xi1> to vector<9xi1>
    %234 = index.sub %109, %c8
    %235 = vector.transpose %162, [0] : vector<13xi32> to vector<13xi32>
    %236 = affine.apply affine_map<(d0, d1, d2, d3) -> (((d3 floordiv 4) * 32) floordiv 64)>(%192, %92, %37, %c5)
    %237 = vector.broadcast %false : i1 to vector<7x7xi1>
    %238 = vector.outerproduct %176, %176, %237 {kind = #vector.kind<minui>} : vector<7xi1>, vector<7xi1>
    %239 = vector.transpose %195, [1, 0] : vector<9x7xf16> to vector<7x9xf16>
    %240 = arith.shrui %c610206965_i32, %c384628122_i32 : i32
    memref.store %true_23, %alloc_20[%c5] : memref<9xi1>
    vector.print %227 : vector<28xi1>
    %241 = arith.shrui %true_23, %true_46 : i1
    %242 = tensor.empty() : tensor<9x7x1xf32>
    %243 = linalg.copy ins(%expanded_37 : tensor<9x7x1xf32>) outs(%242 : tensor<9x7x1xf32>) -> tensor<9x7x1xf32>
    %244 = tensor.empty() : tensor<9xi32>
    %transposed_48 = linalg.transpose ins(%alloc_6 : memref<9xi32>) outs(%244 : tensor<9xi32>) permutation = [0] 
    %alloc_49 = memref.alloc() : memref<i64>
    linalg.reduce ins(%68 : memref<9xi64>) outs(%alloc_49 : memref<i64>) dimensions = [0] 
      (%in: i64, %init: i64) {
        %246 = math.roundeven %cst_3 : f16
        %247 = arith.negf %cst_4 : f16
        %248 = math.copysign %cst_1, %cst : f32
        %249 = vector.broadcast %c-30369_i16 : i16 to vector<13x13xi16>
        %250 = vector.outerproduct %20, %20, %249 {kind = #vector.kind<mul>} : vector<13xi16>, vector<13xi16>
        %251 = tensor.empty() : tensor<9xi64>
        %mapped_50 = linalg.map ins(%68, %41, %4 : memref<9xi64>, memref<9xi64>, tensor<9xi64>) outs(%251 : tensor<9xi64>)
          (%in_52: i64, %in_53: i64, %in_54: i64) {
            %inserted_55 = tensor.insert %cst into %13[%c5, %c1] : tensor<9x7xf32>
            %253 = math.tan %13 : tensor<9x7xf32>
            %254 = memref.realloc %41 : memref<9xi64> to memref<13xi64>
            %255 = arith.floordivsi %false, %true_22 : i1
            %256 = math.roundeven %10 : tensor<9x7xf32>
            %257 = index.divu %58, %37
            %alloca = memref.alloca() : memref<7x7xi32>
            %258 = math.expm1 %10 : tensor<9x7xf32>
            %259 = arith.divf %cst, %cst : f32
            %260 = vector.extract %111[1] : vector<4xi1>
            %261 = vector.broadcast %192 : index to vector<7xindex>
            vector.scatter %alloc_9[%c0] [%261], %133, %101 : memref<9xi32>, vector<7xindex>, vector<7xi1>, vector<7xi32>
            %262 = arith.mulf %cst_3, %cst_4 : f16
            %263 = vector.reduction <or>, %133 : vector<7xi1> into i1
            %264 = arith.remsi %true, %193 : i1
            %265 = vector.multi_reduction <and>, %49, %49 [] : vector<1xi16> to vector<1xi16>
            affine.store %in, %68[%c6] : memref<9xi64>
            %expanded_56 = tensor.expand_shape %expanded_43 [[0], [1], [2, 3]] : tensor<9x7x1xi16> into tensor<9x7x1x1xi16>
            %266 = vector.multi_reduction <maxsi>, %176, %133 [] : vector<7xi1> to vector<7xi1>
            %267 = index.casts %rank_25 : index to i32
            %268 = vector.transpose %20, [0] : vector<13xi16> to vector<13xi16>
            %269 = math.log1p %225 : tensor<7x7xf16>
            %270 = index.maxu %192, %217
            %271 = math.ipowi %c1321725939_i64, %in_53 : i64
            %272 = math.fpowi %7, %splat_33 : tensor<7x7xf16>, tensor<7x7xi32>
            %273 = math.tan %cst_3 : f16
            %274 = memref.atomic_rmw assign %cst_3, %alloc_8[%c1, %c6] : (f16, memref<7x7xf16>) -> f16
            %275 = math.log %cst : f32
            %276 = bufferization.clone %alloc_6 : memref<9xi32> to memref<9xi32>
            %277 = tensor.empty() : tensor<9xi16>
            %278 = arith.cmpf ord, %cst, %cst_1 : f32
            %279 = vector.insertelement %true_46, %50[] : vector<i1>
            %280 = math.rsqrt %cst_4 : f16
            %c1_i64 = arith.constant 1 : i64
            linalg.yield %c1_i64 : i64
          }
        %252 = bufferization.to_tensor %203 : memref<7x7xi1>
        affine.store %init, %41[%c4] : memref<9xi64>
        %expanded_51 = tensor.expand_shape %13 [[0], [1, 2]] : tensor<9x7xf32> into tensor<9x7x1xf32>
        %c0_i64 = arith.constant 0 : i64
        linalg.yield %c0_i64 : i64
      }
    scf.parallel (%arg2, %arg3) = (%234, %c12) to (%c13, %217) step (%c7, %c12) {
      affine.store %c1321725939_i64, %68[%c2] : memref<9xi64>
      %246 = arith.shrui %c10949_i16, %c-30369_i16 : i16
      %247 = arith.divf %cst_3, %cst_3 : f16
      %collapsed_50 = tensor.collapse_shape %3 [[0, 1]] : tensor<9x9xi1> into tensor<81xi1>
      %248 = math.absf %cst : f32
      %249 = arith.divui %extracted, %c1416631668_i64 : i64
      vector.print %112 : vector<4xi32>
      %250 = arith.remf %cst_0, %cst_4 : f16
      %collapsed_51 = tensor.collapse_shape %153 [[0, 1]] : tensor<9x9xf32> into tensor<81xf32>
      %251 = tensor.empty() : tensor<9x7xf16>
      %252 = vector.shuffle %179, %110 [2, 3, 4, 5] : vector<2xi32>, vector<4xi32>
      %253 = math.expm1 %13 : tensor<9x7xf32>
      %254 = vector.extract %162[5] : vector<13xi32>
      memref.copy %178, %alloc_8 : memref<7x7xf16> to memref<7x7xf16>
      %255 = index.floordivs %103, %192
      %256 = index.divu %c11, %c6
      scf.yield
    }
    %245 = affine.vector_load %203[%165, %c1] : memref<7x7xi1>, vector<13xi1>
    affine.vector_store %20, %alloc_14[%c10, %c1] : memref<9x9xi16>, vector<13xi16>
    vector.print %20 : vector<13xi16>
    vector.print %30 : vector<9x7xi32>
    vector.print %38 : vector<i64>
    vector.print %49 : vector<1xi16>
    vector.print %50 : vector<i1>
    vector.print %56 : vector<9x9xf16>
    vector.print %70 : vector<9xi1>
    vector.print %71 : vector<9xi1>
    vector.print %90 : vector<9x9xf32>
    vector.print %91 : vector<9x9xf32>
    vector.print %101 : vector<7xi32>
    vector.print %110 : vector<4xi32>
    vector.print %111 : vector<4xi1>
    vector.print %112 : vector<4xi32>
    vector.print %121 : vector<36xi1>
    vector.print %133 : vector<7xi1>
    vector.print %134 : vector<7xi32>
    vector.print %138 : vector<i16>
    vector.print %150 : vector<i32>
    vector.print %162 : vector<13xi32>
    vector.print %175 : vector<9x7xf32>
    vector.print %176 : vector<7xi1>
    vector.print %179 : vector<2xi32>
    vector.print %195 : vector<9x7xf16>
    vector.print %206 : vector<7xi32>
    vector.print %221 : vector<7x7xf32>
    vector.print %222 : vector<7x7xf32>
    vector.print %227 : vector<28xi1>
    vector.print %245 : vector<13xi1>
    vector.print %c17207_i16 : i16
    vector.print %cst : f32
    vector.print %cst_0 : f16
    vector.print %c1416631668_i64 : i64
    vector.print %c1321725939_i64 : i64
    vector.print %c-29219_i16 : i16
    vector.print %c10949_i16 : i16
    vector.print %c-30369_i16 : i16
    vector.print %cst_1 : f32
    vector.print %true : i1
    vector.print %true_2 : i1
    vector.print %cst_3 : f16
    vector.print %c610206965_i32 : i32
    vector.print %c384628122_i32 : i32
    vector.print %cst_4 : f16
    vector.print %c1603447190_i32 : i32
    vector.print %27 : i16
    vector.print %true_22 : i1
    vector.print %true_23 : i1
    vector.print %false : i1
    vector.print %137 : i1
    vector.print %152 : i32
    vector.print %193 : i1
    vector.print %extracted : i64
    vector.print %false_42 : i1
    vector.print %true_46 : i1
    return
  }
}
