module {
  func.func nested @func1(%arg0: vector<15xi64>, %arg1: memref<16x16xi1>) {
    %c1653018709_i64 = arith.constant 1653018709 : i64
    %cst = arith.constant 1.42491661E+9 : f32
    %cst_0 = arith.constant 0x4E07AA9E : f32
    %cst_1 = arith.constant 2.195200e+04 : f16
    %cst_2 = arith.constant 0x4DD824A6 : f32
    %c-60_i16 = arith.constant -60 : i16
    %c1099692294_i32 = arith.constant 1099692294 : i32
    %false = arith.constant false
    %cst_3 = arith.constant 1.3388576E+9 : f32
    %c1026596729_i32 = arith.constant 1026596729 : i32
    %c-17004_i16 = arith.constant -17004 : i16
    %c1376839441_i32 = arith.constant 1376839441 : i32
    %c7286_i16 = arith.constant 7286 : i16
    %cst_4 = arith.constant 3.328000e+03 : f16
    %true = arith.constant true
    %c2074_i16 = arith.constant 2074 : i16
    %0 = tensor.empty() : tensor<16x16x16xf32>
    %1 = tensor.empty() : tensor<16x1xi16>
    %2 = tensor.empty() : tensor<16x16x16xf16>
    %3 = tensor.empty() : tensor<16x16xi16>
    %4 = tensor.empty() : tensor<16x16xi32>
    %5 = tensor.empty() : tensor<16x16xf16>
    %6 = tensor.empty() : tensor<16x16x16xi64>
    %7 = tensor.empty() : tensor<16x16x16xf32>
    %8 = tensor.empty() : tensor<16x16xi1>
    %9 = tensor.empty() : tensor<16x16xi1>
    %10 = tensor.empty() : tensor<15xi1>
    %11 = tensor.empty() : tensor<15xi32>
    %12 = tensor.empty() : tensor<16x16xf32>
    %13 = tensor.empty() : tensor<16x16xi64>
    %14 = tensor.empty() : tensor<16x16x16xf16>
    %15 = tensor.empty() : tensor<16x1xf16>
    %c0 = arith.constant 0 : index
    %c1 = arith.constant 1 : index
    %c2 = arith.constant 2 : index
    %c3 = arith.constant 3 : index
    %c4 = arith.constant 4 : index
    %c5 = arith.constant 5 : index
    %c6 = arith.constant 6 : index
    %c7 = arith.constant 7 : index
    %c8 = arith.constant 8 : index
    %c9 = arith.constant 9 : index
    %c10 = arith.constant 10 : index
    %c11 = arith.constant 11 : index
    %c12 = arith.constant 12 : index
    %c13 = arith.constant 13 : index
    %c14 = arith.constant 14 : index
    %c15 = arith.constant 15 : index
    %alloc = memref.alloc() : memref<16x1xf32>
    %alloc_5 = memref.alloc() : memref<16x16x16xf16>
    %alloc_6 = memref.alloc() : memref<15xi1>
    %alloc_7 = memref.alloc() : memref<15xf16>
    %alloc_8 = memref.alloc() : memref<16x1xi1>
    %alloc_9 = memref.alloc() : memref<16x16x16xf16>
    %alloc_10 = memref.alloc() : memref<15xi64>
    %alloc_11 = memref.alloc() : memref<15xf32>
    %alloc_12 = memref.alloc() : memref<16x16xi64>
    %alloc_13 = memref.alloc() : memref<16x1xi32>
    %alloc_14 = memref.alloc() : memref<15xi1>
    %alloc_15 = memref.alloc() : memref<16x16x16xi32>
    %alloc_16 = memref.alloc() : memref<16x1xf32>
    %alloc_17 = memref.alloc() : memref<16x16x16xf32>
    %alloc_18 = memref.alloc() : memref<16x1xf16>
    %alloc_19 = memref.alloc() : memref<16x16xf16>
    %16 = tensor.empty() : tensor<16x16x16xf16>
    %17 = linalg.copy ins(%14 : tensor<16x16x16xf16>) outs(%16 : tensor<16x16x16xf16>) -> tensor<16x16x16xf16>
    %alloc_20 = memref.alloc() : memref<15xf16>
    linalg.transpose ins(%alloc_7 : memref<15xf16>) outs(%alloc_20 : memref<15xf16>) permutation = [0] 
    %18 = tensor.empty() : tensor<16xi64>
    %reduced = linalg.reduce ins(%13 : tensor<16x16xi64>) outs(%18 : tensor<16xi64>) dimensions = [0] 
      (%in: i64, %init: i64) {
        %alloc_52 = memref.alloc() : memref<16x16xi1>
        memref.tensor_store %9, %alloc_52 : memref<16x16xi1>
        %cast_53 = tensor.cast %11 : tensor<15xi32> to tensor<?xi32>
        %246 = tensor.empty() : tensor<16x16x16xi64>
        %mapped_54 = linalg.map ins(%6, %6, %6 : tensor<16x16x16xi64>, tensor<16x16x16xi64>, tensor<16x16x16xi64>) outs(%246 : tensor<16x16x16xi64>)
          (%in_56: i64, %in_57: i64, %in_58: i64) {
            %258 = math.exp2 %12 : tensor<16x16xf32>
            %259 = math.exp %15 : tensor<16x1xf16>
            %260 = arith.shrsi %c1653018709_i64, %init : i64
            %261 = index.maxu %c5, %c13
            %262 = vector.broadcast %in_58 : i64 to vector<1xi64>
            %263 = vector.extract_strided_slice %262 {offsets = [0], sizes = [1], strides = [1]} : vector<1xi64> to vector<1xi64>
            %264 = index.sizeof
            %265 = arith.addf %cst_2, %cst_2 : f32
            %266 = vector.reduction <xor>, %262 : vector<1xi64> into i64
            %267 = arith.remui %false, %false : i1
            %268 = affine.min affine_map<(d0, d1, d2) -> (d2, d2 + 4, (d2 mod 32) * 128)>(%c14, %c6, %c9)
            %269 = arith.maxsi %in_56, %in_56 : i64
            %270 = vector.contract {indexing_maps = [affine_map<(d0) -> (d0)>, affine_map<(d0) -> (d0)>, affine_map<(d0) -> ()>], iterator_types = ["reduction"], kind = #vector.kind<add>} %263, %262, %in : vector<1xi64>, vector<1xi64> into i64
            %271 = memref.atomic_rmw assign %cst_4, %alloc_19[%c0, %c6] : (f16, memref<16x16xf16>) -> f16
            %272 = arith.ori %c-60_i16, %c2074_i16 : i16
            %273 = math.exp %2 : tensor<16x16x16xf16>
            %274 = index.add %264, %c11
            %275 = arith.minf %cst_3, %cst_3 : f32
            %276 = vector.load %alloc_13[%c11, %c0] : memref<16x1xi32>, vector<16x16xi32>
            %277 = vector.splat %c11 : vector<16x16xindex>
            %278 = arith.remui %init, %init : i64
            %279 = memref.load %alloc_15[%c12, %c5, %c7] : memref<16x16x16xi32>
            %280 = index.add %274, %c9
            %281 = vector.extract_strided_slice %263 {offsets = [0], sizes = [1], strides = [1]} : vector<1xi64> to vector<1xi64>
            %alloc_59 = memref.alloc() : memref<16x1xf16>
            %282 = memref.atomic_rmw addf %cst_4, %alloc_20[%c11] : (f16, memref<15xf16>) -> f16
            %cast_60 = tensor.cast %7 : tensor<16x16x16xf32> to tensor<?x?x?xf32>
            %283 = vector.broadcast %false : i1 to vector<1xi1>
            %284 = vector.maskedload %alloc_6[%c0], %283, %283 : memref<15xi1>, vector<1xi1>, vector<1xi1> into vector<1xi1>
            %285 = arith.minsi %in_58, %in : i64
            %286 = arith.addf %cst_3, %cst_2 : f32
            %287 = math.copysign %0, %0 : tensor<16x16x16xf32>
            %288 = vector.splat %in : vector<16x16xi64>
            %289 = math.atan %cst_1 : f16
            %c1_i64_61 = arith.constant 1 : i64
            linalg.yield %c1_i64_61 : i64
          }
        %alloc_55 = memref.alloc() : memref<1x16xi16>
        %247 = tensor.empty() : tensor<16x16xi16>
        %248 = linalg.matmul ins(%1, %alloc_55 : tensor<16x1xi16>, memref<1x16xi16>) outs(%247 : tensor<16x16xi16>) -> tensor<16x16xi16>
        %249 = vector.broadcast %c-17004_i16 : i16 to vector<15xi16>
        %250 = vector.shuffle %249, %249 [2, 3, 5, 7, 8, 14, 17, 19, 24, 25, 28] : vector<15xi16>, vector<15xi16>
        %251 = vector.broadcast %true : i1 to vector<16x16x16xi1>
        %252 = vector.broadcast %c1099692294_i32 : i32 to vector<16x16x16xi32>
        %253 = vector.gather %8[%c6, %c3] [%252], %251, %251 : tensor<16x16xi1>, vector<16x16x16xi32>, vector<16x16x16xi1>, vector<16x16x16xi1> into vector<16x16x16xi1>
        %254 = vector.broadcast %c11 : index to vector<16xindex>
        %255 = vector.broadcast %true : i1 to vector<16xi1>
        %256 = vector.broadcast %cst_4 : f16 to vector<16xf16>
        vector.scatter %alloc_20[%c12] [%254], %255, %256 : memref<15xf16>, vector<16xindex>, vector<16xi1>, vector<16xf16>
        %257 = arith.maxui %c1026596729_i32, %c1099692294_i32 : i32
        %c1_i64 = arith.constant 1 : i64
        linalg.yield %c1_i64 : i64
      }
    %19 = scf.parallel (%arg2) = (%c14) to (%c10) step (%c6) init (%alloc) -> memref<16x1xf32> {
      %246 = vector.broadcast %c1376839441_i32 : i32 to vector<1xi32>
      %247 = vector.flat_transpose %246 {columns = 1 : i32, rows = 1 : i32} : vector<1xi32> -> vector<1xi32>
      %collapsed_52 = tensor.collapse_shape %17 [[0, 1], [2]] : tensor<16x16x16xf16> into tensor<256x16xf16>
      %248 = math.expm1 %collapsed_52 : tensor<256x16xf16>
      affine.store %cst_4, %alloc_18[%c9, %c10] : memref<16x1xf16>
      %collapsed_53 = tensor.collapse_shape %5 [[0, 1]] : tensor<16x16xf16> into tensor<256xf16>
      %249 = scf.execute_region -> vector<15xi64> {
        %257 = index.maxs %c3, %c15
        %258 = memref.realloc %alloc_20 : memref<15xf16> to memref<1xf16>
        %259 = arith.maxui %c-60_i16, %c-60_i16 : i16
        %260 = math.exp %5 : tensor<16x16xf16>
        %261 = math.atan2 %collapsed_52, %collapsed_52 : tensor<256x16xf16>
        %262 = bufferization.clone %alloc_15 : memref<16x16x16xi32> to memref<16x16x16xi32>
        %263 = index.add %c10, %257
        %c5178055_i32 = arith.constant 5178055 : i32
        %264 = memref.load %alloc_17[%c4, %c3, %c2] : memref<16x16x16xf32>
        %265 = arith.minsi %true, %true : i1
        %266 = index.castu %c8 : index to i32
        %267 = bufferization.to_memref %11 : memref<15xi32>
        %268 = tensor.empty() : tensor<16x1xi32>
        %269 = math.fpowi %15, %268 : tensor<16x1xf16>, tensor<16x1xi32>
        %extracted = tensor.extract %7[%c6, %c13, %c1] : tensor<16x16x16xf32>
        %270 = math.exp2 %collapsed_53 : tensor<256xf16>
        %271 = arith.shrsi %false, %true : i1
        %272 = vector.broadcast %c1653018709_i64 : i64 to vector<15xi64>
        scf.yield %272 : vector<15xi64>
      }
      %from_elements_54 = tensor.from_elements %c7286_i16, %c-60_i16, %c-60_i16, %c-60_i16, %c-60_i16, %c2074_i16, %c2074_i16, %c2074_i16, %c2074_i16, %c2074_i16, %c7286_i16, %c7286_i16, %c2074_i16, %c2074_i16, %c2074_i16, %c-17004_i16, %c7286_i16, %c7286_i16, %c-17004_i16, %c-60_i16, %c-60_i16, %c2074_i16, %c-60_i16, %c2074_i16, %c-17004_i16, %c-60_i16, %c2074_i16, %c7286_i16, %c-17004_i16, %c-60_i16, %c-60_i16, %c7286_i16, %c7286_i16, %c7286_i16, %c2074_i16, %c-17004_i16, %c-17004_i16, %c2074_i16, %c-60_i16, %c-17004_i16, %c-17004_i16, %c-60_i16, %c-60_i16, %c2074_i16, %c-17004_i16, %c7286_i16, %c-60_i16, %c-60_i16, %c7286_i16, %c7286_i16, %c-60_i16, %c-17004_i16, %c-60_i16, %c-60_i16, %c2074_i16, %c-17004_i16, %c2074_i16, %c-17004_i16, %c-17004_i16, %c-60_i16, %c-60_i16, %c2074_i16, %c-60_i16, %c2074_i16, %c7286_i16, %c2074_i16, %c-60_i16, %c-17004_i16, %c7286_i16, %c-17004_i16, %c7286_i16, %c7286_i16, %c-17004_i16, %c-60_i16, %c2074_i16, %c-60_i16, %c-60_i16, %c-60_i16, %c2074_i16, %c7286_i16, %c-60_i16, %c-17004_i16, %c7286_i16, %c-17004_i16, %c2074_i16, %c7286_i16, %c7286_i16, %c2074_i16, %c2074_i16, %c-17004_i16, %c-60_i16, %c7286_i16, %c-60_i16, %c-60_i16, %c-17004_i16, %c7286_i16, %c-60_i16, %c-17004_i16, %c-17004_i16, %c2074_i16, %c7286_i16, %c-17004_i16, %c-17004_i16, %c2074_i16, %c-60_i16, %c7286_i16, %c-17004_i16, %c-17004_i16, %c7286_i16, %c-17004_i16, %c-60_i16, %c-60_i16, %c7286_i16, %c7286_i16, %c-17004_i16, %c2074_i16, %c7286_i16, %c2074_i16, %c-17004_i16, %c2074_i16, %c7286_i16, %c7286_i16, %c7286_i16, %c-60_i16, %c-60_i16, %c-60_i16, %c-17004_i16, %c-60_i16, %c2074_i16, %c2074_i16, %c-60_i16, %c2074_i16, %c-60_i16, %c7286_i16, %c-60_i16, %c2074_i16, %c-60_i16, %c-17004_i16, %c-60_i16, %c2074_i16, %c2074_i16, %c-17004_i16, %c-17004_i16, %c-17004_i16, %c-60_i16, %c-60_i16, %c2074_i16, %c-60_i16, %c-17004_i16, %c-17004_i16, %c-60_i16, %c2074_i16, %c-17004_i16, %c2074_i16, %c-17004_i16, %c-17004_i16, %c7286_i16, %c7286_i16, %c-60_i16, %c2074_i16, %c2074_i16, %c-17004_i16, %c7286_i16, %c7286_i16, %c-60_i16, %c-60_i16, %c2074_i16, %c-17004_i16, %c2074_i16, %c-17004_i16, %c7286_i16, %c7286_i16, %c-17004_i16, %c-60_i16, %c2074_i16, %c7286_i16, %c2074_i16, %c-17004_i16, %c-17004_i16, %c-17004_i16, %c2074_i16, %c-17004_i16, %c-17004_i16, %c2074_i16, %c7286_i16, %c7286_i16, %c-60_i16, %c7286_i16, %c-60_i16, %c2074_i16, %c7286_i16, %c-17004_i16, %c-60_i16, %c-60_i16, %c2074_i16, %c7286_i16, %c2074_i16, %c-17004_i16, %c7286_i16, %c7286_i16, %c7286_i16, %c7286_i16, %c-60_i16, %c2074_i16, %c7286_i16, %c2074_i16, %c2074_i16, %c2074_i16, %c2074_i16, %c-17004_i16, %c-60_i16, %c-17004_i16, %c-60_i16, %c-17004_i16, %c2074_i16, %c2074_i16, %c2074_i16, %c2074_i16, %c-17004_i16, %c2074_i16, %c-17004_i16, %c-17004_i16, %c7286_i16, %c-17004_i16, %c2074_i16, %c-60_i16, %c7286_i16, %c2074_i16, %c-60_i16, %c-17004_i16, %c2074_i16, %c-17004_i16, %c7286_i16, %c-17004_i16, %c2074_i16, %c2074_i16, %c7286_i16, %c7286_i16, %c-60_i16, %c2074_i16, %c-17004_i16, %c2074_i16, %c-17004_i16, %c7286_i16, %c2074_i16, %c-60_i16, %c-60_i16, %c-17004_i16, %c7286_i16, %c-17004_i16, %c2074_i16, %c7286_i16, %c-17004_i16, %c7286_i16, %c2074_i16, %c-17004_i16 : tensor<16x16xi16>
      %250 = index.maxu %c8, %c0
      bufferization.dealloc_tensor %5 : tensor<16x16xf16>
      %251 = bufferization.clone %alloc_20 : memref<15xf16> to memref<15xf16>
      %252 = index.floordivs %c4, %c14
      %253 = math.copysign %14, %17 : tensor<16x16x16xf16>
      memref.alloca_scope  {
        %257 = index.ceildivs %c4, %c14
        %258 = vector.load %alloc_5[%c11, %c8, %c2] : memref<16x16x16xf16>, vector<16x16x16xf16>
        %259 = arith.andi %c1376839441_i32, %c1099692294_i32 : i32
        %260 = bufferization.to_memref %15 : memref<16x1xf16>
        %261 = vector.contract {indexing_maps = [affine_map<(d0) -> (d0)>, affine_map<(d0) -> (d0)>, affine_map<(d0) -> ()>], iterator_types = ["reduction"], kind = #vector.kind<minsi>} %247, %247, %c1099692294_i32 : vector<1xi32>, vector<1xi32> into i32
        %262 = affine.min affine_map<(d0, d1, d2) -> (0, 0)>(%c7, %c5, %c3)
        %263 = arith.ori %false, %false : i1
        %264 = vector.broadcast %cst_1 : f16 to vector<16x16xf16>
        %dest_56, %accumulated_value_57 = vector.scan <add>, %258, %264 {inclusive = true, reduction_dim = 1 : i64} : vector<16x16x16xf16>, vector<16x16xf16>
        %expanded_58 = tensor.expand_shape %7 [[0], [1], [2, 3]] : tensor<16x16x16xf32> into tensor<16x16x16x1xf32>
        %265 = math.log10 %cst : f32
        %266 = vector.splat %c1653018709_i64 : vector<16x1xi64>
        %267 = vector.splat %c2 : vector<16x16xindex>
        %expanded_59 = tensor.expand_shape %expanded_58 [[0], [1], [2], [3, 4]] : tensor<16x16x16x1xf32> into tensor<16x16x16x1x1xf32>
        %inserted_60 = tensor.insert %cst into %0[%c9, %c3, %c12] : tensor<16x16x16xf32>
        bufferization.dealloc_tensor %12 : tensor<16x16xf32>
        %alloc_61 = memref.alloc() : memref<16x16xi1>
        memref.tensor_store %8, %alloc_61 : memref<16x16xi1>
        %268 = math.cttz %c2074_i16 : i16
        vector.print %258 : vector<16x16x16xf16>
        %269 = vector.flat_transpose %246 {columns = 1 : i32, rows = 1 : i32} : vector<1xi32> -> vector<1xi32>
        %270 = math.rsqrt %12 : tensor<16x16xf32>
        %271 = arith.shli %c1026596729_i32, %c1099692294_i32 : i32
        %272 = arith.remsi %false, %true : i1
        bufferization.dealloc_tensor %collapsed_52 : tensor<256x16xf16>
        %273 = arith.negf %cst_2 : f32
        %274 = bufferization.clone %alloc_14 : memref<15xi1> to memref<15xi1>
        %275 = arith.minui %c1099692294_i32, %c1099692294_i32 : i32
        %276 = index.castu %262 : index to i32
        %277 = math.powf %collapsed_53, %collapsed_53 : tensor<256xf16>
        %278 = vector.broadcast %c1099692294_i32 : i32 to vector<i32>
        %279 = vector.transfer_write %278, %4[%c9, %c8] : vector<i32>, tensor<16x16xi32>
        %c1384651813_i32 = arith.constant 1384651813 : i32
        %280 = math.exp %12 : tensor<16x16xf32>
        %281 = tensor.empty(%c2, %c8) : tensor<16x?x?xf16>
      }
      %254 = math.ctlz %1 : tensor<16x1xi16>
      %255 = arith.subi %c7286_i16, %c-60_i16 : i16
      %256 = arith.divf %cst_0, %cst_0 : f32
      %alloc_55 = memref.alloc() : memref<16x1xf32>
      scf.reduce(%alloc_55)  : memref<16x1xf32> {
      ^bb0(%arg3: memref<16x1xf32>, %arg4: memref<16x1xf32>):
        %257 = vector.insertelement %c1099692294_i32, %247[%c7 : index] : vector<1xi32>
        %258 = vector.load %alloc_55[%c12, %c0] : memref<16x1xf32>, vector<15xf32>
        %extracted = tensor.extract %5[%c9, %c9] : tensor<16x16xf16>
        %259 = index.castu %c12 : index to i32
        %cst_56 = arith.constant 1.000000e+00 : f16
        %260 = vector.transfer_read %15[%252, %c7], %cst_56 : tensor<16x1xf16>, vector<f16>
        %261 = vector.transpose %258, [0] : vector<15xf32> to vector<15xf32>
        memref.store %cst_0, %alloc_11[%c1] : memref<15xf32>
        %262 = affine.apply affine_map<(d0) -> ((d0 mod 4) floordiv 4)>(%c8)
        %alloc_57 = memref.alloc() : memref<16x1xf32>
        scf.reduce.return %alloc_57 : memref<16x1xf32>
      }
      scf.yield
    }
    %20 = affine.vector_load %alloc_17[%c6, %c7, %c1] : memref<16x16x16xf32>, vector<16xf32>
    affine.vector_store %20, %alloc_16[%c11, %c6] : memref<16x1xf32>, vector<16xf32>
    %21 = tensor.empty() : tensor<15xf16>
    %22 = tensor.empty() : tensor<f16>
    %23 = linalg.dot ins(%alloc_7, %21 : memref<15xf16>, tensor<15xf16>) outs(%22 : tensor<f16>) -> tensor<f16>
    %24 = scf.execute_region -> memref<15xf32> {
      %246 = arith.addi %c1376839441_i32, %c1099692294_i32 : i32
      %247 = scf.while (%arg2 = %cst_0) : (f32) -> f32 {
        %259 = arith.divf %cst_0, %cst : f32
        %260 = arith.remf %cst_4, %cst_4 : f16
        %261 = vector.broadcast %cst_0 : f32 to vector<16x1xf32>
        %262 = vector.fma %261, %261, %261 : vector<16x1xf32>
        %263 = arith.ceildivsi %c2074_i16, %c7286_i16 : i16
        %264 = vector.splat %c4 : vector<16x16x16xindex>
        %265 = math.sqrt %cst : f32
        %266 = arith.addf %arg2, %arg2 : f32
        %267 = memref.load %alloc_16[%c14, %c0] : memref<16x1xf32>
        scf.condition(%false) %cst_3 : f32
      } do {
      ^bb0(%arg2: f32):
        %259 = bufferization.to_memref %13 : memref<16x16xi64>
        %260 = vector.extract_strided_slice %20 {offsets = [3], sizes = [5], strides = [1]} : vector<16xf32> to vector<5xf32>
        %261 = vector.insertelement %arg2, %260[%c7 : index] : vector<5xf32>
        %262 = math.ctlz %true : i1
        %263 = arith.remf %cst_3, %cst_2 : f32
        %264 = bufferization.clone %alloc_18 : memref<16x1xf16> to memref<16x1xf16>
        %265 = math.round %23 : tensor<f16>
        %266 = index.divu %c1, %c13
        %267 = math.copysign %12, %12 : tensor<16x16xf32>
        %268 = index.divs %c0, %c14
        %269 = vector.create_mask %c5 : vector<15xi1>
        %270 = math.cttz %c7286_i16 : i16
        %271 = tensor.empty() : tensor<1x15xf16>
        %272 = tensor.empty() : tensor<16x15xf16>
        %273 = linalg.matmul ins(%15, %271 : tensor<16x1xf16>, tensor<1x15xf16>) outs(%272 : tensor<16x15xf16>) -> tensor<16x15xf16>
        %274 = arith.subi %c1099692294_i32, %c1026596729_i32 : i32
        %cast_53 = tensor.cast %14 : tensor<16x16x16xf16> to tensor<?x?x?xf16>
        %275 = arith.remf %cst_1, %cst_4 : f16
        scf.yield %cst_0 : f32
      }
      %248 = index.sub %c3, %c8
      %249 = math.rsqrt %16 : tensor<16x16x16xf16>
      %250 = scf.execute_region -> vector<15xi16> {
        %259 = math.round %17 : tensor<16x16x16xf16>
        %260 = math.atan2 %2, %2 : tensor<16x16x16xf16>
        %261 = math.expm1 %23 : tensor<f16>
        %262 = index.mul %c11, %c12
        %cst_53 = arith.constant 6.336000e+04 : f16
        %263 = index.divu %c6, %c8
        %264 = vector.broadcast %cst_4 : f16 to vector<1x1x16xf16>
        %265 = vector.broadcast %cst_1 : f16 to vector<1x16xf16>
        %dest_54, %accumulated_value_55 = vector.scan <add>, %264, %265 {inclusive = false, reduction_dim = 1 : i64} : vector<1x1x16xf16>, vector<1x16xf16>
        %266 = math.log10 %15 : tensor<16x1xf16>
        %267 = arith.remsi %c1653018709_i64, %c1653018709_i64 : i64
        %268 = math.powf %23, %22 : tensor<f16>
        %splat_56 = tensor.splat %c1026596729_i32 : tensor<16x16xi32>
        %inserted_57 = tensor.insert %cst_1 into %23[] : tensor<f16>
        %269 = index.ceildivs %c13, %262
        %270 = affine.min affine_map<(d0, d1) -> (-d0, d0 - d1 mod 8 + 16, d0 - (d0 + 16), d1 mod 16)>(%263, %c10)
        %271 = vector.splat %c8 : vector<16x16xindex>
        %272 = index.sub %c7, %c1
        %273 = vector.broadcast %c-60_i16 : i16 to vector<15xi16>
        scf.yield %273 : vector<15xi16>
      }
      %251 = math.powf %5, %5 : tensor<16x16xf16>
      %252 = bufferization.clone %alloc : memref<16x1xf32> to memref<16x1xf32>
      %253 = index.add %c11, %c7
      %collapsed_52 = tensor.collapse_shape %14 [[0, 1], [2]] : tensor<16x16x16xf16> into tensor<256x16xf16>
      %254 = math.log10 %7 : tensor<16x16x16xf32>
      %255 = index.sub %c3, %c5
      %256 = math.ctpop %c1099692294_i32 : i32
      %257 = vector.matrix_multiply %20, %20 {lhs_columns = 16 : i32, lhs_rows = 1 : i32, rhs_columns = 1 : i32} : (vector<16xf32>, vector<16xf32>) -> vector<1xf32>
      affine.store %c1653018709_i64, %alloc_10[%c2] : memref<15xi64>
      %258 = math.atan %14 : tensor<16x16x16xf16>
      memref.tensor_store %0, %alloc_17 : memref<16x16x16xf32>
      scf.yield %alloc_11 : memref<15xf32>
    }
    %25 = index.add %c9, %c11
    %26 = memref.realloc %alloc_14 : memref<15xi1> to memref<1xi1>
    memref.store %cst_4, %alloc_9[%c10, %c14, %c9] : memref<16x16x16xf16>
    %27 = math.atan2 %15, %15 : tensor<16x1xf16>
    %28 = arith.shli %true, %true : i1
    %29 = arith.remf %cst_4, %cst_4 : f16
    %30 = vector.broadcast %cst_2 : f32 to vector<15xf32>
    %31 = vector.fma %30, %30, %30 : vector<15xf32>
    %32 = memref.realloc %alloc_10 : memref<15xi64> to memref<16xi64>
    %33 = math.tanh %5 : tensor<16x16xf16>
    %34 = math.ctpop %4 : tensor<16x16xi32>
    %35 = math.ctlz %13 : tensor<16x16xi64>
    %rank = tensor.rank %8 : tensor<16x16xi1>
    %36 = math.expm1 %cst_4 : f16
    %37 = memref.atomic_rmw mulf %cst_4, %alloc_5[%c14, %c4, %c10] : (f16, memref<16x16x16xf16>) -> f16
    %38 = arith.muli %false, %true : i1
    %39 = math.log10 %21 : tensor<15xf16>
    %40 = arith.shrui %c1099692294_i32, %c1026596729_i32 : i32
    %41 = math.atan %15 : tensor<16x1xf16>
    memref.tensor_store %0, %alloc_17 : memref<16x16x16xf32>
    %cast = tensor.cast %5 : tensor<16x16xf16> to tensor<?x?xf16>
    %42 = index.maxu %c0, %25
    %43 = tensor.empty() : tensor<16x16x16xi1>
    %44 = vector.broadcast %false : i1 to vector<16x16x16xi1>
    %45 = vector.broadcast %c1099692294_i32 : i32 to vector<16x16x16xi32>
    %46 = vector.gather %43[%c4, %c15, %rank] [%45], %44, %44 : tensor<16x16x16xi1>, vector<16x16x16xi32>, vector<16x16x16xi1>, vector<16x16x16xi1> into vector<16x16x16xi1>
    %47 = index.floordivs %c13, %c0
    %48 = vector.shuffle %45, %45 [0, 1, 5, 6, 8, 11, 12, 13, 15, 16, 19, 20, 21, 23, 25, 26, 27, 29, 30, 31] : vector<16x16x16xi32>, vector<16x16x16xi32>
    %expanded = tensor.expand_shape %14 [[0], [1], [2, 3]] : tensor<16x16x16xf16> into tensor<16x16x16x1xf16>
    %49 = memref.atomic_rmw addi %c1376839441_i32, %alloc_13[%c2, %c0] : (i32, memref<16x1xi32>) -> i32
    %50 = math.round %14 : tensor<16x16x16xf16>
    bufferization.dealloc_tensor %13 : tensor<16x16xi64>
    scf.index_switch %rank 
    case 1 {
      scf.if %true {
        %259 = arith.maxsi %c2074_i16, %c-17004_i16 : i16
        %260 = math.copysign %12, %12 : tensor<16x16xf32>
        %261 = math.absf %7 : tensor<16x16x16xf32>
        %262 = arith.divf %cst, %cst_0 : f32
        %263 = arith.maxsi %c1653018709_i64, %c1653018709_i64 : i64
        %264 = math.fma %12, %12, %12 : tensor<16x16xf32>
        %265 = arith.addi %c1653018709_i64, %c1653018709_i64 : i64
        %266 = arith.subi %c-17004_i16, %c-60_i16 : i16
      }
      %246 = arith.addf %cst_2, %cst_3 : f32
      memref.copy %alloc_11, %24 : memref<15xf32> to memref<15xf32>
      %247 = arith.divsi %c2074_i16, %c7286_i16 : i16
      vector.print %31 : vector<15xf32>
      %248 = tensor.empty() : tensor<16x1xi64>
      %249 = math.atan2 %23, %23 : tensor<f16>
      %250 = affine.min affine_map<(d0, d1, d2, d3) -> (d2 - d1 + d1 + 12, d2 - d1 - 4, d1 - (d0 mod 4 - 32), (d0 mod 4) floordiv 128)>(%c5, %c2, %c14, %42)
      %251 = arith.ori %c1026596729_i32, %c1099692294_i32 : i32
      %252 = arith.ceildivsi %c1376839441_i32, %c1099692294_i32 : i32
      %253 = arith.minsi %false, %true : i1
      %254 = math.ceil %21 : tensor<15xf16>
      %255 = index.maxu %c1, %c14
      %256 = index.add %250, %255
      %257 = vector.load %alloc_12[%c5, %c3] : memref<16x16xi64>, vector<16x16x16xi64>
      %cst_52 = arith.constant 1.000000e+00 : f16
      %cst_53 = arith.constant 0.000000e+00 : f16
      %258 = vector.transfer_read %2[%256, %c7, %c10], %cst_53 {permutation_map = affine_map<(d0, d1, d2) -> (d0)>} : tensor<16x16x16xf16>, vector<16xf16>
      scf.yield
    }
    default {
      %246 = bufferization.clone %alloc_13 : memref<16x1xi32> to memref<16x1xi32>
      %247 = arith.ceildivsi %false, %true : i1
      %248 = index.divu %c6, %c10
      %249 = index.divu %c14, %248
      %250 = affine.if affine_set<(d0, d1, d2) : (2 >= 0, 1 >= 0, (((d1 floordiv 128) ceildiv 4) mod 2) * 2 == 0, (d1 floordiv 128) ceildiv 4 >= 0)>(%c14, %c12, %c10) -> memref<16x16xi64> {
        %262 = math.cttz %c1653018709_i64 : i64
        %263 = index.divs %42, %c9
        %264 = math.log1p %2 : tensor<16x16x16xf16>
        %265 = affine.min affine_map<(d0, d1, d2, d3) -> (d0)>(%rank, %c13, %c15, %c14)
        %266 = arith.remsi %false, %true : i1
        %267 = arith.subi %c1376839441_i32, %c1376839441_i32 : i32
        %expanded_52 = tensor.expand_shape %7 [[0], [1], [2, 3]] : tensor<16x16x16xf32> into tensor<16x16x16x1xf32>
        %inserted_53 = tensor.insert %cst_4 into %23[] : tensor<f16>
        affine.yield %alloc_12 : memref<16x16xi64>
      } else {
        %262 = bufferization.clone %alloc_6 : memref<15xi1> to memref<15xi1>
        %263 = math.log10 %12 : tensor<16x16xf32>
        %264 = arith.mulf %cst_4, %cst_1 : f16
        %265 = vector.broadcast %c1376839441_i32 : i32 to vector<16x16xi32>
        %dest_52, %accumulated_value_53 = vector.scan <maxsi>, %45, %265 {inclusive = false, reduction_dim = 1 : i64} : vector<16x16x16xi32>, vector<16x16xi32>
        %266 = vector.insertelement %cst_3, %30[%c12 : index] : vector<15xf32>
        %267 = vector.broadcast %false : i1 to vector<16x16xi1>
        %268 = vector.insert %267, %44 [1] : vector<16x16xi1> into vector<16x16x16xi1>
        %269 = tensor.empty() : tensor<15xi32>
        %270 = arith.mulf %cst_2, %cst_0 : f32
        affine.yield %alloc_12 : memref<16x16xi64>
      }
      %251 = arith.minsi %true, %false : i1
      %252 = affine.min affine_map<(d0, d1, d2) -> (d2 + d1)>(%c0, %c6, %c5)
      %253 = bufferization.clone %alloc_18 : memref<16x1xf16> to memref<16x1xf16>
      %254 = math.powf %5, %5 : tensor<16x16xf16>
      %255 = arith.ori %true, %false : i1
      %256 = affine.if affine_set<(d0, d1) : (-(d1 + 4) >= 0)>(%c14, %c14) -> i16 {
        %262 = vector.splat %false : vector<16x1xi1>
        %263 = vector.splat %c8 : vector<16x16xindex>
        %264 = math.cos %17 : tensor<16x16x16xf16>
        memref.tensor_store %13, %alloc_12 : memref<16x16xi64>
        %265 = arith.remui %c1653018709_i64, %c1653018709_i64 : i64
        %266 = arith.andi %c1376839441_i32, %c1026596729_i32 : i32
        %267 = memref.load %alloc_19[%c15, %c12] : memref<16x16xf16>
        %268 = index.casts %true : i1 to index
        affine.yield %c-17004_i16 : i16
      } else {
        %262 = tensor.empty() : tensor<16x16xi32>
        %263 = linalg.matmul ins(%4, %4 : tensor<16x16xi32>, tensor<16x16xi32>) outs(%262 : tensor<16x16xi32>) -> tensor<16x16xi32>
        affine.store %cst_2, %alloc_16[%c1, %c4] : memref<16x1xf32>
        %264 = math.round %15 : tensor<16x1xf16>
        %265 = math.rsqrt %14 : tensor<16x16x16xf16>
        %266 = arith.mulf %cst_2, %cst_2 : f32
        %267 = index.sub %c4, %c9
        %268 = math.fma %5, %5, %5 : tensor<16x16xf16>
        %269 = index.floordivs %47, %47
        affine.yield %c7286_i16 : i16
      }
      memref.assume_alignment %alloc_12, 16 : memref<16x16xi64>
      %257 = index.sub %25, %c11
      %258 = vector.bitcast %45 : vector<16x16x16xi32> to vector<16x16x16xi32>
      %259 = vector.bitcast %46 : vector<16x16x16xi1> to vector<16x16x16xi1>
      %260 = tensor.empty() : tensor<16x1xf16>
      %261 = linalg.matmul ins(%5, %15 : tensor<16x16xf16>, tensor<16x1xf16>) outs(%260 : tensor<16x1xf16>) -> tensor<16x1xf16>
    }
    %51 = vector.multi_reduction <mul>, %20, %20 [] : vector<16xf32> to vector<16xf32>
    %alloc_21 = memref.alloc() : memref<16x1xi16>
    %cast_22 = tensor.cast %5 : tensor<16x16xf16> to tensor<?x?xf16>
    memref.store %cst_0, %alloc_11[%c3] : memref<15xf32>
    %52 = affine.apply affine_map<(d0) -> ((d0 mod 4) floordiv 4)>(%c12)
    memref.store %c1653018709_i64, %alloc_10[%c5] : memref<15xi64>
    %53 = arith.muli %c1026596729_i32, %c1099692294_i32 : i32
    %54 = index.ceildivs %c1, %c7
    %55 = arith.minsi %c1376839441_i32, %c1026596729_i32 : i32
    %56 = math.log1p %15 : tensor<16x1xf16>
    memref.alloca_scope  {
      %246 = vector.bitcast %44 : vector<16x16x16xi1> to vector<16x16x16xi1>
      memref.alloca_scope  {
        %alloc_58 = memref.alloc() : memref<16xi64>
        memref.tensor_store %reduced, %alloc_58 : memref<16xi64>
        %274 = math.roundeven %7 : tensor<16x16x16xf32>
        %cast_59 = tensor.cast %6 : tensor<16x16x16xi64> to tensor<?x?x?xi64>
        %275 = vector.transpose %246, [1, 2, 0] : vector<16x16x16xi1> to vector<16x16x16xi1>
        %expanded_60 = tensor.expand_shape %7 [[0], [1], [2, 3]] : tensor<16x16x16xf32> into tensor<16x16x16x1xf32>
        %276 = arith.subi %false, %false : i1
        %277 = index.sub %c4, %c3
        %278 = index.floordivs %c2, %277
        %279 = arith.mulf %cst_2, %cst_0 : f32
        %280 = bufferization.clone %alloc_5 : memref<16x16x16xf16> to memref<16x16x16xf16>
        %281 = index.casts %c6 : index to i32
        %282 = math.rsqrt %21 : tensor<15xf16>
        %283 = arith.ceildivsi %true, %true : i1
        bufferization.dealloc_tensor %expanded : tensor<16x16x16x1xf16>
        %284 = math.sqrt %2 : tensor<16x16x16xf16>
        %285 = vector.broadcast %c1026596729_i32 : i32 to vector<16x16xi32>
        %dest_61, %accumulated_value_62 = vector.scan <maxsi>, %45, %285 {inclusive = false, reduction_dim = 2 : i64} : vector<16x16x16xi32>, vector<16x16xi32>
        %286 = arith.addi %true, %false : i1
        %287 = vector.extract_strided_slice %31 {offsets = [13], sizes = [1], strides = [1]} : vector<15xf32> to vector<1xf32>
        %288 = index.add %rank, %c12
        %289 = vector.broadcast %cst : f32 to vector<16x1xf32>
        %290 = vector.fma %289, %289, %289 : vector<16x1xf32>
        %291 = vector.multi_reduction <minf>, %30, %30 [] : vector<15xf32> to vector<15xf32>
        %292 = index.castu %true : i1 to index
        %293 = math.ctpop %18 : tensor<16xi64>
        %294 = index.add %c11, %c14
        memref.tensor_store %14, %alloc_5 : memref<16x16x16xf16>
        %295 = bufferization.clone %280 : memref<16x16x16xf16> to memref<16x16x16xf16>
        %296 = math.log2 %22 : tensor<f16>
        %297 = bufferization.clone %alloc_8 : memref<16x1xi1> to memref<16x1xi1>
        %298 = arith.ori %c-17004_i16, %c2074_i16 : i16
        %299 = affine.max affine_map<(d0) -> ((d0 mod 32) floordiv 32, -(d0 mod 32 + 2), (d0 * 4) floordiv 16)>(%c12)
        %300 = math.log10 %5 : tensor<16x16xf16>
        %301 = math.fpowi %cst_1, %c1376839441_i32 : f16, i32
      }
      %alloc_52 = memref.alloc() : memref<f16>
      memref.tensor_store %22, %alloc_52 : memref<f16>
      %expanded_53 = tensor.expand_shape %0 [[0], [1], [2, 3]] : tensor<16x16x16xf32> into tensor<16x16x16x1xf32>
      %247 = math.exp2 %15 : tensor<16x1xf16>
      bufferization.dealloc_tensor %2 : tensor<16x16x16xf16>
      %248 = tensor.empty() : tensor<16x16x16xf16>
      %mapped_54 = linalg.map ins(%14, %16 : tensor<16x16x16xf16>, tensor<16x16x16xf16>) outs(%248 : tensor<16x16x16xf16>)
        (%in: f16, %in_58: f16) {
          %collapsed_59 = tensor.collapse_shape %15 [[0, 1]] : tensor<16x1xf16> into tensor<16xf16>
          %274 = arith.maxsi %c1026596729_i32, %c1099692294_i32 : i32
          %275 = math.atan2 %248, %14 : tensor<16x16x16xf16>
          %276 = index.casts %c7 : index to i32
          %277 = vector.broadcast %rank : index to vector<16xindex>
          %278 = vector.broadcast %true : i1 to vector<16xi1>
          vector.scatter %alloc_8[%c10, %c0] [%277], %278, %278 : memref<16x1xi1>, vector<16xindex>, vector<16xi1>, vector<16xi1>
          %279 = tensor.empty() : tensor<16x16xi1>
          %280 = linalg.matmul ins(%9, %8 : tensor<16x16xi1>, tensor<16x16xi1>) outs(%279 : tensor<16x16xi1>) -> tensor<16x16xi1>
          %281 = affine.min affine_map<(d0, d1, d2, d3) -> (d2 ceildiv 8, d0 - d1, d2 ceildiv 8 + 2)>(%c7, %25, %c0, %c15)
          %inserted_60 = tensor.insert %cst_4 into %5[%c4, %c5] : tensor<16x16xf16>
          %282 = arith.subi %c1026596729_i32, %c1026596729_i32 : i32
          %283 = vector.broadcast %c1099692294_i32 : i32 to vector<16xi32>
          %284 = vector.broadcast %false : i1 to vector<16xi1>
          %285 = vector.maskedload %alloc_13[%c1, %c0], %284, %283 : memref<16x1xi32>, vector<16xi1>, vector<16xi32> into vector<16xi32>
          %286 = vector.shuffle %246, %44 [0, 1, 2, 3, 4, 11, 14, 16, 17, 18, 20, 21, 24, 25, 26, 28, 31] : vector<16x16x16xi1>, vector<16x16x16xi1>
          %287 = index.castu %c11 : index to i32
          memref.store %in_58, %alloc_9[%c2, %c11, %c0] : memref<16x16x16xf16>
          %288 = index.maxu %52, %c6
          %289 = arith.maxui %c7286_i16, %c2074_i16 : i16
          %290 = math.ctpop %279 : tensor<16x16xi1>
          %extracted_61 = tensor.extract %8[%c5, %c12] : tensor<16x16xi1>
          %291 = math.tanh %cst_2 : f32
          %292 = affine.load %alloc_15[%c8, %c13, %c3] : memref<16x16x16xi32>
          %293 = arith.remf %cst_1, %cst_4 : f16
          %294 = math.round %21 : tensor<15xf16>
          %inserted_62 = tensor.insert %false into %9[%c4, %c6] : tensor<16x16xi1>
          %295 = bufferization.to_memref %7 : memref<16x16x16xf32>
          %296 = memref.load %alloc_8[%c10, %c0] : memref<16x1xi1>
          %297 = arith.addi %false, %false : i1
          %298 = math.cttz %c1026596729_i32 : i32
          %alloc_63 = memref.alloc() : memref<16x16x16xi64>
          bufferization.dealloc_tensor %248 : tensor<16x16x16xf16>
          %299 = index.casts %false : i1 to index
          %300 = arith.remf %cst_0, %cst_3 : f32
          %collapsed_64 = tensor.collapse_shape %0 [[0, 1], [2]] : tensor<16x16x16xf32> into tensor<256x16xf32>
          %301 = memref.load %alloc_18[%c5, %c0] : memref<16x1xf16>
          %cst_65 = arith.constant 1.000000e+00 : f16
          linalg.yield %cst_65 : f16
        }
      memref.tensor_store %15, %alloc_18 : memref<16x1xf16>
      %249 = math.cos %12 : tensor<16x16xf32>
      %250 = index.ceildivu %c5, %c6
      %251 = arith.maxf %cst, %cst_3 : f32
      %252 = arith.maxui %c-60_i16, %c7286_i16 : i16
      %splat_55 = tensor.splat %c1376839441_i32 : tensor<16x16x16xi32>
      %253 = arith.remui %c1376839441_i32, %c1099692294_i32 : i32
      %254 = arith.addi %c1653018709_i64, %c1653018709_i64 : i64
      %255 = arith.andi %c1099692294_i32, %c1099692294_i32 : i32
      %256 = vector.splat %c11 : vector<16x16x16xindex>
      %257 = bufferization.clone %alloc_7 : memref<15xf16> to memref<15xf16>
      %258 = arith.shrsi %c-60_i16, %c2074_i16 : i16
      %259 = bufferization.clone %alloc_13 : memref<16x1xi32> to memref<16x1xi32>
      %260 = arith.maxsi %c7286_i16, %c-17004_i16 : i16
      %261 = index.maxs %c13, %c3
      %262 = vector.reduction <add>, %31 : vector<15xf32> into f32
      %263 = arith.remui %c7286_i16, %c-17004_i16 : i16
      %264 = vector.broadcast %c1653018709_i64 : i64 to vector<15xi64>
      %265 = vector.broadcast %true : i1 to vector<15xi1>
      %266 = vector.broadcast %c1376839441_i32 : i32 to vector<15xi32>
      %267 = vector.gather %alloc_10[%250] [%266], %265, %264 : memref<15xi64>, vector<15xi32>, vector<15xi1>, vector<15xi64> into vector<15xi64>
      %268 = memref.load %alloc_13[%c3, %c0] : memref<16x1xi32>
      %269 = arith.divf %cst_1, %cst_4 : f16
      %270 = arith.addf %cst_4, %cst_1 : f16
      %cst_56 = arith.constant 1.000000e+00 : f32
      %cst_57 = arith.constant 0.000000e+00 : f32
      %271 = vector.transfer_read %12[%c2, %c2], %cst_57 : tensor<16x16xf32>, vector<f32>
      %extracted = tensor.extract %9[%c13, %c8] : tensor<16x16xi1>
      %272 = vector.flat_transpose %266 {columns = 5 : i32, rows = 3 : i32} : vector<15xi32> -> vector<15xi32>
      %273 = vector.extract_strided_slice %44 {offsets = [6, 10], sizes = [7, 5], strides = [1, 1]} : vector<16x16x16xi1> to vector<7x5x16xi1>
    }
    %57 = arith.remsi %c1099692294_i32, %c1099692294_i32 : i32
    %58 = math.log10 %17 : tensor<16x16x16xf16>
    %59 = math.log2 %2 : tensor<16x16x16xf16>
    %60 = vector.broadcast %cst_1 : f16 to vector<1xf16>
    %61 = vector.broadcast %true : i1 to vector<1xi1>
    %62 = vector.maskedload %alloc_9[%c10, %c6, %c1], %61, %60 : memref<16x16x16xf16>, vector<1xi1>, vector<1xf16> into vector<1xf16>
    %63 = vector.insertelement %cst_1, %62[%c5 : index] : vector<1xf16>
    %expanded_23 = tensor.expand_shape %2 [[0], [1], [2, 3]] : tensor<16x16x16xf16> into tensor<16x16x16x1xf16>
    %expanded_24 = tensor.expand_shape %16 [[0], [1], [2, 3]] : tensor<16x16x16xf16> into tensor<16x16x16x1xf16>
    %64 = index.casts %true : i1 to index
    %65 = index.sub %c4, %c9
    %66 = vector.broadcast %c1376839441_i32 : i32 to vector<16x16xi32>
    %dest, %accumulated_value = vector.scan <minui>, %45, %66 {inclusive = true, reduction_dim = 1 : i64} : vector<16x16x16xi32>, vector<16x16xi32>
    memref.assume_alignment %alloc_17, 2 : memref<16x16x16xf32>
    %67 = vector.contract {indexing_maps = [affine_map<(d0) -> (d0)>, affine_map<(d0) -> (d0)>, affine_map<(d0) -> ()>], iterator_types = ["reduction"], kind = #vector.kind<add>} %60, %62, %cst_4 : vector<1xf16>, vector<1xf16> into f16
    %68 = arith.minsi %c-17004_i16, %c-17004_i16 : i16
    %69 = vector.create_mask %c6, %c5 : vector<16x16xi1>
    %from_elements = tensor.from_elements %c1653018709_i64, %c1653018709_i64, %c1653018709_i64, %c1653018709_i64, %c1653018709_i64, %c1653018709_i64, %c1653018709_i64, %c1653018709_i64, %c1653018709_i64, %c1653018709_i64, %c1653018709_i64, %c1653018709_i64, %c1653018709_i64, %c1653018709_i64, %c1653018709_i64, %c1653018709_i64, %c1653018709_i64, %c1653018709_i64, %c1653018709_i64, %c1653018709_i64, %c1653018709_i64, %c1653018709_i64, %c1653018709_i64, %c1653018709_i64, %c1653018709_i64, %c1653018709_i64, %c1653018709_i64, %c1653018709_i64, %c1653018709_i64, %c1653018709_i64, %c1653018709_i64, %c1653018709_i64, %c1653018709_i64, %c1653018709_i64, %c1653018709_i64, %c1653018709_i64, %c1653018709_i64, %c1653018709_i64, %c1653018709_i64, %c1653018709_i64, %c1653018709_i64, %c1653018709_i64, %c1653018709_i64, %c1653018709_i64, %c1653018709_i64, %c1653018709_i64, %c1653018709_i64, %c1653018709_i64, %c1653018709_i64, %c1653018709_i64, %c1653018709_i64, %c1653018709_i64, %c1653018709_i64, %c1653018709_i64, %c1653018709_i64, %c1653018709_i64, %c1653018709_i64, %c1653018709_i64, %c1653018709_i64, %c1653018709_i64, %c1653018709_i64, %c1653018709_i64, %c1653018709_i64, %c1653018709_i64, %c1653018709_i64, %c1653018709_i64, %c1653018709_i64, %c1653018709_i64, %c1653018709_i64, %c1653018709_i64, %c1653018709_i64, %c1653018709_i64, %c1653018709_i64, %c1653018709_i64, %c1653018709_i64, %c1653018709_i64, %c1653018709_i64, %c1653018709_i64, %c1653018709_i64, %c1653018709_i64, %c1653018709_i64, %c1653018709_i64, %c1653018709_i64, %c1653018709_i64, %c1653018709_i64, %c1653018709_i64, %c1653018709_i64, %c1653018709_i64, %c1653018709_i64, %c1653018709_i64, %c1653018709_i64, %c1653018709_i64, %c1653018709_i64, %c1653018709_i64, %c1653018709_i64, %c1653018709_i64, %c1653018709_i64, %c1653018709_i64, %c1653018709_i64, %c1653018709_i64, %c1653018709_i64, %c1653018709_i64, %c1653018709_i64, %c1653018709_i64, %c1653018709_i64, %c1653018709_i64, %c1653018709_i64, %c1653018709_i64, %c1653018709_i64, %c1653018709_i64, %c1653018709_i64, %c1653018709_i64, %c1653018709_i64, %c1653018709_i64, %c1653018709_i64, %c1653018709_i64, %c1653018709_i64, %c1653018709_i64, %c1653018709_i64, %c1653018709_i64, %c1653018709_i64, %c1653018709_i64, %c1653018709_i64, %c1653018709_i64, %c1653018709_i64, %c1653018709_i64, %c1653018709_i64, %c1653018709_i64, %c1653018709_i64, %c1653018709_i64, %c1653018709_i64, %c1653018709_i64, %c1653018709_i64, %c1653018709_i64, %c1653018709_i64, %c1653018709_i64, %c1653018709_i64, %c1653018709_i64, %c1653018709_i64, %c1653018709_i64, %c1653018709_i64, %c1653018709_i64, %c1653018709_i64, %c1653018709_i64, %c1653018709_i64, %c1653018709_i64, %c1653018709_i64, %c1653018709_i64, %c1653018709_i64, %c1653018709_i64, %c1653018709_i64, %c1653018709_i64, %c1653018709_i64, %c1653018709_i64, %c1653018709_i64, %c1653018709_i64, %c1653018709_i64, %c1653018709_i64, %c1653018709_i64, %c1653018709_i64, %c1653018709_i64, %c1653018709_i64, %c1653018709_i64, %c1653018709_i64, %c1653018709_i64, %c1653018709_i64, %c1653018709_i64, %c1653018709_i64, %c1653018709_i64, %c1653018709_i64, %c1653018709_i64, %c1653018709_i64, %c1653018709_i64, %c1653018709_i64, %c1653018709_i64, %c1653018709_i64, %c1653018709_i64, %c1653018709_i64, %c1653018709_i64, %c1653018709_i64, %c1653018709_i64, %c1653018709_i64, %c1653018709_i64, %c1653018709_i64, %c1653018709_i64, %c1653018709_i64, %c1653018709_i64, %c1653018709_i64, %c1653018709_i64, %c1653018709_i64, %c1653018709_i64, %c1653018709_i64, %c1653018709_i64, %c1653018709_i64, %c1653018709_i64, %c1653018709_i64, %c1653018709_i64, %c1653018709_i64, %c1653018709_i64, %c1653018709_i64, %c1653018709_i64, %c1653018709_i64, %c1653018709_i64, %c1653018709_i64, %c1653018709_i64, %c1653018709_i64, %c1653018709_i64, %c1653018709_i64, %c1653018709_i64, %c1653018709_i64, %c1653018709_i64, %c1653018709_i64, %c1653018709_i64, %c1653018709_i64, %c1653018709_i64, %c1653018709_i64, %c1653018709_i64, %c1653018709_i64, %c1653018709_i64, %c1653018709_i64, %c1653018709_i64, %c1653018709_i64, %c1653018709_i64, %c1653018709_i64, %c1653018709_i64, %c1653018709_i64, %c1653018709_i64, %c1653018709_i64, %c1653018709_i64, %c1653018709_i64, %c1653018709_i64, %c1653018709_i64, %c1653018709_i64, %c1653018709_i64, %c1653018709_i64, %c1653018709_i64, %c1653018709_i64, %c1653018709_i64, %c1653018709_i64, %c1653018709_i64, %c1653018709_i64, %c1653018709_i64, %c1653018709_i64, %c1653018709_i64, %c1653018709_i64, %c1653018709_i64, %c1653018709_i64, %c1653018709_i64, %c1653018709_i64, %c1653018709_i64, %c1653018709_i64, %c1653018709_i64, %c1653018709_i64, %c1653018709_i64, %c1653018709_i64, %c1653018709_i64 : tensor<16x16xi64>
    %70 = bufferization.clone %alloc_18 : memref<16x1xf16> to memref<16x1xf16>
    %71 = math.floor %cst_4 : f16
    %72 = math.log10 %2 : tensor<16x16x16xf16>
    %73 = arith.remf %cst_4, %cst_1 : f16
    %74 = bufferization.clone %alloc_5 : memref<16x16x16xf16> to memref<16x16x16xf16>
    %75 = arith.ceildivsi %c1376839441_i32, %c1026596729_i32 : i32
    %76 = index.sub %c8, %c8
    %77 = index.add %c15, %c0
    %78 = arith.divsi %c1653018709_i64, %c1653018709_i64 : i64
    %79 = arith.muli %c1376839441_i32, %c1026596729_i32 : i32
    %80 = index.sizeof
    %81 = index.add %c8, %c4
    %82 = bufferization.to_memref %23 : memref<f16>
    %83 = vector.bitcast %20 : vector<16xf32> to vector<16xi32>
    bufferization.dealloc_tensor %11 : tensor<15xi32>
    %84 = index.maxs %c15, %52
    %85 = index.add %c10, %47
    memref.copy %alloc_14, %alloc_6 : memref<15xi1> to memref<15xi1>
    %splat = tensor.splat %c-60_i16 : tensor<16x16xi16>
    %expanded_25 = tensor.expand_shape %2 [[0], [1], [2, 3]] : tensor<16x16x16xf16> into tensor<16x16x16x1xf16>
    %86 = arith.ori %c7286_i16, %c2074_i16 : i16
    %87 = affine.apply affine_map<(d0) -> (d0 * -64)>(%c5)
    %88 = memref.realloc %alloc_10 : memref<15xi64> to memref<15xi64>
    %89 = math.round %0 : tensor<16x16x16xf32>
    %90 = math.ctlz %c1653018709_i64 : i64
    %91 = math.powf %cst, %cst_2 : f32
    %92 = vector.broadcast %true : i1 to vector<16x16x16x16xi1>
    %93 = vector.contract {indexing_maps = [affine_map<(d0, d1, d2, d3, d4) -> (d4, d0, d1)>, affine_map<(d0, d1, d2, d3, d4) -> (d4, d2, d3)>, affine_map<(d0, d1, d2, d3, d4) -> (d0, d1, d2, d3)>], iterator_types = ["parallel", "parallel", "parallel", "parallel", "reduction"], kind = #vector.kind<mul>} %44, %44, %92 : vector<16x16x16xi1>, vector<16x16x16xi1> into vector<16x16x16x16xi1>
    %94 = math.atan2 %cst_4, %cst_4 : f16
    %95 = index.castu %c9 : index to i32
    %96 = index.maxu %c4, %c11
    %97 = vector.create_mask %42, %rank : vector<16x16xi1>
    %c394555334_i32 = arith.constant 394555334 : i32
    %98 = vector.load %alloc_7[%c12] : memref<15xf16>, vector<16x16x16xf16>
    %99 = index.add %c13, %85
    %100 = math.ctpop %11 : tensor<15xi32>
    %101 = vector.broadcast %cst_4 : f16 to vector<16x16xf16>
    %dest_26, %accumulated_value_27 = vector.scan <add>, %98, %101 {inclusive = false, reduction_dim = 1 : i64} : vector<16x16x16xf16>, vector<16x16xf16>
    %102 = bufferization.to_memref %cast : memref<?x?xf16>
    affine.for %arg2 = 0 to 76 {
    }
    %103 = arith.divsi %false, %true : i1
    %104 = arith.minui %true, %false : i1
    %105 = index.ceildivu %64, %65
    %106 = tensor.empty() : tensor<16x16x16xf16>
    %mapped = linalg.map ins(%2 : tensor<16x16x16xf16>) outs(%106 : tensor<16x16x16xf16>)
      (%in: f16) {
        %expanded_52 = tensor.expand_shape %0 [[0], [1], [2, 3]] : tensor<16x16x16xf32> into tensor<16x16x16x1xf32>
        %246 = math.cttz %11 : tensor<15xi32>
        %247 = math.fpowi %in, %c1026596729_i32 : f16, i32
        %cst_53 = arith.constant 0x4E044918 : f32
        %248 = math.powf %cst_2, %cst_3 : f32
        %249 = vector.bitcast %31 : vector<15xf32> to vector<15xi32>
        %250 = math.log10 %0 : tensor<16x16x16xf32>
        %251 = arith.minf %cst, %cst_2 : f32
        %252 = vector.broadcast %cst_1 : f16 to vector<16x16xf16>
        %dest_54, %accumulated_value_55 = vector.scan <minf>, %98, %252 {inclusive = true, reduction_dim = 2 : i64} : vector<16x16x16xf16>, vector<16x16xf16>
        %alloc_56 = memref.alloc() : memref<16x16x16xi1>
        memref.tensor_store %43, %alloc_56 : memref<16x16x16xi1>
        %253 = affine.load %alloc[%c12, %c10] : memref<16x1xf32>
        %254 = memref.atomic_rmw minf %in, %70[%c7, %c0] : (f16, memref<16x1xf16>) -> f16
        %255 = arith.remui %c-17004_i16, %c-17004_i16 : i16
        %256 = vector.splat %54 : vector<16x16xindex>
        %257 = index.maxu %42, %c2
        %258 = index.casts %c7286_i16 : i16 to index
        %259 = vector.insert %cst_0, %31 [1] : f32 into vector<15xf32>
        %260 = vector.splat %false : vector<15xi1>
        %261 = math.fma %5, %5, %5 : tensor<16x16xf16>
        %262 = bufferization.to_memref %8 : memref<16x16xi1>
        %263 = tensor.empty() : tensor<16x16x16xf32>
        %mapped_57 = linalg.map ins(%7, %0 : tensor<16x16x16xf32>, tensor<16x16x16xf32>) outs(%263 : tensor<16x16x16xf32>)
          (%in_59: f32, %in_60: f32) {
            %273 = vector.create_mask %c14 : vector<15xi1>
            %274 = arith.minsi %c1653018709_i64, %c1653018709_i64 : i64
            %275 = vector.insert %in_60, %30 [2] : f32 into vector<15xf32>
            %276 = index.castu %c5 : index to i32
            %277 = vector.broadcast %true : i1 to vector<16xi1>
            %278 = vector.multi_reduction <mul>, %69, %277 [1] : vector<16x16xi1> to vector<16xi1>
            %279 = arith.maxui %c-17004_i16, %c-17004_i16 : i16
            %280 = bufferization.to_memref %expanded_24 : memref<16x16x16x1xf16>
            %281 = index.ceildivu %54, %c13
            %282 = arith.maxf %in_60, %cst_0 : f32
            %283 = arith.divsi %c1653018709_i64, %c1653018709_i64 : i64
            memref.store %in, %74[%c12, %c5, %c8] : memref<16x16x16xf16>
            %284 = math.log1p %expanded_24 : tensor<16x16x16x1xf16>
            %extracted = tensor.extract %23[] : tensor<f16>
            %expanded_61 = tensor.expand_shape %5 [[0], [1, 2]] : tensor<16x16xf16> into tensor<16x16x1xf16>
            %285 = vector.multi_reduction <mul>, %20, %20 [] : vector<16xf32> to vector<16xf32>
            %286 = index.maxs %99, %258
            %inserted_62 = tensor.insert %true into %10[%c11] : tensor<15xi1>
            %287 = math.powf %0, %263 : tensor<16x16x16xf32>
            %288 = arith.maxsi %c1026596729_i32, %c1376839441_i32 : i32
            vector.print %60 : vector<1xf16>
            %289 = math.ctlz %9 : tensor<16x16xi1>
            %290 = arith.remui %c1099692294_i32, %c1026596729_i32 : i32
            %291 = arith.minui %c-60_i16, %c7286_i16 : i16
            %292 = math.round %cst_0 : f32
            %cst_63 = arith.constant 1.000000e+00 : f16
            %293 = vector.transfer_read %14[%42, %77, %25], %cst_63 : tensor<16x16x16xf16>, vector<f16>
            %294 = bufferization.to_memref %4 : memref<16x16xi32>
            %dest_64, %accumulated_value_65 = vector.scan <add>, %97, %277 {inclusive = false, reduction_dim = 1 : i64} : vector<16x16xi1>, vector<16xi1>
            %295 = index.maxs %c11, %77
            memref.assume_alignment %alloc_13, 8 : memref<16x1xi32>
            %296 = arith.addi %c1653018709_i64, %c1653018709_i64 : i64
            %297 = math.exp2 %expanded : tensor<16x16x16x1xf16>
            %298 = index.divu %80, %c4
            %cst_66 = arith.constant 1.000000e+00 : f32
            linalg.yield %cst_66 : f32
          }
        %c-25867_i16 = arith.constant -25867 : i16
        %264 = arith.remsi %c7286_i16, %c2074_i16 : i16
        %265 = math.ipowi %false, %true : i1
        %266 = vector.extract_strided_slice %98 {offsets = [10], sizes = [1], strides = [1]} : vector<16x16x16xf16> to vector<1x16x16xf16>
        %267 = index.sub %c10, %c5
        %268 = math.round %253 : f32
        scf.execute_region {
          %273 = index.floordivs %c6, %c10
          %274 = memref.atomic_rmw maxf %in, %alloc_5[%c0, %c11, %c11] : (f16, memref<16x16x16xf16>) -> f16
          %275 = arith.ceildivsi %c1099692294_i32, %c1026596729_i32 : i32
          %276 = arith.andi %c-17004_i16, %c7286_i16 : i16
          %277 = affine.apply affine_map<(d0, d1) -> (d1 floordiv 8 - 4)>(%99, %c0)
          %278 = arith.remf %cst_1, %in : f16
          vector.print %20 : vector<16xf32>
          %extracted = tensor.extract %10[%c2] : tensor<15xi1>
          memref.assume_alignment %alloc_9, 8 : memref<16x16x16xf16>
          %279 = bufferization.clone %alloc_19 : memref<16x16xf16> to memref<16x16xf16>
          %280 = arith.maxsi %extracted, %extracted : i1
          %281 = arith.ceildivsi %false, %true : i1
          %282 = math.expm1 %12 : tensor<16x16xf32>
          %283 = math.ceil %263 : tensor<16x16x16xf32>
          %c1680306490_i32 = arith.constant 1680306490 : i32
          %284 = math.roundeven %5 : tensor<16x16xf16>
          scf.yield
        }
        %269 = vector.create_mask %c5, %c4 : vector<16x16xi1>
        %270 = vector.contract {indexing_maps = [affine_map<(d0, d1, d2) -> (d2, d0)>, affine_map<(d0, d1, d2) -> (d2, d1)>, affine_map<(d0, d1, d2) -> (d0, d1)>], iterator_types = ["parallel", "parallel", "reduction"], kind = #vector.kind<add>} %269, %97, %97 : vector<16x16xi1>, vector<16x16xi1> into vector<16x16xi1>
        %271 = index.floordivs %c11, %c3
        %272 = arith.addf %253, %cst_2 : f32
        %cst_58 = arith.constant 1.000000e+00 : f16
        linalg.yield %cst_58 : f16
      }
    %107 = arith.remf %cst, %cst_3 : f32
    %from_elements_28 = tensor.from_elements %false, %false, %true, %false, %true, %false, %true, %false, %true, %false, %false, %true, %true, %false, %true : tensor<15xi1>
    %108 = arith.subi %c1026596729_i32, %c1376839441_i32 : i32
    %109 = math.log10 %expanded_23 : tensor<16x16x16x1xf16>
    %110 = index.add %c15, %c6
    %111 = vector.broadcast %c1099692294_i32 : i32 to vector<16x16xi32>
    %dest_29, %accumulated_value_30 = vector.scan <minsi>, %45, %111 {inclusive = false, reduction_dim = 2 : i64} : vector<16x16x16xi32>, vector<16x16xi32>
    %112 = vector.extract_strided_slice %60 {offsets = [0], sizes = [1], strides = [1]} : vector<1xf16> to vector<1xf16>
    %113 = vector.multi_reduction <mul>, %62, %cst_1 [0] : vector<1xf16> to f16
    %114 = index.ceildivs %c11, %c5
    %115 = memref.alloca_scope  -> (memref<16x16xf32>) {
      %246 = tensor.empty() : tensor<16xf16>
      %247 = linalg.generic {indexing_maps = [affine_map<(d0, d1, d2) -> (d2, d0, d1)>, affine_map<(d0, d1, d2) -> (d2, d1)>, affine_map<(d0, d1, d2) -> (d1)>, affine_map<(d0, d1, d2) -> (d0, d1, d2)>], iterator_types = ["parallel", "parallel", "parallel"]} ins(%14, %5, %246 : tensor<16x16x16xf16>, tensor<16x16xf16>, tensor<16xf16>) outs(%16 : tensor<16x16x16xf16>) {
      ^bb0(%in: f16, %in_57: f16, %in_58: f16, %out: f16):
        %280 = arith.subi %c1026596729_i32, %c1026596729_i32 : i32
        %281 = arith.remsi %c1099692294_i32, %c1026596729_i32 : i32
        %282 = math.ctlz %splat : tensor<16x16xi16>
        %collapsed_59 = tensor.collapse_shape %16 [[0, 1], [2]] : tensor<16x16x16xf16> into tensor<256x16xf16>
        %283 = vector.flat_transpose %62 {columns = 1 : i32, rows = 1 : i32} : vector<1xf16> -> vector<1xf16>
        %284 = vector.load %alloc_16[%c15, %c0] : memref<16x1xf32>, vector<16x16xf32>
        %285 = arith.minsi %c2074_i16, %c-17004_i16 : i16
        %286 = index.floordivs %c14, %84
        %287 = memref.atomic_rmw minf %cst_1, %82[] : (f16, memref<f16>) -> f16
        %288 = vector.multi_reduction <add>, %283, %in_58 [0] : vector<1xf16> to f16
        %289 = bufferization.clone %alloc_15 : memref<16x16x16xi32> to memref<16x16x16xi32>
        %290 = math.copysign %7, %0 : tensor<16x16x16xf32>
        %291 = arith.remsi %c1653018709_i64, %c1653018709_i64 : i64
        %292 = arith.maxsi %c-17004_i16, %c7286_i16 : i16
        %293 = index.maxs %65, %110
        %294 = math.powf %0, %0 : tensor<16x16x16xf32>
        %295 = vector.extract_strided_slice %46 {offsets = [6], sizes = [10], strides = [1]} : vector<16x16x16xi1> to vector<10x16x16xi1>
        %296 = index.casts %47 : index to i32
        %297 = vector.splat %cst_4 : vector<16x1xf16>
        %298 = vector.shuffle %45, %45 [1, 4, 5, 7, 9, 10, 12, 13, 14, 16, 23, 24, 29, 30, 31] : vector<16x16x16xi32>, vector<16x16x16xi32>
        %299 = arith.subi %c1376839441_i32, %c1376839441_i32 : i32
        %dest_60, %accumulated_value_61 = vector.scan <minsi>, %46, %69 {inclusive = true, reduction_dim = 0 : i64} : vector<16x16x16xi1>, vector<16x16xi1>
        %300 = bufferization.to_memref %9 : memref<16x16xi1>
        %301 = arith.ori %c2074_i16, %c-17004_i16 : i16
        %302 = arith.addf %in_58, %in : f16
        %expanded_62 = tensor.expand_shape %21 [[0, 1]] : tensor<15xf16> into tensor<15x1xf16>
        %303 = vector.extract_strided_slice %69 {offsets = [2], sizes = [10], strides = [1]} : vector<16x16xi1> to vector<10x16xi1>
        %304 = math.expm1 %expanded_25 : tensor<16x16x16x1xf16>
        %alloc_63 = memref.alloc() : memref<16x16xi16>
        memref.tensor_store %3, %alloc_63 : memref<16x16xi16>
        memref.store %true, %alloc_8[%c14, %c0] : memref<16x1xi1>
        %305 = arith.negf %cst_0 : f32
        %306 = math.expm1 %288 : f16
        linalg.yield %in : f16
      } -> tensor<16x16x16xf16>
      %248 = math.copysign %7, %0 : tensor<16x16x16xf32>
      %expanded_52 = tensor.expand_shape %9 [[0], [1, 2]] : tensor<16x16xi1> into tensor<16x16x1xi1>
      %249 = math.roundeven %23 : tensor<f16>
      %250 = index.maxs %76, %76
      %251 = vector.extract_strided_slice %62 {offsets = [0], sizes = [1], strides = [1]} : vector<1xf16> to vector<1xf16>
      %252 = arith.maxsi %c-17004_i16, %c-60_i16 : i16
      %253 = math.powf %expanded_23, %expanded_23 : tensor<16x16x16x1xf16>
      %254 = arith.minsi %c1653018709_i64, %c1653018709_i64 : i64
      %255 = vector.matrix_multiply %20, %20 {lhs_columns = 16 : i32, lhs_rows = 1 : i32, rhs_columns = 1 : i32} : (vector<16xf32>, vector<16xf32>) -> vector<1xf32>
      %256 = arith.muli %c1376839441_i32, %c1376839441_i32 : i32
      %cst_53 = arith.constant 1.000000e+00 : f16
      %257 = vector.transfer_read %17[%64, %c3, %c11], %cst_53 : tensor<16x16x16xf16>, vector<f16>
      %collapsed_54 = tensor.collapse_shape %9 [[0, 1]] : tensor<16x16xi1> into tensor<256xi1>
      %258 = arith.shrsi %c-60_i16, %c-60_i16 : i16
      %259 = vector.splat %c14 : vector<15xindex>
      %260 = math.ctpop %3 : tensor<16x16xi16>
      %261 = index.casts %c2074_i16 : i16 to index
      %262 = scf.execute_region -> index {
        %280 = math.rsqrt %5 : tensor<16x16xf16>
        %281 = index.sub %c0, %c1
        %expanded_57 = tensor.expand_shape %3 [[0], [1, 2]] : tensor<16x16xi16> into tensor<16x16x1xi16>
        %282 = vector.shuffle %46, %44 [2, 3, 5, 7, 8, 10, 14, 15, 16, 20, 22, 25, 27] : vector<16x16x16xi1>, vector<16x16x16xi1>
        %283 = index.casts %64 : index to i32
        %284 = math.round %14 : tensor<16x16x16xf16>
        %285 = affine.min affine_map<(d0, d1) -> (d1 + 7, (d0 floordiv 32) * 16, (-(d1 + 8)) ceildiv 32 + 4, d0 floordiv 32)>(%87, %c5)
        %286 = arith.maxf %cst_4, %113 : f16
        %287 = index.maxs %261, %c2
        %288 = math.exp2 %5 : tensor<16x16xf16>
        %289 = tensor.empty() : tensor<16x16x16xi32>
        %290 = math.fpowi %16, %289 : tensor<16x16x16xf16>, tensor<16x16x16xi32>
        %291 = arith.remf %cst, %cst_0 : f32
        %292 = affine.min affine_map<(d0) -> (64, -64, (d0 - 64) * 8 - 8, d0 - 64)>(%96)
        %293 = arith.maxf %113, %113 : f16
        memref.store %cst_53, %alloc_7[%c4] : memref<15xf16>
        %294 = vector.bitcast %62 : vector<1xf16> to vector<1xf16>
        scf.yield %c9 : index
      }
      %263 = vector.broadcast %cst_53 : f16 to vector<f16>
      %264 = vector.transfer_write %263, %106[%c6, %c0, %c13] : vector<f16>, tensor<16x16x16xf16>
      %265 = memref.load %alloc_8[%c13, %c0] : memref<16x1xi1>
      %266 = arith.minsi %false, %false : i1
      %267 = math.exp2 %14 : tensor<16x16x16xf16>
      %268 = vector.maskedload %alloc_11[%c6], %61, %255 : memref<15xf32>, vector<1xi1>, vector<1xf32> into vector<1xf32>
      %269 = index.sub %65, %85
      scf.execute_region {
        %alloc_57 = memref.alloc() : memref<16x16xi16>
        %280 = vector.matrix_multiply %62, %112 {lhs_columns = 1 : i32, lhs_rows = 1 : i32, rhs_columns = 1 : i32} : (vector<1xf16>, vector<1xf16>) -> vector<1xf16>
        %281 = math.tanh %cst_53 : f16
        %282 = math.round %0 : tensor<16x16x16xf32>
        %283 = math.tanh %113 : f16
        %284 = arith.subi %c2074_i16, %c7286_i16 : i16
        %285 = memref.load %alloc_5[%c5, %c6, %c5] : memref<16x16x16xf16>
        %c-26877_i16 = arith.constant -26877 : i16
        %286 = math.sqrt %expanded_23 : tensor<16x16x16x1xf16>
        %287 = vector.broadcast %cst : f32 to vector<16x16xf32>
        %288 = vector.fma %287, %287, %287 : vector<16x16xf32>
        %289 = vector.splat %42 : vector<15xindex>
        %290 = vector.maskedload %alloc_18[%c7, %c0], %61, %112 : memref<16x1xf16>, vector<1xi1>, vector<1xf16> into vector<1xf16>
        %291 = vector.insertelement %cst_4, %251[%c15 : index] : vector<1xf16>
        %292 = index.casts %c1026596729_i32 : i32 to index
        %293 = vector.broadcast %cst_1 : f16 to vector<16x16xf16>
        %dest_58, %accumulated_value_59 = vector.scan <add>, %98, %293 {inclusive = false, reduction_dim = 0 : i64} : vector<16x16x16xf16>, vector<16x16xf16>
        %294 = index.add %64, %c10
        scf.yield
      }
      %270 = arith.maxui %c1026596729_i32, %c1026596729_i32 : i32
      %271 = bufferization.clone %70 : memref<16x1xf16> to memref<16x1xf16>
      %alloc_55 = memref.alloc() : memref<16x16x16xi16>
      %272 = vector.broadcast %c2074_i16 : i16 to vector<16x1xi16>
      %273 = vector.broadcast %false : i1 to vector<16x1xi1>
      %274 = vector.broadcast %c1099692294_i32 : i32 to vector<16x1xi32>
      %275 = vector.gather %alloc_55[%80, %65, %84] [%274], %273, %272 : memref<16x16x16xi16>, vector<16x1xi32>, vector<16x1xi1>, vector<16x1xi16> into vector<16x1xi16>
      %276 = vector.extract_strided_slice %83 {offsets = [6], sizes = [5], strides = [1]} : vector<16xi32> to vector<5xi32>
      %277 = math.round %cst_2 : f32
      %278 = arith.maxui %false, %true : i1
      %279 = index.ceildivs %47, %c10
      %alloc_56 = memref.alloc() : memref<16x16xf32>
      memref.alloca_scope.return %alloc_56 : memref<16x16xf32>
    }
    %116 = arith.muli %c1653018709_i64, %c1653018709_i64 : i64
    %117 = arith.maxsi %c1653018709_i64, %c1653018709_i64 : i64
    %118 = affine.load %alloc_16[%c1, %c15] : memref<16x1xf32>
    %119 = math.exp %cst_1 : f16
    %120 = vector.bitcast %112 : vector<1xf16> to vector<1xf16>
    %121 = affine.apply affine_map<(d0) -> ((d0 * 8) floordiv 32)>(%25)
    %122 = arith.minsi %c7286_i16, %c-60_i16 : i16
    %123 = memref.atomic_rmw mulf %cst_1, %74[%c10, %c10, %c1] : (f16, memref<16x16x16xf16>) -> f16
    %124 = index.sizeof
    %125 = bufferization.to_memref %43 : memref<16x16x16xi1>
    %126 = bufferization.clone %alloc_17 : memref<16x16x16xf32> to memref<16x16x16xf32>
    %127 = vector.multi_reduction <mul>, %20, %118 [0] : vector<16xf32> to f32
    %128 = math.ctlz %from_elements_28 : tensor<15xi1>
    %129 = vector.maskedload %70[%c7, %c0], %61, %60 : memref<16x1xf16>, vector<1xi1>, vector<1xf16> into vector<1xf16>
    %alloc_31 = memref.alloc() : memref<15xi32>
    memref.tensor_store %11, %alloc_31 : memref<15xi32>
    %130 = arith.remsi %true, %true : i1
    %131 = arith.divf %cst_3, %cst_2 : f32
    %132 = math.round %22 : tensor<f16>
    %133 = arith.minsi %c2074_i16, %c-17004_i16 : i16
    %134 = math.fpowi %cst_0, %c1099692294_i32 : f32, i32
    %135 = tensor.empty() : tensor<16x16xi64>
    %136 = linalg.matmul ins(%13, %13 : tensor<16x16xi64>, tensor<16x16xi64>) outs(%135 : tensor<16x16xi64>) -> tensor<16x16xi64>
    %137 = affine.load %alloc_20[%c15] : memref<15xf16>
    %cast_32 = tensor.cast %4 : tensor<16x16xi32> to tensor<?x?xi32>
    %138 = arith.remsi %false, %false : i1
    %splat_33 = tensor.splat %cst_0 : tensor<16x16x16xf32>
    %139 = arith.remf %118, %cst : f32
    %expanded_34 = tensor.expand_shape %0 [[0], [1], [2, 3]] : tensor<16x16x16xf32> into tensor<16x16x16x1xf32>
    %140 = vector.maskedload %alloc_5[%c5, %c14, %c11], %61, %120 : memref<16x16x16xf16>, vector<1xi1>, vector<1xf16> into vector<1xf16>
    %141 = arith.mulf %cst_2, %118 : f32
    %alloc_35 = memref.alloc() : memref<16x16xf32>
    memref.copy %115, %alloc_35 : memref<16x16xf32> to memref<16x16xf32>
    %142 = vector.broadcast %118 : f32 to vector<16x1xf32>
    %143 = vector.fma %142, %142, %142 : vector<16x1xf32>
    %144 = math.log2 %12 : tensor<16x16xf32>
    %alloca = memref.alloca() : memref<16x1xi32>
    %alloca_36 = memref.alloca() : memref<15xi1>
    %145 = vector.load %alloc_14[%c10] : memref<15xi1>, vector<16x1xi1>
    %146 = math.round %7 : tensor<16x16x16xf32>
    %147 = vector.splat %c1653018709_i64 : vector<16x16xi64>
    %148 = vector.transpose %62, [0] : vector<1xf16> to vector<1xf16>
    %149 = math.round %23 : tensor<f16>
    %150 = arith.minsi %c1026596729_i32, %c1099692294_i32 : i32
    bufferization.dealloc_tensor %43 : tensor<16x16x16xi1>
    %151 = arith.cmpi uge, %c1026596729_i32, %c1099692294_i32 : i32
    %152 = math.tanh %expanded_34 : tensor<16x16x16x1xf32>
    %153 = math.exp %15 : tensor<16x1xf16>
    %alloc_37 = memref.alloc() : memref<16x1xi32>
    memref.copy %alloc_13, %alloc_37 : memref<16x1xi32> to memref<16x1xi32>
    %154 = math.absf %15 : tensor<16x1xf16>
    memref.assume_alignment %alloc_11, 16 : memref<15xf32>
    %155 = memref.atomic_rmw mulf %cst_1, %82[] : (f16, memref<f16>) -> f16
    %156 = tensor.empty() : tensor<16x1xi16>
    %157 = linalg.matmul ins(%splat, %1 : tensor<16x16xi16>, tensor<16x1xi16>) outs(%156 : tensor<16x1xi16>) -> tensor<16x1xi16>
    %158 = linalg.generic {indexing_maps = [affine_map<(d0, d1, d2) -> (d2, d0)>, affine_map<(d0, d1, d2) -> (d0, d1, d2)>], iterator_types = ["parallel", "parallel", "parallel"]} ins(%12 : tensor<16x16xf32>) outs(%7 : tensor<16x16x16xf32>) {
    ^bb0(%in: f32, %out: f32):
      %246 = arith.minf %cst_4, %113 : f16
      %extracted = tensor.extract %from_elements[%c13, %c15] : tensor<16x16xi64>
      memref.tensor_store %2, %74 : memref<16x16x16xf16>
      %247 = math.atan %113 : f16
      %248 = memref.load %126[%c4, %c9, %c7] : memref<16x16x16xf32>
      %249 = vector.broadcast %113 : f16 to vector<16x16xf16>
      %dest_52, %accumulated_value_53 = vector.scan <add>, %98, %249 {inclusive = true, reduction_dim = 0 : i64} : vector<16x16x16xf16>, vector<16x16xf16>
      %250 = math.copysign %cst_0, %cst_2 : f32
      %alloc_54 = memref.alloc() : memref<16x1xf16>
      %251 = arith.mulf %cst_4, %137 : f16
      %252 = index.maxu %114, %c0
      memref.alloca_scope  {
        %270 = index.floordivs %42, %42
        memref.tensor_store %15, %alloc_18 : memref<16x1xf16>
        %271 = arith.minsi %c2074_i16, %c-60_i16 : i16
        %272 = index.divs %76, %270
        %273 = affine.apply affine_map<(d0) -> (-d0)>(%c7)
        %274 = index.floordivs %25, %114
        %275 = index.add %c7, %54
        %276 = tensor.empty() : tensor<16x16x16x1xi32>
        %277 = math.fpowi %expanded_25, %276 : tensor<16x16x16x1xf16>, tensor<16x16x16x1xi32>
        %278 = arith.maxsi %c1653018709_i64, %c1653018709_i64 : i64
        %279 = math.absf %0 : tensor<16x16x16xf32>
        %280 = index.ceildivs %c12, %114
        %281 = index.maxs %114, %c4
        %282 = arith.maxf %cst_2, %cst_2 : f32
        %283 = math.exp %21 : tensor<15xf16>
        %284 = index.maxs %c14, %c5
        %rank_59 = tensor.rank %2 : tensor<16x16x16xf16>
        %285 = math.copysign %113, %137 : f16
        %286 = math.round %7 : tensor<16x16x16xf32>
        %287 = math.atan %12 : tensor<16x16xf32>
        %alloc_60 = memref.alloc() : memref<16x1xf32>
        %288 = index.divu %270, %99
        %extracted_61 = tensor.extract %9[%c5, %c3] : tensor<16x16xi1>
        %289 = index.add %c5, %81
        %collapsed_62 = tensor.collapse_shape %expanded_25 [[0, 1], [2], [3]] : tensor<16x16x16x1xf16> into tensor<256x16x1xf16>
        %290 = math.atan2 %113, %137 : f16
        %from_elements_63 = tensor.from_elements %c1653018709_i64, %c1653018709_i64, %extracted, %c1653018709_i64, %extracted, %c1653018709_i64, %extracted, %extracted, %extracted, %extracted, %extracted, %c1653018709_i64, %c1653018709_i64, %extracted, %extracted : tensor<15xi64>
        %291 = vector.insertelement %137, %112[%124 : index] : vector<1xf16>
        %expanded_64 = tensor.expand_shape %10 [[0, 1]] : tensor<15xi1> into tensor<15x1xi1>
        %292 = math.round %expanded_24 : tensor<16x16x16x1xf16>
        %293 = index.mul %105, %c11
        %294 = vector.extract_strided_slice %145 {offsets = [12], sizes = [2], strides = [1]} : vector<16x1xi1> to vector<2x1xi1>
        %alloc_65 = memref.alloc() : memref<16x1xf16>
      }
      %alloc_55 = memref.alloc() : memref<15xf32>
      %253 = arith.remsi %extracted, %extracted : i64
      %254 = tensor.empty() : tensor<16x16x16xf16>
      %mapped_56 = linalg.map ins(%106, %alloc_5 : tensor<16x16x16xf16>, memref<16x16x16xf16>) outs(%254 : tensor<16x16x16xf16>)
        (%in_59: f16, %in_60: f16) {
          %270 = bufferization.clone %alloc_8 : memref<16x1xi1> to memref<16x1xi1>
          bufferization.dealloc_tensor %from_elements_28 : tensor<15xi1>
          %271 = bufferization.clone %alloc_20 : memref<15xf16> to memref<15xf16>
          %272 = vector.shuffle %145, %145 [0, 1, 6, 8, 15, 16, 17, 23, 24, 26, 27, 29, 30] : vector<16x1xi1>, vector<16x1xi1>
          %expanded_61 = tensor.expand_shape %106 [[0], [1], [2, 3]] : tensor<16x16x16xf16> into tensor<16x16x16x1xf16>
          %273 = math.fpowi %127, %c1026596729_i32 : f32, i32
          memref.assume_alignment %82, 8 : memref<f16>
          %274 = arith.andi %c-17004_i16, %c-60_i16 : i16
          %275 = index.add %c0, %c8
          %276 = math.ctlz %c-60_i16 : i16
          %277 = arith.divsi %extracted, %c1653018709_i64 : i64
          %cast_62 = tensor.cast %12 : tensor<16x16xf32> to tensor<?x?xf32>
          %278 = index.add %99, %rank
          %splat_63 = tensor.splat %137 : tensor<16x16xf16>
          %279 = index.sizeof
          %cast_64 = tensor.cast %expanded : tensor<16x16x16x1xf16> to tensor<?x?x?x?xf16>
          %alloca_65 = memref.alloca() : memref<16x16xi16>
          %280 = index.divu %114, %64
          %281 = vector.maskedload %271[%c4], %61, %140 : memref<15xf16>, vector<1xi1>, vector<1xf16> into vector<1xf16>
          %alloc_66 = memref.alloc() : memref<15xf32>
          %282 = vector.bitcast %44 : vector<16x16x16xi1> to vector<16x16x16xi1>
          %283 = arith.ori %c-17004_i16, %c-60_i16 : i16
          %284 = math.ipowi %extracted, %c1653018709_i64 : i64
          %285 = math.ctpop %splat : tensor<16x16xi16>
          %286 = math.round %23 : tensor<f16>
          %287 = math.tanh %137 : f16
          %288 = math.exp2 %12 : tensor<16x16xf32>
          %289 = math.ctlz %from_elements : tensor<16x16xi64>
          %290 = arith.divui %extracted, %extracted : i64
          %291 = index.castu %105 : index to i32
          %expanded_67 = tensor.expand_shape %12 [[0], [1, 2]] : tensor<16x16xf32> into tensor<16x16x1xf32>
          vector.print %97 : vector<16x16xi1>
          %cst_68 = arith.constant 1.000000e+00 : f16
          linalg.yield %cst_68 : f16
        }
      %255 = tensor.empty() : tensor<16x16xi32>
      %256 = linalg.matmul ins(%4, %4 : tensor<16x16xi32>, tensor<16x16xi32>) outs(%255 : tensor<16x16xi32>) -> tensor<16x16xi32>
      affine.for %arg2 = 0 to 114 {
      }
      %257 = index.maxu %81, %c3
      %258 = math.round %expanded_25 : tensor<16x16x16x1xf16>
      %259 = math.atan %254 : tensor<16x16x16xf16>
      %260 = scf.execute_region -> i16 {
        %270 = affine.apply affine_map<(d0) -> (d0 ceildiv 64)>(%47)
        %271 = math.log10 %12 : tensor<16x16xf32>
        %dest_59, %accumulated_value_60 = vector.scan <and>, %145, %61 {inclusive = true, reduction_dim = 0 : i64} : vector<16x1xi1>, vector<1xi1>
        %272 = math.atan %16 : tensor<16x16x16xf16>
        %273 = math.exp %expanded_25 : tensor<16x16x16x1xf16>
        %274 = vector.broadcast %false : i1 to vector<i1>
        %275 = vector.transfer_write %274, %10[%42] : vector<i1>, tensor<15xi1>
        %276 = index.castu %c1 : index to i32
        %277 = tensor.empty(%c1, %c13) : tensor<?x16x?xi1>
        %278 = arith.remsi %c1099692294_i32, %c1099692294_i32 : i32
        %279 = memref.atomic_rmw assign %cst_1, %alloc_9[%c4, %c7, %c1] : (f16, memref<16x16x16xf16>) -> f16
        %280 = math.atan2 %137, %113 : f16
        %281 = arith.addf %113, %137 : f16
        %282 = arith.maxsi %c1376839441_i32, %c1026596729_i32 : i32
        %283 = vector.bitcast %45 : vector<16x16x16xi32> to vector<16x16x16xi32>
        %c0_i32 = arith.constant 0 : i32
        %284 = vector.transfer_read %11[%c1], %c0_i32 : tensor<15xi32>, vector<i32>
        %285 = index.floordivs %rank, %114
        scf.yield %c2074_i16 : i16
      }
      %261 = arith.remf %137, %137 : f16
      %262 = scf.execute_region -> index {
        vector.print %30 : vector<15xf32>
        %270 = arith.andi %260, %c-60_i16 : i16
        %271 = affine.min affine_map<(d0, d1) -> (d0 * 4 - 16, d0 * 4 - 16, (d1 - 112) ceildiv 128, -(d0 ceildiv 8 - (d1 - 128)))>(%77, %252)
        %272 = arith.maxsi %c-60_i16, %c7286_i16 : i16
        %273 = math.sqrt %cst_4 : f16
        %274 = math.log2 %14 : tensor<16x16x16xf16>
        %275 = math.powf %cst, %in : f32
        %276 = math.rsqrt %15 : tensor<16x1xf16>
        %277 = vector.flat_transpose %129 {columns = 1 : i32, rows = 1 : i32} : vector<1xf16> -> vector<1xf16>
        %278 = arith.shrui %false, %false : i1
        %279 = math.exp2 %7 : tensor<16x16x16xf32>
        %280 = affine.load %alloc_13[%c8, %c15] : memref<16x1xi32>
        %281 = arith.maxf %in, %cst_2 : f32
        %282 = bufferization.clone %alloc_7 : memref<15xf16> to memref<15xf16>
        %283 = index.casts %c1653018709_i64 : i64 to index
        %collapsed_59 = tensor.collapse_shape %12 [[0, 1]] : tensor<16x16xf32> into tensor<256xf32>
        scf.yield %52 : index
      }
      %263 = memref.load %alloc_8[%c11, %c0] : memref<16x1xi1>
      %264 = math.tanh %12 : tensor<16x16xf32>
      %265 = index.sizeof
      %266 = arith.remf %113, %137 : f16
      %267 = memref.load %alloc_11[%c9] : memref<15xf32>
      %268 = affine.load %alloc[%c5, %c12] : memref<16x1xf32>
      %269 = vector.create_mask %c10 : vector<15xi1>
      scf.execute_region {
        %270 = vector.insert %cst_1, %140 [0] : f16 into vector<1xf16>
        %271 = vector.shuffle %98, %98 [0, 1, 3, 4, 7, 8, 10, 12, 13, 15, 17, 18, 19, 20, 23, 24, 25, 27, 28] : vector<16x16x16xf16>, vector<16x16x16xf16>
        %272 = arith.divsi %c1376839441_i32, %c1376839441_i32 : i32
        %273 = vector.load %alloc_15[%c11, %c3, %c6] : memref<16x16x16xi32>, vector<16x16xi32>
        %274 = arith.divf %cst, %127 : f32
        %275 = math.round %cst_3 : f32
        %276 = vector.insert %true, %61 [0] : i1 into vector<1xi1>
        %277 = vector.reduction <add>, %31 : vector<15xf32> into f32
        %cst_59 = arith.constant 1.000000e+00 : f16
        %cst_60 = arith.constant 0.000000e+00 : f16
        %278 = vector.transfer_read %expanded_24[%64, %c2, %25, %76], %cst_60 {permutation_map = affine_map<(d0, d1, d2, d3) -> (0, d1, 0)>} : tensor<16x16x16x1xf16>, vector<15x16x15xf16>
        %279 = math.cttz %c7286_i16 : i16
        %280 = math.exp %2 : tensor<16x16x16xf16>
        %281 = arith.minsi %c1026596729_i32, %c1099692294_i32 : i32
        %282 = math.ipowi %c1653018709_i64, %c1653018709_i64 : i64
        %283 = math.cos %0 : tensor<16x16x16xf32>
        %284 = math.cttz %13 : tensor<16x16xi64>
        %285 = arith.maxsi %c2074_i16, %c7286_i16 : i16
        scf.yield
      }
      memref.tensor_store %23, %82 : memref<f16>
      %dest_57, %accumulated_value_58 = vector.scan <maxsi>, %46, %69 {inclusive = false, reduction_dim = 0 : i64} : vector<16x16x16xi1>, vector<16x16xi1>
      linalg.yield %118 : f32
    } -> tensor<16x16x16xf32>
    memref.assume_alignment %alloc_13, 1 : memref<16x1xi32>
    %159 = vector.load %24[%c6] : memref<15xf32>, vector<15xf32>
    %160 = arith.maxsi %true, %true : i1
    %161 = math.ctpop %11 : tensor<15xi32>
    %162 = index.sub %114, %84
    %163 = math.atan2 %113, %cst_4 : f16
    %164 = arith.subi %c-17004_i16, %c-60_i16 : i16
    %collapsed = tensor.collapse_shape %16 [[0, 1], [2]] : tensor<16x16x16xf16> into tensor<256x16xf16>
    %165 = tensor.empty() : tensor<256x16xf16>
    %166 = linalg.matmul ins(%collapsed, %5 : tensor<256x16xf16>, tensor<16x16xf16>) outs(%165 : tensor<256x16xf16>) -> tensor<256x16xf16>
    %167 = bufferization.to_memref %13 : memref<16x16xi64>
    %168 = tensor.empty(%c0) : tensor<16x?x16xf16>
    %169 = math.ctpop %13 : tensor<16x16xi64>
    %170 = index.castu %110 : index to i32
    %inserted = tensor.insert %false into %from_elements_28[%c13] : tensor<15xi1>
    %171 = math.absf %cst_3 : f32
    %172 = arith.mulf %127, %cst_0 : f32
    %173 = arith.maxsi %c-17004_i16, %c2074_i16 : i16
    %174 = index.maxs %99, %87
    %expanded_38 = tensor.expand_shape %11 [[0, 1]] : tensor<15xi32> into tensor<15x1xi32>
    %175 = index.casts %c2074_i16 : i16 to index
    %176 = scf.if %true -> (i16) {
      %246 = arith.shrsi %c-60_i16, %c7286_i16 : i16
      %247 = index.mul %c14, %c0
      %collapsed_52 = tensor.collapse_shape %expanded_24 [[0, 1], [2], [3]] : tensor<16x16x16x1xf16> into tensor<256x16x1xf16>
      %248 = arith.remf %cst_0, %cst_0 : f32
      %249 = math.copysign %113, %137 : f16
      %250 = vector.broadcast %137 : f16 to vector<16xf16>
      %251 = vector.broadcast %true : i1 to vector<16xi1>
      %252 = vector.maskedload %70[%c1, %c0], %251, %250 : memref<16x1xf16>, vector<16xi1>, vector<16xf16> into vector<16xf16>
      memref.alloca_scope  {
        %254 = tensor.empty() : tensor<15xf32>
        %255 = index.floordivs %c0, %42
        %256 = index.maxu %c15, %99
        %257 = arith.maxsi %c-60_i16, %c7286_i16 : i16
        %258 = vector.reduction <add>, %252 : vector<16xf16> into f16
        %259 = index.sizeof
        %260 = index.divs %76, %c3
        %261 = vector.splat %c4 : vector<16x1xindex>
        %262 = math.atan2 %12, %12 : tensor<16x16xf32>
        %263 = bufferization.clone %24 : memref<15xf32> to memref<15xf32>
        %cast_53 = tensor.cast %collapsed : tensor<256x16xf16> to tensor<?x?xf16>
        %264 = bufferization.clone %alloc_9 : memref<16x16x16xf16> to memref<16x16x16xf16>
        %expanded_54 = tensor.expand_shape %from_elements [[0], [1, 2]] : tensor<16x16xi64> into tensor<16x16x1xi64>
        %265 = arith.remsi %c1026596729_i32, %c1026596729_i32 : i32
        %266 = math.round %cst_3 : f32
        %267 = math.ctlz %11 : tensor<15xi32>
        %268 = index.castu %c0 : index to i32
        %269 = math.atan2 %106, %2 : tensor<16x16x16xf16>
        %270 = vector.create_mask %247 : vector<15xi1>
        %271 = tensor.empty() : tensor<16x16x16xi32>
        %272 = math.fpowi %splat_33, %271 : tensor<16x16x16xf32>, tensor<16x16x16xi32>
        %273 = index.sizeof
        %274 = arith.maxui %c2074_i16, %c-17004_i16 : i16
        %275 = math.ctlz %135 : tensor<16x16xi64>
        %276 = affine.load %alloc_17[%c0, %c15, %c6] : memref<16x16x16xf32>
        %277 = arith.remui %c1026596729_i32, %c1026596729_i32 : i32
        %278 = math.powf %collapsed, %collapsed : tensor<256x16xf16>
        %279 = memref.load %24[%c11] : memref<15xf32>
        %280 = math.roundeven %276 : f32
        %281 = index.add %42, %c11
        %282 = math.fma %15, %15, %15 : tensor<16x1xf16>
        %283 = math.fpowi %137, %c1026596729_i32 : f16, i32
        %284 = vector.bitcast %145 : vector<16x1xi1> to vector<16x1xi1>
      }
      %253 = arith.mulf %113, %113 : f16
      scf.yield %c7286_i16 : i16
    } else {
      %from_elements_52 = tensor.from_elements %c1653018709_i64, %c1653018709_i64, %c1653018709_i64, %c1653018709_i64, %c1653018709_i64, %c1653018709_i64, %c1653018709_i64, %c1653018709_i64, %c1653018709_i64, %c1653018709_i64, %c1653018709_i64, %c1653018709_i64, %c1653018709_i64, %c1653018709_i64, %c1653018709_i64 : tensor<15xi64>
      %246 = vector.transpose %62, [0] : vector<1xf16> to vector<1xf16>
      %247 = arith.ori %c1099692294_i32, %c1099692294_i32 : i32
      %expanded_53 = tensor.expand_shape %7 [[0], [1], [2, 3]] : tensor<16x16x16xf32> into tensor<16x16x16x1xf32>
      %248 = math.cos %12 : tensor<16x16xf32>
      %249 = math.cos %0 : tensor<16x16x16xf32>
      %250 = vector.broadcast %137 : f16 to vector<16x16xf16>
      %dest_54, %accumulated_value_55 = vector.scan <mul>, %98, %250 {inclusive = false, reduction_dim = 2 : i64} : vector<16x16x16xf16>, vector<16x16xf16>
      %251 = vector.load %alloc_14[%c9] : memref<15xi1>, vector<15xi1>
      scf.yield %c2074_i16 : i16
    }
    %177 = vector.extract_strided_slice %159 {offsets = [2], sizes = [5], strides = [1]} : vector<15xf32> to vector<5xf32>
    %178 = vector.flat_transpose %62 {columns = 1 : i32, rows = 1 : i32} : vector<1xf16> -> vector<1xf16>
    %179 = index.castu %c-17004_i16 : i16 to index
    %rank_39 = tensor.rank %3 : tensor<16x16xi16>
    %180 = index.casts %179 : index to i32
    %181 = vector.broadcast %c2074_i16 : i16 to vector<i16>
    %182 = vector.transfer_write %181, %splat[%64, %rank] : vector<i16>, tensor<16x16xi16>
    %183 = math.expm1 %12 : tensor<16x16xf32>
    %184 = arith.shli %false, %true : i1
    %185 = vector.extract_strided_slice %142 {offsets = [9], sizes = [6], strides = [1]} : vector<16x1xf32> to vector<6x1xf32>
    %186 = arith.shrsi %c1099692294_i32, %c1026596729_i32 : i32
    %alloc_40 = memref.alloc() : memref<16x1xf32>
    %from_elements_41 = tensor.from_elements %cst_2, %cst_3, %cst, %127, %118, %cst_2, %127, %cst_0, %127, %cst_2, %cst_3, %cst_0, %cst_0, %cst_2, %cst_0, %cst, %127, %118, %cst, %cst_2, %118, %cst, %cst, %118, %cst_0, %cst_2, %cst_0, %118, %cst_3, %127, %127, %cst_3, %cst_0, %cst_3, %118, %cst_3, %cst, %118, %cst_2, %cst_3, %cst, %127, %cst_3, %127, %cst_0, %127, %cst_2, %cst_0, %127, %127, %cst_2, %cst_0, %cst_3, %cst, %127, %cst, %cst, %118, %cst_2, %118, %cst_0, %118, %cst_0, %cst, %cst_3, %cst_0, %118, %cst, %cst_2, %cst_2, %cst, %cst_3, %cst_0, %118, %cst, %cst_0, %cst, %cst, %cst_3, %cst_0, %cst_3, %118, %cst_3, %127, %cst_2, %cst, %cst_2, %cst_0, %127, %127, %cst_2, %cst, %cst_2, %118, %118, %cst_2, %cst_2, %cst_0, %cst, %118, %cst_0, %cst_3, %118, %127, %118, %cst, %cst_0, %cst_3, %118, %cst_3, %cst, %127, %cst_0, %127, %118, %cst_0, %118, %cst_2, %118, %cst, %127, %cst_3, %118, %cst, %cst_0, %cst_2, %118, %cst, %cst_0, %118, %cst_0, %cst_2, %cst_2, %cst_3, %cst, %cst_3, %118, %cst_2, %cst_2, %127, %cst_0, %cst, %cst_2, %118, %118, %cst, %cst_3, %118, %cst_2, %cst, %127, %cst_2, %cst_0, %127, %118, %cst, %cst, %118, %127, %cst_3, %118, %118, %cst_0, %cst_2, %cst_2, %127, %cst, %cst_0, %cst, %cst_0, %cst_0, %cst_2, %118, %118, %cst_3, %cst_0, %cst_0, %cst_0, %cst_2, %118, %cst, %cst_2, %cst_3, %cst_0, %118, %cst_0, %118, %cst, %cst, %cst, %cst_2, %cst_2, %cst_2, %127, %cst_0, %cst_0, %cst_0, %127, %cst, %cst_0, %cst_0, %cst_0, %cst_2, %cst, %118, %cst_3, %118, %cst_0, %cst, %cst_0, %127, %127, %127, %cst_3, %cst_3, %cst_2, %cst_0, %cst_2, %cst_3, %118, %127, %118, %118, %cst, %cst_3, %cst_0, %cst_0, %cst_2, %cst_0, %cst_3, %118, %cst_0, %cst_0, %127, %cst_2, %cst_2, %cst_2, %cst_3, %cst_3, %cst_2, %cst, %cst, %cst, %cst_0, %cst, %cst_0, %cst_2, %cst_0, %cst_0, %cst_3, %cst_3, %127, %127, %cst_3, %cst_0, %118, %118, %118, %cst_2, %cst_0, %127, %cst, %cst_2, %cst_2, %cst_0, %118, %118, %cst_3, %cst_3, %cst_0, %cst_0, %cst_3, %cst_0, %cst, %cst, %cst, %cst, %cst_0, %cst, %cst_0, %118, %127, %cst_3, %cst_0, %cst, %cst_0, %cst_0, %127, %118, %127, %cst_2, %127, %cst_2, %cst_0, %cst_2, %cst, %cst_3, %cst_2, %cst_2, %cst_0, %cst_3, %cst_2, %cst, %cst_2, %cst_2, %cst_0, %127, %cst_3, %127, %cst, %118, %cst_2, %cst_3, %127, %cst, %cst_2, %cst, %118, %cst_0, %cst_2, %cst_2, %127, %cst, %127, %cst_2, %cst_3, %cst_0, %cst_3, %cst_0, %118, %127, %127, %118, %127, %cst_3, %cst_2, %cst, %cst, %127, %cst_2, %127, %127, %cst_2, %127, %cst_2, %127, %cst, %cst_0, %cst_3, %cst, %cst_3, %cst, %cst_3, %cst_0, %cst_2, %cst_3, %cst, %127, %cst_2, %cst, %cst_0, %cst_2, %cst_3, %cst, %cst_3, %cst, %cst_2, %cst_0, %cst_3, %cst_3, %cst, %cst_2, %cst, %cst_3, %cst_0, %118, %118, %cst_0, %cst_0, %127, %cst_0, %cst, %118, %cst, %cst_3, %127, %cst_3, %cst_2, %118, %127, %118, %127, %cst_2, %cst_3, %cst, %cst_3, %127, %cst, %cst_2, %cst, %127, %127, %cst_3, %127, %cst, %118, %118, %cst, %cst_2, %cst, %cst_0, %118, %cst_3, %cst_0, %cst_3, %127, %cst_2, %127, %cst_2, %cst_0, %cst_0, %cst_3, %127, %127, %127, %118, %cst_3, %cst, %cst, %cst_3, %cst, %118, %118, %cst, %cst_3, %127, %cst_2, %cst_3, %cst_0, %cst_3, %cst, %cst_0, %cst_0, %cst_0, %cst_2, %cst_3, %cst_2, %cst_0, %cst, %118, %127, %cst, %cst_0, %cst_3, %cst, %cst, %127, %cst_2, %cst_0, %cst_3, %cst_3, %cst_2, %cst_3, %cst_3, %cst_0, %cst_3, %cst_0, %118, %cst, %cst_2, %cst_0, %118, %cst_3, %cst_2, %cst, %118, %118, %cst, %cst, %cst_0, %127, %cst_2, %127, %cst_0, %127, %118, %cst_2, %cst, %127, %cst, %cst_3, %cst_0, %127, %cst_3, %127, %cst_0, %118, %cst, %cst_0, %cst_2, %cst_0, %cst_2, %cst_3, %cst_0, %cst_2, %cst, %cst_3, %127, %118, %127, %cst, %cst_3, %118, %cst_3, %cst_0, %cst, %127, %118, %cst_0, %cst_0, %cst_2, %cst_0, %118, %118, %127, %118, %118, %cst_2, %cst_3, %cst_0, %cst, %cst_3, %cst_2, %cst_3, %cst, %cst, %cst_3, %118, %cst_0, %cst, %cst_2, %118, %127, %cst, %cst_3, %118, %127, %cst, %127, %cst, %cst, %cst_2, %cst_2, %cst_3, %cst_2, %cst, %127, %cst, %cst_0, %127, %cst, %cst_3, %cst_0, %cst_2, %cst_3, %cst_3, %cst_2, %118, %127, %cst, %118, %118, %127, %cst, %cst_3, %cst_0, %cst_3, %118, %118, %cst, %118, %cst_2, %cst_0, %118, %cst, %118, %cst_0, %118, %118, %cst, %cst_0, %cst_0, %cst, %118, %118, %cst_3, %cst_2, %cst_3, %cst_0, %127, %cst_2, %cst_2, %cst_3, %127, %cst, %118, %cst_3, %118, %cst_3, %cst_3, %cst_3, %cst_0, %cst_3, %cst_2, %cst, %cst_2, %cst_3, %cst_0, %118, %127, %cst_2, %cst_3, %cst_3, %118, %cst_2, %cst_0, %cst_3, %118, %118, %cst, %cst_0, %cst_0, %cst, %127, %cst_3, %cst, %cst_3, %cst, %cst_0, %127, %cst_3, %cst, %cst_3, %cst, %cst, %cst_2, %cst_0, %cst_3, %127, %118, %127, %127, %118, %cst_0, %cst_3, %127, %118, %118, %cst, %127, %cst_3, %cst_3, %cst_2, %127, %118, %cst, %cst_2, %cst_2, %127, %cst, %cst_0, %cst_0, %cst, %cst_2, %cst_2, %cst_0, %127, %cst_0, %118, %cst_3, %118, %127, %cst_2, %cst_0, %cst_0, %118, %127, %cst, %cst, %cst, %118, %118, %cst_2, %cst, %cst, %cst_0, %cst, %127, %cst_2, %127, %cst_2, %cst_0, %118, %127, %cst, %cst_2, %cst_2, %127, %cst_2, %cst_0, %118, %127, %cst_0, %cst_2, %cst_0, %118, %cst_3, %cst_3, %127, %127, %cst_3, %cst_2, %cst_2, %cst_2, %cst, %cst_3, %cst_0, %cst, %cst_3, %127, %127, %118, %127, %cst, %cst_0, %118, %118, %cst, %cst_0, %127, %cst_0, %cst_3, %cst, %127, %cst_0, %cst_0, %118, %cst_0, %cst_3, %cst_0, %118, %cst_0, %127, %cst_2, %cst_0, %cst_0, %cst_0, %118, %cst_3, %118, %cst, %118, %cst, %cst_3, %118, %118, %118, %118, %118, %127, %118, %cst_3, %cst, %cst_0, %cst_3, %cst_3, %cst, %cst_0, %cst_2, %cst, %118, %cst_2, %cst_0, %cst, %cst_2, %cst_2, %118, %118, %cst_3, %cst_2, %127, %cst_0, %cst, %cst_2, %cst, %cst_2, %cst_3, %127, %cst_2, %cst_2, %cst, %127, %118, %cst_0, %118, %cst_3, %cst_2, %cst_3, %cst_2, %cst, %cst, %127, %cst_2, %cst_3, %118, %118, %118, %cst_0, %cst, %cst, %118, %cst_2, %118, %cst, %cst_0, %cst_0, %118, %127, %127, %cst, %118, %cst, %118, %127, %127, %cst, %cst, %118, %118, %127, %cst_0, %cst_2, %127, %118, %118, %cst, %118, %cst_0, %cst_3, %127, %118, %cst, %118, %cst_0, %cst_2, %cst_0, %cst_3, %cst_3, %127, %cst_0, %cst_0, %118, %cst_3, %127, %cst, %127, %cst, %cst_3, %cst_2, %cst, %cst, %118, %127, %127, %127, %cst_2, %cst_2, %cst_3, %cst_2, %118, %cst, %127, %118, %cst_0, %cst, %cst_3, %cst_3, %118, %cst_3, %cst, %cst_2, %127, %118, %cst_0, %127, %cst_3, %cst_2, %118, %cst_2, %118, %cst, %cst, %cst_0, %127, %118, %cst_2, %cst_0, %cst_2, %cst_2, %cst_3, %127, %cst_3, %cst, %cst_0, %cst_2, %cst, %cst, %cst, %118, %cst_0, %127, %cst_3, %cst_3, %cst_3, %cst_0, %cst_0, %cst_0, %cst_3, %cst_0, %cst, %127, %cst_3, %cst_2, %127, %cst_3, %cst, %118, %127, %127, %cst_0, %127, %cst_0, %cst_2, %127, %cst, %118, %cst_2, %127, %cst_3, %118, %cst_2, %cst_3, %cst, %127, %118, %cst, %127, %cst_0, %cst, %cst_0, %cst_3, %118, %127, %cst, %cst_0, %cst_3, %cst_2, %cst_2, %cst, %118, %118, %cst_3, %cst_3, %cst_2, %cst, %cst, %127, %cst_0, %cst_0, %127, %cst_0, %cst_3, %cst_0, %127, %cst_0, %cst_3, %cst_0, %cst_2, %cst_2, %cst, %cst_2, %cst_3, %cst, %118, %127, %127, %cst_2, %127, %127, %cst, %cst_2, %118, %cst_3, %cst, %127, %127, %cst_0, %127, %cst_3, %127, %cst_3, %cst_2, %118, %cst_0, %cst, %cst_0, %cst, %cst_0, %cst_2, %cst, %127, %cst_0, %118, %118, %cst_2, %cst, %cst_0, %cst_0, %cst_2, %cst, %cst_2, %118, %127, %cst, %127, %118, %118, %127, %cst_3, %127, %cst_0, %cst_3, %cst, %cst_3, %118, %cst_2, %cst_0, %127, %cst_0, %cst_3, %cst_3, %cst_0, %cst_3, %127, %118, %cst, %cst, %118, %127, %118, %127, %cst, %cst_2, %cst, %cst_2, %cst_3, %cst_2, %cst_3, %cst_3, %118, %127, %118, %127, %cst_2, %118, %118, %cst_3, %cst_0, %127, %cst, %cst_2, %cst, %cst_3, %cst, %118, %127, %cst_0, %cst_3, %cst_2, %cst_3, %cst_0, %127, %cst_3, %cst_2, %cst_0, %cst_3, %127, %118, %cst_0, %cst_0, %cst_0, %cst_0, %cst_0, %cst_2, %cst, %118, %cst_3, %118, %118, %cst_3, %127, %cst_0, %118, %cst_3, %cst_0, %127, %118, %cst_2, %cst_0, %cst, %cst_3, %cst_0, %cst_2, %127, %cst_3, %cst_0, %118, %127, %cst_3, %cst_3, %127, %cst, %cst_3, %118, %cst_2, %cst_3, %127, %118, %cst_0, %cst_0, %cst_0, %127, %cst_0, %cst_2, %cst_3, %118, %cst, %cst, %cst, %cst_3, %cst_0, %cst_0, %cst_0, %118, %cst_2, %127, %127, %cst_3, %cst_0, %127, %127, %127, %cst_0, %118, %127, %127, %cst_3, %118, %118, %127, %118, %118, %cst_3, %118, %cst_0, %127, %cst_3, %cst_3, %127, %cst, %cst, %cst, %cst_2, %cst, %118, %cst_2, %cst_0, %cst_2, %118, %cst, %118, %127, %cst_2, %127, %127, %cst_2, %cst_3, %cst_2, %cst_2, %cst, %127, %cst, %cst_0, %cst, %cst_0, %118, %cst_3, %118, %cst_0, %127, %cst_0, %cst_0, %cst_2, %cst_3, %cst, %127, %cst, %cst, %cst_2, %cst_2, %118, %cst, %127, %cst_3, %cst_0, %118, %cst, %cst, %cst_3, %cst, %cst, %cst, %cst_0, %118, %cst_0, %cst, %cst_3, %cst, %cst_2, %cst_0, %cst, %118, %127, %cst_2, %cst_3, %127, %cst, %cst_0, %118, %cst_0, %118, %118, %cst_2, %cst_0, %cst_0, %cst_3, %cst_2, %cst_0, %118, %cst_0, %cst, %118, %cst_3, %cst, %cst_0, %cst, %cst, %118, %cst, %127, %cst, %cst_3, %cst, %cst_0, %118, %cst_2, %118, %cst, %cst_2, %cst_2, %cst_0, %cst_0, %118, %cst_0, %118, %127, %127, %cst_3, %127, %cst, %cst_3, %cst_3, %cst, %127, %cst, %cst_3, %cst_0, %cst_2, %cst, %127, %127, %127, %cst_3, %118, %118, %cst_0, %cst_2, %cst_3, %cst_2, %cst_3, %118, %cst_2, %cst_3, %cst_3, %cst, %cst_2, %cst_0, %cst, %127, %127, %cst_2, %127, %127, %118, %cst, %cst_2, %118, %118, %cst, %cst_3, %cst_0, %cst_2, %cst_2, %cst, %cst, %cst, %118, %118, %127, %cst_3, %127, %cst_2, %cst_0, %cst_0, %127, %cst_3, %cst_0, %cst, %118, %118, %127, %127, %cst_2, %118, %cst_2, %cst_3, %127, %127, %118, %cst_2, %cst, %127, %cst_3, %118, %cst_3, %cst_3, %cst, %cst_2, %118, %cst_2, %118, %cst_2, %cst_0, %cst_3, %cst_0, %cst_2, %127, %cst, %cst, %cst_3, %118, %cst_3, %cst_3, %127, %cst_2, %118, %118, %cst_3, %127, %cst_2, %cst_3, %127, %127, %cst_3, %127, %cst, %cst_0, %cst_3, %127, %cst, %cst_0, %cst, %cst_2, %cst_2, %127, %cst_0, %118, %cst_2, %cst_3, %118, %cst, %cst_3, %127, %118, %127, %127, %127, %127, %cst_0, %cst_3, %cst_3, %cst_2, %cst_3, %118, %cst, %127, %cst, %118, %cst, %cst_2, %cst_3, %cst, %127, %127, %cst, %cst_0, %127, %118, %118, %118, %118, %cst_3, %cst_2, %118, %cst, %cst, %118, %cst, %118, %cst_3, %cst_2, %cst_2, %118, %cst, %cst_0, %cst_0, %118, %118, %118, %127, %118, %118, %127, %cst_3, %cst, %118, %cst_0, %127, %118, %cst_2, %cst, %cst_3, %118, %cst_3, %127, %cst_3, %cst_0, %cst_2, %118, %cst_2, %cst, %118, %118, %127, %127, %cst, %cst_3, %118, %118, %118, %127, %cst, %cst_0, %cst_0, %118, %127, %cst_0, %cst_2, %127, %cst_0, %cst_3, %118, %118, %cst_2, %cst, %cst_3, %cst, %cst, %cst_2, %cst_0, %cst, %cst_0, %118, %cst, %cst_0, %cst, %cst_3, %cst_3, %127, %cst_2, %cst, %118, %118, %cst_2, %118, %127, %127, %118, %cst_0, %cst_3, %cst, %118, %127, %cst_2, %127, %cst_0, %118, %cst_0, %cst_0, %127, %cst, %cst, %cst, %118, %cst_2, %cst_2, %cst_2, %cst_3, %cst, %127, %cst_3, %cst, %cst_0, %118, %cst_3, %cst, %cst_0, %118, %118, %cst_0, %118, %cst_0, %cst_2, %cst_0, %cst_0, %cst_0, %cst_2, %cst_0, %cst, %127, %127, %cst_0, %127, %cst_2, %cst_3, %118, %cst, %cst, %118, %118, %cst_3, %cst_2, %cst_2, %cst, %cst_0, %127, %127, %cst_2, %cst_2, %118, %cst_0, %cst_3, %118, %cst, %127, %127, %cst, %118, %127, %118, %cst, %cst, %127, %cst_0, %127, %cst_0, %cst, %cst_0, %cst, %118, %cst_2, %127, %cst_3, %118, %cst_2, %cst_3, %cst_3, %cst, %127, %cst, %cst_0, %cst_3, %cst_2, %127, %118, %cst_0, %cst_2, %cst_0, %118, %cst_3, %127, %cst_3, %118, %cst_3, %cst_3, %118, %cst_0, %cst_3, %118, %cst, %127, %cst_2, %cst_3, %127, %cst_3, %cst, %cst_3, %127, %118, %127, %118, %127, %cst, %cst_0, %cst_2, %118, %cst, %127, %cst_3, %118, %127, %cst_3, %127, %127, %cst_3, %127, %cst_3, %cst_3, %cst_3, %118, %118, %cst_3, %118, %127, %cst_3, %cst_0, %cst_2, %cst_2, %cst_2, %118, %cst_2, %cst_0, %118, %cst_3, %cst, %118, %cst_0, %cst_0, %cst, %cst, %cst_3, %127, %118, %127, %cst_2, %118, %cst_0, %cst_2, %127, %cst_0, %cst_3, %cst, %127, %cst_3, %cst_3, %cst_2, %cst_0, %cst_3, %118, %cst_2, %cst, %cst_3, %cst_3, %127, %cst_2, %cst_3, %118, %cst, %cst_2, %cst_2, %cst_3, %cst_3, %cst_0, %cst_2, %cst_3, %cst_3, %118, %cst_0, %cst_3, %127, %cst_3, %cst_2, %cst, %cst, %cst_2, %cst_0, %118, %cst_2, %127, %118, %cst_2, %cst, %cst_2, %127, %cst, %cst_0, %cst_0, %cst, %cst, %118, %cst, %cst_2, %118, %cst_3, %127, %cst_3, %cst_3, %cst, %118, %cst_2, %118, %cst, %127, %127, %cst_3, %cst, %cst, %cst_2, %cst_0, %cst_3, %127, %cst_3, %127, %127, %127, %cst_3, %127, %cst_3, %cst_2, %cst_2, %cst_3, %118, %127, %cst, %118, %cst_0, %cst_0, %cst_0, %cst_2, %127, %cst_0, %cst_0, %cst, %118, %cst_3, %cst_3, %cst_3, %cst_3, %118, %cst_2, %127, %127, %cst, %cst_2, %118, %cst, %cst_2, %118, %cst, %118, %127, %cst_3, %118, %cst, %cst_0, %118, %cst, %cst_0, %cst_0, %cst_3, %cst_0, %cst_3, %cst_3, %cst_0, %cst, %cst_0, %cst, %cst_0, %118, %cst_3, %127, %cst_3, %127, %cst_0, %cst_2, %118, %cst, %cst_0, %cst_3, %cst_2, %cst_2, %cst, %118, %cst_2, %cst_2, %cst_3, %cst_0, %cst_3, %cst_2, %cst, %cst_0, %cst_0, %cst_2, %118, %127, %118, %cst_2, %127, %127, %cst, %cst, %118, %cst_0, %127, %cst, %cst_2, %cst_3, %cst, %118, %cst_2, %cst_0, %127, %118, %cst_2, %cst_3, %118, %127, %cst, %cst_3, %118, %cst, %127, %118, %cst_0, %cst_2, %cst_3, %118, %cst, %cst_3, %118, %127, %127, %cst_3, %127, %cst_2, %cst, %118, %cst_0, %cst_2, %118, %118, %127, %118, %cst, %cst_0, %127, %cst_0, %127, %cst_0, %cst_0, %cst_2, %cst_0, %cst, %cst, %cst_0, %cst_0, %118, %127, %cst, %118, %118, %cst_2, %cst_3, %cst_0, %cst_2, %cst_3, %cst_3, %127, %cst_0, %118, %cst_2, %cst_3, %cst_0, %cst_0, %cst_3, %cst_0, %cst_3, %cst_2, %cst_0, %cst_3, %118, %cst, %127, %127, %118, %118, %cst, %127, %cst_0, %cst_2, %cst_0, %118, %127, %cst_0, %cst_2, %127, %118, %127, %118, %cst_0, %118, %cst_2, %118, %cst_2, %127, %cst_2, %cst_2, %cst_0, %118, %cst_3, %cst_2, %118, %118, %118, %127, %118, %cst_3, %cst_2, %118, %cst_3, %cst_3, %cst_0, %cst_3, %cst, %cst_0, %cst_0, %127, %cst, %118, %cst, %127, %cst_0, %cst_2, %118, %cst_0, %118, %cst_3, %cst_3, %cst_2, %cst_3, %cst, %cst_2, %cst_0, %118, %cst_2, %118, %127, %cst_3, %cst, %cst_2, %cst, %118, %cst_2, %cst, %cst_3, %cst_0, %cst_0, %118, %cst_2, %cst_0, %118, %cst_0, %cst_0, %127, %cst_3, %cst_2, %118, %118, %118, %cst_2, %cst_2, %118, %cst_2, %cst_2, %118, %cst_3, %cst_2, %cst, %118, %cst_3, %cst_0, %cst, %cst_2, %127, %127, %118, %cst_2, %118, %118, %118, %cst_2, %cst_3, %cst_2, %cst, %127, %cst_0, %cst_3, %cst, %cst, %cst_0, %cst_3, %127, %cst, %127, %118, %cst_0, %cst, %cst_3, %cst, %cst_0, %118, %118, %cst_2, %cst, %cst_0, %118, %cst, %118, %127, %127, %cst_2, %cst_0, %cst_0, %118, %127, %cst_0, %cst_2, %127, %cst, %cst_0, %cst, %118, %cst_3, %118, %118, %cst_3, %cst_3, %cst_0, %127, %cst, %cst_0, %118, %cst_2, %cst, %cst, %cst_2, %cst_0, %118, %cst_3, %cst, %118, %127, %cst, %cst_2, %cst, %cst_3, %cst_0, %cst_3, %cst, %cst_2, %cst_3, %cst, %127, %127, %cst, %127, %cst_3, %cst, %118, %118, %cst, %cst_2, %cst_2, %127, %cst_2, %cst, %cst, %cst_0, %118, %cst, %118, %cst_3, %cst_3, %cst_0, %cst_2, %cst_0, %cst, %cst_2, %cst_2, %cst_2, %cst_3, %cst_3, %118, %127, %cst, %118, %118, %127, %118, %cst, %cst, %cst_3, %127, %cst, %cst_0, %cst, %118, %118, %cst_3, %cst_2, %cst_0, %cst_3, %cst_0, %cst_2, %cst, %cst_0, %118, %127, %127, %cst_2, %118, %cst_3, %cst, %cst_0, %cst, %cst_2, %127, %cst_0, %127, %127, %cst, %cst_2, %127, %cst_0, %cst_2, %cst_3, %cst_0, %cst_0, %127, %cst_0, %cst_3, %cst_3, %118, %cst, %cst_3, %cst_3, %127, %118, %127, %cst_3, %cst_0, %cst_2, %cst, %cst, %cst, %cst_3, %127, %127, %cst_3, %127, %cst_2, %cst_2, %cst_0, %cst_0, %cst_3, %cst_2, %cst_3, %cst_0, %118, %127, %cst_0, %cst, %118, %cst_0, %127, %cst_2, %118, %127, %cst_2, %127, %cst_3, %cst_3, %cst, %cst_3, %118, %cst, %cst, %cst_3, %cst_2, %cst_0, %127, %cst, %118, %cst_3, %118, %cst, %118, %cst_3, %118, %cst_2, %127, %cst_0, %cst_0, %127, %cst, %cst, %cst_3, %cst_3, %cst_2, %118, %cst_3, %cst, %cst, %cst_0, %cst_3, %cst_2, %cst_3, %cst_2, %cst_0, %cst_0, %cst_0, %cst_3, %cst_2, %cst, %118, %127, %cst_0, %118, %118, %127, %118, %127, %cst, %cst, %127, %cst, %cst_3, %cst, %cst_3, %cst_2, %cst_3, %cst_0, %cst_0, %cst_3, %cst_0, %cst_2, %127, %cst, %cst, %cst, %cst, %cst_2, %cst, %127, %cst_0, %127, %127, %cst_2, %127, %cst, %cst_0, %cst_2, %cst_2, %cst_0, %cst_3, %cst_2, %127, %127, %cst_0, %cst_0, %cst, %118, %127, %cst, %cst_0, %cst_0, %cst_2, %cst, %cst, %cst_0, %cst, %118, %118, %127, %cst_0, %127, %cst_2, %127, %cst_0, %cst_2, %cst_0, %cst_2, %cst_0, %cst, %cst_0, %cst_2, %127, %118, %cst_2, %cst_2, %127, %cst_3, %cst_2, %cst, %cst_3, %127, %cst, %cst_3, %cst_3, %cst, %118, %127, %cst, %cst_3, %cst_0, %118, %cst_3, %cst_3, %cst_0, %cst_3, %127, %cst, %118, %cst, %cst, %cst_2, %cst, %127, %cst_3, %118, %118, %118, %cst, %cst_2, %118, %cst_2, %cst, %cst_0, %118, %cst_3, %cst_2, %cst, %127, %cst_3, %118, %cst_3, %cst, %127, %118, %cst_3, %cst_0, %118, %cst_2, %127, %118, %cst_3, %118, %cst_3, %cst_0, %118, %cst, %118, %127, %118, %118, %cst, %cst_0, %127, %127, %127, %127, %cst_2, %cst, %cst_0, %cst_3, %127, %127, %127, %cst_2, %127, %cst_3, %cst_0, %127, %127, %cst_3, %118, %cst_0, %cst, %cst_0, %cst, %cst_3, %118, %cst, %cst, %cst_3, %cst, %cst_3, %cst, %cst_2, %cst_3, %127, %127, %127, %cst_0, %118, %cst_0, %118, %118, %cst, %cst_2, %118, %127, %127, %cst_3, %cst, %118, %cst, %cst_2, %cst_2, %118, %cst, %cst_0, %118, %cst, %cst_2, %cst, %118, %cst, %cst_3, %cst_3, %118, %127, %127, %cst_0, %118, %cst_0, %cst_2, %cst_2, %cst_2, %cst_3, %cst, %cst_0, %cst_2, %cst_0, %127, %127, %cst, %127, %cst_2, %cst_3, %118, %cst_2, %cst_0, %127, %118, %118, %cst_3, %cst, %cst_3, %cst_3, %118, %cst_0, %118, %cst, %cst_2, %cst_3, %127, %cst_3, %cst_2, %127, %118, %cst_3, %cst_3, %cst_2, %118, %cst, %cst_3, %127, %cst_3, %127, %cst_2, %cst, %cst_2, %cst_2, %127, %cst, %127, %cst_2, %cst_3, %cst_2, %cst, %118, %cst_3, %127, %118, %cst_3, %cst_0, %127, %cst_2, %cst_2, %127, %cst_2, %cst, %cst_2, %cst_3, %cst_0, %cst, %cst_2, %cst, %cst_3, %118, %118, %cst_2, %cst_0, %127, %cst, %118, %cst_3, %cst_0, %127, %cst, %127, %127, %cst_2, %cst, %cst_0, %cst_0, %cst, %cst_3, %118, %cst_2, %cst_3, %cst_2, %cst, %127, %118, %cst_2, %118, %cst_3, %cst_3, %cst_0, %cst_2, %cst, %cst_3, %cst_0, %cst_2, %cst_0, %cst, %cst, %cst_2, %cst_2, %127, %118, %cst_3, %cst, %cst_3, %cst_3, %cst_3, %127, %127, %cst_3, %127, %127, %cst_0, %118, %cst_0, %cst_2, %127, %cst_3, %cst_3, %cst_3, %127, %cst_3, %cst_2, %cst_2, %cst_2, %127, %cst_0, %cst_0, %cst, %cst_3, %118, %cst_3, %127, %cst, %118, %127, %cst_3, %127, %cst_0, %cst, %118, %cst_2, %118, %cst_3, %cst_0, %127, %cst_2, %cst, %cst_2, %cst_2, %127, %cst_3, %cst_3, %cst_3, %127, %cst_2, %118, %cst, %cst, %118, %127, %cst, %cst_3, %127, %127, %cst_3, %cst_3, %cst_0, %cst, %127, %cst_3, %cst_2, %118, %cst, %127, %cst_3, %cst_2, %118, %cst_3, %cst, %118, %cst_3, %cst_0, %cst, %127, %cst, %cst_3, %cst, %cst, %cst_3, %118, %127, %127, %cst_2, %cst_2, %127, %127, %cst_0, %cst_2, %127, %cst_3, %118, %127, %cst_0, %cst_3, %cst, %118, %cst, %cst_0, %cst_3, %127, %127, %118, %127, %cst_0, %118, %cst_2, %118, %127, %cst_0, %cst_0, %cst_2, %127, %118, %cst_2, %127, %118, %118, %cst, %118, %cst_3, %118, %127, %cst_3, %cst_2, %118, %cst_0, %cst_0, %cst_2, %cst, %cst_0, %cst_2, %cst_3, %cst_0, %cst_0, %118, %127, %cst_2, %cst_3, %cst_2, %127, %cst_2, %127, %cst, %cst_0, %127, %cst_0, %cst_2, %cst_2, %127, %cst_2, %cst_2, %118, %118, %118, %cst, %cst, %127, %118, %cst_3, %127, %cst_0, %cst_2, %118, %127, %127, %cst, %118, %cst_3, %127, %cst_3, %cst_0, %cst, %cst_0, %127, %127, %cst_3, %cst, %cst, %cst_3, %127, %118, %cst, %cst_2, %118, %cst_3, %cst_3, %cst_0, %cst_0, %cst_0, %cst_0, %127, %127, %127, %cst_2, %cst_0, %cst, %127, %127, %cst_2, %118, %cst, %118, %cst_3, %cst, %cst_3, %127, %127, %cst, %cst_3, %cst, %127, %118, %cst_0, %cst_3, %cst, %cst_0, %cst_2, %cst_3, %118, %cst, %cst_2, %cst_2, %cst_3, %cst_3, %118, %127, %cst, %127, %cst, %127, %127, %cst, %cst_2, %cst_3, %127, %127, %cst_2, %cst_3, %118, %cst_3, %cst_2, %118, %cst_3, %127, %127, %cst_3, %cst, %cst, %118, %127, %cst, %127, %cst, %cst_0, %118, %118, %127, %cst_2, %cst, %127, %127, %cst_2, %127, %cst_3, %127, %cst_0, %cst_0, %cst_0, %118, %127, %127, %127, %127, %127, %118, %127, %cst_0, %118, %118, %118, %118, %cst_0, %cst_2, %cst_3, %cst_3, %cst, %127, %cst_0, %cst_3, %cst_3, %cst, %cst_2, %127, %cst_2, %cst, %cst_0, %118, %118, %cst, %cst_2, %cst_0, %118, %cst_3, %cst_2, %127, %cst_2, %118, %127, %cst_0, %127, %cst_3, %cst, %cst_3, %cst_0, %cst, %127, %127, %cst_3, %cst_2, %127, %127, %cst, %cst_3, %cst_3, %cst_2, %118, %118, %cst, %cst, %cst_0, %cst_2, %cst, %cst_3, %cst_3, %cst_0, %cst, %cst_0, %cst_2, %cst, %cst, %cst_3, %cst_3, %cst, %cst_3, %cst, %118, %cst_0, %cst_0, %cst, %cst, %127, %cst_2, %cst, %cst_2, %cst_3, %cst_0, %127, %cst_2, %cst_0, %cst_3, %cst, %cst_0, %cst_0, %cst_3, %127, %cst_2, %cst_2, %127, %cst_0, %127, %cst_2, %cst_3, %cst_0, %cst, %cst_2, %cst_2, %118, %cst_0, %cst, %127, %cst_0, %127, %118, %118, %cst_2, %cst_3, %cst_2, %cst, %127, %127, %cst_3, %cst_3, %cst_3, %cst_0, %118, %cst_2, %cst, %cst_0, %cst_2, %cst_3, %cst_3, %cst, %cst_0, %cst, %cst_0, %cst_2, %127, %cst_2, %cst_0, %cst_0, %cst, %cst_3, %cst_0, %cst_2, %cst, %cst_0, %127, %cst_3, %cst_2, %cst_3, %cst_2, %cst_3, %127, %cst, %cst_3, %118, %127, %cst_3, %127, %cst_0, %cst, %cst_2, %cst_0, %cst_2, %cst_0, %118, %cst_2, %cst_0, %cst, %cst_2, %cst, %cst_2, %cst_3, %cst_0, %118, %cst_2, %118, %cst_2, %118, %118, %127, %127, %cst_3, %cst_3, %cst_0, %127, %cst_0, %127, %cst_3, %118, %cst_3, %cst_2, %127, %cst_3, %cst_2, %cst_3, %127, %118, %cst_2, %cst_2, %cst, %118, %118, %cst_3, %118, %127, %cst_3, %118, %cst_0, %118, %127, %cst_2, %cst_0, %cst_3, %118, %118, %cst_2, %cst, %118, %118, %cst_3, %cst_0, %118, %127, %cst_3, %118, %cst_2, %118, %127, %cst_2, %cst_0, %cst_3, %cst_2, %cst_2, %127, %cst, %118, %cst_0, %cst_0, %cst, %cst_0, %127, %cst_3, %cst, %cst_3, %127, %cst_2, %cst_0, %cst, %cst_0, %127, %118, %cst_3, %118, %cst_3, %118, %cst_2, %127, %cst_0, %cst, %cst_0, %cst, %cst_2, %cst_0, %cst, %118, %118, %cst, %cst_3, %cst_0, %cst, %118, %cst_0, %127, %118, %cst_3, %cst_0, %cst, %118, %118, %cst_2, %cst_0, %127, %127, %118, %127, %cst_2, %cst_2, %cst_0, %118, %127, %cst_3, %118, %cst_2, %cst_2, %cst, %127, %cst_3, %118, %cst, %cst_0, %127, %127, %118, %cst_2, %cst_3, %cst_0, %118, %118, %127, %cst, %127, %118, %127, %118, %127, %cst_2, %118, %cst_0, %cst_0, %cst, %cst, %118, %118, %cst_2, %cst_3, %118, %cst_0, %118, %118, %cst_3, %cst_2, %cst_3, %127, %cst, %cst_0, %cst_2, %cst_3, %cst_2, %cst, %118, %cst_0, %cst, %118, %cst_2, %127, %cst, %127, %127, %cst_3, %127, %cst_0, %118, %cst, %cst_0, %cst, %cst_2, %cst_3, %118, %cst, %cst_3, %cst_2, %118, %127, %cst_2, %118, %127, %118, %cst_3, %cst_3, %cst_0, %cst_3, %cst_2, %cst_0, %cst_3, %cst_3, %118, %cst_2, %cst_0, %127, %cst_3, %118, %cst, %118, %cst, %127, %127, %cst_0, %118, %cst_2, %cst_2, %cst_3, %127, %118, %118, %cst, %118, %cst_0, %118, %127, %cst_0, %127, %cst_2, %118, %127, %cst_0, %127, %118, %cst_0, %cst, %118, %cst_2, %127, %cst_3, %127, %cst_0, %cst_3, %118, %cst_3, %118, %cst_2, %118, %cst_2, %cst_3, %cst, %118, %127, %cst_3, %cst, %cst, %118, %cst_3, %cst_3, %cst_0, %118, %cst_0, %cst_2, %cst_2, %127, %118, %118, %cst, %cst_3, %127, %cst_3, %cst, %cst_3, %cst_3, %cst_3, %cst_3, %cst_0, %127, %cst_0, %cst_2, %cst_0, %cst_3, %118, %cst, %cst_2, %127, %118, %cst_3, %127, %118, %118, %cst_3, %127, %cst_2, %118, %cst_2, %cst, %118, %127, %127, %127, %cst_3, %cst, %127, %118, %cst_3, %cst_0, %cst_0, %cst, %cst_3, %127, %cst_3, %118, %cst_0, %cst_3, %cst_3, %cst_0, %127, %cst_0, %118, %cst_3, %118, %cst_0, %cst_3, %118, %cst_2, %cst_3, %cst_2, %cst_2, %cst_2, %cst_0, %127, %cst_3, %cst_0, %118, %118, %118, %cst_3, %cst_0, %cst_0, %cst_2, %cst_2, %127, %cst_2, %127, %127, %cst_2, %127, %127, %cst, %cst, %cst_2, %127, %118, %cst_0, %cst_0, %118, %cst, %cst_3, %127, %118, %127, %cst_2, %cst, %cst, %127, %cst_3, %cst_3, %118, %cst_3, %cst, %cst_2, %cst_2, %cst, %cst, %cst, %cst_3, %127, %cst_0, %cst_0, %cst, %118, %cst_0, %cst_2, %cst_2, %118, %cst_0, %cst, %cst, %cst_0, %127, %cst_2, %cst_2, %cst, %cst, %cst, %cst_2, %118, %cst_3, %118, %cst_0, %cst_0, %118, %cst_2, %cst, %cst_2, %cst, %cst, %cst_0, %cst_0, %cst_2, %cst_0, %cst, %cst, %cst_3, %cst_0, %cst_3, %cst_0, %cst, %cst_2, %cst, %cst_0, %127, %cst_2, %118, %cst_0, %118, %118, %118, %cst_2, %cst_3, %cst, %cst_0, %cst_0, %cst, %cst_3, %cst_2, %cst, %127, %118, %cst_0, %cst_3, %118, %cst, %cst_2, %cst_0, %cst_0, %cst_0, %cst_3, %127, %cst_2, %118, %118, %cst_2, %cst_0, %127, %cst_3, %118, %118, %cst_3, %127, %118, %127, %cst_2, %cst_0, %cst, %cst_0, %cst_2, %cst, %cst, %118, %cst, %cst_2, %127, %cst_3, %cst_3, %cst_2, %cst_2, %cst_2, %cst_2, %127, %118, %cst, %127, %cst_2, %cst_2, %cst_0, %cst, %cst_3, %127, %cst, %cst_0, %127, %cst, %cst_0, %cst_2, %cst_0, %cst, %cst_0, %cst_0, %127, %cst, %118, %127, %127, %cst_3, %cst_0, %118, %118, %cst_3, %cst_0, %cst, %cst, %127, %118, %118, %127, %cst_0, %cst, %cst_2, %127, %cst_3, %127, %cst_0, %cst, %cst_3, %cst_2, %118, %127, %cst_0, %cst_0, %cst_0, %cst, %cst_2, %cst_0, %118, %cst_0, %118, %127, %cst_3, %cst_2, %cst_3, %cst_0, %118, %cst_3, %cst_0, %118, %127, %cst_3, %127, %cst_0, %cst_2, %cst_0, %cst_2, %cst, %cst_2, %118, %cst_2, %cst_3, %cst_3, %cst_0, %cst, %cst_0, %118, %cst, %118, %cst_2, %127, %cst_0, %127, %cst, %cst_3, %127, %cst_2, %cst_3, %118, %127, %127, %118, %cst_3, %cst_2, %127, %118, %cst_0, %127, %118, %127, %127, %cst, %118, %cst_0, %cst_0, %127, %127, %cst_2, %118, %127, %127, %cst, %cst, %118, %cst_0, %cst_0, %118, %118, %cst, %cst_3, %cst_2, %cst, %cst, %127, %118, %cst_0, %cst, %cst_2, %127, %127, %cst_0, %127, %cst, %118, %cst_2, %cst_2, %cst_2, %127, %cst, %cst_2, %cst_0, %118, %cst_0, %cst_3, %118, %cst_0, %cst_3, %cst, %127, %cst_3, %127, %cst, %127, %cst_2, %cst_2, %cst, %cst, %cst_2, %cst_0, %118, %cst, %cst_2, %cst_0, %cst, %cst, %cst_2, %cst_3, %cst_2, %127, %cst_2, %cst_0, %cst, %cst_2, %127, %118, %cst_0, %127, %cst_3, %cst_3, %cst_0, %cst, %cst_2, %127, %cst_2, %cst_3, %cst, %cst_2, %127, %cst_3, %cst, %cst_0, %cst_3, %cst_2, %cst_0, %cst_3, %118, %cst, %127, %cst_2, %cst_0, %cst_3, %cst_0, %cst_2, %cst, %cst, %cst_0, %cst, %127, %127, %127, %118, %cst_0, %cst_3, %118, %cst_2, %cst_3, %cst_3, %cst_3, %cst, %127, %cst_3, %cst_0, %118, %cst, %cst_0, %cst_2, %cst_0, %118, %cst, %cst_0, %cst_2, %cst_0, %127, %118, %127, %cst_0, %cst_3, %127, %127, %cst_2, %cst_0, %118, %118, %cst, %cst_2, %118, %cst_3, %cst_0, %118, %cst, %cst_2, %cst_3, %118, %cst, %cst_0, %cst_2, %cst_0, %118, %cst, %cst, %cst_3, %cst_3, %127, %cst_0, %cst_2, %127, %118, %127, %118, %cst, %cst, %cst_0, %cst_2, %127, %cst_3, %cst_2, %cst_0, %cst_2, %cst_2, %cst_0, %cst_2, %cst_0, %cst_3, %cst_2, %cst_2, %cst_2, %cst, %cst_3, %118, %118, %cst_3, %cst_3, %cst, %118, %cst_0, %127, %118, %cst_3, %cst, %cst_2, %118, %cst, %127, %cst_3, %cst_0, %cst_2, %cst_0, %118, %118, %118, %127, %cst_3, %cst_3, %118, %cst_3, %118, %118, %118, %cst_2, %118, %118, %127, %cst_0, %cst, %cst_0, %cst_0, %cst_0, %cst_3, %cst_2, %cst, %cst_0, %118, %cst, %118, %cst_0, %118, %118, %118, %cst_0, %118, %cst_0, %118, %127, %cst_0, %cst_2, %cst_2, %cst_3, %118, %cst_3, %cst_2, %cst, %cst_3, %cst_3, %cst_3, %cst, %127, %cst_3, %cst_3, %cst_2, %cst_3, %127, %cst_3, %cst_2, %cst_2, %127, %cst, %cst_0, %127, %cst_3, %cst_3, %cst_2, %cst, %cst, %cst_2, %cst, %127, %127, %118, %118, %cst_2, %118, %cst_0, %cst, %cst_2, %127, %118, %cst, %cst_2, %cst_0, %cst, %118, %cst_0, %cst_2, %cst, %127, %cst_0, %127, %127, %cst_0, %cst, %cst_3, %cst_0, %118, %cst_3, %cst_2, %127, %cst_0, %127, %cst_3, %cst_3, %cst_0, %127, %cst_0, %127, %cst_0, %118, %cst_0, %cst_2, %127, %cst_3, %cst_3, %cst_0, %cst, %cst_2, %cst_3, %127, %cst_0, %cst_3, %cst_3, %127, %cst_2, %cst_3, %127, %127, %cst, %127, %cst_2, %cst_3, %cst, %127, %cst_0, %cst_3, %cst_2, %cst_3, %cst_3, %cst, %cst_3, %cst, %cst, %cst, %127, %127, %cst_0, %cst_3, %cst_0, %cst_2, %118, %cst_3, %cst, %cst_0, %cst, %cst, %cst_3, %cst_2, %118, %cst_2, %cst, %cst_0, %127, %cst_3, %127, %118, %118, %cst_3, %cst_2, %cst, %127, %cst, %cst_0, %118, %cst_2, %118, %cst, %118, %cst_2, %118, %cst, %cst, %cst, %cst_2, %127, %cst_2, %cst_3, %cst_3, %118, %cst, %127, %cst_2, %cst_2, %cst_0, %cst_0, %118, %118, %127, %cst_3, %118, %118, %cst_3, %cst_0, %cst_0, %cst_3, %cst_0, %118, %cst, %cst_0, %cst_3, %cst, %127, %118, %cst, %cst_3, %118, %cst_3, %118, %cst_0, %cst, %118, %cst_2, %cst_3, %cst_0, %cst_0, %cst_2, %127, %118, %cst_3, %127, %127, %118, %cst_2, %127, %cst_3, %127, %118 : tensor<16x16x16xf32>
    %187 = scf.execute_region -> vector<16x16xi64> {
      %246 = index.maxs %121, %rank_39
      %dest_52, %accumulated_value_53 = vector.scan <minui>, %44, %69 {inclusive = true, reduction_dim = 2 : i64} : vector<16x16x16xi1>, vector<16x16xi1>
      affine.for %arg2 = 0 to 123 {
      }
      %false_54 = arith.constant false
      %247 = vector.transfer_read %9[%179, %c0], %false_54 : tensor<16x16xi1>, vector<1xi1>
      %248 = vector.transpose %46, [1, 0, 2] : vector<16x16x16xi1> to vector<16x16x16xi1>
      %249 = vector.transpose %45, [0, 2, 1] : vector<16x16x16xi32> to vector<16x16x16xi32>
      %250 = math.exp2 %21 : tensor<15xf16>
      %251 = vector.broadcast %true : i1 to vector<16xi1>
      %dest_55, %accumulated_value_56 = vector.scan <maxui>, %69, %251 {inclusive = true, reduction_dim = 1 : i64} : vector<16x16xi1>, vector<16xi1>
      %expanded_57 = tensor.expand_shape %6 [[0], [1], [2, 3]] : tensor<16x16x16xi64> into tensor<16x16x16x1xi64>
      %252 = math.log2 %16 : tensor<16x16x16xf16>
      %expanded_58 = tensor.expand_shape %165 [[0], [1, 2]] : tensor<256x16xf16> into tensor<256x16x1xf16>
      %253 = arith.shli %true, %true : i1
      %254 = math.log10 %14 : tensor<16x16x16xf16>
      %255 = math.copysign %127, %cst : f32
      %256 = math.log10 %expanded : tensor<16x16x16x1xf16>
      %257 = vector.extract_strided_slice %178 {offsets = [0], sizes = [1], strides = [1]} : vector<1xf16> to vector<1xf16>
      %258 = vector.broadcast %c1653018709_i64 : i64 to vector<16x16xi64>
      scf.yield %258 : vector<16x16xi64>
    }
    %188 = arith.divf %cst_0, %127 : f32
    %expanded_42 = tensor.expand_shape %3 [[0], [1, 2]] : tensor<16x16xi16> into tensor<16x16x1xi16>
    %189 = arith.divf %118, %cst_0 : f32
    %190 = arith.maxsi %c2074_i16, %176 : i16
    %191 = arith.cmpi sge, %false, %false : i1
    %192 = bufferization.to_memref %156 : memref<16x1xi16>
    %193 = math.cttz %true : i1
    %194 = math.log1p %14 : tensor<16x16x16xf16>
    %195 = math.cttz %c1376839441_i32 : i32
    %196 = arith.remsi %c1376839441_i32, %c1099692294_i32 : i32
    %197 = index.maxs %99, %121
    %cst_43 = arith.constant 1.327000e+03 : f16
    %198 = tensor.empty() : tensor<16x1xi16>
    %199 = linalg.matmul ins(%3, %1 : tensor<16x16xi16>, tensor<16x1xi16>) outs(%198 : tensor<16x1xi16>) -> tensor<16x1xi16>
    %200 = arith.minui %false, %false : i1
    %201 = vector.load %alloc[%c1, %c0] : memref<16x1xf32>, vector<16x1xf32>
    %202 = index.add %c2, %c3
    %203 = scf.while (%arg2 = %115) : (memref<16x16xf32>) -> memref<16x16xf32> {
      %246 = index.maxu %c8, %174
      %247 = vector.extract_strided_slice %185 {offsets = [1], sizes = [5], strides = [1]} : vector<6x1xf32> to vector<5x1xf32>
      %248 = math.fpowi %137, %c1099692294_i32 : f16, i32
      %rank_52 = tensor.rank %16 : tensor<16x16x16xf16>
      %inserted_53 = tensor.insert %cst_4 into %17[%c13, %c12, %c13] : tensor<16x16x16xf16>
      %249 = affine.load %126[%c14, %c6, %c10] : memref<16x16x16xf32>
      %extracted = tensor.extract %0[%c11, %c10, %c8] : tensor<16x16x16xf32>
      %250 = vector.bitcast %45 : vector<16x16x16xi32> to vector<16x16x16xi32>
      scf.condition(%true) %arg2 : memref<16x16xf32>
    } do {
    ^bb0(%arg2: memref<16x16xf32>):
      %246 = arith.negf %cst_0 : f32
      %247 = math.log2 %0 : tensor<16x16x16xf32>
      %248 = vector.multi_reduction <minf>, %143, %201 [] : vector<16x1xf32> to vector<16x1xf32>
      %249 = affine.load %125[%c11, %c5, %c6] : memref<16x16x16xi1>
      %250 = memref.load %70[%c6, %c0] : memref<16x1xf16>
      %251 = vector.broadcast %127 : f32 to vector<15xf32>
      %252 = vector.fma %251, %31, %30 : vector<15xf32>
      %253 = math.cttz %9 : tensor<16x16xi1>
      %254 = arith.minui %c-60_i16, %176 : i16
      %255 = arith.maxsi %c7286_i16, %c2074_i16 : i16
      %256 = memref.load %alloc_14[%c4] : memref<15xi1>
      %257 = scf.if %249 -> (memref<16x16xf16>) {
        memref.tensor_store %198, %192 : memref<16x1xi16>
        %260 = math.copysign %2, %14 : tensor<16x16x16xf16>
        %alloc_55 = memref.alloc() : memref<15xi64>
        %261 = math.rsqrt %106 : tensor<16x16x16xf16>
        %262 = math.rsqrt %12 : tensor<16x16xf32>
        %263 = vector.extract_strided_slice %98 {offsets = [11], sizes = [2], strides = [1]} : vector<16x16x16xf16> to vector<2x16x16xf16>
        %264 = affine.min affine_map<(d0, d1, d2) -> (d2)>(%179, %114, %197)
        %265 = math.log1p %cst_0 : f32
        scf.yield %alloc_19 : memref<16x16xf16>
      } else {
        %260 = arith.remf %cst_3, %cst_0 : f32
        %collapsed_55 = tensor.collapse_shape %cast_22 [[0, 1]] : tensor<?x?xf16> into tensor<?xf16>
        %collapsed_56 = tensor.collapse_shape %8 [[0, 1]] : tensor<16x16xi1> into tensor<256xi1>
        %alloc_57 = memref.alloc() : memref<16x16xi1>
        %261 = vector.broadcast %false : i1 to vector<15xi1>
        %262 = vector.broadcast %c1026596729_i32 : i32 to vector<15xi32>
        %263 = vector.gather %alloc_57[%47, %c11] [%262], %261, %261 : memref<16x16xi1>, vector<15xi32>, vector<15xi1>, vector<15xi1> into vector<15xi1>
        %264 = memref.load %126[%c13, %c9, %c12] : memref<16x16x16xf32>
        %265 = index.divs %c10, %65
        %266 = math.exp2 %cst_3 : f32
        %267 = vector.broadcast %cst : f32 to vector<16x16x16xf32>
        %268 = vector.fma %267, %267, %267 : vector<16x16x16xf32>
        scf.yield %alloc_19 : memref<16x16xf16>
      }
      %rank_52 = tensor.rank %165 : tensor<256x16xf16>
      memref.store %127, %alloc_16[%c9, %c0] : memref<16x1xf32>
      %258 = arith.remf %113, %137 : f16
      %259 = affine.for %arg3 = 0 to 98 iter_args(%arg4 = %c1026596729_i32) -> (i32) {
        affine.yield %c1376839441_i32 : i32
      }
      %dest_53, %accumulated_value_54 = vector.scan <maxsi>, %44, %97 {inclusive = true, reduction_dim = 2 : i64} : vector<16x16x16xi1>, vector<16x16xi1>
      scf.yield %115 : memref<16x16xf32>
    }
    %204 = math.log1p %16 : tensor<16x16x16xf16>
    %205 = index.sizeof
    %206 = math.powf %12, %12 : tensor<16x16xf32>
    %207 = affine.min affine_map<(d0, d1, d2) -> (d2 - (d2 * 128 + 8))>(%c3, %c8, %c14)
    %208 = math.rsqrt %expanded_25 : tensor<16x16x16x1xf16>
    %209 = vector.extract_strided_slice %112 {offsets = [0], sizes = [1], strides = [1]} : vector<1xf16> to vector<1xf16>
    %210 = affine.min affine_map<(d0, d1, d2, d3) -> (0)>(%42, %c1, %121, %c7)
    %211 = vector.multi_reduction <mul>, %30, %cst [0] : vector<15xf32> to f32
    %212 = arith.ori %c-17004_i16, %c-60_i16 : i16
    %213 = math.powf %from_elements_41, %0 : tensor<16x16x16xf32>
    %214 = arith.remsi %false, %false : i1
    %cst_44 = arith.constant 1.000000e+00 : f32
    %215 = vector.transfer_read %alloc_16[%52, %c8], %cst_44 : memref<16x1xf32>, vector<1xf32>
    %216 = arith.maxsi %c1653018709_i64, %c1653018709_i64 : i64
    %217 = memref.realloc %24 : memref<15xf32> to memref<16xf32>
    %218 = arith.mulf %cst_44, %cst_44 : f32
    %219 = arith.mulf %cst, %cst_44 : f32
    %220 = arith.remf %cst_1, %cst_4 : f16
    %221 = vector.matrix_multiply %177, %30 {lhs_columns = 5 : i32, lhs_rows = 1 : i32, rhs_columns = 3 : i32} : (vector<5xf32>, vector<15xf32>) -> vector<3xf32>
    %222 = arith.shli %c7286_i16, %c-17004_i16 : i16
    %from_elements_45 = tensor.from_elements %c1376839441_i32, %c1026596729_i32, %c1026596729_i32, %c1376839441_i32, %c1376839441_i32, %c1026596729_i32, %c1099692294_i32, %c1376839441_i32, %c1099692294_i32, %c1026596729_i32, %c1376839441_i32, %c1376839441_i32, %c1376839441_i32, %c1099692294_i32, %c1376839441_i32 : tensor<15xi32>
    memref.alloca_scope  {
      %splat_52 = tensor.splat %c-60_i16 : tensor<16x16x16xi16>
      %246 = vector.broadcast %113 : f16 to vector<f16>
      vector.transfer_write %246, %alloc_19[%179, %197] : vector<f16>, memref<16x16xf16>
      %247 = arith.remf %cst_1, %113 : f16
      %extracted = tensor.extract %106[%c2, %c9, %c5] : tensor<16x16x16xf16>
      memref.tensor_store %16, %74 : memref<16x16x16xf16>
      %248 = vector.transpose %97, [1, 0] : vector<16x16xi1> to vector<16x16xi1>
      %249 = bufferization.to_memref %splat : memref<16x16xi16>
      %250 = vector.broadcast %cst_2 : f32 to vector<6x16xf32>
      %251 = vector.contract {indexing_maps = [affine_map<(d0, d1, d2) -> (d0, d2)>, affine_map<(d0, d1, d2) -> (d1, d2)>, affine_map<(d0, d1, d2) -> (d0, d1)>], iterator_types = ["parallel", "parallel", "reduction"], kind = #vector.kind<maxf>} %185, %201, %250 : vector<6x1xf32>, vector<16x1xf32> into vector<6x16xf32>
      %252 = vector.bitcast %83 : vector<16xi32> to vector<16xi32>
      %253 = index.divu %114, %c6
      %254 = affine.min affine_map<(d0, d1, d2, d3) -> ((d2 mod 2 - (d1 - d2) * 2) ceildiv 8, d1 + 16, d2 mod 2 - (d1 - d2) * 2)>(%80, %c3, %202, %42)
      %255 = math.expm1 %splat_33 : tensor<16x16x16xf32>
      %256 = bufferization.to_memref %10 : memref<15xi1>
      %257 = index.maxu %121, %110
      %258 = affine.if affine_set<(d0, d1) : (d0 * 32 >= 0, -(d1 ceildiv 8) == 0, d0 * 32 >= 0)>(%c13, %c5) -> memref<16x1xi1> {
        %278 = affine.min affine_map<(d0, d1, d2, d3) -> (d0 + d3 mod 64)>(%52, %c14, %47, %c4)
        %279 = arith.andi %c1376839441_i32, %c1026596729_i32 : i32
        %280 = arith.ceildivsi %false, %false : i1
        %281 = math.log10 %expanded_34 : tensor<16x16x16x1xf32>
        %282 = math.atan2 %expanded, %expanded_23 : tensor<16x16x16x1xf16>
        %283 = vector.insertelement %cst, %221[%105 : index] : vector<3xf32>
        %284 = arith.subi %c1653018709_i64, %c1653018709_i64 : i64
        %285 = math.expm1 %0 : tensor<16x16x16xf32>
        affine.yield %alloc_8 : memref<16x1xi1>
      } else {
        %278 = arith.subi %c1653018709_i64, %c1653018709_i64 : i64
        %cst_55 = arith.constant 3.846400e+04 : f16
        %279 = vector.broadcast %c7286_i16 : i16 to vector<15xi16>
        %280 = vector.broadcast %true : i1 to vector<15xi1>
        %281 = vector.maskedload %192[%c4, %c0], %280, %279 : memref<16x1xi16>, vector<15xi1>, vector<15xi16> into vector<15xi16>
        %282 = math.atan %5 : tensor<16x16xf16>
        %283 = math.powf %extracted, %cst_4 : f16
        %284 = arith.remsi %c7286_i16, %c2074_i16 : i16
        memref.store %137, %82[] : memref<f16>
        %285 = memref.load %alloc_20[%c11] : memref<15xf16>
        affine.yield %alloc_8 : memref<16x1xi1>
      }
      %259 = bufferization.clone %125 : memref<16x16x16xi1> to memref<16x16x16xi1>
      %260 = index.floordivs %65, %114
      %261 = tensor.empty() : tensor<16x16xi64>
      %262 = linalg.matmul ins(%13, %13 : tensor<16x16xi64>, tensor<16x16xi64>) outs(%261 : tensor<16x16xi64>) -> tensor<16x16xi64>
      %263 = memref.atomic_rmw muli %c1653018709_i64, %167[%c15, %c0] : (i64, memref<16x16xi64>) -> i64
      %264 = arith.addf %cst_1, %extracted : f16
      %265 = arith.cmpi ugt, %c7286_i16, %176 : i16
      %266 = math.expm1 %cst_2 : f32
      %267 = tensor.empty() : tensor<16xi16>
      %268 = linalg.generic {indexing_maps = [affine_map<(d0, d1, d2) -> (d1)>, affine_map<(d0, d1, d2) -> (d1, d0)>, affine_map<(d0, d1, d2) -> (d1)>, affine_map<(d0, d1, d2) -> (d0, d1, d2)>], iterator_types = ["parallel", "parallel", "parallel"]} ins(%267, %splat, %267 : tensor<16xi16>, tensor<16x16xi16>, tensor<16xi16>) outs(%splat_52 : tensor<16x16x16xi16>) {
      ^bb0(%in: i16, %in_55: i16, %in_56: i16, %out: i16):
        %278 = vector.broadcast %211 : f32 to vector<1xf32>
        %dest_57, %accumulated_value_58 = vector.scan <add>, %143, %278 {inclusive = true, reduction_dim = 0 : i64} : vector<16x1xf32>, vector<1xf32>
        %279 = arith.maxf %118, %cst : f32
        %280 = index.divu %c3, %210
        %281 = memref.atomic_rmw addf %211, %alloc_16[%c15, %c0] : (f32, memref<16x1xf32>) -> f32
        %282 = math.atan %expanded : tensor<16x16x16x1xf16>
        %283 = vector.broadcast %cst : f32 to vector<16x1xf32>
        %284 = vector.fma %283, %201, %201 : vector<16x1xf32>
        %285 = vector.reduction <add>, %60 : vector<1xf16> into f16
        %286 = affine.min affine_map<(d0, d1, d2, d3) -> ((d1 ceildiv 4) ceildiv 64, d0 - 1)>(%207, %c10, %205, %253)
        %alloc_59 = memref.alloc() : memref<16x16x16xi16>
        %287 = arith.subi %c-17004_i16, %in_55 : i16
        %288 = vector.broadcast %118 : f32 to vector<1xf32>
        %289 = vector.transfer_write %288, %7[%175, %c5, %197] {permutation_map = affine_map<(d0, d1, d2) -> (d0)>} : vector<1xf32>, tensor<16x16x16xf32>
        %290 = vector.contract {indexing_maps = [affine_map<(d0, d1, d2, d3) -> (d3, d0)>, affine_map<(d0, d1, d2, d3) -> (d3, d1, d2)>, affine_map<(d0, d1, d2, d3) -> (d0, d1, d2)>], iterator_types = ["parallel", "parallel", "parallel", "reduction"], kind = #vector.kind<maxsi>} %69, %44, %44 : vector<16x16xi1>, vector<16x16x16xi1> into vector<16x16x16xi1>
        %291 = affine.min affine_map<(d0) -> ((d0 * 2) mod 32, d0 * 2 - 8, 0, 0)>(%280)
        %292 = index.sub %77, %291
        %293 = arith.ori %out, %in_55 : i16
        %dest_60, %accumulated_value_61 = vector.scan <maxf>, %201, %288 {inclusive = false, reduction_dim = 0 : i64} : vector<16x1xf32>, vector<1xf32>
        %294 = vector.broadcast %211 : f32 to vector<16x16xf32>
        %295 = vector.transfer_write %294, %from_elements_41[%174, %c2, %286] {permutation_map = affine_map<(d0, d1, d2) -> (d0, d1)>} : vector<16x16xf32>, tensor<16x16x16xf32>
        %296 = index.divu %c11, %rank
        %297 = bufferization.to_memref %4 : memref<16x16xi32>
        %298 = arith.minui %176, %176 : i16
        %299 = arith.remf %cst_2, %211 : f32
        %300 = vector.insert %137, %209 [0] : f16 into vector<1xf16>
        %301 = math.absf %211 : f32
        %302 = math.sqrt %7 : tensor<16x16x16xf32>
        %303 = arith.ori %c-17004_i16, %in_56 : i16
        %304 = bufferization.to_memref %splat : memref<16x16xi16>
        memref.assume_alignment %74, 8 : memref<16x16x16xf16>
        %cast_62 = tensor.cast %from_elements : tensor<16x16xi64> to tensor<?x?xi64>
        %305 = arith.remf %cst_4, %cst_1 : f16
        %306 = index.maxu %114, %114
        %collapsed_63 = tensor.collapse_shape %12 [[0, 1]] : tensor<16x16xf32> into tensor<256xf32>
        %c20088_i16 = arith.constant 20088 : i16
        linalg.yield %c2074_i16 : i16
      } -> tensor<16x16x16xi16>
      %269 = tensor.empty() : tensor<15xi32>
      %mapped_53 = linalg.map ins(%11 : tensor<15xi32>) outs(%269 : tensor<15xi32>)
        (%in: i32) {
          %278 = vector.insert %113, %140 [0] : f16 into vector<1xf16>
          %279 = arith.ceildivsi %c-17004_i16, %c7286_i16 : i16
          %280 = arith.remf %cst_0, %118 : f32
          %collapsed_55 = tensor.collapse_shape %splat_52 [[0, 1], [2]] : tensor<16x16x16xi16> into tensor<256x16xi16>
          %281 = vector.broadcast %cst_2 : f32 to vector<15xf32>
          %282 = vector.fma %281, %159, %31 : vector<15xf32>
          %283 = arith.subi %c7286_i16, %c-60_i16 : i16
          %284 = index.maxs %99, %87
          %collapsed_56 = tensor.collapse_shape %expanded [[0, 1], [2], [3]] : tensor<16x16x16x1xf16> into tensor<256x16x1xf16>
          %285 = arith.divsi %c2074_i16, %c2074_i16 : i16
          %286 = bufferization.to_memref %4 : memref<16x16xi32>
          memref.tensor_store %from_elements_28, %alloc_6 : memref<15xi1>
          %287 = arith.remui %c2074_i16, %c7286_i16 : i16
          %288 = arith.maxui %c1026596729_i32, %c1026596729_i32 : i32
          %289 = math.cos %5 : tensor<16x16xf16>
          %290 = math.atan2 %expanded_23, %expanded_23 : tensor<16x16x16x1xf16>
          %291 = math.log10 %0 : tensor<16x16x16xf32>
          %collapsed_57 = tensor.collapse_shape %collapsed_56 [[0, 1], [2]] : tensor<256x16x1xf16> into tensor<4096x1xf16>
          %292 = tensor.empty(%rank) : tensor<16x?x16xi16>
          %293 = arith.shrsi %true, %true : i1
          memref.store %in, %alloc_15[%c1, %c7, %c3] : memref<16x16x16xi32>
          %294 = index.mul %257, %47
          %295 = index.floordivs %260, %c7
          %296 = index.divs %c4, %99
          %297 = affine.apply affine_map<(d0) -> (d0 - 16)>(%65)
          %298 = index.divs %114, %81
          %299 = math.cos %21 : tensor<15xf16>
          %300 = math.fma %cst_44, %211, %cst : f32
          %301 = arith.subi %c1376839441_i32, %c1026596729_i32 : i32
          %302 = affine.min affine_map<(d0, d1, d2) -> (d1 * -2 + d0, d1 * -2 + d0, -d1 + d0 + 1 - d2)>(%85, %162, %210)
          %303 = vector.transpose %45, [2, 0, 1] : vector<16x16x16xi32> to vector<16x16x16xi32>
          %304 = math.fma %cst_3, %cst_44, %cst_2 : f32
          %305 = vector.splat %rank_39 : vector<16x16x16xindex>
          %c1_i32 = arith.constant 1 : i32
          linalg.yield %c1_i32 : i32
        }
      %270 = affine.min affine_map<(d0, d1) -> (d0, d0 * 64)>(%rank, %85)
      %271 = math.rsqrt %expanded_24 : tensor<16x16x16x1xf16>
      %272 = math.cttz %c1099692294_i32 : i32
      %273 = tensor.empty() : tensor<15xf16>
      %mapped_54 = linalg.map ins(%21, %alloc_20 : tensor<15xf16>, memref<15xf16>) outs(%273 : tensor<15xf16>)
        (%in: f16, %in_55: f16) {
          %278 = arith.minsi %176, %c-60_i16 : i16
          %279 = memref.atomic_rmw addi %c1653018709_i64, %alloc_12[%c5, %c8] : (i64, memref<16x16xi64>) -> i64
          %280 = memref.load %259[%c5, %c5, %c7] : memref<16x16x16xi1>
          %281 = arith.subi %176, %c-60_i16 : i16
          %282 = math.absf %127 : f32
          memref.assume_alignment %alloc_10, 2 : memref<15xi64>
          memref.assume_alignment %alloc_17, 2 : memref<16x16x16xf32>
          %283 = math.exp2 %expanded_34 : tensor<16x16x16x1xf32>
          %284 = tensor.empty() : tensor<16x16xi32>
          %285 = linalg.matmul ins(%4, %4 : tensor<16x16xi32>, tensor<16x16xi32>) outs(%284 : tensor<16x16xi32>) -> tensor<16x16xi32>
          %splat_56 = tensor.splat %c7286_i16 : tensor<16x1xi16>
          %286 = index.divu %c3, %52
          %287 = math.tanh %in : f16
          %collapsed_57 = tensor.collapse_shape %splat_56 [[0, 1]] : tensor<16x1xi16> into tensor<16xi16>
          %288 = vector.broadcast %true : i1 to vector<16xi1>
          %289 = vector.maskedload %24[%c5], %288, %20 : memref<15xf32>, vector<16xi1>, vector<16xf32> into vector<16xf32>
          %290 = bufferization.clone %74 : memref<16x16x16xf16> to memref<16x16x16xf16>
          memref.tensor_store %261, %167 : memref<16x16xi64>
          %291 = vector.transpose %221, [0] : vector<3xf32> to vector<3xf32>
          %292 = affine.min affine_map<(d0, d1, d2, d3) -> (-d3, 0, d2 floordiv 16, 8)>(%c1, %c7, %25, %253)
          %splat_58 = tensor.splat %true : tensor<16x16x16xi1>
          %alloc_59 = memref.alloc() : memref<16x16xf32>
          %293 = math.log1p %5 : tensor<16x16xf16>
          %294 = bufferization.clone %alloc_13 : memref<16x1xi32> to memref<16x1xi32>
          %295 = bufferization.clone %alloc_18 : memref<16x1xf16> to memref<16x1xf16>
          %296 = affine.min affine_map<(d0, d1, d2, d3) -> (d1, d2)>(%110, %c11, %254, %87)
          %297 = tensor.empty() : tensor<i32>
          %298 = math.fpowi %23, %297 : tensor<f16>, tensor<i32>
          %299 = index.divu %c8, %292
          %300 = memref.realloc %256 : memref<15xi1> to memref<16xi1>
          %splat_60 = tensor.splat %in : tensor<16x16xf16>
          memref.tensor_store %15, %295 : memref<16x1xf16>
          %301 = bufferization.clone %295 : memref<16x1xf16> to memref<16x1xf16>
          %302 = math.powf %expanded_25, %expanded_25 : tensor<16x16x16x1xf16>
          %collapsed_61 = tensor.collapse_shape %15 [[0, 1]] : tensor<16x1xf16> into tensor<16xf16>
          %cst_62 = arith.constant 1.000000e+00 : f16
          linalg.yield %cst_62 : f16
        }
      %274 = index.sub %253, %99
      %275 = math.copysign %2, %17 : tensor<16x16x16xf16>
      %276 = affine.min affine_map<(d0, d1) -> (d0 mod 8, 0, d1 mod 16)>(%c15, %121)
      %277 = index.maxu %197, %274
    }
    %223 = tensor.empty() : tensor<15xf32>
    %mapped_46 = linalg.map ins(%alloc_11, %24 : memref<15xf32>, memref<15xf32>) outs(%223 : tensor<15xf32>)
      (%in: f32, %in_52: f32) {
        %246 = vector.broadcast %true : i1 to vector<16xi1>
        %dest_53, %accumulated_value_54 = vector.scan <xor>, %97, %246 {inclusive = true, reduction_dim = 0 : i64} : vector<16x16xi1>, vector<16xi1>
        %247 = affine.if affine_set<(d0, d1) : (d0 * 32 >= 0, -(d1 ceildiv 8) == 0, d0 * 32 >= 0)>(%c12, %c7) -> memref<16x16xi64> {
          %276 = arith.shrsi %c-17004_i16, %c-17004_i16 : i16
          %277 = arith.muli %c-60_i16, %c7286_i16 : i16
          %278 = index.maxs %52, %c11
          %false_64 = index.bool.constant false
          %279 = index.maxs %c0, %87
          %280 = arith.addi %c1026596729_i32, %c1099692294_i32 : i32
          %281 = vector.extract_strided_slice %120 {offsets = [0], sizes = [1], strides = [1]} : vector<1xf16> to vector<1xf16>
          %282 = index.add %c10, %c13
          affine.yield %167 : memref<16x16xi64>
        } else {
          %276 = arith.ori %176, %c-17004_i16 : i16
          memref.assume_alignment %126, 8 : memref<16x16x16xf32>
          %277 = vector.broadcast %127 : f32 to vector<16x1xf32>
          %278 = vector.fma %277, %201, %277 : vector<16x1xf32>
          %279 = math.copysign %expanded_23, %expanded : tensor<16x16x16x1xf16>
          %280 = vector.broadcast %in : f32 to vector<16x1xf32>
          %281 = vector.fma %280, %280, %201 : vector<16x1xf32>
          %splat_64 = tensor.splat %c-60_i16 : tensor<16x1xi16>
          memref.tensor_store %223, %alloc_11 : memref<15xf32>
          %282 = arith.remsi %c-17004_i16, %c7286_i16 : i16
          affine.yield %alloc_12 : memref<16x16xi64>
        }
        %248 = math.expm1 %expanded : tensor<16x16x16x1xf16>
        %cast_55 = tensor.cast %8 : tensor<16x16xi1> to tensor<?x?xi1>
        %249 = vector.broadcast %c7286_i16 : i16 to vector<16xi16>
        %250 = vector.transfer_write %249, %1[%80, %c8] {permutation_map = affine_map<(d0, d1) -> (d0)>} : vector<16xi16>, tensor<16x1xi16>
        %251 = math.exp2 %14 : tensor<16x16x16xf16>
        %252 = affine.min affine_map<(d0, d1, d2, d3) -> (d0, d1 - (d2 floordiv 32) ceildiv 32)>(%rank, %99, %54, %rank_39)
        %253 = tensor.empty() : tensor<256x1xf16>
        %254 = linalg.matmul ins(%165, %15 : tensor<256x16xf16>, tensor<16x1xf16>) outs(%253 : tensor<256x1xf16>) -> tensor<256x1xf16>
        memref.store %cst_1, %70[%c2, %c0] : memref<16x1xf16>
        %255 = index.floordivs %121, %85
        %256 = math.log10 %cst_2 : f32
        %257 = math.ceil %2 : tensor<16x16x16xf16>
        %cast_56 = tensor.cast %10 : tensor<15xi1> to tensor<?xi1>
        %258 = arith.remsi %c7286_i16, %176 : i16
        %259 = math.exp %7 : tensor<16x16x16xf32>
        %260 = math.log2 %165 : tensor<256x16xf16>
        %261 = vector.broadcast %211 : f32 to vector<16x1xf32>
        %262 = vector.fma %261, %142, %143 : vector<16x1xf32>
        %263 = index.sub %77, %c12
        %264 = math.round %cst_4 : f16
        %265 = tensor.empty() : tensor<16x1xi32>
        %266 = vector.broadcast %c1026596729_i32 : i32 to vector<16x1xi32>
        %267 = vector.gather %265[%c11, %47] [%266], %145, %266 : tensor<16x1xi32>, vector<16x1xi32>, vector<16x1xi1>, vector<16x1xi32> into vector<16x1xi32>
        %268 = affine.apply affine_map<(d0) -> (d0 - 16)>(%255)
        %269 = index.floordivs %205, %175
        %true_57 = arith.constant true
        %false_58 = arith.constant false
        %270 = vector.transfer_read %43[%175, %124, %rank_39], %false_58 {permutation_map = affine_map<(d0, d1, d2) -> (0)>} : tensor<16x16x16xi1>, vector<16xi1>
        %271 = math.atan2 %137, %cst_4 : f16
        %272 = affine.min affine_map<(d0, d1, d2, d3) -> (d2, d1, (d2 ceildiv 16 + d2) * 8, d2)>(%179, %175, %52, %42)
        %273 = math.log1p %21 : tensor<15xf16>
        %from_elements_59 = tensor.from_elements %c7286_i16, %c7286_i16, %c7286_i16, %c7286_i16, %176, %176, %c-17004_i16, %c-17004_i16, %176, %176, %c-17004_i16, %176, %c7286_i16, %c7286_i16, %176 : tensor<15xi16>
        %collapsed_60 = tensor.collapse_shape %5 [[0, 1]] : tensor<16x16xf16> into tensor<256xf16>
        %cast_61 = tensor.cast %expanded_24 : tensor<16x16x16x1xf16> to tensor<?x?x?x?xf16>
        %274 = memref.load %24[%c1] : memref<15xf32>
        %275 = arith.subi %c1099692294_i32, %c1376839441_i32 : i32
        %splat_62 = tensor.splat %cst_0 : tensor<15xf32>
        %cst_63 = arith.constant 1.000000e+00 : f32
        linalg.yield %cst_63 : f32
      }
    %224 = math.ctlz %1 : tensor<16x1xi16>
    %splat_47 = tensor.splat %c-17004_i16 : tensor<16x16xi16>
    %alloc_48 = memref.alloc() : memref<16x16xi16>
    memref.tensor_store %splat_47, %alloc_48 : memref<16x16xi16>
    %225 = arith.muli %c2074_i16, %c2074_i16 : i16
    memref.assume_alignment %82, 2 : memref<f16>
    %226 = math.atan2 %cst, %cst_3 : f32
    %from_elements_49 = tensor.from_elements %false, %true, %true, %true, %false, %false, %false, %true, %true, %false, %false, %false, %true, %true, %true, %false, %true, %false, %false, %false, %false, %false, %false, %true, %false, %false, %false, %false, %true, %true, %true, %true, %true, %true, %true, %false, %true, %true, %true, %false, %false, %true, %false, %false, %false, %true, %false, %true, %false, %false, %false, %false, %true, %false, %false, %false, %true, %true, %false, %true, %false, %true, %true, %true, %false, %false, %true, %false, %false, %true, %false, %true, %true, %true, %false, %false, %false, %false, %true, %true, %false, %true, %false, %false, %false, %false, %false, %false, %true, %true, %false, %false, %true, %false, %true, %false, %false, %true, %true, %false, %false, %false, %true, %false, %true, %true, %false, %false, %false, %false, %true, %true, %false, %false, %true, %false, %false, %false, %false, %true, %true, %false, %false, %true, %true, %true, %true, %false, %true, %false, %false, %false, %true, %true, %false, %false, %false, %false, %false, %false, %false, %false, %true, %true, %true, %true, %true, %true, %true, %false, %false, %false, %false, %false, %false, %false, %true, %false, %true, %true, %false, %false, %true, %true, %false, %true, %false, %true, %true, %false, %true, %false, %true, %true, %false, %false, %false, %true, %false, %true, %true, %false, %true, %false, %true, %false, %true, %true, %false, %false, %false, %true, %true, %true, %false, %true, %false, %false, %true, %false, %true, %false, %false, %false, %false, %true, %true, %true, %false, %true, %true, %true, %true, %true, %false, %false, %true, %false, %true, %true, %true, %false, %false, %false, %true, %false, %true, %false, %false, %false, %false, %true, %false, %false, %false, %true, %false, %false, %false, %false, %false, %false, %true, %true, %true, %true, %true, %false, %true, %false, %true, %false, %false, %false, %true, %false, %true, %false, %false, %true, %false, %false, %false, %false, %false, %true, %false, %true, %false, %true, %true, %true, %true, %true, %false, %false, %false, %true, %false, %false, %false, %true, %true, %false, %true, %false, %false, %false, %true, %false, %false, %false, %false, %true, %true, %false, %true, %true, %true, %true, %true, %false, %true, %true, %false, %true, %false, %false, %true, %true, %true, %false, %false, %false, %false, %true, %false, %true, %true, %true, %true, %true, %true, %false, %false, %false, %false, %true, %false, %true, %false, %false, %true, %true, %false, %false, %false, %true, %false, %false, %true, %false, %true, %true, %true, %false, %false, %true, %true, %false, %false, %true, %false, %true, %false, %true, %false, %true, %false, %true, %true, %true, %true, %true, %false, %false, %true, %false, %false, %false, %false, %false, %true, %false, %true, %true, %false, %false, %true, %true, %false, %false, %false, %true, %false, %true, %false, %true, %false, %true, %false, %false, %true, %true, %true, %true, %false, %false, %false, %true, %false, %true, %true, %true, %true, %false, %true, %true, %false, %false, %false, %false, %true, %true, %false, %true, %false, %false, %false, %false, %true, %false, %true, %false, %true, %true, %false, %true, %true, %false, %true, %false, %false, %true, %true, %false, %false, %true, %false, %false, %false, %true, %true, %true, %true, %false, %true, %true, %true, %true, %false, %true, %false, %false, %true, %true, %false, %false, %true, %false, %true, %false, %false, %true, %false, %false, %false, %true, %false, %false, %false, %true, %false, %true, %false, %false, %true, %true, %true, %true, %true, %false, %true, %true, %false, %true, %false, %false, %true, %true, %true, %true, %false, %true, %true, %true, %false, %true, %false, %false, %true, %true, %true, %false, %true, %false, %true, %false, %true, %true, %true, %false, %true, %false, %true, %true, %false, %false, %false, %false, %false, %false, %true, %false, %true, %true, %true, %false, %true, %true, %false, %true, %true, %false, %false, %true, %true, %true, %false, %false, %true, %false, %true, %true, %false, %false, %true, %false, %true, %false, %false, %true, %true, %false, %true, %false, %false, %true, %false, %false, %false, %false, %false, %true, %true, %false, %true, %true, %true, %true, %false, %true, %false, %true, %false, %false, %false, %false, %true, %true, %true, %false, %false, %false, %false, %false, %false, %false, %true, %true, %false, %true, %false, %true, %true, %false, %false, %false, %true, %false, %true, %false, %true, %true, %false, %true, %false, %true, %false, %false, %false, %false, %false, %true, %true, %true, %true, %true, %true, %false, %false, %false, %true, %false, %true, %false, %true, %false, %true, %true, %false, %false, %true, %true, %true, %false, %false, %false, %false, %false, %true, %false, %false, %true, %false, %true, %false, %false, %false, %false, %true, %false, %true, %true, %true, %false, %true, %false, %false, %false, %false, %true, %false, %false, %false, %true, %true, %true, %false, %false, %false, %false, %false, %true, %true, %true, %false, %false, %true, %false, %true, %true, %true, %true, %true, %true, %false, %false, %true, %true, %true, %true, %true, %false, %true, %true, %false, %true, %true, %true, %true, %true, %false, %false, %true, %true, %false, %true, %true, %true, %false, %false, %false, %false, %true, %true, %false, %false, %false, %false, %false, %false, %false, %false, %true, %true, %true, %false, %true, %true, %false, %false, %true, %true, %true, %true, %false, %true, %true, %false, %true, %true, %false, %true, %true, %false, %true, %false, %true, %false, %false, %true, %true, %true, %false, %false, %false, %true, %true, %true, %false, %false, %false, %true, %true, %true, %true, %true, %true, %false, %true, %true, %true, %true, %false, %true, %false, %true, %true, %false, %true, %true, %false, %false, %false, %true, %false, %false, %true, %true, %true, %false, %false, %true, %true, %false, %true, %true, %false, %true, %false, %true, %true, %true, %false, %true, %false, %false, %true, %false, %false, %false, %true, %false, %true, %false, %false, %true, %true, %true, %false, %false, %false, %true, %true, %true, %true, %true, %false, %false, %true, %false, %true, %false, %true, %false, %true, %true, %false, %false, %true, %true, %false, %true, %false, %false, %false, %false, %true, %false, %true, %true, %true, %false, %true, %true, %true, %true, %false, %false, %false, %true, %true, %false, %true, %true, %false, %true, %true, %true, %false, %false, %false, %true, %false, %true, %true, %false, %false, %true, %false, %false, %false, %false, %false, %true, %true, %false, %false, %false, %false, %false, %true, %false, %true, %true, %true, %true, %false, %true, %true, %true, %true, %false, %false, %false, %true, %true, %false, %false, %false, %true, %false, %true, %false, %false, %true, %true, %false, %false, %true, %false, %false, %true, %true, %true, %false, %true, %true, %false, %true, %false, %false, %false, %true, %true, %false, %true, %true, %false, %true, %true, %false, %true, %true, %true, %false, %false, %false, %false, %true, %false, %true, %true, %false, %true, %true, %true, %true, %true, %false, %false, %true, %false, %false, %false, %false, %true, %true, %false, %false, %true, %false, %true, %false, %true, %true, %true, %true, %true, %false, %true, %true, %false, %false, %true, %false, %false, %false, %true, %true, %false, %true, %true, %true, %true, %true, %false, %false, %false, %true, %false, %false, %true, %true, %false, %false, %false, %false, %true, %false, %true, %false, %true, %false, %false, %true, %true, %true, %false, %true, %true, %true, %true, %true, %true, %false, %true, %false, %false, %false, %false, %false, %false, %true, %false, %true, %false, %true, %false, %true, %true, %false, %true, %true, %true, %true, %false, %true, %true, %true, %true, %false, %false, %true, %true, %true, %true, %true, %false, %true, %true, %false, %false, %false, %false, %false, %true, %true, %false, %false, %true, %false, %true, %true, %false, %false, %true, %true, %false, %false, %false, %false, %false, %true, %false, %false, %true, %true, %false, %true, %true, %true, %true, %true, %false, %true, %true, %false, %true, %false, %false, %false, %false, %true, %false, %false, %true, %true, %true, %true, %true, %false, %true, %true, %true, %true, %true, %true, %true, %true, %true, %false, %false, %true, %true, %true, %false, %false, %true, %false, %true, %true, %true, %false, %true, %true, %false, %false, %false, %false, %false, %true, %false, %true, %true, %true, %true, %false, %true, %true, %false, %false, %false, %true, %false, %false, %false, %false, %true, %true, %false, %false, %true, %true, %false, %false, %true, %true, %false, %true, %false, %false, %true, %true, %true, %true, %true, %true, %true, %false, %true, %true, %false, %false, %false, %false, %true, %true, %false, %true, %false, %false, %true, %false, %false, %true, %true, %false, %true, %false, %false, %false, %false, %true, %false, %true, %false, %false, %false, %true, %false, %false, %false, %true, %false, %true, %false, %true, %true, %true, %false, %false, %false, %true, %false, %true, %false, %false, %true, %false, %false, %false, %true, %true, %false, %false, %false, %false, %false, %true, %true, %false, %true, %false, %true, %false, %false, %false, %true, %false, %true, %false, %false, %true, %false, %false, %true, %true, %true, %true, %false, %true, %true, %false, %true, %false, %true, %false, %false, %false, %false, %false, %false, %true, %true, %false, %true, %false, %true, %true, %true, %false, %false, %true, %false, %true, %false, %true, %true, %false, %true, %false, %false, %true, %true, %true, %false, %true, %false, %true, %false, %true, %true, %true, %false, %false, %true, %false, %true, %false, %false, %false, %true, %true, %false, %false, %false, %true, %true, %false, %true, %false, %true, %false, %true, %false, %false, %false, %false, %false, %true, %true, %true, %false, %false, %true, %true, %false, %false, %false, %false, %true, %true, %true, %false, %false, %true, %false, %false, %false, %true, %false, %false, %true, %false, %false, %false, %true, %false, %true, %true, %true, %true, %false, %false, %true, %true, %false, %false, %false, %false, %true, %false, %false, %false, %true, %false, %true, %false, %false, %true, %false, %false, %true, %false, %true, %true, %true, %true, %false, %false, %false, %true, %false, %false, %false, %true, %true, %false, %false, %true, %true, %false, %true, %true, %true, %false, %false, %true, %false, %true, %true, %false, %false, %true, %false, %false, %false, %false, %false, %false, %true, %false, %true, %true, %true, %false, %true, %false, %true, %false, %false, %true, %true, %true, %false, %false, %true, %false, %false, %true, %false, %true, %false, %true, %false, %true, %false, %true, %true, %true, %true, %true, %true, %false, %true, %true, %true, %true, %false, %true, %false, %true, %false, %false, %true, %false, %false, %true, %true, %false, %true, %false, %false, %false, %false, %true, %true, %true, %false, %false, %true, %false, %false, %false, %false, %false, %false, %true, %false, %true, %true, %true, %false, %false, %false, %false, %true, %true, %true, %true, %false, %true, %false, %true, %false, %true, %false, %true, %true, %true, %false, %true, %true, %true, %true, %true, %false, %true, %true, %true, %true, %false, %true, %false, %true, %false, %false, %true, %true, %true, %true, %true, %true, %false, %false, %false, %false, %true, %true, %false, %false, %false, %false, %true, %true, %true, %false, %true, %false, %true, %true, %false, %false, %false, %false, %false, %false, %false, %true, %false, %true, %true, %true, %true, %false, %false, %false, %false, %true, %false, %true, %true, %false, %false, %false, %true, %false, %false, %true, %true, %false, %false, %true, %true, %true, %true, %true, %false, %true, %false, %false, %false, %false, %false, %false, %true, %false, %true, %false, %true, %true, %false, %false, %true, %false, %false, %true, %true, %false, %true, %false, %false, %true, %true, %false, %true, %false, %false, %true, %true, %true, %true, %true, %true, %true, %false, %false, %true, %false, %false, %false, %true, %false, %false, %true, %false, %false, %false, %false, %true, %false, %true, %false, %true, %true, %false, %true, %false, %true, %true, %false, %false, %false, %false, %true, %false, %true, %false, %true, %true, %false, %false, %false, %true, %false, %true, %true, %true, %true, %true, %true, %true, %false, %true, %true, %true, %true, %true, %true, %true, %true, %true, %false, %true, %true, %true, %true, %true, %true, %false, %true, %false, %true, %false, %false, %true, %true, %false, %false, %true, %false, %true, %false, %false, %true, %true, %false, %false, %true, %false, %true, %false, %false, %true, %false, %true, %true, %false, %true, %false, %true, %false, %false, %false, %false, %false, %false, %true, %true, %true, %true, %false, %true, %true, %false, %true, %false, %false, %true, %false, %true, %false, %true, %false, %true, %false, %true, %false, %false, %false, %false, %false, %true, %false, %false, %true, %true, %true, %false, %true, %false, %true, %false, %false, %false, %false, %false, %false, %true, %false, %true, %true, %true, %false, %true, %true, %false, %false, %true, %true, %true, %true, %false, %true, %false, %true, %false, %true, %false, %true, %true, %false, %true, %false, %true, %false, %true, %false, %true, %false, %false, %false, %true, %false, %false, %false, %false, %true, %true, %true, %true, %true, %true, %true, %true, %true, %true, %true, %false, %false, %true, %false, %true, %false, %true, %false, %true, %false, %false, %false, %true, %true, %false, %false, %false, %false, %true, %false, %true, %false, %true, %true, %false, %false, %true, %false, %true, %false, %false, %true, %true, %true, %true, %false, %true, %false, %false, %true, %true, %true, %false, %false, %true, %true, %false, %true, %false, %true, %true, %true, %true, %false, %true, %true, %true, %false, %false, %false, %false, %false, %false, %false, %true, %false, %true, %false, %true, %true, %false, %true, %false, %false, %false, %true, %false, %false, %false, %false, %false, %true, %false, %true, %false, %false, %false, %true, %false, %true, %true, %true, %false, %true, %false, %false, %false, %false, %true, %false, %true, %true, %false, %false, %true, %true, %true, %false, %false, %false, %true, %false, %true, %false, %false, %true, %true, %true, %false, %false, %false, %false, %true, %true, %true, %true, %true, %true, %true, %true, %false, %true, %true, %false, %false, %true, %true, %true, %true, %false, %false, %false, %false, %false, %false, %false, %true, %true, %true, %false, %false, %false, %true, %true, %false, %false, %true, %true, %true, %false, %false, %false, %true, %true, %true, %true, %false, %false, %true, %false, %false, %true, %false, %true, %true, %true, %true, %false, %false, %false, %true, %false, %true, %true, %true, %false, %false, %true, %true, %false, %true, %true, %false, %false, %false, %false, %true, %true, %false, %false, %false, %true, %false, %false, %true, %true, %true, %false, %true, %false, %false, %false, %true, %true, %false, %true, %true, %false, %false, %true, %true, %false, %true, %false, %true, %true, %false, %false, %false, %true, %false, %false, %false, %true, %true, %false, %false, %false, %false, %false, %false, %true, %false, %false, %false, %true, %true, %false, %false, %false, %false, %true, %true, %false, %false, %true, %false, %false, %false, %true, %false, %true, %true, %true, %false, %true, %true, %true, %false, %false, %false, %false, %false, %false, %false, %false, %true, %false, %false, %true, %false, %false, %true, %false, %true, %false, %false, %true, %false, %false, %true, %true, %false, %false, %false, %false, %false, %false, %true, %true, %true, %true, %false, %false, %false, %true, %false, %false, %false, %true, %false, %true, %true, %false, %false, %true, %true, %true, %true, %true, %true, %true, %false, %true, %true, %true, %false, %true, %false, %true, %true, %false, %true, %true, %true, %false, %true, %true, %false, %fa…
        linalg.yield %c1_i64 : i64
      }
    scf.parallel (%arg2, %arg3) = (%c15, %rank) to (%162, %rank_39) step (%c6, %c15) {
      %246 = math.round %243 : tensor<16x16x16xf16>
      %247 = affine.load %alloc_20[%c10] : memref<15xf16>
      %248 = vector.broadcast %211 : f32 to vector<16x16xf32>
      %249 = vector.fma %248, %248, %248 : vector<16x16xf32>
      %250 = arith.addi %c7286_i16, %c-17004_i16 : i16
      %251 = math.cttz %3 : tensor<16x16xi16>
      %252 = arith.remf %cst_4, %113 : f16
      %253 = arith.maxsi %false, %true : i1
      %254 = tensor.empty() : tensor<16x16xi64>
      %255 = linalg.matmul ins(%13, %135 : tensor<16x16xi64>, tensor<16x16xi64>) outs(%254 : tensor<16x16xi64>) -> tensor<16x16xi64>
      %256 = arith.remf %137, %247 : f16
      %257 = arith.subi %c7286_i16, %c-17004_i16 : i16
      %258 = vector.broadcast %cst : f32 to vector<1xf32>
      %dest_52, %accumulated_value_53 = vector.scan <maxf>, %238, %258 {inclusive = true, reduction_dim = 0 : i64} : vector<6x1xf32>, vector<1xf32>
      %259 = vector.broadcast %c1376839441_i32 : i32 to vector<1xi32>
      %260 = vector.maskedload %alloc_15[%c3, %c6, %c5], %61, %259 : memref<16x16x16xi32>, vector<1xi1>, vector<1xi32> into vector<1xi32>
      %261 = bufferization.to_memref %cast : memref<?x?xf16>
      %262 = affine.apply affine_map<(d0, d1, d2) -> (0)>(%207, %81, %162)
      %263 = scf.if %true -> (i32) {
        %inserted_55 = tensor.insert %cst_4 into %14[%c8, %c9, %c5] : tensor<16x16x16xf16>
        %264 = index.mul %124, %64
        %265 = affine.min affine_map<(d0) -> (d0, d0 + d0 mod 32, d0 + d0 mod 32)>(%210)
        %alloca_56 = memref.alloca() : memref<16x16x16xi64>
        %from_elements_57 = tensor.from_elements %c-60_i16, %c7286_i16, %c7286_i16, %c-60_i16, %176, %c7286_i16, %c-17004_i16, %c-17004_i16, %c-17004_i16, %c-60_i16, %c-60_i16, %c7286_i16, %c-17004_i16, %c7286_i16, %c7286_i16, %c-60_i16, %176, %c-17004_i16, %c-60_i16, %c2074_i16, %c2074_i16, %c-17004_i16, %c-17004_i16, %c7286_i16, %c-60_i16, %176, %c7286_i16, %c-60_i16, %c-60_i16, %176, %c2074_i16, %c-60_i16, %176, %c-60_i16, %c-17004_i16, %c-17004_i16, %176, %c2074_i16, %c2074_i16, %c-60_i16, %c7286_i16, %c-60_i16, %c7286_i16, %c7286_i16, %c-17004_i16, %c2074_i16, %c2074_i16, %c-17004_i16, %c2074_i16, %c-17004_i16, %176, %c-17004_i16, %c-17004_i16, %c-17004_i16, %c7286_i16, %c2074_i16, %c2074_i16, %176, %c-17004_i16, %c7286_i16, %c-17004_i16, %c-17004_i16, %c7286_i16, %c-17004_i16, %c-60_i16, %176, %c7286_i16, %176, %c-60_i16, %c2074_i16, %c2074_i16, %c7286_i16, %c2074_i16, %c-17004_i16, %c-17004_i16, %c-17004_i16, %c2074_i16, %c7286_i16, %c-17004_i16, %c7286_i16, %c2074_i16, %c2074_i16, %176, %176, %176, %c7286_i16, %c-17004_i16, %c2074_i16, %176, %c2074_i16, %c2074_i16, %c2074_i16, %c7286_i16, %176, %176, %c7286_i16, %c-60_i16, %176, %c-60_i16, %c2074_i16, %c-17004_i16, %c-17004_i16, %c-60_i16, %c7286_i16, %c2074_i16, %c2074_i16, %c2074_i16, %c7286_i16, %c-60_i16, %c2074_i16, %c-17004_i16, %176, %c-17004_i16, %c-60_i16, %c-17004_i16, %c2074_i16, %c-17004_i16, %176, %c7286_i16, %c-17004_i16, %c2074_i16, %c-17004_i16, %c2074_i16, %c2074_i16, %c-17004_i16, %176, %c-60_i16, %c-17004_i16, %c7286_i16, %176, %c2074_i16, %c2074_i16, %c7286_i16, %c7286_i16, %c7286_i16, %176, %c7286_i16, %c2074_i16, %176, %c-17004_i16, %c-60_i16, %176, %c-60_i16, %c-17004_i16, %c-60_i16, %c7286_i16, %c7286_i16, %c2074_i16, %c-60_i16, %176, %c2074_i16, %c-60_i16, %c7286_i16, %c7286_i16, %c7286_i16, %c7286_i16, %c-60_i16, %c2074_i16, %c-60_i16, %c2074_i16, %176, %c7286_i16, %c7286_i16, %c-17004_i16, %c-17004_i16, %c7286_i16, %176, %c2074_i16, %c7286_i16, %176, %c-17004_i16, %c2074_i16, %c-17004_i16, %c2074_i16, %c-60_i16, %c7286_i16, %c2074_i16, %c2074_i16, %c7286_i16, %c7286_i16, %c7286_i16, %176, %c-60_i16, %c-17004_i16, %c-60_i16, %c7286_i16, %176, %c-17004_i16, %c-60_i16, %c-60_i16, %c-60_i16, %176, %176, %c2074_i16, %c-17004_i16, %c7286_i16, %c-60_i16, %c-17004_i16, %c7286_i16, %c2074_i16, %c-60_i16, %c7286_i16, %c-17004_i16, %c-17004_i16, %c-17004_i16, %c2074_i16, %c-60_i16, %176, %c-60_i16, %c-17004_i16, %c-60_i16, %176, %c7286_i16, %c-60_i16, %176, %c2074_i16, %c-60_i16, %c-17004_i16, %c-60_i16, %c-17004_i16, %176, %c7286_i16, %c-60_i16, %176, %c-60_i16, %176, %c2074_i16, %176, %c2074_i16, %c2074_i16, %c7286_i16, %c-60_i16, %c-17004_i16, %176, %c7286_i16, %c2074_i16, %c-60_i16, %c2074_i16, %176, %c-17004_i16, %c-60_i16, %c-60_i16, %c-60_i16, %c-60_i16, %c2074_i16, %c7286_i16, %c-17004_i16, %c-60_i16, %c7286_i16, %c7286_i16, %176, %c-60_i16, %c2074_i16, %176, %176, %176, %c2074_i16, %176, %c7286_i16, %c-17004_i16, %176, %c-60_i16, %176, %176, %c-17004_i16, %176, %176, %176, %176, %c2074_i16, %c-17004_i16, %c-17004_i16, %c7286_i16, %c2074_i16, %c2074_i16, %c7286_i16, %c7286_i16, %c2074_i16, %176, %c7286_i16, %c-17004_i16, %c-60_i16, %c7286_i16, %c7286_i16, %c-60_i16, %c-17004_i16, %176, %c7286_i16, %c-60_i16, %176, %c-60_i16, %c7286_i16, %c-60_i16, %c-60_i16, %c-17004_i16, %c7286_i16, %c-17004_i16, %c-60_i16, %c7286_i16, %176, %c2074_i16, %c-17004_i16, %176, %c-17004_i16, %c-17004_i16, %c2074_i16, %c-60_i16, %c-60_i16, %c7286_i16, %c-17004_i16, %c7286_i16, %c7286_i16, %c7286_i16, %c7286_i16, %c-60_i16, %c-17004_i16, %c-17004_i16, %c2074_i16, %176, %c2074_i16, %c2074_i16, %c-17004_i16, %c-17004_i16, %c-60_i16, %c-60_i16, %176, %c2074_i16, %176, %c-60_i16, %c7286_i16, %c7286_i16, %176, %c7286_i16, %c7286_i16, %c-17004_i16, %c-60_i16, %c-17004_i16, %c7286_i16, %c-60_i16, %176, %c7286_i16, %176, %c2074_i16, %c7286_i16, %c2074_i16, %c-17004_i16, %c-60_i16, %c7286_i16, %c-17004_i16, %176, %c2074_i16, %c2074_i16, %c7286_i16, %c-17004_i16, %c-17004_i16, %176, %176, %c-60_i16, %c2074_i16, %c-17004_i16, %c2074_i16, %c-60_i16, %176, %c7286_i16, %c2074_i16, %c2074_i16, %c2074_i16, %c-60_i16, %c7286_i16, %c7286_i16, %c-17004_i16, %c2074_i16, %c-60_i16, %c2074_i16, %c-60_i16, %c-60_i16, %c7286_i16, %c2074_i16, %c-17004_i16, %c2074_i16, %c-60_i16, %c-60_i16, %c-60_i16, %c-60_i16, %c7286_i16, %c7286_i16, %176, %c7286_i16, %176, %c2074_i16, %c-17004_i16, %c2074_i16, %c-60_i16, %c7286_i16, %c-60_i16, %c-17004_i16, %176, %c-17004_i16, %c-60_i16, %c-60_i16, %c2074_i16, %c7286_i16, %c7286_i16, %176, %c-17004_i16, %c-60_i16, %c7286_i16, %c-17004_i16, %c-60_i16, %176, %c-17004_i16, %c-60_i16, %c7286_i16, %176, %176, %c-17004_i16, %176, %c2074_i16, %c-60_i16, %c2074_i16, %176, %c-60_i16, %176, %c2074_i16, %c-17004_i16, %c7286_i16, %c2074_i16, %c7286_i16, %c-60_i16, %c-60_i16, %c-60_i16, %176, %c2074_i16, %c2074_i16, %176, %c-60_i16, %c7286_i16, %c2074_i16, %c-60_i16, %c-60_i16, %176, %c-60_i16, %c-60_i16, %c2074_i16, %c-60_i16, %c-17004_i16, %c7286_i16, %c-17004_i16, %c7286_i16, %c-17004_i16, %c2074_i16, %176, %c2074_i16, %176, %c2074_i16, %c-60_i16, %176, %c-60_i16, %176, %c7286_i16, %c7286_i16, %c-60_i16, %c-60_i16, %c-17004_i16, %176, %176, %176, %c2074_i16, %c-60_i16, %c7286_i16, %c2074_i16, %c2074_i16, %c7286_i16, %176, %c7286_i16, %c-17004_i16, %c-17004_i16, %c-17004_i16, %c-60_i16, %176, %c-17004_i16, %c-17004_i16, %c-60_i16, %c-60_i16, %c-17004_i16, %c-17004_i16, %c-17004_i16, %c2074_i16, %c7286_i16, %c2074_i16, %c7286_i16, %176, %c7286_i16, %c-60_i16, %c7286_i16, %c-17004_i16, %c7286_i16, %176, %176, %176, %c-17004_i16, %c-17004_i16, %c2074_i16, %176, %c-17004_i16, %c-17004_i16, %c-17004_i16, %c-17004_i16, %176, %c2074_i16, %c7286_i16, %c2074_i16, %c7286_i16, %c2074_i16, %c-17004_i16, %c2074_i16, %176, %c-17004_i16, %c2074_i16, %c7286_i16, %c7286_i16, %c-60_i16, %c2074_i16, %c-60_i16, %c-60_i16, %176, %c-17004_i16, %c-17004_i16, %c7286_i16, %176, %c2074_i16, %c7286_i16, %176, %c7286_i16, %c-60_i16, %c-17004_i16, %176, %176, %c2074_i16, %c-17004_i16, %c7286_i16, %176, %c-60_i16, %c-17004_i16, %176, %c2074_i16, %176, %c-17004_i16, %c2074_i16, %c7286_i16, %c-17004_i16, %176, %c7286_i16, %c-17004_i16, %c-17004_i16, %176, %c7286_i16, %176, %176, %c-17004_i16, %c-17004_i16, %c7286_i16, %c2074_i16, %c7286_i16, %c2074_i16, %c-60_i16, %c-60_i16, %c7286_i16, %176, %176, %176, %c-60_i16, %176, %c7286_i16, %c2074_i16, %176, %176, %c2074_i16, %c-60_i16, %176, %c-60_i16, %c-17004_i16, %c-17004_i16, %c7286_i16, %c2074_i16, %c7286_i16, %c7286_i16, %176, %176, %c2074_i16, %c-60_i16, %c7286_i16, %176, %c-60_i16, %c-17004_i16, %c-17004_i16, %c2074_i16, %c-60_i16, %176, %c-60_i16, %c2074_i16, %c7286_i16, %c2074_i16, %176, %c2074_i16, %c-60_i16, %c2074_i16, %c-17004_i16, %c-60_i16, %c7286_i16, %c7286_i16, %c2074_i16, %c-17004_i16, %c-60_i16, %c7286_i16, %c7286_i16, %c2074_i16, %176, %176, %c2074_i16, %c-60_i16, %c7286_i16, %c-17004_i16, %c-60_i16, %176, %176, %c-17004_i16, %c2074_i16, %176, %176, %176, %c2074_i16, %c2074_i16, %c2074_i16, %c7286_i16, %c-60_i16, %176, %176, %c-60_i16, %c2074_i16, %c-60_i16, %176, %c2074_i16, %c-17004_i16, %176, %c7286_i16, %c2074_i16, %c-60_i16, %c-60_i16, %c2074_i16, %176, %176, %c-60_i16, %c-17004_i16, %c2074_i16, %c2074_i16, %176, %c7286_i16, %c-60_i16, %176, %c7286_i16, %c7286_i16, %c-60_i16, %c7286_i16, %c7286_i16, %c7286_i16, %c-17004_i16, %c7286_i16, %c7286_i16, %c7286_i16, %c-60_i16, %176, %176, %176, %c7286_i16, %176, %c-60_i16, %c2074_i16, %c-17004_i16, %c-17004_i16, %c2074_i16, %c-60_i16, %c-17004_i16, %176, %176, %c7286_i16, %176, %c-60_i16, %c-60_i16, %c-60_i16, %c-60_i16, %c-17004_i16, %c-17004_i16, %176, %c-17004_i16, %176, %c-17004_i16, %176, %c-60_i16, %c-17004_i16, %c-60_i16, %c2074_i16, %c-60_i16, %c-17004_i16, %c2074_i16, %c2074_i16, %c-17004_i16, %176, %c7286_i16, %c7286_i16, %c7286_i16, %c2074_i16, %c-60_i16, %176, %c2074_i16, %c-17004_i16, %c-60_i16, %176, %c-17004_i16, %c2074_i16, %c7286_i16, %c-17004_i16, %c2074_i16, %c7286_i16, %c7286_i16, %c-60_i16, %c-60_i16, %c-60_i16, %c-60_i16, %176, %c2074_i16, %c2074_i16, %176, %176, %c2074_i16, %176, %c7286_i16, %c-17004_i16, %c-17004_i16, %176, %c7286_i16, %176, %c-60_i16, %c7286_i16, %c2074_i16, %c7286_i16, %c-60_i16, %c-17004_i16, %c-17004_i16, %176, %c-17004_i16, %c7286_i16, %c-60_i16, %c7286_i16, %c-17004_i16, %c-60_i16, %176, %c-60_i16, %c-60_i16, %c2074_i16, %c2074_i16, %c7286_i16, %c-60_i16, %c-17004_i16, %c2074_i16, %c7286_i16, %c-60_i16, %c7286_i16, %c7286_i16, %c7286_i16, %c7286_i16, %176, %c-17004_i16, %c-60_i16, %c-17004_i16, %c-60_i16, %c-17004_i16, %c7286_i16, %c2074_i16, %c2074_i16, %c7286_i16, %c7286_i16, %176, %c-60_i16, %c7286_i16, %176, %c-60_i16, %176, %176, %c-60_i16, %c-17004_i16, %c2074_i16, %c2074_i16, %c-17004_i16, %c-60_i16, %c2074_i16, %c-60_i16, %c-17004_i16, %c2074_i16, %c-60_i16, %c-17004_i16, %c2074_i16, %c7286_i16, %176, %c-60_i16, %c-60_i16, %c7286_i16, %c7286_i16, %c-60_i16, %c-17004_i16, %c-17004_i16, %176, %c7286_i16, %c-60_i16, %c7286_i16, %c7286_i16, %c-17004_i16, %c-60_i16, %c2074_i16, %176, %c2074_i16, %c7286_i16, %c-60_i16, %c-60_i16, %c2074_i16, %c-17004_i16, %c2074_i16, %176, %c2074_i16, %c-60_i16, %c7286_i16, %176, %c2074_i16, %c2074_i16, %c2074_i16, %c-17004_i16, %176, %c2074_i16, %c-60_i16, %176, %c2074_i16, %c2074_i16, %c-17004_i16, %c7286_i16, %176, %c-60_i16, %c-60_i16, %c7286_i16, %c-17004_i16, %c-60_i16, %c7286_i16, %c7286_i16, %176, %c-17004_i16, %c2074_i16, %c-60_i16, %c-17004_i16, %c7286_i16, %c2074_i16, %c7286_i16, %c-60_i16, %176, %c7286_i16, %c2074_i16, %c2074_i16, %c-17004_i16, %176, %c7286_i16, %c7286_i16, %c7286_i16, %176, %c-17004_i16, %c7286_i16, %176, %c-60_i16, %c-17004_i16, %176, %176, %c7286_i16, %c-60_i16, %c2074_i16, %c7286_i16, %176, %176, %c-17004_i16, %c-60_i16, %c-60_i16, %c-60_i16, %176, %c-60_i16, %176, %c-17004_i16, %c2074_i16, %c-17004_i16, %176, %c7286_i16, %c2074_i16, %c-60_i16, %c-60_i16, %c2074_i16, %c2074_i16, %176, %c2074_i16, %176, %c-60_i16, %176, %c-17004_i16, %c2074_i16, %c2074_i16, %c-17004_i16, %c-17004_i16, %c-60_i16, %c7286_i16, %176, %176, %c-60_i16, %c-17004_i16, %c2074_i16, %176, %176, %c2074_i16, %c-17004_i16, %c2074_i16, %c-60_i16, %176, %176, %c-60_i16, %c7286_i16, %c-17004_i16, %c7286_i16, %c-60_i16, %c-60_i16, %c-60_i16, %c2074_i16, %c7286_i16, %c7286_i16, %c-60_i16, %c-17004_i16, %c-60_i16, %176, %c2074_i16, %c2074_i16, %c-17004_i16, %c2074_i16, %c2074_i16, %c-60_i16, %c-60_i16, %176, %c7286_i16, %c7286_i16, %c-17004_i16, %c2074_i16, %c-60_i16, %c2074_i16, %176, %c-17004_i16, %c-17004_i16, %c2074_i16, %c-60_i16, %c2074_i16, %c-17004_i16, %176, %c-60_i16, %c7286_i16, %c2074_i16, %c7286_i16, %c-17004_i16, %c-60_i16, %c2074_i16, %c7286_i16, %c-17004_i16, %c7286_i16, %c-17004_i16, %c-17004_i16, %176, %c-60_i16, %c-17004_i16, %176, %176, %176, %c7286_i16, %c-17004_i16, %176, %c-17004_i16, %c-17004_i16, %176, %c7286_i16, %c-60_i16, %176, %c7286_i16, %c2074_i16, %c2074_i16, %c-60_i16, %176, %c-60_i16, %c7286_i16, %c-17004_i16, %c-60_i16, %176, %c-17004_i16, %c-17004_i16, %c7286_i16, %c-17004_i16, %176, %c-17004_i16, %c2074_i16, %c7286_i16, %c-17004_i16, %c-17004_i16, %c-60_i16, %c7286_i16, %c-17004_i16, %176, %c-17004_i16, %c-17004_i16, %c7286_i16, %c-17004_i16, %c2074_i16, %c-60_i16, %c-17004_i16, %c2074_i16, %c2074_i16, %176, %c-17004_i16, %c7286_i16, %176, %c-17004_i16, %c7286_i16, %c-60_i16, %c-60_i16, %c7286_i16, %176, %c7286_i16, %c-60_i16, %176, %c2074_i16, %176, %c7286_i16, %176, %176, %176, %176, %c-17004_i16, %c7286_i16, %c2074_i16, %176, %c7286_i16, %c-60_i16, %176, %c-60_i16, %c7286_i16, %c-60_i16, %c2074_i16, %c7286_i16, %176, %c-60_i16, %c-17004_i16, %176, %c-60_i16, %176, %c2074_i16, %c7286_i16, %c-17004_i16, %176, %c2074_i16, %c2074_i16, %176, %c7286_i16, %c-17004_i16, %c-17004_i16, %c-60_i16, %c7286_i16, %176, %c-60_i16, %176, %c2074_i16, %c-17004_i16, %c2074_i16, %176, %c-60_i16, %c7286_i16, %c2074_i16, %c-17004_i16, %176, %c-60_i16, %c2074_i16, %c2074_i16, %c7286_i16, %c-17004_i16, %c-60_i16, %c7286_i16, %c-60_i16, %c-60_i16, %c7286_i16, %c-60_i16, %176, %c-17004_i16, %176, %c-17004_i16, %c-17004_i16, %c-17004_i16, %c-17004_i16, %176, %c-17004_i16, %c-17004_i16, %c2074_i16, %176, %c-60_i16, %176, %c-60_i16, %c-60_i16, %c-17004_i16, %c-60_i16, %176, %176, %176, %c2074_i16, %c7286_i16, %c-17004_i16, %c-60_i16, %c-60_i16, %c7286_i16, %c2074_i16, %c7286_i16, %c7286_i16, %c2074_i16, %176, %c7286_i16, %176, %c2074_i16, %c-17004_i16, %c7286_i16, %c-60_i16, %c2074_i16, %176, %c-17004_i16, %c-17004_i16, %176, %c-60_i16, %c-60_i16, %c-60_i16, %c7286_i16, %c-60_i16, %c-17004_i16, %176, %176, %c-17004_i16, %c-17004_i16, %c-17004_i16, %176, %176, %c2074_i16, %c-17004_i16, %c-17004_i16, %c7286_i16, %c-60_i16, %c2074_i16, %c2074_i16, %c7286_i16, %c7286_i16, %c-60_i16, %c2074_i16, %c-60_i16, %c2074_i16, %c-60_i16, %c-17004_i16, %c-17004_i16, %c2074_i16, %c-60_i16, %c7286_i16, %c2074_i16, %c-60_i16, %c-17004_i16, %c2074_i16, %c7286_i16, %176, %176, %c-60_i16, %c-17004_i16, %c-60_i16, %c-60_i16, %c2074_i16, %c-60_i16, %c2074_i16, %176, %c2074_i16, %c-60_i16, %176, %c2074_i16, %c7286_i16, %c-60_i16, %c-60_i16, %c-17004_i16, %c-60_i16, %c7286_i16, %c-60_i16, %c-17004_i16, %176, %c-60_i16, %c7286_i16, %c2074_i16, %c-60_i16, %176, %176, %176, %c-60_i16, %c-60_i16, %c-60_i16, %c7286_i16, %c7286_i16, %176, %176, %c2074_i16, %c7286_i16, %176, %c2074_i16, %c7286_i16, %176, %176, %c-60_i16, %c7286_i16, %176, %c-60_i16, %c7286_i16, %c7286_i16, %176, %176, %c7286_i16, %c7286_i16, %c2074_i16, %c-60_i16, %c7286_i16, %176, %c-17004_i16, %176, %c2074_i16, %c-17004_i16, %c7286_i16, %c2074_i16, %c7286_i16, %c-17004_i16, %c7286_i16, %c2074_i16, %c-60_i16, %c-17004_i16, %c-17004_i16, %c7286_i16, %c2074_i16, %c-17004_i16, %c2074_i16, %c7286_i16, %c2074_i16, %c-17004_i16, %c2074_i16, %c7286_i16, %c-17004_i16, %c7286_i16, %c2074_i16, %c2074_i16, %c-17004_i16, %c-17004_i16, %c7286_i16, %c-60_i16, %176, %c2074_i16, %c7286_i16, %176, %c7286_i16, %176, %c-17004_i16, %c7286_i16, %c-17004_i16, %176, %c7286_i16, %c-60_i16, %c-17004_i16, %176, %c-17004_i16, %c-60_i16, %c7286_i16, %c-60_i16, %c2074_i16, %c2074_i16, %c7286_i16, %c-60_i16, %c-17004_i16, %c-60_i16, %c-60_i16, %c7286_i16, %c2074_i16, %176, %c7286_i16, %176, %c2074_i16, %c2074_i16, %c7286_i16, %c-60_i16, %176, %176, %c-17004_i16, %c-60_i16, %c-17004_i16, %c-17004_i16, %c-60_i16, %c-17004_i16, %c2074_i16, %176, %c-17004_i16, %c-17004_i16, %c7286_i16, %c7286_i16, %c2074_i16, %176, %c-60_i16, %c-60_i16, %176, %176, %176, %c7286_i16, %c7286_i16, %c2074_i16, %c-17004_i16, %c-60_i16, %c2074_i16, %176, %c7286_i16, %176, %c2074_i16, %c-60_i16, %c-17004_i16, %176, %c-60_i16, %c7286_i16, %c7286_i16, %c7286_i16, %c7286_i16, %c-60_i16, %c-17004_i16, %c7286_i16, %c2074_i16, %176, %176, %c2074_i16, %c7286_i16, %c2074_i16, %c2074_i16, %176, %c-17004_i16, %c2074_i16, %c-60_i16, %c-17004_i16, %c-17004_i16, %c-60_i16, %c-60_i16, %c-60_i16, %c-17004_i16, %c-60_i16, %c-60_i16, %c2074_i16, %c-17004_i16, %c7286_i16, %176, %c-17004_i16, %c7286_i16, %176, %c7286_i16, %c-17004_i16, %c2074_i16, %176, %c-17004_i16, %176, %c2074_i16, %c-60_i16, %c2074_i16, %c-17004_i16, %c-17004_i16, %c-60_i16, %c-17004_i16, %c7286_i16, %c2074_i16, %176, %c-60_i16, %176, %c7286_i16, %176, %c-60_i16, %c7286_i16, %176, %c-60_i16, %c-60_i16, %176, %c-60_i16, %c2074_i16, %c2074_i16, %176, %176, %c7286_i16, %176, %176, %c-60_i16, %176, %c2074_i16, %176, %176, %176, %176, %c7286_i16, %c7286_i16, %c2074_i16, %c2074_i16, %c-17004_i16, %c2074_i16, %c2074_i16, %176, %c-60_i16, %c-60_i16, %c7286_i16, %c7286_i16, %c-17004_i16, %176, %c7286_i16, %c-17004_i16, %c-17004_i16, %c-17004_i16, %c-17004_i16, %176, %c-60_i16, %c-60_i16, %176, %176, %c-60_i16, %176, %c2074_i16, %176, %c-17004_i16, %c7286_i16, %c2074_i16, %c7286_i16, %c-60_i16, %176, %c-17004_i16, %c2074_i16, %c2074_i16, %c-17004_i16, %c-60_i16, %c-17004_i16, %c-17004_i16, %c-17004_i16, %c-17004_i16, %c7286_i16, %176, %c-60_i16, %c-17004_i16, %c-17004_i16, %c-60_i16, %c7286_i16, %c7286_i16, %c7286_i16, %c-60_i16, %c7286_i16, %c7286_i16, %c2074_i16, %c-17004_i16, %c2074_i16, %c7286_i16, %c7286_i16, %c7286_i16, %c-60_i16, %c2074_i16, %c-60_i16, %c7286_i16, %c-60_i16, %c-60_i16, %176, %c2074_i16, %c7286_i16, %c7286_i16, %c-17004_i16, %c-17004_i16, %c-17004_i16, %c7286_i16, %c7286_i16, %c7286_i16, %c-60_i16, %176, %c2074_i16, %176, %c-60_i16, %c7286_i16, %c-60_i16, %c7286_i16, %c-17004_i16, %c2074_i16, %c2074_i16, %c7286_i16, %c-17004_i16, %c7286_i16, %c7286_i16, %c-60_i16, %c-17004_i16, %c-17004_i16, %c7286_i16, %c2074_i16, %c-17004_i16, %176, %176, %c-60_i16, %c-17004_i16, %c-60_i16, %c7286_i16, %c-17004_i16, %c7286_i16, %c-17004_i16, %c7286_i16, %c-17004_i16, %176, %c-60_i16, %c-60_i16, %c-17004_i16, %c-17004_i16, %176, %176, %c-60_i16, %c-17004_i16, %c-60_i16, %176, %c-17004_i16, %c2074_i16, %c2074_i16, %c2074_i16, %c-60_i16, %c2074_i16, %c2074_i16, %c-17004_i16, %c2074_i16, %c7286_i16, %c2074_i16, %c-17004_i16, %c2074_i16, %c-17004_i16, %c2074_i16, %c7286_i16, %c7286_i16, %c7286_i16, %c7286_i16, %c-60_i16, %176, %c-60_i16, %c2074_i16, %c-60_i16, %176, %c7286_i16, %c2074_i16, %c2074_i16, %c2074_i16, %c-60_i16, %c7286_i16, %c-17004_i16, %c-17004_i16, %c-60_i16, %c-60_i16, %176, %c-60_i16, %c-17004_i16, %c2074_i16, %c-60_i16, %c-60_i16, %c-60_i16, %c2074_i16, %c7286_i16, %c-17004_i16, %c7286_i16, %c-17004_i16, %c-17004_i16, %c2074_i16, %c-17004_i16, %c7286_i16, %c2074_i16, %c2074_i16, %c-60_i16, %c2074_i16, %c-17004_i16, %c-60_i16, %176, %176, %c7286_i16, %c7286_i16, %c-60_i16, %176, %176, %c2074_i16, %c-17004_i16, %c7286_i16, %c-17004_i16, %c-17004_i16, %c-60_i16, %c-60_i16, %c-17004_i16, %c7286_i16, %c-60_i16, %c2074_i16, %c-17004_i16, %c2074_i16, %c-60_i16, %176, %176, %c2074_i16, %c-60_i16, %c-17004_i16, %c7286_i16, %176, %c2074_i16, %c-60_i16, %176, %c2074_i16, %176, %c-17004_i16, %c-17004_i16, %c2074_i16, %c-17004_i16, %c-60_i16, %c-60_i16, %c2074_i16, %176, %c7286_i16, %c7286_i16, %176, %c7286_i16, %176, %176, %c-17004_i16, %c2074_i16, %c2074_i16, %c7286_i16, %c7286_i16, %176, %176, %c-60_i16, %c2074_i16, %c7286_i16, %c-60_i16, %c2074_i16, %c-60_i16, %c7286_i16, %c7286_i16, %c2074_i16, %c7286_i16, %176, %c-60_i16, %c2074_i16, %c2074_i16, %c2074_i16, %c-60_i16, %176, %c-60_i16, %c7286_i16, %c-17004_i16, %c-17004_i16, %c-17004_i16, %176, %c2074_i16, %c-60_i16, %c7286_i16, %c-17004_i16, %c-60_i16, %c2074_i16, %c7286_i16, %c-60_i16, %c7286_i16, %c-60_i16, %c-60_i16, %c2074_i16, %c7286_i16, %c-17004_i16, %c2074_i16, %176, %176, %c2074_i16, %176, %c2074_i16, %176, %c7286_i16, %c2074_i16, %176, %c-17004_i16, %c2074_i16, %176, %c-60_i16, %c7286_i16, %c2074_i16, %c2074_i16, %c2074_i16, %c7286_i16, %176, %176, %c2074_i16, %c-60_i16, %c-60_i16, %c2074_i16, %c-17004_i16, %176, %c7286_i16, %c2074_i16, %c-60_i16, %c2074_i16, %c2074_i16, %176, %c7286_i16, %c-17004_i16, %c2074_i16, %176, %c-17004_i16, %c7286_i16, %c-60_i16, %c2074_i16, %c-60_i16, %176, %c-17004_i16, %c-60_i16, %176, %c7286_i16, %c-60_i16, %c-17004_i16, %c7286_i16, %c7286_i16, %c-17004_i16, %c2074_i16, %c-60_i16, %c2074_i16, %c2074_i16, %c-17004_i16, %c-17004_i16, %c7286_i16, %c-60_i16, %176, %c2074_i16, %176, %c2074_i16, %c2074_i16, %c-17004_i16, %c-17004_i16, %c-17004_i16, %c-17004_i16, %c-17004_i16, %c-60_i16, %c-17004_i16, %176, %c2074_i16, %c-17004_i16, %c-17004_i16, %c-60_i16, %c7286_i16, %176, %c2074_i16, %176, %c7286_i16, %176, %c2074_i16, %176, %c-60_i16, %c7286_i16, %c-17004_i16, %c-17004_i16, %c-17004_i16, %c-17004_i16, %c-17004_i16, %c7286_i16, %176, %c-60_i16, %c-60_i16, %c-60_i16, %c-17004_i16, %c7286_i16, %176, %c7286_i16, %c-17004_i16, %c-17004_i16, %c2074_i16, %c2074_i16, %c7286_i16, %c2074_i16, %c7286_i16, %176, %c-17004_i16, %c-17004_i16, %c-60_i16, %c-60_i16, %c2074_i16, %c7286_i16, %176, %c-17004_i16, %c7286_i16, %c2074_i16, %c-17004_i16, %176, %c2074_i16, %c-17004_i16, %176, %176, %c-60_i16, %c-17004_i16, %c7286_i16, %176, %c-60_i16, %c-17004_i16, %c7286_i16, %c-17004_i16, %c-60_i16, %c7286_i16, %c2074_i16, %c-60_i16, %c7286_i16, %c-17004_i16, %c7286_i16, %c2074_i16, %c-60_i16, %c-17004_i16, %c2074_i16, %c-60_i16, %c-17004_i16, %176, %c2074_i16, %c-60_i16, %c-17004_i16, %c7286_i16, %c2074_i16, %c7286_i16, %176, %c-17004_i16, %c2074_i16, %c7286_i16, %176, %c-17004_i16, %c2074_i16, %c2074_i16, %c-17004_i16, %c-17004_i16, %c7286_i16, %c-17004_i16, %c2074_i16, %c-60_i16, %176, %c-60_i16, %176, %c-17004_i16, %c-17004_i16, %c2074_i16, %c2074_i16, %c-17004_i16, %176, %c7286_i16, %c2074_i16, %c2074_i16, %c7286_i16, %c7286_i16, %c-60_i16, %c7286_i16, %c-60_i16, %c-17004_i16, %c7286_i16, %176, %c-60_i16, %176, %176, %c-17004_i16, %c-60_i16, %c-60_i16, %176, %c-17004_i16, %c-60_i16, %c2074_i16, %c-60_i16, %176, %c-60_i16, %c2074_i16, %176, %c2074_i16, %c-17004_i16, %c-17004_i16, %c7286_i16, %c-17004_i16, %c-17004_i16, %176, %c7286_i16, %c7286_i16, %c-17004_i16, %c-17004_i16, %c-60_i16, %c7286_i16, %c-60_i16, %c2074_i16, %176, %c2074_i16, %176, %176, %c-17004_i16, %176, %c2074_i16, %c-17004_i16, %c7286_i16, %c-17004_i16, %c7286_i16, %c-17004_i16, %c-60_i16, %c-17004_i16, %c-17004_i16, %c-17004_i16, %c-60_i16, %c7286_i16, %c-60_i16, %c-60_i16, %176, %c7286_i16, %c-17004_i16, %176, %c2074_i16, %c-60_i16, %c7286_i16, %176, %c2074_i16, %c-17004_i16, %176, %c-17004_i16, %c-60_i16, %c-17004_i16, %c-60_i16, %c-60_i16, %c-17004_i16, %c-60_i16, %c-60_i16, %c2074_i16, %c7286_i16, %c-17004_i16, %c-60_i16, %c2074_i16, %c-17004_i16, %c7286_i16, %c-60_i16, %c-60_i16, %c7286_i16, %c7286_i16, %c-17004_i16, %c2074_i16, %176, %c2074_i16, %176, %176, %c-60_i16, %c2074_i16, %c-17004_i16, %176, %c2074_i16, %c-60_i16, %c-60_i16, %c-17004_i16, %c-17004_i16, %c7286_i16, %c-17004_i16, %c2074_i16, %c-60_i16, %176, %c2074_i16, %176, %176, %176, %c7286_i16, %c7286_i16, %176, %c-17004_i16, %c-17004_i16, %c7286_i16, %176, %c-60_i16, %c2074_i16, %c-17004_i16, %c-60_i16, %176, %c-17004_i16, %c-60_i16, %c-17004_i16, %c-60_i16, %176, %176, %c7286_i16, %c2074_i16, %c2074_i16, %c-60_i16, %176, %c2074_i16, %c7286_i16, %c-17004_i16, %176, %c-60_i16, %c-17004_i16, %c2074_i16, %c-17004_i16, %c2074_i16, %c2074_i16, %c7286_i16, %c-60_i16, %c7286_i16, %c7286_i16, %176, %c-60_i16, %c7286_i16, %c-17004_i16, %176, %c-17004_i16, %c2074_i16, %c2074_i16, %c-17004_i16, %176, %c-60_i16, %c-17004_i16, %c-17004_i16, %c7286_i16, %c2074_i16, %c-17004_i16, %c2074_i16, %c-60_i16, %c-60_i16, %176, %c7286_i16, %c7286_i16, %c7286_i16, %c-17004_i16, %c2074_i16, %c2074_i16, %c-60_i16, %c-60_i16, %c-60_i16, %c2074_i16, %176, %c-60_i16, %c-60_i16, %176, %c2074_i16, %c-60_i16, %c2074_i16, %c-60_i16, %c-60_i16, %c-17004_i16, %c-17004_i16, %c2074_i16, %c-17004_i16, %c7286_i16, %c2074_i16, %c-60_i16, %c-17004_i16, %c-60_i16, %c7286_i16, %c-60_i16, %176, %c-60_i16, %c-17004_i16, %c-60_i16, %c7286_i16, %c-17004_i16, %c-60_i16, %c7286_i16, %c2074_i16, %c-60_i16, %c2074_i16, %176, %c7286_i16, %c7286_i16, %c7286_i16, %176, %c2074_i16, %176, %176, %c7286_i16, %c-17004_i16, %c-17004_i16, %c-60_i16, %c-60_i16, %c-17004_i16, %c-60_i16, %176, %c-17004_i16, %c-17004_i16, %c2074_i16, %176, %c-60_i16, %176, %c2074_i16, %176, %c-60_i16, %c2074_i16, %c2074_i16, %c2074_i16, %c7286_i16, %c7286_i16, %c-60_i16, %c7286_i16, %176, %176, %c7286_i16, %c7286_i16, %c7286_i16, %c2074_i16, %c7286_i16, %176, %c-17004_i16, %c2074_i16, %c2074_i16, %c2074_i16, %c7286_i16, %c-17004_i16, %c-60_i16, %c7286_i16, %c-17004_i16, %176, %c2074_i16, %c-60_i16, %c-60_i16, %c-17004_i16, %c2074_i16, %176, %c2074_i16, %c7286_i16, %c-60_i16, %c-60_i16, %176, %c7286_i16, %c7286_i16, %176, %176, %176, %c7286_i16, %c-17004_i16, %c-60_i16, %c-60_i16, %c-17004_i16, %c2074_i16, %c-17004_i16, %176, %c7286_i16, %c-60_i16, %c2074_i16, %c-17004_i16, %c-17004_i16, %c-60_i16, %c-17004_i16, %176, %c-60_i16, %c-60_i16, %c-17004_i16, %c-17004_i16, %c2074_i16, %c-17004_i16, %c2074_i16, %c-60_i16, %c7286_i16, %c7286_i16, %c2074_i16, %c-60_i16, %c2074_i16, %176, %c-17004_i16, %c7286_i16, %c-60_i16, %176, %176, %176, %c2074_i16, %c7286_i16, %176, %c2074_i16, %c7286_i16, %c7286_i16, %176, %c2074_i16, %176, %c-60_i16, %176, %c7286_i16, %176, %c2074_i16, %176, %c2074_i16, %c7286_i16, %c-60_i16, %c-60_i16, %c-17004_i16, %c7286_i16, %176, %c2074_i16, %c2074_i16, %c-60_i16, %c7286_i16, %c-60_i16, %c-17004_i16, %c-60_i16, %c7286_i16, %c2074_i16, %c-60_i16, %c7286_i16, %c2074_i16, %c7286_i16, %c-60_i16, %c-17004_i16, %c2074_i16, %c-60_i16, %c2074_i16, %c2074_i16, %c7286_i16, %c7286_i16, %176, %c-17004_i16, %c7286_i16, %c-17004_i16, %c-60_i16, %c7286_i16, %c2074_i16, %176, %c2074_i16, %176, %c-60_i16, %c7286_i16, %c7286_i16, %c7286_i16, %c-60_i16, %176, %176, %c7286_i16, %c2074_i16, %c-60_i16, %c7286_i16, %176, %176, %176, %176, %176, %c7286_i16, %c-17004_i16, %c-60_i16, %176, %c-17004_i16, %c-17004_i16, %c-17004_i16, %c-60_i16, %c-60_i16, %c2074_i16, %c-17004_i16, %c-60_i16, %176, %c-17004_i16, %c-17004_i16, %c-17004_i16, %c2074_i16, %c7286_i16, %c-17004_i16, %c7286_i16, %c7286_i16, %c-17004_i16, %c2074_i16, %176, %c7286_i16, %c2074_i16, %c7286_i16, %c-17004_i16, %c7286_i16, %176, %c2074_i16, %c2074_i16, %c2074_i16, %176, %c2074_i16, %c7286_i16, %c7286_i16, %c7286_i16, %176, %c7286_i16, %c2074_i16, %c-60_i16, %c-17004_i16, %c7286_i16, %c7286_i16, %176, %c-60_i16, %c2074_i16, %c-60_i16, %c-17004_i16, %c-17004_i16, %c-17004_i16, %c2074_i16, %c2074_i16, %c-60_i16, %c7286_i16, %c-17004_i16, %c-17004_i16, %c-17004_i16, %c7286_i16, %176, %c7286_i16, %176, %c-60_i16, %c-60_i16, %c-17004_i16, %c-17004_i16, %c7286_i16, %176, %c-60_i16, %c2074_i16, %c-60_i16, %c-17004_i16, %176, %c-17004_i16, %c-17004_i16, %c2074_i16, %c7286_i16, %c7286_i16, %c-60_i16, %176, %c2074_i16, %c-17004_i16, %c-17004_i16, %c2074_i16, %c-60_i16, %176, %c7286_i16, %c7286_i16, %c7286_i16, %c-17004_i16, %c2074_i16, %c-60_i16, %c2074_i16, %c-17004_i16, %c2074_i16, %c-60_i16, %c7286_i16, %c-17004_i16, %c7286_i16, %c2074_i16, %176, %176, %c-17004_i16, %176, %c2074_i16, %c-60_i16, %c-17004_i16, %c7286_i16, %c2074_i16, %c2074_i16, %c-60_i16, %c-60_i16, %c2074_i16, %c2074_i16, %c-17004_i16, %c7286_i16, %176, %c7286_i16, %c-60_i16, %c-60_i16, %c-60_i16, %c-60_i16, %c2074_i16, %c-17004_i16, %c-60_i16, %c-17004_i16, %c2074_i16, %c-17004_i16, %c7286_i16, %176, %c-60_i16, %c2074_i16, %c2074_i16, %c2074_i16, %c2074_i16, %176, %c-17004_i16, %c7286_i16, %c2074_i16, %176, %c-17004_i16, %c-17004_i16, %176, %176, %176, %c-60_i16, %c-60_i16, %176, %c-17004_i16, %c2074_i16, %c-60_i16, %c2074_i16, %c2074_i16, %c2074_i16, %c2074_i16, %c2074_i16, %c-60_i16, %c-60_i16, %c-17004_i16, %c-17004_i16, %c2074_i16, %c-60_i16, %c7286_i16, %c2074_i16, %c2074_i16, %c7286_i16, %c7286_i16, %c7286_i16, %c-60_i16, %176, %c2074_i16, %c-17004_i16, %c-60_i16, %176, %c2074_i16, %c-60_i16, %c-17004_i16, %c-60_i16, %c-17004_i16, %176, %c-17004_i16, %c-17004_i16, %c2074_i16, %c7286_i16, %c-17004_i16, %c-60_i16, %c7286_i16, %c2074_i16, %c-17004_i16, %176, %c-17004_i16, %c7286_i16, %176, %c2074_i16, %c-60_i16, %c7286_i16, %c-60_i16, %c7286_i16, %c2074_i16, %c-60_i16, %176, %c2074_i16, %176, %c-17004_i16, %c7286_i16, %c2074_i16, %176, %c-17004_i16, %c7286_i16, %c-60_i16, %c2074_i16, %176, %c-60_i16, %c-60_i16, %176, %c7286_i16, %c2074_i16, %c-17004_i16, %c-17004_i16, %c-60_i16, %c-60_i16, %c-17004_i16, %c-17004_i16, %c2074_i16, %c-60_i16, %c-60_i16, %c2074_i16, %176, %c-60_i16, %c7286_i16, %c-60_i16, %c-60_i16, %c7286_i16, %c-17004_i16, %c7286_i16, %c2074_i16, %c2074_i16, %c-60_i16, %c-17004_i16, %c7286_i16, %c2074_i16, %c-17004_i16, %c2074_i16, %c2074_i16, %176, %c2074_i16, %c2074_i16, %c7286_i16, %c-17004_i16, %c-60_i16, %c2074_i16, %c2074_i16, %c-60_i16, %c2074_i16, %c-17004_i16, %176, %c7286_i16, %c-17004_i16, %176, %176, %c-17004_i16, %176, %c-17004_i16, %c2074_i16, %c2074_i16, %c-60_i16, %c-17004_i16, %c2074_i16, %176, %c-60_i16, %176, %176, %c2074_i16, %c2074_i16, %176, %c-60_i16, %c2074_i16, %c7286_i16, %c2074_i16, %c2074_i16, %c2074_i16, %c-17004_i16, %176, %c-60_i16, %c7286_i16, %c-17004_i16, %c-17004_i16, %c2074_i16, %c-17004_i16, %c7286_i16, %c7286_i16, %c-60_i16, %c-17004_i16, %c-60_i16, %176, %c-60_i16, %c-17004_i16, %c2074_i16, %176, %c7286_i16, %c7286_i16, %c-60_i16, %176, %c2074_i16, %c7286_i16, %c2074_i16, %c-60_i16, %c-60_i16, %c2074_i16, %176, %c2074_i16, %c-60_i16, %c-17004_i16, %c7286_i16, %c2074_i16, %176, %c-17004_i16, %c7286_i16, %c7286_i16, %c-60_i16, %176, %c7286_i16, %c-17004_i16, %176, %c2074_i16, %c-17004_i16, %c-17004_i16, %176, %c2074_i16, %c2074_i16, %c7286_i16, %c-60_i16, %c7286_i16, %c2074_i16, %c-17004_i16, %c-60_i16, %c-17004_i16, %c7286_i16, %c-60_i16, %176, %c-17004_i16, %c-60_i16, %c-17004_i16, %c7286_i16, %c2074_i16, %176, %c-60_i16, %176, %176, %c-17004_i16, %c-60_i16, %c-17004_i16, %176, %c-60_i16, %c-17004_i16, %176, %c-60_i16, %c-60_i16, %c2074_i16, %c7286_i16, %c-60_i16, %c2074_i16, %c-17004_i16, %c2074_i16, %c-17004_i16, %c2074_i16, %176, %c-17004_i16, %c-17004_i16, %c7286_i16, %c-17004_i16, %c2074_i16, %c2074_i16, %c-60_i16, %c2074_i16, %c2074_i16, %176, %c-60_i16, %c2074_i16, %c-60_i16, %c2074_i16, %c-17004_i16, %c7286_i16, %c7286_i16, %c-60_i16, %176, %c2074_i16, %c-60_i16, %c2074_i16, %c-17004_i16, %c-17004_i16, %c-17004_i16, %176, %c7286_i16, %c-60_i16, %176, %c-17004_i16, %c7286_i16, %c7286_i16, %176, %c-60_i16, %c-60_i16, %c-60_i16, %176, %c-60_i16, %c-17004_i16, %c-60_i16, %c2074_i16, %c-17004_i16, %176, %c7286_i16, %176, %c-17004_i16, %c-17004_i16, %c-17004_i16, %c2074_i16, %c2074_i16, %176, %c-60_i16, %c7286_i16, %c-60_i16, %c-60_i16, %c2074_i16, %c7286_i16, %176, %c-17004_i16, %c7286_i16, %c-17004_i16, %c-17004_i16, %c2074_i16, %c-17004_i16, %c7286_i16, %c7286_i16, %176, %c2074_i16, %176, %c7286_i16, %c-17004_i16, %c-60_i16, %c7286_i16, %176, %c7286_i16, %176, %c2074_i16, %c-17004_i16, %c2074_i16, %c-60_i16, %c2074_i16, %176, %c-17004_i16, %176, %c7286_i16, %c7286_i16, %c7286_i16, %c-17004_i16, %c2074_i16, %c-60_i16, %c2074_i16, %176, %c7286_i16, %176, %c-17004_i16, %c-17004_i16, %c7286_i16, %c7286_i16, %c7286_i16, %c-17004_i16, %c2074_i16, %c-60_i16, %c2074_i16, %c-60_i16, %176, %176, %c7286_i16, %c-17004_i16, %c2074_i16, %c2074_i16, %c-60_i16, %c-60_i16, %c-60_i16, %c-17004_i16, %176, %176, %c2074_i16, %c2074_i16, %c7286_i16, %c-17004_i16, %c-17004_i16, %c-60_i16, %c-60_i16, %c-17004_i16, %c-60_i16, %c2074_i16, %c-60_i16, %c2074_i16, %c2074_i16, %c7286_i16, %c2074_i16, %c2074_i16, %c-17004_i16, %c-60_i16, %176, %c-60_i16, %c-17004_i16, %c-60_i16, %c-17004_i16, %c-60_i16, %c-60_i16, %c7286_i16, %c-17004_i16, %176, %c2074_i16, %c7286_i16, %c-17004_i16, %176, %c-60_i16, %c2074_i16, %c-60_i16, %c-17004_i16, %176, %c-17004_i16, %c-60_i16, %c7286_i16, %c2074_i16, %176, %c2074_i16, %c-17004_i16, %c7286_i16, %176, %176, %c7286_i16, %c7286_i16, %c7286_i16, %c-17004_i16, %c2074_i16, %c-60_i16, %c-17004_i16, %c-60_i16, %176, %c-17004_i16, %c-17004_i16, %c7286_i16, %176, %176, %176, %c-60_i16, %c7286_i16, %c-60_i16, %c-60_i16, %176, %176, %c7286_i16, %c2074_i16, %c-60_i16, %c2074_i16, %c2074_i16, %c7286_i16, %c2074_i16, %c7286_i16, %176, %176, %c2074_i16, %176, %c7286_i16, %176, %176, %c7286_i16, %c-60_i16, %176, %c-60_i16, %176, %176, %c-17004_i16, %c7286_i16, %c-17004_i16, %c-17004_i16, %176, %176, %176, %176, %c-17004_i16, %c-60_i16, %176, %c-17004_i16, %c2074_i16, %c7286_i16, %c7286_i16, %176, %c2074_i16, %176, %176, %176, %c-17004_i16, %c-60_i16, %c-17004_i16, %176, %c2074_i16, %c-60_i16, %c2074_i16, %c7286_i16, %c2074_i16, %176, %c7286_i16, %c-60_i16, %176, %c-60_i16, %176, %c-17004_i16, %c2074_i16, %c-17004_i16, %c-17004_i16, %c-17004_i16, %c-60_i16, %c2074_i16, %c7286_i16, %c-17004_i16, %176, %c7286_i16, %c7286_i16, %c-60_i16, %176, %c2074_i16, %c-17004_i16, %176, %c7286_i16, %c-60_i16, %c2074_i16, %c7286_i16, %c-60_i16, %c-60_i16, %c2074_i16, %176, %c-17004_i16, %c-17004_i16, %c2074_i16, %c2074_i16, %c-17004_i16, %c2074_i16, %c-17004_i16, %c2074_i16, %c7286_i16, %c-17004_i16, %c7286_i16, %c2074_i16, %c-60_i16, %c-60_i16, %c-17004_i16, %c7286_i16, %c7286_i16, %c-60_i16, %c-60_i16, %c-17004_i16, %c7286_i16, %c-60_i16, %c7286_i16, %c-60_i16, %c-17004_i16, %c-17004_i16, %c2074_i16, %176, %176, %c7286_i16, %c7286_i16, %c2074_i16, %c2074_i16, %c-60_i16, %c-60_i16, %c2074_i16, %176, %c-60_i16, %c-17004_i16, %c7286_i16, %176, %c7286_i16, %c2074_i16, %c7286_i16, %c7286_i16, %c-60_i16, %c-17004_i16, %c2074_i16, %176, %c-17004_i16, %c-60_i16, %176, %c2074_i16, %c-60_i16, %176, %176, %c-17004_i16, %c-17004_i16, %c-17004_i16, %176, %176, %c2074_i16, %c2074_i16, %c7286_i16, %c-17004_i16, %176, %c-60_i16, %c-17004_i16, %c-17004_i16, %c7286_i16, %c-60_i16, %c-17004_i16, %176, %176, %c-60_i16, %176, %c-60_i16, %176, %176, %c7286_i16, %c2074_i16, %176, %176, %c2074_i16, %c2074_i16, %c7286_i16, %176, %c-60_i16, %176, %c-60_i16, %c-17004_i16, %c-60_i16, %c-60_i16, %c-17004_i16, %c7286_i16, %c-60_i16, %c-60_i16, %176, %c7286_i16, %c7286_i16, %c7286_i16, %c-60_i16, %c7286_i16, %176, %176, %c2074_i16, %c-60_i16, %c7286_i16, %c2074_i16, %c2074_i16, %c-17004_i16, %c2074_i16, %c7286_i16, %c-60_i16, %c-60_i16, %c2074_i16, %c-60_i16, %176, %c-17004_i16, %c-60_i16, %176, %c-17004_i16, %176, %c2074_i16, %c7286_i16, %c7286_i16, %c7286_i16, %c-60_i16, %c-17004_i16, %c-17004_i16, %c-17004_i16, %176, %c7286_i16, %c2074_i16, %c-60_i16, %c-60_i16, %c2074_i16, %176, %c-60_i16, %c2074_i16, %176, %176, %c7286_i16, %c-17004_i16, %c-60_i16, %c2074_i16, %c2074_i16, %c7286_i16, %176, %c-60_i16, %c-60_i16, %c7286_i16, %176, %176, %c-17004_i16, %c-60_i16, %c7286_i16, %176, %c2074_i16, %176, %c-60_i16, %c-17004_i16, %c-60_i16, %176, %c7286_i16, %c7286_i16, %176, %c-17004_i16, %c7286_i16, %c-17004_i16, %c7286_i16, %176, %c7286_i16, %c-60_i16, %c7286_i16, %c7286_i16, %176, %c7286_i16, %176, %176, %c2074_i16, %176, %c-17004_i16, %c7286_i16, %c-60_i16, %c-17004_i16, %c2074_i16, %c2074_i16, %c2074_i16, %176, %c-60_i16, %176, %c-17004_i16, %c2074_i16, %c-17004_i16, %176, %c-60_i16, %176, %c-60_i16, %c7286_i16, %c-17004_i16, %c7286_i16, %c-17004_i16, %c7286_i16, %c-17004_i16, %176, %176, %c7286_i16, %c2074_i16, %c7286_i16, %c-60_i16, %176, %176, %c2074_i16, %c-17004_i16, %c-17004_i16, %c7286_i16, %c2074_i16, %c7286_i16, %176, %c-60_i16, %c-17004_i16, %c-60_i16, %c-17004_i16, %c-60_i16, %c2074_i16, %c-17004_i16, %c7286_i16, %c-60_i16, %c7286_i16, %c7286_i16, %c2074_i16, %c2074_i16, %c2074_i16, %c-60_i16, %c7286_i16, %176, %c-17004_i16, %176, %c-60_i16, %c2074_i16, %c-17004_i16, %c7286_i16, %c2074_i16, %c-17004_i16, %176, %176, %c2074_i16, %c2074_i16, %c2074_i16, %c-17004_i16, %176, %c-60_i16, %c-17004_i16, %c2074_i16, %c7286_i16, %c-17004_i16, %c7286_i16, %c2074_i16, %c-17004_i16, %c-17004_i16, %c7286_i16, %c-60_i16, %c2074_i16, %c-60_i16, %c-60_i16, %c2074_i16, %176, %c2074_i16, %176, %176, %c2074_i16, %c-17004_i16, %c-60_i16, %c7286_i16, %c2074_i16, %c2074_i16, %176, %c7286_i16, %c2074_i16, %c-17004_i16, %c2074_i16, %c2074_i16, %c-17004_i16, %c-60_i16, %c2074_i16, %c2074_i16, %c-17004_i16, %c-60_i16, %c7286_i16, %c2074_i16, %c-60_i16, %c2074_i16, %c-17004_i16, %176, %c7286_i16, %c-60_i16, %176, %c-60_i16, %c2074_i16, %176, %c-17004_i16, %c-60_i16, %c-60_i16, %176, %c2074_i16, %c2074_i16, %c7286_i16, %c-60_i16, %c7286_i16, %c-60_i16, %c-17004_i16, %176, %c-17004_i16, %c-60_i16, %c-17004_i16, %c-60_i16, %c-17004_i16, %c-17004_i16, %c-17004_i16, %c7286_i16, %c7286_i16, %c2074_i16, %c-17004_i16, %c-17004_i16, %c7286_i16, %c-17004_i16, %176, %c7286_i16, %c-60_i16, %c-60_i16, %c2074_i16, %c-17004_i16, %c-60_i16, %c2074_i16, %c-17004_i16, %c-17004_i16, %176, %c-60_i16, %c2074_i16, %c2074_i16, %c-17004_i16, %c7286_i16, %c7286_i16, %c-17004_i16, %c-17004_i16, %c2074_i16, %c2074_i16, %c-60_i16, %c-60_i16, %c-60_i16, %c-17004_i16, %c7286_i16, %c-60_i16, %176, %176, %c7286_i16, %c2074_i16, %c-60_i16, %c-60_i16, %c-17004_i16, %c2074_i16, %c-60_i16, %c7286_i16, %176, %176, %c2074_i16, %c2074_i16, %176, %c-60_i16, %c-60_i16, %176, %c7286_i16, %c-60_i16, %c-17004_i16, %c-60_i16, %c-17004_i16, %c2074_i16, %c-60_i16, %c7286_i16, %c-60_i16, %c-17004_i16, %176, %c-60_i16, %c-60_i16, %176, %c7286_i16, %c-17004_i16, %c-17004_i16, %176, %c7286_i16, %c-60_i16, %176, %c7286_i16, %c2074_i16, %c-60_i16, %c-17004_i16, %c-60_i16, %c7286_i16, %176, %c7286_i16, %c-17004_i16, %c-17004_i16, %c7286_i16, %176, %c-17004_i16, %c7286_i16, %176, %c2074_i16, %c7286_i16, %c-17004_i16, %176, %c-17004_i16, %c-17004_i16, %c7286_i16, %176, %176, %c-60_i16, %c-17004_i16, %c7286_i16, %c-17004_i16, %c-60_i16, %c7286_i16, %176, %c2074_i16, %c-60_i16, %c-60_i16, %c-60_i16, %176, %c-17004_i16, %c7286_i16, %c2074_i16, %176, %176, %c2074_i16, %c7286_i16, %c-17004_i16, %c-17004_i16, %c-60_i16, %c7286_i16, %c-17004_i16, %c7286_i16, %c-17004_i16, %c-60_i16, %176, %176, %c-60_i16, %176, %176, %c-17004_i16, %c-17004_i16, %c-17004_i16, %c2074_i16, %c-17004_i16, %c7286_i16, %c-60_i16, %176, %c2074_i16, %176, %176, %c-60_i16, %c-17004_i16, %c-17004_i16, %c2074_i16, %176, %c-17004_i16, %c7286_i16, %176, %c7286_i16, %c2074_i16, %c2074_i16, %c-17004_i16, %c7286_i16, %c7286_i16, %c2074_i16, %c-17004_i16, %c2074_i16, %c2074_i16, %c2074_i16, %176, %176, %c2074_i16, %c-60_i16, %176, %176, %c-17004_i16, %c-17004_i16, %c-17004_i16, %c-17004_i16, %176, %c-60_i16, %c7286_i16, %c2074_i16, %176, %c2074_i16, %176, %c2074_i16, %c-17004_i16, %176, %c2074_i16, %c-60_i16, %c7286_i16, %c-60_i16, %c7286_i16, %c7286_i16, %c-60_i16, %c7286_i16, %c7286_i16, %176, %c-17004_i16, %176, %176, %c7286_i16, %c2074_i16, %c-60_i16, %c2074_i16, %c-17004_i16, %c7286_i16, %c7286_i16, %c7286_i16, %c2074_i16, %176, %c2074_i16, %c2074_i16, %c-17004_i16, %c-17004_i16, %c2074_i16, %c7286_i16, %c-17004_i16, %c7286_i16, %c7286_i16, %c2074_i16, %c-17004_i16, %c-17004_i16, %c7286_i16, %c7286_i16, %c7286_i16, %176, %c7286_i16, %176, %c7286_i16, %c7286_i16, %c-60_i16, %176, %c7286_i16, %c-60_i16, %c-60_i16, %c7286_i16, %176, %c7286_i16, %c-60_i16, %c2074_i16, %c-60_i16, %c7286_i16, %176, %176, %c-60_i16, %c-17004_i16, %c7286_i16, %c-60_i16, %c2074_i16, %c7286_i16, %176, %c7286_i16, %c2074_i16, %c2074_i16, %c2074_i16, %c2074_i16, %c7286_i16, %c2074_i16, %c-17004_i16, %c7286_i16, %c-60_i16, %c-17004_i16, %c2074_i16, %c-60_i16, %c-17004_i16, %c2074_i16, %c2074_i16, %c7286_i16, %c2074_i16, %c2074_i16, %c-60_i16, %c-17004_i16, %c-17004_i16, %c-17004_i16, %c-17004_i16, %c2074_i16, %c2074_i16, %c2074_i16, %176, %176, %c-60_i16, %176, %c7286_i16, %176, %c2074_i16, %c-17004_i16, %176, %c7286_i16, %176, %c-17004_i16, %c2074_i16, %c7286_i16, %c-60_i16, %c-60_i16, %c-60_i16, %c2074_i16, %c-17004_i16, %c7286_i16, %c2074_i16, %c7286_i16, %c2074_i16, %c2074_i16, %176, %c7286_i16, %c7286_i16, %176, %c2074_i16, %c-17004_i16, %c2074_i16, %c-60_i16, %c7286_i16, %c7286_i16, %176, %c-60_i16, %c7286_i16, %c7286_i16, %c7286_i16, %c2074_i16, %c7286_i16, %176, %c-17004_i16, %c7286_i16, %c2074_i16, %c-60_i16, %c-17004_i16, %176, %c-60_i16, %c-60_i16, %c7286_i16, %c-60_i16, %c7286_i16, %c-60_i16, %c-60_i16, %c-17004_i16, %c2074_i16, %c-60_i16, %c2074_i16, %c7286_i16, %c7286_i16, %c2074_i16, %176, %c7286_i16, %c-60_i16, %c2074_i16, %c7286_i16, %c2074_i16, %c2074_i16, %c-17004_i16, %176, %c-17004_i16, %176, %c2074_i16, %c-60_i16, %c-17004_i16, %176, %c-60_i16, %176, %176, %c2074_i16, %176, %c2074_i16, %c2074_i16, %c-17004_i16, %c2074_i16, %c-17004_i16, %c2074_i16, %c7286_i16, %c-60_i16, %176, %c2074_i16, %176, %c-17004_i16, %176, %176, %176, %c-60_i16, %176, %c7286_i16, %c7286_i16, %c-17004_i16, %c2074_i16, %c7286_i16, %176, %176, %c2074_i16, %176, %c7286_i16, %176, %176, %c2074_i16, %c7286_i16, %c7286_i16, %c-60_i16, %c-17004_i16, %c-60_i16, %c7286_i16, %c7286_i16, %c7286_i16, %c2074_i16, %176, %176, %c2074_i16, %c-60_i16, %c-17004_i16, %c-17004_i16, %176, %c2074_i16, %c-17004_i16, %c-60_i16, %c-17004_i16, %176, %c2074_i16, %176, %176, %c7286_i16, %c-17004_i16, %c-60_i16, %c-60_i16, %c-60_i16, %176, %176, %c-17004_i16, %c-60_i16, %c7286_i16, %c-17004_i16, %c-17004_i16, %c7286_i16, %c-17004_i16, %c-60_i16, %c-60_i16, %c7286_i16, %c-60_i16, %c-17004_i16, %c7286_i16, %176, %c-60_i16, %c-17004_i16, %176, %c2074_i16, %c-17004_i16, %176, %c-17004_i16, %176, %c-17004_i16, %c2074_i16, %c2074_i16, %c7286_i16, %c2074_i16, %c2074_i16, %c2074_i16, %c7286_i16, %c-60_i16, %176, %c-17004_i16, %c-60_i16, %c-17004_i16, %176, %176, %c7286_i16, %c-17004_i16, %c2074_i16, %176, %176, %c7286_i16, %176, %c7286_i16, %c-60_i16, %c7286_i16, %c7286_i16, %c-17004_i16, %176, %c2074_i16, %c-60_i16, %c-17004_i16, %c-60_i16, %c-17004_i16, %c-17004_i16, %c7286_i16, %176, %c2074_i16, %c-17004_i16, %c2074_i16, %176, %c7286_i16, %c7286_i16, %176, %176, %c2074_i16, %176, %c-17004_i16, %c-60_i16, %176, %c-60_i16, %176, %c-60_i16, %c2074_i16, %c2074_i16, %c-17004_i16, %c7286_i16, %c2074_i16, %c2074_i16, %c2074_i16, %c-17004_i16, %176, %c2074_i16, %c-60_i16, %c-60_i16, %c2074_i16, %c2074_i16, %c-60_i16, %176, %c2074_i16, %c2074_i16, %c-60_i16, %c7286_i16, %c2074_i16, %c7286_i16, %c-60_i16, %176, %c-17004_i16, %c2074_i16, %c7286_i16, %c2074_i16, %c-17004_i16, %c-60_i16, %c-17004_i16, %c-60_i16, %c2074_i16, %176, %c2074_i16, %c2074_i16, %c7286_i16, %c7286_i16, %c-60_i16, %c2074_i16, %c7286_i16, %c7286_i16, %c-17004_i16, %c2074_i16, %176, %c7286_i16, %c-17004_i16, %c-60_i16, %c2074_i16, %c7286_i16, %c-60_i16, %c7286_i16, %c2074_i16, %c-17004_i16, %c-60_i16, %c2074_i16, %c7286_i16, %176, %c7286_i16, %c-60_i16, %c-60_i16, %c-60_i16, %c2074_i16, %c-17004_i16, %c-60_i16, %c-17004_i16, %c7286_i16, %c2074_i16, %176, %c-60_i16, %c-60_i16, %176, %c2074_i16, %176, %c-60_i16, %176, %c2074_i16, %176, %c7286_i16, %c2074_i16, %176, %176, %c-60_i16, %c-60_i16, %176, %c-60_i16, %c-17004_i16, %c7286_i16, %c2074_i16, %c-17004_i16, %c7286_i16, %c7286_i16, %176, %c7286_i16, %176, %c2074_i16, %176, %c-17004_i16, %c2074_i16, %c-17004_i16, %c2074_i16, %c-60_i16, %176, %c-60_i16, %c7286_i16, %c7286_i16, %c7286_i16, %c7286_i16, %c2074_i16, %c2074_i16, %c-17004_i16, %c7286_i16, %c-17004_i16, %c2074_i16, %c-60_i16, %c-17004_i16, %176, %c7286_i16, %176, %c-60_i16, %176, %c-17004_i16, %c-60_i16, %c2074_i16, %c7286_i16, %c7286_i16, %c-60_i16, %c7286_i16, %176, %176, %c-60_i16, %c7286_i16, %c-60_i16, %c7286_i16, %c2074_i16, %c-17004_i16, %c7286_i16, %c-60_i16, %c2074_i16, %176, %c-60_i16, %c-17004_i16, %c7286_i16, %c-60_i16, %176, %c2074_i16, %c-17004_i16, %c7286_i16, %c-60_i16, %c2074_i16, %c-60_i16, %c-60_i16, %c7286_i16, %c-60_i16, %176, %c-17004_i16, %c2074_i16, %c2074_i16, %c-60_i16, %c-17004_i16, %c-60_i16, %c-60_i16, %c2074_i16, %c7286_i16, %176, %176, %c-60_i16, %c2074_i16, %c2074_i16, %c-60_i16, %c-60_i16, %c-60_i16, %c-60_i16, %176, %c7286_i16, %c-60_i16, %176, %c-60_i16, %c7286_i16, %176, %c2074_i16, %176, %c2074_i16, %176, %c7286_i16, %c-17004_i16, %176, %c-60_i16, %c7286_i16, %c7286_i16, %176, %c-60_i16, %176, %c-60_i16, %c-17004_i16, %c-17004_i16, %c-60_i16, %c-17004_i16, %176, %c7286_i16, %c-17004_i16, %c-17004_i16, %c-60_i16, %c-60_i16, %176, %c-60_i16, %c2074_i16, %c-17004_i16, %c7286_i16, %c-60_i16, %c7286_i16, %c-17004_i16, %c2074_i16, %c-17004_i16, %c-17004_i16, %c7286_i16, %c-60_i16, %c2074_i16, %c2074_i16, %c2074_i16, %176, %176, %c7286_i16, %c-17004_i16, %176, %c2074_i16, %c2074_i16, %176, %176, %c-60_i16, %176, %c-60_i16, %c2074_i16, %176, %c7286_i16, %c7286_i16, %c-60_i16, %176, %c-17004_i16, %c2074_i16, %c-60_i16, %c-17004_i16, %c7286_i16, %c-17004_i16, %c-60_i16, %c2074_i16, %c7286_i16, %c7286_i16, %c7286_i16, %c-17004_i16, %c7286_i16, %c2074_i16, %c-60_i16, %c2074_i16, %c-60_i16, %c2074_i16, %176, %c-17004_i16, %c-17004_i16, %c2074_i16, %c2074_i16, %176, %176, %c-60_i16, %176, %c-17004_i16, %c-60_i16, %c-17004_i16, %c2074_i16, %c7286_i16, %176, %c2074_i16, %176, %c2074_i16, %176, %c-60_i16, %c7286_i16, %c-60_i16, %c2074_i16, %c-17004_i16, %c-17004_i16, %c7286_i16, %c7286_i16, %c-17004_i16, %176, %c2074_i16, %c-60_i16, %176, %c-60_i16, %c2074_i16, %c2074_i16, %c7286_i16, %c-17004_i16, %c-17004_i16, %c2074_i16, %c-17004_i16, %176, %176, %c-60_i16, %c-17004_i16, %c2074_i16, %c2074_i16, %c2074_i16, %c-60_i16, %c2074_i16, %c7286_i16, %c-60_i16, %c2074_i16, %c7286_i16, %c7286_i16, %c7286_i16, %c-17004_i16, %176, %c7286_i16, %c-17004_i16, %c7286_i16, %176, %176, %c-60_i16, %c-17004_i16, %c7286_i16, %c7286_i16, %176, %c-17004_i16, %c-60_i16, %c-17004_i16, %c7286_i16, %c-60_i16, %c-60_i16, %c7286_i16, %176, %c-17004_i16, %c-60_i16, %c2074_i16, %c-17004_i16, %c2074_i16, %c2074_i16, %c2074_i16, %c7286_i16, %c-17004_i16, %176, %c2074_i16, %176, %c-17004_i16, %176, %c-17004_i16, %176, %176, %176, %c7286_i16, %c2074_i16, %c-60_i16, %c-17004_i16, %c7286_i16, %c-17004_i16, %c-60_i16, %c2074_i16, %c-60_i16, %c-60_i16, %176, %176, %c2074_i16, %c7286_i16, %c7286_i16, %176, %c-17004_i16, %c-17004_i16, %c2074_i16, %c-60_i16, %c7286_i16, %c-60_i16, %c7286_i16, %c2074_i16, %c2074_i16, %176, %176, %c-60_i16, %176, %c2074_i16, %176, %c7286_i16, %c2074_i16, %c2074_i16, %c7286_i16, %c-17004_i16, %c-60_i16, %c-60_i16, %176, %c-17004_i16, %c-60_i16, %c-17004_i16, %c-17004_i16, %c-17004_i16, %176, %c-17004_i16, %c2074_i16, %176, %c2074_i16, %c2074_i16, %c-17004_i16, %c2074_i16, %c7286_i16, %c-60_i16, %c-17004_i16, %c7286_i16, %c-60_i16, %c-17004_i16, %c2074_i16, %c7286_i16, %176, %c-60_i16, %c7286_i16, %c2074_i16, %c-60_i16, %c-17004_i16, %c7286_i16, %c2074_i16, %c-60_i16, %c-60_i16, %c2074_i16, %c-17004_i16, %c-60_i16 : tensor<16x16x16xi16>
        %expanded_58 = tensor.expand_shape %0 [[0], [1], [2, 3]] : tensor<16x16x16xf32> into tensor<16x16x16x1xf32>
        memref.assume_alignment %alloc_17, 16 : memref<16x16x16xf32>
        %splat_59 = tensor.splat %137 : tensor<16x16xf16>
        scf.yield %c1376839441_i32 : i32
      } else {
        %264 = index.divu %c13, %c14
        %265 = index.floordivs %84, %54
        %266 = arith.remui %c7286_i16, %c-60_i16 : i16
        %267 = arith.shli %176, %c7286_i16 : i16
        %collapsed_55 = tensor.collapse_shape %expanded_23 [[0, 1], [2, 3]] : tensor<16x16x16x1xf16> into tensor<256x16xf16>
        %268 = index.casts %176 : i16 to index
        %269 = math.cos %211 : f32
        %270 = math.absf %from_elements_41 : tensor<16x16x16xf32>
        scf.yield %c1099692294_i32 : i32
      }
      %from_elements_54 = tensor.from_elements %true, %true, %true, %false, %true, %true, %true, %true, %false, %false, %false, %true, %true, %false, %false : tensor<15xi1>
      scf.yield
    }
    %245 = affine.vector_load %alloc_18[%85, %c12] : memref<16x1xf16>, vector<15xf16>
    affine.vector_store %177, %126[%80, %80, %110] : memref<16x16x16xf32>, vector<5xf32>
    vector.print %20 : vector<16xf32>
    vector.print %30 : vector<15xf32>
    vector.print %31 : vector<15xf32>
    vector.print %44 : vector<16x16x16xi1>
    vector.print %45 : vector<16x16x16xi32>
    vector.print %46 : vector<16x16x16xi1>
    vector.print %60 : vector<1xf16>
    vector.print %61 : vector<1xi1>
    vector.print %62 : vector<1xf16>
    vector.print %69 : vector<16x16xi1>
    vector.print %83 : vector<16xi32>
    vector.print %97 : vector<16x16xi1>
    vector.print %98 : vector<16x16x16xf16>
    vector.print %112 : vector<1xf16>
    vector.print %120 : vector<1xf16>
    vector.print %129 : vector<1xf16>
    vector.print %140 : vector<1xf16>
    vector.print %142 : vector<16x1xf32>
    vector.print %143 : vector<16x1xf32>
    vector.print %145 : vector<16x1xi1>
    vector.print %159 : vector<15xf32>
    vector.print %177 : vector<5xf32>
    vector.print %178 : vector<1xf16>
    vector.print %181 : vector<i16>
    vector.print %185 : vector<6x1xf32>
    vector.print %201 : vector<16x1xf32>
    vector.print %209 : vector<1xf16>
    vector.print %221 : vector<3xf32>
    vector.print %227 : vector<15xf32>
    vector.print %236 : vector<16x16x16xf16>
    vector.print %238 : vector<6x1xf32>
    vector.print %245 : vector<15xf16>
    vector.print %c1653018709_i64 : i64
    vector.print %cst : f32
    vector.print %cst_0 : f32
    vector.print %cst_1 : f16
    vector.print %cst_2 : f32
    vector.print %c-60_i16 : i16
    vector.print %c1099692294_i32 : i32
    vector.print %false : i1
    vector.print %cst_3 : f32
    vector.print %c1026596729_i32 : i32
    vector.print %c-17004_i16 : i16
    vector.print %c1376839441_i32 : i32
    vector.print %c7286_i16 : i16
    vector.print %cst_4 : f16
    vector.print %true : i1
    vector.print %c2074_i16 : i16
    vector.print %113 : f16
    vector.print %118 : f32
    vector.print %127 : f32
    vector.print %137 : f16
    vector.print %176 : i16
    vector.print %211 : f32
    vector.print %cst_44 : f32
    vector.print %241 : f32
    return
  }
}
