module {
  func.func @func1(%arg0: i1, %arg1: index, %arg2: vector<16x15x10xf32>) -> i1 {
    %c767099878_i64 = arith.constant 767099878 : i64
    %cst = arith.constant 6.278400e+04 : f16
    %cst_0 = arith.constant 1.441600e+04 : f16
    %c28366_i16 = arith.constant 28366 : i16
    %cst_1 = arith.constant 4.195200e+04 : f16
    %cst_2 = arith.constant 1.82508826E+9 : f32
    %c522205298_i32 = arith.constant 522205298 : i32
    %cst_3 = arith.constant 1.42153408E+9 : f32
    %c1063595746_i32 = arith.constant 1063595746 : i32
    %c223865476_i64 = arith.constant 223865476 : i64
    %c2124661813_i32 = arith.constant 2124661813 : i32
    %c872239861_i32 = arith.constant 872239861 : i32
    %cst_4 = arith.constant 1.77924237E+9 : f32
    %c-11434_i16 = arith.constant -11434 : i16
    %c1514081338_i64 = arith.constant 1514081338 : i64
    %true = arith.constant true
    %0 = tensor.empty() : tensor<3xi16>
    %1 = tensor.empty() : tensor<15x15xi64>
    %2 = tensor.empty() : tensor<3xi32>
    %3 = tensor.empty() : tensor<16x3x10xf16>
    %4 = tensor.empty() : tensor<3xi32>
    %5 = tensor.empty() : tensor<3xi16>
    %6 = tensor.empty() : tensor<15x15xi1>
    %7 = tensor.empty() : tensor<16x15x10xi1>
    %8 = tensor.empty() : tensor<15x15xf16>
    %9 = tensor.empty() : tensor<3xf16>
    %10 = tensor.empty() : tensor<16x15x10xi16>
    %11 = tensor.empty() : tensor<16x3x10xf16>
    %12 = tensor.empty() : tensor<16x3x10xf32>
    %13 = tensor.empty() : tensor<15x15xf32>
    %14 = tensor.empty() : tensor<3xi16>
    %15 = tensor.empty() : tensor<15x15xf16>
    %c0 = arith.constant 0 : index
    %c1 = arith.constant 1 : index
    %c2 = arith.constant 2 : index
    %c3 = arith.constant 3 : index
    %c4 = arith.constant 4 : index
    %c5 = arith.constant 5 : index
    %c6 = arith.constant 6 : index
    %c7 = arith.constant 7 : index
    %c8 = arith.constant 8 : index
    %c9 = arith.constant 9 : index
    %c10 = arith.constant 10 : index
    %c11 = arith.constant 11 : index
    %c12 = arith.constant 12 : index
    %c13 = arith.constant 13 : index
    %c14 = arith.constant 14 : index
    %c15 = arith.constant 15 : index
    %alloc = memref.alloc() : memref<15x15xi1>
    %alloc_5 = memref.alloc() : memref<16x15x10xi64>
    %alloc_6 = memref.alloc() : memref<15x15xi16>
    %alloc_7 = memref.alloc() : memref<16x15x10xf32>
    %alloc_8 = memref.alloc() : memref<15x15xf32>
    %alloc_9 = memref.alloc() : memref<15x15xf32>
    %alloc_10 = memref.alloc() : memref<3xi64>
    %alloc_11 = memref.alloc() : memref<16x3x10xi64>
    %alloc_12 = memref.alloc() : memref<15x15xi16>
    %alloc_13 = memref.alloc() : memref<3xi32>
    %alloc_14 = memref.alloc() : memref<3xf16>
    %alloc_15 = memref.alloc() : memref<15x15xi16>
    %alloc_16 = memref.alloc() : memref<16x15x10xf32>
    %alloc_17 = memref.alloc() : memref<3xf32>
    %alloc_18 = memref.alloc() : memref<16x15x10xi1>
    %alloc_19 = memref.alloc() : memref<3xi64>
    %16 = tensor.empty() : tensor<16x3x10xf16>
    %17 = linalg.copy ins(%3 : tensor<16x3x10xf16>) outs(%16 : tensor<16x3x10xf16>) -> tensor<16x3x10xf16>
    %18 = tensor.empty() : tensor<3xi64>
    %transposed = linalg.transpose ins(%alloc_19 : memref<3xi64>) outs(%18 : tensor<3xi64>) permutation = [0] 
    %alloc_20 = memref.alloc() : memref<10xf16>
    linalg.reduce ins(%17 : tensor<16x3x10xf16>) outs(%alloc_20 : memref<10xf16>) dimensions = [0, 1] 
      (%in: f16, %init: f16) {
        bufferization.dealloc_tensor %transposed : tensor<3xi64>
        memref.alloca_scope  {
          %258 = math.ctpop %14 : tensor<3xi16>
          affine.store %c-11434_i16, %alloc_6[%c12, %c6] : memref<15x15xi16>
          %259 = math.round %9 : tensor<3xf16>
          %260 = math.absi %14 : tensor<3xi16>
          %261 = index.divs %c0, %c9
          %262 = math.log10 %3 : tensor<16x3x10xf16>
          %263 = index.maxs %c3, %c14
          %c1_i64_53 = arith.constant 1 : i64
          %c0_i64_54 = arith.constant 0 : i64
          %264 = vector.transfer_read %alloc_5[%c15, %c1, %c7], %c0_i64_54 {permutation_map = affine_map<(d0, d1, d2) -> (0)>} : memref<16x15x10xi64>, vector<10xi64>
          %265 = math.tan %8 : tensor<15x15xf16>
          %266 = index.maxs %c13, %c10
          %267 = math.tan %12 : tensor<16x3x10xf32>
          %268 = arith.shli %c1_i64_53, %c223865476_i64 : i64
          %269 = math.powf %3, %11 : tensor<16x3x10xf16>
          %270 = arith.cmpf uge, %cst, %init : f16
          %271 = arith.minsi %true, %true : i1
          %272 = vector.broadcast %c28366_i16 : i16 to vector<15xi16>
          %273 = vector.reduction <maxui>, %272 : vector<15xi16> into i16
          %274 = math.cos %cst_4 : f32
          %275 = vector.broadcast %c28366_i16 : i16 to vector<1xi16>
          %276 = vector.extract %275[0] : vector<1xi16>
          %277 = math.atan2 %11, %17 : tensor<16x3x10xf16>
          affine.store %c28366_i16, %alloc_12[%c12, %c7] : memref<15x15xi16>
          %cst_55 = arith.constant 3.321600e+04 : f16
          %278 = index.floordivs %261, %c9
          %279 = arith.shrsi %c767099878_i64, %c1514081338_i64 : i64
          %c344474965_i64 = arith.constant 344474965 : i64
          %280 = math.cos %in : f16
          %c0_i64_56 = arith.constant 0 : i64
          %c0_i64_57 = arith.constant 0 : i64
          %281 = vector.transfer_read %alloc_11[%c3, %c7, %c0], %c0_i64_57 {permutation_map = affine_map<(d0, d1, d2) -> (d0, d1)>} : memref<16x3x10xi64>, vector<16x10xi64>
          %true_58 = index.bool.constant true
          %282 = tensor.empty() : tensor<16x3x10xi32>
          %283 = math.exp %9 : tensor<3xf16>
          %284 = bufferization.to_memref %1 : memref<15x15xi64>
          %285 = arith.addf %init, %in : f16
          %inserted_59 = tensor.insert %cst_1 into %8[%c4, %c11] : tensor<15x15xf16>
        }
        %254 = affine.load %alloc_15[%c14, %c8] : memref<15x15xi16>
        %extracted_51 = tensor.extract %2[%c2] : tensor<3xi32>
        %255 = index.divs %c5, %c1
        %256 = arith.divui %c872239861_i32, %c522205298_i32 : i32
        affine.store %cst_4, %alloc_16[%c1, %c1, %c15] : memref<16x15x10xf32>
        %257 = arith.remf %cst, %in : f16
        %cst_52 = arith.constant 1.000000e+00 : f16
        linalg.yield %cst_52 : f16
      }
    %19 = scf.parallel (%arg3, %arg4) = (%c0, %c13) to (%c2, %c5) step (%c9, %c11) init (%alloc_20) -> memref<10xf16> {
      %254 = index.ceildivs %c6, %arg4
      %255 = math.exp2 %15 : tensor<15x15xf16>
      %256 = arith.remsi %c-11434_i16, %c-11434_i16 : i16
      memref.assume_alignment %alloc, 1 : memref<15x15xi1>
      %257 = arith.shrui %c767099878_i64, %c767099878_i64 : i64
      %258 = arith.minf %cst_3, %cst_4 : f32
      %inserted_51 = tensor.insert %cst_4 into %12[%c15, %c1, %c9] : tensor<16x3x10xf32>
      %259 = arith.muli %c1514081338_i64, %c767099878_i64 : i64
      %260 = math.absf %9 : tensor<3xf16>
      %261 = vector.broadcast %c767099878_i64 : i64 to vector<3xi64>
      %262 = vector.flat_transpose %261 {columns = 3 : i32, rows = 1 : i32} : vector<3xi64> -> vector<3xi64>
      %263 = index.mul %c14, %c10
      %264 = vector.contract {indexing_maps = [affine_map<(d0) -> (d0)>, affine_map<(d0) -> (d0)>, affine_map<(d0) -> ()>], iterator_types = ["reduction"], kind = #vector.kind<minui>} %261, %262, %c1514081338_i64 : vector<3xi64>, vector<3xi64> into i64
      %265 = math.round %cst_4 : f32
      %266 = tensor.empty(%arg4, %c1) : tensor<?x?x10xi16>
      %267 = math.ceil %cst_2 : f32
      %268 = affine.load %alloc_6[%c11, %c15] : memref<15x15xi16>
      %alloc_52 = memref.alloc() : memref<10xf16>
      scf.reduce(%alloc_52)  : memref<10xf16> {
      ^bb0(%arg5: memref<10xf16>, %arg6: memref<10xf16>):
        %269 = math.exp %cst_2 : f32
        %270 = math.roundeven %12 : tensor<16x3x10xf32>
        %271 = bufferization.clone %arg5 : memref<10xf16> to memref<10xf16>
        %splat_53 = tensor.splat %cst_1 : tensor<16x15x10xf16>
        %272 = math.exp %8 : tensor<15x15xf16>
        %273 = math.log2 %17 : tensor<16x3x10xf16>
        %274 = index.floordivs %arg3, %c14
        %inserted_54 = tensor.insert %c1514081338_i64 into %18[%c2] : tensor<3xi64>
        %alloc_55 = memref.alloc() : memref<10xf16>
        scf.reduce.return %alloc_55 : memref<10xf16>
      }
      scf.yield
    }
    %20 = affine.vector_load %alloc_16[%c14, %c12, %c0] : memref<16x15x10xf32>, vector<15xf32>
    affine.vector_store %20, %alloc_8[%c9, %c2] : memref<15x15xf32>, vector<15xf32>
    %21 = tensor.empty() : tensor<10xf16>
    %22 = tensor.empty() : tensor<f16>
    %23 = linalg.dot ins(%alloc_20, %21 : memref<10xf16>, tensor<10xf16>) outs(%22 : tensor<f16>) -> tensor<f16>
    %24 = arith.remui %c767099878_i64, %c767099878_i64 : i64
    %25 = math.cos %cst : f16
    %26 = arith.maxui %c767099878_i64, %c223865476_i64 : i64
    %27 = tensor.empty() : tensor<15x15xi16>
    %mapped = linalg.map ins(%alloc_6, %alloc_12 : memref<15x15xi16>, memref<15x15xi16>) outs(%27 : tensor<15x15xi16>)
      (%in: i16, %in_51: i16) {
        %254 = tensor.empty(%c9) : tensor<16x?x10xi32>
        %255 = arith.addi %c1514081338_i64, %c767099878_i64 : i64
        %256 = math.roundeven %13 : tensor<15x15xf32>
        %257 = math.copysign %16, %17 : tensor<16x3x10xf16>
        %258 = math.ceil %cst_1 : f16
        %alloca_52 = memref.alloca() : memref<16x15x10xi32>
        %259 = math.cttz %6 : tensor<15x15xi1>
        %260 = arith.ceildivsi %in_51, %in : i16
        %261 = math.exp %cst_0 : f16
        %extracted_53 = tensor.extract %7[%c6, %c11, %c7] : tensor<16x15x10xi1>
        %262 = math.fma %12, %12, %12 : tensor<16x3x10xf32>
        %263 = arith.muli %c872239861_i32, %c2124661813_i32 : i32
        %264 = arith.addf %cst_2, %cst_3 : f32
        %expanded_54 = tensor.expand_shape %21 [[0, 1]] : tensor<10xf16> into tensor<10x1xf16>
        %265 = math.ceil %cst_3 : f32
        %266 = math.roundeven %cst_1 : f16
        %267 = arith.ceildivsi %c223865476_i64, %c767099878_i64 : i64
        %268 = index.floordivs %c0, %c9
        %269 = vector.reduction <mul>, %20 : vector<15xf32> into f32
        %270 = bufferization.clone %alloc_9 : memref<15x15xf32> to memref<15x15xf32>
        %271 = arith.divf %cst_1, %cst_1 : f16
        %272 = index.mul %c2, %c3
        %273 = affine.if affine_set<(d0, d1, d2, d3) : (-(d1 - 64) >= 0)>(%c12, %c7, %c13, %c11) -> memref<16x15x10xf32> {
          %282 = index.casts %c1063595746_i32 : i32 to index
          %283 = index.maxs %c0, %c0
          %284 = arith.maxf %cst_4, %cst_3 : f32
          %285 = math.sqrt %3 : tensor<16x3x10xf16>
          %286 = arith.divf %cst_4, %cst_2 : f32
          %287 = tensor.empty() : tensor<15x15xf32>
          %288 = linalg.matmul ins(%13, %13 : tensor<15x15xf32>, tensor<15x15xf32>) outs(%287 : tensor<15x15xf32>) -> tensor<15x15xf32>
          %289 = index.add %c10, %c14
          %rank_57 = tensor.rank %0 : tensor<3xi16>
          affine.yield %alloc_7 : memref<16x15x10xf32>
        } else {
          %282 = math.ceil %expanded_54 : tensor<10x1xf16>
          %283 = math.log2 %13 : tensor<15x15xf32>
          %284 = math.absi %27 : tensor<15x15xi16>
          %285 = tensor.empty() : tensor<3xf32>
          %286 = vector.broadcast %cst_2 : f32 to vector<16x3x10xf32>
          %287 = vector.broadcast %true : i1 to vector<16x3x10xi1>
          %288 = vector.broadcast %c2124661813_i32 : i32 to vector<16x3x10xi32>
          %289 = vector.gather %285[%c13] [%288], %287, %286 : tensor<3xf32>, vector<16x3x10xi32>, vector<16x3x10xi1>, vector<16x3x10xf32> into vector<16x3x10xf32>
          %true_57 = index.bool.constant true
          %290 = index.sizeof
          %291 = memref.realloc %alloc_13 : memref<3xi32> to memref<16xi32>
          %292 = vector.bitcast %286 : vector<16x3x10xf32> to vector<16x3x10xf32>
          affine.yield %alloc_16 : memref<16x15x10xf32>
        }
        %false_55 = index.bool.constant false
        %274 = index.casts %c522205298_i32 : i32 to index
        %275 = vector.bitcast %20 : vector<15xf32> to vector<15xf32>
        %276 = vector.broadcast %cst_2 : f32 to vector<15x15xf32>
        %277 = vector.outerproduct %275, %20, %276 {kind = #vector.kind<mul>} : vector<15xf32>, vector<15xf32>
        %278 = index.divs %c2, %272
        affine.for %arg3 = 0 to 12 {
        }
        %279 = arith.xori %false_55, %true : i1
        %280 = arith.negf %cst_1 : f16
        %281 = index.add %c8, %c6
        %c0_i16_56 = arith.constant 0 : i16
        linalg.yield %c0_i16_56 : i16
      }
    %28 = tensor.empty() : tensor<3xf32>
    %29 = vector.broadcast %cst_3 : f32 to vector<16x15x10xf32>
    %30 = vector.broadcast %true : i1 to vector<16x15x10xi1>
    %31 = vector.broadcast %c1063595746_i32 : i32 to vector<16x15x10xi32>
    %32 = vector.gather %28[%c4] [%31], %30, %29 : tensor<3xf32>, vector<16x15x10xi32>, vector<16x15x10xi1>, vector<16x15x10xf32> into vector<16x15x10xf32>
    %33 = math.expm1 %cst_1 : f16
    %34 = arith.andi %true, %true : i1
    %35 = math.atan %9 : tensor<3xf16>
    %36 = vector.extract_strided_slice %29 {offsets = [14, 10], sizes = [1, 4], strides = [1, 1]} : vector<16x15x10xf32> to vector<1x4x10xf32>
    %37 = arith.minsi %c522205298_i32, %c522205298_i32 : i32
    %inserted = tensor.insert %c767099878_i64 into %18[%c1] : tensor<3xi64>
    %38 = arith.ceildivsi %true, %true : i1
    %39 = math.ipowi %7, %7 : tensor<16x15x10xi1>
    %40 = math.atan %11 : tensor<16x3x10xf16>
    memref.store %c223865476_i64, %alloc_19[%c0] : memref<3xi64>
    %inserted_21 = tensor.insert %cst into %3[%c5, %c0, %c5] : tensor<16x3x10xf16>
    %41 = index.divs %c3, %c13
    %42 = index.casts %c522205298_i32 : i32 to index
    %43 = affine.load %alloc_5[%c10, %c3, %c14] : memref<16x15x10xi64>
    %44 = math.ipowi %true, %true : i1
    %45 = tensor.empty(%c11) : tensor<?xi64>
    scf.if %true {
      %254 = vector.flat_transpose %20 {columns = 5 : i32, rows = 3 : i32} : vector<15xf32> -> vector<15xf32>
      %255 = index.sub %c8, %c13
      %256 = math.ctlz %c767099878_i64 : i64
      %257 = affine.max affine_map<(d0, d1) -> (d1 * 8, d1 floordiv 8, (d1 * 4) ceildiv 32)>(%c1, %c7)
      %258 = index.maxu %c6, %c8
      %259 = math.expm1 %8 : tensor<15x15xf16>
      memref.assume_alignment %alloc_5, 4 : memref<16x15x10xi64>
      %260 = vector.broadcast %c1514081338_i64 : i64 to vector<15xi64>
      %261 = vector.transfer_write %260, %1[%c0, %c2] {permutation_map = affine_map<(d0, d1) -> (d0)>} : vector<15xi64>, tensor<15x15xi64>
    }
    %46 = vector.reduction <mul>, %20 : vector<15xf32> into f32
    %47 = math.round %3 : tensor<16x3x10xf16>
    %48 = math.log2 %3 : tensor<16x3x10xf16>
    %49 = math.atan2 %16, %16 : tensor<16x3x10xf16>
    %50 = arith.minsi %c872239861_i32, %c1063595746_i32 : i32
    %51 = arith.shrui %c223865476_i64, %c1514081338_i64 : i64
    %52 = index.castu %c3 : index to i32
    %53 = vector.broadcast %c15 : index to vector<3xindex>
    %54 = vector.broadcast %true : i1 to vector<3xi1>
    %55 = vector.broadcast %c872239861_i32 : i32 to vector<3xi32>
    vector.scatter %alloc_13[%c0] [%53], %54, %55 : memref<3xi32>, vector<3xindex>, vector<3xi1>, vector<3xi32>
    %splat = tensor.splat %c28366_i16 : tensor<16x15x10xi16>
    %56 = index.divs %c10, %c10
    %57 = arith.mulf %cst_1, %cst_0 : f16
    scf.index_switch %42 
    case 1 {
      %254 = arith.cmpf uge, %cst, %cst_0 : f16
      %255 = math.ctpop %splat : tensor<16x15x10xi16>
      %256 = arith.muli %c28366_i16, %c-11434_i16 : i16
      %257 = math.round %16 : tensor<16x3x10xf16>
      %258 = math.round %cst_4 : f32
      %259 = arith.minsi %c767099878_i64, %c1514081338_i64 : i64
      %260 = arith.remf %cst_3, %cst_3 : f32
      %261 = index.castu %c28366_i16 : i16 to index
      %c-14420_i16 = arith.constant -14420 : i16
      %262 = vector.bitcast %30 : vector<16x15x10xi1> to vector<16x15x10xi1>
      %263 = arith.divui %true, %true : i1
      %264 = vector.extract %262[13] : vector<16x15x10xi1>
      %265 = index.divs %c5, %c1
      %266 = math.ipowi %c223865476_i64, %43 : i64
      %extracted_51 = tensor.extract %12[%c7, %c2, %c8] : tensor<16x3x10xf32>
      %267 = index.divs %c12, %265
      scf.yield
    }
    case 2 {
      memref.alloca_scope  {
        %alloca_52 = memref.alloca() : memref<16x15x10xf32>
        %266 = arith.subi %c28366_i16, %c28366_i16 : i16
        %267 = vector.extract_strided_slice %32 {offsets = [3], sizes = [4], strides = [1]} : vector<16x15x10xf32> to vector<4x15x10xf32>
        %268 = tensor.empty() : tensor<16x3x10xf16>
        %269 = vector.broadcast %cst_2 : f32 to vector<15x15xf32>
        %270 = vector.outerproduct %20, %20, %269 {kind = #vector.kind<maxf>} : vector<15xf32>, vector<15xf32>
        %271 = vector.broadcast %c522205298_i32 : i32 to vector<10xi32>
        %272 = vector.insert %271, %31 [2, 6] : vector<10xi32> into vector<16x15x10xi32>
        %273 = math.ctlz %true : i1
        %274 = math.copysign %11, %268 : tensor<16x3x10xf16>
        %275 = math.exp2 %22 : tensor<f16>
        %276 = arith.divf %cst_1, %cst_0 : f16
        %277 = index.divs %42, %c11
        %278 = affine.apply affine_map<(d0) -> ((((d0 * 2) ceildiv 16) ceildiv 4) mod 8)>(%56)
        %279 = math.exp2 %9 : tensor<3xf16>
        %280 = math.cos %11 : tensor<16x3x10xf16>
        %collapsed_53 = tensor.collapse_shape %8 [[0, 1]] : tensor<15x15xf16> into tensor<225xf16>
        %281 = math.log1p %21 : tensor<10xf16>
        %282 = vector.reduction <maxf>, %20 : vector<15xf32> into f32
        %283 = index.mul %c11, %c10
        %284 = bufferization.clone %alloc_12 : memref<15x15xi16> to memref<15x15xi16>
        %285 = math.fma %15, %15, %8 : tensor<15x15xf16>
        %286 = math.sqrt %collapsed_53 : tensor<225xf16>
        %287 = arith.shrui %43, %c767099878_i64 : i64
        %288 = index.divu %c3, %56
        %expanded_54 = tensor.expand_shape %18 [[0, 1]] : tensor<3xi64> into tensor<3x1xi64>
        %expanded_55 = tensor.expand_shape %18 [[0, 1]] : tensor<3xi64> into tensor<3x1xi64>
        %289 = math.ctpop %14 : tensor<3xi16>
        %290 = vector.multi_reduction <minf>, %267, %20 [0, 2] : vector<4x15x10xf32> to vector<15xf32>
        %cst_56 = arith.constant 1.000000e+00 : f32
        %291 = vector.transfer_read %alloc_7[%c3, %c3, %c4], %cst_56 : memref<16x15x10xf32>, vector<16x15xf32>
        %292 = arith.subi %43, %c767099878_i64 : i64
        %293 = vector.broadcast %cst_2 : f32 to vector<16x3x10xf32>
        %294 = vector.fma %293, %293, %293 : vector<16x3x10xf32>
        %295 = affine.min affine_map<(d0, d1) -> (d1, d0 floordiv 32)>(%c3, %c3)
        %296 = math.floor %collapsed_53 : tensor<225xf16>
      }
      %254 = arith.shli %c2124661813_i32, %c1063595746_i32 : i32
      %255 = memref.atomic_rmw muli %c28366_i16, %alloc_6[%c7, %c1] : (i16, memref<15x15xi16>) -> i16
      affine.for %arg3 = 0 to 69 {
      }
      memref.alloca_scope  {
        %266 = arith.minsi %true, %true : i1
        %267 = math.rsqrt %11 : tensor<16x3x10xf16>
        %alloc_52 = memref.alloc() : memref<16x3x10xf32>
        %268 = vector.broadcast %cst_3 : f32 to vector<3xf32>
        %269 = vector.broadcast %true : i1 to vector<3xi1>
        %270 = vector.broadcast %c522205298_i32 : i32 to vector<3xi32>
        %271 = vector.gather %alloc_52[%c15, %c2, %c9] [%270], %269, %268 : memref<16x3x10xf32>, vector<3xi32>, vector<3xi1>, vector<3xf32> into vector<3xf32>
        %272 = arith.subi %c2124661813_i32, %c872239861_i32 : i32
        %273 = index.floordivs %c2, %c12
        %274 = math.roundeven %3 : tensor<16x3x10xf16>
        %275 = arith.andi %c1514081338_i64, %43 : i64
        %alloca_53 = memref.alloca() : memref<16x3x10xf16>
        %276 = vector.broadcast %cst_0 : f16 to vector<3xf16>
        %277 = vector.maskedload %alloc_14[%c2], %269, %276 : memref<3xf16>, vector<3xi1>, vector<3xf16> into vector<3xf16>
        %278 = math.atan %23 : tensor<f16>
        %279 = arith.cmpi eq, %c522205298_i32, %c872239861_i32 : i32
        %280 = index.mul %c13, %c14
        %281 = vector.broadcast %c2124661813_i32 : i32 to vector<3x3xi32>
        %282 = vector.outerproduct %270, %270, %281 {kind = #vector.kind<mul>} : vector<3xi32>, vector<3xi32>
        %283 = math.roundeven %21 : tensor<10xf16>
        %284 = math.copysign %3, %3 : tensor<16x3x10xf16>
        %285 = arith.maxsi %c1514081338_i64, %c767099878_i64 : i64
        %expanded_54 = tensor.expand_shape %15 [[0], [1, 2]] : tensor<15x15xf16> into tensor<15x15x1xf16>
        %286 = arith.subi %c28366_i16, %c-11434_i16 : i16
        %287 = vector.broadcast %cst_4 : f32 to vector<3x3xf32>
        %288 = vector.outerproduct %268, %271, %287 {kind = #vector.kind<add>} : vector<3xf32>, vector<3xf32>
        %289 = math.cttz %c2124661813_i32 : i32
        %290 = affine.apply affine_map<(d0, d1) -> (-((d0 + 64) floordiv 128) + (d0 + 64) floordiv 128 + d0 + 80)>(%c5, %c5)
        %291 = math.cos %9 : tensor<3xf16>
        %292 = vector.extract %269[2] : vector<3xi1>
        %293 = tensor.empty() : tensor<15x15xf32>
        %294 = linalg.matmul ins(%13, %13 : tensor<15x15xf32>, tensor<15x15xf32>) outs(%293 : tensor<15x15xf32>) -> tensor<15x15xf32>
        %295 = arith.remui %c522205298_i32, %c2124661813_i32 : i32
        %296 = math.tan %15 : tensor<15x15xf16>
        %297 = arith.subi %c1063595746_i32, %c2124661813_i32 : i32
        %298 = math.roundeven %12 : tensor<16x3x10xf32>
        %299 = vector.broadcast %cst_2 : f32 to vector<16x15x10xf32>
        %300 = vector.fma %299, %299, %29 : vector<16x15x10xf32>
        %301 = index.floordivs %41, %c0
        %302 = math.fma %21, %21, %21 : tensor<10xf16>
        %303 = bufferization.clone %alloc_16 : memref<16x15x10xf32> to memref<16x15x10xf32>
      }
      %256 = math.floor %13 : tensor<15x15xf32>
      %257 = arith.minui %c223865476_i64, %43 : i64
      %extracted_51 = tensor.extract %12[%c4, %c2, %c4] : tensor<16x3x10xf32>
      %258 = math.round %8 : tensor<15x15xf16>
      %259 = arith.cmpi sle, %c1063595746_i32, %c2124661813_i32 : i32
      %260 = vector.extract_strided_slice %29 {offsets = [2], sizes = [2], strides = [1]} : vector<16x15x10xf32> to vector<2x15x10xf32>
      %261 = tensor.empty(%42) : tensor<?xi16>
      %262 = index.mul %56, %c7
      %263 = memref.alloca_scope  -> (f32) {
        %266 = math.cos %17 : tensor<16x3x10xf16>
        memref.store %cst_3, %alloc_17[%c1] : memref<3xf32>
        %267 = index.casts %41 : index to i32
        %268 = index.casts %56 : index to i32
        %cst_52 = arith.constant 1.000000e+00 : f32
        %269 = vector.transfer_read %13[%c8, %c7], %cst_52 : tensor<15x15xf32>, vector<f32>
        %270 = arith.remui %true, %true : i1
        %271 = math.round %9 : tensor<3xf16>
        %272 = index.castu %c1 : index to i32
        memref.assume_alignment %alloc_9, 4 : memref<15x15xf32>
        %273 = math.floor %cst_0 : f16
        %274 = arith.maxf %cst_1, %cst : f16
        %275 = math.tan %cst_52 : f32
        %276 = math.ipowi %10, %10 : tensor<16x15x10xi16>
        %277 = vector.extract_strided_slice %32 {offsets = [14], sizes = [2], strides = [1]} : vector<16x15x10xf32> to vector<2x15x10xf32>
        %expanded_53 = tensor.expand_shape %7 [[0], [1], [2, 3]] : tensor<16x15x10xi1> into tensor<16x15x10x1xi1>
        %278 = math.floor %cst_2 : f32
        %279 = math.ctpop %2 : tensor<3xi32>
        %280 = vector.broadcast %cst_2 : f32 to vector<2x10x16x10xf32>
        %281 = vector.contract {indexing_maps = [affine_map<(d0, d1, d2, d3, d4) -> (d0, d4, d1)>, affine_map<(d0, d1, d2, d3, d4) -> (d2, d4, d3)>, affine_map<(d0, d1, d2, d3, d4) -> (d0, d1, d2, d3)>], iterator_types = ["parallel", "parallel", "parallel", "parallel", "reduction"], kind = #vector.kind<minf>} %260, %32, %280 : vector<2x15x10xf32>, vector<16x15x10xf32> into vector<2x10x16x10xf32>
        %282 = math.exp2 %3 : tensor<16x3x10xf16>
        %283 = index.castu %true : i1 to index
        %284 = arith.cmpf une, %cst_52, %cst_2 : f32
        %splat_54 = tensor.splat %c2124661813_i32 : tensor<16x15x10xi32>
        %285 = index.mul %c6, %c0
        %286 = arith.floordivsi %c767099878_i64, %c1514081338_i64 : i64
        %splat_55 = tensor.splat %c-11434_i16 : tensor<3xi16>
        %287 = math.ipowi %c1063595746_i32, %c872239861_i32 : i32
        %288 = math.round %9 : tensor<3xf16>
        %289 = vector.extract_strided_slice %260 {offsets = [0, 10], sizes = [2, 4], strides = [1, 1]} : vector<2x15x10xf32> to vector<2x4x10xf32>
        %290 = arith.remf %cst_2, %cst_4 : f32
        %291 = vector.bitcast %31 : vector<16x15x10xi32> to vector<16x15x10xf32>
        %292 = arith.cmpf ult, %cst_2, %cst_4 : f32
        %293 = index.maxs %c2, %c3
        memref.alloca_scope.return %extracted_51 : f32
      }
      %264 = memref.atomic_rmw addi %c767099878_i64, %alloc_10[%c0] : (i64, memref<3xi64>) -> i64
      %265 = math.expm1 %8 : tensor<15x15xf16>
      scf.yield
    }
    case 3 {
      %254 = index.add %41, %56
      %255 = arith.remf %cst_4, %cst_3 : f32
      %alloc_51 = memref.alloc() : memref<3xi16>
      %256 = vector.reduction <maxf>, %20 : vector<15xf32> into f32
      %257 = vector.reduction <minf>, %20 : vector<15xf32> into f32
      %258 = math.atan %12 : tensor<16x3x10xf32>
      %259 = arith.ori %c1063595746_i32, %c1063595746_i32 : i32
      %260 = arith.subi %c223865476_i64, %c767099878_i64 : i64
      %261 = arith.remui %true, %true : i1
      %262 = math.roundeven %cst_1 : f16
      %263 = tensor.empty() : tensor<3xi32>
      %mapped_52 = linalg.map ins(%alloc_13, %alloc_13 : memref<3xi32>, memref<3xi32>) outs(%263 : tensor<3xi32>)
        (%in: i32, %in_54: i32) {
          %268 = math.cttz %14 : tensor<3xi16>
          %269 = vector.reduction <add>, %20 : vector<15xf32> into f32
          %270 = math.floor %9 : tensor<3xf16>
          %271 = arith.muli %in, %c872239861_i32 : i32
          %272 = tensor.empty() : tensor<16x3x10xf16>
          %273 = math.absf %8 : tensor<15x15xf16>
          %rank_55 = tensor.rank %8 : tensor<15x15xf16>
          %274 = index.maxs %c3, %c8
          %275 = memref.realloc %alloc_20 : memref<10xf16> to memref<15xf16>
          %276 = math.log10 %8 : tensor<15x15xf16>
          %277 = arith.minui %c1063595746_i32, %c522205298_i32 : i32
          %278 = bufferization.clone %alloc_8 : memref<15x15xf32> to memref<15x15xf32>
          %279 = math.absi %in : i32
          %280 = vector.broadcast %c-11434_i16 : i16 to vector<3xi16>
          %281 = vector.broadcast %true : i1 to vector<3xi1>
          %282 = vector.maskedload %alloc_15[%c14, %c10], %281, %280 : memref<15x15xi16>, vector<3xi1>, vector<3xi16> into vector<3xi16>
          %283 = vector.broadcast %c11 : index to vector<15xindex>
          %284 = vector.broadcast %true : i1 to vector<15xi1>
          vector.scatter %alloc_8[%c2, %c13] [%283], %284, %20 : memref<15x15xf32>, vector<15xindex>, vector<15xi1>, vector<15xf32>
          %285 = arith.shrsi %in, %in : i32
          %286 = math.fma %11, %272, %272 : tensor<16x3x10xf16>
          %287 = memref.realloc %alloc_20 : memref<10xf16> to memref<3xf16>
          %288 = affine.apply affine_map<(d0, d1, d2, d3) -> ((d2 mod 64 + d0) * 8)>(%c11, %c11, %rank_55, %c5)
          %289 = affine.load %alloc_6[%c11, %c1] : memref<15x15xi16>
          %290 = arith.remf %cst_0, %cst_1 : f16
          %291 = arith.mulf %cst_4, %cst_2 : f32
          %292 = arith.mulf %cst_1, %cst_1 : f16
          %293 = tensor.empty() : tensor<15x15xi1>
          %294 = linalg.matmul ins(%6, %6 : tensor<15x15xi1>, tensor<15x15xi1>) outs(%293 : tensor<15x15xi1>) -> tensor<15x15xi1>
          %295 = arith.remf %cst_1, %cst_1 : f16
          %296 = vector.broadcast %c1 : index to vector<10xindex>
          %297 = vector.broadcast %true : i1 to vector<10xi1>
          %298 = vector.broadcast %cst_0 : f16 to vector<10xf16>
          vector.scatter %alloc_20[%c8] [%296], %297, %298 : memref<10xf16>, vector<10xindex>, vector<10xi1>, vector<10xf16>
          %299 = bufferization.to_tensor %alloc_9 : memref<15x15xf32>
          %300 = vector.flat_transpose %281 {columns = 3 : i32, rows = 1 : i32} : vector<3xi1> -> vector<3xi1>
          %301 = vector.reduction <maxui>, %280 : vector<3xi16> into i16
          %c1_i16 = arith.constant 1 : i16
          %302 = vector.transfer_read %0[%c1], %c1_i16 : tensor<3xi16>, vector<i16>
          memref.assume_alignment %alloc_15, 16 : memref<15x15xi16>
          %303 = math.exp2 %16 : tensor<16x3x10xf16>
          %c0_i32 = arith.constant 0 : i32
          linalg.yield %c0_i32 : i32
        }
      %264 = affine.if affine_set<(d0, d1, d2, d3) : (-(d1 - 64) >= 0)>(%c15, %c0, %c14, %c10) -> i64 {
        %268 = math.floor %11 : tensor<16x3x10xf16>
        %269 = memref.realloc %alloc_10 : memref<3xi64> to memref<10xi64>
        %alloc_54 = memref.alloc() : memref<16x15x10xi1>
        memref.copy %alloc_18, %alloc_54 : memref<16x15x10xi1> to memref<16x15x10xi1>
        %270 = math.roundeven %15 : tensor<15x15xf16>
        %271 = arith.remsi %c522205298_i32, %c1063595746_i32 : i32
        %272 = arith.xori %c223865476_i64, %c223865476_i64 : i64
        %273 = arith.ceildivsi %c28366_i16, %c28366_i16 : i16
        %274 = arith.maxf %cst_4, %cst_3 : f32
        affine.yield %c767099878_i64 : i64
      } else {
        %268 = tensor.empty() : tensor<16x15x10xf32>
        %269 = math.ceil %cst_2 : f32
        %alloca_54 = memref.alloca() : memref<15x15xf16>
        %270 = arith.ceildivsi %c28366_i16, %c-11434_i16 : i16
        %271 = vector.broadcast %c28366_i16 : i16 to vector<i16>
        %272 = vector.transfer_write %271, %14[%c3] : vector<i16>, tensor<3xi16>
        %273 = math.copysign %15, %15 : tensor<15x15xf16>
        %274 = arith.xori %c767099878_i64, %43 : i64
        %275 = math.fma %cst_1, %cst, %cst_1 : f16
        affine.yield %c1514081338_i64 : i64
      }
      %265 = memref.realloc %alloc_14 : memref<3xf16> to memref<3xf16>
      %266 = arith.muli %c-11434_i16, %c28366_i16 : i16
      %extracted_53 = tensor.extract %6[%c11, %c2] : tensor<15x15xi1>
      %267 = arith.cmpi sle, %c1514081338_i64, %c1514081338_i64 : i64
      scf.yield
    }
    default {
      %254 = math.exp %28 : tensor<3xf32>
      %255 = affine.load %alloc_15[%c14, %c9] : memref<15x15xi16>
      %256 = arith.xori %c-11434_i16, %255 : i16
      %257 = arith.remui %c522205298_i32, %c1063595746_i32 : i32
      %258 = tensor.empty() : tensor<15x15xi64>
      %259 = linalg.matmul ins(%1, %1 : tensor<15x15xi64>, tensor<15x15xi64>) outs(%258 : tensor<15x15xi64>) -> tensor<15x15xi64>
      %inserted_51 = tensor.insert %cst_3 into %12[%c4, %c0, %c8] : tensor<16x3x10xf32>
      %260 = index.ceildivu %c3, %c5
      %261 = vector.matrix_multiply %20, %20 {lhs_columns = 15 : i32, lhs_rows = 1 : i32, rhs_columns = 1 : i32} : (vector<15xf32>, vector<15xf32>) -> vector<1xf32>
      %262 = bufferization.to_tensor %alloc_8 : memref<15x15xf32>
      %263 = memref.realloc %alloc_19 : memref<3xi64> to memref<10xi64>
      %rank_52 = tensor.rank %4 : tensor<3xi32>
      %264 = affine.apply affine_map<(d0, d1) -> ((d1 - (d0 - 2)) floordiv 2)>(%c4, %c12)
      %265 = memref.atomic_rmw maxu %255, %alloc_12[%c11, %c1] : (i16, memref<15x15xi16>) -> i16
      %266 = index.divs %c4, %264
      %267 = math.tan %28 : tensor<3xf32>
      %268 = math.ipowi %c2124661813_i32, %c872239861_i32 : i32
    }
    %58 = math.atan2 %cst_0, %cst_1 : f16
    %59 = arith.shli %c2124661813_i32, %c2124661813_i32 : i32
    %60 = memref.atomic_rmw addi %c1063595746_i32, %alloc_13[%c1] : (i32, memref<3xi32>) -> i32
    %splat_22 = tensor.splat %c872239861_i32 : tensor<16x3x10xi32>
    %61 = arith.ceildivsi %43, %c223865476_i64 : i64
    %62 = math.expm1 %11 : tensor<16x3x10xf16>
    %63 = math.fma %3, %11, %3 : tensor<16x3x10xf16>
    %64 = arith.floordivsi %c1514081338_i64, %c223865476_i64 : i64
    %65 = affine.load %alloc_12[%c9, %c7] : memref<15x15xi16>
    %66 = math.rsqrt %9 : tensor<3xf16>
    %alloc_23 = memref.alloc() : memref<16xf16>
    %67 = linalg.generic {indexing_maps = [affine_map<(d0, d1, d2) -> (d0)>, affine_map<(d0, d1, d2) -> (d0, d1, d2)>], iterator_types = ["parallel", "parallel", "parallel"]} ins(%alloc_23 : memref<16xf16>) outs(%11 : tensor<16x3x10xf16>) {
    ^bb0(%in: f16, %out: f16):
      %254 = index.add %c3, %c8
      %255 = arith.remf %cst, %cst : f16
      %256 = arith.remui %true, %true : i1
      %257 = math.ipowi %10, %10 : tensor<16x15x10xi16>
      memref.assume_alignment %alloc_5, 8 : memref<16x15x10xi64>
      %258 = arith.shrui %c2124661813_i32, %c1063595746_i32 : i32
      %259 = vector.flat_transpose %20 {columns = 5 : i32, rows = 3 : i32} : vector<15xf32> -> vector<15xf32>
      %260 = math.powf %in, %cst_0 : f16
      %261 = memref.load %alloc_13[%c2] : memref<3xi32>
      %262 = math.absf %cst_1 : f16
      %263 = vector.extract_strided_slice %29 {offsets = [11], sizes = [3], strides = [1]} : vector<16x15x10xf32> to vector<3x15x10xf32>
      %264 = vector.broadcast %c2 : index to vector<3xindex>
      %265 = vector.broadcast %true : i1 to vector<3xi1>
      %266 = vector.broadcast %cst_2 : f32 to vector<3xf32>
      vector.scatter %alloc_9[%c5, %c4] [%264], %265, %266 : memref<15x15xf32>, vector<3xindex>, vector<3xi1>, vector<3xf32>
      %267 = index.mul %c4, %c2
      %268 = math.exp2 %in : f16
      %269 = math.fma %21, %21, %21 : tensor<10xf16>
      %270 = vector.bitcast %30 : vector<16x15x10xi1> to vector<16x15x10xi1>
      %271 = math.atan2 %23, %22 : tensor<f16>
      %true_51 = index.bool.constant true
      %272 = math.copysign %8, %8 : tensor<15x15xf16>
      %inserted_52 = tensor.insert %cst into %11[%c4, %c2, %c1] : tensor<16x3x10xf16>
      memref.alloca_scope  {
        %283 = math.tan %11 : tensor<16x3x10xf16>
        %284 = arith.remui %c-11434_i16, %c-11434_i16 : i16
        %285 = arith.cmpf ord, %cst, %cst_0 : f16
        %286 = math.expm1 %cst_0 : f16
        %287 = vector.broadcast %cst_2 : f32 to vector<15x15xf32>
        %288 = vector.outerproduct %259, %20, %287 {kind = #vector.kind<maxf>} : vector<15xf32>, vector<15xf32>
        %289 = arith.shrui %c-11434_i16, %c-11434_i16 : i16
        %290 = math.ctlz %4 : tensor<3xi32>
        %291 = math.ipowi %4, %4 : tensor<3xi32>
        memref.assume_alignment %alloc, 8 : memref<15x15xi1>
        %alloc_54 = memref.alloc() : memref<16x15x10xi16>
        memref.tensor_store %10, %alloc_54 : memref<16x15x10xi16>
        %292 = memref.realloc %alloc_10 : memref<3xi64> to memref<16xi64>
        %293 = math.tan %23 : tensor<f16>
        %294 = vector.broadcast %cst_4 : f32 to vector<15x15xf32>
        %295 = vector.outerproduct %259, %20, %294 {kind = #vector.kind<add>} : vector<15xf32>, vector<15xf32>
        %296 = bufferization.clone %alloc_17 : memref<3xf32> to memref<3xf32>
        %297 = math.exp2 %3 : tensor<16x3x10xf16>
        memref.store %cst_4, %296[%c1] : memref<3xf32>
        %298 = affine.min affine_map<(d0, d1, d2, d3) -> (d1 - 2, (d2 + d1) * -8, (d2 + d1 + d1 + d1) floordiv 2)>(%c12, %c7, %c1, %c11)
        %299 = arith.minui %true_51, %true : i1
        %300 = arith.maxui %c2124661813_i32, %c1063595746_i32 : i32
        %301 = vector.broadcast %true : i1 to vector<16x15xi1>
        %302 = vector.multi_reduction <maxui>, %30, %301 [2] : vector<16x15x10xi1> to vector<16x15xi1>
        %303 = math.fma %cst_3, %cst_2, %cst_3 : f32
        %304 = arith.muli %43, %43 : i64
        %305 = math.round %9 : tensor<3xf16>
        affine.store %c28366_i16, %alloc_12[%c0, %c5] : memref<15x15xi16>
        %306 = arith.ceildivsi %65, %c28366_i16 : i16
        %307 = math.copysign %17, %3 : tensor<16x3x10xf16>
        affine.store %true, %alloc_18[%c2, %c6, %c14] : memref<16x15x10xi1>
        %308 = math.roundeven %15 : tensor<15x15xf16>
        %309 = arith.maxf %cst_0, %cst_1 : f16
        %310 = vector.broadcast %cst_4 : f32 to vector<15x10xf32>
        %dest_55, %accumulated_value_56 = vector.scan <add>, %263, %310 {inclusive = false, reduction_dim = 0 : i64} : vector<3x15x10xf32>, vector<15x10xf32>
        %311 = vector.flat_transpose %20 {columns = 5 : i32, rows = 3 : i32} : vector<15xf32> -> vector<15xf32>
        %312 = vector.broadcast %c13 : index to vector<3xindex>
        %313 = vector.broadcast %true_51 : i1 to vector<3xi1>
        %314 = vector.broadcast %cst_2 : f32 to vector<3xf32>
        vector.scatter %alloc_17[%c1] [%312], %313, %314 : memref<3xf32>, vector<3xindex>, vector<3xi1>, vector<3xf32>
      }
      %273 = math.tan %9 : tensor<3xf16>
      %274 = memref.alloca_scope  -> (i1) {
        %283 = math.cos %22 : tensor<f16>
        %284 = math.fma %11, %17, %16 : tensor<16x3x10xf16>
        %inserted_54 = tensor.insert %cst_3 into %13[%c4, %c1] : tensor<15x15xf32>
        %285 = vector.broadcast %267 : index to vector<15xindex>
        %286 = vector.broadcast %true_51 : i1 to vector<15xi1>
        vector.scatter %alloc_16[%c0, %c10, %c7] [%285], %286, %259 : memref<16x15x10xf32>, vector<15xindex>, vector<15xi1>, vector<15xf32>
        %287 = arith.subi %true_51, %true : i1
        memref.tensor_store %28, %alloc_17 : memref<3xf32>
        %288 = tensor.empty() : tensor<15x15xi16>
        %289 = linalg.matmul ins(%27, %27 : tensor<15x15xi16>, tensor<15x15xi16>) outs(%288 : tensor<15x15xi16>) -> tensor<15x15xi16>
        %290 = affine.min affine_map<(d0) -> (d0 * 2)>(%c10)
        %291 = arith.subi %c28366_i16, %65 : i16
        %292 = arith.subi %c-11434_i16, %65 : i16
        %293 = arith.maxf %cst, %cst : f16
        %294 = math.tan %15 : tensor<15x15xf16>
        %true_55 = index.bool.constant true
        %295 = vector.bitcast %20 : vector<15xf32> to vector<15xf32>
        %c2143740252_i32 = arith.constant 2143740252 : i32
        %cst_56 = arith.constant 1.000000e+00 : f32
        %296 = vector.transfer_read %alloc_16[%c1, %c2, %c10], %cst_56 : memref<16x15x10xf32>, vector<16xf32>
        affine.store %c28366_i16, %alloc_15[%c9, %c0] : memref<15x15xi16>
        %297 = tensor.empty() : tensor<15x15xf16>
        %298 = linalg.matmul ins(%8, %8 : tensor<15x15xf16>, tensor<15x15xf16>) outs(%297 : tensor<15x15xf16>) -> tensor<15x15xf16>
        %299 = math.cos %22 : tensor<f16>
        %300 = arith.minf %in, %cst_1 : f16
        %301 = arith.maxui %true_51, %true : i1
        %302 = affine.load %alloc_15[%c10, %c10] : memref<15x15xi16>
        %303 = arith.maxf %cst_56, %cst_3 : f32
        %304 = math.cttz %c-11434_i16 : i16
        %305 = arith.muli %c-11434_i16, %302 : i16
        %extracted_57 = tensor.extract %7[%c2, %c5, %c4] : tensor<16x15x10xi1>
        %306 = vector.flat_transpose %295 {columns = 5 : i32, rows = 3 : i32} : vector<15xf32> -> vector<15xf32>
        %307 = affine.min affine_map<(d0, d1, d2, d3) -> (0)>(%c15, %c1, %c6, %c10)
        %308 = math.roundeven %cst_4 : f32
        %309 = vector.bitcast %36 : vector<1x4x10xf32> to vector<1x4x10xi32>
        %310 = index.divs %c7, %41
        %311 = tensor.empty() : tensor<3xf32>
        memref.alloca_scope.return %true_51 : i1
      }
      %275 = affine.if affine_set<(d0) : (d0 >= 0, -d0 >= 0, 30 >= 0, 1 == 0)>(%c15) -> f16 {
        %283 = math.copysign %cst_4, %cst_2 : f32
        %284 = arith.cmpi ule, %true_51, %true_51 : i1
        %285 = arith.minui %c223865476_i64, %c223865476_i64 : i64
        %286 = arith.minsi %true_51, %true_51 : i1
        %287 = index.divs %c2, %41
        %288 = index.casts %c9 : index to i32
        %289 = arith.minf %cst_2, %cst_3 : f32
        %290 = math.log %15 : tensor<15x15xf16>
        affine.yield %in : f16
      } else {
        %283 = index.add %c14, %56
        %284 = memref.atomic_rmw assign %cst_2, %alloc_7[%c11, %c12, %c9] : (f32, memref<16x15x10xf32>) -> f32
        %285 = index.castu %c522205298_i32 : i32 to index
        %286 = index.divs %267, %283
        %287 = index.add %c4, %254
        %288 = arith.maxf %cst_4, %cst_2 : f32
        %289 = arith.maxsi %true_51, %274 : i1
        %290 = math.rsqrt %15 : tensor<15x15xf16>
        affine.yield %in : f16
      }
      %276 = memref.alloca_scope  -> (i16) {
        %283 = math.tan %cst_3 : f32
        %284 = arith.shrui %c28366_i16, %c28366_i16 : i16
        %285 = math.log1p %15 : tensor<15x15xf16>
        %286 = arith.shrui %c1063595746_i32, %c2124661813_i32 : i32
        %287 = index.add %c14, %267
        %288 = arith.shrsi %c223865476_i64, %c767099878_i64 : i64
        %289 = index.sub %287, %c14
        %290 = arith.cmpf ult, %out, %out : f16
        %291 = math.absi %c872239861_i32 : i32
        %292 = arith.ori %true, %true_51 : i1
        %true_54 = index.bool.constant true
        bufferization.dealloc_tensor %1 : tensor<15x15xi64>
        %293 = arith.remf %cst_0, %cst_1 : f16
        memref.assume_alignment %alloc_16, 2 : memref<16x15x10xf32>
        %294 = vector.flat_transpose %259 {columns = 5 : i32, rows = 3 : i32} : vector<15xf32> -> vector<15xf32>
        %295 = arith.shrui %c-11434_i16, %c-11434_i16 : i16
        %296 = arith.maxui %c522205298_i32, %c1063595746_i32 : i32
        %297 = arith.minf %cst_2, %cst_4 : f32
        %298 = arith.shrui %c223865476_i64, %c1514081338_i64 : i64
        %299 = vector.broadcast %c7 : index to vector<16xindex>
        %300 = vector.broadcast %274 : i1 to vector<16xi1>
        vector.scatter %alloc_18[%c10, %c7, %c3] [%299], %300, %300 : memref<16x15x10xi1>, vector<16xindex>, vector<16xi1>, vector<16xi1>
        %301 = vector.broadcast %cst_3 : f32 to vector<3xf32>
        %302 = arith.remui %c2124661813_i32, %c2124661813_i32 : i32
        %303 = math.fma %cst_1, %cst_1, %in : f16
        %304 = arith.andi %true, %true_51 : i1
        %alloc_55 = memref.alloc() : memref<15x15xf16>
        %305 = memref.realloc %alloc_17 : memref<3xf32> to memref<15xf32>
        %306 = math.cos %13 : tensor<15x15xf32>
        affine.store %65, %alloc_12[%c7, %c6] : memref<15x15xi16>
        %inserted_56 = tensor.insert %c-11434_i16 into %14[%c1] : tensor<3xi16>
        %307 = index.add %c6, %c3
        %308 = math.ipowi %5, %14 : tensor<3xi16>
        %309 = arith.remf %cst_0, %cst_0 : f16
        memref.alloca_scope.return %c-11434_i16 : i16
      }
      %277 = arith.subi %65, %c-11434_i16 : i16
      %extracted_53 = tensor.extract %16[%c10, %c2, %c3] : tensor<16x3x10xf16>
      %278 = math.copysign %15, %8 : tensor<15x15xf16>
      %279 = arith.minui %276, %276 : i16
      %280 = affine.min affine_map<(d0, d1) -> (0, -(d0 + 8) + 132)>(%56, %c6)
      %281 = vector.create_mask %c13, %c1 : vector<15x15xi1>
      %282 = arith.minui %274, %274 : i1
      linalg.yield %cst_0 : f16
    } -> tensor<16x3x10xf16>
    %68 = math.roundeven %23 : tensor<f16>
    %69 = math.log2 %cst_0 : f16
    %70 = memref.alloca_scope  -> (memref<3xf32>) {
      %254 = index.floordivs %c2, %c8
      %cast = tensor.cast %23 : tensor<f16> to tensor<f16>
      %255 = index.divu %c0, %56
      %256 = arith.minsi %c1063595746_i32, %c872239861_i32 : i32
      bufferization.dealloc_tensor %splat_22 : tensor<16x3x10xi32>
      %generated_51 = tensor.generate %c14 {
      ^bb0(%arg3: index, %arg4: index, %arg5: index):
        %285 = arith.remsi %c767099878_i64, %c767099878_i64 : i64
        %286 = math.exp2 %12 : tensor<16x3x10xf32>
        %287 = tensor.empty() : tensor<3xi32>
        %288 = arith.addi %c28366_i16, %c28366_i16 : i16
        tensor.yield %c28366_i16 : i16
      } : tensor<?x15x10xi16>
      %257 = math.ipowi %1, %1 : tensor<15x15xi64>
      %258 = math.copysign %22, %22 : tensor<f16>
      %259 = vector.extract_strided_slice %36 {offsets = [0], sizes = [1], strides = [1]} : vector<1x4x10xf32> to vector<1x4x10xf32>
      %260 = arith.floordivsi %c1063595746_i32, %c872239861_i32 : i32
      %261 = vector.broadcast %c28366_i16 : i16 to vector<3xi16>
      %262 = vector.broadcast %true : i1 to vector<3xi1>
      %263 = vector.maskedload %alloc_15[%c0, %c5], %262, %261 : memref<15x15xi16>, vector<3xi1>, vector<3xi16> into vector<3xi16>
      %264 = vector.broadcast %cst_4 : f32 to vector<16x15x10xf32>
      %265 = vector.fma %264, %29, %264 : vector<16x15x10xf32>
      %266 = memref.alloca_scope  -> (memref<15x15xf32>) {
        %285 = math.roundeven %cst : f16
        %286 = math.exp %cst_0 : f16
        memref.store %cst_4, %alloc_9[%c9, %c2] : memref<15x15xf32>
        %287 = arith.minf %cst, %cst : f16
        %288 = vector.broadcast %c1063595746_i32 : i32 to vector<16x15xi32>
        %dest_54, %accumulated_value_55 = vector.scan <add>, %31, %288 {inclusive = false, reduction_dim = 2 : i64} : vector<16x15x10xi32>, vector<16x15xi32>
        %289 = vector.broadcast %cst_2 : f32 to vector<3xf32>
        %290 = index.divu %c8, %41
        %291 = math.absi %c2124661813_i32 : i32
        %cst_56 = arith.constant 0x4D87E0C6 : f32
        %292 = vector.insertelement %cst_2, %289[%c15 : index] : vector<3xf32>
        %293 = arith.ori %43, %c223865476_i64 : i64
        %294 = vector.broadcast %cst_3 : f32 to vector<16x15xf32>
        %dest_57, %accumulated_value_58 = vector.scan <minf>, %32, %294 {inclusive = false, reduction_dim = 2 : i64} : vector<16x15x10xf32>, vector<16x15xf32>
        %295 = tensor.empty(%c8) : tensor<15x?xi1>
        %296 = math.fma %11, %11, %17 : tensor<16x3x10xf16>
        %297 = bufferization.clone %alloc_10 : memref<3xi64> to memref<3xi64>
        %false_59 = arith.constant false
        %false_60 = arith.constant false
        %298 = vector.transfer_read %alloc[%c2, %c7], %false_60 : memref<15x15xi1>, vector<i1>
        %splat_61 = tensor.splat %cst_3 : tensor<16x15x10xf32>
        %299 = math.ctpop %c1063595746_i32 : i32
        %300 = vector.broadcast %cst_3 : f32 to vector<16x10xf32>
        %dest_62, %accumulated_value_63 = vector.scan <minf>, %29, %300 {inclusive = false, reduction_dim = 1 : i64} : vector<16x15x10xf32>, vector<16x10xf32>
        %301 = vector.broadcast %cst_3 : f32 to vector<3xf32>
        %302 = vector.fma %301, %301, %289 : vector<3xf32>
        %303 = arith.shrui %c2124661813_i32, %c1063595746_i32 : i32
        %304 = arith.floordivsi %65, %c28366_i16 : i16
        %305 = arith.xori %c223865476_i64, %43 : i64
        %306 = vector.insertelement %c28366_i16, %261[%c1 : index] : vector<3xi16>
        %alloca_64 = memref.alloca() : memref<3xf32>
        %307 = arith.addf %cst_3, %cst_4 : f32
        %308 = arith.shli %c1514081338_i64, %c1514081338_i64 : i64
        memref.assume_alignment %alloc_16, 4 : memref<16x15x10xf32>
        %309 = arith.minui %c223865476_i64, %c223865476_i64 : i64
        %310 = math.atan %cst_0 : f16
        %311 = index.castu %false_59 : i1 to index
        %312 = arith.xori %c2124661813_i32, %c2124661813_i32 : i32
        memref.alloca_scope.return %alloc_9 : memref<15x15xf32>
      }
      %267 = tensor.empty() : tensor<16x15x10xf16>
      %268 = arith.cmpi sle, %true, %true : i1
      %269 = math.absi %6 : tensor<15x15xi1>
      %270 = math.powf %16, %3 : tensor<16x3x10xf16>
      %extracted_52 = tensor.extract %12[%c9, %c0, %c6] : tensor<16x3x10xf32>
      %271 = arith.remsi %true, %true : i1
      %272 = vector.extract %265[2] : vector<16x15x10xf32>
      %273 = index.casts %c522205298_i32 : i32 to index
      %274 = arith.minui %c28366_i16, %65 : i16
      %275 = index.casts %65 : i16 to index
      %276 = math.expm1 %267 : tensor<16x15x10xf16>
      %277 = memref.alloca_scope  -> (memref<16x15x10xf32>) {
        bufferization.dealloc_tensor %8 : tensor<15x15xf16>
        %285 = vector.broadcast %extracted_52 : f32 to vector<16x15xf32>
        %dest_54, %accumulated_value_55 = vector.scan <mul>, %29, %285 {inclusive = false, reduction_dim = 2 : i64} : vector<16x15x10xf32>, vector<16x15xf32>
        %286 = vector.extract_strided_slice %32 {offsets = [7], sizes = [1], strides = [1]} : vector<16x15x10xf32> to vector<1x15x10xf32>
        %inserted_56 = tensor.insert %65 into %splat[%c6, %c7, %c0] : tensor<16x15x10xi16>
        %287 = index.divs %255, %56
        %288 = index.divs %c11, %c4
        %289 = arith.muli %true, %true : i1
        %290 = math.exp %11 : tensor<16x3x10xf16>
        %291 = arith.maxui %c1514081338_i64, %c223865476_i64 : i64
        %292 = math.absf %17 : tensor<16x3x10xf16>
        %293 = arith.andi %c223865476_i64, %43 : i64
        %294 = index.add %c6, %c0
        %295 = math.absf %11 : tensor<16x3x10xf16>
        %296 = affine.apply affine_map<(d0, d1, d2, d3) -> ((d3 - 132) ceildiv 2)>(%c14, %287, %41, %c8)
        %297 = arith.negf %cst : f16
        %298 = vector.broadcast %c2 : index to vector<16xindex>
        %299 = vector.broadcast %true : i1 to vector<16xi1>
        %300 = vector.broadcast %cst_3 : f32 to vector<16xf32>
        vector.scatter %alloc_7[%c2, %c13, %c5] [%298], %299, %300 : memref<16x15x10xf32>, vector<16xindex>, vector<16xi1>, vector<16xf32>
        %301 = arith.xori %c767099878_i64, %c767099878_i64 : i64
        %302 = math.absi %1 : tensor<15x15xi64>
        %extracted_57 = tensor.extract %transposed[%c2] : tensor<3xi64>
        %303 = arith.floordivsi %extracted_57, %43 : i64
        %304 = arith.mulf %extracted_52, %cst_2 : f32
        %305 = arith.remf %cst_2, %cst_2 : f32
        %306 = index.add %275, %273
        memref.assume_alignment %alloc_8, 8 : memref<15x15xf32>
        %307 = math.floor %23 : tensor<f16>
        %308 = math.ctpop %10 : tensor<16x15x10xi16>
        %309 = arith.maxf %cst_4, %cst_4 : f32
        %310 = index.maxs %255, %294
        %311 = vector.broadcast %c9 : index to vector<3xindex>
        vector.scatter %alloc_15[%c2, %c14] [%311], %262, %261 : memref<15x15xi16>, vector<3xindex>, vector<3xi1>, vector<3xi16>
        %c1_i16 = arith.constant 1 : i16
        %c0_i16_58 = arith.constant 0 : i16
        %312 = vector.transfer_read %14[%c7], %c0_i16_58 : tensor<3xi16>, vector<i16>
        %313 = math.absf %8 : tensor<15x15xf16>
        %314 = math.exp %11 : tensor<16x3x10xf16>
        memref.alloca_scope.return %alloc_7 : memref<16x15x10xf32>
      }
      %278 = math.cttz %transposed : tensor<3xi64>
      %279 = vector.broadcast %c9 : index to vector<16xindex>
      %280 = vector.broadcast %true : i1 to vector<16xi1>
      %281 = vector.broadcast %extracted_52 : f32 to vector<16xf32>
      vector.scatter %alloc_7[%c11, %c13, %c7] [%279], %280, %281 : memref<16x15x10xf32>, vector<16xindex>, vector<16xi1>, vector<16xf32>
      affine.store %cst_0, %alloc_14[%c0] : memref<3xf16>
      %282 = math.roundeven %21 : tensor<10xf16>
      %alloc_53 = memref.alloc() : memref<15x15xi64>
      memref.tensor_store %1, %alloc_53 : memref<15x15xi64>
      %283 = index.divs %c15, %273
      %284 = affine.apply affine_map<(d0, d1) -> (d0 - d1 + d0 floordiv 64)>(%c5, %c4)
      memref.alloca_scope.return %alloc_17 : memref<3xf32>
    }
    %71 = tensor.empty() : tensor<16xi1>
    %alloc_24 = memref.alloc() : memref<15x16xi1>
    %72 = linalg.generic {indexing_maps = [affine_map<(d0, d1, d2) -> (d0)>, affine_map<(d0, d1, d2) -> (d1, d0)>, affine_map<(d0, d1, d2) -> (d0, d1, d2)>], iterator_types = ["parallel", "parallel", "parallel"]} ins(%71, %alloc_24 : tensor<16xi1>, memref<15x16xi1>) outs(%7 : tensor<16x15x10xi1>) {
    ^bb0(%in: i1, %in_51: i1, %out: i1):
      %254 = vector.broadcast %c2124661813_i32 : i32 to vector<3xi32>
      %255 = index.maxs %c0, %c14
      %256 = math.ctlz %10 : tensor<16x15x10xi16>
      %257 = arith.shrui %out, %true : i1
      %alloc_52 = memref.alloc() : memref<16x15x10xf16>
      %258 = index.maxs %c3, %c9
      %259 = index.mul %41, %255
      %260 = arith.floordivsi %in_51, %out : i1
      %alloca_53 = memref.alloca() : memref<16x3x10xi1>
      %261 = affine.apply affine_map<(d0, d1, d2, d3) -> ((d3 - 132) ceildiv 2)>(%c13, %c2, %56, %c13)
      %262 = math.tanh %13 : tensor<15x15xf32>
      %263 = arith.xori %65, %c-11434_i16 : i16
      %264 = math.absf %3 : tensor<16x3x10xf16>
      %alloca_54 = memref.alloca() : memref<15x15xi32>
      %265 = arith.cmpf une, %cst_4, %cst_2 : f32
      %266 = index.divs %c13, %255
      %generated_55 = tensor.generate %c3 {
      ^bb0(%arg3: index, %arg4: index, %arg5: index):
        %283 = math.exp2 %cst_4 : f32
        %284 = affine.load %alloc_10[%c5] : memref<3xi64>
        %285 = index.divs %c0, %c7
        %286 = memref.realloc %alloc_19 : memref<3xi64> to memref<10xi64>
        tensor.yield %c2124661813_i32 : i32
      } : tensor<?x3x10xi32>
      %267 = index.sizeof
      %268 = arith.cmpi sgt, %c28366_i16, %c-11434_i16 : i16
      %269 = vector.broadcast %c5 : index to vector<10xindex>
      %270 = vector.broadcast %in : i1 to vector<10xi1>
      %271 = vector.broadcast %65 : i16 to vector<10xi16>
      vector.scatter %alloc_12[%c8, %c8] [%269], %270, %271 : memref<15x15xi16>, vector<10xindex>, vector<10xi1>, vector<10xi16>
      %272 = index.ceildivs %c9, %c14
      %273 = index.maxs %c9, %272
      %274 = memref.atomic_rmw assign %c872239861_i32, %alloc_13[%c2] : (i32, memref<3xi32>) -> i32
      %alloc_56 = memref.alloc() : memref<15x15xf16>
      %275 = vector.insertelement %cst_3, %20[%c5 : index] : vector<15xf32>
      %276 = memref.alloca_scope  -> (memref<16x3x10xf32>) {
        %283 = math.ctlz %27 : tensor<15x15xi16>
        %alloc_57 = memref.alloc() : memref<16x15x10xi32>
        memref.store %c-11434_i16, %alloc_15[%c6, %c10] : memref<15x15xi16>
        %284 = arith.remui %c522205298_i32, %c872239861_i32 : i32
        %285 = affine.load %alloc_15[%c3, %c11] : memref<15x15xi16>
        %c1_i64_58 = arith.constant 1 : i64
        %286 = vector.transfer_read %alloc_10[%c6], %c1_i64_58 : memref<3xi64>, vector<i64>
        %287 = arith.subi %c1_i64_58, %43 : i64
        %inserted_59 = tensor.insert %c522205298_i32 into %4[%c0] : tensor<3xi32>
        %288 = arith.remsi %43, %c1_i64_58 : i64
        %splat_60 = tensor.splat %cst_4 : tensor<16x15x10xf32>
        %289 = arith.cmpf uno, %cst, %cst_1 : f16
        %290 = arith.ceildivsi %out, %in_51 : i1
        %expanded_61 = tensor.expand_shape %8 [[0], [1, 2]] : tensor<15x15xf16> into tensor<15x15x1xf16>
        %291 = arith.ceildivsi %c28366_i16, %285 : i16
        %292 = arith.maxui %true, %out : i1
        %293 = math.floor %cst_1 : f16
        %294 = math.log1p %12 : tensor<16x3x10xf32>
        %extracted_62 = tensor.extract %16[%c11, %c1, %c6] : tensor<16x3x10xf16>
        %295 = index.divs %266, %c9
        %296 = vector.load %alloc_12[%c12, %c2] : memref<15x15xi16>, vector<3xi16>
        %297 = arith.negf %extracted_62 : f16
        %298 = arith.xori %c767099878_i64, %c223865476_i64 : i64
        %299 = affine.apply affine_map<(d0, d1, d2, d3) -> ((d3 - 132) ceildiv 2)>(%56, %41, %255, %41)
        %300 = arith.muli %c522205298_i32, %c522205298_i32 : i32
        %301 = vector.reduction <maxf>, %20 : vector<15xf32> into f32
        %302 = vector.matrix_multiply %254, %254 {lhs_columns = 3 : i32, lhs_rows = 1 : i32, rhs_columns = 1 : i32} : (vector<3xi32>, vector<3xi32>) -> vector<1xi32>
        %303 = vector.broadcast %cst : f16 to vector<15xf16>
        %304 = vector.broadcast %true : i1 to vector<15xi1>
        %305 = vector.maskedload %alloc_20[%c8], %304, %303 : memref<10xf16>, vector<15xi1>, vector<15xf16> into vector<15xf16>
        %306 = vector.bitcast %20 : vector<15xf32> to vector<15xf32>
        %307 = arith.ceildivsi %c522205298_i32, %c522205298_i32 : i32
        %308 = math.absf %extracted_62 : f16
        %309 = math.expm1 %8 : tensor<15x15xf16>
        %310 = index.castu %c1_i64_58 : i64 to index
        %alloc_63 = memref.alloc() : memref<16x3x10xf32>
        memref.alloca_scope.return %alloc_63 : memref<16x3x10xf32>
      }
      %277 = vector.load %alloc_11[%c14, %c1, %c8] : memref<16x3x10xi64>, vector<16x3x10xi64>
      %278 = vector.broadcast %43 : i64 to vector<3x10xi64>
      %279 = vector.insert %278, %277 [12] : vector<3x10xi64> into vector<16x3x10xi64>
      %280 = index.sub %56, %266
      %281 = arith.remf %cst_2, %cst_2 : f32
      memref.assume_alignment %alloc_15, 8 : memref<15x15xi16>
      %282 = math.expm1 %cst : f16
      linalg.yield %in : i1
    } -> tensor<16x15x10xi1>
    %73 = vector.splat %c0 : vector<3xindex>
    %74 = affine.min affine_map<(d0) -> ((d0 * 4) mod 8 - (d0 * 4 - 64) floordiv 128, 1, d0 + 8, d0 * 2)>(%c4)
    %75 = vector.load %alloc_5[%c8, %c1, %c0] : memref<16x15x10xi64>, vector<15x15xi64>
    %c0_i64 = arith.constant 0 : i64
    %c0_i64_25 = arith.constant 0 : i64
    %76 = vector.transfer_read %alloc_5[%c1, %c6, %c13], %c0_i64_25 {permutation_map = affine_map<(d0, d1, d2) -> (0, 0)>} : memref<16x15x10xi64>, vector<16x15xi64>
    %77 = math.expm1 %16 : tensor<16x3x10xf16>
    %78 = index.casts %c6 : index to i32
    memref.store %65, %alloc_15[%c13, %c0] : memref<15x15xi16>
    %79 = index.maxu %c8, %c8
    %80 = arith.shrui %c-11434_i16, %65 : i16
    %81 = vector.insertelement %cst_2, %20[%c14 : index] : vector<15xf32>
    %inserted_26 = tensor.insert %true into %6[%c9, %c4] : tensor<15x15xi1>
    %82 = index.divu %42, %c0
    memref.store %true, %alloc[%c1, %c1] : memref<15x15xi1>
    %83 = math.rsqrt %11 : tensor<16x3x10xf16>
    %84 = index.mul %c11, %41
    %85 = memref.alloca_scope  -> (memref<16x3x10xf16>) {
      %254 = index.add %c15, %c8
      %255 = index.mul %254, %c8
      %256 = math.cos %13 : tensor<15x15xf32>
      %257 = affine.for %arg3 = 0 to 98 iter_args(%arg4 = %alloc_16) -> (memref<16x15x10xf32>) {
        affine.yield %alloc_7 : memref<16x15x10xf32>
      }
      %true_51 = arith.constant true
      %258 = arith.shrsi %c-11434_i16, %65 : i16
      %259 = arith.remf %cst_3, %cst_4 : f32
      %260 = math.floor %15 : tensor<15x15xf16>
      %cst_52 = arith.constant 1.000000e+00 : f32
      %261 = vector.transfer_read %70[%c2], %cst_52 : memref<3xf32>, vector<f32>
      %262 = index.castu %79 : index to i32
      %263 = index.divu %c1, %84
      memref.assume_alignment %alloc_9, 16 : memref<15x15xf32>
      %264 = vector.reduction <add>, %20 : vector<15xf32> into f32
      %265 = index.mul %c14, %42
      %generated_53 = tensor.generate %82 {
      ^bb0(%arg3: index):
        %282 = math.absf %cst_1 : f16
        %283 = arith.xori %c-11434_i16, %c-11434_i16 : i16
        %284 = math.expm1 %13 : tensor<15x15xf32>
        %285 = index.floordivs %c8, %c11
        tensor.yield %true : i1
      } : tensor<?xi1>
      %266 = math.round %15 : tensor<15x15xf16>
      %267 = arith.muli %c1063595746_i32, %c1063595746_i32 : i32
      %268 = math.cos %8 : tensor<15x15xf16>
      %269 = math.tan %15 : tensor<15x15xf16>
      %270 = arith.floordivsi %c0_i64, %c767099878_i64 : i64
      %271 = math.sqrt %11 : tensor<16x3x10xf16>
      %272 = index.maxs %84, %c14
      %273 = vector.broadcast %c522205298_i32 : i32 to vector<16x15xi32>
      %dest_54, %accumulated_value_55 = vector.scan <minui>, %31, %273 {inclusive = false, reduction_dim = 2 : i64} : vector<16x15x10xi32>, vector<16x15xi32>
      %274 = math.tan %13 : tensor<15x15xf32>
      %275 = index.add %42, %c2
      %276 = memref.alloca_scope  -> (i64) {
        %282 = vector.broadcast %c1063595746_i32 : i32 to vector<3xi32>
        %283 = math.exp2 %12 : tensor<16x3x10xf32>
        %284 = index.casts %c10 : index to i32
        %285 = arith.andi %c-11434_i16, %65 : i16
        %286 = bufferization.clone %alloc : memref<15x15xi1> to memref<15x15xi1>
        %287 = index.maxu %c10, %74
        %288 = math.tan %8 : tensor<15x15xf16>
        %289 = memref.atomic_rmw maxu %c0_i64, %alloc_11[%c12, %c2, %c9] : (i64, memref<16x3x10xi64>) -> i64
        %alloc_58 = memref.alloc() : memref<15x15xf16>
        %290 = arith.xori %c767099878_i64, %43 : i64
        %291 = index.ceildivs %265, %c4
        %292 = arith.addi %c522205298_i32, %c872239861_i32 : i32
        %293 = arith.negf %cst_2 : f32
        %294 = index.add %c13, %c5
        %295 = arith.addf %cst_4, %cst_2 : f32
        %296 = memref.realloc %70 : memref<3xf32> to memref<3xf32>
        %297 = index.sizeof
        %298 = math.round %12 : tensor<16x3x10xf32>
        %299 = index.add %272, %291
        %300 = math.atan2 %3, %17 : tensor<16x3x10xf16>
        %301 = arith.floordivsi %c0_i64, %c767099878_i64 : i64
        %302 = math.floor %28 : tensor<3xf32>
        %303 = math.log10 %11 : tensor<16x3x10xf16>
        %304 = math.copysign %cst_0, %cst : f16
        %305 = arith.remui %c223865476_i64, %c223865476_i64 : i64
        %306 = math.absf %15 : tensor<15x15xf16>
        %307 = index.maxu %263, %291
        %308 = arith.addi %c0_i64, %c223865476_i64 : i64
        %309 = arith.remui %c2124661813_i32, %c2124661813_i32 : i32
        %310 = vector.extract_strided_slice %30 {offsets = [1, 1], sizes = [1, 5], strides = [1, 1]} : vector<16x15x10xi1> to vector<1x5x10xi1>
        %splat_59 = tensor.splat %c1514081338_i64 : tensor<16x3x10xi64>
        %311 = arith.minf %cst_3, %cst_2 : f32
        memref.alloca_scope.return %c767099878_i64 : i64
      }
      %277 = memref.atomic_rmw mulf %cst_3, %alloc_9[%c1, %c12] : (f32, memref<15x15xf32>) -> f32
      %278 = arith.minf %cst_3, %cst_2 : f32
      %279 = vector.bitcast %32 : vector<16x15x10xf32> to vector<16x15x10xf32>
      %280 = linalg.generic {indexing_maps = [affine_map<(d0, d1, d2) -> (d0, d1, d2)>, affine_map<(d0, d1, d2) -> (d0, d1, d2)>], iterator_types = ["parallel", "parallel", "parallel"]} ins(%splat : tensor<16x15x10xi16>) outs(%10 : tensor<16x15x10xi16>) {
      ^bb0(%in: i16, %out: i16):
        %splat_58 = tensor.splat %cst_2 : tensor<15x15xf32>
        %282 = math.ceil %15 : tensor<15x15xf16>
        %alloca_59 = memref.alloca() : memref<15x15xi1>
        %283 = vector.bitcast %29 : vector<16x15x10xf32> to vector<16x15x10xf32>
        %284 = math.tan %9 : tensor<3xf16>
        %alloc_60 = memref.alloc() : memref<16x3x10xi16>
        %285 = index.castu %65 : i16 to index
        %286 = arith.minui %c-11434_i16, %65 : i16
        %287 = arith.cmpf oge, %cst_2, %cst_52 : f32
        %288 = math.ipowi %10, %10 : tensor<16x15x10xi16>
        %289 = index.castu %c872239861_i32 : i32 to index
        %290 = arith.xori %c767099878_i64, %43 : i64
        %291 = math.atan2 %9, %9 : tensor<3xf16>
        %292 = index.ceildivs %74, %c4
        %293 = arith.andi %c522205298_i32, %c872239861_i32 : i32
        %294 = arith.mulf %cst_2, %cst_2 : f32
        %295 = arith.remf %cst, %cst : f16
        %296 = arith.remf %cst_52, %cst_3 : f32
        %297 = vector.reduction <minf>, %20 : vector<15xf32> into f32
        %298 = arith.divsi %c1063595746_i32, %c872239861_i32 : i32
        %299 = index.floordivs %c12, %c2
        %300 = index.divs %56, %79
        %301 = index.maxs %c6, %56
        %302 = index.maxs %c15, %c13
        %alloc_61 = memref.alloc() : memref<15x15xf32>
        %303 = index.divs %c7, %c9
        %304 = vector.broadcast %263 : index to vector<10xindex>
        %305 = vector.broadcast %true : i1 to vector<10xi1>
        %306 = vector.broadcast %c2124661813_i32 : i32 to vector<10xi32>
        vector.scatter %alloc_13[%c2] [%304], %305, %306 : memref<3xi32>, vector<10xindex>, vector<10xi1>, vector<10xi32>
        %splat_62 = tensor.splat %out : tensor<3xi16>
        %307 = vector.broadcast %c3 : index to vector<15xindex>
        %308 = vector.broadcast %true : i1 to vector<15xi1>
        vector.scatter %alloc_16[%c11, %c1, %c1] [%307], %308, %20 : memref<16x15x10xf32>, vector<15xindex>, vector<15xi1>, vector<15xf32>
        %309 = arith.shli %out, %c-11434_i16 : i16
        %310 = index.floordivs %299, %74
        %311 = vector.bitcast %20 : vector<15xf32> to vector<15xi32>
        linalg.yield %c-11434_i16 : i16
      } -> tensor<16x15x10xi16>
      %from_elements_56 = tensor.from_elements %true, %true, %true : tensor<3xi1>
      %281 = arith.negf %cst_0 : f16
      %alloc_57 = memref.alloc() : memref<16x3x10xf16>
      memref.alloca_scope.return %alloc_57 : memref<16x3x10xf16>
    }
    %86 = index.maxs %79, %79
    %87 = vector.broadcast %c28366_i16 : i16 to vector<16x3x10xi16>
    %rank = tensor.rank %14 : tensor<3xi16>
    %88 = math.exp2 %13 : tensor<15x15xf32>
    %89 = index.casts %c223865476_i64 : i64 to index
    %90 = arith.floordivsi %c1063595746_i32, %c872239861_i32 : i32
    %91 = memref.load %70[%c0] : memref<3xf32>
    %92 = memref.atomic_rmw addf %cst_3, %alloc_9[%c2, %c7] : (f32, memref<15x15xf32>) -> f32
    %93 = arith.addi %c28366_i16, %c28366_i16 : i16
    %94 = math.fma %17, %17, %17 : tensor<16x3x10xf16>
    %95 = arith.ceildivsi %c0_i64, %c1514081338_i64 : i64
    memref.alloca_scope  {
      %254 = math.absf %13 : tensor<15x15xf32>
      %255 = memref.atomic_rmw mulf %cst_4, %70[%c0] : (f32, memref<3xf32>) -> f32
      %256 = math.roundeven %9 : tensor<3xf16>
      %257 = vector.matrix_multiply %20, %20 {lhs_columns = 15 : i32, lhs_rows = 1 : i32, rhs_columns = 1 : i32} : (vector<15xf32>, vector<15xf32>) -> vector<1xf32>
      %258 = vector.broadcast %c0_i64 : i64 to vector<16xi64>
      %259 = vector.broadcast %true : i1 to vector<16xi1>
      %260 = vector.maskedload %alloc_10[%c2], %259, %258 : memref<3xi64>, vector<16xi1>, vector<16xi64> into vector<16xi64>
      %261 = math.atan %21 : tensor<10xf16>
      %262 = arith.ceildivsi %c1514081338_i64, %c1514081338_i64 : i64
      %263 = math.rsqrt %11 : tensor<16x3x10xf16>
      %264 = bufferization.clone %70 : memref<3xf32> to memref<3xf32>
      %265 = index.casts %c2124661813_i32 : i32 to index
      %266 = tensor.empty() : tensor<15x15xf16>
      %267 = linalg.matmul ins(%8, %15 : tensor<15x15xf16>, tensor<15x15xf16>) outs(%266 : tensor<15x15xf16>) -> tensor<15x15xf16>
      %268 = math.exp %9 : tensor<3xf16>
      %269 = affine.apply affine_map<(d0) -> (d0 * 16)>(%c5)
      %270 = arith.ori %c872239861_i32, %c1063595746_i32 : i32
      %271 = memref.alloca_scope  -> (memref<3xf16>) {
        %288 = math.ceil %3 : tensor<16x3x10xf16>
        %extracted_56 = tensor.extract %9[%c1] : tensor<3xf16>
        %289 = bufferization.to_tensor %alloc_12 : memref<15x15xi16>
        %290 = vector.extract_strided_slice %31 {offsets = [12], sizes = [1], strides = [1]} : vector<16x15x10xi32> to vector<1x15x10xi32>
        %291 = index.maxs %c12, %86
        %292 = vector.broadcast %cst_4 : f32 to vector<15x15xf32>
        %293 = vector.outerproduct %20, %20, %292 {kind = #vector.kind<add>} : vector<15xf32>, vector<15xf32>
        %294 = arith.addi %c872239861_i32, %c522205298_i32 : i32
        %295 = arith.ceildivsi %c-11434_i16, %c28366_i16 : i16
        %extracted_57 = tensor.extract %27[%c5, %c0] : tensor<15x15xi16>
        %296 = math.exp2 %11 : tensor<16x3x10xf16>
        %297 = arith.ceildivsi %c1063595746_i32, %c2124661813_i32 : i32
        %298 = math.copysign %8, %266 : tensor<15x15xf16>
        %299 = vector.broadcast %cst_3 : f32 to vector<3xf32>
        %300 = vector.broadcast %true : i1 to vector<3xi1>
        %301 = vector.maskedload %alloc_8[%c6, %c8], %300, %299 : memref<15x15xf32>, vector<3xi1>, vector<3xf32> into vector<3xf32>
        %302 = index.maxs %291, %c9
        %303 = bufferization.clone %alloc_8 : memref<15x15xf32> to memref<15x15xf32>
        %304 = index.add %c3, %56
        %305 = arith.xori %true, %true : i1
        %306 = index.floordivs %c12, %c0
        %307 = arith.floordivsi %extracted_57, %65 : i16
        %308 = vector.broadcast %cst_3 : f32 to vector<16x10xf32>
        %dest_58, %accumulated_value_59 = vector.scan <mul>, %29, %308 {inclusive = false, reduction_dim = 1 : i64} : vector<16x15x10xf32>, vector<16x10xf32>
        %309 = arith.addi %c1514081338_i64, %c767099878_i64 : i64
        %310 = math.ipowi %7, %7 : tensor<16x15x10xi1>
        %311 = vector.reduction <and>, %260 : vector<16xi64> into i64
        %312 = math.ctlz %6 : tensor<15x15xi1>
        %313 = math.round %extracted_56 : f16
        memref.tensor_store %7, %alloc_18 : memref<16x15x10xi1>
        %314 = index.floordivs %c1, %56
        %315 = arith.maxui %c872239861_i32, %c1063595746_i32 : i32
        %316 = arith.cmpi sle, %c522205298_i32, %c1063595746_i32 : i32
        %317 = tensor.empty() : tensor<16x3x10xi64>
        %318 = vector.broadcast %true : i1 to vector<15x15xi1>
        %319 = vector.broadcast %c1063595746_i32 : i32 to vector<15x15xi32>
        %320 = vector.gather %317[%c0, %302, %c4] [%319], %318, %75 : tensor<16x3x10xi64>, vector<15x15xi32>, vector<15x15xi1>, vector<15x15xi64> into vector<15x15xi64>
        %321 = arith.floordivsi %extracted_57, %extracted_57 : i16
        %322 = math.cos %21 : tensor<10xf16>
        memref.alloca_scope.return %alloc_14 : memref<3xf16>
      }
      %272 = vector.broadcast %c6 : index to vector<15xindex>
      %273 = vector.broadcast %true : i1 to vector<15xi1>
      %274 = vector.broadcast %c767099878_i64 : i64 to vector<15xi64>
      vector.scatter %alloc_10[%c0] [%272], %273, %274 : memref<3xi64>, vector<15xindex>, vector<15xi1>, vector<15xi64>
      %275 = arith.remf %cst_3, %cst_4 : f32
      %false_51 = arith.constant false
      %276 = vector.transfer_read %7[%c11, %265, %c0], %false_51 : tensor<16x15x10xi1>, vector<i1>
      %277 = math.ceil %cst_3 : f32
      %278 = memref.atomic_rmw ori %c0_i64, %alloc_5[%c12, %c12, %c0] : (i64, memref<16x15x10xi64>) -> i64
      %279 = index.castu %c0_i64 : i64 to index
      %280 = math.absf %3 : tensor<16x3x10xf16>
      %inserted_52 = tensor.insert %c2124661813_i32 into %4[%c1] : tensor<3xi32>
      %281 = arith.shrui %65, %c28366_i16 : i16
      %282 = math.powf %3, %11 : tensor<16x3x10xf16>
      %283 = bufferization.clone %alloc_19 : memref<3xi64> to memref<3xi64>
      %splat_53 = tensor.splat %c522205298_i32 : tensor<15x15xi32>
      %284 = math.cos %12 : tensor<16x3x10xf32>
      %285 = tensor.empty() : tensor<3xi32>
      %mapped_54 = linalg.map ins(%4 : tensor<3xi32>) outs(%285 : tensor<3xi32>)
        (%in: i32) {
          %288 = math.powf %16, %3 : tensor<16x3x10xf16>
          %289 = arith.muli %c1514081338_i64, %c223865476_i64 : i64
          %inserted_56 = tensor.insert %c1063595746_i32 into %2[%c1] : tensor<3xi32>
          %splat_57 = tensor.splat %c0_i64 : tensor<16x15x10xi64>
          %true_58 = index.bool.constant true
          %290 = math.powf %12, %12 : tensor<16x3x10xf32>
          %291 = index.floordivs %79, %c10
          %292 = vector.broadcast %in : i32 to vector<10xi32>
          %293 = vector.insert %292, %31 [10, 2] : vector<10xi32> into vector<16x15x10xi32>
          memref.store %c223865476_i64, %alloc_5[%c15, %c8, %c4] : memref<16x15x10xi64>
          %alloc_59 = memref.alloc() : memref<16x15x10xi1>
          %splat_60 = tensor.splat %c0_i64 : tensor<3xi64>
          %294 = math.floor %13 : tensor<15x15xf32>
          %295 = arith.xori %c223865476_i64, %c1514081338_i64 : i64
          %296 = vector.broadcast %cst_4 : f32 to vector<15x15xf32>
          %297 = vector.fma %296, %296, %296 : vector<15x15xf32>
          %298 = math.ceil %22 : tensor<f16>
          %299 = vector.reduction <xor>, %260 : vector<16xi64> into i64
          %300 = index.casts %74 : index to i32
          %301 = arith.maxui %c872239861_i32, %c2124661813_i32 : i32
          %302 = arith.ceildivsi %c1514081338_i64, %c0_i64 : i64
          %303 = math.atan %12 : tensor<16x3x10xf32>
          %304 = math.ctlz %1 : tensor<15x15xi64>
          %305 = arith.ceildivsi %c-11434_i16, %c-11434_i16 : i16
          %306 = arith.ceildivsi %c522205298_i32, %c522205298_i32 : i32
          %inserted_61 = tensor.insert %c2124661813_i32 into %2[%c1] : tensor<3xi32>
          %307 = vector.extract_strided_slice %297 {offsets = [2], sizes = [2], strides = [1]} : vector<15x15xf32> to vector<2x15xf32>
          %308 = arith.remsi %c1063595746_i32, %c1063595746_i32 : i32
          %309 = math.floor %9 : tensor<3xf16>
          %310 = math.roundeven %23 : tensor<f16>
          %311 = index.mul %c3, %c1
          %312 = math.log10 %cst_3 : f32
          %expanded_62 = tensor.expand_shape %9 [[0, 1]] : tensor<3xf16> into tensor<3x1xf16>
          %313 = vector.broadcast %42 : index to vector<16xindex>
          %314 = vector.broadcast %cst_2 : f32 to vector<16xf32>
          vector.scatter %alloc_17[%c0] [%313], %259, %314 : memref<3xf32>, vector<16xindex>, vector<16xi1>, vector<16xf32>
          %c1_i32 = arith.constant 1 : i32
          linalg.yield %c1_i32 : i32
        }
      %alloca_55 = memref.alloca() : memref<16x3x10xi32>
      %286 = math.atan %3 : tensor<16x3x10xf16>
      %287 = math.tan %11 : tensor<16x3x10xf16>
    }
    %96 = math.fma %cst_3, %cst_3, %cst_4 : f32
    %from_elements = tensor.from_elements %c223865476_i64, %c1514081338_i64, %c767099878_i64, %c767099878_i64, %43, %c223865476_i64, %c767099878_i64, %c1514081338_i64, %c1514081338_i64, %c0_i64, %c1514081338_i64, %43, %c767099878_i64, %c0_i64, %c223865476_i64, %c1514081338_i64, %c0_i64, %c1514081338_i64, %c767099878_i64, %c223865476_i64, %c0_i64, %c0_i64, %c1514081338_i64, %c223865476_i64, %c1514081338_i64, %c767099878_i64, %c767099878_i64, %c1514081338_i64, %43, %43, %c767099878_i64, %c767099878_i64, %c223865476_i64, %c1514081338_i64, %c223865476_i64, %c223865476_i64, %c1514081338_i64, %c223865476_i64, %c1514081338_i64, %c1514081338_i64, %c0_i64, %c223865476_i64, %c767099878_i64, %c223865476_i64, %c767099878_i64, %c1514081338_i64, %c767099878_i64, %c0_i64, %c223865476_i64, %c1514081338_i64, %c223865476_i64, %c223865476_i64, %c0_i64, %c0_i64, %c767099878_i64, %43, %c223865476_i64, %43, %43, %c0_i64, %c223865476_i64, %c1514081338_i64, %c767099878_i64, %c767099878_i64, %c1514081338_i64, %c1514081338_i64, %43, %c1514081338_i64, %43, %43, %43, %43, %c0_i64, %c1514081338_i64, %43, %c1514081338_i64, %43, %c0_i64, %c767099878_i64, %43, %43, %c0_i64, %c767099878_i64, %c1514081338_i64, %c1514081338_i64, %c1514081338_i64, %c0_i64, %c767099878_i64, %43, %43, %c767099878_i64, %c767099878_i64, %c767099878_i64, %c767099878_i64, %c223865476_i64, %c0_i64, %c1514081338_i64, %c0_i64, %c767099878_i64, %c1514081338_i64, %c767099878_i64, %c223865476_i64, %c0_i64, %c1514081338_i64, %c767099878_i64, %c0_i64, %c767099878_i64, %43, %c223865476_i64, %c1514081338_i64, %43, %c767099878_i64, %c767099878_i64, %c0_i64, %c1514081338_i64, %c0_i64, %43, %c223865476_i64, %c767099878_i64, %c767099878_i64, %c767099878_i64, %c0_i64, %c767099878_i64, %c767099878_i64, %c1514081338_i64, %c0_i64, %43, %43, %43, %c767099878_i64, %c0_i64, %43, %c767099878_i64, %c767099878_i64, %c1514081338_i64, %c1514081338_i64, %c767099878_i64, %43, %c223865476_i64, %c223865476_i64, %43, %c1514081338_i64, %c1514081338_i64, %c1514081338_i64, %c0_i64, %c0_i64, %c1514081338_i64, %43, %c0_i64, %c0_i64, %c223865476_i64, %c0_i64, %43, %c1514081338_i64, %c0_i64, %c223865476_i64, %c223865476_i64, %c1514081338_i64, %c0_i64, %43, %c1514081338_i64, %c767099878_i64, %c1514081338_i64, %c767099878_i64, %43, %c0_i64, %c223865476_i64, %c223865476_i64, %c223865476_i64, %43, %43, %c1514081338_i64, %c0_i64, %c0_i64, %c767099878_i64, %c0_i64, %c767099878_i64, %c223865476_i64, %c223865476_i64, %43, %43, %c0_i64, %c223865476_i64, %c0_i64, %43, %c1514081338_i64, %c1514081338_i64, %c767099878_i64, %c767099878_i64, %c223865476_i64, %c223865476_i64, %c767099878_i64, %c0_i64, %c1514081338_i64, %c1514081338_i64, %c223865476_i64, %c0_i64, %43, %c1514081338_i64, %c0_i64, %c767099878_i64, %c0_i64, %c1514081338_i64, %c223865476_i64, %c223865476_i64, %c223865476_i64, %43, %c223865476_i64, %c223865476_i64, %c0_i64, %c223865476_i64, %43, %c0_i64, %c767099878_i64, %43, %c767099878_i64, %c1514081338_i64, %c223865476_i64, %c767099878_i64, %c767099878_i64, %c223865476_i64, %c0_i64, %43, %c223865476_i64, %43, %c767099878_i64, %c1514081338_i64, %c767099878_i64, %c0_i64, %c223865476_i64, %c0_i64, %c223865476_i64, %c223865476_i64, %c1514081338_i64, %c223865476_i64, %c1514081338_i64, %c1514081338_i64, %c0_i64, %c1514081338_i64, %43, %c223865476_i64, %43, %c1514081338_i64, %c0_i64, %c223865476_i64, %43, %c223865476_i64, %43, %43, %c767099878_i64, %c0_i64, %c0_i64, %c0_i64, %c223865476_i64, %c0_i64, %c1514081338_i64, %c223865476_i64, %43, %c223865476_i64, %43, %c767099878_i64, %c223865476_i64, %c0_i64, %c223865476_i64, %43, %c1514081338_i64, %c767099878_i64, %c223865476_i64, %c223865476_i64, %43, %c767099878_i64, %c0_i64, %c223865476_i64, %c223865476_i64, %c0_i64, %c223865476_i64, %c1514081338_i64, %43, %c1514081338_i64, %c0_i64, %c1514081338_i64, %43, %43, %c223865476_i64, %c767099878_i64, %43, %c1514081338_i64, %c223865476_i64, %c1514081338_i64, %c1514081338_i64, %43, %c767099878_i64, %43, %c0_i64, %c767099878_i64, %c0_i64, %43, %c767099878_i64, %43, %43, %c0_i64, %c223865476_i64, %c0_i64, %c223865476_i64, %c223865476_i64, %43, %c767099878_i64, %c767099878_i64, %c223865476_i64, %c1514081338_i64, %43, %c767099878_i64, %c1514081338_i64, %c767099878_i64, %c223865476_i64, %c0_i64, %c0_i64, %c767099878_i64, %c767099878_i64, %c1514081338_i64, %43, %c767099878_i64, %c767099878_i64, %43, %c767099878_i64, %c0_i64, %c223865476_i64, %c223865476_i64, %c223865476_i64, %c767099878_i64, %c1514081338_i64, %c0_i64, %c767099878_i64, %c1514081338_i64, %c767099878_i64, %c0_i64, %c1514081338_i64, %c0_i64, %c223865476_i64, %c767099878_i64, %c0_i64, %c0_i64, %43, %c767099878_i64, %c223865476_i64, %c0_i64, %c1514081338_i64, %c223865476_i64, %c1514081338_i64, %c223865476_i64, %43, %43, %43, %c0_i64, %c223865476_i64, %43, %43, %43, %c0_i64, %c1514081338_i64, %c0_i64, %c1514081338_i64, %c0_i64, %43, %43, %c767099878_i64, %c223865476_i64, %c223865476_i64, %c767099878_i64, %c1514081338_i64, %c0_i64, %c767099878_i64, %c0_i64, %43, %c1514081338_i64, %c767099878_i64, %c223865476_i64, %c223865476_i64, %43, %c0_i64, %c767099878_i64, %43, %c0_i64, %c1514081338_i64, %c0_i64, %c223865476_i64, %c1514081338_i64, %c1514081338_i64, %c1514081338_i64, %c0_i64, %c0_i64, %c767099878_i64, %c0_i64, %c223865476_i64, %c223865476_i64, %c767099878_i64, %43, %c0_i64, %43, %c0_i64, %c767099878_i64, %c1514081338_i64, %43, %c223865476_i64, %43, %c223865476_i64, %c1514081338_i64, %43, %c767099878_i64, %c1514081338_i64, %c223865476_i64, %c1514081338_i64, %43, %c767099878_i64, %43, %c1514081338_i64, %c223865476_i64, %c767099878_i64, %c767099878_i64, %c1514081338_i64, %c767099878_i64, %c223865476_i64, %43, %c223865476_i64, %c223865476_i64, %c1514081338_i64, %c1514081338_i64, %c767099878_i64, %c1514081338_i64, %c223865476_i64, %c767099878_i64, %c767099878_i64, %c1514081338_i64, %c0_i64, %c1514081338_i64, %c223865476_i64, %c767099878_i64, %c1514081338_i64, %c0_i64, %c1514081338_i64, %c223865476_i64, %43, %c767099878_i64, %c767099878_i64, %c0_i64, %c223865476_i64, %43, %c767099878_i64, %c1514081338_i64, %43, %c1514081338_i64, %43, %c0_i64, %43, %43, %43, %43, %43, %c0_i64, %43, %c767099878_i64, %c1514081338_i64, %c767099878_i64, %c0_i64, %c1514081338_i64, %c767099878_i64, %c223865476_i64, %c223865476_i64, %c0_i64, %c0_i64, %43, %c767099878_i64, %43, %c767099878_i64, %c1514081338_i64, %c0_i64, %c1514081338_i64, %c1514081338_i64, %c0_i64, %43 : tensor<16x3x10xi64>
    %97 = arith.minui %c28366_i16, %c28366_i16 : i16
    %rank_27 = tensor.rank %23 : tensor<f16>
    memref.alloca_scope  {
      %254 = index.mul %c4, %c10
      %splat_51 = tensor.splat %c0_i64 : tensor<15x15xi64>
      %255 = arith.shrsi %c2124661813_i32, %c1063595746_i32 : i32
      %256 = tensor.empty() : tensor<16x3x10xf16>
      %mapped_52 = linalg.map ins(%11, %85 : tensor<16x3x10xf16>, memref<16x3x10xf16>) outs(%256 : tensor<16x3x10xf16>)
        (%in: f16, %in_56: f16) {
          %283 = vector.matrix_multiply %20, %20 {lhs_columns = 15 : i32, lhs_rows = 1 : i32, rhs_columns = 1 : i32} : (vector<15xf32>, vector<15xf32>) -> vector<1xf32>
          %284 = math.ctpop %c767099878_i64 : i64
          %285 = index.castu %c0 : index to i32
          %286 = bufferization.to_tensor %alloc_7 : memref<16x15x10xf32>
          %287 = math.copysign %28, %28 : tensor<3xf32>
          %288 = index.castu %254 : index to i32
          memref.assume_alignment %alloc_5, 2 : memref<16x15x10xi64>
          %289 = math.roundeven %3 : tensor<16x3x10xf16>
          %290 = vector.broadcast %cst_4 : f32 to vector<15x15xf32>
          %291 = vector.outerproduct %20, %20, %290 {kind = #vector.kind<maxf>} : vector<15xf32>, vector<15xf32>
          %292 = vector.extract_strided_slice %30 {offsets = [3], sizes = [11], strides = [1]} : vector<16x15x10xi1> to vector<11x15x10xi1>
          %293 = math.absf %16 : tensor<16x3x10xf16>
          %294 = tensor.empty(%c9, %c10) : tensor<?x3x?xi1>
          %295 = affine.apply affine_map<(d0, d1, d2, d3) -> (d3 * 16)>(%84, %254, %c1, %c3)
          %expanded_57 = tensor.expand_shape %6 [[0], [1, 2]] : tensor<15x15xi1> into tensor<15x15x1xi1>
          %296 = bufferization.clone %alloc_20 : memref<10xf16> to memref<10xf16>
          %alloca_58 = memref.alloca() : memref<15x15xf32>
          %297 = arith.muli %c522205298_i32, %c1063595746_i32 : i32
          %298 = math.floor %28 : tensor<3xf32>
          %299 = vector.broadcast %cst_2 : f32 to vector<3xf32>
          %300 = vector.fma %299, %299, %299 : vector<3xf32>
          %301 = vector.reduction <maxf>, %300 : vector<3xf32> into f32
          %302 = arith.andi %c767099878_i64, %c1514081338_i64 : i64
          %303 = index.divs %c12, %295
          %304 = vector.reduction <maxf>, %283 : vector<1xf32> into f32
          %305 = arith.minsi %c767099878_i64, %c767099878_i64 : i64
          %306 = index.castu %c522205298_i32 : i32 to index
          %307 = vector.broadcast %cst_4 : f32 to vector<16x3x10xf32>
          %308 = vector.fma %307, %307, %307 : vector<16x3x10xf32>
          %309 = math.absf %286 : tensor<16x15x10xf32>
          %310 = affine.load %85[%c10, %c12, %c0] : memref<16x3x10xf16>
          %311 = vector.broadcast %cst_3 : f32 to vector<10xf32>
          %312 = vector.broadcast %true : i1 to vector<10xi1>
          %313 = vector.maskedload %70[%c1], %312, %311 : memref<3xf32>, vector<10xi1>, vector<10xf32> into vector<10xf32>
          %314 = math.powf %256, %3 : tensor<16x3x10xf16>
          %315 = tensor.empty() : tensor<15x15xf16>
          %316 = linalg.matmul ins(%8, %8 : tensor<15x15xf16>, tensor<15x15xf16>) outs(%315 : tensor<15x15xf16>) -> tensor<15x15xf16>
          %317 = arith.divf %cst_2, %cst_2 : f32
          %cst_59 = arith.constant 1.000000e+00 : f16
          linalg.yield %cst_59 : f16
        }
      %257 = math.atan %12 : tensor<16x3x10xf32>
      %258 = math.cttz %65 : i16
      %259 = math.ipowi %c-11434_i16, %c28366_i16 : i16
      %260 = vector.extract_strided_slice %31 {offsets = [14], sizes = [1], strides = [1]} : vector<16x15x10xi32> to vector<1x15x10xi32>
      %261 = bufferization.clone %85 : memref<16x3x10xf16> to memref<16x3x10xf16>
      %262 = tensor.empty() : tensor<16xf16>
      %263 = linalg.generic {indexing_maps = [affine_map<(d0, d1, d2) -> (d0)>, affine_map<(d0, d1, d2) -> (d1)>, affine_map<(d0, d1, d2) -> (d1)>, affine_map<(d0, d1, d2) -> (d0, d1, d2)>], iterator_types = ["parallel", "parallel", "parallel"]} ins(%262, %9, %9 : tensor<16xf16>, tensor<3xf16>, tensor<3xf16>) outs(%11 : tensor<16x3x10xf16>) {
      ^bb0(%in: f16, %in_56: f16, %in_57: f16, %out: f16):
        %283 = arith.maxsi %c1514081338_i64, %c767099878_i64 : i64
        %284 = vector.broadcast %43 : i64 to vector<10xi64>
        %285 = vector.transfer_write %284, %1[%c3, %c13] {permutation_map = affine_map<(d0, d1) -> (d0)>} : vector<10xi64>, tensor<15x15xi64>
        %286 = index.add %c4, %c10
        %alloca_58 = memref.alloca() : memref<3xi1>
        %287 = index.mul %c14, %c5
        %288 = math.exp2 %11 : tensor<16x3x10xf16>
        %289 = memref.load %alloc_13[%c2] : memref<3xi32>
        %290 = vector.flat_transpose %284 {columns = 5 : i32, rows = 2 : i32} : vector<10xi64> -> vector<10xi64>
        %291 = index.casts %c872239861_i32 : i32 to index
        %292 = math.log2 %cst_0 : f16
        %293 = arith.shrsi %c1063595746_i32, %c522205298_i32 : i32
        %294 = arith.remui %c0_i64, %c223865476_i64 : i64
        %295 = arith.xori %43, %c0_i64 : i64
        %296 = vector.reduction <or>, %290 : vector<10xi64> into i64
        %297 = math.exp2 %3 : tensor<16x3x10xf16>
        %298 = math.absf %cst_2 : f32
        %299 = index.add %c12, %rank_27
        %300 = affine.min affine_map<(d0) -> (d0, -(d0 - 128), (-(d0 - 128)) floordiv 128)>(%c1)
        %alloc_59 = memref.alloc() : memref<3xi64>
        %301 = arith.ceildivsi %c1063595746_i32, %c1063595746_i32 : i32
        %302 = arith.minf %cst_4, %cst_3 : f32
        %303 = vector.extract %75[10] : vector<15x15xi64>
        %304 = math.roundeven %22 : tensor<f16>
        %305 = arith.divf %out, %in : f16
        %306 = arith.shli %c522205298_i32, %c522205298_i32 : i32
        %307 = vector.matrix_multiply %303, %284 {lhs_columns = 5 : i32, lhs_rows = 3 : i32, rhs_columns = 2 : i32} : (vector<15xi64>, vector<10xi64>) -> vector<6xi64>
        %308 = arith.minsi %65, %c28366_i16 : i16
        %309 = math.atan %11 : tensor<16x3x10xf16>
        %310 = arith.shli %c1514081338_i64, %c0_i64 : i64
        %311 = memref.atomic_rmw maxu %c522205298_i32, %alloc_13[%c1] : (i32, memref<3xi32>) -> i32
        %312 = index.casts %c6 : index to i32
        %313 = arith.addf %cst_0, %cst : f16
        linalg.yield %in_57 : f16
      } -> tensor<16x3x10xf16>
      %264 = vector.extract_strided_slice %87 {offsets = [8], sizes = [3], strides = [1]} : vector<16x3x10xi16> to vector<3x3x10xi16>
      %265 = memref.load %alloc_13[%c1] : memref<3xi32>
      %rank_53 = tensor.rank %4 : tensor<3xi32>
      %266 = math.ipowi %true, %true : i1
      %267 = vector.shuffle %260, %260 [0] : vector<1x15x10xi32>, vector<1x15x10xi32>
      %268 = index.divu %86, %rank_27
      %269 = index.ceildivu %268, %c5
      %270 = arith.remui %c1063595746_i32, %c2124661813_i32 : i32
      %271 = affine.load %alloc_5[%c0, %c1, %c10] : memref<16x15x10xi64>
      %272 = index.maxs %89, %c14
      %rank_54 = tensor.rank %15 : tensor<15x15xf16>
      %273 = vector.broadcast %cst_0 : f16 to vector<16x15x10xf16>
      %274 = index.floordivs %c5, %c10
      %275 = arith.ori %c0_i64, %43 : i64
      %276 = index.sub %74, %c14
      %277 = index.casts %c872239861_i32 : i32 to index
      %278 = arith.remui %c2124661813_i32, %c1063595746_i32 : i32
      %279 = math.copysign %3, %256 : tensor<16x3x10xf16>
      %280 = math.exp2 %9 : tensor<3xf16>
      %281 = affine.min affine_map<(d0, d1) -> ((d0 mod 128) * 4)>(%c6, %c11)
      %alloca_55 = memref.alloca() : memref<15x15xf16>
      %282 = arith.remf %cst_4, %cst_2 : f32
    }
    %98 = index.maxs %c7, %c15
    %99 = affine.min affine_map<(d0) -> (-(d0 + 64), -(d0 + 32), d0 + 128, d0 + 128)>(%c2)
    %100 = math.sqrt %cst_4 : f32
    %101 = arith.remf %cst, %cst_0 : f16
    scf.if %true {
      %254 = math.floor %13 : tensor<15x15xf32>
      %255 = vector.broadcast %cst_2 : f32 to vector<15x15xf32>
      %256 = vector.outerproduct %20, %20, %255 {kind = #vector.kind<mul>} : vector<15xf32>, vector<15xf32>
      %257 = affine.if affine_set<(d0, d1) : (-(d0 ceildiv 32) == 0)>(%c1, %c3) -> memref<16x3x10xf16> {
        %263 = math.ctpop %splat : tensor<16x15x10xi16>
        %264 = affine.min affine_map<(d0) -> (d0 + d0 - 32, d0 - 31, ((d0 - 32) floordiv 128) * 32, d0 - (d0 - 32) floordiv 128)>(%c14)
        %265 = arith.floordivsi %c223865476_i64, %c0_i64 : i64
        %266 = vector.broadcast %rank : index to vector<10xindex>
        %267 = vector.broadcast %true : i1 to vector<10xi1>
        %268 = vector.broadcast %c28366_i16 : i16 to vector<10xi16>
        vector.scatter %alloc_6[%c7, %c6] [%266], %267, %268 : memref<15x15xi16>, vector<10xindex>, vector<10xi1>, vector<10xi16>
        %269 = math.fma %cst_0, %cst, %cst_1 : f16
        %270 = bufferization.clone %alloc_12 : memref<15x15xi16> to memref<15x15xi16>
        %c0_i16_51 = arith.constant 0 : i16
        %c0_i16_52 = arith.constant 0 : i16
        %271 = vector.transfer_read %14[%41], %c0_i16_52 : tensor<3xi16>, vector<i16>
        %272 = arith.shrui %c0_i16_51, %c28366_i16 : i16
        affine.yield %85 : memref<16x3x10xf16>
      } else {
        %c28941_i16 = arith.constant 28941 : i16
        %263 = math.log2 %15 : tensor<15x15xf16>
        %264 = math.ctpop %7 : tensor<16x15x10xi1>
        %265 = arith.ori %c223865476_i64, %c223865476_i64 : i64
        %266 = arith.xori %c1514081338_i64, %43 : i64
        %267 = math.absi %from_elements : tensor<16x3x10xi64>
        %268 = arith.muli %43, %c223865476_i64 : i64
        %269 = vector.broadcast %cst_3 : f32 to vector<15x15xf32>
        %270 = vector.fma %269, %269, %269 : vector<15x15xf32>
        affine.yield %85 : memref<16x3x10xf16>
      }
      %258 = math.round %9 : tensor<3xf16>
      %259 = math.cttz %6 : tensor<15x15xi1>
      %260 = tensor.empty() : tensor<15x15xf16>
      %261 = linalg.matmul ins(%15, %15 : tensor<15x15xf16>, tensor<15x15xf16>) outs(%260 : tensor<15x15xf16>) -> tensor<15x15xf16>
      scf.if %true {
        %263 = bufferization.clone %70 : memref<3xf32> to memref<3xf32>
        %264 = index.maxs %42, %c1
        %265 = math.tan %16 : tensor<16x3x10xf16>
        %266 = math.floor %9 : tensor<3xf16>
        %267 = vector.extract_strided_slice %20 {offsets = [13], sizes = [1], strides = [1]} : vector<15xf32> to vector<1xf32>
        %268 = arith.cmpf uno, %cst, %cst_1 : f16
        %269 = arith.cmpi ugt, %43, %c223865476_i64 : i64
        %270 = affine.load %alloc_17[%c6] : memref<3xf32>
      } else {
        %263 = memref.realloc %alloc_20 : memref<10xf16> to memref<16xf16>
        %264 = index.add %c12, %rank_27
        %265 = index.floordivs %c6, %c1
        %266 = math.log2 %260 : tensor<15x15xf16>
        %267 = arith.remsi %c1063595746_i32, %c1063595746_i32 : i32
        %268 = arith.addi %c223865476_i64, %c0_i64 : i64
        %269 = affine.load %alloc_6[%c5, %c14] : memref<15x15xi16>
        %270 = math.round %260 : tensor<15x15xf16>
      }
      %262 = index.add %41, %89
    } else {
      %extracted_51 = tensor.extract %0[%c0] : tensor<3xi16>
      %254 = math.copysign %9, %9 : tensor<3xf16>
      %255 = vector.transpose %30, [0, 2, 1] : vector<16x15x10xi1> to vector<16x10x15xi1>
      %splat_52 = tensor.splat %c1514081338_i64 : tensor<16x3x10xi64>
      %256 = math.log %cst_2 : f32
      %257 = arith.shrsi %c223865476_i64, %c0_i64 : i64
      %258 = tensor.empty() : tensor<15x15xf16>
      %259 = linalg.matmul ins(%15, %8 : tensor<15x15xf16>, tensor<15x15xf16>) outs(%258 : tensor<15x15xf16>) -> tensor<15x15xf16>
      %260 = bufferization.clone %alloc_17 : memref<3xf32> to memref<3xf32>
    }
    %102 = scf.if %true -> (i32) {
      %254 = vector.broadcast %cst_4 : f32 to vector<3xf32>
      %255 = vector.fma %254, %254, %254 : vector<3xf32>
      %256 = index.divu %c5, %c6
      %inserted_51 = tensor.insert %true into %7[%c6, %c6, %c1] : tensor<16x15x10xi1>
      %257 = vector.load %alloc_10[%c2] : memref<3xi64>, vector<3xi64>
      %258 = index.castu %c1063595746_i32 : i32 to index
      %259 = math.expm1 %15 : tensor<15x15xf16>
      %260 = math.fma %cst_3, %cst_3, %cst_2 : f32
      %261 = math.ipowi %from_elements, %from_elements : tensor<16x3x10xi64>
      scf.yield %c522205298_i32 : i32
    } else {
      %254 = math.copysign %cst_0, %cst : f16
      %255 = arith.negf %cst : f16
      %extracted_51 = tensor.extract %0[%c0] : tensor<3xi16>
      %256 = vector.matrix_multiply %20, %20 {lhs_columns = 15 : i32, lhs_rows = 1 : i32, rhs_columns = 1 : i32} : (vector<15xf32>, vector<15xf32>) -> vector<1xf32>
      %257 = tensor.empty() : tensor<3xi64>
      %mapped_52 = linalg.map ins(%18, %alloc_19 : tensor<3xi64>, memref<3xi64>) outs(%257 : tensor<3xi64>)
        (%in: i64, %in_55: i64) {
          %261 = arith.shrsi %c-11434_i16, %c28366_i16 : i16
          %262 = arith.minf %cst_4, %cst_3 : f32
          %263 = arith.shrsi %in, %c1514081338_i64 : i64
          %264 = arith.remsi %extracted_51, %extracted_51 : i16
          %265 = affine.load %alloc_12[%c13, %c14] : memref<15x15xi16>
          %266 = arith.andi %in, %43 : i64
          %extracted_56 = tensor.extract %6[%c5, %c0] : tensor<15x15xi1>
          %extracted_57 = tensor.extract %9[%c0] : tensor<3xf16>
          affine.store %265, %alloc_6[%c7, %c12] : memref<15x15xi16>
          %267 = index.add %c4, %c13
          %268 = arith.minsi %c-11434_i16, %c-11434_i16 : i16
          %269 = arith.cmpf oge, %cst_3, %cst_4 : f32
          %270 = arith.remf %cst_1, %cst_0 : f16
          %271 = affine.apply affine_map<(d0, d1) -> (-d1)>(%c11, %86)
          memref.assume_alignment %85, 8 : memref<16x3x10xf16>
          %272 = arith.maxf %cst_1, %cst_1 : f16
          %273 = vector.broadcast %cst_2 : f32 to vector<15x15xf32>
          %274 = vector.fma %273, %273, %273 : vector<15x15xf32>
          %275 = arith.minf %extracted_57, %extracted_57 : f16
          %276 = memref.realloc %alloc_19 : memref<3xi64> to memref<3xi64>
          %alloc_58 = memref.alloc() : memref<15x15xi32>
          %277 = index.divs %c0, %c1
          %278 = index.casts %271 : index to i32
          %279 = arith.remf %cst_2, %cst_3 : f32
          %280 = arith.divui %true, %true : i1
          %alloc_59 = memref.alloc() : memref<15x15xi32>
          %281 = arith.ceildivsi %c223865476_i64, %c1514081338_i64 : i64
          %282 = math.fma %11, %11, %3 : tensor<16x3x10xf16>
          %283 = math.cttz %4 : tensor<3xi32>
          %284 = arith.cmpf ult, %cst_4, %cst_2 : f32
          %285 = math.powf %17, %11 : tensor<16x3x10xf16>
          %286 = index.casts %79 : index to i32
          %true_60 = index.bool.constant true
          %c0_i64_61 = arith.constant 0 : i64
          linalg.yield %c0_i64_61 : i64
        }
      %258 = tensor.empty() : tensor<15x15xf32>
      %259 = linalg.matmul ins(%13, %13 : tensor<15x15xf32>, tensor<15x15xf32>) outs(%258 : tensor<15x15xf32>) -> tensor<15x15xf32>
      %extracted_53 = tensor.extract %9[%c0] : tensor<3xf16>
      %260 = tensor.empty() : tensor<15x15xf32>
      %mapped_54 = linalg.map ins(%258, %258 : tensor<15x15xf32>, tensor<15x15xf32>) outs(%260 : tensor<15x15xf32>)
        (%in: f32, %in_55: f32) {
          %261 = index.maxs %42, %84
          %262 = arith.mulf %cst, %cst : f16
          %263 = vector.create_mask %c6, %c0, %84 : vector<16x15x10xi1>
          %264 = arith.mulf %in, %cst_2 : f32
          %265 = math.ctpop %2 : tensor<3xi32>
          %266 = vector.broadcast %43 : i64 to vector<16x3x10xi64>
          %267 = vector.broadcast %true : i1 to vector<16x3x10xi1>
          %268 = vector.broadcast %c1063595746_i32 : i32 to vector<16x3x10xi32>
          %269 = vector.gather %alloc_5[%79, %98, %c11] [%268], %267, %266 : memref<16x15x10xi64>, vector<16x3x10xi32>, vector<16x3x10xi1>, vector<16x3x10xi64> into vector<16x3x10xi64>
          %270 = affine.min affine_map<(d0, d1) -> (d0 + d1, d0 + d0 + 2)>(%86, %rank)
          %271 = math.copysign %22, %23 : tensor<f16>
          %272 = vector.insertelement %in, %256[%98 : index] : vector<1xf32>
          %273 = arith.remui %c522205298_i32, %c2124661813_i32 : i32
          %274 = math.tan %21 : tensor<10xf16>
          %275 = index.castu %c7 : index to i32
          %276 = vector.broadcast %cst_4 : f32 to vector<15x15xf32>
          %277 = vector.fma %276, %276, %276 : vector<15x15xf32>
          %278 = index.casts %c767099878_i64 : i64 to index
          %279 = bufferization.clone %alloc_16 : memref<16x15x10xf32> to memref<16x15x10xf32>
          %280 = arith.divsi %c767099878_i64, %c0_i64 : i64
          %alloca_56 = memref.alloca() : memref<16x3x10xi1>
          %281 = arith.shrui %extracted_51, %c-11434_i16 : i16
          memref.store %65, %alloc_15[%c10, %c5] : memref<15x15xi16>
          %282 = memref.atomic_rmw assign %c522205298_i32, %alloc_13[%c0] : (i32, memref<3xi32>) -> i32
          %283 = math.exp %cst_1 : f16
          %284 = vector.broadcast %cst_2 : f32 to vector<15x15xf32>
          %285 = vector.fma %284, %277, %277 : vector<15x15xf32>
          %286 = math.exp2 %9 : tensor<3xf16>
          %287 = math.round %extracted_53 : f16
          %288 = math.copysign %16, %3 : tensor<16x3x10xf16>
          %289 = vector.extract_strided_slice %268 {offsets = [4], sizes = [7], strides = [1]} : vector<16x3x10xi32> to vector<7x3x10xi32>
          %290 = math.atan %cst_1 : f16
          %291 = bufferization.to_tensor %alloc_9 : memref<15x15xf32>
          %292 = vector.extract_strided_slice %20 {offsets = [1], sizes = [13], strides = [1]} : vector<15xf32> to vector<13xf32>
          %collapsed_57 = tensor.collapse_shape %11 [[0, 1], [2]] : tensor<16x3x10xf16> into tensor<48x10xf16>
          %293 = arith.maxui %c-11434_i16, %c28366_i16 : i16
          %294 = math.powf %3, %11 : tensor<16x3x10xf16>
          %cst_58 = arith.constant 1.000000e+00 : f32
          linalg.yield %cst_58 : f32
        }
      scf.yield %c1063595746_i32 : i32
    }
    %103 = math.ctlz %c2124661813_i32 : i32
    %104 = vector.extract_strided_slice %36 {offsets = [0, 2], sizes = [1, 1], strides = [1, 1]} : vector<1x4x10xf32> to vector<1x1x10xf32>
    %splat_28 = tensor.splat %c2124661813_i32 : tensor<3xi32>
    %105 = arith.minsi %102, %c2124661813_i32 : i32
    %106 = index.add %41, %c5
    %alloc_29 = memref.alloc() : memref<16x3x10xi16>
    %collapsed = tensor.collapse_shape %11 [[0, 1], [2]] : tensor<16x3x10xf16> into tensor<48x10xf16>
    %true_30 = index.bool.constant true
    %107 = index.add %c11, %c0
    %false = index.bool.constant false
    %108 = math.absf %15 : tensor<15x15xf16>
    %109 = index.divs %c2, %c6
    %extracted = tensor.extract %3[%c5, %c1, %c4] : tensor<16x3x10xf16>
    %110 = arith.remf %cst_0, %cst_1 : f16
    %alloca = memref.alloca() : memref<15x15xi16>
    %111 = arith.minui %true, %false : i1
    memref.tensor_store %6, %alloc : memref<15x15xi1>
    %112 = bufferization.clone %alloc_10 : memref<3xi64> to memref<3xi64>
    %113 = arith.remui %c-11434_i16, %c28366_i16 : i16
    %114 = arith.xori %c2124661813_i32, %c522205298_i32 : i32
    %splat_31 = tensor.splat %false : tensor<16x3x10xi1>
    %115 = math.tan %15 : tensor<15x15xf16>
    %116 = vector.reduction <maxf>, %20 : vector<15xf32> into f32
    %expanded = tensor.expand_shape %28 [[0, 1]] : tensor<3xf32> into tensor<3x1xf32>
    %117 = math.cos %28 : tensor<3xf32>
    %118 = arith.minsi %c872239861_i32, %102 : i32
    %119 = math.atan %28 : tensor<3xf32>
    %120 = math.ctpop %14 : tensor<3xi16>
    %121 = math.exp2 %15 : tensor<15x15xf16>
    %122 = arith.muli %c2124661813_i32, %102 : i32
    %123 = tensor.empty() : tensor<15x15xf32>
    %124 = math.floor %3 : tensor<16x3x10xf16>
    %125 = memref.alloca_scope  -> (f16) {
      %254 = vector.reduction <add>, %20 : vector<15xf32> into f32
      %255 = math.tan %21 : tensor<10xf16>
      %256 = math.ctpop %5 : tensor<3xi16>
      %257 = index.add %84, %42
      %258 = bufferization.clone %alloc_20 : memref<10xf16> to memref<10xf16>
      memref.alloca_scope  {
        %282 = index.maxu %84, %rank_27
        %283 = index.divu %c11, %c11
        %284 = math.exp %8 : tensor<15x15xf16>
        %285 = bufferization.clone %85 : memref<16x3x10xf16> to memref<16x3x10xf16>
        %286 = arith.remui %true, %false : i1
        %287 = index.mul %c6, %rank
        %288 = index.maxs %84, %c10
        %289 = arith.cmpf true, %cst_1, %cst : f16
        %290 = vector.broadcast %cst_4 : f32 to vector<3xf32>
        %291 = vector.fma %290, %290, %290 : vector<3xf32>
        %292 = bufferization.clone %alloc_15 : memref<15x15xi16> to memref<15x15xi16>
        %293 = index.ceildivu %86, %287
        %294 = arith.ori %c1514081338_i64, %43 : i64
        %295 = math.powf %cst_2, %cst_3 : f32
        %rank_53 = tensor.rank %4 : tensor<3xi32>
        %296 = arith.xori %65, %c-11434_i16 : i16
        memref.store %c767099878_i64, %alloc_10[%c2] : memref<3xi64>
        %false_54 = index.bool.constant false
        %297 = arith.floordivsi %c872239861_i32, %c1063595746_i32 : i32
        %298 = arith.cmpf uge, %cst_3, %cst_4 : f32
        %299 = index.maxu %287, %c10
        %300 = vector.splat %c6 : vector<16x15x10xindex>
        %301 = index.floordivs %287, %99
        %302 = math.atan %cst : f16
        %303 = bufferization.to_memref %5 : memref<3xi16>
        %304 = memref.atomic_rmw maxf %extracted, %285[%c12, %c0, %c0] : (f16, memref<16x3x10xf16>) -> f16
        %305 = affine.min affine_map<(d0, d1, d2) -> (-d1 + d2 - 128, d1 floordiv 128, d2 + d1)>(%c8, %rank_53, %c15)
        %306 = arith.cmpf ord, %cst_1, %cst : f16
        %307 = arith.floordivsi %c-11434_i16, %65 : i16
        %308 = arith.cmpi eq, %102, %c2124661813_i32 : i32
        %309 = arith.cmpf une, %cst, %extracted : f16
        %310 = arith.muli %102, %c522205298_i32 : i32
        %311 = arith.addf %cst, %extracted : f16
      }
      %259 = arith.floordivsi %c223865476_i64, %43 : i64
      %260 = arith.subi %c1514081338_i64, %c0_i64 : i64
      %261 = math.copysign %23, %22 : tensor<f16>
      %262 = arith.floordivsi %102, %c2124661813_i32 : i32
      %263 = math.tan %11 : tensor<16x3x10xf16>
      %264 = arith.cmpi eq, %102, %c1063595746_i32 : i32
      %265 = math.round %13 : tensor<15x15xf32>
      %266 = index.divs %c4, %c9
      %267 = arith.floordivsi %true, %true : i1
      %268 = memref.realloc %alloc_14 : memref<3xf16> to memref<3xf16>
      %collapsed_51 = tensor.collapse_shape %12 [[0, 1], [2]] : tensor<16x3x10xf32> into tensor<48x10xf32>
      %269 = bufferization.clone %alloc_5 : memref<16x15x10xi64> to memref<16x15x10xi64>
      %270 = affine.if affine_set<(d0, d1, d2, d3) : (d0 - (d3 + 32) == 0, d3 * 4 >= 0)>(%c6, %c11, %c12, %c10) -> memref<16x3x10xi1> {
        %282 = arith.remf %cst_3, %cst_2 : f32
        %283 = arith.shrui %c1063595746_i32, %c1063595746_i32 : i32
        %284 = index.divs %84, %c2
        memref.assume_alignment %70, 4 : memref<3xf32>
        %285 = index.add %rank, %rank_27
        %286 = arith.divf %cst_1, %extracted : f16
        %alloc_53 = memref.alloc() : memref<10x3xf16>
        %287 = tensor.empty() : tensor<48x3xf16>
        %288 = linalg.matmul ins(%collapsed, %alloc_53 : tensor<48x10xf16>, memref<10x3xf16>) outs(%287 : tensor<48x3xf16>) -> tensor<48x3xf16>
        %289 = math.fma %cst_2, %cst_2, %cst_4 : f32
        %alloc_54 = memref.alloc() : memref<16x3x10xi1>
        affine.yield %alloc_54 : memref<16x3x10xi1>
      } else {
        %282 = memref.realloc %alloc_19 : memref<3xi64> to memref<10xi64>
        %283 = arith.ceildivsi %c767099878_i64, %c767099878_i64 : i64
        %284 = index.divu %c15, %c0
        %285 = math.roundeven %16 : tensor<16x3x10xf16>
        %alloc_53 = memref.alloc() : memref<10x3xf16>
        %286 = tensor.empty() : tensor<48x3xf16>
        %287 = linalg.matmul ins(%collapsed, %alloc_53 : tensor<48x10xf16>, memref<10x3xf16>) outs(%286 : tensor<48x3xf16>) -> tensor<48x3xf16>
        %288 = index.divs %c10, %c7
        %289 = index.castu %89 : index to i32
        %290 = math.ctlz %0 : tensor<3xi16>
        %alloc_54 = memref.alloc() : memref<16x3x10xi1>
        affine.yield %alloc_54 : memref<16x3x10xi1>
      }
      %271 = memref.load %alloc_15[%c11, %c7] : memref<15x15xi16>
      %272 = vector.broadcast %65 : i16 to vector<16x15x10xi16>
      %273 = vector.gather %27[%c10, %257] [%31], %30, %272 : tensor<15x15xi16>, vector<16x15x10xi32>, vector<16x15x10xi1>, vector<16x15x10xi16> into vector<16x15x10xi16>
      affine.store %c767099878_i64, %alloc_11[%c0, %c11, %c5] : memref<16x3x10xi64>
      affine.for %arg3 = 0 to 29 {
      }
      %inserted_52 = tensor.insert %c522205298_i32 into %4[%c1] : tensor<3xi32>
      %274 = arith.remui %43, %c0_i64 : i64
      %275 = affine.min affine_map<(d0, d1, d2, d3) -> ((d2 + d2 + d3) * 16 - 16, (d2 + d2 + d3) * 16)>(%c15, %74, %89, %c4)
      %276 = arith.muli %c223865476_i64, %43 : i64
      %277 = math.ipowi %false, %false : i1
      %278 = arith.minui %c223865476_i64, %c1514081338_i64 : i64
      %279 = arith.remf %cst, %extracted : f16
      %280 = arith.cmpf ueq, %extracted, %cst_1 : f16
      %281 = index.castu %c12 : index to i32
      memref.alloca_scope.return %cst : f16
    }
    %126 = math.tan %cst_2 : f32
    %127 = affine.load %alloc_8[%c2, %c7] : memref<15x15xf32>
    %128 = arith.xori %43, %43 : i64
    %129 = math.cos %15 : tensor<15x15xf16>
    %130 = affine.apply affine_map<(d0, d1) -> (-d0)>(%106, %106)
    %expanded_32 = tensor.expand_shape %expanded [[0], [1, 2]] : tensor<3x1xf32> into tensor<3x1x1xf32>
    %131 = vector.matrix_multiply %20, %20 {lhs_columns = 15 : i32, lhs_rows = 1 : i32, rhs_columns = 1 : i32} : (vector<15xf32>, vector<15xf32>) -> vector<1xf32>
    %132 = arith.maxui %43, %c0_i64 : i64
    %133 = index.casts %c-11434_i16 : i16 to index
    %134 = index.add %99, %98
    %135 = math.tan %3 : tensor<16x3x10xf16>
    %136 = vector.reduction <add>, %20 : vector<15xf32> into f32
    %137 = math.cttz %2 : tensor<3xi32>
    %138 = arith.remui %102, %c522205298_i32 : i32
    %139 = math.roundeven %9 : tensor<3xf16>
    %140 = math.ipowi %43, %43 : i64
    %141 = arith.divf %cst_3, %cst_3 : f32
    %142 = index.mul %133, %42
    %143 = index.add %c4, %rank
    %144 = bufferization.clone %alloc : memref<15x15xi1> to memref<15x15xi1>
    %145 = arith.ceildivsi %c-11434_i16, %65 : i16
    %alloca_33 = memref.alloca() : memref<16x15x10xf32>
    %146 = arith.cmpi sle, %true_30, %true_30 : i1
    %147 = arith.floordivsi %c0_i64, %43 : i64
    %148 = math.cos %extracted : f16
    %149 = math.tan %cst_2 : f32
    %150 = index.sub %143, %c15
    %151 = vector.broadcast %127 : f32 to vector<4x10xf32>
    %152 = vector.insert %151, %36 [0] : vector<4x10xf32> into vector<1x4x10xf32>
    %153 = arith.shrui %c872239861_i32, %c1063595746_i32 : i32
    %154 = arith.addi %c223865476_i64, %43 : i64
    %alloc_34 = memref.alloc() : memref<16xi16>
    %155 = linalg.generic {indexing_maps = [affine_map<(d0, d1, d2) -> (d0)>, affine_map<(d0, d1, d2) -> (d0)>, affine_map<(d0, d1, d2) -> (d0, d1, d2)>], iterator_types = ["parallel", "parallel", "parallel"]} ins(%alloc_34, %alloc_34 : memref<16xi16>, memref<16xi16>) outs(%10 : tensor<16x15x10xi16>) {
    ^bb0(%in: i16, %in_51: i16, %out: i16):
      memref.tensor_store %4, %alloc_13 : memref<3xi32>
      %254 = affine.for %arg3 = 0 to 70 iter_args(%arg4 = %cst_4) -> (f32) {
        affine.yield %127 : f32
      }
      %255 = tensor.empty() : tensor<15x15xf16>
      %mapped_52 = linalg.map ins(%15 : tensor<15x15xf16>) outs(%255 : tensor<15x15xf16>)
        (%in_55: f16) {
          %286 = math.copysign %9, %9 : tensor<3xf16>
          affine.store %c1514081338_i64, %112[%c13] : memref<3xi64>
          memref.assume_alignment %alloc_19, 16 : memref<3xi64>
          %287 = affine.min affine_map<(d0, d1, d2, d3) -> (-(d0 * 2 + 128))>(%82, %c10, %c11, %c7)
          %288 = arith.remsi %c223865476_i64, %c1514081338_i64 : i64
          %289 = vector.broadcast %cst_4 : f32 to vector<1x1xf32>
          %290 = vector.outerproduct %131, %131, %289 {kind = #vector.kind<maxf>} : vector<1xf32>, vector<1xf32>
          %alloca_56 = memref.alloca() : memref<16x3x10xf16>
          %291 = index.mul %c11, %134
          %292 = bufferization.clone %alloc_18 : memref<16x15x10xi1> to memref<16x15x10xi1>
          %293 = arith.shli %c-11434_i16, %in : i16
          %294 = arith.ceildivsi %c-11434_i16, %c-11434_i16 : i16
          %295 = math.powf %12, %12 : tensor<16x3x10xf32>
          affine.store %cst_3, %alloc_7[%c5, %c15, %c9] : memref<16x15x10xf32>
          %296 = math.exp2 %15 : tensor<15x15xf16>
          %extracted_57 = tensor.extract %13[%c8, %c11] : tensor<15x15xf32>
          %297 = index.castu %c1063595746_i32 : i32 to index
          %298 = math.absf %cst_4 : f32
          %299 = affine.load %alloc_11[%c3, %c2, %c8] : memref<16x3x10xi64>
          %300 = math.absi %7 : tensor<16x15x10xi1>
          %301 = math.cos %12 : tensor<16x3x10xf32>
          %302 = arith.addi %c1063595746_i32, %c522205298_i32 : i32
          %303 = index.castu %c1514081338_i64 : i64 to index
          %304 = index.ceildivs %107, %c8
          %305 = math.round %extracted : f16
          %306 = math.floor %12 : tensor<16x3x10xf32>
          %307 = arith.subi %c767099878_i64, %c223865476_i64 : i64
          %308 = index.divs %291, %143
          %309 = bufferization.clone %alloc_18 : memref<16x15x10xi1> to memref<16x15x10xi1>
          %310 = arith.subi %c223865476_i64, %c1514081338_i64 : i64
          %inserted_58 = tensor.insert %cst_3 into %13[%c1, %c8] : tensor<15x15xf32>
          %311 = math.cos %255 : tensor<15x15xf16>
          %312 = index.floordivs %c13, %c15
          %cst_59 = arith.constant 1.000000e+00 : f16
          linalg.yield %cst_59 : f16
        }
      %256 = math.atan %extracted : f16
      %257 = affine.load %alloc_15[%c1, %c9] : memref<15x15xi16>
      %258 = arith.ori %c1063595746_i32, %c1063595746_i32 : i32
      %259 = affine.if affine_set<(d0, d1) : (-(d0 ceildiv 32) == 0)>(%c1, %c7) -> f32 {
        %286 = memref.atomic_rmw mulf %cst_4, %alloc_16[%c12, %c12, %c5] : (f32, memref<16x15x10xf32>) -> f32
        %287 = bufferization.clone %144 : memref<15x15xi1> to memref<15x15xi1>
        %288 = vector.insertelement %cst_3, %131[%142 : index] : vector<1xf32>
        %289 = arith.addf %cst_3, %cst_2 : f32
        %290 = math.log2 %13 : tensor<15x15xf32>
        %291 = index.mul %84, %109
        %292 = vector.broadcast %c13 : index to vector<10xindex>
        %293 = vector.broadcast %false : i1 to vector<10xi1>
        vector.scatter %287[%c4, %c3] [%292], %293, %293 : memref<15x15xi1>, vector<10xindex>, vector<10xi1>, vector<10xi1>
        %294 = tensor.empty() : tensor<15x15xf16>
        %295 = linalg.matmul ins(%8, %15 : tensor<15x15xf16>, tensor<15x15xf16>) outs(%294 : tensor<15x15xf16>) -> tensor<15x15xf16>
        affine.yield %127 : f32
      } else {
        %286 = math.round %8 : tensor<15x15xf16>
        %287 = math.expm1 %15 : tensor<15x15xf16>
        %288 = affine.min affine_map<(d0) -> (0, 2)>(%c15)
        %289 = tensor.empty() : tensor<15x15xf16>
        %290 = linalg.matmul ins(%255, %15 : tensor<15x15xf16>, tensor<15x15xf16>) outs(%289 : tensor<15x15xf16>) -> tensor<15x15xf16>
        %291 = bufferization.clone %70 : memref<3xf32> to memref<3xf32>
        %292 = index.mul %56, %c14
        %293 = math.log %8 : tensor<15x15xf16>
        %294 = arith.maxf %cst_3, %cst_3 : f32
        affine.yield %cst_2 : f32
      }
      %260 = arith.floordivsi %true, %false : i1
      %261 = math.exp %13 : tensor<15x15xf32>
      %262 = vector.broadcast %127 : f32 to vector<15x15xf32>
      %263 = vector.fma %262, %262, %262 : vector<15x15xf32>
      %264 = math.round %cst_4 : f32
      %265 = affine.apply affine_map<(d0) -> (d0 * 16)>(%130)
      %alloc_53 = memref.alloc() : memref<16x3x10xf32>
      %extracted_54 = tensor.extract %11[%c10, %c2, %c8] : tensor<16x3x10xf16>
      %266 = arith.addf %127, %127 : f32
      %267 = vector.broadcast %98 : index to vector<15xindex>
      %268 = vector.broadcast %true_30 : i1 to vector<15xi1>
      vector.scatter %144[%c3, %c10] [%267], %268, %268 : memref<15x15xi1>, vector<15xindex>, vector<15xi1>, vector<15xi1>
      %269 = math.atan %cst_1 : f16
      %270 = arith.ori %257, %out : i16
      %271 = scf.if %true_30 -> (i32) {
        %286 = arith.divui %257, %c-11434_i16 : i16
        %287 = affine.min affine_map<(d0) -> (d0 + (d0 * 2) mod 16 + 128)>(%c3)
        %288 = vector.broadcast %cst_2 : f32 to vector<16x15x10xf32>
        %289 = vector.fma %288, %288, %288 : vector<16x15x10xf32>
        %290 = arith.shrui %c872239861_i32, %c1063595746_i32 : i32
        %291 = tensor.empty() : tensor<10x15xf16>
        %292 = tensor.empty() : tensor<48x15xf16>
        %293 = linalg.matmul ins(%collapsed, %291 : tensor<48x10xf16>, tensor<10x15xf16>) outs(%292 : tensor<48x15xf16>) -> tensor<48x15xf16>
        %294 = math.log2 %15 : tensor<15x15xf16>
        %295 = arith.ori %c223865476_i64, %c1514081338_i64 : i64
        %rank_55 = tensor.rank %splat : tensor<16x15x10xi16>
        scf.yield %c1063595746_i32 : i32
      } else {
        %from_elements_55 = tensor.from_elements %c-11434_i16, %out, %c-11434_i16 : tensor<3xi16>
        %286 = math.fma %expanded_32, %expanded_32, %expanded_32 : tensor<3x1x1xf32>
        %287 = tensor.empty() : tensor<15x15xf32>
        %288 = linalg.matmul ins(%13, %13 : tensor<15x15xf32>, tensor<15x15xf32>) outs(%287 : tensor<15x15xf32>) -> tensor<15x15xf32>
        %289 = bufferization.clone %alloc_17 : memref<3xf32> to memref<3xf32>
        %290 = arith.addi %c28366_i16, %in_51 : i16
        %291 = arith.divf %cst, %cst_1 : f16
        %292 = vector.broadcast %c0_i64 : i64 to vector<16xi64>
        %293 = vector.transfer_write %292, %1[%42, %41] {permutation_map = affine_map<(d0, d1) -> (d0)>} : vector<16xi64>, tensor<15x15xi64>
        %294 = vector.extract_strided_slice %87 {offsets = [7], sizes = [2], strides = [1]} : vector<16x3x10xi16> to vector<2x3x10xi16>
        scf.yield %102 : i32
      }
      %272 = math.exp %11 : tensor<16x3x10xf16>
      %273 = math.floor %255 : tensor<15x15xf16>
      %274 = index.casts %86 : index to i32
      %275 = index.maxs %c3, %c4
      %276 = vector.reduction <minf>, %131 : vector<1xf32> into f32
      %277 = math.absi %7 : tensor<16x15x10xi1>
      %278 = tensor.empty() : tensor<15x15xf16>
      %279 = linalg.matmul ins(%255, %15 : tensor<15x15xf16>, tensor<15x15xf16>) outs(%278 : tensor<15x15xf16>) -> tensor<15x15xf16>
      %280 = arith.shrsi %c-11434_i16, %in_51 : i16
      %281 = bufferization.clone %70 : memref<3xf32> to memref<3xf32>
      %282 = vector.extract_strided_slice %30 {offsets = [1, 4], sizes = [11, 11], strides = [1, 1]} : vector<16x15x10xi1> to vector<11x11x10xi1>
      %283 = arith.maxui %c522205298_i32, %102 : i32
      %284 = math.ctpop %c767099878_i64 : i64
      %285 = arith.floordivsi %c1514081338_i64, %43 : i64
      linalg.yield %65 : i16
    } -> tensor<16x15x10xi16>
    %156 = arith.remui %true_30, %true_30 : i1
    %157 = math.copysign %21, %21 : tensor<10xf16>
    %158 = vector.reduction <mul>, %20 : vector<15xf32> into f32
    %159 = bufferization.clone %alloc_8 : memref<15x15xf32> to memref<15x15xf32>
    %160 = index.ceildivu %98, %c11
    %alloca_35 = memref.alloca() : memref<15x15xi16>
    %161 = math.rsqrt %13 : tensor<15x15xf32>
    %162 = index.divs %142, %84
    %163 = arith.addi %c2124661813_i32, %c2124661813_i32 : i32
    %164 = math.ctlz %splat_22 : tensor<16x3x10xi32>
    %165 = arith.floordivsi %c1063595746_i32, %c872239861_i32 : i32
    %166 = vector.broadcast %cst_3 : f32 to vector<3xf32>
    %167 = vector.fma %166, %166, %166 : vector<3xf32>
    %168 = arith.remui %c-11434_i16, %65 : i16
    %169 = math.ctlz %c767099878_i64 : i64
    scf.index_switch %82 
    case 1 {
      %254 = arith.minui %true, %true : i1
      %255 = index.divs %c3, %c8
      %256 = affine.load %alloc_6[%c6, %c6] : memref<15x15xi16>
      %257 = bufferization.clone %alloc_7 : memref<16x15x10xf32> to memref<16x15x10xf32>
      %258 = bufferization.clone %112 : memref<3xi64> to memref<3xi64>
      %alloc_51 = memref.alloc() : memref<15x15xi1>
      %false_52 = index.bool.constant false
      %259 = index.add %c5, %89
      %c1_i16 = arith.constant 1 : i16
      %260 = vector.transfer_read %14[%c12], %c1_i16 : tensor<3xi16>, vector<i16>
      %261 = bufferization.clone %alloc_14 : memref<3xf16> to memref<3xf16>
      %262 = math.ipowi %10, %10 : tensor<16x15x10xi16>
      %263 = arith.shrui %false, %true_30 : i1
      %generated_53 = tensor.generate %c8, %56 {
      ^bb0(%arg3: index, %arg4: index):
        %267 = index.mul %255, %c13
        %268 = math.copysign %17, %11 : tensor<16x3x10xf16>
        %269 = index.mul %41, %162
        %270 = math.ctpop %true : i1
        tensor.yield %c0_i64 : i64
      } : tensor<?x?xi64>
      %264 = math.round %cst_1 : f16
      %265 = arith.ceildivsi %c767099878_i64, %c1514081338_i64 : i64
      %266 = math.powf %cst_2, %127 : f32
      scf.yield
    }
    case 2 {
      %254 = vector.load %85[%c9, %c2, %c8] : memref<16x3x10xf16>, vector<16x15x10xf16>
      %255 = index.mul %42, %56
      %extracted_51 = tensor.extract %6[%c4, %c9] : tensor<15x15xi1>
      %256 = math.roundeven %15 : tensor<15x15xf16>
      %257 = arith.addi %c-11434_i16, %65 : i16
      %258 = arith.minf %127, %cst_4 : f32
      %259 = math.atan %12 : tensor<16x3x10xf32>
      %260 = vector.broadcast %127 : f32 to vector<16x3x10xf32>
      %261 = vector.broadcast %true_30 : i1 to vector<16x3x10xi1>
      %262 = vector.broadcast %c522205298_i32 : i32 to vector<16x3x10xi32>
      %263 = vector.gather %12[%143, %134, %c13] [%262], %261, %260 : tensor<16x3x10xf32>, vector<16x3x10xi32>, vector<16x3x10xi1>, vector<16x3x10xf32> into vector<16x3x10xf32>
      %264 = index.ceildivs %c2, %134
      %265 = index.ceildivu %c6, %98
      %266 = vector.flat_transpose %166 {columns = 3 : i32, rows = 1 : i32} : vector<3xf32> -> vector<3xf32>
      %267 = index.maxu %82, %79
      %268 = index.mul %89, %109
      %269 = arith.muli %c1514081338_i64, %c1514081338_i64 : i64
      %270 = math.tan %16 : tensor<16x3x10xf16>
      %inserted_52 = tensor.insert %43 into %transposed[%c2] : tensor<3xi64>
      scf.yield
    }
    case 3 {
      %254 = index.divu %c15, %c8
      %255 = vector.broadcast %false : i1 to vector<15x10x15x10xi1>
      %256 = vector.contract {indexing_maps = [affine_map<(d0, d1, d2, d3, d4) -> (d4, d0, d1)>, affine_map<(d0, d1, d2, d3, d4) -> (d4, d2, d3)>, affine_map<(d0, d1, d2, d3, d4) -> (d0, d1, d2, d3)>], iterator_types = ["parallel", "parallel", "parallel", "parallel", "reduction"], kind = #vector.kind<minui>} %30, %30, %255 : vector<16x15x10xi1>, vector<16x15x10xi1> into vector<15x10x15x10xi1>
      %257 = math.roundeven %8 : tensor<15x15xf16>
      %c489237824_i64 = arith.constant 489237824 : i64
      %false_51 = arith.constant false
      %258 = vector.transfer_read %alloc[%rank_27, %c15], %false_51 : memref<15x15xi1>, vector<i1>
      %259 = vector.flat_transpose %167 {columns = 3 : i32, rows = 1 : i32} : vector<3xf32> -> vector<3xf32>
      %260 = index.ceildivs %c9, %c0
      %261 = vector.bitcast %31 : vector<16x15x10xi32> to vector<16x15x10xi32>
      %262 = arith.minf %cst_4, %cst_3 : f32
      %263 = scf.if %true_30 -> (i1) {
        %269 = math.ctpop %6 : tensor<15x15xi1>
        %270 = math.absi %c872239861_i32 : i32
        %271 = vector.broadcast %65 : i16 to vector<3x10xi16>
        %dest_53, %accumulated_value_54 = vector.scan <or>, %87, %271 {inclusive = false, reduction_dim = 0 : i64} : vector<16x3x10xi16>, vector<3x10xi16>
        %272 = index.add %106, %150
        %273 = math.rsqrt %15 : tensor<15x15xf16>
        %274 = index.maxs %c8, %c15
        %275 = index.add %c1, %c2
        %expanded_55 = tensor.expand_shape %8 [[0], [1, 2]] : tensor<15x15xf16> into tensor<15x15x1xf16>
        scf.yield %true_30 : i1
      } else {
        %269 = arith.minf %cst_0, %125 : f16
        %270 = arith.shrui %c1063595746_i32, %c1063595746_i32 : i32
        %alloc_53 = memref.alloc() : memref<3xf32>
        %271 = index.casts %130 : index to i32
        memref.store %true_30, %144[%c6, %c5] : memref<15x15xi1>
        %272 = arith.minui %102, %c522205298_i32 : i32
        %273 = index.casts %260 : index to i32
        %splat_54 = tensor.splat %c0_i64 : tensor<3xi64>
        scf.yield %true : i1
      }
      %264 = math.copysign %22, %23 : tensor<f16>
      %alloc_52 = memref.alloc() : memref<16x15x10xi64>
      %265 = arith.maxui %false, %false : i1
      %266 = arith.shrsi %false_51, %true : i1
      %267 = index.maxs %162, %c12
      %268 = arith.remui %c522205298_i32, %c872239861_i32 : i32
      scf.yield
    }
    default {
      %generated_51 = tensor.generate %79 {
      ^bb0(%arg3: index, %arg4: index, %arg5: index):
        memref.tensor_store %4, %alloc_13 : memref<3xi32>
        %extracted_55 = tensor.extract %12[%c3, %c2, %c7] : tensor<16x3x10xf32>
        %267 = math.powf %15, %8 : tensor<15x15xf16>
        %268 = math.absi %0 : tensor<3xi16>
        tensor.yield %cst_0 : f16
      } : tensor<?x15x10xf16>
      %254 = vector.flat_transpose %167 {columns = 3 : i32, rows = 1 : i32} : vector<3xf32> -> vector<3xf32>
      %255 = math.roundeven %12 : tensor<16x3x10xf32>
      %inserted_52 = tensor.insert %65 into %5[%c2] : tensor<3xi16>
      %256 = math.ipowi %false, %true_30 : i1
      %257 = math.sqrt %cst : f16
      %258 = arith.divf %cst_2, %cst_3 : f32
      %259 = math.exp %11 : tensor<16x3x10xf16>
      %260 = math.absi %splat_22 : tensor<16x3x10xi32>
      %261 = arith.floordivsi %true_30, %false : i1
      %alloc_53 = memref.alloc() : memref<16x15x10xi32>
      %alloc_54 = memref.alloc() : memref<3xi1>
      %262 = math.rsqrt %3 : tensor<16x3x10xf16>
      %263 = index.add %143, %162
      %264 = tensor.empty() : tensor<16x10xi1>
      %265 = tensor.empty() : tensor<10x3xi1>
      %266 = linalg.generic {indexing_maps = [affine_map<(d0, d1, d2) -> (d0, d1, d2)>, affine_map<(d0, d1, d2) -> (d0, d2)>, affine_map<(d0, d1, d2) -> (d2, d1)>, affine_map<(d0, d1, d2) -> (d0, d1, d2)>], iterator_types = ["parallel", "parallel", "parallel"]} ins(%splat_31, %264, %265 : tensor<16x3x10xi1>, tensor<16x10xi1>, tensor<10x3xi1>) outs(%splat_31 : tensor<16x3x10xi1>) {
      ^bb0(%in: i1, %in_55: i1, %in_56: i1, %out: i1):
        %267 = arith.addi %65, %c-11434_i16 : i16
        %268 = math.log2 %8 : tensor<15x15xf16>
        %269 = arith.floordivsi %c223865476_i64, %c1514081338_i64 : i64
        %270 = index.add %133, %74
        %271 = math.ipowi %false, %in_55 : i1
        %272 = math.atan %127 : f32
        %273 = vector.extract_strided_slice %31 {offsets = [8], sizes = [5], strides = [1]} : vector<16x15x10xi32> to vector<5x15x10xi32>
        %274 = arith.addi %c872239861_i32, %c2124661813_i32 : i32
        %alloc_57 = memref.alloc() : memref<3xf32>
        %275 = math.atan %collapsed : tensor<48x10xf16>
        %276 = math.floor %cst_3 : f32
        memref.store %c28366_i16, %alloc_15[%c6, %c10] : memref<15x15xi16>
        %277 = vector.matrix_multiply %20, %254 {lhs_columns = 3 : i32, lhs_rows = 5 : i32, rhs_columns = 1 : i32} : (vector<15xf32>, vector<3xf32>) -> vector<5xf32>
        %278 = arith.remf %125, %125 : f16
        %279 = arith.floordivsi %c28366_i16, %65 : i16
        %280 = vector.flat_transpose %277 {columns = 5 : i32, rows = 1 : i32} : vector<5xf32> -> vector<5xf32>
        %281 = tensor.empty() : tensor<15x15xf16>
        %282 = linalg.matmul ins(%8, %8 : tensor<15x15xf16>, tensor<15x15xf16>) outs(%281 : tensor<15x15xf16>) -> tensor<15x15xf16>
        %283 = vector.transpose %131, [0] : vector<1xf32> to vector<1xf32>
        %collapsed_58 = tensor.collapse_shape %splat [[0, 1], [2]] : tensor<16x15x10xi16> into tensor<240x10xi16>
        %284 = arith.remf %cst_0, %125 : f16
        %285 = index.add %c10, %143
        %286 = math.expm1 %cst_2 : f32
        %287 = math.exp2 %collapsed : tensor<48x10xf16>
        %288 = arith.xori %in_56, %false : i1
        %289 = affine.load %112[%c10] : memref<3xi64>
        %290 = math.ctpop %0 : tensor<3xi16>
        %291 = index.castu %out : i1 to index
        %292 = math.ctlz %2 : tensor<3xi32>
        vector.print %87 : vector<16x3x10xi16>
        %293 = affine.apply affine_map<(d0, d1) -> (-((d0 + 64) floordiv 128) + (d0 + 64) floordiv 128 + d0 + 80)>(%41, %c12)
        %294 = vector.broadcast %c5 : index to vector<10xindex>
        %295 = vector.broadcast %true_30 : i1 to vector<10xi1>
        vector.scatter %144[%c10, %c8] [%294], %295, %295 : memref<15x15xi1>, vector<10xindex>, vector<10xi1>, vector<10xi1>
        %296 = index.add %74, %c0
        linalg.yield %in : i1
      } -> tensor<16x3x10xi1>
      affine.for %arg3 = 0 to 82 {
      }
    }
    %170 = vector.broadcast %c767099878_i64 : i64 to vector<15xi64>
    %dest, %accumulated_value = vector.scan <add>, %75, %170 {inclusive = true, reduction_dim = 1 : i64} : vector<15x15xi64>, vector<15xi64>
    %c0_i64_36 = arith.constant 0 : i64
    %c0_i64_37 = arith.constant 0 : i64
    %171 = vector.transfer_read %18[%c4], %c0_i64_37 : tensor<3xi64>, vector<i64>
    %172 = math.fma %21, %21, %21 : tensor<10xf16>
    %173 = math.rsqrt %12 : tensor<16x3x10xf32>
    %174 = vector.broadcast %cst_3 : f32 to vector<3xf32>
    %175 = vector.fma %174, %167, %174 : vector<3xf32>
    %176 = math.cos %expanded : tensor<3x1xf32>
    %177 = arith.shrui %102, %c872239861_i32 : i32
    %178 = index.ceildivs %c13, %86
    %179 = vector.broadcast %cst_2 : f32 to vector<15x15xf32>
    %180 = vector.fma %179, %179, %179 : vector<15x15xf32>
    %181 = bufferization.clone %alloc_12 : memref<15x15xi16> to memref<15x15xi16>
    memref.store %cst, %alloc_14[%c0] : memref<3xf16>
    %182 = arith.andi %c767099878_i64, %c1514081338_i64 : i64
    %183 = arith.remsi %c0_i64, %c223865476_i64 : i64
    %184 = arith.shrui %c0_i64, %c223865476_i64 : i64
    %185 = arith.muli %true_30, %true : i1
    %186 = math.atan %125 : f16
    %187 = arith.ori %c223865476_i64, %c0_i64 : i64
    %188 = bufferization.clone %alloc_20 : memref<10xf16> to memref<10xf16>
    %c0_i16 = arith.constant 0 : i16
    %189 = vector.transfer_read %0[%c15], %c0_i16 : tensor<3xi16>, vector<i16>
    %190 = arith.muli %65, %c28366_i16 : i16
    %191 = arith.remui %true, %true_30 : i1
    %192 = math.cos %cst_2 : f32
    %193 = index.divs %109, %86
    %194 = arith.maxf %cst_0, %extracted : f16
    %195 = index.casts %c0_i16 : i16 to index
    %196 = index.maxs %41, %c1
    %197 = memref.atomic_rmw mins %c223865476_i64, %alloc_5[%c2, %c5, %c7] : (i64, memref<16x15x10xi64>) -> i64
    %198 = scf.if %true -> (f16) {
      %254 = arith.divf %127, %cst_2 : f32
      %255 = math.round %cst_0 : f16
      %256 = math.cos %collapsed : tensor<48x10xf16>
      %generated_51 = tensor.generate %c14 {
      ^bb0(%arg3: index, %arg4: index):
        %261 = bufferization.to_tensor %159 : memref<15x15xf32>
        %rank_53 = tensor.rank %transposed : tensor<3xi64>
        %262 = math.absf %expanded_32 : tensor<3x1x1xf32>
        %263 = math.log2 %125 : f16
        tensor.yield %cst_1 : f16
      } : tensor<?x15xf16>
      %257 = math.copysign %13, %13 : tensor<15x15xf32>
      %258 = index.casts %true_30 : i1 to index
      %259 = tensor.empty() : tensor<3xi32>
      %mapped_52 = linalg.map ins(%alloc_13, %2, %alloc_13 : memref<3xi32>, tensor<3xi32>, memref<3xi32>) outs(%259 : tensor<3xi32>)
        (%in: i32, %in_53: i32, %in_54: i32) {
          %261 = math.ipowi %259, %2 : tensor<3xi32>
          %262 = arith.subi %in_53, %102 : i32
          %263 = math.powf %12, %12 : tensor<16x3x10xf32>
          %264 = arith.floordivsi %c0_i64, %c767099878_i64 : i64
          %265 = math.expm1 %cst_4 : f32
          %266 = math.copysign %12, %12 : tensor<16x3x10xf32>
          %267 = math.exp %extracted : f16
          %268 = math.atan %21 : tensor<10xf16>
          %false_55 = index.bool.constant false
          %269 = math.expm1 %cst_4 : f32
          %270 = index.casts %74 : index to i32
          %271 = bufferization.clone %alloc_9 : memref<15x15xf32> to memref<15x15xf32>
          %272 = math.floor %22 : tensor<f16>
          %273 = index.divs %130, %rank
          %expanded_56 = tensor.expand_shape %transposed [[0, 1]] : tensor<3xi64> into tensor<3x1xi64>
          %274 = math.absf %expanded_32 : tensor<3x1x1xf32>
          %275 = index.divs %84, %c14
          %276 = vector.broadcast %cst_2 : f32 to vector<3x3xf32>
          %277 = vector.outerproduct %175, %166, %276 {kind = #vector.kind<maxf>} : vector<3xf32>, vector<3xf32>
          %278 = arith.remui %c28366_i16, %c0_i16 : i16
          %279 = math.roundeven %17 : tensor<16x3x10xf16>
          %expanded_57 = tensor.expand_shape %13 [[0], [1, 2]] : tensor<15x15xf32> into tensor<15x15x1xf32>
          %280 = vector.load %188[%c6] : memref<10xf16>, vector<16x3x10xf16>
          %alloc_58 = memref.alloc() : memref<16x15x10xi1>
          %281 = math.fma %cst_4, %cst_2, %cst_2 : f32
          %282 = vector.broadcast %cst_3 : f32 to vector<3xf32>
          %283 = vector.fma %282, %282, %166 : vector<3xf32>
          %284 = vector.broadcast %cst_3 : f32 to vector<16x3x10xf32>
          %285 = vector.fma %284, %284, %284 : vector<16x3x10xf32>
          %alloc_59 = memref.alloc() : memref<3xi64>
          %286 = math.rsqrt %15 : tensor<15x15xf16>
          %287 = math.exp %13 : tensor<15x15xf32>
          %288 = bufferization.clone %alloc_5 : memref<16x15x10xi64> to memref<16x15x10xi64>
          %289 = index.castu %c8 : index to i32
          %290 = index.mul %84, %107
          %c0_i32 = arith.constant 0 : i32
          linalg.yield %c0_i32 : i32
        }
      %260 = vector.transpose %180, [0, 1] : vector<15x15xf32> to vector<15x15xf32>
      scf.yield %125 : f16
    } else {
      scf.if %false {
        memref.store %c522205298_i32, %alloc_13[%c1] : memref<3xi32>
        %262 = arith.xori %false, %true_30 : i1
        %263 = vector.broadcast %127 : f32 to vector<15x15xf32>
        %264 = vector.fma %263, %263, %263 : vector<15x15xf32>
        %expanded_51 = tensor.expand_shape %8 [[0], [1, 2]] : tensor<15x15xf16> into tensor<15x15x1xf16>
        %265 = vector.reduction <maxf>, %166 : vector<3xf32> into f32
        %266 = arith.remf %cst_2, %127 : f32
        %c1_i32 = arith.constant 1 : i32
        %c0_i32 = arith.constant 0 : i32
        %267 = vector.transfer_read %2[%c12], %c0_i32 : tensor<3xi32>, vector<i32>
        %268 = arith.minui %false, %false : i1
      }
      %254 = math.round %12 : tensor<16x3x10xf32>
      %255 = tensor.empty() : tensor<15x15xf16>
      %256 = linalg.matmul ins(%15, %8 : tensor<15x15xf16>, tensor<15x15xf16>) outs(%255 : tensor<15x15xf16>) -> tensor<15x15xf16>
      %257 = math.copysign %expanded_32, %expanded_32 : tensor<3x1x1xf32>
      %258 = math.fpowi %9, %4 : tensor<3xf16>, tensor<3xi32>
      %259 = arith.remf %cst_1, %125 : f16
      %260 = index.castu %89 : index to i32
      %261 = arith.subi %c28366_i16, %c0_i16 : i16
      scf.yield %cst : f16
    }
    %alloca_38 = memref.alloca() : memref<15x15xi64>
    %199 = vector.extract %167[0] : vector<3xf32>
    %200 = math.exp %15 : tensor<15x15xf16>
    %201 = arith.remsi %c872239861_i32, %102 : i32
    %202 = index.divs %86, %134
    %203 = vector.transpose %166, [0] : vector<3xf32> to vector<3xf32>
    %204 = math.tan %collapsed : tensor<48x10xf16>
    %205 = arith.andi %c522205298_i32, %c872239861_i32 : i32
    %206 = arith.maxui %c0_i16, %65 : i16
    %207 = math.round %extracted : f16
    %208 = index.casts %true : i1 to index
    %209 = math.roundeven %198 : f16
    %210 = arith.remui %false, %false : i1
    %211 = index.castu %c2124661813_i32 : i32 to index
    %212 = arith.remf %127, %cst_2 : f32
    %213 = math.ctlz %4 : tensor<3xi32>
    %214 = arith.divsi %true_30, %true : i1
    %215 = affine.if affine_set<(d0, d1) : (-(d0 ceildiv 32) == 0)>(%c3, %c13) -> memref<16x3x10xi1> {
      %254 = arith.muli %c0_i64_36, %c223865476_i64 : i64
      %255 = vector.splat %c11 : vector<16x3x10xindex>
      %256 = arith.floordivsi %true_30, %true : i1
      %257 = index.mul %41, %130
      %258 = math.exp2 %expanded_32 : tensor<3x1x1xf32>
      %259 = math.absi %5 : tensor<3xi16>
      %260 = vector.insertelement %cst_3, %167[%208 : index] : vector<3xf32>
      %261 = math.absf %cst_1 : f16
      %alloc_51 = memref.alloc() : memref<16x3x10xi1>
      affine.yield %alloc_51 : memref<16x3x10xi1>
    } else {
      %254 = vector.extract_strided_slice %30 {offsets = [6], sizes = [2], strides = [1]} : vector<16x15x10xi1> to vector<2x15x10xi1>
      %extracted_51 = tensor.extract %collapsed[%c13, %c8] : tensor<48x10xf16>
      %255 = vector.extract_strided_slice %104 {offsets = [0], sizes = [1], strides = [1]} : vector<1x1x10xf32> to vector<1x1x10xf32>
      %256 = arith.maxsi %c0_i16, %65 : i16
      %257 = arith.divsi %c1063595746_i32, %c522205298_i32 : i32
      %258 = vector.extract_strided_slice %36 {offsets = [0], sizes = [1], strides = [1]} : vector<1x4x10xf32> to vector<1x4x10xf32>
      %259 = math.atan %21 : tensor<10xf16>
      %260 = arith.subi %false, %false : i1
      %alloc_52 = memref.alloc() : memref<16x3x10xi1>
      affine.yield %alloc_52 : memref<16x3x10xi1>
    }
    %216 = affine.load %70[%c15] : memref<3xf32>
    %217 = index.ceildivs %41, %c10
    %218 = arith.divf %216, %cst_2 : f32
    %generated = tensor.generate %89 {
    ^bb0(%arg3: index, %arg4: index, %arg5: index):
      %254 = vector.bitcast %174 : vector<3xf32> to vector<3xf32>
      %255 = affine.min affine_map<(d0) -> ((-((d0 - 2) floordiv 8)) floordiv 2, d0 * 4, ((d0 - 2) floordiv 8) mod 2, ((d0 - 2) floordiv 8 + 4) mod 64)>(%107)
      %256 = index.ceildivs %99, %217
      %257 = affine.for %arg6 = 0 to 23 iter_args(%arg7 = %255) -> (index) {
        affine.yield %c13 : index
      }
      tensor.yield %false : i1
    } : tensor<?x3x10xi1>
    %219 = arith.ceildivsi %c28366_i16, %c0_i16 : i16
    memref.alloca_scope  {
      %254 = index.maxs %195, %211
      memref.alloca_scope  {
        %285 = index.mul %c4, %98
        %286 = arith.xori %true, %false : i1
        %cst_56 = arith.constant 1.000000e+00 : f32
        %287 = vector.transfer_read %alloc_7[%c4, %rank, %195], %cst_56 : memref<16x15x10xf32>, vector<15x3xf32>
        %extracted_57 = tensor.extract %1[%c8, %c10] : tensor<15x15xi64>
        %true_58 = index.bool.constant true
        %288 = index.floordivs %c3, %98
        %289 = math.exp %11 : tensor<16x3x10xf16>
        %290 = math.ctlz %14 : tensor<3xi16>
        %291 = math.exp %8 : tensor<15x15xf16>
        %292 = math.copysign %13, %13 : tensor<15x15xf32>
        %293 = arith.minui %43, %extracted_57 : i64
        %294 = arith.remf %cst_4, %cst_4 : f32
        %295 = arith.remui %c28366_i16, %65 : i16
        memref.copy %alloc_19, %alloc_10 : memref<3xi64> to memref<3xi64>
        %296 = arith.minui %c0_i64_36, %c0_i64 : i64
        %297 = arith.xori %102, %c872239861_i32 : i32
        %298 = math.cos %15 : tensor<15x15xf16>
        %alloc_59 = memref.alloc() : memref<1x15xf32>
        %299 = tensor.empty() : tensor<3x15xf32>
        %300 = linalg.matmul ins(%expanded, %alloc_59 : tensor<3x1xf32>, memref<1x15xf32>) outs(%299 : tensor<3x15xf32>) -> tensor<3x15xf32>
        %301 = tensor.empty(%143, %c2) : tensor<?x15x?xf16>
        %302 = memref.atomic_rmw maxu %65, %181[%c12, %c2] : (i16, memref<15x15xi16>) -> i16
        %303 = arith.maxf %125, %cst_1 : f16
        %304 = math.ctpop %transposed : tensor<3xi64>
        %305 = index.casts %43 : i64 to index
        memref.store %extracted_57, %alloc_19[%c2] : memref<3xi64>
        %from_elements_60 = tensor.from_elements %c28366_i16, %c28366_i16, %c-11434_i16, %c28366_i16, %c28366_i16, %65, %c-11434_i16, %c0_i16, %c-11434_i16, %c28366_i16, %c0_i16, %c0_i16, %c28366_i16, %c28366_i16, %65, %65, %c0_i16, %c0_i16, %c-11434_i16, %c28366_i16, %c-11434_i16, %65, %65, %c-11434_i16, %c28366_i16, %c28366_i16, %65, %c0_i16, %c-11434_i16, %c-11434_i16, %c-11434_i16, %c0_i16, %65, %c-11434_i16, %c-11434_i16, %c-11434_i16, %c28366_i16, %c28366_i16, %c-11434_i16, %c-11434_i16, %c0_i16, %c-11434_i16, %c28366_i16, %c0_i16, %c28366_i16, %65, %c28366_i16, %65, %c0_i16, %c-11434_i16, %c-11434_i16, %65, %65, %c0_i16, %c0_i16, %c-11434_i16, %c-11434_i16, %c28366_i16, %c0_i16, %c28366_i16, %c28366_i16, %c-11434_i16, %c0_i16, %65, %c0_i16, %65, %65, %65, %65, %c28366_i16, %65, %c28366_i16, %c28366_i16, %65, %c-11434_i16, %c0_i16, %c28366_i16, %65, %c28366_i16, %c-11434_i16, %c28366_i16, %c28366_i16, %c0_i16, %c0_i16, %c-11434_i16, %65, %c-11434_i16, %c0_i16, %c28366_i16, %c-11434_i16, %c0_i16, %65, %c-11434_i16, %65, %c-11434_i16, %c-11434_i16, %65, %c28366_i16, %c28366_i16, %65, %c0_i16, %c-11434_i16, %c28366_i16, %65, %65, %c-11434_i16, %c28366_i16, %c-11434_i16, %c28366_i16, %c0_i16, %c0_i16, %65, %65, %c0_i16, %c0_i16, %c28366_i16, %65, %c0_i16, %c-11434_i16, %65, %c28366_i16, %c-11434_i16, %c0_i16, %c0_i16, %c-11434_i16, %c28366_i16, %c0_i16, %65, %c-11434_i16, %c0_i16, %65, %c0_i16, %c28366_i16, %c0_i16, %c0_i16, %c-11434_i16, %c-11434_i16, %c28366_i16, %c28366_i16, %c0_i16, %65, %65, %65, %65, %c-11434_i16, %c28366_i16, %c-11434_i16, %c-11434_i16, %c-11434_i16, %c0_i16, %65, %c0_i16, %c0_i16, %c28366_i16, %c0_i16, %65, %c0_i16, %65, %c-11434_i16, %c-11434_i16, %65, %65, %c28366_i16, %c28366_i16, %c28366_i16, %c-11434_i16, %c-11434_i16, %65, %c28366_i16, %c28366_i16, %c0_i16, %c-11434_i16, %c0_i16, %c28366_i16, %c28366_i16, %65, %65, %c-11434_i16, %c28366_i16, %c0_i16, %65, %c0_i16, %c28366_i16, %c0_i16, %c28366_i16, %c-11434_i16, %65, %65, %65, %c-11434_i16, %c0_i16, %c-11434_i16, %c-11434_i16, %c0_i16, %c-11434_i16, %65, %65, %65, %65, %c0_i16, %c-11434_i16, %65, %c0_i16, %c-11434_i16, %65, %c28366_i16, %c0_i16, %65, %c-11434_i16, %c-11434_i16, %c0_i16, %c-11434_i16, %c28366_i16, %c28366_i16, %c28366_i16, %65, %c28366_i16, %65, %c-11434_i16, %c28366_i16, %65, %c-11434_i16, %c0_i16, %c-11434_i16, %c-11434_i16, %65, %65, %65, %65, %65, %c-11434_i16, %c28366_i16, %c28366_i16, %c28366_i16, %65, %c-11434_i16, %65, %65, %c-11434_i16, %c-11434_i16, %65, %c0_i16, %65, %c28366_i16, %c0_i16, %65, %65, %65, %c-11434_i16, %c28366_i16, %c0_i16, %c28366_i16, %c0_i16, %65, %c-11434_i16, %c0_i16, %65, %c-11434_i16, %c0_i16, %c28366_i16, %c0_i16, %65, %65, %c0_i16, %c0_i16, %c0_i16, %c28366_i16, %c28366_i16, %c-11434_i16, %c28366_i16, %65, %65, %c-11434_i16, %c-11434_i16, %c28366_i16, %65, %c28366_i16, %c28366_i16, %c-11434_i16, %65, %c0_i16, %65, %c28366_i16, %c0_i16, %c-11434_i16, %c0_i16, %65, %c0_i16, %c-11434_i16, %c0_i16, %65, %c-11434_i16, %65, %c-11434_i16, %65, %c0_i16, %c28366_i16, %c-11434_i16, %c28366_i16, %c-11434_i16, %c28366_i16, %c28366_i16, %65, %65, %c28366_i16, %65, %c0_i16, %c28366_i16, %c-11434_i16, %c28366_i16, %c28366_i16, %c-11434_i16, %c-11434_i16, %c28366_i16, %c0_i16, %65, %65, %c0_i16, %c-11434_i16, %c28366_i16, %c0_i16, %c0_i16, %65, %c28366_i16, %c-11434_i16, %c0_i16, %c28366_i16, %65, %65, %65, %c28366_i16, %65, %65, %c0_i16, %65, %c-11434_i16, %65, %c-11434_i16, %c-11434_i16, %c0_i16, %65, %c28366_i16, %65, %c28366_i16, %65, %c0_i16, %c0_i16, %c-11434_i16, %65, %65, %c0_i16, %65, %c28366_i16, %c-11434_i16, %c-11434_i16, %c28366_i16, %c0_i16, %65, %c0_i16, %c0_i16, %65, %c28366_i16, %c0_i16, %c0_i16, %c-11434_i16, %c-11434_i16, %c-11434_i16, %65, %c0_i16, %c0_i16, %c28366_i16, %c28366_i16, %c0_i16, %65, %c-11434_i16, %c28366_i16, %c0_i16, %c-11434_i16, %c-11434_i16, %c0_i16, %65, %c0_i16, %c28366_i16, %c28366_i16, %c28366_i16, %c28366_i16, %65, %c-11434_i16, %c0_i16, %c-11434_i16, %c28366_i16, %c28366_i16, %65, %c-11434_i16, %c-11434_i16, %65, %c28366_i16, %65, %65, %c-11434_i16, %65, %c0_i16, %65, %c0_i16, %c0_i16, %c-11434_i16, %c-11434_i16, %65, %65, %c0_i16, %c0_i16, %c0_i16, %65, %c-11434_i16, %c-11434_i16, %65, %c0_i16, %c28366_i16, %65, %65, %c0_i16, %c-11434_i16, %c-11434_i16, %c28366_i16, %c0_i16, %c28366_i16, %c28366_i16, %c0_i16, %c-11434_i16, %65, %65, %65, %c0_i16, %c0_i16, %65, %c0_i16, %c-11434_i16, %65, %c-11434_i16, %c0_i16, %65, %c0_i16, %65, %c-11434_i16, %65, %65, %c-11434_i16, %65, %c0_i16, %c-11434_i16, %65, %65, %65, %c0_i16, %c28366_i16, %c0_i16, %c-11434_i16, %c-11434_i16, %c-11434_i16, %c0_i16, %c0_i16, %c28366_i16, %65, %c28366_i16, %c0_i16, %65, %65, %65, %65, %c0_i16, %c0_i16, %c28366_i16, %65, %c0_i16, %c-11434_i16, %c0_i16, %c-11434_i16, %c28366_i16, %65, %c-11434_i16, %c-11434_i16, %c28366_i16, %c28366_i16, %c28366_i16, %c0_i16, %c28366_i16, %c0_i16, %65, %c0_i16, %c28366_i16, %c28366_i16, %c28366_i16, %c28366_i16, %c-11434_i16, %c28366_i16, %c28366_i16, %c-11434_i16, %c-11434_i16, %65, %c28366_i16, %65, %c0_i16, %65, %65, %c0_i16, %c-11434_i16, %65, %c-11434_i16, %c-11434_i16, %c-11434_i16, %c28366_i16, %65, %65, %c0_i16, %65, %65, %c-11434_i16, %c-11434_i16, %c0_i16, %c28366_i16, %c-11434_i16, %c-11434_i16, %65, %65, %c28366_i16, %c28366_i16, %c-11434_i16, %65, %65, %c0_i16, %c-11434_i16, %c28366_i16, %c0_i16, %c-11434_i16, %c28366_i16, %c28366_i16, %65, %65, %c28366_i16, %c0_i16, %c28366_i16, %c-11434_i16, %65, %c28366_i16, %c28366_i16, %c-11434_i16, %c-11434_i16, %c28366_i16, %c0_i16, %65, %c0_i16, %c-11434_i16, %c0_i16, %65, %c28366_i16, %c28366_i16, %c-11434_i16, %c-11434_i16, %c28366_i16, %c28366_i16, %c28366_i16, %65, %65, %c-11434_i16, %c-11434_i16, %c-11434_i16, %c-11434_i16, %65, %65, %c28366_i16, %c0_i16, %65, %c-11434_i16, %c28366_i16, %c28366_i16, %65, %c-11434_i16, %65, %c0_i16, %c-11434_i16, %c0_i16, %c-11434_i16, %c28366_i16, %c-11434_i16, %c28366_i16, %c28366_i16, %65, %c28366_i16, %c-11434_i16, %c-11434_i16, %c28366_i16, %65, %c28366_i16, %c28366_i16, %c0_i16, %c28366_i16, %c0_i16, %c0_i16, %c28366_i16, %65, %65, %c28366_i16, %c-11434_i16, %c-11434_i16, %c28366_i16, %c28366_i16, %65, %c-11434_i16, %65, %c-11434_i16, %c0_i16, %c28366_i16, %65, %c0_i16, %c28366_i16, %c28366_i16, %c28366_i16, %c0_i16, %c-11434_i16, %c-11434_i16, %c0_i16, %65, %c28366_i16, %c0_i16, %c-11434_i16, %c28366_i16, %65, %c28366_i16, %c28366_i16, %c0_i16, %c28366_i16, %c0_i16, %c28366_i16, %c0_i16, %c0_i16, %65, %c-11434_i16, %c0_i16, %c28366_i16, %c28366_i16, %65, %65, %c-11434_i16, %c-11434_i16, %c-11434_i16, %65, %c28366_i16, %c0_i16, %c28366_i16, %c-11434_i16, %65, %c-11434_i16, %c28366_i16, %c-11434_i16, %65, %c-11434_i16, %c-11434_i16, %c-11434_i16, %65, %c-11434_i16, %65, %65, %c-11434_i16, %65, %c0_i16, %c28366_i16, %c0_i16, %c28366_i16, %c-11434_i16, %c0_i16, %65, %c0_i16, %c28366_i16, %c0_i16, %65, %c0_i16, %c0_i16, %c0_i16, %65, %c-11434_i16, %c-11434_i16, %65, %65, %c0_i16, %c28366_i16, %65, %c0_i16, %65, %65, %65, %c-11434_i16, %65, %65, %c-11434_i16, %c0_i16, %c-11434_i16, %c28366_i16, %c-11434_i16, %65, %65, %c0_i16, %c28366_i16, %c0_i16, %65, %c28366_i16, %65, %65, %c0_i16, %65, %c-11434_i16, %c0_i16, %65, %65, %c0_i16, %c-11434_i16, %65, %65, %c0_i16, %c-11434_i16, %c0_i16, %c-11434_i16, %c28366_i16, %65, %c28366_i16, %c0_i16, %c-11434_i16, %c0_i16, %c0_i16, %c28366_i16, %c-11434_i16, %c0_i16, %c-11434_i16, %65, %c0_i16, %c-11434_i16, %c-11434_i16, %c28366_i16, %65, %c28366_i16, %65, %c0_i16, %c0_i16, %c0_i16, %c28366_i16, %c28366_i16, %c28366_i16, %c-11434_i16, %c-11434_i16, %65, %c0_i16, %c0_i16, %c0_i16, %65, %c-11434_i16, %c28366_i16, %65, %c0_i16, %65, %c0_i16, %65, %c-11434_i16, %c0_i16, %c28366_i16, %65, %c-11434_i16, %c0_i16, %c-11434_i16, %c28366_i16, %c0_i16, %65, %c-11434_i16, %c0_i16, %65, %c0_i16, %c28366_i16, %c-11434_i16, %c0_i16, %c28366_i16, %c28366_i16, %c0_i16, %c0_i16, %c0_i16, %c28366_i16, %c28366_i16, %c-11434_i16, %c0_i16, %65, %c0_i16, %c0_i16, %65, %c0_i16, %c-11434_i16, %c0_i16, %c0_i16, %c0_i16, %c-11434_i16, %c28366_i16, %c0_i16, %c28366_i16, %c0_i16, %c-11434_i16, %c28366_i16, %c28366_i16, %c28366_i16, %65, %c28366_i16, %c-11434_i16, %c-11434_i16, %c0_i16, %c0_i16, %65, %c-11434_i16, %c-11434_i16, %65, %c0_i16, %c0_i16, %c28366_i16, %c0_i16, %c0_i16, %c28366_i16, %c-11434_i16, %c28366_i16, %65, %65, %c-11434_i16, %c0_i16, %c0_i16, %c-11434_i16, %c28366_i16, %65, %c28366_i16, %c0_i16, %c28366_i16, %c-11434_i16, %65, %65, %65, %65, %c0_i16, %c-11434_i16, %c0_i16, %c0_i16, %c-11434_i16, %65, %c0_i16, %c-11434_i16, %c-11434_i16, %c28366_i16, %c0_i16, %65, %65, %65, %65, %c28366_i16, %c-11434_i16, %c-11434_i16, %65, %65, %c28366_i16, %c28366_i16, %c-11434_i16, %65, %65, %c-11434_i16, %c0_i16, %c0_i16, %c0_i16, %65, %65, %65, %c28366_i16, %c28366_i16, %c0_i16, %c-11434_i16, %c0_i16, %65, %c0_i16, %c28366_i16, %c0_i16, %c0_i16, %c28366_i16, %c28366_i16, %c28366_i16, %c28366_i16, %65, %c-11434_i16, %c-11434_i16, %c-11434_i16, %c28366_i16, %c0_i16, %c28366_i16, %c28366_i16, %c-11434_i16, %c-11434_i16, %c-11434_i16, %c0_i16, %c0_i16, %c28366_i16, %65, %c-11434_i16, %65, %c0_i16, %c28366_i16, %c0_i16, %65, %c0_i16, %c0_i16, %c0_i16, %c28366_i16, %c-11434_i16, %c-11434_i16, %c0_i16, %c28366_i16, %c0_i16, %c28366_i16, %c0_i16, %65, %65, %65, %65, %c28366_i16, %c0_i16, %65, %c-11434_i16, %c0_i16, %c28366_i16, %c0_i16, %c28366_i16, %c28366_i16, %c-11434_i16, %c0_i16, %c0_i16, %65, %c28366_i16, %c28366_i16, %c-11434_i16, %c28366_i16, %c28366_i16, %c0_i16, %c-11434_i16, %c28366_i16, %65, %c-11434_i16, %65, %c-11434_i16, %65, %c28366_i16, %c-11434_i16, %c0_i16, %c0_i16, %c28366_i16, %c28366_i16, %c28366_i16, %c0_i16, %65, %c-11434_i16, %c-11434_i16, %c-11434_i16, %c-11434_i16, %c28366_i16, %65, %65, %c28366_i16, %c-11434_i16, %c-11434_i16, %c0_i16, %c28366_i16, %65, %c0_i16, %c28366_i16, %c-11434_i16, %c0_i16, %c-11434_i16, %c-11434_i16, %c0_i16, %c-11434_i16, %c28366_i16, %c28366_i16, %c0_i16, %c28366_i16, %c-11434_i16, %65, %65, %65, %c-11434_i16, %c0_i16, %c0_i16, %c-11434_i16, %c0_i16, %c0_i16, %c28366_i16, %c28366_i16, %c0_i16, %c-11434_i16, %65, %c28366_i16, %c28366_i16, %c-11434_i16, %c0_i16, %c28366_i16, %c-11434_i16, %c0_i16, %c-11434_i16, %c-11434_i16, %65, %c0_i16, %c28366_i16, %c28366_i16, %c28366_i16, %c0_i16, %c0_i16, %c0_i16, %c-11434_i16, %65, %c28366_i16, %c-11434_i16, %c-11434_i16, %65, %c28366_i16, %c0_i16, %c28366_i16, %c-11434_i16, %c-11434_i16, %c-11434_i16, %c0_i16, %c-11434_i16, %c0_i16, %c-11434_i16, %c28366_i16, %c-11434_i16, %c-11434_i16, %65, %65, %c-11434_i16, %c28366_i16, %c28366_i16, %65, %65, %c0_i16, %c-11434_i16, %c0_i16, %c28366_i16, %65, %65, %c-11434_i16, %c0_i16, %c-11434_i16, %c-11434_i16, %65, %c-11434_i16, %65, %c0_i16, %c28366_i16, %c28366_i16, %c28366_i16, %65, %c28366_i16, %c-11434_i16, %c28366_i16, %c-11434_i16, %c0_i16, %c-11434_i16, %65, %c28366_i16, %c-11434_i16, %c0_i16, %c28366_i16, %c28366_i16, %c28366_i16, %c0_i16, %c-11434_i16, %c28366_i16, %c28366_i16, %c28366_i16, %c-11434_i16, %65, %65, %65, %65, %c-11434_i16, %c28366_i16, %65, %c0_i16, %c28366_i16, %65, %c0_i16, %c-11434_i16, %c-11434_i16, %c-11434_i16, %65, %c0_i16, %c0_i16, %c28366_i16, %65, %c28366_i16, %c-11434_i16, %c28366_i16, %c-11434_i16, %65, %65, %c-11434_i16, %c28366_i16, %c-11434_i16, %c28366_i16, %c0_i16, %c-11434_i16, %c0_i16, %c28366_i16, %65, %c-11434_i16, %65, %65, %c-11434_i16, %65, %c-11434_i16, %c28366_i16, %c0_i16, %c-11434_i16, %65, %c0_i16, %c28366_i16, %c28366_i16, %c28366_i16, %65, %c0_i16, %c28366_i16, %c-11434_i16, %c28366_i16, %65, %65, %c28366_i16, %65, %c0_i16, %c0_i16, %c-11434_i16, %c0_i16, %65, %c-11434_i16, %c28366_i16, %c-11434_i16, %c0_i16, %c-11434_i16, %c-11434_i16, %c28366_i16, %c28366_i16, %c0_i16, %c-11434_i16, %c0_i16, %c28366_i16, %c-11434_i16, %c-11434_i16, %c28366_i16, %c-11434_i16, %c0_i16, %c-11434_i16, %c-11434_i16, %65, %65, %c0_i16, %c0_i16, %c28366_i16, %c28366_i16, %c0_i16, %c-11434_i16, %c0_i16, %c-11434_i16, %c28366_i16, %c28366_i16, %c0_i16, %65, %c28366_i16, %c-11434_i16, %c-11434_i16, %65, %c-11434_i16, %c-11434_i16, %c0_i16, %c0_i16, %c-11434_i16, %c-11434_i16, %c28366_i16, %c-11434_i16, %c28366_i16, %c-11434_i16, %c-11434_i16, %c28366_i16, %c0_i16, %c0_i16, %c-11434_i16, %c-11434_i16, %65, %c28366_i16, %c28366_i16, %c0_i16, %c-11434_i16, %65, %c28366_i16, %c-11434_i16, %c28366_i16, %c28366_i16, %c-11434_i16, %65, %c-11434_i16, %c-11434_i16, %c0_i16, %c-11434_i16, %c-11434_i16, %c0_i16, %c-11434_i16, %65, %c28366_i16, %c0_i16, %c0_i16, %c28366_i16, %65, %c-11434_i16, %c28366_i16, %c28366_i16, %65, %c28366_i16, %c28366_i16, %c0_i16, %c0_i16, %65, %65, %c0_i16, %c-11434_i16, %65, %c0_i16, %c28366_i16, %c0_i16, %c-11434_i16, %65, %c-11434_i16, %c0_i16, %c-11434_i16, %c0_i16, %c28366_i16, %c28366_i16, %c0_i16, %c0_i16, %c28366_i16, %c28366_i16, %c28366_i16, %c28366_i16, %c-11434_i16, %c0_i16, %c0_i16, %c28366_i16, %c-11434_i16, %65, %c0_i16, %c0_i16, %c28366_i16, %65, %c-11434_i16, %c-11434_i16, %c-11434_i16, %c0_i16, %c-11434_i16, %c0_i16, %c0_i16, %c-11434_i16, %c0_i16, %c0_i16, %c-11434_i16, %65, %c0_i16, %c-11434_i16, %c-11434_i16, %c0_i16, %c-11434_i16, %c28366_i16, %c0_i16, %c28366_i16, %c28366_i16, %c0_i16, %c-11434_i16, %65, %c-11434_i16, %c28366_i16, %65, %c28366_i16, %c-11434_i16, %65, %c28366_i16, %c-11434_i16, %65, %c28366_i16, %65, %65, %c28366_i16, %c-11434_i16, %c-11434_i16, %65, %c28366_i16, %c-11434_i16, %c-11434_i16, %c-11434_i16, %65, %c-11434_i16, %c28366_i16, %c28366_i16, %c28366_i16, %c28366_i16, %c-11434_i16, %c28366_i16, %c0_i16, %65, %c-11434_i16, %c0_i16, %c0_i16, %c-11434_i16, %65, %c0_i16, %c-11434_i16, %c0_i16, %65, %c28366_i16, %c28366_i16, %c-11434_i16, %c0_i16, %65, %c28366_i16, %c0_i16, %c-11434_i16, %c0_i16, %c0_i16, %c-11434_i16, %65, %c-11434_i16, %c28366_i16, %c-11434_i16, %c-11434_i16, %c-11434_i16, %65, %c0_i16, %c-11434_i16, %c-11434_i16, %65, %65, %c0_i16, %c28366_i16, %65, %c0_i16, %c-11434_i16, %c28366_i16, %c-11434_i16, %c28366_i16, %c0_i16, %c28366_i16, %c28366_i16, %c0_i16, %c28366_i16, %65, %c-11434_i16, %c0_i16, %c0_i16, %65, %c-11434_i16, %65, %c-11434_i16, %c28366_i16, %c28366_i16, %c-11434_i16, %c-11434_i16, %c-11434_i16, %c28366_i16, %c0_i16, %c-11434_i16, %c28366_i16, %c0_i16, %65, %65, %c0_i16, %c-11434_i16, %65, %c-11434_i16, %c-11434_i16, %65, %c-11434_i16, %c28366_i16, %c-11434_i16, %65, %65, %c0_i16, %c-11434_i16, %c-11434_i16, %c28366_i16, %c0_i16, %c0_i16, %c-11434_i16, %c0_i16, %c0_i16, %c28366_i16, %c0_i16, %c28366_i16, %c0_i16, %c-11434_i16, %c0_i16, %c-11434_i16, %c-11434_i16, %c28366_i16, %65, %c-11434_i16, %c0_i16, %65, %c-11434_i16, %c0_i16, %c-11434_i16, %c-11434_i16, %c28366_i16, %c-11434_i16, %c28366_i16, %c-11434_i16, %c-11434_i16, %c-11434_i16, %c28366_i16, %c28366_i16, %c-11434_i16, %c28366_i16, %65, %c-11434_i16, %c0_i16, %c28366_i16, %c28366_i16, %c-11434_i16, %c0_i16, %c28366_i16, %c28366_i16, %65, %c0_i16, %c0_i16, %c28366_i16, %65, %c-11434_i16, %65, %c28366_i16, %65, %c28366_i16, %c28366_i16, %c28366_i16, %65, %c28366_i16, %c0_i16, %c28366_i16, %65, %c-11434_i16, %c0_i16, %c-11434_i16, %c0_i16, %c28366_i16, %c-11434_i16, %c28366_i16, %c28366_i16, %65, %65, %65, %c-11434_i16, %65, %65, %65, %65, %65, %c28366_i16, %c0_i16, %c-11434_i16, %c28366_i16, %c-11434_i16, %c-11434_i16, %65, %65, %c-11434_i16, %c28366_i16, %65, %c0_i16, %c-11434_i16, %c-11434_i16, %c28366_i16, %c28366_i16, %65, %c28366_i16, %c28366_i16, %c-11434_i16, %65, %65, %65, %c28366_i16, %c28366_i16, %65, %65, %c0_i16, %c0_i16, %65, %c0_i16, %c-11434_i16, %c0_i16, %c28366_i16, %65, %c28366_i16, %c0_i16, %c28366_i16, %c0_i16, %c-11434_i16, %c28366_i16, %65, %c-11434_i16, %65, %c-11434_i16, %c-11434_i16, %c28366_i16, %c-11434_i16, %c0_i16, %65, %65, %65, %c28366_i16, %c0_i16, %c0_i16, %c0_i16, %c0_i16, %c0_i16, %65, %65, %65, %c0_i16, %c-11434_i16, %c-11434_i16, %c-11434_i16, %65, %c-11434_i16, %c28366_i16, %c28366_i16, %c-11434_i16, %c0_i16, %c0_i16, %c-11434_i16, %c28366_i16, %c28366_i16, %65, %c-11434_i16, %c-11434_i16, %c-11434_i16, %65, %65, %c-11434_i16, %65, %c-11434_i16, %c-11434_i16, %c-11434_i16, %c0_i16, %c28366_i16, %c0_i16, %c28366_i16, %65, %65, %c28366_i16, %c-11434_i16, %c-11434_i16, %c28366_i16, %c28366_i16, %c0_i16, %c28366_i16, %c28366_i16, %c0_i16, %65, %c0_i16, %c28366_i16, %65, %65, %c0_i16, %c0_i16, %c0_i16, %65, %c28366_i16, %c28366_i16, %c28366_i16, %c0_i16, %c0_i16, %65, %c-11434_i16, %65, %c0_i16, %c0_i16, %65, %65, %c-11434_i16, %65, %65, %c28366_i16, %65, %65, %c0_i16, %c0_i16, %c-11434_i16, %65, %65, %c0_i16, %65, %65, %c0_i16, %65, %65, %c28366_i16, %c28366_i16, %65, %c-11434_i16, %65, %65, %c0_i16, %c0_i16, %c-11434_i16, %c-11434_i16, %65, %65, %c28366_i16, %c-11434_i16, %c-11434_i16, %c0_i16, %c0_i16, %65, %65, %c-11434_i16, %c0_i16, %65, %65, %c28366_i16, %65, %c28366_i16, %c-11434_i16, %c28366_i16, %c28366_i16, %c28366_i16, %c28366_i16, %c0_i16, %65, %c28366_i16, %c28366_i16, %c-11434_i16, %c-11434_i16, %c0_i16, %c28366_i16, %c28366_i16, %c-11434_i16, %65, %c0_i16, %c28366_i16, %c28366_i16, %65, %c0_i16, %c28366_i16, %c0_i16, %c0_i16, %c0_i16, %c0_i16, %c28366_i16, %c28366_i16, %65, %c0_i16, %c-11434_i16, %65, %c28366_i16, %c28366_i16, %c0_i16, %65, %c28366_i16, %c-11434_i16, %c0_i16, %65, %c28366_i16, %c0_i16, %c28366_i16, %c-11434_i16, %c28366_i16, %65, %c-11434_i16, %c-11434_i16, %c0_i16, %c0_i16, %c28366_i16, %65, %c0_i16, %c0_i16, %c0_i16, %c-11434_i16, %c28366_i16, %c28366_i16, %c28366_i16, %c0_i16, %c-11434_i16, %c-11434_i16, %c-11434_i16, %c28366_i16, %c28366_i16, %c28366_i16, %c28366_i16, %c-11434_i16, %c-11434_i16, %c0_i16, %c0_i16, %c0_i16, %c-11434_i16, %c0_i16, %c28366_i16, %c-11434_i16, %c0_i16, %c28366_i16, %c28366_i16, %65, %c28366_i16, %65, %c28366_i16, %c28366_i16, %c28366_i16, %c-11434_i16, %c28366_i16, %65, %c28366_i16, %65, %c28366_i16, %65, %c-11434_i16, %c-11434_i16, %65, %65, %c-11434_i16, %c0_i16, %c28366_i16, %65, %c0_i16, %c28366_i16, %c0_i16, %c28366_i16, %c28366_i16, %c28366_i16, %c-11434_i16, %c-11434_i16, %c28366_i16, %c0_i16, %c-11434_i16, %c-11434_i16, %65, %c0_i16, %c0_i16, %c0_i16, %c28366_i16, %c-11434_i16, %c-11434_i16, %c0_i16, %c0_i16, %c0_i16, %c-11434_i16, %65, %65, %c0_i16, %c28366_i16, %c-11434_i16, %c28366_i16, %c-11434_i16, %c-11434_i16, %65, %c0_i16, %c28366_i16, %c-11434_i16, %65, %65, %c-11434_i16, %c-11434_i16, %c28366_i16, %65, %65, %c28366_i16, %c28366_i16, %c0_i16, %c-11434_i16, %c-11434_i16, %c-11434_i16, %c0_i16, %c-11434_i16, %c-11434_i16, %65, %c-11434_i16, %c0_i16, %c0_i16, %65, %c28366_i16, %c0_i16, %c28366_i16, %c-11434_i16, %c-11434_i16, %c28366_i16, %65, %c0_i16, %c0_i16, %65, %c28366_i16, %c-11434_i16, %c28366_i16, %c0_i16, %c28366_i16, %c-11434_i16, %65, %c-11434_i16, %c28366_i16, %c-11434_i16, %c-11434_i16, %c-11434_i16, %c0_i16, %c28366_i16, %c-11434_i16, %c0_i16, %c0_i16, %65, %c-11434_i16, %c0_i16, %c0_i16, %65, %c28366_i16, %c0_i16, %c-11434_i16, %c0_i16, %65, %c-11434_i16, %c28366_i16, %c0_i16, %c-11434_i16, %65, %c0_i16, %c28366_i16, %65, %65, %c0_i16, %65, %c0_i16, %c28366_i16, %c-11434_i16, %c0_i16, %c0_i16, %c28366_i16, %65, %c-11434_i16, %c0_i16, %c28366_i16, %c28366_i16, %c0_i16, %c0_i16, %c0_i16, %c-11434_i16, %c-11434_i16, %65, %c28366_i16, %c-11434_i16, %c0_i16, %c28366_i16, %c-11434_i16, %c28366_i16, %65, %65, %c-11434_i16, %65, %c-11434_i16, %c-11434_i16, %c0_i16, %65, %65, %65, %c-11434_i16, %65, %c-11434_i16, %c28366_i16, %c-11434_i16, %c28366_i16, %c0_i16, %c-11434_i16, %65, %c-11434_i16, %c28366_i16, %c28366_i16, %c-11434_i16, %c0_i16, %c28366_i16, %c0_i16, %65, %c-11434_i16, %c28366_i16, %c-11434_i16, %65, %c28366_i16, %c28366_i16, %c0_i16, %c28366_i16, %65, %c0_i16, %c0_i16, %c-11434_i16, %c-11434_i16, %c28366_i16, %65, %c-11434_i16, %c-11434_i16, %65, %65, %c28366_i16, %65, %c0_i16, %c0_i16, %65, %c0_i16, %c0_i16, %65, %c-11434_i16, %65, %c0_i16, %c28366_i16, %c-11434_i16, %65, %c28366_i16, %c0_i16, %c0_i16, %c28366_i16, %c0_i16, %65, %c28366_i16, %c0_i16, %c28366_i16, %c-11434_i16, %c-11434_i16, %c0_i16, %c28366_i16, %c-11434_i16, %c28366_i16, %c28366_i16, %c-11434_i16, %c28366_i16, %65, %c0_i16, %c28366_i16, %c0_i16, %c28366_i16, %c-11434_i16, %c0_i16, %65, %c-11434_i16, %c-11434_i16, %c28366_i16, %c0_i16, %65, %c-11434_i16, %c28366_i16, %c28366_i16, %65, %c0_i16, %c-11434_i16, %c28366_i16, %c28366_i16, %65, %c0_i16, %c28366_i16, %c-11434_i16, %65, %c28366_i16, %c-11434_i16, %65, %65, %c28366_i16, %c28366_i16, %c-11434_i16, %c-11434_i16, %65, %c28366_i16, %65, %65, %65, %65, %c28366_i16, %c28366_i16, %65, %c0_i16, %c28366_i16, %65, %c0_i16, %c0_i16, %65, %c0_i16, %65, %65, %65, %65, %c28366_i16, %c28366_i16, %c28366_i16, %c-11434_i16, %c0_i16, %c0_i16, %c-11434_i16, %c28366_i16, %c28366_i16, %c28366_i16, %c0_i16, %65, %c28366_i16, %65, %65, %c0_i16, %c28366_i16, %65, %c-11434_i16, %c0_i16, %c0_i16, %c0_i16, %c-11434_i16, %c28366_i16, %65, %c28366_i16, %c-11434_i16, %c0_i16, %c0_i16, %c0_i16, %c-11434_i16, %c0_i16, %c0_i16, %65, %c-11434_i16, %c28366_i16, %c28366_i16, %c-11434_i16, %c0_i16, %c0_i16, %c0_i16, %c0_i16, %c-11434_i16, %c-11434_i16, %c28366_i16, %65, %c0_i16, %c0_i16, %c28366_i16, %65, %c0_i16, %65, %65, %c-11434_i16, %65, %65, %c0_i16, %c-11434_i16, %c-11434_i16, %c-11434_i16, %65, %c0_i16, %65, %c28366_i16, %c28366_i16, %c0_i16, %c-11434_i16, %c0_i16, %65, %c28366_i16, %c28366_i16, %c-11434_i16, %c-11434_i16, %c0_i16, %c28366_i16, %c0_i16, %c-11434_i16, %c28366_i16, %65, %c-11434_i16, %c28366_i16, %65, %65, %c-11434_i16, %c-11434_i16, %c28366_i16, %c28366_i16, %c28366_i16, %c0_i16, %c0_i16, %c28366_i16, %65, %65, %c28366_i16, %c0_i16, %65, %65, %c-11434_i16, %c-11434_i16, %c-11434_i16, %c0_i16, %c0_i16, %c0_i16, %c-11434_i16, %c0_i16, %65, %c28366_i16, %c-11434_i16, %65, %65, %c0_i16, %c-11434_i16, %c-11434_i16, %c-11434_i16, %c28366_i16, %c-11434_i16, %c28366_i16, %c28366_i16, %c28366_i16, %c-11434_i16, %65, %65, %c0_i16, %c28366_i16, %c-11434_i16, %c28366_i16, %c0_i16, %c-11434_i16, %c28366_i16, %65, %c-11434_i16, %c28366_i16, %c28366_i16, %c28366_i16, %65, %c0_i16, %c-11434_i16, %c0_i16, %c-11434_i16, %65, %65, %65, %c28366_i16, %c-11434_i16, %c-11434_i16, %c28366_i16, %c0_i16, %c0_i16, %c-11434_i16, %c0_i16, %c-11434_i16, %c28366_i16, %c0_i16, %65, %65, %65, %c0_i16, %c-11434_i16, %c0_i16, %c0_i16, %65, %c0_i16, %c-11434_i16, %c28366_i16, %65, %65, %c-11434_i16, %c-11434_i16, %c-11434_i16, %c-11434_i16, %c-11434_i16, %c28366_i16, %c28366_i16, %c28366_i16, %c28366_i16, %c28366_i16, %c0_i16, %c0_i16, %c0_i16, %c0_i16, %65, %c-11434_i16, %c0_i16, %c0_i16, %65, %c0_i16, %c28366_i16, %c28366_i16, %c-11434_i16, %c0_i16, %c0_i16, %c0_i16, %c28366_i16, %c0_i16, %c-11434_i16, %c28366_i16, %c0_i16, %65, %c28366_i16, %65, %65, %65, %c-11434_i16, %65, %65, %c0_i16, %c-11434_i16, %c28366_i16, %c28366_i16, %c28366_i16, %65, %c28366_i16, %65, %c28366_i16, %c28366_i16, %c-11434_i16, %c-11434_i16, %c28366_i16, %c-11434_i16, %c-11434_i16, %c0_i16, %c28366_i16, %c0_i16, %65, %c-11434_i16, %c-11434_i16, %c28366_i16, %c-11434_i16, %c28366_i16, %c-11434_i16, %c-11434_i16, %65, %c-11434_i16, %c28366_i16, %c28366_i16, %c-11434_i16, %65, %c28366_i16, %65, %c28366_i16, %65, %c0_i16, %c0_i16, %c28366_i16, %65, %c0_i16, %c0_i16, %c-11434_i16, %c0_i16, %65, %c0_i16, %65, %c-11434_i16, %65, %65, %c0_i16, %c28366_i16, %65, %65, %65, %c28366_i16, %c28366_i16, %65, %c28366_i16, %c28366_i16, %c28366_i16, %65, %c-11434_i16, %65, %65, %65, %c28366_i16, %c0_i16, %65, %c28366_i16, %c0_i16, %65, %c28366_i16, %c-11434_i16, %65, %65, %c-11434_i16, %65, %c0_i16, %c-11434_i16, %c28366_i16, %c0_i16, %c0_i16, %65, %c-11434_i16, %65, %c0_i16, %c0_i16, %65, %c0_i16, %65, %c0_i16, %65, %c-11434_i16, %c-11434_i16, %c0_i16, %c0_i16, %c-11434_i16, %65, %c0_i16, %65, %c0_i16, %c0_i16, %c28366_i16, %c0_i16, %c-11434_i16, %c28366_i16, %c-11434_i16, %65, %c28366_i16, %65, %c-11434_i16, %65, %c0_i16, %65, %c0_i16, %c28366_i16, %c-11434_i16, %c-11434_i16, %c28366_i16, %c28366_i16, %65, %c0_i16, %c0_i16, %c0_i16, %c-11434_i16, %c0_i16, %65, %65, %65, %c0_i16, %c-11434_i16, %c28366_i16, %c0_i16, %c28366_i16, %c-11434_i16, %65, %c-11434_i16, %c28366_i16, %65, %c28366_i16, %c28366_i16, %c0_i16, %c-11434_i16, %c0_i16, %c-11434_i16, %c28366_i16, %65, %c-11434_i16, %c-11434_i16, %65, %c-11434_i16, %c0_i16, %c-11434_i16, %c28366_i16, %65, %c0_i16, %c28366_i16, %c28366_i16, %c0_i16, %c28366_i16, %c-11434_i16, %c0_i16, %c-11434_i16, %65, %c-11434_i16, %c-11434_i16, %c28366_i16, %65, %c0_i16, %c28366_i16, %65, %c0_i16, %65, %c0_i16, %65, %c0_i16, %c28366_i16, %c28366_i16, %c0_i16, %c0_i16, %65, %c0_i16, %c-11434_i16, %c0_i16, %c0_i16, %65, %c0_i16, %c28366_i16, %c-11434_i16, %c28366_i16, %c0_i16, %c28366_i16, %c-11434_i16, %c28366_i16, %65, %c-11434_i16, %c-11434_i16, %65, %65, %c0_i16, %c28366_i16, %c0_i16, %c28366_i16, %65, %c28366_i16, %c-11434_i16 : tensor<16x15x10xi16>
        %306 = index.casts %c1063595746_i32 : i32 to index
        %307 = vector.matrix_multiply %175, %175 {lhs_columns = 3 : i32, lhs_rows = 1 : i32, rhs_columns = 1 : i32} : (vector<3xf32>, vector<3xf32>) -> vector<1xf32>
        %extracted_61 = tensor.extract %15[%c8, %c14] : tensor<15x15xf16>
        %308 = arith.addi %true_58, %false : i1
        %splat_62 = tensor.splat %c0_i64_36 : tensor<16x3x10xi64>
        %309 = math.cos %expanded : tensor<3x1xf32>
        %310 = index.maxs %109, %c9
      }
      %255 = vector.broadcast %c12 : index to vector<10xindex>
      %256 = vector.broadcast %true_30 : i1 to vector<10xi1>
      %257 = vector.broadcast %216 : f32 to vector<10xf32>
      vector.scatter %159[%c14, %c14] [%255], %256, %257 : memref<15x15xf32>, vector<10xindex>, vector<10xi1>, vector<10xf32>
      %258 = tensor.empty() : tensor<15x15xf32>
      %259 = linalg.matmul ins(%13, %13 : tensor<15x15xf32>, tensor<15x15xf32>) outs(%258 : tensor<15x15xf32>) -> tensor<15x15xf32>
      %260 = arith.maxui %c2124661813_i32, %c872239861_i32 : i32
      %261 = vector.flat_transpose %174 {columns = 3 : i32, rows = 1 : i32} : vector<3xf32> -> vector<3xf32>
      %262 = vector.extract_strided_slice %131 {offsets = [0], sizes = [1], strides = [1]} : vector<1xf32> to vector<1xf32>
      %263 = vector.load %alloc_5[%c8, %c5, %c7] : memref<16x15x10xi64>, vector<16x3x10xi64>
      %generated_51 = tensor.generate %79, %rank_27 {
      ^bb0(%arg3: index, %arg4: index, %arg5: index):
        %285 = arith.remf %216, %cst_2 : f32
        %286 = tensor.empty() : tensor<16x15x10xi1>
        %287 = math.fma %125, %198, %198 : f16
        %expanded_56 = tensor.expand_shape %1 [[0], [1, 2]] : tensor<15x15xi64> into tensor<15x15x1xi64>
        tensor.yield %127 : f32
      } : tensor<?x?x10xf32>
      %264 = arith.cmpi sle, %102, %c522205298_i32 : i32
      %265 = math.powf %cst_2, %cst_3 : f32
      %266 = math.rsqrt %cst_3 : f32
      %267 = vector.extract_strided_slice %36 {offsets = [0], sizes = [1], strides = [1]} : vector<1x4x10xf32> to vector<1x4x10xf32>
      %268 = index.divu %c6, %c13
      memref.assume_alignment %alloc_6, 8 : memref<15x15xi16>
      %269 = math.atan %9 : tensor<3xf16>
      %270 = vector.broadcast %true_30 : i1 to vector<15x10x15x10xi1>
      %271 = vector.contract {indexing_maps = [affine_map<(d0, d1, d2, d3, d4) -> (d4, d0, d1)>, affine_map<(d0, d1, d2, d3, d4) -> (d4, d2, d3)>, affine_map<(d0, d1, d2, d3, d4) -> (d0, d1, d2, d3)>], iterator_types = ["parallel", "parallel", "parallel", "parallel", "reduction"], kind = #vector.kind<minsi>} %30, %30, %270 : vector<16x15x10xi1>, vector<16x15x10xi1> into vector<15x10x15x10xi1>
      %272 = math.log2 %cst_0 : f16
      %273 = vector.broadcast %c-11434_i16 : i16 to vector<16x10xi16>
      %dest_52, %accumulated_value_53 = vector.scan <minui>, %87, %273 {inclusive = false, reduction_dim = 1 : i64} : vector<16x3x10xi16>, vector<16x10xi16>
      %274 = arith.remf %cst_2, %cst_3 : f32
      %275 = math.cttz %43 : i64
      %276 = index.floordivs %98, %84
      %alloc_54 = memref.alloc() : memref<3xf32>
      %277 = affine.if affine_set<(d0, d1, d2, d3) : ((d2 + d2 floordiv 2) mod 64 == 0, d2 floordiv 2 == 0, d2 + d2 floordiv 2 >= 0)>(%c10, %c3, %c6, %c5) -> memref<3xi64> {
        %285 = arith.maxui %c1514081338_i64, %c223865476_i64 : i64
        %286 = arith.ori %102, %c2124661813_i32 : i32
        %287 = memref.load %181[%c7, %c10] : memref<15x15xi16>
        %extracted_56 = tensor.extract %11[%c9, %c1, %c3] : tensor<16x3x10xf16>
        %288 = tensor.empty() : tensor<15x15xf32>
        %289 = linalg.matmul ins(%13, %13 : tensor<15x15xf32>, tensor<15x15xf32>) outs(%288 : tensor<15x15xf32>) -> tensor<15x15xf32>
        %290 = arith.shrsi %c-11434_i16, %65 : i16
        %291 = arith.andi %c767099878_i64, %c0_i64_36 : i64
        %292 = arith.cmpf olt, %127, %216 : f32
        affine.yield %alloc_19 : memref<3xi64>
      } else {
        %285 = arith.andi %c2124661813_i32, %102 : i32
        %286 = memref.load %alloc_17[%c0] : memref<3xf32>
        %287 = math.log2 %17 : tensor<16x3x10xf16>
        %288 = math.absf %12 : tensor<16x3x10xf32>
        %289 = math.powf %cst_1, %125 : f16
        %290 = math.atan %13 : tensor<15x15xf32>
        %291 = vector.bitcast %75 : vector<15x15xi64> to vector<15x15xi64>
        %292 = index.mul %89, %86
        affine.yield %alloc_10 : memref<3xi64>
      }
      %278 = affine.load %alloc_9[%c3, %c4] : memref<15x15xf32>
      %279 = math.atan %11 : tensor<16x3x10xf16>
      %280 = index.castu %195 : index to i32
      %281 = math.tan %15 : tensor<15x15xf16>
      %282 = index.casts %217 : index to i32
      %283 = math.fma %3, %3, %16 : tensor<16x3x10xf16>
      %expanded_55 = tensor.expand_shape %10 [[0], [1], [2, 3]] : tensor<16x15x10xi16> into tensor<16x15x10x1xi16>
      %284 = arith.divf %cst, %cst_0 : f16
    }
    %expanded_39 = tensor.expand_shape %collapsed [[0], [1, 2]] : tensor<48x10xf16> into tensor<48x10x1xf16>
    memref.assume_alignment %112, 4 : memref<3xi64>
    %220 = vector.extract_strided_slice %180 {offsets = [12], sizes = [3], strides = [1]} : vector<15x15xf32> to vector<3x15xf32>
    %cst_40 = arith.constant 1.000000e+00 : f16
    %221 = vector.transfer_read %9[%133], %cst_40 : tensor<3xf16>, vector<f16>
    %222 = vector.reduction <mul>, %174 : vector<3xf32> into f32
    %223 = arith.minui %c872239861_i32, %c2124661813_i32 : i32
    %224 = math.absf %12 : tensor<16x3x10xf32>
    %225 = tensor.empty() : tensor<3xf16>
    %mapped_41 = linalg.map ins(%alloc_14, %9, %9 : memref<3xf16>, tensor<3xf16>, tensor<3xf16>) outs(%225 : tensor<3xf16>)
      (%in: f16, %in_51: f16, %in_52: f16) {
        %rank_53 = tensor.rank %12 : tensor<16x3x10xf32>
        %254 = math.tan %125 : f16
        %255 = math.floor %216 : f32
        %generated_54 = tensor.generate %c3, %c2 {
        ^bb0(%arg3: index, %arg4: index, %arg5: index):
          %extracted_58 = tensor.extract %15[%c9, %c3] : tensor<15x15xf16>
          %282 = vector.extract %36[0] : vector<1x4x10xf32>
          %283 = arith.minsi %c872239861_i32, %c872239861_i32 : i32
          %284 = arith.minui %c0_i16, %c0_i16 : i16
          tensor.yield %198 : f16
        } : tensor<?x?x10xf16>
        %256 = tensor.empty() : tensor<15x15xi1>
        %257 = math.cos %cst_4 : f32
        %258 = math.absf %expanded : tensor<3x1xf32>
        %259 = math.roundeven %21 : tensor<10xf16>
        %260 = vector.flat_transpose %167 {columns = 3 : i32, rows = 1 : i32} : vector<3xf32> -> vector<3xf32>
        %261 = memref.alloca_scope  -> (memref<16x3x10xf16>) {
          %282 = vector.extract_strided_slice %175 {offsets = [1], sizes = [2], strides = [1]} : vector<3xf32> to vector<2xf32>
          %283 = math.ipowi %2, %2 : tensor<3xi32>
          %284 = affine.load %alloc_7[%c11, %c2, %c5] : memref<16x15x10xf32>
          %285 = arith.addf %in_52, %cst_40 : f16
          %286 = vector.bitcast %31 : vector<16x15x10xi32> to vector<16x15x10xi32>
          %287 = arith.muli %65, %c0_i16 : i16
          %288 = arith.shrsi %c872239861_i32, %c1063595746_i32 : i32
          %289 = vector.broadcast %127 : f32 to vector<1x10xf32>
          %290 = vector.contract {indexing_maps = [affine_map<(d0, d1, d2) -> (d2)>, affine_map<(d0, d1, d2) -> (d2, d0, d1)>, affine_map<(d0, d1, d2) -> (d0, d1)>], iterator_types = ["parallel", "parallel", "reduction"], kind = #vector.kind<maxf>} %131, %104, %289 : vector<1xf32>, vector<1x1x10xf32> into vector<1x10xf32>
          %291 = arith.ceildivsi %43, %c1514081338_i64 : i64
          %292 = arith.negf %in : f16
          %293 = math.tan %8 : tensor<15x15xf16>
          memref.tensor_store %18, %alloc_10 : memref<3xi64>
          %294 = index.castu %56 : index to i32
          %true_58 = arith.constant true
          %295 = vector.transfer_read %7[%c8, %89, %211], %true_58 : tensor<16x15x10xi1>, vector<15xi1>
          %296 = vector.extract_strided_slice %174 {offsets = [0], sizes = [2], strides = [1]} : vector<3xf32> to vector<2xf32>
          %297 = arith.minui %c2124661813_i32, %c872239861_i32 : i32
          %298 = vector.extract_strided_slice %75 {offsets = [6], sizes = [6], strides = [1]} : vector<15x15xi64> to vector<6x15xi64>
          %299 = affine.min affine_map<(d0) -> ((d0 + 4) * -8, d0 - 8, (-d0) ceildiv 16)>(%c7)
          %300 = arith.remf %cst_3, %284 : f32
          bufferization.dealloc_tensor %4 : tensor<3xi32>
          %301 = arith.divui %true_30, %false : i1
          %302 = math.atan %cst_40 : f16
          %alloca_59 = memref.alloca() : memref<15x15xi32>
          %303 = arith.xori %c0_i16, %c-11434_i16 : i16
          %304 = math.round %13 : tensor<15x15xf32>
          %rank_60 = tensor.rank %5 : tensor<3xi16>
          %305 = math.ctlz %14 : tensor<3xi16>
          memref.tensor_store %13, %alloc_9 : memref<15x15xf32>
          %306 = index.castu %c5 : index to i32
          %307 = index.maxs %99, %142
          %308 = arith.muli %c767099878_i64, %c223865476_i64 : i64
          %309 = index.divu %208, %195
          memref.alloca_scope.return %85 : memref<16x3x10xf16>
        }
        scf.if %true_30 {
          %282 = math.log10 %15 : tensor<15x15xf16>
          %283 = math.absf %13 : tensor<15x15xf32>
          %284 = vector.matrix_multiply %131, %131 {lhs_columns = 1 : i32, lhs_rows = 1 : i32, rhs_columns = 1 : i32} : (vector<1xf32>, vector<1xf32>) -> vector<1xf32>
          %285 = tensor.empty() : tensor<15x15xi1>
          %286 = linalg.matmul ins(%6, %6 : tensor<15x15xi1>, tensor<15x15xi1>) outs(%285 : tensor<15x15xi1>) -> tensor<15x15xi1>
          %287 = index.sub %c2, %c11
          %288 = math.atan %expanded_39 : tensor<48x10x1xf16>
          memref.copy %alloc_19, %alloc_10 : memref<3xi64> to memref<3xi64>
          %289 = arith.maxui %c872239861_i32, %102 : i32
        } else {
          %282 = affine.load %alloc_11[%c4, %c3, %c12] : memref<16x3x10xi64>
          %283 = tensor.empty() : tensor<15x15xi64>
          %284 = math.tan %9 : tensor<3xf16>
          %285 = tensor.empty(%c9) : tensor<?x3x10xi1>
          %286 = index.add %c15, %c3
          %287 = math.exp2 %13 : tensor<15x15xf32>
          %288 = vector.broadcast %42 : index to vector<3xindex>
          %289 = vector.broadcast %true_30 : i1 to vector<3xi1>
          %290 = vector.broadcast %282 : i64 to vector<3xi64>
          vector.scatter %alloc_5[%c0, %c11, %c3] [%288], %289, %290 : memref<16x15x10xi64>, vector<3xindex>, vector<3xi1>, vector<3xi64>
          %291 = vector.flat_transpose %175 {columns = 3 : i32, rows = 1 : i32} : vector<3xf32> -> vector<3xf32>
        }
        %262 = math.exp %cst_3 : f32
        %263 = scf.if %true_30 -> (memref<16x15x10xf16>) {
          %282 = arith.muli %c767099878_i64, %c0_i64 : i64
          %283 = arith.remf %cst_4, %cst_3 : f32
          %284 = index.ceildivs %150, %142
          %285 = index.maxs %178, %79
          %286 = arith.subi %c2124661813_i32, %c872239861_i32 : i32
          %287 = affine.apply affine_map<(d0, d1, d2, d3) -> (0)>(%150, %284, %134, %c15)
          %288 = bufferization.clone %144 : memref<15x15xi1> to memref<15x15xi1>
          %289 = arith.cmpi sge, %c522205298_i32, %c872239861_i32 : i32
          %alloc_58 = memref.alloc() : memref<16x15x10xf16>
          scf.yield %alloc_58 : memref<16x15x10xf16>
        } else {
          %282 = vector.matrix_multiply %166, %260 {lhs_columns = 3 : i32, lhs_rows = 1 : i32, rhs_columns = 1 : i32} : (vector<3xf32>, vector<3xf32>) -> vector<1xf32>
          %rank_58 = tensor.rank %9 : tensor<3xf16>
          %283 = math.tan %3 : tensor<16x3x10xf16>
          %284 = arith.cmpf olt, %cst_40, %125 : f16
          %285 = index.castu %c0_i64_36 : i64 to index
          %286 = bufferization.clone %181 : memref<15x15xi16> to memref<15x15xi16>
          %287 = arith.shrsi %false, %true_30 : i1
          %288 = arith.maxf %cst_1, %cst_1 : f16
          %alloc_59 = memref.alloc() : memref<16x15x10xf16>
          scf.yield %alloc_59 : memref<16x15x10xf16>
        }
        %264 = vector.matrix_multiply %174, %175 {lhs_columns = 3 : i32, lhs_rows = 1 : i32, rhs_columns = 1 : i32} : (vector<3xf32>, vector<3xf32>) -> vector<1xf32>
        %265 = vector.extract_strided_slice %20 {offsets = [9], sizes = [5], strides = [1]} : vector<15xf32> to vector<5xf32>
        %alloc_55 = memref.alloc() : memref<10x15xf16>
        %266 = tensor.empty() : tensor<48x15xf16>
        %267 = linalg.matmul ins(%collapsed, %alloc_55 : tensor<48x10xf16>, memref<10x15xf16>) outs(%266 : tensor<48x15xf16>) -> tensor<48x15xf16>
        %268 = math.ctlz %10 : tensor<16x15x10xi16>
        %269 = arith.muli %c0_i64, %c767099878_i64 : i64
        %270 = index.casts %c522205298_i32 : i32 to index
        %271 = arith.muli %c0_i16, %c0_i16 : i16
        %272 = arith.muli %c-11434_i16, %c-11434_i16 : i16
        %273 = math.roundeven %16 : tensor<16x3x10xf16>
        %alloca_56 = memref.alloca() : memref<16x15x10xi32>
        %274 = math.floor %127 : f32
        %275 = index.castu %false : i1 to index
        %c1752135970_i64 = arith.constant 1752135970 : i64
        %276 = index.casts %false : i1 to index
        %277 = math.exp2 %11 : tensor<16x3x10xf16>
        %278 = affine.min affine_map<(d0, d1, d2, d3) -> ((d2 mod 8) * -2, d3 + 8, -d1)>(%c13, %rank_53, %82, %c10)
        %279 = arith.minui %c0_i16, %65 : i16
        %280 = index.sizeof
        %281 = arith.ori %c223865476_i64, %c1514081338_i64 : i64
        %cst_57 = arith.constant 1.000000e+00 : f16
        linalg.yield %cst_57 : f16
      }
    %226 = arith.xori %c28366_i16, %c28366_i16 : i16
    %cst_42 = arith.constant 3.948800e+04 : f16
    %227 = math.cos %9 : tensor<3xf16>
    %228 = math.log2 %9 : tensor<3xf16>
    %229 = memref.atomic_rmw maxf %216, %alloc_9[%c10, %c2] : (f32, memref<15x15xf32>) -> f32
    scf.execute_region {
      %254 = arith.mulf %cst, %198 : f16
      %255 = math.sqrt %cst : f16
      %256 = arith.maxf %cst, %125 : f16
      %alloc_51 = memref.alloc() : memref<15x15xi64>
      %257 = arith.remf %cst_4, %216 : f32
      %258 = math.round %198 : f16
      %259 = arith.muli %c223865476_i64, %c1514081338_i64 : i64
      %260 = index.divs %c12, %160
      %261 = math.roundeven %collapsed : tensor<48x10xf16>
      %262 = vector.broadcast %208 : index to vector<15xindex>
      %263 = vector.broadcast %true : i1 to vector<15xi1>
      %264 = vector.broadcast %c223865476_i64 : i64 to vector<15xi64>
      vector.scatter %alloc_5[%c1, %c6, %c7] [%262], %263, %264 : memref<16x15x10xi64>, vector<15xindex>, vector<15xi1>, vector<15xi64>
      %265 = arith.remf %cst_1, %125 : f16
      %266 = math.expm1 %216 : f32
      %267 = math.ctlz %14 : tensor<3xi16>
      %268 = arith.minsi %c-11434_i16, %c0_i16 : i16
      %269 = arith.minsi %c872239861_i32, %c1063595746_i32 : i32
      %alloc_52 = memref.alloc() : memref<3xi32>
      scf.yield
    }
    %expanded_43 = tensor.expand_shape %4 [[0, 1]] : tensor<3xi32> into tensor<3x1xi32>
    %230 = vector.reduction <maxf>, %167 : vector<3xf32> into f32
    %231 = memref.load %alloc_19[%c1] : memref<3xi64>
    %232 = math.ctlz %splat_31 : tensor<16x3x10xi1>
    %233 = math.copysign %11, %17 : tensor<16x3x10xf16>
    %234 = memref.alloca_scope  -> (f32) {
      %254 = index.add %c0, %c4
      %255 = arith.ceildivsi %c-11434_i16, %c0_i16 : i16
      %256 = arith.floordivsi %c0_i64_36, %c0_i64 : i64
      %257 = math.exp2 %9 : tensor<3xf16>
      %258 = index.add %202, %107
      %expanded_51 = tensor.expand_shape %expanded [[0], [1, 2]] : tensor<3x1xf32> into tensor<3x1x1xf32>
      %259 = arith.subi %false, %true_30 : i1
      %260 = math.rsqrt %cst_40 : f16
      %261 = vector.extract_strided_slice %31 {offsets = [10, 9], sizes = [1, 5], strides = [1, 1]} : vector<16x15x10xi32> to vector<1x5x10xi32>
      %262 = math.rsqrt %21 : tensor<10xf16>
      %263 = arith.divf %extracted, %cst_0 : f16
      %264 = arith.floordivsi %43, %c1514081338_i64 : i64
      affine.for %arg3 = 0 to 97 {
      }
      %extracted_52 = tensor.extract %12[%c9, %c1, %c9] : tensor<16x3x10xf32>
      %265 = math.floor %9 : tensor<3xf16>
      %266 = affine.load %alloc_9[%c5, %c3] : memref<15x15xf32>
      %267 = math.expm1 %12 : tensor<16x3x10xf32>
      %generated_53 = tensor.generate %c1 {
      ^bb0(%arg3: index):
        %cst_54 = arith.constant 1.000000e+00 : f32
        %283 = vector.transfer_read %expanded[%84, %258], %cst_54 : tensor<3x1xf32>, vector<f32>
        %284 = arith.xori %102, %c2124661813_i32 : i32
        %285 = arith.maxui %c767099878_i64, %c0_i64 : i64
        %c0_i16_55 = arith.constant 0 : i16
        %286 = vector.transfer_read %181[%c12, %c6], %c0_i16_55 : memref<15x15xi16>, vector<i16>
        tensor.yield %c0_i16 : i16
      } : tensor<?xi16>
      %268 = math.atan %13 : tensor<15x15xf32>
      %269 = vector.multi_reduction <mul>, %180, %20 [1] : vector<15x15xf32> to vector<15xf32>
      %270 = index.add %c10, %c15
      %271 = affine.if affine_set<(d0, d1, d2, d3) : (d0 - (d3 + 32) == 0, d3 * 4 >= 0)>(%c10, %c13, %c13, %c9) -> memref<3xi16> {
        %283 = math.tan %198 : f16
        %284 = math.copysign %cst_40, %cst : f16
        %285 = index.maxs %c4, %c9
        affine.store %extracted, %alloc_20[%c9] : memref<10xf16>
        %286 = bufferization.clone %alloc_11 : memref<16x3x10xi64> to memref<16x3x10xi64>
        %287 = arith.ori %c0_i64, %c0_i64 : i64
        %288 = vector.broadcast %cst_4 : f32 to vector<3xf32>
        %289 = vector.fma %288, %288, %167 : vector<3xf32>
        %290 = affine.min affine_map<(d0, d1, d2) -> ((d1 + 2) * 2)>(%c14, %42, %285)
        %alloc_54 = memref.alloc() : memref<3xi16>
        affine.yield %alloc_54 : memref<3xi16>
      } else {
        %283 = arith.ceildivsi %c2124661813_i32, %c1063595746_i32 : i32
        memref.store %cst, %alloc_14[%c0] : memref<3xf16>
        %rank_54 = tensor.rank %13 : tensor<15x15xf32>
        %284 = math.copysign %expanded_32, %expanded_51 : tensor<3x1x1xf32>
        %285 = math.copysign %16, %11 : tensor<16x3x10xf16>
        %286 = vector.extract_strided_slice %30 {offsets = [11], sizes = [3], strides = [1]} : vector<16x15x10xi1> to vector<3x15x10xi1>
        %287 = bufferization.clone %181 : memref<15x15xi16> to memref<15x15xi16>
        %288 = vector.bitcast %30 : vector<16x15x10xi1> to vector<16x15x10xi1>
        %alloc_55 = memref.alloc() : memref<3xi16>
        affine.yield %alloc_55 : memref<3xi16>
      }
      %272 = affine.max affine_map<(d0) -> (d0 * 2, -d0, d0 * -2, -(((-d0) floordiv 128) ceildiv 128))>(%c7)
      %273 = vector.broadcast %c11 : index to vector<15xindex>
      %274 = vector.broadcast %false : i1 to vector<15xi1>
      %275 = vector.broadcast %c0_i64_36 : i64 to vector<15xi64>
      vector.scatter %alloc_19[%c1] [%273], %274, %275 : memref<3xi64>, vector<15xindex>, vector<15xi1>, vector<15xi64>
      %276 = math.expm1 %cst_0 : f16
      memref.assume_alignment %alloc_8, 8 : memref<15x15xf32>
      %277 = vector.broadcast %c0_i64 : i64 to vector<16x3x10xi64>
      %278 = arith.ceildivsi %true_30, %true_30 : i1
      %279 = math.ctpop %14 : tensor<3xi16>
      %280 = vector.extract_strided_slice %167 {offsets = [1], sizes = [1], strides = [1]} : vector<3xf32> to vector<1xf32>
      %281 = math.absi %14 : tensor<3xi16>
      %282 = arith.floordivsi %true, %false : i1
      memref.alloca_scope.return %216 : f32
    }
    %235 = index.add %c11, %134
    %cst_44 = arith.constant 1.000000e+00 : f32
    %cst_45 = arith.constant 0.000000e+00 : f32
    %236 = vector.transfer_read %alloc_17[%c2], %cst_45 : memref<3xf32>, vector<f32>
    %237 = math.powf %cst_4, %cst_3 : f32
    %238 = index.maxs %211, %98
    scf.if %true_30 {
      memref.assume_alignment %188, 1 : memref<10xf16>
      %254 = math.absf %collapsed : tensor<48x10xf16>
      %255 = affine.min affine_map<(d0) -> (-d0)>(%235)
      %256 = math.absf %12 : tensor<16x3x10xf32>
      %splat_51 = tensor.splat %cst_2 : tensor<3xf32>
      %257 = math.expm1 %extracted : f16
      %extracted_52 = tensor.extract %28[%c2] : tensor<3xf32>
      %258 = math.atan %22 : tensor<f16>
    } else {
      %true_51 = index.bool.constant true
      %254 = arith.remui %c522205298_i32, %c872239861_i32 : i32
      %255 = affine.load %alloc_13[%c11] : memref<3xi32>
      %256 = math.powf %12, %12 : tensor<16x3x10xf32>
      %257 = arith.ceildivsi %c872239861_i32, %c2124661813_i32 : i32
      %258 = math.tan %cst_1 : f16
      %259 = arith.addi %65, %65 : i16
      %260 = index.divs %41, %98
    }
    %239 = arith.divf %127, %cst_2 : f32
    %splat_46 = tensor.splat %c28366_i16 : tensor<16x3x10xi16>
    %240 = arith.maxf %234, %cst_44 : f32
    affine.store %extracted, %188[%c13] : memref<10xf16>
    %241 = vector.broadcast %56 : index to vector<3xindex>
    %242 = vector.broadcast %true_30 : i1 to vector<3xi1>
    vector.scatter %alloc[%c5, %c2] [%241], %242, %242 : memref<15x15xi1>, vector<3xindex>, vector<3xi1>, vector<3xi1>
    %c1_i64 = arith.constant 1 : i64
    %c0_i64_47 = arith.constant 0 : i64
    %243 = vector.transfer_read %alloc_11[%c7, %56, %c5], %c0_i64_47 {permutation_map = affine_map<(d0, d1, d2) -> (d0, d1)>} : memref<16x3x10xi64>, vector<10x3xi64>
    %extracted_48 = tensor.extract %27[%c11, %c3] : tensor<15x15xi16>
    %244 = index.add %c7, %202
    %245 = index.divs %82, %41
    %246 = math.exp %127 : f32
    %generated_49 = tensor.generate %235 {
    ^bb0(%arg3: index):
      %254 = index.ceildivs %142, %74
      %255 = index.maxu %56, %c5
      %256 = math.absf %16 : tensor<16x3x10xf16>
      %257 = bufferization.clone %alloc_11 : memref<16x3x10xi64> to memref<16x3x10xi64>
      tensor.yield %false : i1
    } : tensor<?xi1>
    %247 = arith.ceildivsi %c223865476_i64, %c1_i64 : i64
    %248 = tensor.empty() : tensor<16x3x10xf16>
    %249 = linalg.copy ins(%11 : tensor<16x3x10xf16>) outs(%248 : tensor<16x3x10xf16>) -> tensor<16x3x10xf16>
    %250 = tensor.empty() : tensor<3xf32>
    %transposed_50 = linalg.transpose ins(%70 : memref<3xf32>) outs(%250 : tensor<3xf32>) permutation = [0] 
    %251 = tensor.empty() : tensor<f16>
    %reduced = linalg.reduce ins(%9 : tensor<3xf16>) outs(%251 : tensor<f16>) dimensions = [0] 
      (%in: f16, %init: f16) {
        %254 = math.exp %249 : tensor<16x3x10xf16>
        %255 = vector.broadcast %143 : index to vector<15xindex>
        %256 = vector.broadcast %false : i1 to vector<15xi1>
        vector.scatter %alloc_16[%c14, %c2, %c8] [%255], %256, %20 : memref<16x15x10xf32>, vector<15xindex>, vector<15xi1>, vector<15xf32>
        %257 = vector.extract_strided_slice %75 {offsets = [6], sizes = [2], strides = [1]} : vector<15x15xi64> to vector<2x15xi64>
        %258 = math.absi %14 : tensor<3xi16>
        %259 = math.floor %127 : f32
        %260 = arith.minui %c0_i64_36, %c0_i64_36 : i64
        %261 = linalg.generic {indexing_maps = [affine_map<(d0, d1, d2) -> (d0, d1, d2)>], iterator_types = ["parallel", "parallel", "parallel"]} outs(%17 : tensor<16x3x10xf16>) {
        ^bb0(%out: f16):
          %263 = arith.ceildivsi %c223865476_i64, %c1_i64 : i64
          %264 = arith.xori %c-11434_i16, %extracted_48 : i16
          %265 = arith.subi %c0_i64, %43 : i64
          %266 = math.rsqrt %22 : tensor<f16>
          %267 = vector.broadcast %216 : f32 to vector<10xf32>
          %dest_52, %accumulated_value_53 = vector.scan <add>, %151, %267 {inclusive = true, reduction_dim = 0 : i64} : vector<4x10xf32>, vector<10xf32>
          %268 = affine.min affine_map<(d0, d1, d2) -> (d2 + 48, d2 + 16, (-d0 - 128) * 16, -d0 - 128)>(%244, %235, %89)
          %splat_54 = tensor.splat %c0_i64_36 : tensor<16x3x10xi64>
          %alloca_55 = memref.alloca() : memref<15x15xi64>
          %269 = math.exp %transposed_50 : tensor<3xf32>
          %270 = math.roundeven %cst_0 : f16
          %271 = arith.remf %216, %cst_2 : f32
          %272 = bufferization.clone %alloc_12 : memref<15x15xi16> to memref<15x15xi16>
          %273 = math.tan %216 : f32
          %274 = index.casts %43 : i64 to index
          %275 = vector.contract {indexing_maps = [affine_map<(d0, d1) -> (d1)>, affine_map<(d0, d1) -> (d1, d0)>, affine_map<(d0, d1) -> (d0)>], iterator_types = ["parallel", "reduction"], kind = #vector.kind<add>} %20, %180, %20 : vector<15xf32>, vector<15x15xf32> into vector<15xf32>
          %276 = index.floordivs %244, %238
          %277 = vector.broadcast %216 : f32 to vector<16x10xf32>
          %dest_56, %accumulated_value_57 = vector.scan <minf>, %29, %277 {inclusive = true, reduction_dim = 1 : i64} : vector<16x15x10xf32>, vector<16x10xf32>
          %278 = math.copysign %13, %13 : tensor<15x15xf32>
          %279 = math.roundeven %22 : tensor<f16>
          %280 = vector.broadcast %127 : f32 to vector<3x3xf32>
          %281 = vector.outerproduct %167, %167, %280 {kind = #vector.kind<add>} : vector<3xf32>, vector<3xf32>
          %282 = index.casts %102 : i32 to index
          %283 = arith.remui %c522205298_i32, %c1063595746_i32 : i32
          %284 = bufferization.to_tensor %alloc_19 : memref<3xi64>
          %false_58 = index.bool.constant false
          %alloca_59 = memref.alloca() : memref<16x15x10xi1>
          %285 = vector.flat_transpose %131 {columns = 1 : i32, rows = 1 : i32} : vector<1xf32> -> vector<1xf32>
          memref.store %cst_3, %alloc_8[%c2, %c9] : memref<15x15xf32>
          %286 = arith.divui %c2124661813_i32, %102 : i32
          %287 = arith.cmpi sle, %c2124661813_i32, %c522205298_i32 : i32
          %288 = math.expm1 %127 : f32
          %289 = vector.reduction <add>, %166 : vector<3xf32> into f32
          %290 = bufferization.clone %alloc_14 : memref<3xf16> to memref<3xf16>
          linalg.yield %init : f16
        } -> tensor<16x3x10xf16>
        %262 = index.castu %c12 : index to i32
        %cst_51 = arith.constant 1.000000e+00 : f16
        linalg.yield %cst_51 : f16
      }
    %252 = scf.parallel (%arg3, %arg4) = (%c12, %rank) to (%c3, %107) step (%c12, %c3) init (%6) -> tensor<15x15xi1> {
      %254 = math.absf %cst_3 : f32
      %255 = index.divs %160, %143
      %from_elements_51 = tensor.from_elements %cst_40, %extracted, %extracted, %cst, %extracted, %125, %cst_40, %cst, %cst_0, %cst_1, %cst, %cst_1, %cst_1, %cst, %cst_40, %125, %cst, %cst_40, %198, %cst, %198, %cst, %198, %cst_40, %125, %cst_40, %cst_1, %cst_1, %198, %cst_40, %cst_0, %cst, %198, %cst_0, %cst_1, %125, %cst_0, %198, %cst_1, %198, %extracted, %198, %extracted, %cst, %extracted, %cst_40, %125, %125, %extracted, %cst_0, %cst_1, %cst_1, %125, %extracted, %cst_0, %125, %cst_1, %cst, %cst_0, %extracted, %cst_0, %cst_1, %cst_1, %cst_1, %198, %cst_40, %cst_1, %cst, %125, %cst_40, %198, %cst_40, %cst_40, %cst, %cst_0, %cst_0, %cst_0, %cst_1, %cst_1, %125, %125, %extracted, %125, %cst, %198, %198, %cst_0, %125, %cst_0, %extracted, %cst_1, %cst_40, %cst, %cst_0, %cst_1, %198, %cst_0, %extracted, %125, %198, %cst_40, %extracted, %cst_1, %cst_0, %cst, %125, %198, %125, %198, %cst_0, %cst_40, %198, %cst_0, %125, %cst_0, %extracted, %198, %cst_40, %cst, %extracted, %198, %125, %198, %cst, %125, %extracted, %cst_1, %cst_1, %extracted, %extracted, %cst_0, %cst_1, %cst, %cst_0, %125, %125, %cst, %198, %cst_1, %cst_1, %cst_1, %cst_40, %extracted, %cst, %125, %cst_40, %extracted, %198, %198, %cst_40, %cst, %extracted, %extracted, %cst_1, %cst, %125, %125, %198, %extracted, %198, %extracted, %125, %cst_0, %extracted, %125, %cst, %198, %125, %cst_40, %125, %125, %cst_40, %cst, %extracted, %198, %125, %198, %198, %cst_1, %198, %125, %198, %cst_1, %extracted, %cst, %cst_1, %198, %125, %cst, %125, %extracted, %cst_1, %125, %extracted, %cst, %cst_40, %cst_0, %cst, %125, %cst_0, %cst, %cst, %cst_1, %extracted, %125, %125, %cst_40, %cst_1, %cst_40, %cst_1, %cst, %125, %cst_40, %cst_40, %cst_40, %cst_0, %cst_0, %198, %cst, %cst_0, %cst_40, %extracted, %cst, %cst_1, %cst : tensor<15x15xf16>
      %alloc_52 = memref.alloc() : memref<3x16xi64>
      %256 = linalg.generic {indexing_maps = [affine_map<(d0, d1, d2) -> (d1)>, affine_map<(d0, d1, d2) -> (d1)>, affine_map<(d0, d1, d2) -> (d1, d0)>, affine_map<(d0, d1, d2) -> (d0, d1, d2)>], iterator_types = ["parallel", "parallel", "parallel"]} ins(%112, %alloc_19, %alloc_52 : memref<3xi64>, memref<3xi64>, memref<3x16xi64>) outs(%from_elements : tensor<16x3x10xi64>) {
      ^bb0(%in: i64, %in_57: i64, %in_58: i64, %out: i64):
        %alloca_59 = memref.alloca() : memref<16x3x10xi16>
        %267 = math.atan %11 : tensor<16x3x10xf16>
        %268 = math.atan %250 : tensor<3xf32>
        %269 = math.ctlz %c0_i16 : i16
        %270 = math.exp2 %extracted : f16
        %271 = math.copysign %11, %248 : tensor<16x3x10xf16>
        %272 = arith.xori %in, %out : i64
        %273 = arith.andi %in_58, %in_58 : i64
        %274 = affine.apply affine_map<(d0, d1) -> (-d0)>(%89, %c6)
        %275 = arith.remf %cst, %cst_0 : f16
        %276 = math.log2 %collapsed : tensor<48x10xf16>
        %277 = bufferization.clone %alloc_18 : memref<16x15x10xi1> to memref<16x15x10xi1>
        %expanded_60 = tensor.expand_shape %28 [[0, 1]] : tensor<3xf32> into tensor<3x1xf32>
        %278 = memref.atomic_rmw assign %cst_2, %alloc_16[%c2, %c11, %c6] : (f32, memref<16x15x10xf32>) -> f32
        %279 = vector.broadcast %234 : f32 to vector<15x15xf32>
        %280 = vector.fma %279, %179, %180 : vector<15x15xf32>
        %281 = affine.load %alloc_20[%c12] : memref<10xf16>
        %c1_i16 = arith.constant 1 : i16
        %282 = vector.transfer_read %181[%255, %74], %c1_i16 : memref<15x15xi16>, vector<i16>
        %283 = math.ctlz %c1_i64 : i64
        %284 = math.exp %expanded_39 : tensor<48x10x1xf16>
        %285 = vector.broadcast %cst_44 : f32 to vector<15x15xf32>
        %286 = vector.fma %285, %285, %280 : vector<15x15xf32>
        %287 = vector.splat %c9 : vector<16x15x10xindex>
        %288 = index.sizeof
        %alloc_61 = memref.alloc() : memref<3xi1>
        %289 = vector.gather %alloc_61[%245] [%31], %30, %30 : memref<3xi1>, vector<16x15x10xi32>, vector<16x15x10xi1>, vector<16x15x10xi1> into vector<16x15x10xi1>
        %290 = arith.divf %281, %198 : f16
        %291 = arith.floordivsi %c522205298_i32, %c1063595746_i32 : i32
        %dest_62, %accumulated_value_63 = vector.scan <maxf>, %286, %20 {inclusive = false, reduction_dim = 0 : i64} : vector<15x15xf32>, vector<15xf32>
        %292 = arith.minsi %c223865476_i64, %c223865476_i64 : i64
        %293 = affine.min affine_map<(d0, d1) -> (d0 + (-d0 + d1 + 8) floordiv 128 - 1)>(%178, %rank)
        %294 = vector.matrix_multiply %174, %167 {lhs_columns = 3 : i32, lhs_rows = 1 : i32, rhs_columns = 1 : i32} : (vector<3xf32>, vector<3xf32>) -> vector<1xf32>
        %295 = vector.bitcast %294 : vector<1xf32> to vector<1xf32>
        %296 = math.atan %from_elements_51 : tensor<15x15xf16>
        %297 = arith.xori %65, %extracted_48 : i16
        linalg.yield %c1514081338_i64 : i64
      } -> tensor<16x3x10xi64>
      %257 = math.absf %extracted : f16
      %expanded_53 = tensor.expand_shape %1 [[0], [1, 2]] : tensor<15x15xi64> into tensor<15x15x1xi64>
      %258 = vector.matrix_multiply %175, %167 {lhs_columns = 3 : i32, lhs_rows = 1 : i32, rhs_columns = 1 : i32} : (vector<3xf32>, vector<3xf32>) -> vector<1xf32>
      %259 = arith.ceildivsi %c0_i16, %c28366_i16 : i16
      %260 = arith.minsi %c0_i64_36, %c223865476_i64 : i64
      affine.for %arg5 = 0 to 12 {
      }
      %261 = math.exp2 %12 : tensor<16x3x10xf32>
      %262 = math.fma %9, %9, %225 : tensor<3xf16>
      %263 = vector.extract_strided_slice %179 {offsets = [0], sizes = [9], strides = [1]} : vector<15x15xf32> to vector<9x15xf32>
      %264 = affine.apply affine_map<(d0, d1, d2, d3) -> (d3 * 16)>(%245, %c12, %rank_27, %109)
      %cst_54 = arith.constant 1.000000e+00 : f32
      %cst_55 = arith.constant 0.000000e+00 : f32
      %265 = vector.transfer_read %12[%41, %98, %c1], %cst_55 : tensor<16x3x10xf32>, vector<f32>
      %splat_56 = tensor.splat %102 : tensor<3xi32>
      %266 = tensor.empty() : tensor<15x15xi1>
      scf.reduce(%266)  : tensor<15x15xi1> {
      ^bb0(%arg5: tensor<15x15xi1>, %arg6: tensor<15x15xi1>):
        %267 = index.mul %202, %133
        %268 = bufferization.to_memref %11 : memref<16x3x10xf16>
        %269 = vector.broadcast %cst_2 : f32 to vector<15x15xf32>
        %270 = vector.fma %269, %179, %180 : vector<15x15xf32>
        %271 = arith.xori %c767099878_i64, %c0_i64_36 : i64
        %272 = vector.broadcast %c2 : index to vector<3xindex>
        %273 = vector.broadcast %true_30 : i1 to vector<3xi1>
        %274 = vector.broadcast %c0_i16 : i16 to vector<3xi16>
        vector.scatter %alloc_15[%c5, %c2] [%272], %273, %274 : memref<15x15xi16>, vector<3xindex>, vector<3xi1>, vector<3xi16>
        %c0_i16_57 = arith.constant 0 : i16
        %c0_i16_58 = arith.constant 0 : i16
        %275 = vector.transfer_read %14[%150], %c0_i16_58 : tensor<3xi16>, vector<i16>
        %276 = index.floordivs %217, %79
        %splat_59 = tensor.splat %true : tensor<16x15x10xi1>
        %277 = tensor.empty() : tensor<15x15xi1>
        scf.reduce.return %277 : tensor<15x15xi1>
      }
      scf.yield
    }
    %253 = affine.vector_load %159[%193, %150] : memref<15x15xf32>, vector<10xf32>
    affine.vector_store %175, %alloc_7[%86, %rank_27, %109] : memref<16x15x10xf32>, vector<3xf32>
    vector.print %20 : vector<15xf32>
    vector.print %29 : vector<16x15x10xf32>
    vector.print %30 : vector<16x15x10xi1>
    vector.print %31 : vector<16x15x10xi32>
    vector.print %32 : vector<16x15x10xf32>
    vector.print %36 : vector<1x4x10xf32>
    vector.print %75 : vector<15x15xi64>
    vector.print %87 : vector<16x3x10xi16>
    vector.print %104 : vector<1x1x10xf32>
    vector.print %131 : vector<1xf32>
    vector.print %151 : vector<4x10xf32>
    vector.print %166 : vector<3xf32>
    vector.print %167 : vector<3xf32>
    vector.print %174 : vector<3xf32>
    vector.print %175 : vector<3xf32>
    vector.print %179 : vector<15x15xf32>
    vector.print %180 : vector<15x15xf32>
    vector.print %220 : vector<3x15xf32>
    vector.print %253 : vector<10xf32>
    vector.print %c767099878_i64 : i64
    vector.print %cst : f16
    vector.print %cst_0 : f16
    vector.print %c28366_i16 : i16
    vector.print %cst_1 : f16
    vector.print %cst_2 : f32
    vector.print %c522205298_i32 : i32
    vector.print %cst_3 : f32
    vector.print %c1063595746_i32 : i32
    vector.print %c223865476_i64 : i64
    vector.print %c2124661813_i32 : i32
    vector.print %c872239861_i32 : i32
    vector.print %cst_4 : f32
    vector.print %c-11434_i16 : i16
    vector.print %c1514081338_i64 : i64
    vector.print %true : i1
    vector.print %43 : i64
    vector.print %65 : i16
    vector.print %c0_i64 : i64
    vector.print %102 : i32
    vector.print %true_30 : i1
    vector.print %false : i1
    vector.print %extracted : f16
    vector.print %125 : f16
    vector.print %127 : f32
    vector.print %c0_i64_36 : i64
    vector.print %c0_i16 : i16
    vector.print %198 : f16
    vector.print %216 : f32
    vector.print %cst_40 : f16
    vector.print %234 : f32
    vector.print %cst_44 : f32
    vector.print %c1_i64 : i64
    vector.print %extracted_48 : i16
    return %true_30 : i1
  }
}
