module {
  func.func nested @func1() {
    %c20024_i16 = arith.constant 20024 : i16
    %false = arith.constant false
    %cst = arith.constant 1.40811405E+9 : f32
    %c69295288_i64 = arith.constant 69295288 : i64
    %cst_0 = arith.constant 1.142400e+04 : f16
    %false_1 = arith.constant false
    %cst_2 = arith.constant 3.892000e+03 : f16
    %c419814931_i32 = arith.constant 419814931 : i32
    %cst_3 = arith.constant 9.648000e+03 : f16
    %c24793613_i32 = arith.constant 24793613 : i32
    %c20_i16 = arith.constant 20 : i16
    %c14567_i16 = arith.constant 14567 : i16
    %cst_4 = arith.constant 1.455200e+04 : f16
    %c543644229_i32 = arith.constant 543644229 : i32
    %c1707396316_i32 = arith.constant 1707396316 : i32
    %c721236507_i64 = arith.constant 721236507 : i64
    %0 = tensor.empty() : tensor<9xf32>
    %1 = tensor.empty() : tensor<9x13xi64>
    %2 = tensor.empty() : tensor<9xf32>
    %3 = tensor.empty() : tensor<9x13xf16>
    %4 = tensor.empty() : tensor<9x13xi16>
    %5 = tensor.empty() : tensor<9xi32>
    %6 = tensor.empty() : tensor<9xi16>
    %7 = tensor.empty() : tensor<9x13xi16>
    %8 = tensor.empty() : tensor<9xi64>
    %9 = tensor.empty() : tensor<9x2xi1>
    %10 = tensor.empty() : tensor<9x2xi16>
    %11 = tensor.empty() : tensor<9xi64>
    %12 = tensor.empty() : tensor<9xi1>
    %13 = tensor.empty() : tensor<9xi1>
    %14 = tensor.empty() : tensor<2x2xi1>
    %15 = tensor.empty() : tensor<9x2xi1>
    %c0 = arith.constant 0 : index
    %c1 = arith.constant 1 : index
    %c2 = arith.constant 2 : index
    %c3 = arith.constant 3 : index
    %c4 = arith.constant 4 : index
    %c5 = arith.constant 5 : index
    %c6 = arith.constant 6 : index
    %c7 = arith.constant 7 : index
    %c8 = arith.constant 8 : index
    %c9 = arith.constant 9 : index
    %c10 = arith.constant 10 : index
    %c11 = arith.constant 11 : index
    %c12 = arith.constant 12 : index
    %c13 = arith.constant 13 : index
    %c14 = arith.constant 14 : index
    %c15 = arith.constant 15 : index
    %alloc = memref.alloc() : memref<9x2xf16>
    %alloc_5 = memref.alloc() : memref<9x2xi32>
    %alloc_6 = memref.alloc() : memref<9x13xi1>
    %alloc_7 = memref.alloc() : memref<9xi32>
    %alloc_8 = memref.alloc() : memref<2x2xi16>
    %alloc_9 = memref.alloc() : memref<9x2xi64>
    %alloc_10 = memref.alloc() : memref<9x13xi32>
    %alloc_11 = memref.alloc() : memref<2x2xf16>
    %alloc_12 = memref.alloc() : memref<9xi64>
    %alloc_13 = memref.alloc() : memref<9x13xi16>
    %alloc_14 = memref.alloc() : memref<9x2xi64>
    %alloc_15 = memref.alloc() : memref<9xi16>
    %alloc_16 = memref.alloc() : memref<9xi32>
    %alloc_17 = memref.alloc() : memref<2x2xi1>
    %alloc_18 = memref.alloc() : memref<9x13xi32>
    %alloc_19 = memref.alloc() : memref<9xf32>
    %16 = tensor.empty() : tensor<9x2xi1>
    %17 = linalg.copy ins(%9 : tensor<9x2xi1>) outs(%16 : tensor<9x2xi1>) -> tensor<9x2xi1>
    %alloc_20 = memref.alloc() : memref<9xi16>
    linalg.transpose ins(%6 : tensor<9xi16>) outs(%alloc_20 : memref<9xi16>) permutation = [0] 
    %18 = tensor.empty() : tensor<9xf16>
    %reduced = linalg.reduce ins(%alloc : memref<9x2xf16>) outs(%18 : tensor<9xf16>) dimensions = [1] 
      (%in: f16, %init: f16) {
        %257 = tensor.empty() : tensor<9x13xi64>
        %258 = arith.maxui %c20_i16, %c14567_i16 : i16
        %259 = arith.remf %cst_2, %cst_4 : f16
        %260 = index.floordivs %c14, %c3
        %261 = vector.broadcast %false_1 : i1 to vector<1xi1>
        %262 = vector.extract %261[0] : vector<1xi1>
        %263 = memref.load %alloc_8[%c0, %c0] : memref<2x2xi16>
        %264 = memref.load %alloc_12[%c7] : memref<9xi64>
        %265 = vector.broadcast %false : i1 to vector<i1>
        %266 = vector.transfer_write %265, %9[%c2, %c1] : vector<i1>, tensor<9x2xi1>
        %cst_42 = arith.constant 1.000000e+00 : f16
        linalg.yield %cst_42 : f16
      }
    %19 = scf.parallel (%arg0) = (%c8) to (%c4) step (%c8) init (%c543644229_i32) -> i32 {
      %257 = math.cos %cst_0 : f16
      %alloc_42 = memref.alloc() : memref<2x2xi16>
      memref.copy %alloc_8, %alloc_42 : memref<2x2xi16> to memref<2x2xi16>
      %258 = arith.mulf %cst_4, %cst_0 : f16
      %259 = arith.subi %c543644229_i32, %c1707396316_i32 : i32
      %260 = arith.maxui %c419814931_i32, %c543644229_i32 : i32
      %261 = arith.remf %cst_3, %cst_0 : f16
      %262 = math.atan %18 : tensor<9xf16>
      %263 = vector.broadcast %false : i1 to vector<9x13xi1>
      %264 = vector.transpose %263, [1, 0] : vector<9x13xi1> to vector<13x9xi1>
      %265 = vector.broadcast %cst_2 : f16 to vector<13xf16>
      %266 = vector.broadcast %cst_2 : f16 to vector<13x13xf16>
      %267 = vector.outerproduct %265, %265, %266 {kind = #vector.kind<mul>} : vector<13xf16>, vector<13xf16>
      %268 = memref.alloca_scope  -> (i16) {
        %274 = math.expm1 %reduced : tensor<9xf16>
        %275 = index.ceildivs %c0, %c12
        %276 = index.casts %c20024_i16 : i16 to index
        %splat_44 = tensor.splat %cst : tensor<2x2xf32>
        %277 = vector.bitcast %263 : vector<9x13xi1> to vector<9x13xi1>
        %278 = math.powf %cst, %cst : f32
        %279 = index.ceildivs %c14, %c13
        %280 = index.castu %c20024_i16 : i16 to index
        %281 = math.exp %18 : tensor<9xf16>
        %282 = affine.apply affine_map<(d0, d1, d2, d3) -> (0)>(%c4, %280, %c14, %c8)
        %283 = arith.maxui %c20_i16, %c20024_i16 : i16
        %284 = math.absf %cst_2 : f16
        %285 = math.ctlz %8 : tensor<9xi64>
        %286 = math.tanh %0 : tensor<9xf32>
        %287 = index.ceildivs %c12, %c9
        %288 = tensor.empty() : tensor<2x2xi1>
        %289 = linalg.matmul ins(%14, %14 : tensor<2x2xi1>, tensor<2x2xi1>) outs(%288 : tensor<2x2xi1>) -> tensor<2x2xi1>
        %290 = index.sub %279, %c2
        %291 = affine.min affine_map<(d0, d1) -> (d0 + d0 mod 8 + 128)>(%280, %c13)
        %292 = vector.broadcast %c69295288_i64 : i64 to vector<2xi64>
        %293 = vector.matrix_multiply %292, %292 {lhs_columns = 2 : i32, lhs_rows = 1 : i32, rhs_columns = 1 : i32} : (vector<2xi64>, vector<2xi64>) -> vector<1xi64>
        %294 = index.divu %279, %c15
        memref.store %c1707396316_i32, %alloc_10[%c2, %c0] : memref<9x13xi32>
        %extracted_45 = tensor.extract %15[%c8, %c1] : tensor<9x2xi1>
        %295 = vector.extract %277[1] : vector<9x13xi1>
        %296 = index.sub %c0, %c7
        %297 = vector.extract %293[0] : vector<1xi64>
        %298 = arith.subi %extracted_45, %false_1 : i1
        %299 = math.powf %18, %18 : tensor<9xf16>
        %300 = arith.addi %c20_i16, %c20_i16 : i16
        %301 = math.ctpop %c721236507_i64 : i64
        %302 = arith.divui %c543644229_i32, %c1707396316_i32 : i32
        %303 = vector.broadcast %c721236507_i64 : i64 to vector<2x2xi64>
        %304 = vector.outerproduct %292, %292, %303 {kind = #vector.kind<xor>} : vector<2xi64>, vector<2xi64>
        %305 = arith.remui %c419814931_i32, %c1707396316_i32 : i32
        memref.alloca_scope.return %c20_i16 : i16
      }
      %269 = arith.subi %false, %false : i1
      %270 = vector.broadcast %c24793613_i32 : i32 to vector<4xi32>
      vector.transfer_write %270, %alloc_5[%c14, %c3] {permutation_map = affine_map<(d0, d1) -> (d0)>} : vector<4xi32>, memref<9x2xi32>
      %splat_43 = tensor.splat %c721236507_i64 : tensor<9x2xi64>
      %271 = index.maxs %c8, %c0
      %272 = vector.matrix_multiply %270, %270 {lhs_columns = 4 : i32, lhs_rows = 1 : i32, rhs_columns = 1 : i32} : (vector<4xi32>, vector<4xi32>) -> vector<1xi32>
      %273 = arith.cmpi ugt, %c24793613_i32, %c1707396316_i32 : i32
      %c0_i32 = arith.constant 0 : i32
      scf.reduce(%c0_i32)  : i32 {
      ^bb0(%arg1: i32, %arg2: i32):
        %274 = vector.matrix_multiply %270, %272 {lhs_columns = 1 : i32, lhs_rows = 4 : i32, rhs_columns = 1 : i32} : (vector<4xi32>, vector<1xi32>) -> vector<4xi32>
        %275 = index.ceildivu %c9, %arg0
        %276 = arith.remui %c20_i16, %c20024_i16 : i16
        %277 = index.mul %c4, %c5
        %278 = arith.mulf %cst_0, %cst_4 : f16
        %279 = arith.divui %c543644229_i32, %c419814931_i32 : i32
        %280 = affine.load %alloc_13[%c13, %c4] : memref<9x13xi16>
        %281 = vector.broadcast %c24793613_i32 : i32 to vector<4x4xi32>
        %282 = vector.outerproduct %270, %274, %281 {kind = #vector.kind<minsi>} : vector<4xi32>, vector<4xi32>
        %c1_i32 = arith.constant 1 : i32
        scf.reduce.return %c1_i32 : i32
      }
      scf.yield
    }
    %20 = affine.vector_load %alloc_19[%c3] : memref<9xf32>, vector<4xf32>
    affine.vector_store %20, %alloc_19[%c14] : memref<9xf32>, vector<4xf32>
    %alloc_21 = memref.alloc() : memref<9xf16>
    %21 = tensor.empty() : tensor<f16>
    %22 = linalg.dot ins(%18, %alloc_21 : tensor<9xf16>, memref<9xf16>) outs(%21 : tensor<f16>) -> tensor<f16>
    %23 = math.roundeven %cst_4 : f16
    %24 = math.ctlz %4 : tensor<9x13xi16>
    %true = arith.constant true
    %25 = vector.transfer_read %13[%c1], %true : tensor<9xi1>, vector<i1>
    %26 = vector.matrix_multiply %20, %20 {lhs_columns = 4 : i32, lhs_rows = 1 : i32, rhs_columns = 1 : i32} : (vector<4xf32>, vector<4xf32>) -> vector<1xf32>
    memref.copy %alloc_20, %alloc_15 : memref<9xi16> to memref<9xi16>
    %27 = math.round %cst_0 : f16
    %alloc_22 = memref.alloc() : memref<9x13xf16>
    %28 = bufferization.to_tensor %alloc_6 : memref<9x13xi1>
    %29 = index.maxs %c4, %c1
    %30 = math.powf %22, %22 : tensor<f16>
    memref.copy %alloc_18, %alloc_10 : memref<9x13xi32> to memref<9x13xi32>
    %31 = arith.remf %cst_3, %cst_2 : f16
    %cast = tensor.cast %0 : tensor<9xf32> to tensor<?xf32>
    %32 = arith.maxsi %c721236507_i64, %c69295288_i64 : i64
    %33 = vector.create_mask %c8, %c11 : vector<9x2xi1>
    %34 = affine.apply affine_map<(d0, d1) -> (d1 * 2)>(%c11, %c5)
    %35 = tensor.empty() : tensor<9x2xi1>
    %36 = linalg.matmul ins(%9, %14 : tensor<9x2xi1>, tensor<2x2xi1>) outs(%35 : tensor<9x2xi1>) -> tensor<9x2xi1>
    %37 = index.ceildivs %c15, %c2
    %38 = arith.divf %cst, %cst : f32
    %39 = vector.extract_strided_slice %20 {offsets = [1], sizes = [3], strides = [1]} : vector<4xf32> to vector<3xf32>
    %40 = affine.apply affine_map<(d0) -> (d0 - (d0 + d0 + 16 + 64) * 16 + 64)>(%c4)
    %41 = memref.alloca_scope  -> (i64) {
      %257 = math.atan %cst_0 : f16
      %258 = arith.maxsi %c20024_i16, %c14567_i16 : i16
      %259 = index.sub %c14, %c8
      %260 = math.tanh %18 : tensor<9xf16>
      %splat_42 = tensor.splat %cst_4 : tensor<9x13xf16>
      %261 = math.floor %reduced : tensor<9xf16>
      %262 = tensor.empty() : tensor<4x4x4xf32>
      %263 = tensor.empty() : tensor<4xf32>
      %264 = linalg.generic {indexing_maps = [affine_map<(d0, d1, d2) -> (d0)>, affine_map<(d0, d1, d2) -> (d0)>, affine_map<(d0, d1, d2) -> (d0)>, affine_map<(d0, d1, d2) -> (d0, d1, d2)>], iterator_types = ["parallel", "parallel", "parallel"]} ins(%263, %263, %263 : tensor<4xf32>, tensor<4xf32>, tensor<4xf32>) outs(%262 : tensor<4x4x4xf32>) {
      ^bb0(%in: f32, %in_46: f32, %in_47: f32, %out: f32):
        %cast_48 = tensor.cast %14 : tensor<2x2xi1> to tensor<?x?xi1>
        %288 = vector.transpose %20, [0] : vector<4xf32> to vector<4xf32>
        %289 = arith.divf %in_47, %out : f32
        %290 = index.maxs %29, %259
        %291 = vector.broadcast %c5 : index to vector<9xindex>
        %292 = vector.broadcast %false : i1 to vector<9xi1>
        vector.scatter %alloc_17[%c1, %c0] [%291], %292, %292 : memref<2x2xi1>, vector<9xindex>, vector<9xi1>, vector<9xi1>
        %293 = arith.remui %false, %false : i1
        %294 = vector.broadcast %false_1 : i1 to vector<2xi1>
        %dest_49, %accumulated_value_50 = vector.scan <mul>, %33, %294 {inclusive = true, reduction_dim = 0 : i64} : vector<9x2xi1>, vector<2xi1>
        %295 = math.sqrt %0 : tensor<9xf32>
        %296 = vector.broadcast %c69295288_i64 : i64 to vector<13xi64>
        %297 = vector.transfer_write %296, %1[%c4, %c11] {permutation_map = affine_map<(d0, d1) -> (d0)>} : vector<13xi64>, tensor<9x13xi64>
        %298 = arith.ori %false_1, %true : i1
        %299 = arith.maxui %true, %false_1 : i1
        %300 = index.maxs %c5, %c1
        %301 = math.round %splat_42 : tensor<9x13xf16>
        %302 = arith.andi %c1707396316_i32, %c419814931_i32 : i32
        %303 = arith.maxui %c69295288_i64, %c69295288_i64 : i64
        %304 = math.roundeven %cst : f32
        %305 = math.powf %18, %reduced : tensor<9xf16>
        %306 = math.cos %in_46 : f32
        %307 = index.divu %c11, %c3
        %308 = index.ceildivu %c10, %259
        %309 = arith.divui %c24793613_i32, %c1707396316_i32 : i32
        %310 = affine.load %alloc_5[%c10, %c14] : memref<9x2xi32>
        %311 = arith.maxsi %c14567_i16, %c20024_i16 : i16
        %312 = arith.minui %false_1, %false : i1
        %313 = arith.divsi %false, %true : i1
        %314 = index.ceildivu %290, %300
        %315 = math.floor %cst_2 : f16
        vector.print %26 : vector<1xf32>
        %316 = arith.floordivsi %310, %c543644229_i32 : i32
        %317 = arith.divf %cst_4, %cst_2 : f16
        %rank_51 = tensor.rank %5 : tensor<9xi32>
        %318 = math.sqrt %splat_42 : tensor<9x13xf16>
        linalg.yield %in_47 : f32
      } -> tensor<4x4x4xf32>
      %265 = arith.negf %cst : f32
      %266 = arith.remf %cst_2, %cst_4 : f16
      %alloca_43 = memref.alloca() : memref<9x13xi16>
      %267 = math.tanh %2 : tensor<9xf32>
      %268 = index.add %c10, %c2
      %269 = math.absi %5 : tensor<9xi32>
      %270 = math.fma %splat_42, %3, %3 : tensor<9x13xf16>
      %271 = arith.remsi %c14567_i16, %c20024_i16 : i16
      %272 = affine.if affine_set<(d0, d1, d2) : (d2 mod 64 == 0, d0 >= 0, (d2 mod 64) * 16 == 0, d0 floordiv 64 - d2 mod 64 - 8 >= 0)>(%c0, %c5, %c2) -> memref<2x2xi64> {
        %alloc_46 = memref.alloc() : memref<9xi64>
        memref.copy %alloc_12, %alloc_46 : memref<9xi64> to memref<9xi64>
        %288 = vector.broadcast %false_1 : i1 to vector<9xi1>
        %dest_47, %accumulated_value_48 = vector.scan <minui>, %33, %288 {inclusive = true, reduction_dim = 1 : i64} : vector<9x2xi1>, vector<9xi1>
        %289 = arith.subi %true, %false_1 : i1
        %290 = arith.remf %cst_4, %cst_0 : f16
        %291 = index.casts %c543644229_i32 : i32 to index
        %292 = math.floor %3 : tensor<9x13xf16>
        %293 = index.castu %c24793613_i32 : i32 to index
        bufferization.dealloc_tensor %14 : tensor<2x2xi1>
        %alloc_49 = memref.alloc() : memref<2x2xi64>
        affine.yield %alloc_49 : memref<2x2xi64>
      } else {
        %288 = index.add %c6, %c4
        %289 = bufferization.clone %alloc_18 : memref<9x13xi32> to memref<9x13xi32>
        %290 = arith.divf %cst_0, %cst_0 : f16
        %alloc_46 = memref.alloc() : memref<9xf16>
        %291 = vector.transpose %39, [0] : vector<3xf32> to vector<3xf32>
        %292 = math.powf %cst_4, %cst_3 : f16
        %293 = math.floor %cst_4 : f16
        %alloc_47 = memref.alloc() : memref<9xf16>
        %alloc_48 = memref.alloc() : memref<2x2xi64>
        affine.yield %alloc_48 : memref<2x2xi64>
      }
      %273 = index.ceildivs %c5, %40
      %274 = arith.maxui %c419814931_i32, %c419814931_i32 : i32
      %275 = vector.broadcast %cst_3 : f16 to vector<f16>
      %276 = vector.transfer_write %275, %3[%40, %273] : vector<f16>, tensor<9x13xf16>
      %277 = bufferization.to_tensor %alloc_5 : memref<9x2xi32>
      %278 = math.powf %2, %0 : tensor<9xf32>
      %generated_44 = tensor.generate %273, %34 {
      ^bb0(%arg0: index, %arg1: index):
        %alloca_46 = memref.alloca() : memref<9x13xi1>
        %288 = index.sub %c3, %259
        %289 = index.add %c2, %40
        %290 = math.ctpop %c14567_i16 : i16
        tensor.yield %c69295288_i64 : i64
      } : tensor<?x?xi64>
      %279 = arith.xori %c24793613_i32, %c419814931_i32 : i32
      %280 = affine.if affine_set<(d0, d1) : (0 >= 0, d0 >= 0, (-(d1 + d0 - (d1 + 64) + 64)) ceildiv 64 >= 0, d0 - (d1 + d0 - (d1 + 64) + 64) >= 0)>(%c12, %c5) -> memref<9x13xf16> {
        %288 = vector.broadcast %false : i1 to vector<2xi1>
        %dest_46, %accumulated_value_47 = vector.scan <and>, %33, %288 {inclusive = false, reduction_dim = 0 : i64} : vector<9x2xi1>, vector<2xi1>
        %289 = arith.cmpf ueq, %cst, %cst : f32
        %290 = affine.apply affine_map<(d0) -> (0)>(%c15)
        %291 = index.castu %c11 : index to i32
        %292 = arith.mulf %cst_2, %cst_2 : f16
        %293 = math.atan %cst_3 : f16
        %294 = arith.mulf %cst_4, %cst_0 : f16
        %295 = vector.multi_reduction <mul>, %39, %cst [0] : vector<3xf32> to f32
        %alloc_48 = memref.alloc() : memref<9x13xf16>
        affine.yield %alloc_48 : memref<9x13xf16>
      } else {
        %288 = math.absf %cst_4 : f16
        %289 = vector.broadcast %c14567_i16 : i16 to vector<i16>
        vector.transfer_write %289, %alloc_15[%c3] : vector<i16>, memref<9xi16>
        %290 = vector.matrix_multiply %20, %26 {lhs_columns = 1 : i32, lhs_rows = 4 : i32, rhs_columns = 1 : i32} : (vector<4xf32>, vector<1xf32>) -> vector<4xf32>
        %291 = math.ctlz %28 : tensor<9x13xi1>
        %292 = arith.divui %c14567_i16, %c20_i16 : i16
        %293 = math.floor %21 : tensor<f16>
        %splat_46 = tensor.splat %cst_2 : tensor<2x2xf16>
        %294 = affine.apply affine_map<(d0) -> (0)>(%c13)
        %alloc_47 = memref.alloc() : memref<9x13xf16>
        affine.yield %alloc_47 : memref<9x13xf16>
      }
      %cast_45 = tensor.cast %11 : tensor<9xi64> to tensor<?xi64>
      %281 = index.floordivs %c8, %268
      %282 = arith.remf %cst_4, %cst_3 : f16
      %283 = math.ctpop %c1707396316_i32 : i32
      %284 = index.sub %c2, %c3
      %285 = math.fma %2, %2, %2 : tensor<9xf32>
      %286 = math.ctpop %28 : tensor<9x13xi1>
      %287 = arith.divui %c24793613_i32, %c1707396316_i32 : i32
      memref.alloca_scope.return %c69295288_i64 : i64
    }
    %42 = arith.cmpi slt, %false, %false_1 : i1
    %43 = arith.remui %false_1, %true : i1
    %inserted = tensor.insert %false_1 into %15[%c0, %c0] : tensor<9x2xi1>
    %44 = math.exp %cst_0 : f16
    affine.store %c419814931_i32, %alloc_5[%c7, %c7] : memref<9x2xi32>
    %45 = arith.shli %c543644229_i32, %c24793613_i32 : i32
    memref.alloca_scope  {
      %257 = math.atan %2 : tensor<9xf32>
      %258 = index.floordivs %c2, %c0
      %259 = arith.divui %c14567_i16, %c14567_i16 : i16
      %260 = math.log1p %reduced : tensor<9xf16>
      %261 = scf.execute_region -> index {
        %282 = vector.transpose %20, [0] : vector<4xf32> to vector<4xf32>
        %283 = arith.divui %false, %false : i1
        memref.assume_alignment %alloc_20, 1 : memref<9xi16>
        %284 = index.floordivs %c1, %c7
        %285 = math.log1p %cst_0 : f16
        memref.store %cst_0, %alloc_21[%c0] : memref<9xf16>
        %286 = arith.remf %cst_3, %cst_4 : f16
        %287 = math.floor %3 : tensor<9x13xf16>
        %288 = vector.broadcast %41 : i64 to vector<i64>
        %289 = vector.transfer_write %288, %8[%284] : vector<i64>, tensor<9xi64>
        %cast_50 = tensor.cast %13 : tensor<9xi1> to tensor<?xi1>
        %splat_51 = tensor.splat %c20024_i16 : tensor<9xi16>
        %c0_i32 = arith.constant 0 : i32
        %290 = vector.transfer_read %alloc_10[%c14, %c12], %c0_i32 : memref<9x13xi32>, vector<2xi32>
        %291 = arith.divf %cst_4, %cst_0 : f16
        %292 = affine.load %alloc_14[%c11, %c8] : memref<9x2xi64>
        %293 = vector.contract {indexing_maps = [affine_map<(d0) -> (d0)>, affine_map<(d0) -> (d0)>, affine_map<(d0) -> ()>], iterator_types = ["reduction"], kind = #vector.kind<minf>} %20, %20, %cst : vector<4xf32>, vector<4xf32> into f32
        %294 = math.fma %0, %0, %0 : tensor<9xf32>
        scf.yield %c9 : index
      }
      %262 = math.tanh %cst_4 : f16
      %263 = affine.if affine_set<(d0) : ((-d0 + 16) ceildiv 32 >= 0, -d0 + 17 >= 0)>(%c7) -> memref<9x13xi16> {
        %282 = bufferization.to_tensor %alloc_21 : memref<9xf16>
        %283 = index.castu %c721236507_i64 : i64 to index
        %284 = vector.extract %33[1] : vector<9x2xi1>
        %285 = arith.subi %c20024_i16, %c20_i16 : i16
        %286 = math.tanh %reduced : tensor<9xf16>
        %287 = index.casts %true : i1 to index
        %288 = bufferization.to_tensor %alloc_6 : memref<9x13xi1>
        %289 = math.sqrt %cst_0 : f16
        affine.yield %alloc_13 : memref<9x13xi16>
      } else {
        %282 = bufferization.to_memref %2 : memref<9xf32>
        %283 = bufferization.to_tensor %alloc_11 : memref<2x2xf16>
        %284 = vector.extract_strided_slice %20 {offsets = [2], sizes = [1], strides = [1]} : vector<4xf32> to vector<1xf32>
        %285 = affine.apply affine_map<(d0) -> (-d0)>(%c5)
        %286 = vector.reduction <minf>, %26 : vector<1xf32> into f32
        %287 = math.roundeven %0 : tensor<9xf32>
        %288 = vector.matrix_multiply %20, %26 {lhs_columns = 1 : i32, lhs_rows = 4 : i32, rhs_columns = 1 : i32} : (vector<4xf32>, vector<1xf32>) -> vector<4xf32>
        %289 = vector.matrix_multiply %26, %284 {lhs_columns = 1 : i32, lhs_rows = 1 : i32, rhs_columns = 1 : i32} : (vector<1xf32>, vector<1xf32>) -> vector<1xf32>
        affine.yield %alloc_13 : memref<9x13xi16>
      }
      %264 = index.casts %c13 : index to i32
      %generated_42 = tensor.generate %c10, %c3 {
      ^bb0(%arg0: index, %arg1: index):
        %rank_50 = tensor.rank %cast : tensor<?xf32>
        %false_51 = index.bool.constant false
        %282 = vector.transpose %20, [0] : vector<4xf32> to vector<4xf32>
        %283 = vector.contract {indexing_maps = [affine_map<(d0) -> (d0)>, affine_map<(d0) -> (d0)>, affine_map<(d0) -> ()>], iterator_types = ["reduction"], kind = #vector.kind<add>} %39, %39, %cst : vector<3xf32>, vector<3xf32> into f32
        tensor.yield %c721236507_i64 : i64
      } : tensor<?x?xi64>
      %265 = math.exp %2 : tensor<9xf32>
      %266 = math.exp %cst_2 : f16
      %267 = arith.maxsi %c1707396316_i32, %c24793613_i32 : i32
      %268 = math.cos %reduced : tensor<9xf16>
      %rank_43 = tensor.rank %9 : tensor<9x2xi1>
      %269 = arith.divui %c721236507_i64, %c69295288_i64 : i64
      %270 = arith.maxsi %c69295288_i64, %41 : i64
      %alloc_44 = memref.alloc() : memref<2x2xf32>
      %cast_45 = tensor.cast %1 : tensor<9x13xi64> to tensor<?x?xi64>
      %271 = arith.remf %cst, %cst : f32
      %272 = index.ceildivs %c7, %261
      memref.copy %alloc_20, %alloc_15 : memref<9xi16> to memref<9xi16>
      %273 = arith.maxui %41, %c721236507_i64 : i64
      %274 = tensor.empty(%c9) : tensor<9x?xi32>
      %275 = tensor.empty() : tensor<4x4x4xf32>
      %alloc_46 = memref.alloc() : memref<4xf32>
      %alloc_47 = memref.alloc() : memref<4x4xf32>
      %276 = linalg.generic {indexing_maps = [affine_map<(d0, d1, d2) -> (d0)>, affine_map<(d0, d1, d2) -> (d0, d2)>, affine_map<(d0, d1, d2) -> (d1, d0)>, affine_map<(d0, d1, d2) -> (d0, d1, d2)>], iterator_types = ["parallel", "parallel", "parallel"]} ins(%alloc_46, %alloc_47, %alloc_47 : memref<4xf32>, memref<4x4xf32>, memref<4x4xf32>) outs(%275 : tensor<4x4x4xf32>) {
      ^bb0(%in: f32, %in_50: f32, %in_51: f32, %out: f32):
        %282 = arith.floordivsi %false_1, %true : i1
        %283 = arith.remf %cst_0, %cst_0 : f16
        %284 = arith.remui %c69295288_i64, %c721236507_i64 : i64
        %285 = arith.ori %c69295288_i64, %c69295288_i64 : i64
        %alloca_52 = memref.alloca() : memref<2x2xi64>
        %286 = math.round %3 : tensor<9x13xf16>
        %287 = arith.shrsi %c1707396316_i32, %c1707396316_i32 : i32
        %inserted_53 = tensor.insert %in_51 into %2[%c4] : tensor<9xf32>
        %288 = vector.reduction <mul>, %39 : vector<3xf32> into f32
        %289 = math.sqrt %3 : tensor<9x13xf16>
        %290 = arith.addf %out, %in_51 : f32
        %291 = arith.divf %cst_3, %cst_3 : f16
        %292 = math.cos %reduced : tensor<9xf16>
        %293 = math.tanh %in_50 : f32
        %294 = arith.shrsi %c20_i16, %c20_i16 : i16
        %inserted_54 = tensor.insert %false_1 into %35[%c5, %c0] : tensor<9x2xi1>
        %295 = index.castu %c6 : index to i32
        %296 = arith.maxf %cst_4, %cst_3 : f16
        %297 = index.casts %c0 : index to i32
        %298 = math.log2 %0 : tensor<9xf32>
        %299 = math.log1p %in : f32
        %300 = index.castu %false_1 : i1 to index
        %301 = math.round %cst_3 : f16
        %302 = arith.maxf %in_51, %out : f32
        %303 = vector.broadcast %false_1 : i1 to vector<9xi1>
        %304 = vector.broadcast %c543644229_i32 : i32 to vector<9xi32>
        %305 = vector.gather %28[%c0, %37] [%304], %303, %303 : tensor<9x13xi1>, vector<9xi32>, vector<9xi1>, vector<9xi1> into vector<9xi1>
        bufferization.dealloc_tensor %3 : tensor<9x13xf16>
        %alloc_55 = memref.alloc() : memref<2x2xi16>
        memref.copy %alloc_8, %alloc_55 : memref<2x2xi16> to memref<2x2xi16>
        %alloca_56 = memref.alloca() : memref<9xi32>
        %306 = bufferization.clone %alloc_9 : memref<9x2xi64> to memref<9x2xi64>
        %307 = math.expm1 %in : f32
        %308 = arith.remsi %c69295288_i64, %c721236507_i64 : i64
        %309 = arith.subi %c721236507_i64, %41 : i64
        linalg.yield %in : f32
      } -> tensor<4x4x4xf32>
      memref.copy %alloc_9, %alloc_14 : memref<9x2xi64> to memref<9x2xi64>
      %extracted_48 = tensor.extract %cast[%c0] : tensor<?xf32>
      %277 = vector.broadcast %c419814931_i32 : i32 to vector<13xi32>
      vector.transfer_write %277, %alloc_10[%37, %rank_43] {permutation_map = affine_map<(d0, d1) -> (d0)>} : vector<13xi32>, memref<9x13xi32>
      %278 = arith.negf %cst_4 : f16
      %279 = arith.negf %cst : f32
      %280 = math.tanh %extracted_48 : f32
      %cast_49 = tensor.cast %6 : tensor<9xi16> to tensor<?xi16>
      %281 = math.tanh %0 : tensor<9xf32>
    }
    %46 = index.sub %c1, %c11
    %47 = affine.max affine_map<(d0, d1, d2, d3) -> (d1 * -96)>(%c15, %c5, %c13, %c10)
    %48 = bufferization.to_memref %0 : memref<9xf32>
    %49 = arith.floordivsi %c419814931_i32, %c24793613_i32 : i32
    %50 = vector.extract_strided_slice %33 {offsets = [2], sizes = [6], strides = [1]} : vector<9x2xi1> to vector<6x2xi1>
    %51 = math.floor %21 : tensor<f16>
    %52 = affine.apply affine_map<(d0, d1, d2, d3) -> (d3 floordiv 4 - 1)>(%47, %c3, %c13, %c11)
    %53 = math.exp2 %cst_4 : f16
    %54 = vector.contract {indexing_maps = [affine_map<(d0) -> (d0)>, affine_map<(d0) -> (d0)>, affine_map<(d0) -> ()>], iterator_types = ["reduction"], kind = #vector.kind<mul>} %39, %39, %cst : vector<3xf32>, vector<3xf32> into f32
    %c1011120307_i64 = arith.constant 1011120307 : i64
    %55 = index.floordivs %c9, %c7
    %56 = vector.extract %33[8] : vector<9x2xi1>
    %57 = tensor.empty() : tensor<4x4x4xf32>
    %alloc_23 = memref.alloc() : memref<4x4xf32>
    %alloc_24 = memref.alloc() : memref<4xf32>
    %58 = linalg.generic {indexing_maps = [affine_map<(d0, d1, d2) -> (d0, d1)>, affine_map<(d0, d1, d2) -> (d2)>, affine_map<(d0, d1, d2) -> (d0, d1, d2)>], iterator_types = ["parallel", "parallel", "parallel"]} ins(%alloc_23, %alloc_24 : memref<4x4xf32>, memref<4xf32>) outs(%57 : tensor<4x4x4xf32>) {
    ^bb0(%in: f32, %in_42: f32, %out: f32):
      %257 = arith.negf %cst_4 : f16
      %258 = arith.xori %c1707396316_i32, %c24793613_i32 : i32
      %259 = math.tanh %0 : tensor<9xf32>
      %260 = math.tanh %0 : tensor<9xf32>
      %261 = vector.extract_strided_slice %50 {offsets = [4], sizes = [2], strides = [1]} : vector<6x2xi1> to vector<2x2xi1>
      %262 = tensor.empty() : tensor<9x2xi1>
      %mapped = linalg.map ins(%15, %17, %16 : tensor<9x2xi1>, tensor<9x2xi1>, tensor<9x2xi1>) outs(%262 : tensor<9x2xi1>)
        (%in_50: i1, %in_51: i1, %in_52: i1) {
          %289 = affine.load %alloc_8[%c0, %c10] : memref<2x2xi16>
          vector.print %33 : vector<9x2xi1>
          %290 = math.sqrt %21 : tensor<f16>
          %291 = math.sqrt %cst_0 : f16
          %292 = arith.remui %true, %in_51 : i1
          %293 = arith.shrsi %true, %false : i1
          %294 = bufferization.to_tensor %alloc : memref<9x2xf16>
          memref.copy %alloc_14, %alloc_9 : memref<9x2xi64> to memref<9x2xi64>
          %295 = vector.extract_strided_slice %50 {offsets = [3], sizes = [1], strides = [1]} : vector<6x2xi1> to vector<1x2xi1>
          %296 = index.maxu %c7, %c11
          %dest_53, %accumulated_value_54 = vector.scan <maxui>, %261, %56 {inclusive = true, reduction_dim = 1 : i64} : vector<2x2xi1>, vector<2xi1>
          %297 = arith.negf %cst_4 : f16
          %298 = arith.remf %out, %out : f32
          %299 = math.floor %reduced : tensor<9xf16>
          %300 = math.cos %22 : tensor<f16>
          %301 = vector.reduction <maxf>, %39 : vector<3xf32> into f32
          %302 = arith.remui %c1707396316_i32, %c543644229_i32 : i32
          %303 = vector.multi_reduction <maxsi>, %50, %in_50 [0, 1] : vector<6x2xi1> to i1
          %304 = tensor.empty() : tensor<9x13xi32>
          %305 = math.fpowi %3, %304 : tensor<9x13xf16>, tensor<9x13xi32>
          %c1_i64 = arith.constant 1 : i64
          %c0_i64_55 = arith.constant 0 : i64
          %306 = vector.transfer_read %11[%55], %c0_i64_55 : tensor<9xi64>, vector<i64>
          %307 = index.floordivs %c6, %c11
          %308 = bufferization.clone %alloc_11 : memref<2x2xf16> to memref<2x2xf16>
          %309 = index.add %c12, %c15
          %310 = vector.extract_strided_slice %33 {offsets = [0], sizes = [8], strides = [1]} : vector<9x2xi1> to vector<8x2xi1>
          %311 = math.fpowi %3, %304 : tensor<9x13xf16>, tensor<9x13xi32>
          %312 = math.cos %cst_2 : f16
          %313 = index.add %c7, %309
          %314 = vector.matrix_multiply %26, %39 {lhs_columns = 1 : i32, lhs_rows = 1 : i32, rhs_columns = 3 : i32} : (vector<1xf32>, vector<3xf32>) -> vector<3xf32>
          %alloc_56 = memref.alloc() : memref<9x2xf16>
          %315 = bufferization.to_tensor %alloc_11 : memref<2x2xf16>
          %316 = index.floordivs %40, %c13
          %317 = arith.mulf %cst_0, %cst_2 : f16
          %true_57 = arith.constant true
          linalg.yield %true_57 : i1
        }
      %263 = math.absf %in_42 : f32
      %264 = arith.maxsi %false_1, %true : i1
      %false_43 = arith.constant false
      %false_44 = arith.constant false
      %265 = vector.transfer_read %13[%29], %false_44 : tensor<9xi1>, vector<i1>
      %266 = affine.apply affine_map<(d0, d1, d2, d3) -> (d0 - 10)>(%46, %c3, %c9, %c0)
      %extracted_45 = tensor.extract %2[%c2] : tensor<9xf32>
      %267 = index.ceildivs %c9, %c7
      %false_46 = index.bool.constant false
      %268 = vector.flat_transpose %26 {columns = 1 : i32, rows = 1 : i32} : vector<1xf32> -> vector<1xf32>
      %269 = bufferization.to_tensor %alloc_8 : memref<2x2xi16>
      %270 = math.cos %cst_0 : f16
      %271 = math.log1p %18 : tensor<9xf16>
      %272 = arith.maxsi %c24793613_i32, %c24793613_i32 : i32
      %273 = scf.while (%arg0 = %alloc_21) : (memref<9xf16>) -> memref<9xf16> {
        %289 = vector.transpose %56, [0] : vector<2xi1> to vector<2xi1>
        %290 = vector.reduction <mul>, %268 : vector<1xf32> into f32
        %291 = index.add %55, %37
        %292 = arith.divf %cst_0, %cst_4 : f16
        %293 = index.sub %c1, %c11
        %294 = math.atan %in_42 : f32
        %alloca_50 = memref.alloca() : memref<9x2xi16>
        %295 = arith.minf %in, %cst : f32
        scf.condition(%false_46) %alloc_21 : memref<9xf16>
      } do {
      ^bb0(%arg0: memref<9xf16>):
        %289 = arith.cmpi sgt, %false_1, %true : i1
        %290 = math.absf %in_42 : f32
        %291 = vector.flat_transpose %26 {columns = 1 : i32, rows = 1 : i32} : vector<1xf32> -> vector<1xf32>
        %292 = vector.contract {indexing_maps = [affine_map<(d0) -> (d0)>, affine_map<(d0) -> (d0)>, affine_map<(d0) -> ()>], iterator_types = ["reduction"], kind = #vector.kind<maxf>} %26, %26, %cst : vector<1xf32>, vector<1xf32> into f32
        %splat_50 = tensor.splat %41 : tensor<9xi64>
        vector.print %261 : vector<2x2xi1>
        %293 = affine.max affine_map<(d0, d1, d2, d3) -> (0, -d0)>(%c3, %c7, %c2, %c11)
        %294 = math.exp2 %0 : tensor<9xf32>
        %295 = index.floordivs %267, %c3
        %dest_51, %accumulated_value_52 = vector.scan <add>, %50, %56 {inclusive = true, reduction_dim = 0 : i64} : vector<6x2xi1>, vector<2xi1>
        %296 = bufferization.to_memref %4 : memref<9x13xi16>
        %297 = math.sqrt %cst_3 : f16
        %298 = arith.divf %in_42, %in_42 : f32
        %299 = arith.shrui %true, %true : i1
        %300 = memref.load %alloc_5[%c8, %c1] : memref<9x2xi32>
        %301 = index.maxs %c15, %c13
        scf.yield %arg0 : memref<9xf16>
      }
      %cst_47 = arith.constant 5.536000e+04 : f16
      %c0_i64 = arith.constant 0 : i64
      %274 = vector.transfer_read %1[%c13, %c15], %c0_i64 : tensor<9x13xi64>, vector<9xi64>
      %275 = arith.addf %cst_4, %cst_0 : f16
      %276 = bufferization.to_tensor %alloc_14 : memref<9x2xi64>
      %false_48 = arith.constant false
      %false_49 = arith.constant false
      %277 = vector.transfer_read %14[%34, %c15], %false_49 : tensor<2x2xi1>, vector<i1>
      %278 = index.floordivs %47, %c15
      %279 = index.maxs %c11, %37
      %280 = bufferization.to_tensor %alloc_20 : memref<9xi16>
      %281 = arith.divf %cst_4, %cst_2 : f16
      %282 = vector.broadcast %in : f32 to vector<9xf32>
      %283 = vector.broadcast %false_46 : i1 to vector<9xi1>
      %284 = vector.broadcast %c543644229_i32 : i32 to vector<9xi32>
      %285 = vector.gather %0[%c2] [%284], %283, %282 : tensor<9xf32>, vector<9xi32>, vector<9xi1>, vector<9xf32> into vector<9xf32>
      %286 = vector.multi_reduction <maxf>, %282, %282 [] : vector<9xf32> to vector<9xf32>
      %287 = arith.subi %c1707396316_i32, %c543644229_i32 : i32
      %288 = math.fpowi %extracted_45, %c543644229_i32 : f32, i32
      linalg.yield %out : f32
    } -> tensor<4x4x4xf32>
    %59 = vector.insert %false_1, %56 [0] : i1 into vector<2xi1>
    %60 = vector.extract_strided_slice %56 {offsets = [0], sizes = [2], strides = [1]} : vector<2xi1> to vector<2xi1>
    %61 = arith.divf %cst_4, %cst_0 : f16
    %62 = index.casts %c8 : index to i32
    %63 = arith.maxui %c1707396316_i32, %c543644229_i32 : i32
    %64 = arith.remui %c20_i16, %c20_i16 : i16
    %65 = math.rsqrt %21 : tensor<f16>
    %66 = arith.maxui %true, %false_1 : i1
    %67 = math.tanh %cst_3 : f16
    %rank = tensor.rank %10 : tensor<9x2xi16>
    %68 = arith.shrsi %c20_i16, %c14567_i16 : i16
    %69 = math.rsqrt %0 : tensor<9xf32>
    %inserted_25 = tensor.insert %c721236507_i64 into %11[%c3] : tensor<9xi64>
    %70 = math.absf %cst_0 : f16
    %71 = vector.extract_strided_slice %50 {offsets = [4], sizes = [2], strides = [1]} : vector<6x2xi1> to vector<2x2xi1>
    %inserted_26 = tensor.insert %c69295288_i64 into %1[%c5, %c6] : tensor<9x13xi64>
    %72 = vector.insert %60, %71 [1] : vector<2xi1> into vector<2x2xi1>
    %from_elements = tensor.from_elements %c14567_i16, %c20024_i16, %c14567_i16, %c20024_i16, %c14567_i16, %c14567_i16, %c20024_i16, %c20024_i16, %c14567_i16, %c20_i16, %c20_i16, %c20024_i16, %c20_i16, %c20_i16, %c20024_i16, %c14567_i16, %c20024_i16, %c20024_i16, %c20024_i16, %c14567_i16, %c20024_i16, %c14567_i16, %c20_i16, %c20_i16, %c20_i16, %c20_i16, %c20_i16, %c20_i16, %c14567_i16, %c20024_i16, %c20_i16, %c14567_i16, %c20_i16, %c14567_i16, %c20_i16, %c20_i16, %c20024_i16, %c14567_i16, %c20024_i16, %c20024_i16, %c14567_i16, %c20024_i16, %c20024_i16, %c20_i16, %c20024_i16, %c14567_i16, %c20024_i16, %c20_i16, %c14567_i16, %c14567_i16, %c14567_i16, %c20024_i16, %c20024_i16, %c14567_i16, %c20_i16, %c14567_i16, %c20_i16, %c14567_i16, %c14567_i16, %c14567_i16, %c20_i16, %c14567_i16, %c14567_i16, %c20024_i16, %c14567_i16, %c20_i16, %c14567_i16, %c20_i16, %c20024_i16, %c14567_i16, %c20024_i16, %c20_i16, %c20024_i16, %c14567_i16, %c20024_i16, %c20024_i16, %c20024_i16, %c20_i16, %c20024_i16, %c20_i16, %c20_i16, %c14567_i16, %c14567_i16, %c14567_i16, %c14567_i16, %c20_i16, %c20024_i16, %c20024_i16, %c20_i16, %c20_i16, %c20_i16, %c20_i16, %c20_i16, %c14567_i16, %c20024_i16, %c20_i16, %c14567_i16, %c14567_i16, %c14567_i16, %c20_i16, %c20024_i16, %c20_i16, %c20024_i16, %c14567_i16, %c20_i16, %c14567_i16, %c20024_i16, %c20_i16, %c20_i16, %c14567_i16, %c14567_i16, %c20_i16, %c14567_i16, %c20024_i16, %c14567_i16, %c20_i16, %c14567_i16 : tensor<9x13xi16>
    %alloc_27 = memref.alloc() : memref<9xi64>
    %73 = arith.cmpf ule, %cst_0, %cst_2 : f16
    %74 = arith.remsi %false_1, %false_1 : i1
    %75 = bufferization.to_tensor %alloc_18 : memref<9x13xi32>
    %76 = math.floor %cst_0 : f16
    %77 = arith.negf %cst_0 : f16
    %78 = tensor.empty() : tensor<4x4x4xf32>
    %79 = linalg.generic {indexing_maps = [affine_map<(d0, d1, d2) -> (d0, d1, d2)>], iterator_types = ["parallel", "parallel", "parallel"]} outs(%78 : tensor<4x4x4xf32>) {
    ^bb0(%out: f32):
      %257 = math.floor %3 : tensor<9x13xf16>
      %258 = arith.maxui %true, %true : i1
      %259 = math.roundeven %out : f32
      %260 = tensor.empty() : tensor<4x4x4xf32>
      %alloc_42 = memref.alloc() : memref<4x4xf32>
      %261 = linalg.generic {indexing_maps = [affine_map<(d0, d1, d2) -> (d0, d1)>, affine_map<(d0, d1, d2) -> (d0, d1, d2)>], iterator_types = ["parallel", "parallel", "parallel"]} ins(%alloc_42 : memref<4x4xf32>) outs(%260 : tensor<4x4x4xf32>) {
      ^bb0(%in: f32, %out_47: f32):
        %287 = arith.remsi %c20024_i16, %c20_i16 : i16
        %288 = arith.subi %c721236507_i64, %c69295288_i64 : i64
        %289 = index.casts %c543644229_i32 : i32 to index
        %290 = math.tanh %2 : tensor<9xf32>
        %291 = index.castu %c14567_i16 : i16 to index
        %292 = arith.negf %cst_3 : f16
        %293 = index.maxs %29, %47
        %294 = vector.broadcast %cst : f32 to vector<f32>
        vector.transfer_write %294, %alloc_19[%55] : vector<f32>, memref<9xf32>
        %295 = vector.insert %56, %50 [1] : vector<2xi1> into vector<6x2xi1>
        %296 = math.sqrt %22 : tensor<f16>
        vector.print %71 : vector<2x2xi1>
        %297 = math.cos %cst_3 : f16
        %298 = math.tanh %2 : tensor<9xf32>
        %extracted_48 = tensor.extract %16[%c0, %c1] : tensor<9x2xi1>
        %299 = index.maxs %29, %c13
        %300 = index.sub %40, %c7
        %301 = math.floor %reduced : tensor<9xf16>
        %302 = arith.subi %false, %false_1 : i1
        %303 = memref.load %alloc_10[%c2, %c12] : memref<9x13xi32>
        %304 = vector.reduction <minf>, %20 : vector<4xf32> into f32
        %305 = tensor.empty() : tensor<9x13xi64>
        %306 = vector.matrix_multiply %26, %20 {lhs_columns = 1 : i32, lhs_rows = 1 : i32, rhs_columns = 4 : i32} : (vector<1xf32>, vector<4xf32>) -> vector<4xf32>
        %307 = arith.maxf %cst_4, %cst_3 : f16
        memref.copy %alloc_19, %48 : memref<9xf32> to memref<9xf32>
        bufferization.dealloc_tensor %3 : tensor<9x13xf16>
        %308 = memref.realloc %alloc_21 : memref<9xf16> to memref<13xf16>
        %splat_49 = tensor.splat %c1707396316_i32 : tensor<9xi32>
        %309 = arith.negf %out : f32
        %310 = arith.shli %extracted_48, %extracted_48 : i1
        %311 = bufferization.clone %alloc : memref<9x2xf16> to memref<9x2xf16>
        %312 = arith.floordivsi %false_1, %false_1 : i1
        %313 = bufferization.to_tensor %alloc_9 : memref<9x2xi64>
        linalg.yield %in : f32
      } -> tensor<4x4x4xf32>
      %262 = affine.apply affine_map<(d0) -> (-d0)>(%c9)
      %from_elements_43 = tensor.from_elements %cst_4, %cst_0, %cst_2, %cst_3, %cst_0, %cst_4, %cst_3, %cst_3, %cst_0, %cst_3, %cst_0, %cst_0, %cst_4, %cst_3, %cst_3, %cst_2, %cst_4, %cst_2, %cst_2, %cst_3, %cst_3, %cst_4, %cst_3, %cst_2, %cst_2, %cst_4, %cst_2, %cst_3, %cst_2, %cst_4, %cst_4, %cst_3, %cst_2, %cst_4, %cst_3, %cst_0, %cst_4, %cst_2, %cst_2, %cst_4, %cst_2, %cst_0, %cst_3, %cst_3, %cst_3, %cst_4, %cst_2, %cst_0, %cst_0, %cst_3, %cst_2, %cst_0, %cst_3, %cst_2, %cst_0, %cst_2, %cst_3, %cst_0, %cst_4, %cst_0, %cst_0, %cst_4, %cst_2, %cst_0, %cst_4, %cst_0, %cst_2, %cst_0, %cst_3, %cst_3, %cst_2, %cst_4, %cst_2, %cst_0, %cst_3, %cst_3, %cst_4, %cst_4, %cst_2, %cst_3, %cst_3, %cst_0, %cst_4, %cst_3, %cst_2, %cst_4, %cst_0, %cst_3, %cst_3, %cst_2, %cst_3, %cst_3, %cst_3, %cst_3, %cst_2, %cst_0, %cst_3, %cst_4, %cst_2, %cst_3, %cst_3, %cst_2, %cst_0, %cst_4, %cst_2, %cst_3, %cst_2, %cst_0, %cst_2, %cst_3, %cst_3, %cst_4, %cst_4, %cst_3, %cst_0, %cst_3, %cst_3 : tensor<9x13xf16>
      %263 = arith.ori %false_1, %false : i1
      %264 = index.ceildivu %c0, %c6
      %265 = math.fpowi %cst, %c543644229_i32 : f32, i32
      %266 = vector.broadcast %true : i1 to vector<i1>
      %267 = vector.transfer_write %266, %12[%c15] : vector<i1>, tensor<9xi1>
      %268 = math.round %21 : tensor<f16>
      %extracted_44 = tensor.extract %reduced[%c4] : tensor<9xf16>
      %269 = arith.xori %false, %true : i1
      %270 = index.maxs %262, %c12
      bufferization.dealloc_tensor %cast : tensor<?xf32>
      %splat_45 = tensor.splat %c1707396316_i32 : tensor<9xi32>
      %271 = index.add %47, %c0
      %272 = vector.broadcast %cst : f32 to vector<9x2xf32>
      %273 = vector.fma %272, %272, %272 : vector<9x2xf32>
      %274 = vector.multi_reduction <add>, %60, %56 [] : vector<2xi1> to vector<2xi1>
      %275 = vector.multi_reduction <minf>, %26, %cst [0] : vector<1xf32> to f32
      %276 = arith.divui %c721236507_i64, %c69295288_i64 : i64
      vector.print %273 : vector<9x2xf32>
      %277 = math.log1p %3 : tensor<9x13xf16>
      %278 = arith.minf %cst_4, %cst_4 : f16
      %279 = arith.maxui %false, %false_1 : i1
      %extracted_46 = tensor.extract %6[%c5] : tensor<9xi16>
      %280 = tensor.empty() : tensor<4x4x4xf32>
      %281 = linalg.generic {indexing_maps = [affine_map<(d0, d1, d2) -> (d0, d1, d2)>], iterator_types = ["parallel", "parallel", "parallel"]} outs(%280 : tensor<4x4x4xf32>) {
      ^bb0(%out_47: f32):
        %inserted_48 = tensor.insert %extracted_46 into %4[%c6, %c9] : tensor<9x13xi16>
        %287 = arith.shli %extracted_46, %c20024_i16 : i16
        %288 = vector.broadcast %cst_4 : f16 to vector<f16>
        vector.transfer_write %288, %alloc_21[%c11] : vector<f16>, memref<9xf16>
        %289 = index.add %c2, %52
        %290 = math.tanh %from_elements_43 : tensor<9x13xf16>
        %291 = affine.apply affine_map<(d0, d1, d2, d3) -> (d0 - 10)>(%46, %c4, %c10, %c14)
        %292 = arith.minui %c721236507_i64, %41 : i64
        %true_49 = index.bool.constant true
        %c0_i16 = arith.constant 0 : i16
        %293 = vector.transfer_read %7[%271, %c1], %c0_i16 : tensor<9x13xi16>, vector<i16>
        %294 = math.roundeven %3 : tensor<9x13xf16>
        %cst_50 = arith.constant 1.000000e+00 : f16
        %cst_51 = arith.constant 0.000000e+00 : f16
        %295 = vector.transfer_read %3[%29, %c0], %cst_51 {permutation_map = affine_map<(d0, d1) -> (0)>} : tensor<9x13xf16>, vector<13xf16>
        %296 = math.exp %reduced : tensor<9xf16>
        %297 = math.sqrt %cst_3 : f16
        %298 = math.sqrt %0 : tensor<9xf32>
        %299 = arith.divf %cst_0, %cst_3 : f16
        %300 = math.atan2 %extracted_44, %cst_3 : f16
        %301 = vector.bitcast %33 : vector<9x2xi1> to vector<9x2xi1>
        %302 = vector.reduction <add>, %26 : vector<1xf32> into f32
        %303 = affine.max affine_map<(d0, d1, d2) -> (d1 + 8, (d2 floordiv 64) mod 16, d1 + 8)>(%29, %c0, %55)
        %304 = math.round %from_elements_43 : tensor<9x13xf16>
        %305 = index.add %262, %c5
        %306 = index.castu %270 : index to i32
        %307 = arith.negf %cst_4 : f16
        %308 = math.cos %cst_4 : f16
        %309 = math.exp %extracted_44 : f16
        %310 = vector.matrix_multiply %26, %39 {lhs_columns = 1 : i32, lhs_rows = 1 : i32, rhs_columns = 3 : i32} : (vector<1xf32>, vector<3xf32>) -> vector<3xf32>
        %true_52 = arith.constant true
        %false_53 = arith.constant false
        %311 = vector.transfer_read %15[%rank, %c10], %false_53 {permutation_map = affine_map<(d0, d1) -> (0)>} : tensor<9x2xi1>, vector<2xi1>
        %312 = vector.broadcast %true_49 : i1 to vector<9xi1>
        %313 = vector.contract {indexing_maps = [affine_map<(d0, d1) -> (d0, d1)>, affine_map<(d0, d1) -> (d1)>, affine_map<(d0, d1) -> (d0)>], iterator_types = ["parallel", "reduction"], kind = #vector.kind<maxui>} %33, %56, %312 : vector<9x2xi1>, vector<2xi1> into vector<9xi1>
        %314 = index.floordivs %55, %305
        %315 = math.absf %2 : tensor<9xf32>
        %316 = memref.load %alloc[%c4, %c1] : memref<9x2xf16>
        %317 = arith.divsi %true, %false_1 : i1
        linalg.yield %275 : f32
      } -> tensor<4x4x4xf32>
      %282 = math.round %2 : tensor<9xf32>
      %283 = memref.alloca_scope  -> (memref<9xf16>) {
        %287 = math.exp %0 : tensor<9xf32>
        %288 = arith.addf %275, %275 : f32
        %cast_47 = tensor.cast %14 : tensor<2x2xi1> to tensor<?x?xi1>
        %289 = math.roundeven %2 : tensor<9xf32>
        %290 = math.tanh %2 : tensor<9xf32>
        %291 = affine.apply affine_map<(d0, d1) -> (((d1 * 2) ceildiv 32 + d1 * 2 + 64) * 32)>(%c3, %264)
        affine.store %c20_i16, %alloc_13[%c1, %c5] : memref<9x13xi16>
        %292 = arith.divf %extracted_44, %extracted_44 : f16
        %293 = vector.matrix_multiply %39, %26 {lhs_columns = 1 : i32, lhs_rows = 3 : i32, rhs_columns = 1 : i32} : (vector<3xf32>, vector<1xf32>) -> vector<3xf32>
        %294 = affine.min affine_map<(d0, d1) -> ((d1 ceildiv 32) floordiv 8 + 32)>(%c0, %55)
        %295 = arith.remf %cst_2, %cst_3 : f16
        %296 = index.casts %c1 : index to i32
        %297 = affine.apply affine_map<(d0, d1, d2, d3) -> (d3 floordiv 4 - 1)>(%c5, %rank, %c9, %264)
        %298 = vector.extract %50[4] : vector<6x2xi1>
        %299 = vector.matrix_multiply %39, %39 {lhs_columns = 3 : i32, lhs_rows = 1 : i32, rhs_columns = 1 : i32} : (vector<3xf32>, vector<3xf32>) -> vector<1xf32>
        %300 = tensor.empty() : tensor<13x13xf16>
        %301 = tensor.empty() : tensor<9x13xf16>
        %302 = linalg.matmul ins(%from_elements_43, %300 : tensor<9x13xf16>, tensor<13x13xf16>) outs(%301 : tensor<9x13xf16>) -> tensor<9x13xf16>
        %303 = math.atan %301 : tensor<9x13xf16>
        %304 = arith.cmpf oge, %cst_3, %cst_0 : f16
        %305 = arith.addf %cst_2, %cst_2 : f16
        %306 = tensor.empty() : tensor<9x2xi1>
        %rank_48 = tensor.rank %8 : tensor<9xi64>
        %false_49 = index.bool.constant false
        %307 = affine.max affine_map<(d0) -> (d0 floordiv 2 - 16, d0 + (d0 * 4) mod 8 - 16, d0 - 16, d0 - 16)>(%270)
        %308 = arith.maxsi %c20024_i16, %extracted_46 : i16
        %cast_50 = tensor.cast %12 : tensor<9xi1> to tensor<?xi1>
        %309 = affine.apply affine_map<(d0) -> (d0 floordiv 2)>(%40)
        %310 = vector.transpose %33, [0, 1] : vector<9x2xi1> to vector<9x2xi1>
        %311 = arith.remui %c24793613_i32, %c419814931_i32 : i32
        %312 = arith.negf %cst_0 : f16
        %313 = index.floordivs %rank_48, %c8
        %314 = vector.insert %56, %50 [1] : vector<2xi1> into vector<6x2xi1>
        %315 = vector.bitcast %298 : vector<2xi1> to vector<2xi1>
        memref.alloca_scope.return %alloc_21 : memref<9xf16>
      }
      %284 = arith.divui %extracted_46, %c20024_i16 : i16
      %285 = index.floordivs %c9, %c0
      %286 = math.absf %cst_3 : f16
      linalg.yield %275 : f32
    } -> tensor<4x4x4xf32>
    %80 = index.castu %c15 : index to i32
    %81 = math.log2 %reduced : tensor<9xf16>
    scf.index_switch %c11 
    case 1 {
      %257 = arith.maxui %c1707396316_i32, %c543644229_i32 : i32
      %rank_42 = tensor.rank %18 : tensor<9xf16>
      %rank_43 = tensor.rank %3 : tensor<9x13xf16>
      %258 = math.exp %21 : tensor<f16>
      %259 = bufferization.to_memref %10 : memref<9x2xi16>
      %260 = arith.cmpi ne, %c14567_i16, %c14567_i16 : i16
      %inserted_44 = tensor.insert %false_1 into %28[%c2, %c1] : tensor<9x13xi1>
      %261 = math.tanh %cst_4 : f16
      %262 = bufferization.clone %alloc_15 : memref<9xi16> to memref<9xi16>
      %cst_45 = arith.constant 1.000000e+00 : f32
      %263 = vector.transfer_read %2[%c1], %cst_45 : tensor<9xf32>, vector<f32>
      %264 = math.ctpop %4 : tensor<9x13xi16>
      %265 = math.atan %3 : tensor<9x13xf16>
      %alloc_46 = memref.alloc() : memref<9x2xf16>
      memref.copy %alloc, %alloc_46 : memref<9x2xf16> to memref<9x2xf16>
      %266 = vector.flat_transpose %60 {columns = 1 : i32, rows = 2 : i32} : vector<2xi1> -> vector<2xi1>
      %extracted_47 = tensor.extract %15[%c0, %c1] : tensor<9x2xi1>
      %267 = arith.shrsi %c14567_i16, %c20_i16 : i16
      scf.yield
    }
    default {
      %257 = arith.divsi %c1707396316_i32, %c24793613_i32 : i32
      %258 = arith.shli %c20_i16, %c14567_i16 : i16
      %259 = arith.negf %cst : f32
      %260 = math.log10 %cst_2 : f16
      %261 = vector.broadcast %41 : i64 to vector<i64>
      %262 = vector.transfer_write %261, %8[%c12] : vector<i64>, tensor<9xi64>
      %263 = arith.maxf %cst_4, %cst_0 : f16
      %264 = vector.load %alloc_19[%c2] : memref<9xf32>, vector<2x2xf32>
      %alloca_42 = memref.alloca() : memref<9x2xi16>
      %265 = arith.cmpf ord, %cst_3, %cst_4 : f16
      %266 = arith.floordivsi %c20024_i16, %c20024_i16 : i16
      %267 = vector.broadcast %false : i1 to vector<13xi1>
      %268 = vector.transfer_write %267, %28[%c11, %c9] {permutation_map = affine_map<(d0, d1) -> (d0)>} : vector<13xi1>, tensor<9x13xi1>
      %269 = index.ceildivs %37, %c1
      %270 = math.atan %reduced : tensor<9xf16>
      %271 = vector.transpose %261, [] : vector<i64> to vector<i64>
      %alloc_43 = memref.alloc() : memref<9x13xi1>
      %272 = math.atan %21 : tensor<f16>
    }
    %82 = arith.maxsi %c1707396316_i32, %c419814931_i32 : i32
    %83 = math.fpowi %cst_2, %c419814931_i32 : f16, i32
    %84 = arith.shrsi %c20024_i16, %c20024_i16 : i16
    %85 = affine.if affine_set<(d0) : (((d0 floordiv 128) mod 8) ceildiv 8 >= 0, d0 == 0, (d0 floordiv 128) * 2 == 0, (d0 floordiv 128) mod 8 >= 0)>(%c11) -> i32 {
      %splat_42 = tensor.splat %cst : tensor<9x2xf32>
      %alloc_43 = memref.alloc() : memref<2x2xf16>
      memref.copy %alloc_11, %alloc_43 : memref<2x2xf16> to memref<2x2xf16>
      memref.assume_alignment %alloc_20, 4 : memref<9xi16>
      %257 = memref.alloca_scope  -> (i16) {
        %264 = math.floor %0 : tensor<9xf32>
        %inserted_45 = tensor.insert %c14567_i16 into %4[%c6, %c8] : tensor<9x13xi16>
        %265 = arith.shli %c69295288_i64, %c69295288_i64 : i64
        %266 = math.absf %cst_0 : f16
        memref.tensor_store %75, %alloc_18 : memref<9x13xi32>
        %267 = arith.maxui %false_1, %false : i1
        %268 = vector.transpose %33, [1, 0] : vector<9x2xi1> to vector<2x9xi1>
        %269 = bufferization.to_tensor %alloc_21 : memref<9xf16>
        %270 = vector.transpose %56, [0] : vector<2xi1> to vector<2xi1>
        %271 = arith.negf %cst_4 : f16
        %272 = arith.maxui %false_1, %false : i1
        %273 = index.casts %c419814931_i32 : i32 to index
        %274 = memref.load %alloc_11[%c0, %c0] : memref<2x2xf16>
        %275 = math.fma %cst_2, %cst_3, %cst_3 : f16
        memref.assume_alignment %alloc_18, 8 : memref<9x13xi32>
        %276 = arith.maxf %cst_0, %cst_4 : f16
        %277 = math.cos %3 : tensor<9x13xf16>
        %278 = arith.remui %c20024_i16, %c20024_i16 : i16
        %279 = vector.matrix_multiply %26, %20 {lhs_columns = 1 : i32, lhs_rows = 1 : i32, rhs_columns = 4 : i32} : (vector<1xf32>, vector<4xf32>) -> vector<4xf32>
        %280 = arith.remui %false, %true : i1
        %281 = index.maxs %c4, %c7
        %282 = math.atan %cst : f32
        %283 = arith.ori %c24793613_i32, %c1707396316_i32 : i32
        %alloca_46 = memref.alloca() : memref<2x2xi32>
        %284 = vector.transpose %26, [0] : vector<1xf32> to vector<1xf32>
        %285 = arith.mulf %cst_0, %cst_4 : f16
        %286 = vector.matrix_multiply %60, %56 {lhs_columns = 2 : i32, lhs_rows = 1 : i32, rhs_columns = 1 : i32} : (vector<2xi1>, vector<2xi1>) -> vector<1xi1>
        %287 = index.add %34, %29
        %288 = math.tanh %cst_4 : f16
        %289 = math.expm1 %2 : tensor<9xf32>
        vector.print %39 : vector<3xf32>
        %290 = vector.broadcast %false : i1 to vector<i1>
        %291 = vector.transfer_write %290, %14[%c3, %c15] : vector<i1>, tensor<2x2xi1>
        memref.alloca_scope.return %c20024_i16 : i16
      }
      %258 = arith.cmpi sgt, %c69295288_i64, %c69295288_i64 : i64
      %259 = tensor.empty() : tensor<9x2xi1>
      %260 = linalg.matmul ins(%15, %14 : tensor<9x2xi1>, tensor<2x2xi1>) outs(%259 : tensor<9x2xi1>) -> tensor<9x2xi1>
      %alloc_44 = memref.alloc() : memref<13x13xf16>
      %261 = tensor.empty() : tensor<9x13xf16>
      %262 = linalg.matmul ins(%3, %alloc_44 : tensor<9x13xf16>, memref<13x13xf16>) outs(%261 : tensor<9x13xf16>) -> tensor<9x13xf16>
      %263 = bufferization.clone %alloc_12 : memref<9xi64> to memref<9xi64>
      affine.yield %c1707396316_i32 : i32
    } else {
      %257 = arith.mulf %cst_3, %cst_0 : f16
      %inserted_42 = tensor.insert %c20_i16 into %from_elements[%c4, %c9] : tensor<9x13xi16>
      %258 = math.atan %2 : tensor<9xf32>
      %259 = index.casts %c3 : index to i32
      %260 = index.ceildivs %34, %c12
      %261 = math.ipowi %c20024_i16, %c14567_i16 : i16
      %262 = vector.transpose %26, [0] : vector<1xf32> to vector<1xf32>
      %263 = arith.cmpi slt, %c14567_i16, %c14567_i16 : i16
      affine.yield %c419814931_i32 : i32
    }
    %86 = tensor.empty() : tensor<4x4x4xf32>
    %87 = linalg.generic {indexing_maps = [affine_map<(d0, d1, d2) -> (d0, d1, d2)>], iterator_types = ["parallel", "parallel", "parallel"]} outs(%86 : tensor<4x4x4xf32>) {
    ^bb0(%out: f32):
      %257 = math.rsqrt %3 : tensor<9x13xf16>
      %258 = arith.addi %c69295288_i64, %c721236507_i64 : i64
      %generated_42 = tensor.generate %52 {
      ^bb0(%arg0: index):
        %286 = math.fma %3, %3, %3 : tensor<9x13xf16>
        %287 = math.powf %cst_0, %cst_2 : f16
        %288 = vector.transpose %71, [1, 0] : vector<2x2xi1> to vector<2x2xi1>
        %dest_46, %accumulated_value_47 = vector.scan <xor>, %71, %56 {inclusive = false, reduction_dim = 1 : i64} : vector<2x2xi1>, vector<2xi1>
        tensor.yield %41 : i64
      } : tensor<?xi64>
      %259 = math.powf %21, %22 : tensor<f16>
      %260 = arith.floordivsi %c721236507_i64, %c69295288_i64 : i64
      %261 = math.absi %35 : tensor<9x2xi1>
      %262 = vector.multi_reduction <or>, %33, %true [0, 1] : vector<9x2xi1> to i1
      %263 = math.ctlz %c24793613_i32 : i32
      %264 = index.sub %52, %40
      %rank_43 = tensor.rank %cast : tensor<?xf32>
      %265 = arith.minui %c20_i16, %c14567_i16 : i16
      vector.print %20 : vector<4xf32>
      %true_44 = index.bool.constant true
      %266 = arith.subi %true, %false_1 : i1
      %267 = arith.subi %c20_i16, %c20_i16 : i16
      %268 = math.tanh %18 : tensor<9xf16>
      %269 = arith.floordivsi %true, %true_44 : i1
      %270 = scf.while (%arg0 = %26) : (vector<1xf32>) -> vector<1xf32> {
        %286 = bufferization.to_tensor %alloc_15 : memref<9xi16>
        memref.assume_alignment %alloc_21, 16 : memref<9xf16>
        %287 = arith.ori %false, %false_1 : i1
        %288 = arith.maxf %cst, %cst : f32
        %289 = arith.cmpf false, %cst_4, %cst_2 : f16
        %290 = math.fpowi %2, %5 : tensor<9xf32>, tensor<9xi32>
        %splat_46 = tensor.splat %cst_2 : tensor<9x2xf16>
        %291 = bufferization.to_tensor %alloc_13 : memref<9x13xi16>
        scf.condition(%false) %26 : vector<1xf32>
      } do {
      ^bb0(%arg0: vector<1xf32>):
        %286 = arith.maxsi %false, %false_1 : i1
        %287 = arith.negf %cst_4 : f16
        %288 = arith.divf %cst, %out : f32
        %289 = tensor.empty() : tensor<9x2xi1>
        %290 = linalg.matmul ins(%9, %14 : tensor<9x2xi1>, tensor<2x2xi1>) outs(%289 : tensor<9x2xi1>) -> tensor<9x2xi1>
        %291 = math.cos %out : f32
        %292 = affine.apply affine_map<(d0, d1) -> (d1 * 2)>(%34, %37)
        %293 = vector.contract {indexing_maps = [affine_map<(d0, d1) -> (d1, d0)>, affine_map<(d0, d1) -> (d1)>, affine_map<(d0, d1) -> (d0)>], iterator_types = ["parallel", "reduction"], kind = #vector.kind<or>} %71, %60, %60 : vector<2x2xi1>, vector<2xi1> into vector<2xi1>
        %294 = arith.ori %false_1, %false_1 : i1
        %295 = arith.remui %c1707396316_i32, %c1707396316_i32 : i32
        %296 = vector.broadcast %c20_i16 : i16 to vector<i16>
        %297 = vector.transfer_write %296, %6[%c2] : vector<i16>, tensor<9xi16>
        %298 = index.casts %c20024_i16 : i16 to index
        %299 = math.expm1 %3 : tensor<9x13xf16>
        %300 = vector.contract {indexing_maps = [affine_map<(d0, d1, d2) -> (d0, d2)>, affine_map<(d0, d1, d2) -> (d2, d1)>, affine_map<(d0, d1, d2) -> (d0, d1)>], iterator_types = ["parallel", "parallel", "reduction"], kind = #vector.kind<add>} %33, %71, %33 : vector<9x2xi1>, vector<2x2xi1> into vector<9x2xi1>
        %301 = arith.remui %c24793613_i32, %c24793613_i32 : i32
        %302 = index.maxs %c12, %c9
        %expanded = tensor.expand_shape %reduced [[0, 1]] : tensor<9xf16> into tensor<9x1xf16>
        scf.yield %26 : vector<1xf32>
      }
      %271 = vector.insert %out, %39 [0] : f32 into vector<3xf32>
      %272 = index.add %40, %c3
      %273 = math.atan %3 : tensor<9x13xf16>
      %274 = tensor.empty() : tensor<13x2xi64>
      %275 = tensor.empty() : tensor<9x2xi64>
      %276 = linalg.matmul ins(%1, %274 : tensor<9x13xi64>, tensor<13x2xi64>) outs(%275 : tensor<9x2xi64>) -> tensor<9x2xi64>
      %277 = affine.if affine_set<(d0, d1, d2) : ((d2 floordiv 4) ceildiv 32 >= 0, (d2 floordiv 4) ceildiv 32 - 2 >= 0, d1 >= 0)>(%c7, %c4, %c12) -> i64 {
        %286 = math.round %cst_3 : f16
        %287 = bufferization.clone %alloc_20 : memref<9xi16> to memref<9xi16>
        %288 = vector.transpose %39, [0] : vector<3xf32> to vector<3xf32>
        %289 = arith.shrsi %true, %true_44 : i1
        %false_46 = arith.constant false
        %290 = vector.transfer_read %9[%rank, %c2], %false_46 : tensor<9x2xi1>, vector<i1>
        %291 = math.absf %cst_3 : f16
        %292 = index.add %c8, %37
        %293 = arith.remui %c419814931_i32, %c543644229_i32 : i32
        affine.yield %c69295288_i64 : i64
      } else {
        %rank_46 = tensor.rank %reduced : tensor<9xf16>
        %286 = arith.maxf %cst, %out : f32
        %287 = math.ctpop %9 : tensor<9x2xi1>
        %288 = index.sizeof
        %289 = vector.multi_reduction <add>, %39, %cst [0] : vector<3xf32> to f32
        %rank_47 = tensor.rank %2 : tensor<9xf32>
        %290 = index.castu %c10 : index to i32
        %291 = arith.divsi %c20_i16, %c20024_i16 : i16
        affine.yield %c721236507_i64 : i64
      }
      %278 = bufferization.to_tensor %48 : memref<9xf32>
      %279 = index.add %34, %c0
      %280 = index.sub %47, %rank_43
      %c1_i16 = arith.constant 1 : i16
      %281 = vector.transfer_read %7[%46, %c11], %c1_i16 : tensor<9x13xi16>, vector<2xi16>
      %282 = math.sqrt %cst_4 : f16
      %283 = math.fma %cst_3, %cst_4, %cst_3 : f16
      %284 = vector.extract %20[3] : vector<4xf32>
      %alloca_45 = memref.alloca() : memref<9xi64>
      %285 = math.atan2 %cst_2, %cst_2 : f16
      linalg.yield %cst : f32
    } -> tensor<4x4x4xf32>
    %88 = bufferization.to_tensor %48 : memref<9xf32>
    %89 = arith.mulf %cst_4, %cst_2 : f16
    %90 = index.add %55, %c9
    %91 = tensor.empty() : tensor<9xi64>
    %92 = math.powf %reduced, %reduced : tensor<9xf16>
    %93 = arith.maxf %cst_4, %cst_4 : f16
    %94 = index.sub %34, %c8
    %95 = math.powf %cst_2, %cst_0 : f16
    %96 = vector.extract %50[0] : vector<6x2xi1>
    %97 = arith.mulf %cst_3, %cst_2 : f16
    %98 = index.castu %c69295288_i64 : i64 to index
    %99 = index.maxs %c4, %c8
    %100 = math.absf %88 : tensor<9xf32>
    %101 = arith.maxsi %c419814931_i32, %c24793613_i32 : i32
    %102 = math.exp %cst_4 : f16
    %103 = arith.floordivsi %c721236507_i64, %c69295288_i64 : i64
    %104 = vector.transpose %26, [0] : vector<1xf32> to vector<1xf32>
    %105 = arith.remui %c419814931_i32, %c24793613_i32 : i32
    %106 = math.log1p %3 : tensor<9x13xf16>
    %107 = arith.cmpi sgt, %false_1, %false : i1
    %108 = arith.ori %c24793613_i32, %c419814931_i32 : i32
    %109 = arith.xori %c69295288_i64, %41 : i64
    %110 = arith.remf %cst_0, %cst_2 : f16
    %111 = tensor.empty() : tensor<4x4x4xf32>
    %112 = linalg.generic {indexing_maps = [affine_map<(d0, d1, d2) -> (d0, d1, d2)>], iterator_types = ["parallel", "parallel", "parallel"]} outs(%111 : tensor<4x4x4xf32>) {
    ^bb0(%out: f32):
      %257 = math.roundeven %3 : tensor<9x13xf16>
      %inserted_42 = tensor.insert %c14567_i16 into %6[%c0] : tensor<9xi16>
      %258 = index.ceildivu %c15, %c11
      %259 = affine.max affine_map<(d0, d1, d2) -> (d1 + 64, d0, -d0)>(%c4, %c10, %34)
      %260 = math.atan2 %cst_0, %cst_4 : f16
      %261 = math.tanh %out : f32
      %262 = math.cos %cst_4 : f16
      %263 = arith.divf %cst_3, %cst_4 : f16
      %264 = arith.divui %false_1, %true : i1
      vector.print %26 : vector<1xf32>
      %265 = math.ceil %3 : tensor<9x13xf16>
      %266 = arith.remf %cst_4, %cst_0 : f16
      %267 = index.floordivs %c12, %c5
      %268 = arith.subi %c20_i16, %c14567_i16 : i16
      %269 = memref.load %alloc_20[%c7] : memref<9xi16>
      %270 = vector.contract {indexing_maps = [affine_map<(d0, d1, d2) -> (d2, d0)>, affine_map<(d0, d1, d2) -> (d2, d1)>, affine_map<(d0, d1, d2) -> (d0, d1)>], iterator_types = ["parallel", "parallel", "reduction"], kind = #vector.kind<maxsi>} %71, %71, %71 : vector<2x2xi1>, vector<2x2xi1> into vector<2x2xi1>
      %271 = affine.max affine_map<(d0, d1) -> (0, -(d0 + 10), (((d0 + 8) floordiv 128) floordiv 32) floordiv 128)>(%55, %c8)
      %272 = affine.max affine_map<(d0, d1, d2) -> (d2 - d0, ((d2 - d0) ceildiv 4) floordiv 8, (d2 - d0) ceildiv 4, (d2 - d0) ceildiv 4)>(%c10, %c8, %29)
      %273 = vector.flat_transpose %20 {columns = 2 : i32, rows = 2 : i32} : vector<4xf32> -> vector<4xf32>
      %274 = math.fpowi %0, %5 : tensor<9xf32>, tensor<9xi32>
      %275 = vector.transpose %56, [0] : vector<2xi1> to vector<2xi1>
      %276 = arith.mulf %cst_4, %cst_0 : f16
      %277 = arith.ori %c14567_i16, %c20_i16 : i16
      %278 = index.floordivs %c12, %47
      %279 = index.add %c15, %c12
      %280 = vector.extract_strided_slice %20 {offsets = [1], sizes = [1], strides = [1]} : vector<4xf32> to vector<1xf32>
      %281 = bufferization.to_memref %8 : memref<9xi64>
      %282 = affine.max affine_map<(d0, d1, d2) -> (d0 - 8, d1 + d2 floordiv 8, d2 ceildiv 16, d1 * 2)>(%98, %c15, %259)
      %283 = vector.broadcast %c14 : index to vector<9xindex>
      %284 = vector.broadcast %false_1 : i1 to vector<9xi1>
      %285 = vector.broadcast %c20024_i16 : i16 to vector<9xi16>
      vector.scatter %alloc_20[%c3] [%283], %284, %285 : memref<9xi16>, vector<9xindex>, vector<9xi1>, vector<9xi16>
      %286 = arith.mulf %cst_4, %cst_0 : f16
      bufferization.dealloc_tensor %17 : tensor<9x2xi1>
      %287 = math.floor %cst_4 : f16
      linalg.yield %cst : f32
    } -> tensor<4x4x4xf32>
    %splat = tensor.splat %c69295288_i64 : tensor<2x2xi64>
    %113 = arith.maxui %false_1, %true : i1
    %alloc_28 = memref.alloc() : memref<9xf16>
    memref.copy %alloc_21, %alloc_28 : memref<9xf16> to memref<9xf16>
    %114 = bufferization.to_memref %2 : memref<9xf32>
    %115 = math.absf %cst_2 : f16
    %116 = math.expm1 %0 : tensor<9xf32>
    %117 = scf.execute_region -> index {
      %257 = math.expm1 %reduced : tensor<9xf16>
      %258 = arith.subi %false_1, %false : i1
      %259 = math.floor %reduced : tensor<9xf16>
      %260 = arith.ori %c1707396316_i32, %c419814931_i32 : i32
      %261 = arith.maxsi %false_1, %true : i1
      %alloca_42 = memref.alloca() : memref<9x13xi32>
      %262 = tensor.empty(%c5) : tensor<9x?xi16>
      %263 = math.sqrt %22 : tensor<f16>
      %264 = math.log %cst_3 : f16
      %alloc_43 = memref.alloc() : memref<2x2xi16>
      memref.copy %alloc_8, %alloc_43 : memref<2x2xi16> to memref<2x2xi16>
      %generated_44 = tensor.generate %47 {
      ^bb0(%arg0: index, %arg1: index):
        %270 = math.roundeven %cst_3 : f16
        %271 = index.sizeof
        %272 = math.exp2 %22 : tensor<f16>
        %rank_45 = tensor.rank %7 : tensor<9x13xi16>
        tensor.yield %c69295288_i64 : i64
      } : tensor<?x2xi64>
      %265 = arith.divui %c14567_i16, %c20024_i16 : i16
      %266 = math.log %reduced : tensor<9xf16>
      %267 = vector.contract {indexing_maps = [affine_map<(d0) -> (d0)>, affine_map<(d0) -> (d0)>, affine_map<(d0) -> ()>], iterator_types = ["reduction"], kind = #vector.kind<minui>} %96, %96, %true : vector<2xi1>, vector<2xi1> into i1
      %268 = bufferization.to_tensor %alloc_15 : memref<9xi16>
      %269 = vector.matrix_multiply %39, %20 {lhs_columns = 1 : i32, lhs_rows = 3 : i32, rhs_columns = 4 : i32} : (vector<3xf32>, vector<4xf32>) -> vector<12xf32>
      scf.yield %34 : index
    }
    %118 = arith.mulf %cst_0, %cst_2 : f16
    %119 = math.sqrt %88 : tensor<9xf32>
    %120 = index.maxs %52, %c11
    %121 = arith.floordivsi %c20_i16, %c14567_i16 : i16
    %122 = index.sub %c8, %c8
    %123 = index.divs %29, %37
    bufferization.dealloc_tensor %1 : tensor<9x13xi64>
    %124 = arith.maxf %cst, %cst : f32
    %125 = arith.addf %cst_2, %cst_2 : f16
    %126 = math.sqrt %cst_4 : f16
    %127 = scf.execute_region -> tensor<9x2xi16> {
      %from_elements_42 = tensor.from_elements %cst_4, %cst_2, %cst_4, %cst_3, %cst_0, %cst_2, %cst_0, %cst_2, %cst_4, %cst_3, %cst_2, %cst_2, %cst_4, %cst_4, %cst_0, %cst_3, %cst_3, %cst_0, %cst_2, %cst_0, %cst_3, %cst_0, %cst_4, %cst_4, %cst_3, %cst_3, %cst_4, %cst_4, %cst_3, %cst_2, %cst_3, %cst_3, %cst_4, %cst_3, %cst_2, %cst_2, %cst_2, %cst_3, %cst_4, %cst_3, %cst_3, %cst_2, %cst_4, %cst_4, %cst_4, %cst_0, %cst_0, %cst_4, %cst_2, %cst_4, %cst_0, %cst_3, %cst_3, %cst_2, %cst_2, %cst_4, %cst_4, %cst_2, %cst_0, %cst_0, %cst_3, %cst_3, %cst_4, %cst_3, %cst_3, %cst_4, %cst_3, %cst_0, %cst_3, %cst_3, %cst_2, %cst_0, %cst_2, %cst_0, %cst_3, %cst_3, %cst_2, %cst_4, %cst_2, %cst_0, %cst_3, %cst_3, %cst_3, %cst_3, %cst_2, %cst_0, %cst_3, %cst_4, %cst_3, %cst_2, %cst_0, %cst_2, %cst_4, %cst_2, %cst_2, %cst_0, %cst_2, %cst_0, %cst_2, %cst_0, %cst_4, %cst_2, %cst_2, %cst_0, %cst_0, %cst_4, %cst_2, %cst_2, %cst_0, %cst_2, %cst_4, %cst_2, %cst_0, %cst_0, %cst_0, %cst_0, %cst_2 : tensor<9x13xf16>
      %257 = vector.reduction <mul>, %39 : vector<3xf32> into f32
      %258 = math.floor %3 : tensor<9x13xf16>
      %extracted_43 = tensor.extract %10[%c1, %c1] : tensor<9x2xi16>
      scf.index_switch %47 
      case 1 {
        %269 = vector.matrix_multiply %96, %96 {lhs_columns = 2 : i32, lhs_rows = 1 : i32, rhs_columns = 1 : i32} : (vector<2xi1>, vector<2xi1>) -> vector<1xi1>
        %270 = arith.addi %c14567_i16, %c14567_i16 : i16
        %271 = tensor.empty(%c6) : tensor<?xf32>
        %272 = arith.remui %c20024_i16, %extracted_43 : i16
        %273 = math.ctpop %8 : tensor<9xi64>
        %274 = arith.mulf %cst_4, %cst_3 : f16
        %cast_45 = tensor.cast %10 : tensor<9x2xi16> to tensor<?x?xi16>
        %275 = arith.ori %false, %false : i1
        %276 = arith.mulf %cst_2, %cst_0 : f16
        %277 = arith.divui %c721236507_i64, %c721236507_i64 : i64
        %alloca_46 = memref.alloca() : memref<9x2xf16>
        %278 = arith.remf %cst_4, %cst_0 : f16
        %279 = bufferization.clone %alloc_10 : memref<9x13xi32> to memref<9x13xi32>
        %280 = math.cos %2 : tensor<9xf32>
        %281 = vector.contract {indexing_maps = [affine_map<(d0, d1) -> (d1)>, affine_map<(d0, d1) -> (d1, d0)>, affine_map<(d0, d1) -> (d0)>], iterator_types = ["parallel", "reduction"], kind = #vector.kind<maxui>} %96, %71, %60 : vector<2xi1>, vector<2x2xi1> into vector<2xi1>
        %cast_47 = tensor.cast %7 : tensor<9x13xi16> to tensor<?x?xi16>
        scf.yield
      }
      default {
        %269 = arith.maxui %c543644229_i32, %c24793613_i32 : i32
        %270 = arith.maxf %cst_0, %cst_3 : f16
        %271 = arith.cmpi ne, %true, %true : i1
        %272 = affine.apply affine_map<(d0) -> (d0 * 2 - (d0 mod 128) * 128)>(%c12)
        %273 = math.expm1 %2 : tensor<9xf32>
        %274 = vector.matrix_multiply %56, %60 {lhs_columns = 2 : i32, lhs_rows = 1 : i32, rhs_columns = 1 : i32} : (vector<2xi1>, vector<2xi1>) -> vector<1xi1>
        %275 = math.tanh %cst : f32
        %276 = index.divs %123, %272
        %alloca_45 = memref.alloca() : memref<9x2xi64>
        %277 = arith.cmpi uge, %c14567_i16, %extracted_43 : i16
        %278 = affine.min affine_map<(d0, d1) -> ((d0 floordiv 8) * 2)>(%34, %c3)
        %279 = bufferization.to_memref %10 : memref<9x2xi16>
        %280 = math.absi %14 : tensor<2x2xi1>
        %281 = arith.maxf %cst_3, %cst_2 : f16
        %282 = vector.extract_strided_slice %26 {offsets = [0], sizes = [1], strides = [1]} : vector<1xf32> to vector<1xf32>
        %283 = arith.ori %41, %41 : i64
      }
      %c0_i16 = arith.constant 0 : i16
      %259 = vector.transfer_read %alloc_8[%98, %29], %c0_i16 : memref<2x2xi16>, vector<13xi16>
      %260 = math.sqrt %21 : tensor<f16>
      %261 = bufferization.clone %alloc_11 : memref<2x2xf16> to memref<2x2xf16>
      %262 = math.log1p %0 : tensor<9xf32>
      %263 = arith.divf %cst_3, %cst_0 : f16
      %264 = arith.floordivsi %c0_i16, %extracted_43 : i16
      %265 = math.tanh %0 : tensor<9xf32>
      %266 = math.rsqrt %reduced : tensor<9xf16>
      %267 = math.exp %from_elements_42 : tensor<9x13xf16>
      %splat_44 = tensor.splat %c69295288_i64 : tensor<9x13xi64>
      %268 = bufferization.to_tensor %alloc_15 : memref<9xi16>
      scf.yield %10 : tensor<9x2xi16>
    }
    %128 = tensor.empty() : tensor<4x4x4xf32>
    %129 = tensor.empty() : tensor<4x4xf32>
    %130 = tensor.empty() : tensor<4xf32>
    %131 = linalg.generic {indexing_maps = [affine_map<(d0, d1, d2) -> (d0, d1)>, affine_map<(d0, d1, d2) -> (d0)>, affine_map<(d0, d1, d2) -> (d0, d1, d2)>], iterator_types = ["parallel", "parallel", "parallel"]} ins(%129, %130 : tensor<4x4xf32>, tensor<4xf32>) outs(%128 : tensor<4x4x4xf32>) {
    ^bb0(%in: f32, %in_42: f32, %out: f32):
      %257 = arith.mulf %cst_3, %cst_4 : f16
      %258 = math.log2 %3 : tensor<9x13xf16>
      %splat_43 = tensor.splat %true : tensor<2x2xi1>
      %259 = math.absi %10 : tensor<9x2xi16>
      %260 = math.expm1 %reduced : tensor<9xf16>
      %true_44 = index.bool.constant true
      %261 = arith.floordivsi %false, %false_1 : i1
      memref.copy %alloc_15, %alloc_20 : memref<9xi16> to memref<9xi16>
      %262 = arith.negf %out : f32
      %263 = tensor.empty() : tensor<9x13xi1>
      vector.print %33 : vector<9x2xi1>
      %264 = affine.max affine_map<(d0) -> (d0, d0 * 128, d0 - 2, d0 mod 16)>(%c14)
      %265 = vector.transpose %50, [1, 0] : vector<6x2xi1> to vector<2x6xi1>
      %266 = arith.shrsi %c14567_i16, %c20_i16 : i16
      %267 = math.fma %88, %2, %2 : tensor<9xf32>
      %268 = vector.insert %56, %50 [1] : vector<2xi1> into vector<6x2xi1>
      %269 = index.ceildivs %c6, %c8
      %270 = arith.ori %false_1, %false : i1
      %271 = memref.load %alloc_14[%c1, %c0] : memref<9x2xi64>
      %272 = tensor.empty() : tensor<4x4x4xf32>
      %alloc_45 = memref.alloc() : memref<4x4xf32>
      %273 = linalg.generic {indexing_maps = [affine_map<(d0, d1, d2) -> (d0, d1)>, affine_map<(d0, d1, d2) -> (d0, d1)>, affine_map<(d0, d1, d2) -> (d0, d1)>, affine_map<(d0, d1, d2) -> (d0, d1, d2)>], iterator_types = ["parallel", "parallel", "parallel"]} ins(%alloc_45, %alloc_45, %alloc_45 : memref<4x4xf32>, memref<4x4xf32>, memref<4x4xf32>) outs(%272 : tensor<4x4x4xf32>) {
      ^bb0(%in_49: f32, %in_50: f32, %in_51: f32, %out_52: f32):
        %dest_53, %accumulated_value_54 = vector.scan <maxui>, %71, %56 {inclusive = true, reduction_dim = 1 : i64} : vector<2x2xi1>, vector<2xi1>
        %284 = arith.negf %in_51 : f32
        %true_55 = index.bool.constant true
        %285 = index.castu %true_44 : i1 to index
        %286 = index.castu %123 : index to i32
        %287 = vector.multi_reduction <xor>, %71, %60 [1] : vector<2x2xi1> to vector<2xi1>
        bufferization.dealloc_tensor %15 : tensor<9x2xi1>
        %288 = math.powf %0, %2 : tensor<9xf32>
        %289 = arith.xori %true, %false : i1
        %290 = affine.load %114[%c11] : memref<9xf32>
        %291 = math.exp2 %in_49 : f32
        %292 = math.log1p %2 : tensor<9xf32>
        %293 = arith.maxf %in_49, %in_51 : f32
        %294 = math.log1p %22 : tensor<f16>
        memref.copy %alloc_14, %alloc_9 : memref<9x2xi64> to memref<9x2xi64>
        %extracted_56 = tensor.extract %0[%c3] : tensor<9xf32>
        %295 = math.roundeven %3 : tensor<9x13xf16>
        %296 = arith.remf %cst_0, %cst_2 : f16
        %297 = index.castu %true_55 : i1 to index
        %298 = math.exp2 %290 : f32
        %299 = index.ceildivu %c7, %120
        %300 = math.floor %3 : tensor<9x13xf16>
        %301 = index.maxs %46, %37
        %rank_57 = tensor.rank %6 : tensor<9xi16>
        %302 = arith.remf %cst_0, %cst_2 : f16
        %303 = index.add %c12, %c5
        %304 = math.fma %290, %cst, %in_50 : f32
        %305 = math.tanh %reduced : tensor<9xf16>
        %306 = index.castu %c4 : index to i32
        %307 = arith.remsi %false_1, %true_44 : i1
        %308 = arith.subi %c69295288_i64, %c69295288_i64 : i64
        %309 = math.powf %out, %in_42 : f32
        linalg.yield %in_50 : f32
      } -> tensor<4x4x4xf32>
      %274 = vector.transpose %39, [0] : vector<3xf32> to vector<3xf32>
      %275 = math.rsqrt %3 : tensor<9x13xf16>
      %inserted_46 = tensor.insert %41 into %8[%c8] : tensor<9xi64>
      %rank_47 = tensor.rank %12 : tensor<9xi1>
      %276 = vector.broadcast %true : i1 to vector<6xi1>
      %277 = vector.contract {indexing_maps = [affine_map<(d0, d1) -> (d1)>, affine_map<(d0, d1) -> (d0, d1)>, affine_map<(d0, d1) -> (d0)>], iterator_types = ["parallel", "reduction"], kind = #vector.kind<maxui>} %60, %50, %276 : vector<2xi1>, vector<6x2xi1> into vector<6xi1>
      %278 = math.powf %reduced, %18 : tensor<9xf16>
      %splat_48 = tensor.splat %c20024_i16 : tensor<9x13xi16>
      %279 = tensor.empty() : tensor<9xi64>
      %mapped = linalg.map ins(%8, %8 : tensor<9xi64>, tensor<9xi64>) outs(%279 : tensor<9xi64>)
        (%in_49: i64, %in_50: i64) {
          %284 = vector.broadcast %true_44 : i1 to vector<6xi1>
          %285 = vector.contract {indexing_maps = [affine_map<(d0, d1) -> (d0, d1)>, affine_map<(d0, d1) -> (d1)>, affine_map<(d0, d1) -> (d0)>], iterator_types = ["parallel", "reduction"], kind = #vector.kind<minsi>} %50, %96, %284 : vector<6x2xi1>, vector<2xi1> into vector<6xi1>
          %286 = math.powf %22, %22 : tensor<f16>
          %287 = math.atan %cst_3 : f16
          %288 = bufferization.clone %alloc_7 : memref<9xi32> to memref<9xi32>
          %289 = memref.load %alloc_8[%c1, %c0] : memref<2x2xi16>
          %290 = math.powf %88, %2 : tensor<9xf32>
          memref.assume_alignment %alloc_8, 4 : memref<2x2xi16>
          %291 = index.castu %c8 : index to i32
          %292 = vector.matrix_multiply %60, %60 {lhs_columns = 2 : i32, lhs_rows = 1 : i32, rhs_columns = 1 : i32} : (vector<2xi1>, vector<2xi1>) -> vector<1xi1>
          %293 = vector.reduction <minui>, %60 : vector<2xi1> into i1
          %294 = math.ctpop %splat : tensor<2x2xi64>
          %295 = math.atan %88 : tensor<9xf32>
          %296 = index.ceildivu %269, %c12
          %297 = math.fma %cst, %in, %cst : f32
          %298 = math.round %reduced : tensor<9xf16>
          %299 = math.sqrt %in_42 : f32
          %300 = math.exp %3 : tensor<9x13xf16>
          %true_51 = index.bool.constant true
          vector.print %60 : vector<2xi1>
          %301 = affine.apply affine_map<(d0) -> (0)>(%269)
          %302 = vector.load %alloc_5[%c1, %c1] : memref<9x2xi32>, vector<2x2xi32>
          %303 = math.exp %out : f32
          %304 = arith.remui %true_51, %true : i1
          bufferization.dealloc_tensor %22 : tensor<f16>
          %305 = vector.broadcast %cst : f32 to vector<9xf32>
          %306 = vector.fma %305, %305, %305 : vector<9xf32>
          %307 = affine.max affine_map<(d0) -> (d0 * 2 - 16, -d0)>(%c7)
          bufferization.dealloc_tensor %127 : tensor<9x2xi16>
          %308 = index.ceildivs %94, %c6
          %309 = memref.load %alloc_9[%c4, %c0] : memref<9x2xi64>
          %cast_52 = tensor.cast %splat : tensor<2x2xi64> to tensor<?x?xi64>
          %310 = arith.remui %c69295288_i64, %c69295288_i64 : i64
          %311 = arith.shrsi %in_50, %c69295288_i64 : i64
          %c0_i64 = arith.constant 0 : i64
          linalg.yield %c0_i64 : i64
        }
      %280 = math.sqrt %2 : tensor<9xf32>
      %281 = index.floordivs %117, %269
      %282 = vector.outerproduct %56, %96, %71 {kind = #vector.kind<minui>} : vector<2xi1>, vector<2xi1>
      %283 = arith.remui %c543644229_i32, %c1707396316_i32 : i32
      linalg.yield %cst : f32
    } -> tensor<4x4x4xf32>
    %132 = bufferization.to_tensor %alloc_19 : memref<9xf32>
    %133 = affine.max affine_map<(d0) -> (d0 mod 4, d0 * 15, 0, d0 * 16)>(%c13)
    %134 = index.casts %c3 : index to i32
    %135 = math.atan %cst_0 : f16
    %136 = index.castu %c20024_i16 : i16 to index
    %137 = arith.shli %c24793613_i32, %c419814931_i32 : i32
    %138 = vector.multi_reduction <minsi>, %33, %56 [0] : vector<9x2xi1> to vector<2xi1>
    %139 = vector.insert %56, %33 [0] : vector<2xi1> into vector<9x2xi1>
    vector.print %33 : vector<9x2xi1>
    %140 = vector.broadcast %false : i1 to vector<9xi1>
    %dest, %accumulated_value = vector.scan <mul>, %33, %140 {inclusive = false, reduction_dim = 1 : i64} : vector<9x2xi1>, vector<9xi1>
    %141 = math.floor %cst_3 : f16
    %142 = affine.if affine_set<(d0, d1, d2) : (d0 == 0, (d0 mod 4) * 8 == 0, (d0 mod 4 - 17) ceildiv 32 == 0, (d0 mod 4) * 4 == 0)>(%c15, %c5, %c13) -> memref<9x13xi1> {
      %257 = vector.extract_strided_slice %33 {offsets = [7], sizes = [2], strides = [1]} : vector<9x2xi1> to vector<2x2xi1>
      %258 = arith.maxf %cst_4, %cst_2 : f16
      %259 = math.exp2 %3 : tensor<9x13xf16>
      %260 = math.ctlz %c14567_i16 : i16
      %261 = math.fma %cst_3, %cst_0, %cst_4 : f16
      %262 = bufferization.to_memref %21 : memref<f16>
      %263 = vector.extract %60[1] : vector<2xi1>
      %264 = arith.andi %c14567_i16, %c14567_i16 : i16
      affine.yield %alloc_6 : memref<9x13xi1>
    } else {
      %257 = tensor.empty() : tensor<9x2xi64>
      %mapped = linalg.map ins(%alloc_9, %alloc_9, %alloc_14 : memref<9x2xi64>, memref<9x2xi64>, memref<9x2xi64>) outs(%257 : tensor<9x2xi64>)
        (%in: i64, %in_42: i64, %in_43: i64) {
          %264 = math.exp %21 : tensor<f16>
          %265 = math.round %2 : tensor<9xf32>
          %alloc_44 = memref.alloc() : memref<9x13xf32>
          %266 = vector.broadcast %cst : f32 to vector<2x2xf32>
          %267 = vector.broadcast %c1707396316_i32 : i32 to vector<2x2xi32>
          %268 = vector.gather %alloc_44[%c10, %34] [%267], %71, %266 : memref<9x13xf32>, vector<2x2xi32>, vector<2x2xi1>, vector<2x2xf32> into vector<2x2xf32>
          %269 = math.roundeven %0 : tensor<9xf32>
          bufferization.dealloc_tensor %6 : tensor<9xi16>
          %270 = index.floordivs %c11, %94
          %271 = affine.max affine_map<(d0) -> (d0 ceildiv 128 + 32, d0 ceildiv 128, d0 ceildiv 128 + 32)>(%133)
          %272 = index.mul %c13, %29
          %from_elements_45 = tensor.from_elements %in, %c69295288_i64, %in_42, %c721236507_i64, %in_43, %in_42, %c721236507_i64, %c721236507_i64, %in, %in, %c721236507_i64, %in, %41, %in_42, %in_42, %41, %c69295288_i64, %in_42, %41, %c69295288_i64, %in_43, %41, %c721236507_i64, %41, %in_42, %in_42, %c69295288_i64, %41, %in_43, %in_43, %c69295288_i64, %c69295288_i64, %c721236507_i64, %41, %in_43, %in_43, %in, %c69295288_i64, %in, %41, %in_43, %41, %41, %c69295288_i64, %in_43, %in, %c69295288_i64, %c69295288_i64, %c721236507_i64, %c721236507_i64, %in, %in_42, %in_42, %in_43, %in_42, %in_42, %in_42, %in, %in_43, %c69295288_i64, %c721236507_i64, %c69295288_i64, %in, %c721236507_i64, %in_42, %in, %in_43, %c69295288_i64, %in_43, %in_43, %41, %c721236507_i64, %c69295288_i64, %in_43, %in_42, %c69295288_i64, %c721236507_i64, %41, %c721236507_i64, %in_42, %c69295288_i64, %c69295288_i64, %in_42, %in, %c69295288_i64, %in_43, %c69295288_i64, %41, %in, %41, %in_43, %in, %in, %c69295288_i64, %41, %in_43, %c721236507_i64, %in, %41, %c721236507_i64, %c721236507_i64, %in_43, %c721236507_i64, %41, %c69295288_i64, %in_42, %in, %in_43, %in_42, %in_43, %in, %c721236507_i64, %c69295288_i64, %c69295288_i64, %c69295288_i64, %in_43, %c69295288_i64 : tensor<9x13xi64>
          %273 = math.sqrt %cst_3 : f16
          vector.print %267 : vector<2x2xi32>
          %274 = affine.apply affine_map<(d0, d1) -> (0)>(%c7, %37)
          %275 = arith.minf %cst_4, %cst_4 : f16
          %276 = math.sqrt %22 : tensor<f16>
          %277 = arith.ori %c1707396316_i32, %c543644229_i32 : i32
          %278 = tensor.empty() : tensor<9x13xi32>
          %279 = index.ceildivs %37, %55
          %280 = math.powf %cst_4, %cst_2 : f16
          %281 = math.sqrt %3 : tensor<9x13xf16>
          %cast_46 = tensor.cast %91 : tensor<9xi64> to tensor<?xi64>
          %282 = vector.broadcast %cst_4 : f16 to vector<f16>
          vector.transfer_write %282, %alloc_21[%52] : vector<f16>, memref<9xf16>
          %283 = arith.maxui %true, %true : i1
          %284 = index.floordivs %274, %94
          %285 = arith.andi %in, %c721236507_i64 : i64
          %286 = arith.remf %cst_4, %cst_2 : f16
          %287 = index.ceildivu %rank, %120
          %false_47 = index.bool.constant false
          memref.copy %alloc_20, %alloc_15 : memref<9xi16> to memref<9xi16>
          %288 = index.sub %99, %136
          %289 = arith.maxf %cst_0, %cst_3 : f16
          %290 = math.log %cst : f32
          %291 = vector.matrix_multiply %96, %60 {lhs_columns = 2 : i32, lhs_rows = 1 : i32, rhs_columns = 1 : i32} : (vector<2xi1>, vector<2xi1>) -> vector<1xi1>
          %c0_i64 = arith.constant 0 : i64
          linalg.yield %c0_i64 : i64
        }
      %258 = arith.remui %c721236507_i64, %c69295288_i64 : i64
      %259 = index.maxs %120, %98
      %260 = arith.addi %c1707396316_i32, %c543644229_i32 : i32
      %261 = math.floor %22 : tensor<f16>
      vector.print %39 : vector<3xf32>
      %262 = arith.remf %cst_4, %cst_2 : f16
      %263 = math.atan %0 : tensor<9xf32>
      affine.yield %alloc_6 : memref<9x13xi1>
    }
    bufferization.dealloc_tensor %15 : tensor<9x2xi1>
    %143 = tensor.empty() : tensor<9x13xi64>
    %144 = math.floor %cst_0 : f16
    %145 = arith.subi %c543644229_i32, %c24793613_i32 : i32
    %alloca = memref.alloca() : memref<9x13xf16>
    %146 = tensor.empty() : tensor<i32>
    %147 = math.fpowi %21, %146 : tensor<f16>, tensor<i32>
    %148 = affine.if affine_set<(d0, d1, d2) : ((d2 floordiv 4) ceildiv 32 >= 0, (d2 floordiv 4) ceildiv 32 - 2 >= 0, d1 >= 0)>(%c12, %c5, %c0) -> i1 {
      %257 = index.maxu %117, %c12
      %258 = index.sub %c0, %rank
      %259 = math.ctpop %true : i1
      %generated_42 = tensor.generate %c10, %47 {
      ^bb0(%arg0: index, %arg1: index):
        %264 = arith.remf %cst_4, %cst_2 : f16
        %265 = math.fma %3, %3, %3 : tensor<9x13xf16>
        %266 = arith.maxf %cst, %cst : f32
        %267 = arith.maxui %c24793613_i32, %c1707396316_i32 : i32
        tensor.yield %c721236507_i64 : i64
      } : tensor<?x?xi64>
      %260 = math.atan2 %21, %21 : tensor<f16>
      %261 = index.castu %c10 : index to i32
      %262 = math.floor %cst_4 : f16
      %263 = index.ceildivs %133, %258
      affine.yield %false_1 : i1
    } else {
      %257 = arith.ori %c20_i16, %c14567_i16 : i16
      %258 = math.ctpop %5 : tensor<9xi32>
      %259 = arith.shli %c14567_i16, %c20024_i16 : i16
      %260 = vector.matrix_multiply %96, %96 {lhs_columns = 2 : i32, lhs_rows = 1 : i32, rhs_columns = 1 : i32} : (vector<2xi1>, vector<2xi1>) -> vector<1xi1>
      %splat_42 = tensor.splat %cst_3 : tensor<9xf16>
      %261 = math.log10 %2 : tensor<9xf32>
      %262 = arith.maxui %c721236507_i64, %c69295288_i64 : i64
      %263 = memref.atomic_rmw mins %c24793613_i32, %alloc_5[%c2, %c0] : (i32, memref<9x2xi32>) -> i32
      affine.yield %false : i1
    }
    %149 = bufferization.to_tensor %alloc_11 : memref<2x2xf16>
    %150 = math.absf %21 : tensor<f16>
    %151 = math.exp2 %cst_0 : f16
    %152 = bufferization.to_tensor %alloc_17 : memref<2x2xi1>
    %extracted = tensor.extract %4[%c0, %c2] : tensor<9x13xi16>
    %153 = bufferization.to_tensor %alloc_11 : memref<2x2xf16>
    %154 = index.sizeof
    %155 = math.fpowi %21, %146 : tensor<f16>, tensor<i32>
    %156 = vector.broadcast %cst_0 : f16 to vector<9xf16>
    %157 = vector.broadcast %false : i1 to vector<9xi1>
    %158 = vector.broadcast %c24793613_i32 : i32 to vector<9xi32>
    %159 = vector.gather %reduced[%37] [%158], %157, %156 : tensor<9xf16>, vector<9xi32>, vector<9xi1>, vector<9xf16> into vector<9xf16>
    %160 = affine.max affine_map<(d0, d1) -> (0, 0, d0 floordiv 16 - 2, -d1)>(%c0, %94)
    %161 = index.sub %122, %29
    %162 = arith.negf %cst_0 : f16
    %163 = math.tanh %cst : f32
    %164 = arith.subi %c20_i16, %c14567_i16 : i16
    %165 = vector.contract {indexing_maps = [affine_map<(d0) -> (d0)>, affine_map<(d0) -> (d0)>, affine_map<(d0) -> ()>], iterator_types = ["reduction"], kind = #vector.kind<maxf>} %26, %26, %cst : vector<1xf32>, vector<1xf32> into f32
    %166 = arith.maxf %cst, %cst : f32
    memref.tensor_store %8, %alloc_12 : memref<9xi64>
    %167 = index.casts %c5 : index to i32
    %168 = arith.shli %c419814931_i32, %c1707396316_i32 : i32
    %169 = affine.if affine_set<(d0) : ((d0 - 1) * 129 >= 0, (d0 - 1) * -8256 >= 0, 0 >= 0, d0 >= 0)>(%c9) -> f16 {
      %257 = index.sub %c12, %55
      %generated_42 = tensor.generate %c0 {
      ^bb0(%arg0: index):
        %264 = math.expm1 %cst_2 : f16
        %265 = vector.transpose %50, [0, 1] : vector<6x2xi1> to vector<6x2xi1>
        %266 = math.round %88 : tensor<9xf32>
        %267 = math.ctpop %from_elements : tensor<9x13xi16>
        tensor.yield %cst : f32
      } : tensor<?xf32>
      %258 = math.exp2 %cst_2 : f16
      %259 = arith.divf %cst_4, %cst_4 : f16
      %260 = vector.extract_strided_slice %156 {offsets = [6], sizes = [2], strides = [1]} : vector<9xf16> to vector<2xf16>
      %261 = vector.multi_reduction <minui>, %50, %false_1 [0, 1] : vector<6x2xi1> to i1
      %262 = vector.insert %261, %96 [0] : i1 into vector<2xi1>
      %263 = arith.shli %c419814931_i32, %c419814931_i32 : i32
      affine.yield %cst_2 : f16
    } else {
      %257 = arith.negf %cst_2 : f16
      %258 = math.powf %reduced, %reduced : tensor<9xf16>
      %259 = math.cos %0 : tensor<9xf32>
      %260 = math.fma %cst, %cst, %cst : f32
      %261 = memref.alloca_scope  -> (memref<9x2xf16>) {
        %267 = math.absf %22 : tensor<f16>
        %268 = math.roundeven %18 : tensor<9xf16>
        %269 = vector.matrix_multiply %39, %39 {lhs_columns = 3 : i32, lhs_rows = 1 : i32, rhs_columns = 1 : i32} : (vector<3xf32>, vector<3xf32>) -> vector<1xf32>
        %splat_44 = tensor.splat %extracted : tensor<9x2xi16>
        %270 = math.powf %3, %3 : tensor<9x13xf16>
        %271 = vector.extract_strided_slice %96 {offsets = [0], sizes = [1], strides = [1]} : vector<2xi1> to vector<1xi1>
        %272 = math.absf %2 : tensor<9xf32>
        %273 = arith.divf %cst_0, %cst_0 : f16
        %274 = arith.mulf %cst_4, %cst_2 : f16
        %from_elements_45 = tensor.from_elements %c20_i16, %extracted, %extracted, %c14567_i16, %extracted, %c20_i16, %extracted, %c20024_i16, %c20024_i16 : tensor<9xi16>
        %275 = arith.andi %c69295288_i64, %c721236507_i64 : i64
        %276 = arith.divsi %false_1, %false : i1
        %277 = math.cos %3 : tensor<9x13xf16>
        %278 = math.copysign %cst_3, %cst_0 : f16
        %279 = vector.load %alloc_14[%c0, %c1] : memref<9x2xi64>, vector<9x2xi64>
        %280 = arith.maxsi %c1707396316_i32, %c1707396316_i32 : i32
        %281 = index.maxs %c11, %c1
        %282 = math.exp %21 : tensor<f16>
        %283 = arith.maxsi %c69295288_i64, %41 : i64
        %284 = math.round %18 : tensor<9xf16>
        %alloc_46 = memref.alloc() : memref<2x2xi16>
        memref.copy %alloc_8, %alloc_46 : memref<2x2xi16> to memref<2x2xi16>
        %285 = bufferization.clone %alloc_6 : memref<9x13xi1> to memref<9x13xi1>
        %286 = math.log1p %22 : tensor<f16>
        %287 = math.exp %cst_4 : f16
        %288 = arith.cmpi uge, %c20_i16, %extracted : i16
        %rank_47 = tensor.rank %0 : tensor<9xf32>
        %289 = vector.reduction <minui>, %56 : vector<2xi1> into i1
        %290 = arith.cmpi sge, %41, %c69295288_i64 : i64
        %291 = math.sqrt %cst_3 : f16
        %alloc_48 = memref.alloc() : memref<13x9xf16>
        %292 = tensor.empty() : tensor<9x9xf16>
        %293 = linalg.matmul ins(%3, %alloc_48 : tensor<9x13xf16>, memref<13x9xf16>) outs(%292 : tensor<9x9xf16>) -> tensor<9x9xf16>
        %294 = arith.mulf %cst_2, %cst_4 : f16
        %295 = math.ctpop %11 : tensor<9xi64>
        memref.alloca_scope.return %alloc : memref<9x2xf16>
      }
      %262 = tensor.empty() : tensor<4x4x4xf32>
      %263 = linalg.generic {indexing_maps = [affine_map<(d0, d1, d2) -> (d0, d1, d2)>], iterator_types = ["parallel", "parallel", "parallel"]} outs(%262 : tensor<4x4x4xf32>) {
      ^bb0(%out: f32):
        %267 = vector.broadcast %c14567_i16 : i16 to vector<9x2xi16>
        %268 = vector.broadcast %c543644229_i32 : i32 to vector<9x2xi32>
        %269 = vector.gather %from_elements[%c11, %c14] [%268], %33, %267 : tensor<9x13xi16>, vector<9x2xi32>, vector<9x2xi1>, vector<9x2xi16> into vector<9x2xi16>
        %270 = vector.matrix_multiply %96, %60 {lhs_columns = 2 : i32, lhs_rows = 1 : i32, rhs_columns = 1 : i32} : (vector<2xi1>, vector<2xi1>) -> vector<1xi1>
        %271 = math.floor %0 : tensor<9xf32>
        %272 = index.add %34, %c12
        %273 = arith.maxf %cst_0, %cst_3 : f16
        %274 = math.tanh %reduced : tensor<9xf16>
        %275 = arith.maxf %cst_0, %cst_4 : f16
        %cast_44 = tensor.cast %splat : tensor<2x2xi64> to tensor<?x?xi64>
        %276 = arith.negf %out : f32
        %277 = arith.maxui %extracted, %c14567_i16 : i16
        %278 = math.expm1 %out : f32
        %279 = math.copysign %cst, %cst : f32
        %280 = arith.remui %c14567_i16, %extracted : i16
        memref.tensor_store %132, %alloc_19 : memref<9xf32>
        %281 = index.maxs %55, %c10
        %282 = affine.max affine_map<(d0, d1, d2, d3) -> ((d3 mod 128) floordiv 2, d2, (d0 mod 8) floordiv 2)>(%55, %c0, %c1, %c7)
        %283 = arith.addi %false, %true : i1
        %284 = vector.broadcast %out : f32 to vector<9x13xf32>
        %285 = vector.fma %284, %284, %284 : vector<9x13xf32>
        %alloc_45 = memref.alloc() : memref<9x2xf32>
        %286 = math.tanh %out : f32
        %splat_46 = tensor.splat %true : tensor<9xi1>
        %287 = index.sub %122, %136
        %288 = math.ctpop %15 : tensor<9x2xi1>
        %289 = arith.shli %c20_i16, %extracted : i16
        %290 = vector.matrix_multiply %39, %20 {lhs_columns = 1 : i32, lhs_rows = 3 : i32, rhs_columns = 4 : i32} : (vector<3xf32>, vector<4xf32>) -> vector<12xf32>
        %splat_47 = tensor.splat %c721236507_i64 : tensor<2x2xi64>
        %291 = vector.matrix_multiply %290, %39 {lhs_columns = 3 : i32, lhs_rows = 4 : i32, rhs_columns = 1 : i32} : (vector<12xf32>, vector<3xf32>) -> vector<4xf32>
        %292 = arith.cmpf oge, %out, %cst : f32
        %293 = vector.matrix_multiply %159, %159 {lhs_columns = 9 : i32, lhs_rows = 1 : i32, rhs_columns = 1 : i32} : (vector<9xf16>, vector<9xf16>) -> vector<1xf16>
        %294 = math.powf %132, %0 : tensor<9xf32>
        %295 = math.sqrt %2 : tensor<9xf32>
        %296 = vector.contract {indexing_maps = [affine_map<(d0) -> (d0)>, affine_map<(d0) -> (d0)>, affine_map<(d0) -> ()>], iterator_types = ["reduction"], kind = #vector.kind<add>} %60, %60, %true : vector<2xi1>, vector<2xi1> into i1
        linalg.yield %out : f32
      } -> tensor<4x4x4xf32>
      %264 = tensor.empty() : tensor<9x2xi1>
      %265 = linalg.matmul ins(%35, %152 : tensor<9x2xi1>, tensor<2x2xi1>) outs(%264 : tensor<9x2xi1>) -> tensor<9x2xi1>
      %266 = vector.broadcast %true : i1 to vector<6xi1>
      %dest_42, %accumulated_value_43 = vector.scan <minsi>, %50, %266 {inclusive = true, reduction_dim = 1 : i64} : vector<6x2xi1>, vector<6xi1>
      affine.yield %cst_4 : f16
    }
    %170 = vector.extract_strided_slice %26 {offsets = [0], sizes = [1], strides = [1]} : vector<1xf32> to vector<1xf32>
    %171 = arith.divui %41, %41 : i64
    %172 = index.castu %c3 : index to i32
    %173 = vector.transpose %156, [0] : vector<9xf16> to vector<9xf16>
    %174 = math.tanh %cst_4 : f16
    memref.store %cst_0, %alloc[%c0, %c0] : memref<9x2xf16>
    %175 = math.ctpop %false : i1
    %176 = vector.extract_strided_slice %159 {offsets = [1], sizes = [6], strides = [1]} : vector<9xf16> to vector<6xf16>
    %177 = bufferization.to_tensor %alloc_10 : memref<9x13xi32>
    memref.store %cst_3, %alloc_21[%c2] : memref<9xf16>
    %178 = math.log1p %cst_2 : f16
    %179 = memref.alloca_scope  -> (i16) {
      %257 = arith.addi %c721236507_i64, %41 : i64
      %258 = vector.transpose %39, [0] : vector<3xf32> to vector<3xf32>
      %259 = math.sqrt %2 : tensor<9xf32>
      %260 = vector.extract %159[1] : vector<9xf16>
      %261 = arith.ori %c20024_i16, %c14567_i16 : i16
      %262 = vector.matrix_multiply %176, %156 {lhs_columns = 3 : i32, lhs_rows = 2 : i32, rhs_columns = 3 : i32} : (vector<6xf16>, vector<9xf16>) -> vector<6xf16>
      %263 = arith.remui %c69295288_i64, %c721236507_i64 : i64
      %264 = math.cos %2 : tensor<9xf32>
      %265 = memref.load %48[%c2] : memref<9xf32>
      %266 = arith.remf %cst_4, %cst_0 : f16
      %dest_42, %accumulated_value_43 = vector.scan <and>, %33, %60 {inclusive = false, reduction_dim = 0 : i64} : vector<9x2xi1>, vector<2xi1>
      %267 = arith.subi %extracted, %c14567_i16 : i16
      %268 = arith.maxui %c543644229_i32, %c419814931_i32 : i32
      %269 = arith.shli %extracted, %c14567_i16 : i16
      %270 = memref.atomic_rmw maxs %c1707396316_i32, %alloc_7[%c5] : (i32, memref<9xi32>) -> i32
      %271 = vector.transpose %33, [1, 0] : vector<9x2xi1> to vector<2x9xi1>
      %false_44 = index.bool.constant false
      %splat_45 = tensor.splat %c24793613_i32 : tensor<9x13xi32>
      %272 = vector.extract %159[5] : vector<9xf16>
      %273 = vector.contract {indexing_maps = [affine_map<(d0) -> (d0)>, affine_map<(d0) -> (d0)>, affine_map<(d0) -> ()>], iterator_types = ["reduction"], kind = #vector.kind<minf>} %39, %39, %cst : vector<3xf32>, vector<3xf32> into f32
      %274 = index.sub %90, %c14
      bufferization.dealloc_tensor %cast : tensor<?xf32>
      %275 = arith.shli %false_1, %false_1 : i1
      %276 = arith.cmpf ogt, %cst_3, %cst_0 : f16
      %277 = math.tanh %21 : tensor<f16>
      %278 = math.fma %22, %21, %21 : tensor<f16>
      %279 = vector.extract_strided_slice %158 {offsets = [7], sizes = [2], strides = [1]} : vector<9xi32> to vector<2xi32>
      %280 = index.mul %120, %161
      %281 = arith.shrsi %c24793613_i32, %c419814931_i32 : i32
      %282 = index.floordivs %40, %47
      %283 = arith.ori %c543644229_i32, %c543644229_i32 : i32
      %alloc_46 = memref.alloc() : memref<9x13xf32>
      %284 = vector.broadcast %cst : f32 to vector<2x2xf32>
      %285 = vector.broadcast %c24793613_i32 : i32 to vector<2x2xi32>
      %286 = vector.gather %alloc_46[%160, %280] [%285], %71, %284 : memref<9x13xf32>, vector<2x2xi32>, vector<2x2xi1>, vector<2x2xf32> into vector<2x2xf32>
      memref.alloca_scope.return %extracted : i16
    }
    %180 = vector.transpose %158, [0] : vector<9xi32> to vector<9xi32>
    %181 = math.ceil %reduced : tensor<9xf16>
    %generated = tensor.generate %90 {
    ^bb0(%arg0: index):
      %257 = math.cos %0 : tensor<9xf32>
      %258 = tensor.empty() : tensor<9xf16>
      %alloc_42 = memref.alloc() : memref<13x9xi16>
      %259 = tensor.empty() : tensor<9x9xi16>
      %260 = linalg.matmul ins(%from_elements, %alloc_42 : tensor<9x13xi16>, memref<13x9xi16>) outs(%259 : tensor<9x9xi16>) -> tensor<9x9xi16>
      %extracted_43 = tensor.extract %8[%c2] : tensor<9xi64>
      tensor.yield %c721236507_i64 : i64
    } : tensor<?xi64>
    %splat_29 = tensor.splat %extracted : tensor<9xi16>
    %182 = index.ceildivu %94, %122
    %183 = math.fma %2, %2, %0 : tensor<9xf32>
    %184 = math.fma %3, %3, %3 : tensor<9x13xf16>
    %185 = vector.broadcast %179 : i16 to vector<i16>
    %186 = vector.transfer_write %185, %10[%c14, %c10] : vector<i16>, tensor<9x2xi16>
    %cast_30 = tensor.cast %11 : tensor<9xi64> to tensor<?xi64>
    %187 = arith.ori %c543644229_i32, %c1707396316_i32 : i32
    %188 = arith.subi %c1707396316_i32, %c24793613_i32 : i32
    %189 = index.maxs %98, %90
    %190 = arith.negf %cst : f32
    %191 = index.floordivs %c15, %40
    %192 = arith.floordivsi %extracted, %c14567_i16 : i16
    %193 = arith.remf %cst_3, %cst_2 : f16
    %194 = index.ceildivu %29, %c8
    %195 = affine.load %alloc_19[%c1] : memref<9xf32>
    %196 = scf.execute_region -> tensor<9x2xi1> {
      %257 = index.floordivs %c10, %133
      %dest_42, %accumulated_value_43 = vector.scan <maxui>, %50, %96 {inclusive = false, reduction_dim = 0 : i64} : vector<6x2xi1>, vector<2xi1>
      %258 = math.fma %cst, %cst, %cst : f32
      %259 = vector.contract {indexing_maps = [affine_map<(d0) -> (d0)>, affine_map<(d0) -> (d0)>, affine_map<(d0) -> ()>], iterator_types = ["reduction"], kind = #vector.kind<minui>} %158, %158, %c24793613_i32 : vector<9xi32>, vector<9xi32> into i32
      %260 = bufferization.clone %alloc_11 : memref<2x2xf16> to memref<2x2xf16>
      %alloc_44 = memref.alloc() : memref<9x13xf32>
      %261 = memref.alloca_scope  -> (memref<9xi16>) {
        %268 = math.sqrt %149 : tensor<2x2xf16>
        memref.store %false_1, %alloc_6[%c0, %c3] : memref<9x13xi1>
        %269 = arith.negf %195 : f32
        %270 = index.sub %c9, %47
        %271 = arith.ori %179, %c20_i16 : i16
        %272 = math.log1p %2 : tensor<9xf32>
        %273 = bufferization.to_tensor %alloc_17 : memref<2x2xi1>
        %274 = arith.floordivsi %c14567_i16, %c14567_i16 : i16
        %extracted_47 = tensor.extract %5[%c6] : tensor<9xi32>
        %275 = math.floor %3 : tensor<9x13xf16>
        %276 = math.powf %153, %149 : tensor<2x2xf16>
        %277 = math.floor %149 : tensor<2x2xf16>
        %278 = index.ceildivs %c0, %189
        %279 = arith.ori %c20024_i16, %c20024_i16 : i16
        %cast_48 = tensor.cast %3 : tensor<9x13xf16> to tensor<?x?xf16>
        %280 = index.add %40, %c3
        %281 = arith.maxui %c1707396316_i32, %c543644229_i32 : i32
        %282 = vector.broadcast %195 : f32 to vector<9xf32>
        %283 = vector.fma %282, %282, %282 : vector<9xf32>
        %284 = arith.remsi %c14567_i16, %c14567_i16 : i16
        %285 = vector.extract_strided_slice %20 {offsets = [0], sizes = [1], strides = [1]} : vector<4xf32> to vector<1xf32>
        %286 = math.expm1 %cst_3 : f16
        %287 = arith.maxui %false_1, %false_1 : i1
        %288 = math.sqrt %195 : f32
        %289 = math.fma %22, %22, %22 : tensor<f16>
        %alloc_49 = memref.alloc() : memref<13x9xi64>
        %290 = tensor.empty() : tensor<9x9xi64>
        %291 = linalg.matmul ins(%1, %alloc_49 : tensor<9x13xi64>, memref<13x9xi64>) outs(%290 : tensor<9x9xi64>) -> tensor<9x9xi64>
        %292 = math.sqrt %132 : tensor<9xf32>
        %293 = index.casts %c6 : index to i32
        %294 = affine.max affine_map<(d0) -> (((((d0 + 12) * 2) ceildiv 64) floordiv 64) mod 64, d0 + 20, (((d0 + 12) * 2) ceildiv 64) floordiv 64)>(%40)
        %295 = vector.extract %33[3] : vector<9x2xi1>
        %extracted_50 = tensor.extract %88[%c0] : tensor<9xf32>
        %296 = arith.subi %c20024_i16, %c20_i16 : i16
        %alloca_51 = memref.alloca() : memref<2x2xi32>
        memref.alloca_scope.return %alloc_15 : memref<9xi16>
      }
      %262 = arith.divf %cst_3, %cst_0 : f16
      %263 = math.tanh %22 : tensor<f16>
      vector.print %71 : vector<2x2xi1>
      %264 = math.sqrt %149 : tensor<2x2xf16>
      %alloc_45 = memref.alloc() : memref<9x13xi32>
      %265 = index.floordivs %c0, %c1
      %splat_46 = tensor.splat %c1707396316_i32 : tensor<2x2xi32>
      %266 = math.absi %1 : tensor<9x13xi64>
      %267 = index.sub %99, %c7
      scf.yield %16 : tensor<9x2xi1>
    }
    %197 = index.sub %c1, %99
    %198 = arith.negf %195 : f32
    %199 = scf.index_switch %c13 -> vector<9xf16> 
    case 1 {
      %257 = index.maxs %46, %90
      %258 = vector.extract %39[0] : vector<3xf32>
      %alloca_42 = memref.alloca() : memref<9x2xf32>
      %259 = math.rsqrt %22 : tensor<f16>
      %260 = vector.reduction <minf>, %170 : vector<1xf32> into f32
      %261 = vector.transpose %159, [0] : vector<9xf16> to vector<9xf16>
      %262 = vector.extract %71[1] : vector<2x2xi1>
      %263 = arith.cmpi slt, %true, %true : i1
      %264 = math.expm1 %22 : tensor<f16>
      %265 = arith.maxui %41, %c69295288_i64 : i64
      %266 = arith.divui %false_1, %false : i1
      %267 = math.round %195 : f32
      %268 = memref.alloca_scope  -> (f16) {
        %272 = index.sub %29, %123
        %273 = arith.cmpf true, %cst_0, %cst_2 : f16
        %from_elements_43 = tensor.from_elements %c721236507_i64, %41, %c721236507_i64, %c721236507_i64 : tensor<2x2xi64>
        %274 = bufferization.clone %alloc_18 : memref<9x13xi32> to memref<9x13xi32>
        %275 = arith.cmpf ugt, %cst_3, %cst_2 : f16
        %splat_44 = tensor.splat %41 : tensor<2x2xi64>
        %alloc_45 = memref.alloc() : memref<2x2xi1>
        memref.copy %alloc_17, %alloc_45 : memref<2x2xi1> to memref<2x2xi1>
        %276 = affine.apply affine_map<(d0, d1) -> (((d1 * 2) ceildiv 32 + d1 * 2 + 64) * 32)>(%117, %191)
        memref.assume_alignment %274, 2 : memref<9x13xi32>
        %277 = math.ctpop %from_elements : tensor<9x13xi16>
        %278 = arith.floordivsi %false_1, %false_1 : i1
        %279 = arith.divui %c24793613_i32, %c24793613_i32 : i32
        %280 = math.fpowi %0, %5 : tensor<9xf32>, tensor<9xi32>
        %281 = math.exp %195 : f32
        %282 = vector.matrix_multiply %159, %156 {lhs_columns = 9 : i32, lhs_rows = 1 : i32, rhs_columns = 1 : i32} : (vector<9xf16>, vector<9xf16>) -> vector<1xf16>
        affine.store %true, %alloc_17[%c2, %c10] : memref<2x2xi1>
        %283 = math.log2 %cst : f32
        %284 = index.floordivs %197, %c13
        %285 = affine.min affine_map<(d0, d1) -> (-2, -d1, 0)>(%136, %191)
        %286 = arith.shrsi %false_1, %false_1 : i1
        %287 = math.cos %0 : tensor<9xf32>
        %288 = vector.extract_strided_slice %176 {offsets = [1], sizes = [3], strides = [1]} : vector<6xf16> to vector<3xf16>
        %alloc_46 = memref.alloc() : memref<9x13xi16>
        memref.copy %alloc_13, %alloc_46 : memref<9x13xi16> to memref<9x13xi16>
        %289 = math.log10 %195 : f32
        %cast_47 = tensor.cast %4 : tensor<9x13xi16> to tensor<?x?xi16>
        %290 = bufferization.to_tensor %274 : memref<9x13xi32>
        %291 = affine.apply affine_map<(d0) -> ((d0 + 8) mod 16 + 64)>(%160)
        %292 = arith.remui %false, %false_1 : i1
        %293 = arith.maxsi %c20_i16, %c14567_i16 : i16
        %294 = math.fma %0, %2, %0 : tensor<9xf32>
        %295 = vector.broadcast %false : i1 to vector<i1>
        %296 = vector.transfer_write %295, %16[%c15, %46] : vector<i1>, tensor<9x2xi1>
        memref.assume_alignment %48, 16 : memref<9xf32>
        memref.alloca_scope.return %cst_3 : f16
      }
      %269 = index.maxu %99, %52
      %270 = arith.divui %false_1, %false : i1
      %271 = affine.if affine_set<(d0, d1, d2) : (d0 == 0, (d0 mod 4) * 8 == 0, (d0 mod 4 - 17) ceildiv 32 == 0, (d0 mod 4) * 4 == 0)>(%c10, %c13, %c3) -> i32 {
        %272 = index.ceildivu %197, %99
        %273 = vector.contract {indexing_maps = [affine_map<(d0, d1) -> (d1, d0)>, affine_map<(d0, d1) -> (d1)>, affine_map<(d0, d1) -> (d0)>], iterator_types = ["parallel", "reduction"], kind = #vector.kind<mul>} %71, %96, %262 : vector<2x2xi1>, vector<2xi1> into vector<2xi1>
        %274 = math.fpowi %3, %177 : tensor<9x13xf16>, tensor<9x13xi32>
        %275 = vector.contract {indexing_maps = [affine_map<(d0, d1, d2) -> (d0, d2)>, affine_map<(d0, d1, d2) -> (d2, d1)>, affine_map<(d0, d1, d2) -> (d0, d1)>], iterator_types = ["parallel", "parallel", "reduction"], kind = #vector.kind<minsi>} %50, %71, %50 : vector<6x2xi1>, vector<2x2xi1> into vector<6x2xi1>
        %276 = arith.divui %true, %false : i1
        %277 = arith.remui %c419814931_i32, %c419814931_i32 : i32
        %278 = bufferization.to_tensor %alloc_15 : memref<9xi16>
        memref.store %c419814931_i32, %alloc_18[%c5, %c8] : memref<9x13xi32>
        affine.yield %c1707396316_i32 : i32
      } else {
        %272 = arith.subi %c419814931_i32, %c1707396316_i32 : i32
        %273 = arith.ori %41, %c69295288_i64 : i64
        %274 = arith.andi %179, %c20024_i16 : i16
        %275 = math.ctpop %91 : tensor<9xi64>
        %false_43 = index.bool.constant false
        %276 = arith.subi %41, %c69295288_i64 : i64
        %277 = index.floordivs %40, %117
        %rank_44 = tensor.rank %13 : tensor<9xi1>
        affine.yield %c543644229_i32 : i32
      }
      scf.yield %156 : vector<9xf16>
    }
    default {
      %true_42 = index.bool.constant true
      %257 = arith.negf %195 : f32
      %258 = math.powf %153, %153 : tensor<2x2xf16>
      %generated_43 = tensor.generate %98 {
      ^bb0(%arg0: index, %arg1: index):
        %270 = math.floor %reduced : tensor<9xf16>
        %271 = vector.matrix_multiply %159, %156 {lhs_columns = 9 : i32, lhs_rows = 1 : i32, rhs_columns = 1 : i32} : (vector<9xf16>, vector<9xf16>) -> vector<1xf16>
        %272 = arith.subi %c14567_i16, %c20_i16 : i16
        %273 = math.fma %153, %149, %149 : tensor<2x2xf16>
        tensor.yield %c14567_i16 : i16
      } : tensor<?x2xi16>
      %259 = index.ceildivs %c9, %c0
      %alloc_44 = memref.alloc() : memref<13x2xi64>
      %260 = tensor.empty() : tensor<9x2xi64>
      %261 = linalg.matmul ins(%1, %alloc_44 : tensor<9x13xi64>, memref<13x2xi64>) outs(%260 : tensor<9x2xi64>) -> tensor<9x2xi64>
      %alloc_45 = memref.alloc() : memref<9x13xi64>
      %262 = scf.index_switch %37 -> tensor<9x2xi64> 
      case 1 {
        %270 = index.castu %123 : index to i32
        %271 = affine.max affine_map<(d0, d1, d2) -> (d2, d1 ceildiv 16 - (d1 - d0 * 2 + 128))>(%c1, %c10, %120)
        %272 = index.castu %false_1 : i1 to index
        %273 = index.ceildivs %161, %c13
        %274 = tensor.empty() : tensor<13x4xi16>
        %275 = tensor.empty() : tensor<9x4xi16>
        %276 = linalg.matmul ins(%7, %274 : tensor<9x13xi16>, tensor<13x4xi16>) outs(%275 : tensor<9x4xi16>) -> tensor<9x4xi16>
        %277 = index.sub %c9, %c12
        %278 = math.cos %21 : tensor<f16>
        memref.tensor_store %6, %alloc_20 : memref<9xi16>
        %279 = arith.minf %cst_0, %cst_4 : f16
        %alloc_47 = memref.alloc() : memref<13x9xi32>
        %280 = tensor.empty() : tensor<9x9xi32>
        %281 = linalg.matmul ins(%177, %alloc_47 : tensor<9x13xi32>, memref<13x9xi32>) outs(%280 : tensor<9x9xi32>) -> tensor<9x9xi32>
        %282 = arith.maxf %cst_0, %cst_2 : f16
        %283 = index.ceildivu %277, %117
        %284 = index.sub %161, %40
        %285 = math.floor %21 : tensor<f16>
        %rank_48 = tensor.rank %6 : tensor<9xi16>
        %286 = math.exp2 %cst_3 : f16
        scf.yield %260 : tensor<9x2xi64>
      }
      case 2 {
        %270 = math.tanh %cst_3 : f16
        %271 = math.exp %195 : f32
        %272 = index.sub %c13, %c13
        %273 = vector.create_mask %c0 : vector<9xi1>
        %274 = math.cos %153 : tensor<2x2xf16>
        %275 = vector.extract %50[0] : vector<6x2xi1>
        %276 = vector.flat_transpose %39 {columns = 3 : i32, rows = 1 : i32} : vector<3xf32> -> vector<3xf32>
        %277 = arith.shli %c20_i16, %c20024_i16 : i16
        %inserted_47 = tensor.insert %true into %152[%c0, %c0] : tensor<2x2xi1>
        %278 = arith.addi %c69295288_i64, %41 : i64
        %279 = bufferization.to_tensor %alloc_5 : memref<9x2xi32>
        %280 = vector.extract %170[0] : vector<1xf32>
        %281 = affine.max affine_map<(d0, d1, d2, d3) -> ((-(d0 floordiv 2)) ceildiv 16, d3 - d0 floordiv 4)>(%182, %182, %c8, %c7)
        %282 = math.fpowi %2, %5 : tensor<9xf32>, tensor<9xi32>
        vector.print %157 : vector<9xi1>
        %extracted_48 = tensor.extract %22[] : tensor<f16>
        scf.yield %260 : tensor<9x2xi64>
      }
      default {
        %270 = vector.extract %71[0] : vector<2x2xi1>
        %271 = vector.contract {indexing_maps = [affine_map<(d0, d1) -> (d1)>, affine_map<(d0, d1) -> (d1, d0)>, affine_map<(d0, d1) -> (d0)>], iterator_types = ["parallel", "reduction"], kind = #vector.kind<add>} %60, %71, %56 : vector<2xi1>, vector<2x2xi1> into vector<2xi1>
        %272 = bufferization.to_memref %8 : memref<9xi64>
        %273 = math.ctlz %7 : tensor<9x13xi16>
        %274 = arith.floordivsi %c24793613_i32, %c419814931_i32 : i32
        %275 = math.exp %195 : f32
        %dest_47, %accumulated_value_48 = vector.scan <mul>, %50, %60 {inclusive = true, reduction_dim = 0 : i64} : vector<6x2xi1>, vector<2xi1>
        %276 = math.ctpop %c24793613_i32 : i32
        %277 = math.fma %cst_0, %cst_2, %cst_0 : f16
        %278 = arith.shli %c69295288_i64, %c721236507_i64 : i64
        %279 = math.sqrt %22 : tensor<f16>
        %280 = math.powf %3, %3 : tensor<9x13xf16>
        %281 = math.round %0 : tensor<9xf32>
        %282 = vector.broadcast %37 : index to vector<9xindex>
        vector.scatter %alloc_18[%c6, %c1] [%282], %157, %158 : memref<9x13xi32>, vector<9xindex>, vector<9xi1>, vector<9xi32>
        %283 = tensor.empty() : tensor<9x2xi1>
        %284 = linalg.matmul ins(%9, %14 : tensor<9x2xi1>, tensor<2x2xi1>) outs(%283 : tensor<9x2xi1>) -> tensor<9x2xi1>
        %285 = math.ctpop %7 : tensor<9x13xi16>
        scf.yield %260 : tensor<9x2xi64>
      }
      %263 = math.rsqrt %132 : tensor<9xf32>
      %264 = arith.cmpi ult, %false_1, %false_1 : i1
      %265 = index.sizeof
      %266 = math.exp2 %18 : tensor<9xf16>
      %false_46 = index.bool.constant false
      %267 = math.exp %3 : tensor<9x13xf16>
      %268 = math.atan %3 : tensor<9x13xf16>
      %269 = bufferization.clone %alloc_14 : memref<9x2xi64> to memref<9x2xi64>
      scf.yield %159 : vector<9xf16>
    }
    %extracted_31 = tensor.extract %132[%c1] : tensor<9xf32>
    %200 = tensor.empty() : tensor<9x2xi1>
    %201 = linalg.matmul ins(%35, %14 : tensor<9x2xi1>, tensor<2x2xi1>) outs(%200 : tensor<9x2xi1>) -> tensor<9x2xi1>
    %202 = arith.remsi %true, %false : i1
    %203 = math.absf %149 : tensor<2x2xf16>
    %204 = arith.minui %c721236507_i64, %c69295288_i64 : i64
    %205 = index.divs %117, %c3
    %206 = affine.apply affine_map<(d0, d1) -> (-(d0 ceildiv 16) + 1)>(%c6, %120)
    %207 = arith.cmpf ult, %cst_2, %cst_3 : f16
    %208 = index.castu %c69295288_i64 : i64 to index
    %209 = math.rsqrt %132 : tensor<9xf32>
    %210 = arith.maxf %cst_4, %cst_0 : f16
    %211 = arith.minf %cst_4, %cst_4 : f16
    %212 = arith.cmpi ule, %extracted, %c20_i16 : i16
    %213 = index.maxs %c5, %c13
    %214 = index.ceildivs %c9, %55
    bufferization.dealloc_tensor %1 : tensor<9x13xi64>
    %215 = arith.cmpi slt, %c14567_i16, %c20024_i16 : i16
    %216 = index.add %99, %c7
    %generated_32 = tensor.generate %c11 {
    ^bb0(%arg0: index, %arg1: index):
      %257 = arith.minui %179, %c20_i16 : i16
      %258 = arith.remui %false, %false : i1
      %259 = math.expm1 %18 : tensor<9xf16>
      %260 = vector.transpose %60, [0] : vector<2xi1> to vector<2xi1>
      tensor.yield %179 : i16
    } : tensor<?x2xi16>
    %217 = bufferization.to_tensor %alloc_6 : memref<9x13xi1>
    %218 = index.ceildivu %123, %c13
    %inserted_33 = tensor.insert %c543644229_i32 into %5[%c7] : tensor<9xi32>
    %splat_34 = tensor.splat %c721236507_i64 : tensor<2x2xi64>
    %219 = math.expm1 %cst_2 : f16
    %220 = vector.flat_transpose %159 {columns = 3 : i32, rows = 3 : i32} : vector<9xf16> -> vector<9xf16>
    %221 = affine.apply affine_map<(d0, d1, d2, d3) -> (d0 - 10)>(%37, %194, %136, %161)
    %false_35 = index.bool.constant false
    %222 = math.cos %0 : tensor<9xf32>
    %223 = affine.load %alloc_9[%c3, %c12] : memref<9x2xi64>
    %224 = math.ctlz %8 : tensor<9xi64>
    %225 = vector.extract_strided_slice %157 {offsets = [4], sizes = [2], strides = [1]} : vector<9xi1> to vector<2xi1>
    memref.alloca_scope  {
      %257 = math.powf %cst, %cst : f32
      %258 = index.castu %c419814931_i32 : i32 to index
      %alloca_42 = memref.alloca() : memref<9xi64>
      %dest_43, %accumulated_value_44 = vector.scan <or>, %50, %225 {inclusive = false, reduction_dim = 0 : i64} : vector<6x2xi1>, vector<2xi1>
      %259 = arith.shrsi %c14567_i16, %c20_i16 : i16
      vector.print %26 : vector<1xf32>
      %true_45 = index.bool.constant true
      %dest_46, %accumulated_value_47 = vector.scan <xor>, %71, %225 {inclusive = true, reduction_dim = 1 : i64} : vector<2x2xi1>, vector<2xi1>
      %260 = bufferization.clone %alloc_8 : memref<2x2xi16> to memref<2x2xi16>
      %261 = tensor.empty() : tensor<9x2xi1>
      %262 = linalg.matmul ins(%200, %14 : tensor<9x2xi1>, tensor<2x2xi1>) outs(%261 : tensor<9x2xi1>) -> tensor<9x2xi1>
      %263 = arith.negf %cst_0 : f16
      %264 = arith.maxsi %c543644229_i32, %c543644229_i32 : i32
      %265 = index.floordivs %123, %133
      %inserted_48 = tensor.insert %cst into %132[%c0] : tensor<9xf32>
      %266 = math.floor %2 : tensor<9xf32>
      %267 = affine.max affine_map<(d0) -> ((d0 + 4) ceildiv 8 - 16, (d0 + 4) ceildiv 8 - 16)>(%c6)
      %268 = index.maxs %99, %122
      %269 = index.maxu %154, %258
      %splat_49 = tensor.splat %41 : tensor<2x2xi64>
      scf.execute_region {
        %281 = math.expm1 %cst_4 : f16
        %282 = math.absf %195 : f32
        %283 = index.castu %55 : index to i32
        %true_51 = index.bool.constant true
        %284 = math.atan %2 : tensor<9xf32>
        %285 = index.castu %c7 : index to i32
        %286 = math.exp2 %3 : tensor<9x13xf16>
        %287 = arith.mulf %cst, %cst : f32
        %288 = math.fpowi %22, %146 : tensor<f16>, tensor<i32>
        %cast_52 = tensor.cast %1 : tensor<9x13xi64> to tensor<?x?xi64>
        %289 = memref.load %alloc_17[%c1, %c0] : memref<2x2xi1>
        %290 = math.fma %cst_2, %cst_0, %cst_2 : f16
        %291 = affine.load %alloc_8[%c6, %c8] : memref<2x2xi16>
        %292 = vector.transpose %170, [0] : vector<1xf32> to vector<1xf32>
        %293 = arith.cmpi ult, %223, %223 : i64
        %294 = memref.load %alloc_18[%c4, %c10] : memref<9x13xi32>
        scf.yield
      }
      %270 = math.roundeven %2 : tensor<9xf32>
      %271 = affine.if affine_set<(d0) : ((-d0 + 16) ceildiv 32 >= 0, -d0 + 17 >= 0)>(%c3) -> f16 {
        %281 = index.add %191, %136
        %282 = index.ceildivs %182, %c12
        %283 = arith.subi %false_1, %true : i1
        %284 = vector.extract_strided_slice %96 {offsets = [0], sizes = [1], strides = [1]} : vector<2xi1> to vector<1xi1>
        %285 = index.sub %c12, %c5
        %286 = index.floordivs %208, %52
        %287 = index.ceildivu %206, %214
        %288 = arith.maxf %195, %extracted_31 : f32
        affine.yield %cst_4 : f16
      } else {
        %281 = math.atan2 %cst, %195 : f32
        %282 = index.divu %37, %rank
        %283 = index.floordivs %122, %47
        %284 = math.round %3 : tensor<9x13xf16>
        %285 = tensor.empty(%117) : tensor<?x13xi32>
        %286 = math.tanh %88 : tensor<9xf32>
        %287 = index.castu %c12 : index to i32
        %288 = vector.transpose %176, [0] : vector<6xf16> to vector<6xf16>
        affine.yield %cst_0 : f16
      }
      %272 = index.maxs %154, %161
      %273 = math.log %132 : tensor<9xf32>
      %extracted_50 = tensor.extract %0[%c5] : tensor<9xf32>
      %274 = math.atan %22 : tensor<f16>
      %275 = index.floordivs %214, %52
      %276 = math.absf %reduced : tensor<9xf16>
      %277 = bufferization.clone %alloc_12 : memref<9xi64> to memref<9xi64>
      %278 = math.absi %10 : tensor<9x2xi16>
      %279 = index.add %197, %c11
      %280 = bufferization.clone %alloc_9 : memref<9x2xi64> to memref<9x2xi64>
    }
    %226 = math.fma %0, %2, %0 : tensor<9xf32>
    %227 = arith.ori %c1707396316_i32, %c24793613_i32 : i32
    %228 = arith.andi %179, %c20024_i16 : i16
    %229 = math.fma %2, %0, %132 : tensor<9xf32>
    %230 = index.castu %136 : index to i32
    %231 = memref.load %48[%c8] : memref<9xf32>
    %232 = arith.shli %c24793613_i32, %c419814931_i32 : i32
    %233 = vector.insert %extracted_31, %20 [2] : f32 into vector<4xf32>
    %234 = math.absf %cst_3 : f16
    %alloc_36 = memref.alloc() : memref<9x13xf16>
    vector.print %39 : vector<3xf32>
    %235 = arith.maxui %c69295288_i64, %c69295288_i64 : i64
    %236 = arith.remui %c69295288_i64, %41 : i64
    %237 = vector.extract %158[0] : vector<9xi32>
    %238 = arith.floordivsi %c419814931_i32, %c1707396316_i32 : i32
    %rank_37 = tensor.rank %153 : tensor<2x2xf16>
    memref.tensor_store %0, %48 : memref<9xf32>
    %239 = index.ceildivs %206, %c9
    %240 = arith.shli %c14567_i16, %extracted : i16
    %241 = math.absf %reduced : tensor<9xf16>
    %extracted_38 = tensor.extract %15[%c3, %c1] : tensor<9x2xi1>
    %242 = bufferization.clone %48 : memref<9xf32> to memref<9xf32>
    %243 = vector.multi_reduction <xor>, %157, %157 [] : vector<9xi1> to vector<9xi1>
    %244 = vector.extract %60[0] : vector<2xi1>
    %245 = tensor.empty() : tensor<2x2xf32>
    %246 = vector.extract %96[0] : vector<2xi1>
    %247 = index.maxs %c15, %c9
    %248 = math.absi %35 : tensor<9x2xi1>
    %splat_39 = tensor.splat %c69295288_i64 : tensor<9x2xi64>
    %249 = math.cos %extracted_31 : f32
    %250 = math.atan2 %extracted_31, %195 : f32
    %251 = arith.maxsi %c24793613_i32, %c1707396316_i32 : i32
    %252 = vector.multi_reduction <maxui>, %225, %false [0] : vector<2xi1> to i1
    %253 = tensor.empty() : tensor<9x13xi16>
    %254 = linalg.copy ins(%7 : tensor<9x13xi16>) outs(%253 : tensor<9x13xi16>) -> tensor<9x13xi16>
    %alloc_40 = memref.alloc() : memref<2x2xi1>
    linalg.transpose ins(%14 : tensor<2x2xi1>) outs(%alloc_40 : memref<2x2xi1>) permutation = [1, 0] 
    %alloc_41 = memref.alloc() : memref<13xi1>
    linalg.reduce ins(%217 : tensor<9x13xi1>) outs(%alloc_41 : memref<13xi1>) dimensions = [0] 
      (%in: i1, %init: i1) {
        %257 = vector.broadcast %c24793613_i32 : i32 to vector<2xi32>
        %258 = vector.transfer_write %257, %75[%c14, %133] {permutation_map = affine_map<(d0, d1) -> (d0)>} : vector<2xi32>, tensor<9x13xi32>
        %alloc_42 = memref.alloc() : memref<9xi64>
        memref.copy %alloc_12, %alloc_42 : memref<9xi64> to memref<9xi64>
        %259 = tensor.empty() : tensor<9x13xf32>
        %260 = affine.max affine_map<(d0, d1) -> (d0 - d1, (d0 - d1) mod 8)>(%123, %37)
        %261 = arith.minsi %223, %41 : i64
        %262 = math.ctpop %splat_39 : tensor<9x2xi64>
        %263 = tensor.empty() : tensor<13x2xi16>
        %264 = tensor.empty() : tensor<9x2xi16>
        %265 = linalg.matmul ins(%7, %263 : tensor<9x13xi16>, tensor<13x2xi16>) outs(%264 : tensor<9x2xi16>) -> tensor<9x2xi16>
        %266 = index.add %52, %120
        %false_43 = arith.constant false
        linalg.yield %false_43 : i1
      }
    %255 = scf.parallel (%arg0, %arg1) = (%99, %c6) to (%182, %194) step (%c9, %c9) init (%alloc_21) -> memref<9xf16> {
      %257 = arith.maxui %true, %extracted_38 : i1
      %cst_42 = arith.constant 1.000000e+00 : f32
      %cst_43 = arith.constant 0.000000e+00 : f32
      %258 = vector.transfer_read %114[%c4], %cst_43 : memref<9xf32>, vector<f32>
      %259 = arith.remf %extracted_31, %extracted_31 : f32
      memref.alloca_scope  {
        %270 = arith.shrsi %252, %true : i1
        %271 = arith.maxf %extracted_31, %extracted_31 : f32
        %272 = math.powf %153, %149 : tensor<2x2xf16>
        %273 = bufferization.to_tensor %alloc : memref<9x2xf16>
        %274 = math.roundeven %2 : tensor<9xf32>
        %275 = math.floor %2 : tensor<9xf32>
        %276 = index.ceildivs %52, %221
        %277 = arith.mulf %cst, %cst : f32
        %278 = affine.min affine_map<(d0, d1, d2) -> (-d1, d2 * 16)>(%122, %117, %rank)
        %279 = math.powf %reduced, %18 : tensor<9xf16>
        %280 = arith.subi %c543644229_i32, %c1707396316_i32 : i32
        %splat_48 = tensor.splat %179 : tensor<9x2xi16>
        bufferization.dealloc_tensor %splat_34 : tensor<2x2xi64>
        %extracted_49 = tensor.extract %127[%c1, %c1] : tensor<9x2xi16>
        %281 = affine.max affine_map<(d0, d1, d2) -> ((-(d2 + d1)) ceildiv 32 + 16)>(%c15, %123, %c12)
        %282 = index.casts %c20024_i16 : i16 to index
        %283 = tensor.empty() : tensor<9xi1>
        %284 = vector.extract_strided_slice %157 {offsets = [0], sizes = [7], strides = [1]} : vector<9xi1> to vector<7xi1>
        %285 = math.log1p %cst : f32
        %286 = index.maxs %29, %247
        %287 = math.sqrt %3 : tensor<9x13xf16>
        %288 = vector.transpose %71, [1, 0] : vector<2x2xi1> to vector<2x2xi1>
        %289 = arith.muli %223, %41 : i64
        %290 = vector.broadcast %cst : f32 to vector<9x2xf32>
        %291 = vector.fma %290, %290, %290 : vector<9x2xf32>
        %292 = affine.apply affine_map<(d0, d1, d2, d3) -> (d3 floordiv 4 - 1)>(%282, %arg0, %276, %133)
        %293 = math.rsqrt %21 : tensor<f16>
        %294 = math.floor %18 : tensor<9xf16>
        %295 = math.absf %21 : tensor<f16>
        bufferization.dealloc_tensor %splat_39 : tensor<9x2xi64>
        %296 = index.ceildivu %c2, %c3
        %297 = vector.flat_transpose %56 {columns = 1 : i32, rows = 2 : i32} : vector<2xi1> -> vector<2xi1>
        %298 = memref.load %alloc_17[%c1, %c0] : memref<2x2xi1>
      }
      %260 = math.ctlz %c69295288_i64 : i64
      %generated_44 = tensor.generate %191 {
      ^bb0(%arg2: index, %arg3: index):
        %270 = bufferization.clone %alloc_20 : memref<9xi16> to memref<9xi16>
        %271 = vector.flat_transpose %158 {columns = 3 : i32, rows = 3 : i32} : vector<9xi32> -> vector<9xi32>
        %272 = vector.insert %cst_0, %220 [8] : f16 into vector<9xf16>
        %dest_48, %accumulated_value_49 = vector.scan <and>, %33, %96 {inclusive = true, reduction_dim = 0 : i64} : vector<9x2xi1>, vector<2xi1>
        tensor.yield %extracted_31 : f32
      } : tensor<?x2xf32>
      %261 = math.ctpop %c20_i16 : i16
      %262 = scf.execute_region -> index {
        %270 = arith.remui %41, %c721236507_i64 : i64
        %271 = index.castu %c69295288_i64 : i64 to index
        %272 = vector.transpose %50, [0, 1] : vector<6x2xi1> to vector<6x2xi1>
        %alloca_48 = memref.alloca() : memref<2x2xi1>
        %dest_49, %accumulated_value_50 = vector.scan <mul>, %33, %157 {inclusive = false, reduction_dim = 1 : i64} : vector<9x2xi1>, vector<9xi1>
        %273 = math.ctpop %6 : tensor<9xi16>
        %274 = math.exp2 %3 : tensor<9x13xf16>
        %275 = math.ceil %3 : tensor<9x13xf16>
        %276 = math.cos %cst : f32
        %277 = arith.addi %c1707396316_i32, %c1707396316_i32 : i32
        %278 = tensor.empty() : tensor<9xf16>
        %279 = tensor.empty() : tensor<13x9xi16>
        %280 = tensor.empty() : tensor<9x9xi16>
        %281 = linalg.matmul ins(%254, %279 : tensor<9x13xi16>, tensor<13x9xi16>) outs(%280 : tensor<9x9xi16>) -> tensor<9x9xi16>
        %282 = math.absf %0 : tensor<9xf32>
        %283 = bufferization.clone %114 : memref<9xf32> to memref<9xf32>
        %284 = bufferization.clone %alloc_15 : memref<9xi16> to memref<9xi16>
        %285 = arith.ori %false_1, %extracted_38 : i1
        scf.yield %239 : index
      }
      %263 = math.roundeven %22 : tensor<f16>
      %264 = arith.ori %false, %true : i1
      %265 = vector.broadcast %c20_i16 : i16 to vector<i16>
      %266 = vector.transfer_write %265, %6[%c14] : vector<i16>, tensor<9xi16>
      %267 = math.expm1 %cst_3 : f16
      %268 = vector.flat_transpose %225 {columns = 1 : i32, rows = 2 : i32} : vector<2xi1> -> vector<2xi1>
      %269 = arith.mulf %extracted_31, %195 : f32
      %dest_45, %accumulated_value_46 = vector.scan <minsi>, %33, %157 {inclusive = true, reduction_dim = 1 : i64} : vector<9x2xi1>, vector<9xi1>
      vector.print %176 : vector<6xf16>
      %alloc_47 = memref.alloc() : memref<9xf16>
      scf.reduce(%alloc_47)  : memref<9xf16> {
      ^bb0(%arg2: memref<9xf16>, %arg3: memref<9xf16>):
        %270 = arith.cmpi slt, %c419814931_i32, %c419814931_i32 : i32
        %271 = arith.cmpf ord, %cst, %195 : f32
        %272 = bufferization.to_tensor %alloc_11 : memref<2x2xf16>
        %273 = arith.addf %195, %cst_42 : f32
        %274 = affine.apply affine_map<(d0) -> (-d0)>(%197)
        %275 = arith.divui %223, %223 : i64
        %276 = arith.subi %true, %true : i1
        %277 = vector.matrix_multiply %158, %158 {lhs_columns = 9 : i32, lhs_rows = 1 : i32, rhs_columns = 1 : i32} : (vector<9xi32>, vector<9xi32>) -> vector<1xi32>
        %alloc_48 = memref.alloc() : memref<9xf16>
        scf.reduce.return %alloc_48 : memref<9xf16>
      }
      scf.yield
    }
    %256 = affine.vector_load %114[%c13] : memref<9xf32>, vector<13xf32>
    affine.vector_store %256, %114[%120] : memref<9xf32>, vector<13xf32>
    vector.print %20 : vector<4xf32>
    vector.print %26 : vector<1xf32>
    vector.print %33 : vector<9x2xi1>
    vector.print %39 : vector<3xf32>
    vector.print %50 : vector<6x2xi1>
    vector.print %56 : vector<2xi1>
    vector.print %60 : vector<2xi1>
    vector.print %71 : vector<2x2xi1>
    vector.print %96 : vector<2xi1>
    vector.print %156 : vector<9xf16>
    vector.print %157 : vector<9xi1>
    vector.print %158 : vector<9xi32>
    vector.print %159 : vector<9xf16>
    vector.print %170 : vector<1xf32>
    vector.print %176 : vector<6xf16>
    vector.print %185 : vector<i16>
    vector.print %220 : vector<9xf16>
    vector.print %225 : vector<2xi1>
    vector.print %256 : vector<13xf32>
    vector.print %c20024_i16 : i16
    vector.print %false : i1
    vector.print %cst : f32
    vector.print %c69295288_i64 : i64
    vector.print %cst_0 : f16
    vector.print %false_1 : i1
    vector.print %cst_2 : f16
    vector.print %c419814931_i32 : i32
    vector.print %cst_3 : f16
    vector.print %c24793613_i32 : i32
    vector.print %c20_i16 : i16
    vector.print %c14567_i16 : i16
    vector.print %cst_4 : f16
    vector.print %c543644229_i32 : i32
    vector.print %c1707396316_i32 : i32
    vector.print %c721236507_i64 : i64
    vector.print %true : i1
    vector.print %41 : i64
    vector.print %extracted : i16
    vector.print %179 : i16
    vector.print %195 : f32
    vector.print %extracted_31 : f32
    vector.print %false_35 : i1
    vector.print %223 : i64
    vector.print %extracted_38 : i1
    vector.print %252 : i1
    return
  }
}
