module {
  func.func nested @func1(%arg0: vector<14xi64>, %arg1: i16, %arg2: tensor<16x16x14xf16>) {
    %cst = arith.constant 6.224000e+04 : f16
    %c1676342753_i64 = arith.constant 1676342753 : i64
    %false = arith.constant false
    %true = arith.constant true
    %c24348_i16 = arith.constant 24348 : i16
    %c-20547_i16 = arith.constant -20547 : i16
    %cst_0 = arith.constant 0x4D7EFDC1 : f32
    %true_1 = arith.constant true
    %c2052943229_i32 = arith.constant 2052943229 : i32
    %c1212773757_i64 = arith.constant 1212773757 : i64
    %true_2 = arith.constant true
    %c32214_i16 = arith.constant 32214 : i16
    %c988780503_i64 = arith.constant 988780503 : i64
    %cst_3 = arith.constant 4.998400e+04 : f16
    %cst_4 = arith.constant 3.907200e+04 : f16
    %c30443_i16 = arith.constant 30443 : i16
    %0 = tensor.empty() : tensor<14xi16>
    %1 = tensor.empty() : tensor<14xi32>
    %2 = tensor.empty() : tensor<16x16x14xf16>
    %3 = tensor.empty() : tensor<16x16x14xi1>
    %4 = tensor.empty() : tensor<6xi32>
    %5 = tensor.empty() : tensor<14xf16>
    %6 = tensor.empty() : tensor<14xi64>
    %7 = tensor.empty() : tensor<14xi1>
    %8 = tensor.empty() : tensor<14xi32>
    %9 = tensor.empty() : tensor<6xi1>
    %10 = tensor.empty() : tensor<16x16x14xi32>
    %11 = tensor.empty() : tensor<14xi1>
    %12 = tensor.empty() : tensor<16x16x14xi64>
    %13 = tensor.empty() : tensor<16x16x14xi64>
    %14 = tensor.empty() : tensor<16x16x14xf32>
    %15 = tensor.empty() : tensor<14xi64>
    %c0 = arith.constant 0 : index
    %c1 = arith.constant 1 : index
    %c2 = arith.constant 2 : index
    %c3 = arith.constant 3 : index
    %c4 = arith.constant 4 : index
    %c5 = arith.constant 5 : index
    %c6 = arith.constant 6 : index
    %c7 = arith.constant 7 : index
    %c8 = arith.constant 8 : index
    %c9 = arith.constant 9 : index
    %c10 = arith.constant 10 : index
    %c11 = arith.constant 11 : index
    %c12 = arith.constant 12 : index
    %c13 = arith.constant 13 : index
    %c14 = arith.constant 14 : index
    %c15 = arith.constant 15 : index
    %alloc = memref.alloc() : memref<14xi16>
    %alloc_5 = memref.alloc() : memref<14xi32>
    %alloc_6 = memref.alloc() : memref<14xf16>
    %alloc_7 = memref.alloc() : memref<6xi64>
    %alloc_8 = memref.alloc() : memref<14xf16>
    %alloc_9 = memref.alloc() : memref<14xf32>
    %alloc_10 = memref.alloc() : memref<16x16x14xi16>
    %alloc_11 = memref.alloc() : memref<6xf16>
    %alloc_12 = memref.alloc() : memref<16x16x14xi1>
    %alloc_13 = memref.alloc() : memref<14xi64>
    %alloc_14 = memref.alloc() : memref<14xi64>
    %alloc_15 = memref.alloc() : memref<14xi64>
    %alloc_16 = memref.alloc() : memref<14xi1>
    %alloc_17 = memref.alloc() : memref<14xi64>
    %alloc_18 = memref.alloc() : memref<14xf32>
    %alloc_19 = memref.alloc() : memref<14xi32>
    %16 = tensor.empty() : tensor<14xi1>
    %17 = linalg.copy ins(%11 : tensor<14xi1>) outs(%16 : tensor<14xi1>) -> tensor<14xi1>
    %alloc_20 = memref.alloc() : memref<6xi32>
    linalg.transpose ins(%4 : tensor<6xi32>) outs(%alloc_20 : memref<6xi32>) permutation = [0] 
    %alloc_21 = memref.alloc() : memref<f16>
    linalg.reduce ins(%alloc_8 : memref<14xf16>) outs(%alloc_21 : memref<f16>) dimensions = [0] 
      (%in: f16, %init: f16) {
        %271 = vector.broadcast %c30443_i16 : i16 to vector<16x16x14xi16>
        %272 = vector.transpose %271, [1, 2, 0] : vector<16x16x14xi16> to vector<16x14x16xi16>
        %generated_42 = tensor.generate %c4, %c13 {
        ^bb0(%arg3: index, %arg4: index, %arg5: index):
          %279 = arith.divf %cst, %cst : f16
          %280 = index.maxs %c6, %c7
          %281 = bufferization.to_tensor %alloc_11 : memref<6xf16>
          %282 = vector.broadcast %c1676342753_i64 : i64 to vector<6xi64>
          %283 = vector.reduction <minui>, %282 : vector<6xi64> into i64
          tensor.yield %c2052943229_i32 : i32
        } : tensor<?x?x14xi32>
        %273 = vector.broadcast %c-20547_i16 : i16 to vector<3xi16>
        %274 = vector.reduction <and>, %273 : vector<3xi16> into i16
        %275 = arith.remsi %c32214_i16, %c32214_i16 : i16
        %alloc_43 = memref.alloc() : memref<14xi16>
        memref.copy %alloc, %alloc_43 : memref<14xi16> to memref<14xi16>
        %276 = index.castu %c15 : index to i32
        %277 = vector.extract %271[14] : vector<16x16x14xi16>
        %278 = memref.load %alloc_21[] : memref<f16>
        %cst_44 = arith.constant 1.000000e+00 : f16
        linalg.yield %cst_44 : f16
      }
    scf.parallel (%arg3) = (%c1) to (%c8) step (%c4) {
      %271 = vector.broadcast %cst : f16 to vector<1xf16>
      %272 = vector.broadcast %cst : f16 to vector<1xf16>
      %273 = vector.contract {indexing_maps = [affine_map<(d0) -> (d0)>, affine_map<(d0) -> (d0)>, affine_map<(d0) -> ()>], iterator_types = ["reduction"], kind = #vector.kind<minf>} %271, %272, %cst : vector<1xf16>, vector<1xf16> into f16
      scf.index_switch %c10 
      case 1 {
        %extracted = tensor.extract %6[%c3] : tensor<14xi64>
        %291 = bufferization.to_memref %3 : memref<16x16x14xi1>
        %292 = arith.cmpf oge, %cst_4, %cst : f16
        %293 = math.absf %2 : tensor<16x16x14xf16>
        %294 = vector.broadcast %c2052943229_i32 : i32 to vector<i32>
        %295 = vector.transfer_write %294, %10[%c4, %c13, %c4] : vector<i32>, tensor<16x16x14xi32>
        %296 = index.floordivs %c14, %c9
        %297 = arith.minf %cst_4, %cst_3 : f16
        %298 = arith.remui %c1212773757_i64, %c1676342753_i64 : i64
        %299 = math.cttz %15 : tensor<14xi64>
        %300 = index.castu %c14 : index to i32
        %c1434327458_i64 = arith.constant 1434327458 : i64
        %301 = arith.shli %c2052943229_i32, %c2052943229_i32 : i32
        %302 = arith.ceildivsi %true_1, %true_1 : i1
        %303 = vector.contract {indexing_maps = [affine_map<(d0) -> (d0)>, affine_map<(d0) -> (d0)>, affine_map<(d0) -> ()>], iterator_types = ["reduction"], kind = #vector.kind<mul>} %271, %271, %cst_3 : vector<1xf16>, vector<1xf16> into f16
        %304 = arith.remui %c32214_i16, %c32214_i16 : i16
        %305 = arith.divf %cst, %cst_3 : f16
        scf.yield
      }
      case 2 {
        %291 = math.cttz %0 : tensor<14xi16>
        %292 = arith.divsi %c988780503_i64, %c1676342753_i64 : i64
        %293 = math.fpowi %2, %10 : tensor<16x16x14xf16>, tensor<16x16x14xi32>
        %cst_44 = arith.constant 1.000000e+00 : f32
        %294 = vector.transfer_read %alloc_9[%c5], %cst_44 : memref<14xf32>, vector<f32>
        %295 = index.ceildivu %c6, %c5
        %collapsed_45 = tensor.collapse_shape %2 [[0, 1], [2]] : tensor<16x16x14xf16> into tensor<256x14xf16>
        %296 = arith.xori %c24348_i16, %c30443_i16 : i16
        %297 = vector.splat %cst_44 : vector<14xf32>
        %298 = arith.cmpi eq, %false, %false : i1
        %299 = arith.minui %false, %true_1 : i1
        %300 = math.fpowi %5, %8 : tensor<14xf16>, tensor<14xi32>
        %301 = bufferization.to_tensor %alloc_6 : memref<14xf16>
        %302 = arith.shrui %c32214_i16, %c24348_i16 : i16
        %303 = math.exp2 %301 : tensor<14xf16>
        %304 = arith.remf %cst_4, %cst_3 : f16
        %305 = tensor.empty() : tensor<16x16x14xi16>
        scf.yield
      }
      default {
        %291 = index.casts %c11 : index to i32
        %292 = vector.bitcast %271 : vector<1xf16> to vector<1xf16>
        %293 = affine.max affine_map<(d0, d1) -> (d0 mod 8 - 2, d0 mod 8 - 2)>(%c3, %c4)
        %294 = tensor.empty(%c7) : tensor<?xi32>
        %295 = arith.remui %c2052943229_i32, %c2052943229_i32 : i32
        memref.tensor_store %5, %alloc_6 : memref<14xf16>
        memref.assume_alignment %alloc_20, 16 : memref<6xi32>
        %expanded_44 = tensor.expand_shape %5 [[0, 1]] : tensor<14xf16> into tensor<14x1xf16>
        %296 = vector.broadcast %cst : f16 to vector<16x16x14xf16>
        %297 = vector.splat %c13 : vector<6xindex>
        %298 = tensor.empty(%c7) : tensor<?xf16>
        %299 = math.ceil %14 : tensor<16x16x14xf32>
        %300 = memref.realloc %alloc_19 : memref<14xi32> to memref<6xi32>
        %301 = arith.andi %false, %true : i1
        %302 = index.divs %c4, %c4
        %303 = vector.broadcast %c6 : index to vector<16xindex>
        %304 = vector.broadcast %false : i1 to vector<16xi1>
        %305 = vector.broadcast %c2052943229_i32 : i32 to vector<16xi32>
        vector.scatter %alloc_5[%c9] [%303], %304, %305 : memref<14xi32>, vector<16xindex>, vector<16xi1>, vector<16xi32>
      }
      %274 = index.mul %c14, %c3
      %275 = vector.reduction <mul>, %271 : vector<1xf16> into f16
      %276 = math.roundeven %cst : f16
      %277 = memref.alloca_scope  -> (i64) {
        %291 = vector.transpose %271, [0] : vector<1xf16> to vector<1xf16>
        %292 = vector.broadcast %true_1 : i1 to vector<i1>
        %293 = vector.transfer_write %292, %7[%c6] : vector<i1>, tensor<14xi1>
        bufferization.dealloc_tensor %7 : tensor<14xi1>
        %294 = vector.insert %cst, %271 [0] : f16 into vector<1xf16>
        %295 = vector.bitcast %271 : vector<1xf16> to vector<1xf16>
        %296 = arith.maxf %cst, %cst_4 : f16
        %297 = vector.insert %cst_3, %271 [0] : f16 into vector<1xf16>
        %298 = arith.cmpi eq, %true, %true_1 : i1
        %299 = vector.flat_transpose %271 {columns = 1 : i32, rows = 1 : i32} : vector<1xf16> -> vector<1xf16>
        %300 = math.tan %cst : f16
        %301 = arith.floordivsi %c988780503_i64, %c988780503_i64 : i64
        %302 = arith.maxf %cst_3, %cst_3 : f16
        %303 = vector.insert %cst_4, %299 [0] : f16 into vector<1xf16>
        %304 = index.floordivs %c11, %c6
        %305 = vector.shuffle %292, %292 [0, 1] : vector<i1>, vector<i1>
        %collapsed_44 = tensor.collapse_shape %2 [[0, 1], [2]] : tensor<16x16x14xf16> into tensor<256x14xf16>
        %306 = math.absi %9 : tensor<6xi1>
        %307 = affine.apply affine_map<(d0, d1, d2) -> (d1 ceildiv 64)>(%c14, %274, %274)
        %308 = index.sizeof
        %309 = arith.remf %cst_3, %cst_4 : f16
        %310 = math.powf %2, %2 : tensor<16x16x14xf16>
        %311 = arith.shrsi %c-20547_i16, %c-20547_i16 : i16
        %312 = vector.load %alloc_10[%c9, %c2, %c13] : memref<16x16x14xi16>, vector<6xi16>
        %313 = affine.load %alloc_13[%c7] : memref<14xi64>
        %314 = math.ceil %cst_0 : f32
        %315 = vector.bitcast %299 : vector<1xf16> to vector<1xf16>
        %316 = math.cos %2 : tensor<16x16x14xf16>
        %collapsed_45 = tensor.collapse_shape %14 [[0, 1], [2]] : tensor<16x16x14xf32> into tensor<256x14xf32>
        %317 = math.log10 %cst_3 : f16
        %318 = math.round %14 : tensor<16x16x14xf32>
        %319 = index.castu %c24348_i16 : i16 to index
        %320 = index.floordivs %c9, %c6
        memref.alloca_scope.return %c1676342753_i64 : i64
      }
      %alloc_42 = memref.alloc() : memref<16x16x14xf16>
      %278 = tensor.empty() : tensor<14x16xi1>
      %279 = tensor.empty() : tensor<16x14xi1>
      %alloc_43 = memref.alloc() : memref<16xi1>
      %280 = linalg.generic {indexing_maps = [affine_map<(d0, d1, d2) -> (d2, d0)>, affine_map<(d0, d1, d2) -> (d0, d2)>, affine_map<(d0, d1, d2) -> (d0)>, affine_map<(d0, d1, d2) -> (d0, d1, d2)>], iterator_types = ["parallel", "parallel", "parallel"]} ins(%278, %279, %alloc_43 : tensor<14x16xi1>, tensor<16x14xi1>, memref<16xi1>) outs(%3 : tensor<16x16x14xi1>) {
      ^bb0(%in: i1, %in_44: i1, %in_45: i1, %out: i1):
        %291 = math.ctpop %9 : tensor<6xi1>
        %292 = arith.shli %out, %true_1 : i1
        %293 = arith.maxf %cst_4, %cst : f16
        %294 = arith.remf %cst_3, %cst_4 : f16
        %295 = index.sizeof
        %296 = math.floor %2 : tensor<16x16x14xf16>
        %297 = vector.extract %271[0] : vector<1xf16>
        memref.store %c1212773757_i64, %alloc_17[%c6] : memref<14xi64>
        %298 = vector.broadcast %cst_0 : f32 to vector<6xf32>
        %299 = vector.fma %298, %298, %298 : vector<6xf32>
        %false_46 = index.bool.constant false
        %alloc_47 = memref.alloc() : memref<14xi32>
        %300 = vector.broadcast %274 : index to vector<3xindex>
        %301 = vector.broadcast %in_45 : i1 to vector<3xi1>
        vector.scatter %alloc_16[%c13] [%300], %301, %301 : memref<14xi1>, vector<3xindex>, vector<3xi1>, vector<3xi1>
        memref.store %c1212773757_i64, %alloc_14[%c1] : memref<14xi64>
        %302 = index.ceildivs %arg3, %c12
        %303 = vector.contract {indexing_maps = [affine_map<(d0) -> (d0)>, affine_map<(d0) -> (d0)>, affine_map<(d0) -> ()>], iterator_types = ["reduction"], kind = #vector.kind<minf>} %298, %298, %cst_0 : vector<6xf32>, vector<6xf32> into f32
        %304 = math.exp2 %cst_0 : f32
        %305 = arith.maxf %cst_4, %cst_4 : f16
        %306 = math.absi %9 : tensor<6xi1>
        %307 = math.log1p %cst_0 : f32
        %308 = math.round %cst_4 : f16
        %309 = vector.insert %cst_0, %299 [1] : f32 into vector<6xf32>
        %310 = arith.addi %in_45, %out : i1
        %311 = math.absf %cst_3 : f16
        %312 = index.ceildivs %c12, %295
        %313 = arith.divf %cst_4, %cst : f16
        %314 = vector.broadcast %c13 : index to vector<3xindex>
        %315 = vector.broadcast %true_2 : i1 to vector<3xi1>
        %316 = vector.broadcast %c2052943229_i32 : i32 to vector<3xi32>
        vector.scatter %alloc_20[%c4] [%314], %315, %316 : memref<6xi32>, vector<3xindex>, vector<3xi1>, vector<3xi32>
        %317 = affine.load %alloc_11[%c11] : memref<6xf16>
        %318 = math.atan %14 : tensor<16x16x14xf32>
        %319 = index.divs %c8, %c6
        %320 = arith.maxui %false_46, %in_45 : i1
        %321 = arith.shrui %c-20547_i16, %c30443_i16 : i16
        %322 = math.log2 %2 : tensor<16x16x14xf16>
        linalg.yield %in_45 : i1
      } -> tensor<16x16x14xi1>
      %281 = vector.broadcast %c2052943229_i32 : i32 to vector<i32>
      %282 = vector.transfer_write %281, %8[%c1] : vector<i32>, tensor<14xi32>
      %283 = arith.shrsi %true, %true_2 : i1
      %284 = math.powf %2, %2 : tensor<16x16x14xf16>
      %285 = math.fma %cst, %cst_4, %cst_3 : f16
      %286 = arith.floordivsi %true, %false : i1
      %287 = math.rsqrt %cst_3 : f16
      %288 = math.floor %5 : tensor<14xf16>
      %289 = vector.broadcast %cst_4 : f16 to vector<1x1xf16>
      %290 = vector.outerproduct %271, %271, %289 {kind = #vector.kind<add>} : vector<1xf16>, vector<1xf16>
      scf.yield
    }
    %18 = affine.vector_load %alloc_13[%c14] : memref<14xi64>, vector<3xi64>
    affine.vector_store %18, %alloc_7[%c0] : memref<6xi64>, vector<3xi64>
    %alloc_22 = memref.alloc() : memref<6xf16>
    %19 = tensor.empty() : tensor<f16>
    %20 = linalg.dot ins(%alloc_11, %alloc_22 : memref<6xf16>, memref<6xf16>) outs(%19 : tensor<f16>) -> tensor<f16>
    %21 = math.tanh %20 : tensor<f16>
    %22 = math.exp2 %2 : tensor<16x16x14xf16>
    %23 = math.log10 %2 : tensor<16x16x14xf16>
    %24 = index.mul %c13, %c3
    %25 = math.floor %14 : tensor<16x16x14xf32>
    %26 = vector.reduction <minsi>, %18 : vector<3xi64> into i64
    %generated = tensor.generate %c5 {
    ^bb0(%arg3: index):
      %271 = vector.extract %18[1] : vector<3xi64>
      %272 = vector.reduction <minsi>, %18 : vector<3xi64> into i64
      %alloca_42 = memref.alloca() : memref<16x16x14xf16>
      %273 = tensor.empty(%c14) : tensor<?xf16>
      tensor.yield %c2052943229_i32 : i32
    } : tensor<?xi32>
    %27 = affine.load %alloc_21[] : memref<f16>
    %28 = index.ceildivs %c5, %c4
    %29 = vector.flat_transpose %18 {columns = 3 : i32, rows = 1 : i32} : vector<3xi64> -> vector<3xi64>
    %30 = index.maxs %c5, %c0
    %31 = arith.remf %27, %cst : f16
    %alloc_23 = memref.alloc() : memref<16x16x14xi32>
    %32 = math.atan %5 : tensor<14xf16>
    %33 = index.ceildivs %c6, %24
    memref.assume_alignment %alloc_16, 8 : memref<14xi1>
    %34 = index.ceildivs %c14, %c8
    %35 = arith.subi %true_1, %true : i1
    %36 = math.roundeven %27 : f16
    %rank = tensor.rank %15 : tensor<14xi64>
    %37 = vector.extract %18[0] : vector<3xi64>
    %38 = vector.broadcast %c2052943229_i32 : i32 to vector<i32>
    %39 = vector.transfer_write %38, %4[%c6] : vector<i32>, tensor<6xi32>
    %40 = vector.broadcast %c988780503_i64 : i64 to vector<3x3xi64>
    %41 = vector.outerproduct %29, %18, %40 {kind = #vector.kind<or>} : vector<3xi64>, vector<3xi64>
    %42 = arith.subi %true_1, %true_1 : i1
    %43 = index.divs %c8, %28
    vector.print %38 : vector<i32>
    %44 = math.tanh %cst_3 : f16
    %45 = math.round %2 : tensor<16x16x14xf16>
    %46 = math.fma %20, %20, %20 : tensor<f16>
    %47 = index.ceildivu %30, %43
    %48 = index.mul %c0, %24
    %49 = arith.cmpf une, %cst_4, %cst : f16
    %50 = vector.transpose %18, [0] : vector<3xi64> to vector<3xi64>
    %51 = index.ceildivs %c9, %24
    %alloc_24 = memref.alloc() : memref<14xf32>
    %52 = vector.matrix_multiply %29, %29 {lhs_columns = 3 : i32, lhs_rows = 1 : i32, rhs_columns = 1 : i32} : (vector<3xi64>, vector<3xi64>) -> vector<1xi64>
    %53 = arith.shli %c24348_i16, %c24348_i16 : i16
    %54 = arith.ori %c1212773757_i64, %c1676342753_i64 : i64
    %55 = index.castu %28 : index to i32
    %56 = math.round %2 : tensor<16x16x14xf16>
    %57 = vector.broadcast %c988780503_i64 : i64 to vector<i64>
    %58 = vector.transfer_write %57, %15[%c6] : vector<i64>, tensor<14xi64>
    %59 = arith.maxui %c2052943229_i32, %c2052943229_i32 : i32
    %60 = vector.reduction <or>, %18 : vector<3xi64> into i64
    %collapsed = tensor.collapse_shape %14 [[0, 1], [2]] : tensor<16x16x14xf32> into tensor<256x14xf32>
    %61 = arith.cmpf une, %cst, %cst_3 : f16
    %62 = math.ctpop %8 : tensor<14xi32>
    %63 = arith.shrui %c988780503_i64, %c1676342753_i64 : i64
    %64 = arith.minf %cst_3, %cst_3 : f16
    %65 = math.absf %14 : tensor<16x16x14xf32>
    %66 = index.divs %c14, %43
    %67 = vector.reduction <maxui>, %52 : vector<1xi64> into i64
    %68 = arith.remf %cst_3, %cst : f16
    %69 = affine.min affine_map<(d0) -> (((-d0) floordiv 2) * 2, d0)>(%c12)
    %70 = index.add %66, %c0
    %71 = vector.insert %c1676342753_i64, %18 [2] : i64 into vector<3xi64>
    %72 = vector.bitcast %29 : vector<3xi64> to vector<3xi64>
    %73 = vector.extract_strided_slice %72 {offsets = [1], sizes = [1], strides = [1]} : vector<3xi64> to vector<1xi64>
    %74 = affine.apply affine_map<(d0, d1, d2, d3) -> (d0 floordiv 64 - (d3 + 32))>(%c2, %c1, %43, %43)
    %75 = arith.divf %cst, %27 : f16
    %true_25 = index.bool.constant true
    %76 = affine.min affine_map<(d0) -> (-d0)>(%c12)
    %77 = affine.min affine_map<(d0, d1) -> (((d1 - d0) * 2) floordiv 128, (-d0 + 2) floordiv 8, d0 + 4)>(%30, %28)
    %78 = vector.transpose %38, [] : vector<i32> to vector<i32>
    %79 = math.roundeven %2 : tensor<16x16x14xf16>
    %80 = vector.broadcast %cst_0 : f32 to vector<16x16x14xf32>
    %81 = vector.fma %80, %80, %80 : vector<16x16x14xf32>
    %82 = affine.min affine_map<(d0, d1, d2, d3) -> (d3 - d2 - 1, d3 - 1)>(%c9, %c3, %c6, %74)
    %83 = math.absi %4 : tensor<6xi32>
    %84 = vector.extract %80[15] : vector<16x16x14xf32>
    %85 = bufferization.to_tensor %alloc_9 : memref<14xf32>
    %86 = vector.broadcast %cst_0 : f32 to vector<16xf32>
    %87 = vector.multi_reduction <minf>, %80, %86 [1, 2] : vector<16x16x14xf32> to vector<16xf32>
    %88 = arith.addi %c24348_i16, %c-20547_i16 : i16
    %splat = tensor.splat %cst_3 : tensor<16x16x14xf16>
    %89 = tensor.empty() : tensor<14x14xf32>
    %90 = tensor.empty() : tensor<256x14xf32>
    %91 = linalg.matmul ins(%collapsed, %89 : tensor<256x14xf32>, tensor<14x14xf32>) outs(%90 : tensor<256x14xf32>) -> tensor<256x14xf32>
    %92 = index.floordivs %51, %c11
    %93 = vector.reduction <mul>, %29 : vector<3xi64> into i64
    %94 = vector.reduction <add>, %18 : vector<3xi64> into i64
    %95 = bufferization.clone %alloc : memref<14xi16> to memref<14xi16>
    %96 = vector.insert %c1212773757_i64, %52 [0] : i64 into vector<1xi64>
    memref.copy %alloc_18, %alloc_9 : memref<14xf32> to memref<14xf32>
    %97 = vector.shuffle %38, %38 [0, 1] : vector<i32>, vector<i32>
    memref.store %cst_4, %alloc_11[%c2] : memref<6xf16>
    scf.if %true_2 {
      %271 = affine.apply affine_map<(d0, d1, d2, d3) -> (d2 ceildiv 16)>(%34, %c3, %c2, %c14)
      %272 = vector.insertelement %cst_0, %86[%c14 : index] : vector<16xf32>
      %273 = math.ceil %5 : tensor<14xf16>
      %274 = math.ceil %27 : f16
      %rank_42 = tensor.rank %16 : tensor<14xi1>
      %275 = arith.cmpi eq, %c1676342753_i64, %c988780503_i64 : i64
      memref.assume_alignment %alloc_7, 1 : memref<6xi64>
      %276 = arith.cmpi ule, %false, %true_2 : i1
    }
    %98 = arith.remsi %c2052943229_i32, %c2052943229_i32 : i32
    %99 = vector.load %alloc_17[%c2] : memref<14xi64>, vector<14xi64>
    %100 = vector.broadcast %cst_0 : f32 to vector<14xf32>
    %101 = vector.insert %100, %80 [6, 10] : vector<14xf32> into vector<16x16x14xf32>
    %102 = affine.apply affine_map<(d0, d1) -> (d0 ceildiv 8 - (d1 ceildiv 2 + d1 + 8) + d1 ceildiv 2 + d1 + 8 + (d1 ceildiv 2) * 2)>(%66, %30)
    %103 = index.divs %33, %c14
    %104 = vector.load %alloc_10[%c11, %c9, %c2] : memref<16x16x14xi16>, vector<16x16x14xi16>
    %105 = math.tanh %2 : tensor<16x16x14xf16>
    %c637394378_i32 = arith.constant 637394378 : i32
    %106 = math.ctpop %6 : tensor<14xi64>
    %dest, %accumulated_value = vector.scan <maxf>, %80, %84 {inclusive = false, reduction_dim = 1 : i64} : vector<16x16x14xf32>, vector<16x14xf32>
    %c0_i64 = arith.constant 0 : i64
    %107 = vector.transfer_read %alloc_17[%82], %c0_i64 : memref<14xi64>, vector<i64>
    %108 = arith.subi %true_1, %true_25 : i1
    %109 = index.ceildivs %82, %c6
    %110 = vector.broadcast %c30443_i16 : i16 to vector<i16>
    %111 = vector.transfer_write %110, %0[%24] : vector<i16>, tensor<14xi16>
    %112 = vector.bitcast %80 : vector<16x16x14xf32> to vector<16x16x14xf32>
    %113 = arith.divf %cst_4, %cst_4 : f16
    vector.print %80 : vector<16x16x14xf32>
    %114 = linalg.generic {indexing_maps = [affine_map<(d0, d1, d2) -> (d0, d1, d2)>], iterator_types = ["parallel", "parallel", "parallel"]} outs(%14 : tensor<16x16x14xf32>) {
    ^bb0(%out: f32):
      %271 = arith.subi %false, %false : i1
      %272 = arith.divf %cst_3, %cst_4 : f16
      %273 = arith.xori %c988780503_i64, %c1212773757_i64 : i64
      %274 = index.castu %51 : index to i32
      %275 = vector.broadcast %c7 : index to vector<6xindex>
      %276 = vector.broadcast %true_2 : i1 to vector<6xi1>
      %277 = vector.broadcast %c2052943229_i32 : i32 to vector<6xi32>
      vector.scatter %alloc_19[%c12] [%275], %276, %277 : memref<14xi32>, vector<6xindex>, vector<6xi1>, vector<6xi32>
      vector.print %100 : vector<14xf32>
      %rank_42 = tensor.rank %9 : tensor<6xi1>
      %278 = arith.negf %cst_3 : f16
      %279 = arith.remsi %false, %false : i1
      %280 = arith.ori %true, %true_25 : i1
      %281 = index.divu %c9, %28
      %282 = index.mul %281, %70
      %283 = vector.load %alloc_18[%c2] : memref<14xf32>, vector<6xf32>
      %284 = arith.minsi %c24348_i16, %c-20547_i16 : i16
      %285 = tensor.empty() : tensor<14xf32>
      %286 = math.ctpop %16 : tensor<14xi1>
      %287 = arith.shrsi %true_1, %true_2 : i1
      %288 = tensor.empty() : tensor<14x16xf32>
      %289 = tensor.empty() : tensor<256x16xf32>
      %290 = linalg.matmul ins(%90, %288 : tensor<256x14xf32>, tensor<14x16xf32>) outs(%289 : tensor<256x16xf32>) -> tensor<256x16xf32>
      %291 = memref.atomic_rmw addf %cst, %alloc_11[%c3] : (f16, memref<6xf16>) -> f16
      %292 = vector.broadcast %69 : index to vector<16xindex>
      %293 = vector.broadcast %true_25 : i1 to vector<16xi1>
      vector.scatter %alloc_9[%c5] [%292], %293, %86 : memref<14xf32>, vector<16xindex>, vector<16xi1>, vector<16xf32>
      %294 = index.add %92, %c8
      %295 = affine.apply affine_map<(d0, d1, d2, d3) -> (d1 - 32)>(%102, %102, %c6, %70)
      %296 = math.expm1 %27 : f16
      %297 = index.ceildivu %c1, %24
      %298 = index.divs %rank_42, %43
      %299 = tensor.empty() : tensor<14xf16>
      %mapped = linalg.map ins(%5, %alloc_8, %alloc_6 : tensor<14xf16>, memref<14xf16>, memref<14xf16>) outs(%299 : tensor<14xf16>)
        (%in: f16, %in_43: f16, %in_44: f16) {
          %309 = vector.extract_strided_slice %18 {offsets = [1], sizes = [2], strides = [1]} : vector<3xi64> to vector<2xi64>
          %310 = math.fpowi %cst_0, %c2052943229_i32 : f32, i32
          %311 = vector.extract %72[2] : vector<3xi64>
          %312 = vector.broadcast %47 : index to vector<6xindex>
          %313 = vector.broadcast %true_1 : i1 to vector<6xi1>
          vector.scatter %alloc_16[%c8] [%312], %313, %313 : memref<14xi1>, vector<6xindex>, vector<6xi1>, vector<6xi1>
          memref.store %c0_i64, %alloc_15[%c9] : memref<14xi64>
          %314 = index.mul %298, %51
          bufferization.dealloc_tensor %4 : tensor<6xi32>
          %315 = arith.remf %cst, %cst_3 : f16
          %316 = index.divs %109, %51
          %317 = affine.apply affine_map<(d0) -> ((d0 * 2) mod 128)>(%rank)
          %318 = index.ceildivs %c8, %c12
          %319 = arith.divf %cst_0, %out : f32
          %inserted = tensor.insert %true into %3[%c14, %c10, %c6] : tensor<16x16x14xi1>
          %320 = bufferization.to_memref %85 : memref<14xf32>
          %collapsed_45 = tensor.collapse_shape %10 [[0, 1], [2]] : tensor<16x16x14xi32> into tensor<256x14xi32>
          %321 = vector.broadcast %cst_0 : f32 to vector<f32>
          vector.transfer_write %321, %320[%70] : vector<f32>, memref<14xf32>
          %322 = index.add %102, %c8
          %323 = affine.max affine_map<(d0, d1) -> (d0 + d0 + (d0 - 8) * 2 - 24 + 4, d1, ((d0 - 8) * 2) mod 8)>(%70, %103)
          memref.tensor_store %6, %alloc_14 : memref<14xi64>
          %324 = arith.remui %c0_i64, %c1676342753_i64 : i64
          %325 = index.maxs %48, %rank_42
          %alloc_46 = memref.alloc() : memref<6xf32>
          %326 = vector.broadcast %true_2 : i1 to vector<14xi1>
          %327 = vector.broadcast %c2052943229_i32 : i32 to vector<14xi32>
          %328 = vector.gather %alloc_46[%322] [%327], %326, %100 : memref<6xf32>, vector<14xi32>, vector<14xi1>, vector<14xf32> into vector<14xf32>
          %329 = arith.divui %c988780503_i64, %c0_i64 : i64
          %330 = math.fma %5, %299, %5 : tensor<14xf16>
          %331 = index.ceildivs %47, %43
          %332 = arith.remf %cst, %in_43 : f16
          %333 = arith.minui %c-20547_i16, %c32214_i16 : i16
          %334 = math.exp %in : f16
          %335 = arith.shrsi %c1212773757_i64, %c1676342753_i64 : i64
          %336 = vector.splat %rank : vector<14xindex>
          %337 = arith.xori %c988780503_i64, %c1212773757_i64 : i64
          %c523532208_i64 = arith.constant 523532208 : i64
          %cst_47 = arith.constant 1.000000e+00 : f16
          linalg.yield %cst_47 : f16
        }
      %300 = vector.broadcast %74 : index to vector<16xindex>
      %301 = vector.broadcast %false : i1 to vector<16xi1>
      %302 = vector.broadcast %c-20547_i16 : i16 to vector<16xi16>
      vector.scatter %alloc_10[%c7, %c15, %c4] [%300], %301, %302 : memref<16x16x14xi16>, vector<16xindex>, vector<16xi1>, vector<16xi16>
      %303 = math.roundeven %splat : tensor<16x16x14xf16>
      %304 = vector.broadcast %true_1 : i1 to vector<16x16x14xi1>
      %305 = vector.broadcast %c2052943229_i32 : i32 to vector<16x16x14xi32>
      %306 = vector.gather %alloc_10[%c13, %82, %74] [%305], %304, %104 : memref<16x16x14xi16>, vector<16x16x14xi32>, vector<16x16x14xi1>, vector<16x16x14xi16> into vector<16x16x14xi16>
      memref.assume_alignment %alloc_17, 2 : memref<14xi64>
      %307 = math.cos %cst_4 : f16
      %c1_i32 = arith.constant 1 : i32
      %308 = vector.transfer_read %1[%rank], %c1_i32 : tensor<14xi32>, vector<i32>
      linalg.yield %out : f32
    } -> tensor<16x16x14xf32>
    %115 = vector.broadcast %cst_4 : f16 to vector<14xf16>
    %116 = vector.broadcast %true_2 : i1 to vector<14xi1>
    %117 = vector.maskedload %alloc_22[%c5], %116, %115 : memref<6xf16>, vector<14xi1>, vector<14xf16> into vector<14xf16>
    %118 = math.round %27 : f16
    %119 = arith.subi %c-20547_i16, %c24348_i16 : i16
    %120 = arith.remui %c32214_i16, %c-20547_i16 : i16
    %121 = index.floordivs %c0, %28
    %122 = arith.maxf %cst_3, %27 : f16
    %123 = arith.ceildivsi %c32214_i16, %c30443_i16 : i16
    %124 = math.powf %85, %85 : tensor<14xf32>
    %125 = math.fpowi %14, %10 : tensor<16x16x14xf32>, tensor<16x16x14xi32>
    %126 = arith.maxui %c-20547_i16, %c32214_i16 : i16
    %127 = tensor.empty() : tensor<16xf32>
    %128 = tensor.empty() : tensor<16x14x16xf32>
    %129 = linalg.generic {indexing_maps = [affine_map<(d0, d1, d2) -> (d1)>, affine_map<(d0, d1, d2) -> (d1, d2, d0)>, affine_map<(d0, d1, d2) -> (d0, d1, d2)>], iterator_types = ["parallel", "parallel", "parallel"]} ins(%127, %128 : tensor<16xf32>, tensor<16x14x16xf32>) outs(%14 : tensor<16x16x14xf32>) {
    ^bb0(%in: f32, %in_42: f32, %out: f32):
      %271 = math.round %85 : tensor<14xf32>
      %272 = index.sub %c5, %70
      %273 = bufferization.to_tensor %alloc_8 : memref<14xf16>
      %274 = arith.maxf %out, %cst_0 : f32
      %275 = math.absf %20 : tensor<f16>
      %dest_43, %accumulated_value_44 = vector.scan <add>, %112, %84 {inclusive = true, reduction_dim = 1 : i64} : vector<16x16x14xf32>, vector<16x14xf32>
      %276 = arith.cmpi ult, %c-20547_i16, %c32214_i16 : i16
      %277 = vector.broadcast %c2052943229_i32 : i32 to vector<14xi32>
      %278 = vector.maskedload %alloc_20[%c0], %116, %277 : memref<6xi32>, vector<14xi1>, vector<14xi32> into vector<14xi32>
      %279 = math.ceil %273 : tensor<14xf16>
      %280 = affine.for %arg3 = 0 to 31 iter_args(%arg4 = %alloc_5) -> (memref<14xi32>) {
        affine.yield %alloc_5 : memref<14xi32>
      }
      %alloc_45 = memref.alloc() : memref<16x16x14xi1>
      %281 = affine.max affine_map<(d0, d1) -> (d0 - 2, 1, d1 - 8, -d1 - 36)>(%c6, %66)
      %282 = arith.remsi %true_2, %true_25 : i1
      %283 = vector.shuffle %99, %99 [1, 3, 5, 7, 10, 11, 16, 17, 18, 19, 20, 21, 22, 24, 26] : vector<14xi64>, vector<14xi64>
      %284 = vector.multi_reduction <mul>, %117, %cst_4 [0] : vector<14xf16> to f16
      %285 = affine.for %arg3 = 0 to 114 iter_args(%arg4 = %90) -> (tensor<256x14xf32>) {
        affine.yield %arg4 : tensor<256x14xf32>
      }
      %collapsed_46 = tensor.collapse_shape %splat [[0, 1], [2]] : tensor<16x16x14xf16> into tensor<256x14xf16>
      %alloca_47 = memref.alloca() : memref<16x16x14xf16>
      %286 = arith.subi %c1212773757_i64, %c1676342753_i64 : i64
      %287 = vector.insert %c0_i64, %99 [12] : i64 into vector<14xi64>
      %288 = bufferization.to_tensor %alloc_11 : memref<6xf16>
      %289 = vector.broadcast %true_2 : i1 to vector<14x14xi1>
      %290 = vector.outerproduct %116, %116, %289 {kind = #vector.kind<maxsi>} : vector<14xi1>, vector<14xi1>
      %291 = index.divs %102, %281
      %292 = arith.cmpi sgt, %true_1, %true_25 : i1
      %293 = math.ctlz %true_1 : i1
      %294 = index.sizeof
      %alloc_48 = memref.alloc() : memref<16xf16>
      %295 = linalg.generic {indexing_maps = [affine_map<(d0, d1, d2) -> (d2)>, affine_map<(d0, d1, d2) -> (d0, d1, d2)>, affine_map<(d0, d1, d2) -> (d0)>, affine_map<(d0, d1, d2) -> (d0, d1, d2)>], iterator_types = ["parallel", "parallel", "parallel"]} ins(%alloc_6, %2, %alloc_48 : memref<14xf16>, tensor<16x16x14xf16>, memref<16xf16>) outs(%2 : tensor<16x16x14xf16>) {
      ^bb0(%in_49: f16, %in_50: f16, %in_51: f16, %out_52: f16):
        %300 = arith.divf %in_51, %cst : f16
        %301 = vector.reduction <mul>, %73 : vector<1xi64> into i64
        %302 = math.expm1 %in_49 : f16
        %303 = index.divs %rank, %121
        %304 = math.log10 %85 : tensor<14xf32>
        %305 = vector.broadcast %c5 : index to vector<16xindex>
        %306 = vector.broadcast %true_25 : i1 to vector<16xi1>
        %307 = vector.broadcast %c1676342753_i64 : i64 to vector<16xi64>
        vector.scatter %alloc_15[%c9] [%305], %306, %307 : memref<14xi64>, vector<16xindex>, vector<16xi1>, vector<16xi64>
        %from_elements = tensor.from_elements %c2052943229_i32, %c2052943229_i32, %c2052943229_i32, %c2052943229_i32, %c2052943229_i32, %c2052943229_i32, %c2052943229_i32, %c2052943229_i32, %c2052943229_i32, %c2052943229_i32, %c2052943229_i32, %c2052943229_i32, %c2052943229_i32, %c2052943229_i32 : tensor<14xi32>
        %308 = vector.broadcast %c7 : index to vector<14xindex>
        vector.scatter %alloc_19[%c12] [%308], %116, %278 : memref<14xi32>, vector<14xindex>, vector<14xi1>, vector<14xi32>
        %309 = bufferization.to_memref %13 : memref<16x16x14xi64>
        %310 = affine.apply affine_map<(d0, d1) -> (d0 ceildiv 8 - (d1 ceildiv 2 + d1 + 8) + d1 ceildiv 2 + d1 + 8 + (d1 ceildiv 2) * 2)>(%51, %c15)
        %311 = arith.cmpi slt, %true_2, %true_2 : i1
        memref.store %c2052943229_i32, %alloc_19[%c8] : memref<14xi32>
        %312 = index.ceildivs %c6, %109
        %expanded_53 = tensor.expand_shape %7 [[0, 1]] : tensor<14xi1> into tensor<14x1xi1>
        memref.tensor_store %3, %alloc_12 : memref<16x16x14xi1>
        %313 = arith.shrui %c1212773757_i64, %c1212773757_i64 : i64
        %rank_54 = tensor.rank %9 : tensor<6xi1>
        %alloc_55 = memref.alloc() : memref<16x16x14xi32>
        memref.tensor_store %10, %alloc_55 : memref<16x16x14xi32>
        %314 = arith.remf %out, %cst_0 : f32
        %315 = arith.remf %out_52, %284 : f16
        %316 = vector.transpose %18, [0] : vector<3xi64> to vector<3xi64>
        %317 = arith.xori %c32214_i16, %c24348_i16 : i16
        %318 = arith.addi %c-20547_i16, %c-20547_i16 : i16
        %319 = math.tan %out_52 : f16
        %320 = arith.andi %c-20547_i16, %c32214_i16 : i16
        %321 = math.log10 %collapsed : tensor<256x14xf32>
        %c588086567_i32 = arith.constant 588086567 : i32
        %322 = vector.broadcast %c1212773757_i64 : i64 to vector<16xi64>
        %323 = vector.broadcast %true_1 : i1 to vector<16xi1>
        %324 = vector.maskedload %alloc_14[%c7], %323, %322 : memref<14xi64>, vector<16xi1>, vector<16xi64> into vector<16xi64>
        %325 = math.ipowi %true_2, %true : i1
        %326 = vector.broadcast %c2052943229_i32 : i32 to vector<6xi32>
        %327 = vector.broadcast %true : i1 to vector<6xi1>
        %328 = vector.gather %10[%102, %66, %109] [%326], %327, %326 : tensor<16x16x14xi32>, vector<6xi32>, vector<6xi1>, vector<6xi32> into vector<6xi32>
        memref.tensor_store %12, %309 : memref<16x16x14xi64>
        %329 = affine.min affine_map<(d0) -> (d0 + 48, 0)>(%c15)
        linalg.yield %cst_3 : f16
      } -> tensor<16x16x14xf16>
      %296 = index.divu %69, %c15
      %297 = index.divs %70, %82
      vector.print %29 : vector<3xi64>
      %298 = tensor.empty() : tensor<16x16x14xi64>
      %299 = bufferization.clone %alloc_13 : memref<14xi64> to memref<14xi64>
      linalg.yield %in : f32
    } -> tensor<16x16x14xf32>
    %130 = math.fma %20, %20, %20 : tensor<f16>
    %131 = arith.maxui %c24348_i16, %c24348_i16 : i16
    %132 = vector.bitcast %18 : vector<3xi64> to vector<3xi64>
    %133 = arith.remsi %true, %true : i1
    memref.tensor_store %7, %alloc_16 : memref<14xi1>
    %alloca = memref.alloca() : memref<14xi64>
    %134 = tensor.empty() : tensor<14x3xf32>
    %135 = tensor.empty() : tensor<256x3xf32>
    %136 = linalg.matmul ins(%collapsed, %134 : tensor<256x14xf32>, tensor<14x3xf32>) outs(%135 : tensor<256x3xf32>) -> tensor<256x3xf32>
    %137 = arith.maxsi %c-20547_i16, %c32214_i16 : i16
    %138 = bufferization.to_tensor %alloc_7 : memref<6xi64>
    %true_26 = arith.constant true
    %139 = vector.insert %100, %81 [3, 14] : vector<14xf32> into vector<16x16x14xf32>
    %140 = index.maxu %69, %28
    %141 = vector.broadcast %cst_0 : f32 to vector<16x14x16x14xf32>
    %142 = vector.contract {indexing_maps = [affine_map<(d0, d1, d2, d3, d4) -> (d4, d0, d1)>, affine_map<(d0, d1, d2, d3, d4) -> (d4, d2, d3)>, affine_map<(d0, d1, d2, d3, d4) -> (d0, d1, d2, d3)>], iterator_types = ["parallel", "parallel", "parallel", "parallel", "reduction"], kind = #vector.kind<mul>} %81, %112, %141 : vector<16x16x14xf32>, vector<16x16x14xf32> into vector<16x14x16x14xf32>
    %143 = index.sub %76, %82
    %144 = arith.andi %c24348_i16, %c24348_i16 : i16
    %145 = math.floor %cst : f16
    %146 = vector.broadcast %47 : index to vector<16xindex>
    %147 = vector.broadcast %true_2 : i1 to vector<16xi1>
    %148 = vector.broadcast %cst_4 : f16 to vector<16xf16>
    vector.scatter %alloc_11[%c0] [%146], %147, %148 : memref<6xf16>, vector<16xindex>, vector<16xi1>, vector<16xf16>
    %149 = scf.if %false -> (i64) {
      %271 = affine.load %alloc_15[%c5] : memref<14xi64>
      affine.for %arg3 = 0 to 75 {
      }
      %272 = vector.broadcast %271 : i64 to vector<3x3xi64>
      %273 = vector.outerproduct %18, %72, %272 {kind = #vector.kind<or>} : vector<3xi64>, vector<3xi64>
      %274 = arith.maxui %c32214_i16, %c30443_i16 : i16
      vector.print %81 : vector<16x16x14xf32>
      %275 = bufferization.to_memref %0 : memref<14xi16>
      %276 = vector.extract %52[0] : vector<1xi64>
      %277 = tensor.empty() : tensor<3x16xf32>
      %278 = tensor.empty() : tensor<256x16xf32>
      %279 = linalg.matmul ins(%135, %277 : tensor<256x3xf32>, tensor<3x16xf32>) outs(%278 : tensor<256x16xf32>) -> tensor<256x16xf32>
      scf.yield %c1212773757_i64 : i64
    } else {
      %271 = scf.while (%arg3 = %104) : (vector<16x16x14xi16>) -> vector<16x16x14xi16> {
        %rank_42 = tensor.rank %6 : tensor<14xi64>
        %279 = math.tan %14 : tensor<16x16x14xf32>
        %280 = arith.maxui %c1212773757_i64, %c0_i64 : i64
        %281 = arith.xori %true, %true_25 : i1
        %282 = vector.extract_strided_slice %52 {offsets = [0], sizes = [1], strides = [1]} : vector<1xi64> to vector<1xi64>
        %283 = arith.divf %27, %cst_4 : f16
        %284 = math.ctpop %6 : tensor<14xi64>
        %285 = arith.remf %cst, %cst_4 : f16
        scf.condition(%true_1) %104 : vector<16x16x14xi16>
      } do {
      ^bb0(%arg3: vector<16x16x14xi16>):
        %279 = vector.broadcast %cst_0 : f32 to vector<16x16x14xf32>
        %280 = vector.fma %279, %112, %81 : vector<16x16x14xf32>
        memref.store %c-20547_i16, %alloc[%c6] : memref<14xi16>
        %281 = math.powf %20, %20 : tensor<f16>
        %282 = arith.cmpi sge, %true_25, %true_25 : i1
        %283 = arith.shrui %c1212773757_i64, %c1676342753_i64 : i64
        %alloc_42 = memref.alloc() : memref<14xi1>
        %284 = math.expm1 %cst_3 : f16
        %285 = vector.bitcast %100 : vector<14xf32> to vector<14xf32>
        %286 = vector.transpose %112, [1, 0, 2] : vector<16x16x14xf32> to vector<16x16x14xf32>
        %287 = affine.min affine_map<(d0, d1, d2, d3) -> (d2)>(%51, %c2, %143, %77)
        %288 = vector.transpose %116, [0] : vector<14xi1> to vector<14xi1>
        %289 = vector.splat %c13 : vector<16x16x14xindex>
        %alloca_43 = memref.alloca() : memref<16x16x14xi64>
        %290 = affine.apply affine_map<(d0, d1, d2, d3) -> (d2 * 2)>(%c8, %76, %140, %c0)
        %291 = math.floor %cst_0 : f32
        memref.assume_alignment %alloc_19, 8 : memref<14xi32>
        scf.yield %104 : vector<16x16x14xi16>
      }
      %272 = math.fma %5, %5, %5 : tensor<14xf16>
      %273 = arith.ceildivsi %false, %true_25 : i1
      %274 = vector.insertelement %c1212773757_i64, %57[] : vector<i64>
      %275 = arith.divui %c1676342753_i64, %c1676342753_i64 : i64
      %276 = vector.bitcast %80 : vector<16x16x14xf32> to vector<16x16x14xf32>
      %277 = scf.if %false -> (memref<14xi1>) {
        %alloca_42 = memref.alloca() : memref<16x16x14xi16>
        %collapsed_43 = tensor.collapse_shape %collapsed [[0, 1]] : tensor<256x14xf32> into tensor<3584xf32>
        %279 = vector.maskedload %alloc_9[%c2], %116, %100 : memref<14xf32>, vector<14xi1>, vector<14xf32> into vector<14xf32>
        %280 = math.ctpop %false : i1
        %281 = index.add %82, %c15
        %282 = vector.extract %112[1] : vector<16x16x14xf32>
        %283 = memref.atomic_rmw maxf %cst_0, %alloc_9[%c12] : (f32, memref<14xf32>) -> f32
        %284 = index.divs %c3, %76
        scf.yield %alloc_16 : memref<14xi1>
      } else {
        %279 = vector.broadcast %c1212773757_i64 : i64 to vector<1x1xi64>
        %280 = vector.outerproduct %52, %73, %279 {kind = #vector.kind<mul>} : vector<1xi64>, vector<1xi64>
        %281 = arith.divsi %c-20547_i16, %c24348_i16 : i16
        %282 = index.divs %c15, %c1
        %283 = affine.max affine_map<(d0) -> (d0 floordiv 128, d0 + (d0 + 1) ceildiv 4 + 66, d0, (d0 - (d0 + 66) + 1) mod 2 - 8)>(%92)
        %alloca_42 = memref.alloca() : memref<6xi1>
        %284 = math.round %2 : tensor<16x16x14xf16>
        %285 = vector.broadcast %c24348_i16 : i16 to vector<3xi16>
        %286 = vector.broadcast %true_2 : i1 to vector<3xi1>
        %287 = vector.maskedload %alloc_10[%c11, %c5, %c0], %286, %285 : memref<16x16x14xi16>, vector<3xi1>, vector<3xi16> into vector<3xi16>
        %288 = math.fpowi %splat, %10 : tensor<16x16x14xf16>, tensor<16x16x14xi32>
        scf.yield %alloc_16 : memref<14xi1>
      }
      %278 = math.tan %cst : f16
      scf.yield %c1676342753_i64 : i64
    }
    %150 = math.absf %5 : tensor<14xf16>
    %151 = memref.atomic_rmw addf %cst_4, %alloc_8[%c10] : (f16, memref<14xf16>) -> f16
    %152 = affine.for %arg3 = 0 to 13 iter_args(%arg4 = %c15) -> (index) {
      affine.yield %c2 : index
    }
    %153 = arith.shrsi %c24348_i16, %c32214_i16 : i16
    %154 = math.cttz %138 : tensor<6xi64>
    vector.print %73 : vector<1xi64>
    %155 = bufferization.to_tensor %alloc_13 : memref<14xi64>
    %156 = tensor.empty() : tensor<256x14xi32>
    %157 = math.fpowi %90, %156 : tensor<256x14xf32>, tensor<256x14xi32>
    %158 = index.mul %c0, %c11
    %expanded = tensor.expand_shape %11 [[0, 1]] : tensor<14xi1> into tensor<14x1xi1>
    %159 = vector.broadcast %cst_0 : f32 to vector<16x16x14xf32>
    %160 = vector.fma %159, %80, %159 : vector<16x16x14xf32>
    %161 = tensor.empty() : tensor<16x14x16xf16>
    %alloc_27 = memref.alloc() : memref<16x14xf16>
    %162 = linalg.generic {indexing_maps = [affine_map<(d0, d1, d2) -> (d1, d2, d0)>, affine_map<(d0, d1, d2) -> (d1, d2)>, affine_map<(d0, d1, d2) -> (d0, d1, d2)>], iterator_types = ["parallel", "parallel", "parallel"]} ins(%161, %alloc_27 : tensor<16x14x16xf16>, memref<16x14xf16>) outs(%2 : tensor<16x16x14xf16>) {
    ^bb0(%in: f16, %in_42: f16, %out: f16):
      %alloc_43 = memref.alloc() : memref<16x14xf32>
      %271 = linalg.generic {indexing_maps = [affine_map<(d0, d1, d2) -> (d1, d2)>, affine_map<(d0, d1, d2) -> (d0, d1, d2)>], iterator_types = ["parallel", "parallel", "parallel"]} ins(%alloc_43 : memref<16x14xf32>) outs(%14 : tensor<16x16x14xf32>) {
      ^bb0(%in_50: f32, %out_51: f32):
        %299 = arith.minui %149, %149 : i64
        %300 = math.rsqrt %5 : tensor<14xf16>
        %301 = memref.atomic_rmw mins %c988780503_i64, %alloc_14[%c3] : (i64, memref<14xi64>) -> i64
        %302 = bufferization.to_memref %6 : memref<14xi64>
        %303 = affine.max affine_map<(d0, d1) -> (d0 floordiv 2, (-(d1 ceildiv 4) - 1) floordiv 4, 0, d1 - d0 floordiv 2 - 1)>(%158, %121)
        %304 = math.atan2 %27, %27 : f16
        %305 = vector.extract_strided_slice %160 {offsets = [0, 11], sizes = [4, 1], strides = [1, 1]} : vector<16x16x14xf32> to vector<4x1x14xf32>
        %306 = math.roundeven %20 : tensor<f16>
        %307 = arith.divsi %false, %true_2 : i1
        %308 = index.divs %c3, %70
        %309 = tensor.empty() : tensor<6xf16>
        %expanded_52 = tensor.expand_shape %6 [[0, 1]] : tensor<14xi64> into tensor<14x1xi64>
        %310 = index.sizeof
        %alloca_53 = memref.alloca() : memref<16x16x14xi1>
        %311 = math.tan %collapsed : tensor<256x14xf32>
        %312 = vector.broadcast %c1212773757_i64 : i64 to vector<3x3xi64>
        %313 = vector.outerproduct %29, %72, %312 {kind = #vector.kind<minsi>} : vector<3xi64>, vector<3xi64>
        %314 = math.cttz %4 : tensor<6xi32>
        %315 = arith.divui %true_2, %true_2 : i1
        %316 = arith.remf %in_42, %cst_4 : f16
        %317 = bufferization.to_memref %1 : memref<14xi32>
        %318 = memref.realloc %alloc_17 : memref<14xi64> to memref<16xi64>
        %319 = vector.broadcast %c24348_i16 : i16 to vector<14xi16>
        %320 = vector.broadcast %c2052943229_i32 : i32 to vector<14xi32>
        %321 = vector.gather %0[%c2] [%320], %116, %319 : tensor<14xi16>, vector<14xi32>, vector<14xi1>, vector<14xi16> into vector<14xi16>
        %322 = arith.maxsi %c0_i64, %c0_i64 : i64
        %323 = math.tan %cst_4 : f16
        %324 = math.powf %in_42, %cst : f16
        %325 = arith.divsi %c30443_i16, %c-20547_i16 : i16
        %326 = math.atan %in : f16
        %327 = index.divs %121, %c11
        %328 = vector.broadcast %in_50 : f32 to vector<16x16xf32>
        %dest_54, %accumulated_value_55 = vector.scan <maxf>, %80, %328 {inclusive = false, reduction_dim = 2 : i64} : vector<16x16x14xf32>, vector<16x16xf32>
        %329 = vector.bitcast %72 : vector<3xi64> to vector<3xi64>
        %330 = vector.broadcast %149 : i64 to vector<14xi64>
        %331 = vector.broadcast %in_50 : f32 to vector<f32>
        vector.transfer_write %331, %alloc_9[%310] : vector<f32>, memref<14xf32>
        linalg.yield %cst_0 : f32
      } -> tensor<16x16x14xf32>
      %272 = index.floordivs %43, %103
      bufferization.dealloc_tensor %0 : tensor<14xi16>
      %generated_44 = tensor.generate %66 {
      ^bb0(%arg3: index):
        %alloca_50 = memref.alloca() : memref<16x16x14xf16>
        %299 = index.mul %c7, %c1
        %dest_51, %accumulated_value_52 = vector.scan <maxf>, %112, %84 {inclusive = true, reduction_dim = 1 : i64} : vector<16x16x14xf32>, vector<16x14xf32>
        %300 = affine.load %alloc_6[%c14] : memref<14xf16>
        tensor.yield %true_1 : i1
      } : tensor<?xi1>
      %273 = affine.load %alloc_6[%c12] : memref<14xf16>
      scf.if %false {
        %expanded_50 = tensor.expand_shape %15 [[0, 1]] : tensor<14xi64> into tensor<14x1xi64>
        %299 = math.log1p %27 : f16
        %300 = arith.xori %c32214_i16, %c32214_i16 : i16
        %301 = arith.cmpi uge, %c0_i64, %149 : i64
        %302 = index.ceildivu %103, %33
        %303 = bufferization.clone %alloc_12 : memref<16x16x14xi1> to memref<16x16x14xi1>
        %304 = math.rsqrt %27 : f16
        %305 = vector.multi_reduction <maxf>, %115, %115 [] : vector<14xf16> to vector<14xf16>
      }
      %274 = memref.realloc %alloc_19 : memref<14xi32> to memref<3xi32>
      %alloc_45 = memref.alloc() : memref<14xi32>
      %275 = vector.broadcast %c1676342753_i64 : i64 to vector<i64>
      %276 = vector.transfer_write %275, %15[%103] : vector<i64>, tensor<14xi64>
      %277 = affine.if affine_set<(d0, d1) : (d0 mod 16 == 0)>(%c5, %c15) -> memref<6xi32> {
        %299 = math.round %90 : tensor<256x14xf32>
        %alloca_50 = memref.alloca() : memref<14xi16>
        %300 = arith.negf %cst_0 : f32
        %301 = vector.multi_reduction <minsi>, %116, %116 [] : vector<14xi1> to vector<14xi1>
        %alloc_51 = memref.alloc() : memref<14xi16>
        %collapsed_52 = tensor.collapse_shape %10 [[0, 1], [2]] : tensor<16x16x14xi32> into tensor<256x14xi32>
        %302 = arith.ceildivsi %c32214_i16, %c-20547_i16 : i16
        %303 = vector.broadcast %false : i1 to vector<16x16x14xi1>
        %304 = vector.broadcast %c2052943229_i32 : i32 to vector<16x16x14xi32>
        %305 = vector.gather %alloc[%33] [%304], %303, %104 : memref<14xi16>, vector<16x16x14xi32>, vector<16x16x14xi1>, vector<16x16x14xi16> into vector<16x16x14xi16>
        affine.yield %alloc_20 : memref<6xi32>
      } else {
        %299 = index.floordivs %102, %82
        memref.store %in, %alloc_6[%c5] : memref<14xf16>
        %300 = arith.cmpi sge, %c32214_i16, %c24348_i16 : i16
        %301 = math.log2 %20 : tensor<f16>
        %302 = arith.maxui %true, %true : i1
        %dest_50, %accumulated_value_51 = vector.scan <minf>, %159, %84 {inclusive = true, reduction_dim = 1 : i64} : vector<16x16x14xf32>, vector<16x14xf32>
        %alloc_52 = memref.alloc() : memref<6xi1>
        %303 = math.sqrt %cst_0 : f32
        affine.yield %alloc_20 : memref<6xi32>
      }
      %dest_46, %accumulated_value_47 = vector.scan <mul>, %112, %84 {inclusive = true, reduction_dim = 0 : i64} : vector<16x16x14xf32>, vector<16x14xf32>
      %alloc_48 = memref.alloc() : memref<14x3xf32>
      %278 = tensor.empty() : tensor<256x3xf32>
      %279 = linalg.matmul ins(%90, %alloc_48 : tensor<256x14xf32>, memref<14x3xf32>) outs(%278 : tensor<256x3xf32>) -> tensor<256x3xf32>
      %280 = arith.addi %149, %149 : i64
      %281 = arith.divf %cst, %cst_4 : f16
      %282 = math.log1p %out : f16
      %283 = math.round %273 : f16
      %collapsed_49 = tensor.collapse_shape %2 [[0, 1], [2]] : tensor<16x16x14xf16> into tensor<256x14xf16>
      %284 = index.sub %48, %rank
      %285 = arith.divsi %c1676342753_i64, %149 : i64
      %286 = math.tanh %out : f16
      %287 = math.exp2 %5 : tensor<14xf16>
      %288 = index.castu %true_2 : i1 to index
      %289 = index.divs %51, %33
      %290 = math.fpowi %in_42, %c2052943229_i32 : f16, i32
      %291 = math.log2 %collapsed_49 : tensor<256x14xf16>
      %292 = index.divs %c0, %109
      %293 = math.sqrt %2 : tensor<16x16x14xf16>
      %294 = arith.addi %true, %true_25 : i1
      %295 = affine.apply affine_map<(d0, d1) -> (d0 ceildiv 8 - (d1 ceildiv 2 + d1 + 8) + d1 ceildiv 2 + d1 + 8 + (d1 ceildiv 2) * 2)>(%103, %47)
      %296 = memref.realloc %alloc_11 : memref<6xf16> to memref<6xf16>
      %297 = index.floordivs %c15, %rank
      %298 = arith.remf %in, %cst : f16
      linalg.yield %273 : f16
    } -> tensor<16x16x14xf16>
    %163 = vector.insertelement %c1676342753_i64, %132[%34 : index] : vector<3xi64>
    %164 = math.floor %85 : tensor<14xf32>
    %165 = math.absi %17 : tensor<14xi1>
    %166 = arith.negf %cst_4 : f16
    %167 = math.log2 %14 : tensor<16x16x14xf32>
    vector.print %57 : vector<i64>
    %168 = arith.remsi %false, %true_25 : i1
    %169 = index.add %c6, %102
    %170 = vector.broadcast %true_2 : i1 to vector<14x14xi1>
    %171 = vector.outerproduct %116, %116, %170 {kind = #vector.kind<maxui>} : vector<14xi1>, vector<14xi1>
    %172 = math.log2 %cst_3 : f16
    %173 = index.divs %121, %74
    %174 = math.ctpop %true_2 : i1
    %175 = index.add %c14, %121
    %176 = index.floordivs %24, %c8
    %177 = arith.minf %cst, %cst_4 : f16
    %178 = memref.realloc %alloc_17 : memref<14xi64> to memref<14xi64>
    %179 = arith.maxui %c32214_i16, %c32214_i16 : i16
    %180 = index.floordivs %169, %175
    %181 = arith.andi %c30443_i16, %c-20547_i16 : i16
    memref.store %149, %alloc_13[%c3] : memref<14xi64>
    %182 = math.rsqrt %cst_0 : f32
    %collapsed_28 = tensor.collapse_shape %2 [[0, 1], [2]] : tensor<16x16x14xf16> into tensor<256x14xf16>
    %183 = math.log1p %27 : f16
    %184 = index.divs %70, %173
    %collapsed_29 = tensor.collapse_shape %135 [[0, 1]] : tensor<256x3xf32> into tensor<768xf32>
    %185 = index.floordivs %180, %c11
    %186 = arith.shrsi %c2052943229_i32, %c2052943229_i32 : i32
    %187 = vector.splat %180 : vector<6xindex>
    %188 = arith.divf %cst_0, %cst_0 : f32
    %189 = scf.while (%arg3 = %true_2) : (i1) -> i1 {
      %271 = math.exp2 %27 : f16
      %272 = scf.while (%arg4 = %alloc_11) : (memref<6xf16>) -> memref<6xf16> {
        %279 = arith.cmpf uno, %27, %cst_3 : f16
        %true_42 = index.bool.constant true
        %collapsed_43 = tensor.collapse_shape %collapsed_28 [[0, 1]] : tensor<256x14xf16> into tensor<3584xf16>
        %280 = arith.minui %true_1, %true_1 : i1
        %281 = math.ipowi %true_25, %true_1 : i1
        %splat_44 = tensor.splat %c1676342753_i64 : tensor<14xi64>
        %282 = arith.minf %cst_0, %cst_0 : f32
        %inserted = tensor.insert %c2052943229_i32 into %4[%c1] : tensor<6xi32>
        scf.condition(%true_2) %arg4 : memref<6xf16>
      } do {
      ^bb0(%arg4: memref<6xf16>):
        memref.tensor_store %4, %alloc_20 : memref<6xi32>
        vector.print %18 : vector<3xi64>
        %279 = math.exp2 %135 : tensor<256x3xf32>
        %280 = math.ipowi %10, %10 : tensor<16x16x14xi32>
        %expanded_42 = tensor.expand_shape %13 [[0], [1], [2, 3]] : tensor<16x16x14xi64> into tensor<16x16x14x1xi64>
        %281 = math.ctlz %3 : tensor<16x16x14xi1>
        %282 = affine.min affine_map<(d0, d1) -> (d1, (d0 ceildiv 128) ceildiv 128, (d0 + d1) mod 128, d0 ceildiv 32)>(%c5, %c12)
        %283 = math.tanh %collapsed_29 : tensor<768xf32>
        %284 = vector.extract %73[0] : vector<1xi64>
        %collapsed_43 = tensor.collapse_shape %12 [[0, 1], [2]] : tensor<16x16x14xi64> into tensor<256x14xi64>
        %collapsed_44 = tensor.collapse_shape %13 [[0, 1], [2]] : tensor<16x16x14xi64> into tensor<256x14xi64>
        %285 = math.fpowi %5, %8 : tensor<14xf16>, tensor<14xi32>
        %alloc_45 = memref.alloc() : memref<14xi16>
        %cast = tensor.cast %5 : tensor<14xf16> to tensor<?xf16>
        %286 = math.log1p %cst : f16
        %287 = tensor.empty(%184) : tensor<?xi1>
        scf.yield %alloc_11 : memref<6xf16>
      }
      %273 = affine.max affine_map<(d0, d1, d2, d3) -> (d1 floordiv 128, d2)>(%c10, %c15, %176, %74)
      %274 = math.tan %collapsed_28 : tensor<256x14xf16>
      %275 = arith.remf %cst_0, %cst_0 : f32
      %276 = math.log1p %85 : tensor<14xf32>
      %277 = vector.maskedload %alloc_9[%c3], %116, %100 : memref<14xf32>, vector<14xi1>, vector<14xf32> into vector<14xf32>
      %278 = math.tan %cst_3 : f16
      scf.condition(%true_1) %true_1 : i1
    } do {
    ^bb0(%arg3: i1):
      %271 = math.ctpop %17 : tensor<14xi1>
      %272 = vector.load %alloc_22[%c3] : memref<6xf16>, vector<14xf16>
      %273 = vector.broadcast %c30443_i16 : i16 to vector<16x14xi16>
      %dest_42, %accumulated_value_43 = vector.scan <add>, %104, %273 {inclusive = false, reduction_dim = 1 : i64} : vector<16x16x14xi16>, vector<16x14xi16>
      %274 = vector.shuffle %80, %81 [1, 3, 5, 7, 10, 11, 12, 15, 16, 20, 21, 22, 25, 26, 27, 29, 31] : vector<16x16x14xf32>, vector<16x16x14xf32>
      %275 = bufferization.to_tensor %alloc_7 : memref<6xi64>
      %276 = arith.remui %arg3, %true_25 : i1
      %277 = math.exp2 %90 : tensor<256x14xf32>
      %278 = vector.reduction <minsi>, %116 : vector<14xi1> into i1
      %279 = scf.index_switch %69 -> i1 
      case 1 {
        %287 = arith.minui %true, %false : i1
        %288 = math.fpowi %cst_0, %c2052943229_i32 : f32, i32
        %289 = index.mul %c13, %28
        %290 = arith.divsi %c24348_i16, %c-20547_i16 : i16
        %291 = vector.extract_strided_slice %100 {offsets = [9], sizes = [2], strides = [1]} : vector<14xf32> to vector<2xf32>
        %292 = tensor.empty() : tensor<14xf32>
        %293 = index.ceildivu %289, %74
        %294 = arith.shrsi %149, %149 : i64
        %295 = affine.min affine_map<(d0, d1, d2, d3) -> ((d2 * 16) mod 32, d2 * 16, d1 * 32 - 1)>(%c8, %109, %185, %43)
        %296 = arith.maxf %cst_0, %cst_0 : f32
        %collapsed_44 = tensor.collapse_shape %14 [[0, 1], [2]] : tensor<16x16x14xf32> into tensor<256x14xf32>
        %297 = math.round %collapsed_28 : tensor<256x14xf16>
        %298 = arith.xori %c0_i64, %c1676342753_i64 : i64
        %299 = math.ceil %5 : tensor<14xf16>
        %300 = index.castu %c-20547_i16 : i16 to index
        %301 = arith.minf %cst, %cst : f16
        scf.yield %true_25 : i1
      }
      default {
        %287 = math.log1p %14 : tensor<16x16x14xf32>
        %288 = affine.apply affine_map<(d0, d1, d2, d3) -> (d1 * 64)>(%51, %34, %185, %c0)
        %c1_i32 = arith.constant 1 : i32
        %289 = vector.transfer_read %8[%92], %c1_i32 : tensor<14xi32>, vector<i32>
        %290 = index.divs %c11, %70
        %291 = bufferization.to_tensor %alloc_21 : memref<f16>
        %c502547882_i32 = arith.constant 502547882 : i32
        %292 = arith.remf %27, %cst_3 : f16
        %293 = vector.splat %cst_0 : vector<14xf32>
        %294 = math.exp %19 : tensor<f16>
        %295 = arith.maxui %true_2, %true_25 : i1
        %296 = affine.min affine_map<(d0, d1) -> (d1 + 12, d1 ceildiv 64 + (-d0) floordiv 8, 0)>(%169, %c14)
        %297 = index.floordivs %c12, %175
        %298 = arith.xori %c1_i32, %c2052943229_i32 : i32
        %299 = vector.broadcast %cst_0 : f32 to vector<14xf32>
        %300 = vector.fma %299, %100, %299 : vector<14xf32>
        %301 = vector.broadcast %cst_0 : f32 to vector<6xf32>
        %302 = vector.fma %301, %301, %301 : vector<6xf32>
        %303 = arith.minf %cst_0, %cst_0 : f32
        scf.yield %false : i1
      }
      %280 = index.divs %c14, %175
      %281 = math.round %collapsed : tensor<256x14xf32>
      %282 = vector.broadcast %cst_0 : f32 to vector<16x14x16x14xf32>
      %283 = vector.contract {indexing_maps = [affine_map<(d0, d1, d2, d3, d4) -> (d4, d0, d1)>, affine_map<(d0, d1, d2, d3, d4) -> (d4, d2, d3)>, affine_map<(d0, d1, d2, d3, d4) -> (d0, d1, d2, d3)>], iterator_types = ["parallel", "parallel", "parallel", "parallel", "reduction"], kind = #vector.kind<maxf>} %81, %112, %282 : vector<16x16x14xf32>, vector<16x16x14xf32> into vector<16x14x16x14xf32>
      scf.if %true {
        %287 = math.log1p %20 : tensor<f16>
        %288 = arith.divui %c-20547_i16, %c32214_i16 : i16
        %289 = tensor.empty(%82, %c8) : tensor<?x16x?xi32>
        %290 = affine.apply affine_map<(d0, d1, d2) -> (d1 ceildiv 64)>(%77, %c12, %143)
        %291 = affine.load %alloc_15[%c5] : memref<14xi64>
        %292 = math.sqrt %splat : tensor<16x16x14xf16>
        memref.store %cst_3, %alloc_8[%c6] : memref<14xf16>
        %293 = index.mul %158, %rank
      }
      %284 = math.ceil %collapsed_29 : tensor<768xf32>
      %285 = index.divs %77, %c9
      %286 = bufferization.to_memref %4 : memref<6xi32>
      scf.yield %false : i1
    }
    %190 = scf.execute_region -> f32 {
      %271 = affine.load %alloc_19[%c1] : memref<14xi32>
      %272 = affine.apply affine_map<(d0, d1, d2, d3) -> (d1 - 32)>(%180, %c0, %103, %74)
      %cast = tensor.cast %4 : tensor<6xi32> to tensor<?xi32>
      %273 = math.atan2 %20, %20 : tensor<f16>
      %274 = affine.apply affine_map<(d0) -> (0)>(%175)
      %alloc_42 = memref.alloc() : memref<14x16xi64>
      %alloc_43 = memref.alloc() : memref<16xi64>
      %275 = linalg.generic {indexing_maps = [affine_map<(d0, d1, d2) -> (d2, d1)>, affine_map<(d0, d1, d2) -> (d0)>, affine_map<(d0, d1, d2) -> (d0)>, affine_map<(d0, d1, d2) -> (d0, d1, d2)>], iterator_types = ["parallel", "parallel", "parallel"]} ins(%alloc_42, %alloc_43, %alloc_43 : memref<14x16xi64>, memref<16xi64>, memref<16xi64>) outs(%13 : tensor<16x16x14xi64>) {
      ^bb0(%in: i64, %in_45: i64, %in_46: i64, %out: i64):
        %286 = memref.atomic_rmw assign %cst_4, %alloc_21[] : (f16, memref<f16>) -> f16
        %cast_47 = tensor.cast %8 : tensor<14xi32> to tensor<?xi32>
        memref.store %271, %alloc_20[%c5] : memref<6xi32>
        %287 = vector.broadcast %cst_4 : f16 to vector<f16>
        %288 = vector.transfer_write %287, %5[%74] : vector<f16>, tensor<14xf16>
        %289 = index.add %176, %173
        %290 = math.fpowi %85, %1 : tensor<14xf32>, tensor<14xi32>
        %291 = arith.remf %cst_4, %cst_4 : f16
        %292 = index.castu %169 : index to i32
        %293 = vector.extract %115[8] : vector<14xf16>
        %294 = math.ctpop %8 : tensor<14xi32>
        %295 = vector.insertelement %cst_3, %117[%140 : index] : vector<14xf16>
        %296 = affine.max affine_map<(d0, d1, d2) -> (d2 - d0 + d1)>(%176, %30, %180)
        %297 = arith.negf %cst_0 : f32
        memref.assume_alignment %alloc_13, 2 : memref<14xi64>
        %alloca_48 = memref.alloca() : memref<14xi32>
        %298 = math.cos %2 : tensor<16x16x14xf16>
        %299 = vector.broadcast %c24348_i16 : i16 to vector<14xi16>
        %300 = vector.maskedload %alloc[%c3], %116, %299 : memref<14xi16>, vector<14xi1>, vector<14xi16> into vector<14xi16>
        %301 = math.absi %15 : tensor<14xi64>
        %302 = vector.broadcast %48 : index to vector<6xindex>
        %303 = vector.broadcast %true : i1 to vector<6xi1>
        vector.scatter %alloc_16[%c6] [%302], %303, %303 : memref<14xi1>, vector<6xindex>, vector<6xi1>, vector<6xi1>
        %304 = vector.extract %132[2] : vector<3xi64>
        %305 = index.mul %c1, %c11
        %306 = math.fpowi %5, %1 : tensor<14xf16>, tensor<14xi32>
        %307 = affine.load %alloc_18[%c6] : memref<14xf32>
        %308 = index.ceildivu %30, %c9
        %309 = affine.min affine_map<(d0, d1, d2) -> (-(d1 ceildiv 2 + d1) + d2 - (d1 ceildiv 2 + d1), (d0 + 1) ceildiv 64, d1 ceildiv 2 + d1 - 4)>(%180, %c12, %289)
        %310 = affine.min affine_map<(d0, d1) -> ((d0 floordiv 4) * 8)>(%33, %175)
        %311 = arith.shrui %in, %out : i64
        %312 = math.ctlz %149 : i64
        %313 = vector.broadcast %cst : f16 to vector<16x16x14xf16>
        %314 = vector.broadcast %false : i1 to vector<16x16x14xi1>
        %315 = vector.broadcast %271 : i32 to vector<16x16x14xi32>
        %316 = vector.gather %alloc_8[%c7] [%315], %314, %313 : memref<14xf16>, vector<16x16x14xi32>, vector<16x16x14xi1>, vector<16x16x14xf16> into vector<16x16x14xf16>
        %extracted = tensor.extract %3[%c8, %c8, %c3] : tensor<16x16x14xi1>
        %317 = arith.remf %cst_0, %307 : f32
        %cast_49 = tensor.cast %1 : tensor<14xi32> to tensor<?xi32>
        linalg.yield %c0_i64 : i64
      } -> tensor<16x16x14xi64>
      %276 = arith.remui %c32214_i16, %c-20547_i16 : i16
      %rank_44 = tensor.rank %90 : tensor<256x14xf32>
      %277 = math.atan2 %cst_4, %27 : f16
      %278 = math.log1p %cst_4 : f16
      %279 = vector.splat %c0 : vector<14xindex>
      %280 = index.divs %c5, %143
      %281 = math.log1p %90 : tensor<256x14xf32>
      %282 = affine.min affine_map<(d0, d1) -> (-d0 + (d0 + 32) * 32 - 128, -(d1 + d0 + 32) - (d0 + 32) - 32, (d1 + d0 + 32) * 8, (d1 + d0 + 32) * 512)>(%169, %30)
      %283 = math.round %5 : tensor<14xf16>
      %284 = vector.broadcast %c988780503_i64 : i64 to vector<14x14xi64>
      %285 = vector.outerproduct %99, %99, %284 {kind = #vector.kind<maxsi>} : vector<14xi64>, vector<14xi64>
      scf.yield %cst_0 : f32
    }
    %cst_30 = arith.constant 0x4E167AD9 : f32
    %191 = memref.load %alloc_19[%c4] : memref<14xi32>
    %192 = math.log10 %85 : tensor<14xf32>
    %193 = math.exp2 %cst_0 : f32
    %194 = tensor.empty() : tensor<16x16x14xf16>
    %195 = math.powf %20, %20 : tensor<f16>
    %196 = vector.bitcast %86 : vector<16xf32> to vector<16xf32>
    memref.alloca_scope  {
      %271 = math.rsqrt %collapsed : tensor<256x14xf32>
      %alloc_42 = memref.alloc() : memref<6xi64>
      %272 = vector.insert %c1676342753_i64, %132 [2] : i64 into vector<3xi64>
      %273 = memref.alloca_scope  -> (i64) {
        %299 = vector.splat %c2052943229_i32 : vector<16x16x14xi32>
        %300 = arith.andi %c2052943229_i32, %c2052943229_i32 : i32
        %301 = arith.subi %c2052943229_i32, %c2052943229_i32 : i32
        %alloc_47 = memref.alloc() : memref<16x16x14xf16>
        memref.tensor_store %splat, %alloc_47 : memref<16x16x14xf16>
        %302 = arith.remui %true_25, %true_1 : i1
        %303 = tensor.empty() : tensor<i32>
        %304 = math.fpowi %20, %303 : tensor<f16>, tensor<i32>
        %305 = math.ctpop %7 : tensor<14xi1>
        memref.store %cst_0, %alloc_18[%c13] : memref<14xf32>
        %306 = vector.insertelement %cst, %117[%c11 : index] : vector<14xf16>
        %307 = arith.minf %cst_3, %cst_3 : f16
        %308 = math.ctpop %c2052943229_i32 : i32
        %309 = index.castu %c15 : index to i32
        %310 = math.ctpop %c1676342753_i64 : i64
        %311 = vector.bitcast %112 : vector<16x16x14xf32> to vector<16x16x14xi32>
        %312 = arith.maxf %27, %cst_4 : f16
        %313 = index.mul %33, %c1
        %314 = vector.insertelement %149, %132[%24 : index] : vector<3xi64>
        %315 = arith.maxui %149, %c0_i64 : i64
        %316 = arith.divui %true_25, %true : i1
        bufferization.dealloc_tensor %3 : tensor<16x16x14xi1>
        memref.tensor_store %3, %alloc_12 : memref<16x16x14xi1>
        %317 = arith.addi %c0_i64, %c1676342753_i64 : i64
        %318 = affine.apply affine_map<(d0, d1) -> (d0 * 2 + d0 + 2)>(%24, %c9)
        %319 = arith.maxf %cst_3, %27 : f16
        %320 = math.ceil %5 : tensor<14xf16>
        %321 = math.log1p %19 : tensor<f16>
        %322 = math.absf %14 : tensor<16x16x14xf32>
        %323 = index.castu %true_25 : i1 to index
        %324 = math.rsqrt %5 : tensor<14xf16>
        %325 = math.absf %19 : tensor<f16>
        %326 = arith.remf %cst_3, %cst : f16
        %327 = index.maxs %103, %43
        memref.alloca_scope.return %c0_i64 : i64
      }
      %274 = math.round %90 : tensor<256x14xf32>
      %275 = vector.contract {indexing_maps = [affine_map<(d0) -> (d0)>, affine_map<(d0) -> (d0)>, affine_map<(d0) -> ()>], iterator_types = ["reduction"], kind = #vector.kind<and>} %29, %29, %273 : vector<3xi64>, vector<3xi64> into i64
      vector.print %38 : vector<i32>
      %276 = memref.load %alloc_12[%c5, %c14, %c10] : memref<16x16x14xi1>
      %277 = math.rsqrt %27 : f16
      %dest_43, %accumulated_value_44 = vector.scan <mul>, %160, %84 {inclusive = false, reduction_dim = 1 : i64} : vector<16x16x14xf32>, vector<16x14xf32>
      %278 = arith.maxf %27, %cst : f16
      %279 = math.log2 %collapsed_29 : tensor<768xf32>
      %280 = math.log1p %splat : tensor<16x16x14xf16>
      %281 = tensor.empty() : tensor<14xi1>
      %mapped = linalg.map ins(%11, %alloc_16 : tensor<14xi1>, memref<14xi1>) outs(%281 : tensor<14xi1>)
        (%in: i1, %in_47: i1) {
          %299 = arith.minsi %false, %true_2 : i1
          %300 = arith.remui %in, %false : i1
          %301 = index.divs %51, %c10
          %302 = math.log2 %194 : tensor<16x16x14xf16>
          %303 = memref.realloc %alloc_14 : memref<14xi64> to memref<16xi64>
          %304 = arith.maxf %190, %cst_0 : f32
          %305 = math.expm1 %cst : f16
          %306 = arith.andi %true, %true : i1
          %307 = arith.addi %c-20547_i16, %c24348_i16 : i16
          %c1541381915_i32 = arith.constant 1541381915 : i32
          %308 = memref.realloc %alloc : memref<14xi16> to memref<6xi16>
          %309 = math.log1p %cst_4 : f16
          %splat_48 = tensor.splat %c24348_i16 : tensor<6xi16>
          %310 = math.ctpop %true_1 : i1
          %311 = arith.mulf %190, %190 : f32
          %312 = math.ctlz %true : i1
          %cst_49 = arith.constant 1.000000e+00 : f32
          %313 = vector.transfer_read %135[%82, %c4], %cst_49 : tensor<256x3xf32>, vector<3xf32>
          %314 = math.atan2 %135, %135 : tensor<256x3xf32>
          memref.assume_alignment %alloc_10, 16 : memref<16x16x14xi16>
          memref.store %c24348_i16, %alloc_10[%c2, %c4, %c0] : memref<16x16x14xi16>
          %315 = vector.extract_strided_slice %84 {offsets = [12], sizes = [2], strides = [1]} : vector<16x14xf32> to vector<2x14xf32>
          %316 = arith.remf %190, %cst_0 : f32
          %317 = index.sizeof
          %318 = arith.xori %c0_i64, %c0_i64 : i64
          %319 = vector.broadcast %cst_0 : f32 to vector<16x14x16x14xf32>
          %320 = vector.contract {indexing_maps = [affine_map<(d0, d1, d2, d3, d4) -> (d4, d0, d1)>, affine_map<(d0, d1, d2, d3, d4) -> (d4, d2, d3)>, affine_map<(d0, d1, d2, d3, d4) -> (d0, d1, d2, d3)>], iterator_types = ["parallel", "parallel", "parallel", "parallel", "reduction"], kind = #vector.kind<mul>} %160, %80, %319 : vector<16x16x14xf32>, vector<16x16x14xf32> into vector<16x14x16x14xf32>
          %321 = vector.bitcast %52 : vector<1xi64> to vector<1xi64>
          %322 = math.absi %11 : tensor<14xi1>
          %323 = arith.addi %c32214_i16, %c24348_i16 : i16
          %324 = vector.extract %99[12] : vector<14xi64>
          %325 = math.ctlz %7 : tensor<14xi1>
          %326 = arith.divf %cst_0, %190 : f32
          %327 = vector.broadcast %c1212773757_i64 : i64 to vector<3x3xi64>
          %328 = vector.outerproduct %29, %29, %327 {kind = #vector.kind<maxsi>} : vector<3xi64>, vector<3xi64>
          %false_50 = arith.constant false
          linalg.yield %false_50 : i1
        }
      %282 = arith.subi %true_2, %true : i1
      %283 = index.castu %c10 : index to i32
      %284 = scf.while (%arg3 = %c0_i64) : (i64) -> i64 {
        %extracted = tensor.extract %8[%c7] : tensor<14xi32>
        %299 = math.tanh %14 : tensor<16x16x14xf32>
        %from_elements = tensor.from_elements %arg3, %c0_i64, %c988780503_i64, %273, %149, %c988780503_i64, %c0_i64, %c1212773757_i64, %273, %c1676342753_i64, %149, %c988780503_i64, %c988780503_i64, %c1212773757_i64, %arg3, %arg3, %c0_i64, %c1676342753_i64, %c0_i64, %arg3, %arg3, %273, %c1212773757_i64, %c988780503_i64, %c988780503_i64, %273, %c1676342753_i64, %c1212773757_i64, %c988780503_i64, %273, %c0_i64, %arg3, %273, %c988780503_i64, %273, %arg3, %c988780503_i64, %arg3, %273, %c988780503_i64, %149, %c1676342753_i64, %c1676342753_i64, %c0_i64, %c988780503_i64, %149, %c1676342753_i64, %c1676342753_i64, %273, %c1212773757_i64, %c0_i64, %c1212773757_i64, %273, %149, %c1212773757_i64, %149, %c1676342753_i64, %c988780503_i64, %c0_i64, %c0_i64, %c1676342753_i64, %c0_i64, %c1676342753_i64, %c1676342753_i64, %c0_i64, %c1212773757_i64, %c1676342753_i64, %273, %c988780503_i64, %arg3, %c1212773757_i64, %c988780503_i64, %c1212773757_i64, %273, %149, %c0_i64, %c0_i64, %c1212773757_i64, %273, %arg3, %arg3, %c988780503_i64, %c0_i64, %arg3, %arg3, %c1212773757_i64, %c1212773757_i64, %149, %c988780503_i64, %273, %c1676342753_i64, %c1212773757_i64, %c1676342753_i64, %c0_i64, %273, %arg3, %arg3, %arg3, %273, %c1676342753_i64, %273, %149, %c988780503_i64, %c1676342753_i64, %c1676342753_i64, %c1676342753_i64, %arg3, %c0_i64, %273, %c988780503_i64, %273, %c0_i64, %273, %c988780503_i64, %c1676342753_i64, %c0_i64, %273, %c1676342753_i64, %c0_i64, %273, %149, %c988780503_i64, %c988780503_i64, %149, %149, %149, %c1212773757_i64, %arg3, %c988780503_i64, %149, %c1676342753_i64, %c1212773757_i64, %c988780503_i64, %c0_i64, %c1676342753_i64, %c988780503_i64, %149, %273, %c1212773757_i64, %c1676342753_i64, %arg3, %149, %273, %c1676342753_i64, %c1212773757_i64, %c988780503_i64, %c1676342753_i64, %149, %c1212773757_i64, %273, %arg3, %c988780503_i64, %c988780503_i64, %c1212773757_i64, %149, %c0_i64, %273, %c0_i64, %c988780503_i64, %c1676342753_i64, %273, %149, %c988780503_i64, %arg3, %arg3, %c0_i64, %arg3, %c1212773757_i64, %c1212773757_i64, %149, %c988780503_i64, %arg3, %c1212773757_i64, %c988780503_i64, %c1212773757_i64, %c1676342753_i64, %149, %149, %149, %c1676342753_i64, %149, %c1212773757_i64, %c988780503_i64, %c0_i64, %149, %c1212773757_i64, %c988780503_i64, %149, %c0_i64, %arg3, %c1212773757_i64, %arg3, %arg3, %273, %arg3, %c1212773757_i64, %c988780503_i64, %273, %c988780503_i64, %c1212773757_i64, %c1212773757_i64, %c0_i64, %273, %arg3, %149, %c988780503_i64, %c1212773757_i64, %c988780503_i64, %c988780503_i64, %c1212773757_i64, %c1676342753_i64, %arg3, %c1676342753_i64, %c0_i64, %c0_i64, %c988780503_i64, %arg3, %c1676342753_i64, %273, %arg3, %273, %273, %c988780503_i64, %c988780503_i64, %c0_i64, %273, %149, %c988780503_i64, %c1676342753_i64, %149, %149, %c988780503_i64, %c1212773757_i64, %c1676342753_i64, %c1212773757_i64, %c988780503_i64, %c0_i64, %c0_i64, %c1212773757_i64, %c1212773757_i64, %c988780503_i64, %c988780503_i64, %149, %c0_i64, %c1212773757_i64, %c988780503_i64, %c1676342753_i64, %c0_i64, %273, %c1212773757_i64, %c0_i64, %273, %arg3, %c1676342753_i64, %arg3, %149, %c1212773757_i64, %149, %149, %c1676342753_i64, %c1212773757_i64, %c1212773757_i64, %c988780503_i64, %c988780503_i64, %c0_i64, %c1212773757_i64, %c988780503_i64, %149, %c1212773757_i64, %273, %c1676342753_i64, %273, %c0_i64, %c0_i64, %c988780503_i64, %c1676342753_i64, %c1212773757_i64, %arg3, %c988780503_i64, %273, %c0_i64, %c988780503_i64, %c1676342753_i64, %c0_i64, %273, %c0_i64, %c0_i64, %c988780503_i64, %c0_i64, %149, %c1676342753_i64, %149, %c0_i64, %149, %c0_i64, %c0_i64, %c0_i64, %273, %c988780503_i64, %c988780503_i64, %c1212773757_i64, %273, %c988780503_i64, %c0_i64, %c988780503_i64, %c1212773757_i64, %c988780503_i64, %c1212773757_i64, %c1212773757_i64, %c1676342753_i64, %c0_i64, %273, %149, %c1676342753_i64, %149, %273, %149, %c1676342753_i64, %c1212773757_i64, %arg3, %c0_i64, %c0_i64, %273, %149, %273, %273, %c1212773757_i64, %c988780503_i64, %149, %arg3, %arg3, %273, %273, %c988780503_i64, %273, %273, %149, %c1676342753_i64, %c1212773757_i64, %c0_i64, %arg3, %c1212773757_i64, %c1676342753_i64, %c1212773757_i64, %c1212773757_i64, %c988780503_i64, %149, %c1676342753_i64, %149, %c1212773757_i64, %c1676342753_i64, %149, %c1676342753_i64, %arg3, %c0_i64, %c1212773757_i64, %c1676342753_i64, %c1676342753_i64, %c0_i64, %149, %c0_i64, %c1676342753_i64, %149, %149, %273, %c988780503_i64, %149, %c0_i64, %c0_i64, %c1676342753_i64, %c0_i64, %c1676342753_i64, %273, %c0_i64, %arg3, %c1676342753_i64, %149, %c0_i64, %149, %c0_i64, %c1676342753_i64, %arg3, %arg3, %c988780503_i64, %273, %273, %c988780503_i64, %149, %c988780503_i64, %273, %arg3, %149, %c988780503_i64, %273, %c1676342753_i64, %arg3, %273, %149, %c1212773757_i64, %149, %c1212773757_i64, %c1212773757_i64, %arg3, %c1212773757_i64, %c1676342753_i64, %149, %c988780503_i64, %c1212773757_i64, %arg3, %arg3, %273, %c0_i64, %c0_i64, %273, %c1212773757_i64, %c988780503_i64, %c1212773757_i64, %c1676342753_i64, %c988780503_i64, %c988780503_i64, %c0_i64, %149, %c1212773757_i64, %273, %149, %c1212773757_i64, %c0_i64, %273, %c1676342753_i64, %149, %c1676342753_i64, %273, %c1676342753_i64, %c0_i64, %c1676342753_i64, %c1676342753_i64, %c1212773757_i64, %273, %arg3, %c1676342753_i64, %c1676342753_i64, %149, %c1676342753_i64, %149, %arg3, %arg3, %c1676342753_i64, %c1212773757_i64, %c1212773757_i64, %c988780503_i64, %arg3, %arg3, %149, %c1676342753_i64, %c1212773757_i64, %c1212773757_i64, %273, %c0_i64, %c0_i64, %149, %149, %arg3, %c1212773757_i64, %c1676342753_i64, %c988780503_i64, %c0_i64, %149, %arg3, %c0_i64, %arg3, %149, %273, %273, %c1212773757_i64, %c0_i64, %arg3, %c1212773757_i64, %c1676342753_i64, %149, %149, %arg3, %arg3, %c1212773757_i64, %c0_i64, %273, %149, %c1212773757_i64, %c1212773757_i64, %273, %arg3, %c1212773757_i64, %c1212773757_i64, %c1212773757_i64, %c1212773757_i64, %c988780503_i64, %c1676342753_i64, %arg3, %c1676342753_i64, %c988780503_i64, %c988780503_i64, %c1212773757_i64, %c0_i64, %c0_i64, %arg3, %c988780503_i64, %c1676342753_i64, %149, %arg3, %273, %273, %149, %arg3, %arg3, %arg3, %c988780503_i64, %c0_i64, %c1676342753_i64, %273, %149, %273, %c1212773757_i64, %arg3, %273, %c0_i64, %arg3, %c1676342753_i64, %149, %c988780503_i64, %arg3, %149, %arg3, %c988780503_i64, %arg3, %c1676342753_i64, %273, %c1676342753_i64, %149, %c1212773757_i64, %arg3, %149, %c0_i64, %c0_i64, %273, %c1212773757_i64, %c1676342753_i64, %149, %c1676342753_i64, %c0_i64, %c1676342753_i64, %arg3, %arg3, %c1212773757_i64, %c988780503_i64, %c1212773757_i64, %c1676342753_i64, %149, %arg3, %149, %c0_i64, %c0_i64, %149, %149, %c1676342753_i64, %149, %273, %c988780503_i64, %273, %c1212773757_i64, %arg3, %c0_i64, %arg3, %149, %c1676342753_i64, %149, %273, %c1676342753_i64, %c0_i64, %149, %c1212773757_i64, %149, %273, %273, %149, %149, %c0_i64, %149, %c1212773757_i64, %c1212773757_i64, %c1676342753_i64, %273, %273, %c988780503_i64, %arg3, %arg3, %273, %c0_i64, %c988780503_i64, %c1212773757_i64, %273, %c1212773757_i64, %c988780503_i64, %273, %149, %c0_i64, %c988780503_i64, %c0_i64, %c0_i64, %149, %273, %arg3, %c1676342753_i64, %c988780503_i64, %c988780503_i64, %c1676342753_i64, %149, %c0_i64, %149, %273, %c988780503_i64, %arg3, %arg3, %c1212773757_i64, %149, %c0_i64, %c988780503_i64, %c1676342753_i64, %arg3, %c0_i64, %273, %273, %arg3, %arg3, %arg3, %273, %c988780503_i64, %c988780503_i64, %c1676342753_i64, %c1212773757_i64, %273, %c1676342753_i64, %c988780503_i64, %c1212773757_i64, %c0_i64, %arg3, %c0_i64, %c988780503_i64, %c1676342753_i64, %c1676342753_i64, %149, %273, %149, %149, %c988780503_i64, %c988780503_i64, %c1212773757_i64, %arg3, %273, %c988780503_i64, %273, %c1676342753_i64, %c1212773757_i64, %arg3, %c988780503_i64, %c1212773757_i64, %c1212773757_i64, %149, %arg3, %c1212773757_i64, %c0_i64, %149, %c988780503_i64, %c1676342753_i64, %arg3, %c1676342753_i64, %149, %149, %c988780503_i64, %c1676342753_i64, %149, %c0_i64, %c1676342753_i64, %c1212773757_i64, %273, %c1212773757_i64, %c1212773757_i64, %c1212773757_i64, %273, %149, %c1212773757_i64, %149, %c988780503_i64, %arg3, %c1676342753_i64, %c1676342753_i64, %c1676342753_i64, %c1212773757_i64, %273, %273, %arg3, %c1676342753_i64, %c988780503_i64, %c1676342753_i64, %273, %c988780503_i64, %c988780503_i64, %273, %c1212773757_i64, %arg3, %273, %c1676342753_i64, %149, %c988780503_i64, %c0_i64, %c988780503_i64, %arg3, %arg3, %arg3, %arg3, %c0_i64, %273, %c1676342753_i64, %c1212773757_i64, %149, %273, %149, %149, %149, %arg3, %273, %149, %c0_i64, %arg3, %273, %c1676342753_i64, %273, %c988780503_i64, %273, %149, %273, %arg3, %149, %c0_i64, %arg3, %c988780503_i64, %149, %c988780503_i64, %c1212773757_i64, %273, %arg3, %arg3, %c1676342753_i64, %c1676342753_i64, %c1212773757_i64, %arg3, %149, %c1676342753_i64, %273, %149, %c988780503_i64, %c0_i64, %c1676342753_i64, %c1676342753_i64, %149, %c0_i64, %273, %c988780503_i64, %273, %149, %c1676342753_i64, %149, %c0_i64, %c1676342753_i64, %c0_i64, %c0_i64, %c1212773757_i64, %273, %c988780503_i64, %149, %c1212773757_i64, %273, %c988780503_i64, %arg3, %149, %arg3, %149, %arg3, %c1676342753_i64, %273, %c0_i64, %c988780503_i64, %c0_i64, %c1676342753_i64, %c0_i64, %c1676342753_i64, %c988780503_i64, %c0_i64, %c1212773757_i64, %c0_i64, %c1212773757_i64, %c988780503_i64, %149, %c1212773757_i64, %c1212773757_i64, %c988780503_i64, %c1212773757_i64, %273, %c988780503_i64, %149, %arg3, %c1676342753_i64, %c0_i64, %149, %273, %arg3, %c1212773757_i64, %273, %c0_i64, %c1212773757_i64, %149, %273, %c988780503_i64, %149, %c1676342753_i64, %273, %arg3, %c1676342753_i64, %c0_i64, %c0_i64, %c1212773757_i64, %273, %273, %arg3, %c1212773757_i64, %c1212773757_i64, %c988780503_i64, %c0_i64, %c1212773757_i64, %c988780503_i64, %c0_i64, %c988780503_i64, %c988780503_i64, %c988780503_i64, %c1212773757_i64, %c0_i64, %c988780503_i64, %149, %arg3, %c988780503_i64, %arg3, %149, %c0_i64, %arg3, %c0_i64, %c1676342753_i64, %149, %c988780503_i64, %273, %c1212773757_i64, %273, %c1212773757_i64, %c1676342753_i64, %arg3, %c988780503_i64, %c1676342753_i64, %273, %c0_i64, %c1212773757_i64, %arg3, %arg3, %c0_i64, %c1676342753_i64, %c0_i64, %c1212773757_i64, %c0_i64, %c1676342753_i64, %arg3, %arg3, %c0_i64, %arg3, %273, %149, %c1676342753_i64, %arg3, %273, %273, %149, %c0_i64, %arg3, %c1676342753_i64, %273, %arg3, %c0_i64, %c0_i64, %c988780503_i64, %c1212773757_i64, %c0_i64, %c988780503_i64, %149, %c1676342753_i64, %c0_i64, %273, %c0_i64, %arg3, %c0_i64, %273, %c988780503_i64, %c988780503_i64, %273, %149, %c988780503_i64, %149, %c1212773757_i64, %c1676342753_i64, %c1676342753_i64, %arg3, %c1212773757_i64, %c1212773757_i64, %273, %c1676342753_i64, %arg3, %arg3, %c988780503_i64, %c1212773757_i64, %273, %c988780503_i64, %c0_i64, %c1212773757_i64, %149, %c1676342753_i64, %c988780503_i64, %c1212773757_i64, %c1676342753_i64, %c1676342753_i64, %c1212773757_i64, %273, %149, %c988780503_i64, %149, %c0_i64, %c988780503_i64, %273, %149, %273, %273, %c1676342753_i64, %273, %149, %c1212773757_i64, %c1212773757_i64, %149, %273, %c1676342753_i64, %arg3, %c1212773757_i64, %arg3, %c1212773757_i64, %c1212773757_i64, %c988780503_i64, %c1212773757_i64, %c1676342753_i64, %c1212773757_i64, %arg3, %c988780503_i64, %c988780503_i64, %c988780503_i64, %c0_i64, %273, %c1676342753_i64, %c1676342753_i64, %273, %c0_i64, %arg3, %c0_i64, %arg3, %arg3, %c1212773757_i64, %273, %273, %c988780503_i64, %arg3, %273, %273, %c1676342753_i64, %arg3, %273, %c988780503_i64, %c1212773757_i64, %arg3, %c1212773757_i64, %c1212773757_i64, %c0_i64, %c0_i64, %c0_i64, %c0_i64, %c0_i64, %c0_i64, %c0_i64, %arg3, %arg3, %arg3, %c1676342753_i64, %arg3, %273, %c1212773757_i64, %149, %c0_i64, %149, %c1676342753_i64, %arg3, %c1676342753_i64, %c988780503_i64, %273, %c1676342753_i64, %273, %c1676342753_i64, %c0_i64, %c1212773757_i64, %273, %c1212773757_i64, %arg3, %c988780503_i64, %273, %arg3, %arg3, %arg3, %c988780503_i64, %c1212773757_i64, %149, %c988780503_i64, %c1212773757_i64, %c988780503_i64, %273, %273, %273, %273, %c0_i64, %149, %273, %149, %c0_i64, %273, %c0_i64, %c1676342753_i64, %c1212773757_i64, %149, %273, %c0_i64, %arg3, %arg3, %c1212773757_i64, %149, %273, %arg3, %273, %c1676342753_i64, %149, %149, %c1212773757_i64, %c988780503_i64, %arg3, %c1212773757_i64, %c1212773757_i64, %273, %c1212773757_i64, %arg3, %c1212773757_i64, %arg3, %arg3, %arg3, %c0_i64, %149, %c988780503_i64, %c1676342753_i64, %c1212773757_i64, %c0_i64, %c1676342753_i64, %c988780503_i64, %149, %273, %c1676342753_i64, %arg3, %c1676342753_i64, %c1676342753_i64, %149, %273, %c1676342753_i64, %c988780503_i64, %c1676342753_i64, %c1676342753_i64, %c1212773757_i64, %c1212773757_i64, %c1676342753_i64, %arg3, %c1676342753_i64, %c988780503_i64, %149, %arg3, %c0_i64, %273, %c1676342753_i64, %273, %c1676342753_i64, %273, %c1676342753_i64, %c0_i64, %273, %149, %c988780503_i64, %c1212773757_i64, %c0_i64, %c1212773757_i64, %149, %c0_i64, %arg3, %c0_i64, %c1676342753_i64, %c1676342753_i64, %c0_i64, %c0_i64, %arg3, %arg3, %c1676342753_i64, %c988780503_i64, %c1212773757_i64, %c1676342753_i64, %c1212773757_i64, %c1212773757_i64, %c1212773757_i64, %273, %273, %c988780503_i64, %c0_i64, %149, %273, %arg3, %273, %arg3, %c988780503_i64, %c1676342753_i64, %c1676342753_i64, %273, %149, %c0_i64, %c1212773757_i64, %c1676342753_i64, %c0_i64, %arg3, %c1212773757_i64, %273, %c1212773757_i64, %149, %arg3, %arg3, %arg3, %c1676342753_i64, %c1212773757_i64, %149, %c988780503_i64, %149, %c988780503_i64, %c0_i64, %149, %arg3, %c988780503_i64, %c1212773757_i64, %arg3, %273, %c1212773757_i64, %149, %c988780503_i64, %c1676342753_i64, %c0_i64, %c988780503_i64, %273, %c988780503_i64, %c1676342753_i64, %c1212773757_i64, %273, %arg3, %c988780503_i64, %arg3, %273, %149, %149, %c1676342753_i64, %c988780503_i64, %c988780503_i64, %arg3, %c1212773757_i64, %c0_i64, %c1212773757_i64, %273, %273, %c1212773757_i64, %c988780503_i64, %149, %c1212773757_i64, %c1212773757_i64, %c1212773757_i64, %c988780503_i64, %c0_i64, %c1212773757_i64, %c1212773757_i64, %c0_i64, %273, %c988780503_i64, %c1212773757_i64, %c988780503_i64, %c0_i64, %c0_i64, %c0_i64, %c988780503_i64, %c988780503_i64, %c1676342753_i64, %c988780503_i64, %273, %c0_i64, %c988780503_i64, %c1676342753_i64, %c988780503_i64, %c988780503_i64, %c1676342753_i64, %149, %c988780503_i64, %c0_i64, %c1212773757_i64, %c0_i64, %c1212773757_i64, %c1676342753_i64, %c0_i64, %arg3, %arg3, %c988780503_i64, %273, %273, %c1212773757_i64, %149, %149, %149, %c1212773757_i64, %c1212773757_i64, %arg3, %273, %c0_i64, %arg3, %c0_i64, %c0_i64, %c1212773757_i64, %149, %c1212773757_i64, %c1676342753_i64, %c0_i64, %c988780503_i64, %c1676342753_i64, %c0_i64, %c1676342753_i64, %c988780503_i64, %c0_i64, %273, %c1676342753_i64, %149, %c1212773757_i64, %arg3, %273, %c1212773757_i64, %149, %273, %c0_i64, %arg3, %c1676342753_i64, %149, %149, %273, %c0_i64, %c988780503_i64, %273, %arg3, %c988780503_i64, %c1212773757_i64, %c1676342753_i64, %arg3, %c1676342753_i64, %arg3, %149, %c1212773757_i64, %c1212773757_i64, %c1212773757_i64, %273, %c0_i64, %c0_i64, %c988780503_i64, %c988780503_i64, %arg3, %arg3, %149, %arg3, %c1212773757_i64, %arg3, %c988780503_i64, %273, %arg3, %149, %149, %c988780503_i64, %c988780503_i64, %c1212773757_i64, %c1676342753_i64, %c0_i64, %c1676342753_i64, %c1676342753_i64, %arg3, %arg3, %149, %c988780503_i64, %c0_i64, %c1212773757_i64, %c1676342753_i64, %149, %273, %arg3, %149, %273, %c0_i64, %273, %c988780503_i64, %c1676342753_i64, %273, %149, %c0_i64, %c0_i64, %c1676342753_i64, %c1676342753_i64, %c988780503_i64, %273, %c988780503_i64, %c988780503_i64, %arg3, %273, %273, %273, %273, %c0_i64, %c988780503_i64, %arg3, %c1212773757_i64, %c988780503_i64, %273, %c1676342753_i64, %c988780503_i64, %c988780503_i64, %273, %c988780503_i64, %c1212773757_i64, %arg3, %149, %c0_i64, %c988780503_i64, %arg3, %149, %273, %c1676342753_i64, %arg3, %c1676342753_i64, %c1676342753_i64, %c988780503_i64, %149, %c0_i64, %c988780503_i64, %149, %c1676342753_i64, %c1212773757_i64, %arg3, %arg3, %c1676342753_i64, %149, %arg3, %c1676342753_i64, %c988780503_i64, %149, %c0_i64, %149, %c988780503_i64, %273, %c0_i64, %c988780503_i64, %149, %273, %arg3, %c1676342753_i64, %149, %c1212773757_i64, %arg3, %c0_i64, %273, %149, %273, %c1212773757_i64, %c988780503_i64, %c988780503_i64, %149, %arg3, %c0_i64, %c0_i64, %273, %149, %c988780503_i64, %c1676342753_i64, %149, %c988780503_i64, %c1676342753_i64, %arg3, %arg3, %c1212773757_i64, %c1676342753_i64, %c1676342753_i64, %c1212773757_i64, %c0_i64, %c0_i64, %c1676342753_i64, %149, %c988780503_i64, %c988780503_i64, %c1676342753_i64, %c988780503_i64, %c1676342753_i64, %273, %c1676342753_i64, %c1212773757_i64, %273, %c0_i64, %c0_i64, %273, %149, %c988780503_i64, %arg3, %c0_i64, %149, %arg3, %c1676342753_i64, %c0_i64, %c1212773757_i64, %273, %c1676342753_i64, %c1676342753_i64, %c988780503_i64, %149, %149, %c1212773757_i64, %149, %c1676342753_i64, %c1676342753_i64, %c1676342753_i64, %c0_i64, %c988780503_i64, %c1676342753_i64, %149, %c1676342753_i64, %c1676342753_i64, %c0_i64, %c988780503_i64, %arg3, %273, %149, %c0_i64, %arg3, %c988780503_i64, %c1676342753_i64, %c1676342753_i64, %c0_i64, %c0_i64, %c0_i64, %c0_i64, %arg3, %c0_i64, %149, %c988780503_i64, %c1676342753_i64, %arg3, %c988780503_i64, %arg3, %c988780503_i64, %149, %149, %273, %c0_i64, %c1212773757_i64, %c0_i64, %c988780503_i64, %273, %c1676342753_i64, %c1676342753_i64, %c1676342753_i64, %273, %arg3, %c0_i64, %273, %273, %arg3, %273, %c1676342753_i64, %149, %c1676342753_i64, %c0_i64, %273, %c988780503_i64, %arg3, %c988780503_i64, %c0_i64, %149, %arg3, %273, %c1212773757_i64, %149, %arg3, %c988780503_i64, %c988780503_i64, %arg3, %c1676342753_i64, %273, %149, %arg3, %arg3, %c988780503_i64, %arg3, %c1676342753_i64, %c1676342753_i64, %149, %c1212773757_i64, %c988780503_i64, %arg3, %c1676342753_i64, %arg3, %c1676342753_i64, %c1212773757_i64, %c988780503_i64, %273, %arg3, %149, %c1676342753_i64, %c0_i64, %c0_i64, %273, %273, %149, %149, %arg3, %c1676342753_i64, %149, %c1212773757_i64, %c988780503_i64, %c1676342753_i64, %149, %149, %273, %273, %149, %273, %c0_i64, %c988780503_i64, %c988780503_i64, %c988780503_i64, %c1676342753_i64, %273, %c1676342753_i64, %273, %c1212773757_i64, %c988780503_i64, %c1676342753_i64, %c0_i64, %arg3, %c1676342753_i64, %c1212773757_i64, %c1212773757_i64, %149, %c0_i64, %273, %c1676342753_i64, %149, %c1676342753_i64, %c1212773757_i64, %c1676342753_i64, %arg3, %c0_i64, %c988780503_i64, %arg3, %149, %149, %arg3, %c988780503_i64, %c0_i64, %c0_i64, %273, %c0_i64, %273, %arg3, %c0_i64, %arg3, %c1212773757_i64, %c988780503_i64, %c1212773757_i64, %273, %273, %arg3, %arg3, %c988780503_i64, %c1676342753_i64, %c1212773757_i64, %273, %c0_i64, %c0_i64, %c0_i64, %c988780503_i64, %c0_i64, %149, %c0_i64, %273, %c1676342753_i64, %c1676342753_i64, %273, %149, %c0_i64, %c988780503_i64, %273, %c1212773757_i64, %c1676342753_i64, %149, %c0_i64, %arg3, %149, %149, %c1676342753_i64, %273, %c1212773757_i64, %c988780503_i64, %arg3, %c1212773757_i64, %c1212773757_i64, %149, %c0_i64, %c1676342753_i64, %c1676342753_i64, %273, %arg3, %273, %c0_i64, %c988780503_i64, %149, %273, %arg3, %c1676342753_i64, %273, %c988780503_i64, %c988780503_i64, %c1676342753_i64, %c1676342753_i64, %273, %c0_i64, %arg3, %arg3, %149, %arg3, %c1212773757_i64, %c988780503_i64, %c988780503_i64, %c1212773757_i64, %c1676342753_i64, %c0_i64, %273, %149, %c1212773757_i64, %c1212773757_i64, %149, %273, %arg3, %273, %c1212773757_i64, %c0_i64, %c988780503_i64, %arg3, %149, %149, %273, %c1212773757_i64, %c1212773757_i64, %149, %c1676342753_i64, %149, %c1212773757_i64, %c1212773757_i64, %c1676342753_i64, %c0_i64, %arg3, %c988780503_i64, %c0_i64, %c0_i64, %c988780503_i64, %c0_i64, %c1676342753_i64, %c988780503_i64, %c988780503_i64, %149, %c988780503_i64, %149, %c988780503_i64, %c0_i64, %arg3, %149, %arg3, %273, %c1212773757_i64, %c988780503_i64, %c988780503_i64, %c988780503_i64, %c1212773757_i64, %c988780503_i64, %273, %c0_i64, %c1676342753_i64, %273, %c1212773757_i64, %273, %149, %149, %c1676342753_i64, %c988780503_i64, %c0_i64, %273, %c0_i64, %c1212773757_i64, %273, %c988780503_i64, %c0_i64, %c0_i64, %c1212773757_i64, %c1676342753_i64, %273, %arg3, %273, %273, %c1676342753_i64, %arg3, %arg3, %arg3, %273, %c0_i64, %c0_i64, %c988780503_i64, %c988780503_i64, %arg3, %c1212773757_i64, %c988780503_i64, %c1676342753_i64, %c1212773757_i64, %c1676342753_i64, %c1212773757_i64, %149, %c1676342753_i64, %273, %c988780503_i64, %c1212773757_i64, %c1212773757_i64, %arg3, %c0_i64, %arg3, %c1212773757_i64, %149, %c1212773757_i64, %149, %c0_i64, %c1212773757_i64, %arg3, %arg3, %c0_i64, %c0_i64, %c988780503_i64, %149, %c988780503_i64, %arg3, %c1676342753_i64, %arg3, %c0_i64, %c0_i64, %c988780503_i64, %273, %149, %c1212773757_i64, %149, %c0_i64, %c988780503_i64, %c0_i64, %c0_i64, %arg3, %273, %arg3, %arg3, %149, %c1212773757_i64, %c1676342753_i64, %149, %c1676342753_i64, %c988780503_i64, %c0_i64, %arg3, %c988780503_i64, %273, %c0_i64, %c0_i64, %273, %c1676342753_i64, %arg3, %c0_i64, %c988780503_i64, %c1212773757_i64, %c1676342753_i64, %c1212773757_i64, %c0_i64, %273, %c1212773757_i64, %273, %c988780503_i64, %c1212773757_i64, %c1676342753_i64, %c1212773757_i64, %149, %c988780503_i64, %c0_i64, %273, %c988780503_i64, %c0_i64, %c1676342753_i64, %c1676342753_i64, %273, %c0_i64, %149, %arg3, %c1676342753_i64, %c988780503_i64, %c0_i64, %273, %c988780503_i64, %c0_i64, %c1212773757_i64, %273, %273, %c988780503_i64, %c988780503_i64, %c988780503_i64, %c988780503_i64, %c988780503_i64, %arg3, %c988780503_i64, %c0_i64, %c988780503_i64, %273, %273, %c988780503_i64, %273, %149, %c1676342753_i64, %c0_i64, %arg3, %c988780503_i64, %273, %arg3, %arg3, %c1676342753_i64, %c1212773757_i64, %149, %c988780503_i64, %c1676342753_i64, %c988780503_i64, %c1212773757_i64, %273, %c988780503_i64, %c1676342753_i64, %c988780503_i64, %arg3, %c988780503_i64, %c1676342753_i64, %c0_i64, %arg3, %c1676342753_i64, %273, %c1212773757_i64, %273, %c0_i64, %c1676342753_i64, %273, %c1212773757_i64, %arg3, %c988780503_i64, %149, %arg3, %149, %273, %arg3, %c988780503_i64, %arg3, %273, %273, %arg3, %c1212773757_i64, %c0_i64, %arg3, %c0_i64, %c988780503_i64, %arg3, %273, %149, %arg3, %149, %273, %c1212773757_i64, %273, %149, %arg3, %c1212773757_i64, %273, %c1676342753_i64, %273, %273, %c988780503_i64, %arg3, %arg3, %c1212773757_i64, %149, %arg3, %c0_i64, %c0_i64, %arg3, %273, %149, %arg3, %149, %c1676342753_i64, %149, %c1212773757_i64, %c988780503_i64, %149, %c1212773757_i64, %c1676342753_i64, %273, %c988780503_i64, %c1212773757_i64, %c0_i64, %c1212773757_i64, %273, %273, %c1212773757_i64, %c988780503_i64, %149, %c0_i64, %c0_i64, %c1676342753_i64, %c988780503_i64, %c1212773757_i64, %arg3, %c0_i64, %c1212773757_i64, %c988780503_i64, %c1676342753_i64, %149, %149, %arg3, %c1212773757_i64, %c0_i64, %c1212773757_i64, %c1676342753_i64, %c988780503_i64, %arg3, %arg3, %273, %arg3, %c1676342753_i64, %c1676342753_i64, %c0_i64, %c1212773757_i64, %c0_i64, %273, %149, %c1676342753_i64, %273, %149, %c0_i64, %c1676342753_i64, %c1676342753_i64, %c0_i64, %c1676342753_i64, %c1676342753_i64, %c0_i64, %c1676342753_i64, %arg3, %c1676342753_i64, %149, %273, %c1212773757_i64, %c0_i64, %c1676342753_i64, %c1212773757_i64, %c1676342753_i64, %arg3, %c0_i64, %149, %arg3, %c1676342753_i64, %149, %273, %arg3, %arg3, %c0_i64, %273, %149, %149, %273, %273, %arg3, %c988780503_i64, %c988780503_i64, %arg3, %c0_i64, %c1676342753_i64, %c988780503_i64, %273, %c988780503_i64, %c0_i64, %c0_i64, %c988780503_i64, %273, %149, %c1676342753_i64, %c0_i64, %c988780503_i64, %c1676342753_i64, %arg3, %arg3, %arg3, %arg3, %arg3, %arg3, %c0_i64, %arg3, %c1676342753_i64, %c1676342753_i64, %c0_i64, %c1212773757_i64, %c988780503_i64, %c0_i64, %149, %c1676342753_i64, %arg3, %c0_i64, %c988780503_i64, %arg3, %273, %arg3, %c1212773757_i64, %c1212773757_i64, %c1212773757_i64, %c1676342753_i64, %c988780503_i64, %c0_i64, %c0_i64, %c988780503_i64, %c988780503_i64, %273, %arg3, %c1676342753_i64, %149, %c1676342753_i64, %c988780503_i64, %149, %c0_i64, %arg3, %c988780503_i64, %c988780503_i64, %arg3, %273, %arg3, %c1676342753_i64, %c988780503_i64, %c0_i64, %c988780503_i64, %273, %c1676342753_i64, %arg3, %273, %273, %c988780503_i64, %arg3, %c1212773757_i64, %c988780503_i64, %149, %arg3, %149, %149, %c1676342753_i64, %c0_i64, %149, %c988780503_i64, %c1212773757_i64, %c988780503_i64, %arg3, %c1212773757_i64, %c1212773757_i64, %arg3, %c1212773757_i64, %arg3, %273, %149, %arg3, %c1676342753_i64, %arg3, %c988780503_i64, %arg3, %273, %c988780503_i64, %149, %149, %c0_i64, %149, %c988780503_i64, %149, %c0_i64, %c988780503_i64, %c988780503_i64, %149, %c988780503_i64, %149, %c0_i64, %149, %c1212773757_i64, %149, %149, %arg3, %149, %c1212773757_i64, %c988780503_i64, %149, %c1212773757_i64, %149, %c0_i64, %149, %c988780503_i64, %273, %273, %arg3, %c0_i64, %c1676342753_i64, %c1676342753_i64, %c1212773757_i64, %c1212773757_i64, %c1212773757_i64, %149, %c1676342753_i64, %c1676342753_i64, %c1212773757_i64, %c1212773757_i64, %c0_i64, %arg3, %c0_i64, %c1212773757_i64, %273, %c988780503_i64, %c1212773757_i64, %149, %c1676342753_i64, %c0_i64, %c1212773757_i64, %273, %c1676342753_i64, %149, %c1212773757_i64, %arg3, %273, %149, %c0_i64, %arg3, %c0_i64, %arg3, %273, %c1676342753_i64, %c988780503_i64, %273, %c0_i64, %arg3, %c0_i64, %c1212773757_i64, %149, %c988780503_i64, %c0_i64, %273, %c0_i64, %c1212773757_i64, %149, %c1212773757_i64, %c1676342753_i64, %c988780503_i64, %c0_i64, %c1676342753_i64, %c1676342753_i64, %c1676342753_i64, %273, %273, %arg3, %arg3, %c1676342753_i64, %273, %273, %arg3, %c0_i64, %273, %273, %arg3, %arg3, %c1212773757_i64, %149, %c988780503_i64, %arg3, %c0_i64, %c988780503_i64, %273, %c1676342753_i64, %c1676342753_i64, %c0_i64, %c1676342753_i64, %c988780503_i64, %c988780503_i64, %149, %c0_i64, %149, %c988780503_i64, %arg3, %arg3, %149, %c1212773757_i64, %c0_i64, %c1212773757_i64, %c0_i64, %273, %149, %c0_i64, %c988780503_i64, %c988780503_i64, %c0_i64, %c0_i64, %273, %273, %c1212773757_i64, %c0_i64, %arg3, %273, %149, %c988780503_i64, %273, %arg3, %273, %149, %c0_i64, %149, %arg3, %c1212773757_i64, %c0_i64, %c1212773757_i64, %c1212773757_i64, %c0_i64, %273, %c1676342753_i64, %c1676342753_i64, %arg3, %149, %c1212773757_i64, %273, %c988780503_i64, %c1212773757_i64, %arg3, %c988780503_i64, %c988780503_i64, %273, %273, %273, %c1212773757_i64, %149, %c0_i64, %c988780503_i64, %c988780503_i64, %273, %c988780503_i64, %c1212773757_i64, %arg3, %c0_i64, %c1676342753_i64, %c988780503_i64, %arg3, %149, %arg3, %c1212773757_i64, %arg3, %c0_i64, %arg3, %149, %arg3, %c0_i64, %arg3, %c1212773757_i64, %c1676342753_i64, %c1676342753_i64, %arg3, %c0_i64, %273, %c1676342753_i64, %c0_i64, %c1676342753_i64, %273, %273, %arg3, %c0_i64, %c1212773757_i64, %c988780503_i64, %149, %c0_i64, %arg3, %c1676342753_i64, %c1676342753_i64, %c0_i64, %273, %c1212773757_i64, %c988780503_i64, %273, %c1676342753_i64, %arg3, %c0_i64, %c1212773757_i64, %c1676342753_i64, %273, %149, %c988780503_i64, %arg3, %arg3, %149, %c0_i64, %c1676342753_i64, %c1212773757_i64, %149, %c1212773757_i64, %149, %c1676342753_i64, %149, %149, %273, %c1212773757_i64, %c1212773757_i64, %c0_i64, %149, %c1676342753_i64, %273, %c1676342753_i64, %arg3, %c1212773757_i64, %c1676342753_i64, %arg3, %c1676342753_i64, %149, %arg3, %c1676342753_i64, %c0_i64, %c0_i64, %c988780503_i64, %c988780503_i64, %c0_i64, %c0_i64, %273, %c1676342753_i64, %c988780503_i64, %c1212773757_i64, %c988780503_i64, %c1676342753_i64, %149, %c988780503_i64, %c1676342753_i64, %273, %c0_i64, %c988780503_i64, %273, %c988780503_i64, %c1212773757_i64, %c0_i64, %arg3, %c0_i64, %arg3, %149, %c988780503_i64, %arg3, %c988780503_i64, %c1676342753_i64, %c1212773757_i64, %c988780503_i64, %149, %c0_i64, %273, %149, %c1676342753_i64, %273, %c1212773757_i64, %c0_i64, %149, %arg3, %c0_i64, %c0_i64, %273, %149, %c0_i64, %c1212773757_i64, %c988780503_i64, %c0_i64, %273, %c0_i64, %arg3, %c988780503_i64, %c1212773757_i64, %c988780503_i64, %c988780503_i64, %273, %c0_i64, %273, %c0_i64, %c1212773757_i64, %c1676342753_i64, %c1676342753_i64, %149, %arg3, %149, %c0_i64, %arg3, %273, %arg3, %273, %c1676342753_i64, %149, %c0_i64, %c0_i64, %c1676342753_i64, %c988780503_i64, %c1212773757_i64, %c1676342753_i64, %c0_i64, %c0_i64, %273, %c0_i64, %c1212773757_i64, %c1212773757_i64, %149, %c0_i64, %c0_i64, %c1676342753_i64, %c1212773757_i64, %c988780503_i64, %273, %c988780503_i64, %c988780503_i64, %273, %c0_i64, %c988780503_i64, %c1676342753_i64, %273, %273, %273, %149, %c1676342753_i64, %c1676342753_i64, %arg3, %c1676342753_i64, %149, %c988780503_i64, %c988780503_i64, %c1676342753_i64, %c1676342753_i64, %273, %arg3, %c988780503_i64, %arg3, %c1676342753_i64, %c988780503_i64, %c988780503_i64, %c988780503_i64, %273, %149, %273, %c1212773757_i64, %273, %arg3, %273, %c0_i64, %c0_i64, %149, %c0_i64, %arg3, %c1676342753_i64, %149, %273, %c1676342753_i64, %c1676342753_i64, %arg3, %149, %c0_i64, %arg3, %c988780503_i64, %arg3, %c1676342753_i64, %c1212773757_i64, %c1212773757_i64, %149, %arg3, %c1212773757_i64, %c988780503_i64, %c0_i64, %c0_i64, %c1212773757_i64, %c0_i64, %149, %c1676342753_i64, %c988780503_i64, %c1676342753_i64, %149, %c988780503_i64, %c0_i64, %c0_i64, %149, %273, %c1676342753_i64, %273, %149, %arg3, %c0_i64, %149, %273, %149, %149, %c1676342753_i64, %arg3, %149, %c1676342753_i64, %149, %c1676342753_i64, %c1676342753_i64, %149, %273, %c1212773757_i64, %149, %c0_i64, %arg3, %c988780503_i64, %c1676342753_i64, %arg3, %c1212773757_i64, %c988780503_i64, %c988780503_i64, %arg3, %c988780503_i64, %c1212773757_i64, %c988780503_i64, %c988780503_i64, %149, %273, %c988780503_i64, %c1212773757_i64, %c1212773757_i64, %arg3, %c988780503_i64, %c0_i64, %c988780503_i64, %c0_i64, %149, %c988780503_i64, %c1212773757_i64, %arg3, %273, %149, %arg3, %c988780503_i64, %273, %c0_i64, %149, %c1212773757_i64, %c0_i64, %c988780503_i64, %c988780503_i64, %273, %c1212773757_i64, %c0_i64, %c0_i64, %c988780503_i64, %c1212773757_i64, %c988780503_i64, %c1212773757_i64, %c988780503_i64, %c988780503_i64, %arg3, %273, %c1212773757_i64, %c1676342753_i64, %149, %c988780503_i64, %c988780503_i64, %arg3, %c1676342753_i64, %c988780503_i64, %c0_i64, %273, %arg3, %c1676342753_i64, %c988780503_i64, %c1212773757_i64, %273, %arg3, %273, %c0_i64, %c1676342753_i64, %c1212773757_i64, %273, %273, %c988780503_i64, %149, %c1212773757_i64, %c1212773757_i64, %c1212773757_i64, %arg3, %c1212773757_i64, %c1676342753_i64, %273, %arg3, %273, %c1212773757_i64, %c0_i64, %c988780503_i64, %c0_i64, %c1676342753_i64, %c0_i64, %c1676342753_i64, %c1212773757_i64, %c988780503_i64, %273, %c988780503_i64, %149, %149, %c0_i64, %c1676342753_i64, %c0_i64, %c1676342753_i64, %273, %arg3, %c1676342753_i64, %c1212773757_i64, %149, %c1676342753_i64, %149, %c1212773757_i64, %273, %c1676342753_i64, %arg3, %c0_i64, %arg3, %c988780503_i64, %149, %c1212773757_i64, %c0_i64, %c0_i64, %c0_i64, %c988780503_i64, %c1212773757_i64, %c1212773757_i64, %arg3, %c1212773757_i64, %c1212773757_i64, %c0_i64, %273, %c1212773757_i64, %c0_i64, %c1676342753_i64, %arg3, %arg3, %c0_i64, %c988780503_i64, %c988780503_i64, %273, %c0_i64, %c1212773757_i64, %273, %c0_i64, %c1676342753_i64, %arg3, %arg3, %149, %c1212773757_i64, %c988780503_i64, %arg3, %arg3, %273, %c1676342753_i64, %c0_i64, %arg3, %149, %c1212773757_i64, %273, %c988780503_i64, %arg3, %c1212773757_i64, %c988780503_i64, %c1676342753_i64, %c1212773757_i64, %c0_i64, %273, %c988780503_i64, %c988780503_i64, %c1212773757_i64, %c988780503_i64, %273, %arg3, %c988780503_i64, %149, %arg3, %273, %273, %149, %c0_i64, %273, %c1676342753_i64, %c0_i64, %arg3, %c1676342753_i64, %149, %149, %c1212773757_i64, %273, %c1676342753_i64, %c1212773757_i64, %273, %c988780503_i64, %c1676342753_i64, %c1212773757_i64, %c1676342753_i64, %c0_i64, %c0_i64, %c988780503_i64, %c1676342753_i64, %c1212773757_i64, %c988780503_i64, %c988780503_i64, %c988780503_i64, %149, %149, %273, %273, %c1676342753_i64, %c1676342753_i64, %149, %arg3, %c1676342753_i64, %c1676342753_i64, %c1676342753_i64, %arg3, %c0_i64, %c1676342753_i64, %c1212773757_i64, %149, %c1212773757_i64, %149, %c1212773757_i64, %273, %c0_i64, %c1212773757_i64, %c1212773757_i64, %273, %arg3, %c1212773757_i64, %c0_i64, %c988780503_i64, %c988780503_i64, %arg3, %c988780503_i64, %c0_i64, %c1212773757_i64, %c988780503_i64, %149, %arg3, %149, %c1676342753_i64, %149, %149, %149, %273, %c1676342753_i64, %273, %c1212773757_i64, %c988780503_i64, %c1676342753_i64, %149, %arg3, %c1676342753_i64, %c988780503_i64, %c1676342753_i64, %arg3, %c0_i64, %149, %c1212773757_i64, %c988780503_i64, %arg3, %273, %c1212773757_i64, %c1212773757_i64, %c988780503_i64, %149, %273, %c1676342753_i64, %c0_i64, %149, %c1212773757_i64, %c1212773757_i64, %c0_i64, %c1676342753_i64, %c0_i64, %c988780503_i64, %c988780503_i64, %c1212773757_i64, %273, %c988780503_i64, %c0_i64, %149, %273, %c988780503_i64, %c988780503_i64, %c0_i64, %273, %149, %c1676342753_i64, %c988780503_i64, %arg3, %arg3, %149, %c1212773757_i64, %273, %c0_i64, %c1676342753_i64, %149, %c988780503_i64, %c1676342753_i64, %273, %c0_i64, %273, %149, %c1676342753_i64, %c988780503_i64, %c1676342753_i64, %273, %c988780503_i64, %c0_i64, %273, %c1676342753_i64, %c0_i64, %273, %c1676342753_i64, %c0_i64, %c1212773757_i64, %c0_i64, %c988780503_i64, %c988780503_i64, %273, %c0_i64, %c1212773757_i64, %c988780503_i64, %c0_i64, %c988780503_i64, %c1676342753_i64, %c1676342753_i64, %c0_i64, %c0_i64, %arg3, %c1212773757_i64, %149, %149, %273, %arg3, %arg3, %arg3, %c1676342753_i64, %c988780503_i64, %arg3, %c1676342753_i64, %c0_i64, %273, %c988780503_i64, %149, %149, %c1212773757_i64, %arg3, %c0_i64, %c1676342753_i64, %c988780503_i64, %c988780503_i64, %arg3, %arg3, %arg3, %c0_i64, %arg3, %c1212773757_i64, %c1212773757_i64, %273, %273, %c1676342753_i64, %arg3, %c0_i64, %149, %arg3, %c1212773757_i64, %149, %c1212773757_i64, %arg3, %273, %149, %arg3, %149, %c1676342753_i64, %c0_i64, %c988780503_i64, %c0_i64, %c0_i64, %273, %arg3, %c1676342753_i64, %c1212773757_i64, %149, %c988780503_i64, %c0_i64, %c0_i64, %c1676342753_i64, %c0_i64, %c988780503_i64, %c988780503_i64, %c0_i64, %c1212773757_i64, %c1676342753_i64, %c1212773757_i64, %c988780503_i64, %c1212773757_i64, %c1676342753_i64, %c1676342753_i64, %c988780503_i64, %c1212773757_i64, %c1676342753_i64, %c1212773757_i64, %c1676342753_i64, %c988780503_i64, %149, %c1676342753_i64, %273, %c1212773757_i64, %c0_i64, %273, %arg3, %c988780503_i64, %arg3, %arg3, %arg3, %c0_i64, %c1676342753_i64, %arg3, %273, %149, %c988780503_i64, %c988780503_i64, %149, %c0_i64, %c0_i64, %273, %c988780503_i64, %c1676342753_i64, %273, %c1676342753_i64, %c0_i64, %c988780503_i64, %c1212773757_i64, %273, %c0_i64, %c1212773757_i64, %c988780503_i64, %c988780503_i64, %c0_i64, %273, %149, %c988780503_i64, %273, %c1212773757_i64, %c988780503_i64, %c1676342753_i64, %273, %c988780503_i64, %149, %273, %149, %arg3, %273, %c1676342753_i64, %arg3, %149, %c988780503_i64, %273, %c1676342753_i64, %273, %arg3, %arg3, %c0_i64, %c1676342753_i64, %273, %c1212773757_i64, %273, %arg3, %149, %arg3, %c988780503_i64, %273, %c1212773757_i64, %c0_i64, %c988780503_i64, %c0_i64, %c1676342753_i64, %c1676342753_i64, %c1676342753_i64, %c0_i64, %c1676342753_i64, %c0_i64, %c1676342753_i64, %273, %arg3, %149, %arg3, %149, %c1676342753_i64, %c988780503_i64, %c988780503_i64, %c1212773757_i64, %149, %c1212773757_i64, %c0_i64, %149, %149, %273, %c0_i64, %arg3, %c1212773757_i64, %c1212773757_i64, %c1212773757_i64, %c1212773757_i64, %c1212773757_i64, %149, %149, %arg3, %c0_i64, %arg3, %273, %149, %c0_i64, %arg3, %149, %c0_i64, %c988780503_i64, %273, %149, %c988780503_i64, %273, %c1676342753_i64, %273, %c988780503_i64, %273, %149, %273, %c0_i64, %c1676342753_i64, %c0_i64, %c1676342753_i64, %c0_i64, %c0_i64, %c1676342753_i64, %273, %c1212773757_i64, %c0_i64, %c988780503_i64, %149, %arg3, %c0_i64, %c1676342753_i64, %c0_i64, %273, %149, %273, %273, %c988780503_i64, %149, %273, %c1212773757_i64, %arg3, %c0_i64, %c1212773757_i64, %c988780503_i64, %c1676342753_i64, %c1676342753_i64, %c0_i64, %c988780503_i64, %c988780503_i64, %arg3, %arg3, %c1212773757_i64, %c1212773757_i64, %arg3, %c1212773757_i64, %c0_i64, %149, %c1676342753_i64, %c1212773757_i64, %c1212773757_i64, %c0_i64, %c0_i64, %arg3, %c0_i64, %arg3, %c0_i64, %arg3, %273, %c0_i64, %c1212773757_i64, %273, %273, %149, %149, %c1212773757_i64, %c988780503_i64, %c1676342753_i64, %c1212773757_i64, %c988780503_i64, %c988780503_i64, %arg3, %c988780503_i64, %c1212773757_i64, %arg3, %273, %c988780503_i64, %c988780503_i64, %c1676342753_i64, %c988780503_i64, %arg3, %c1676342753_i64, %c988780503_i64, %273, %c1212773757_i64, %arg3, %c0_i64, %149, %149, %c1676342753_i64, %c1676342753_i64, %arg3, %c1676342753_i64, %c1676342753_i64, %arg3, %c1212773757_i64, %c1676342753_i64, %273, %c0_i64, %arg3, %149, %149, %c1676342753_i64, %149, %arg3, %273, %c0_i64, %273, %149, %c988780503_i64, %c1676342753_i64, %273, %273, %arg3, %273, %c0_i64, %arg3, %149, %c988780503_i64, %c988780503_i64, %c988780503_i64, %arg3, %arg3, %arg3, %273, %273, %149, %c988780503_i64, %273, %c1212773757_i64, %149, %c1212773757_i64, %c988780503_i64, %c988780503_i64, %arg3, %149, %273, %c1212773757_i64, %c988780503_i64, %arg3, %149, %273, %149, %c988780503_i64, %c1212773757_i64, %c1212773757_i64, %149, %149, %c0_i64, %273, %c1212773757_i64, %149, %c1676342753_i64, %c988780503_i64, %c988780503_i64, %c0_i64, %c988780503_i64, %273, %arg3, %c988780503_i64, %c1676342753_i64, %c1676342753_i64, %273, %c0_i64, %c0_i64, %c988780503_i64, %149, %c1212773757_i64, %arg3, %c988780503_i64, %c1212773757_i64, %arg3, %273, %c1212773757_i64, %149, %c1676342753_i64, %arg3, %273, %arg3, %c1212773757_i64, %149, %c0_i64, %c988780503_i64, %c1676342753_i64, %273, %c1212773757_i64, %c1676342753_i64, %c0_i64, %arg3, %149, %c0_i64, %149, %c1212773757_i64, %c1212773757_i64, %c1212773757_i64, %149, %149, %arg3, %c1212773757_i64, %c988780503_i64, %c0_i64, %273, %c1676342753_i64, %c988780503_i64, %c0_i64, %c0_i64, %c1676342753_i64, %arg3, %c1676342753_i64, %c0_i64, %c1212773757_i64, %273, %c1676342753_i64, %arg3, %c1212773757_i64, %c1212773757_i64, %273, %c1212773757_i64, %c0_i64, %c1212773757_i64, %273, %273, %149, %arg3, %c1212773757_i64, %arg3, %c1676342753_i64, %c0_i64, %arg3, %149, %c0_i64, %273, %273, %149, %arg3, %c1676342753_i64, %c988780503_i64, %c988780503_i64, %273, %273, %c1212773757_i64, %149, %c988780503_i64, %273, %arg3, %c1676342753_i64, %149, %c988780503_i64, %c988780503_i64, %273, %arg3, %273, %c0_i64, %c988780503_i64, %c1212773757_i64, %273, %c1676342753_i64, %c1676342753_i64, %149, %c0_i64, %c1676342753_i64, %149, %273, %c1676342753_i64, %c0_i64, %c988780503_i64, %arg3, %273, %c988780503_i64, %273, %149, %c1212773757_i64, %arg3, %273, %c0_i64, %273, %c1212773757_i64, %c1212773757_i64, %c988780503_i64, %c1212773757_i64, %149, %273, %arg3, %c1676342753_i64, %c988780503_i64, %c988780503_i64, %arg3, %273, %arg3, %c1676342753_i64, %149, %c988780503_i64, %c0_i64, %c0_i64, %149, %arg3, %149, %arg3, %arg3, %c1676342753_i64, %149, %c1212773757_i64, %c0_i64, %149, %arg3, %c1212773757_i64, %273, %c1212773757_i64, %273, %c1676342753_i64, %273, %149, %273, %c1676342753_i64, %c988780503_i64, %c1676342753_i64, %arg3, %arg3, %273, %c1676342753_i64, %c988780503_i64, %arg3, %273, %c988780503_i64, %c1676342753_i64, %149, %149, %149, %c0_i64, %273, %c988780503_i64, %c1676342753_i64, %arg3, %273, %149, %c0_i64, %c1212773757_i64, %arg3, %arg3, %c0_i64, %c1212773757_i64, %c1212773757_i64, %c1676342753_i64, %c0_i64, %c0_i64, %c0_i64, %arg3, %c1212773757_i64, %c0_i64, %273, %c1676342753_i64, %c1676342753_i64, %c0_i64, %c988780503_i64, %273, %c988780503_i64, %149, %273, %c988780503_i64, %c0_i64, %c988780503_i64, %c1676342753_i64, %273, %273, %c0_i64, %149, %c988780503_i64, %arg3, %arg3, %arg3, %c1676342753_i64, %149, %149, %149, %149, %arg3, %c0_i64, %c1212773757_i64, %c0_i64, %149, %c0_i64, %149, %c0_i64, %c1212773757_i64, %273, %c988780503_i64, %c1676342753_i64, %149, %c1212773757_i64, %c988780503_i64, %c1676342753_i64, %arg3, %c1676342753_i64, %c0_i64, %149, %149, %c0_i64, %c988780503_i64, %273, %c0_i64, %c1676342753_i64, %c1212773757_i64, %c988780503_i64, %c0_i64, %c0_i64, %c0_i64, %c988780503_i64, %273, %arg3, %149, %arg3, %c0_i64, %149, %c1212773757_i64, %arg3, %273, %arg3, %149, %c0_i64, %149, %c988780503_i64, %c988780503_i64, %273, %c1212773757_i64, %149, %arg3, %arg3, %arg3, %c1676342753_i64, %273, %c0_i64, %149, %273, %149, %arg3, %c1676342753_i64, %c1676342753_i64, %arg3, %149, %c1676342753_i64, %273, %273, %149, %arg3, %c0_i64, %149, %c988780503_i64, %c1212773757_i64, %c1212773757_i64, %c1212773757_i64, %c988780503_i64, %c988780503_i64, %arg3, %c1212773757_i64, %c988780503_i64, %273, %149, %149, %arg3, %arg3, %c0_i64, %c1212773757_i64, %273, %c1212773757_i64, %c1676342753_i64, %c1212773757_i64, %273, %c1676342753_i64, %273, %c1676342753_i64, %arg3, %c988780503_i64, %c0_i64, %c988780503_i64, %c0_i64, %273, %arg3, %c1212773757_i64, %c0_i64, %273, %c988780503_i64, %273, %273, %c988780503_i64, %c1212773757_i64, %273, %c0_i64, %c1212773757_i64, %273, %c1212773757_i64, %c0_i64, %c1212773757_i64, %arg3, %c1212773757_i64, %arg3, %273, %arg3, %c0_i64, %149, %c1212773757_i64, %c1676342753_i64, %c988780503_i64, %c0_i64, %c1676342753_i64, %c1676342753_i64, %c0_i64, %c0_i64, %273, %c988780503_i64, %c1212773757_i64, %c988780503_i64, %273, %c988780503_i64, %273, %arg3, %273, %149 : tensor<16x16x14xi64>
        bufferization.dealloc_tensor %2 : tensor<16x16x14xf16>
        %300 = math.rsqrt %27 : f16
        %301 = math.ctpop %6 : tensor<14xi64>
        %302 = arith.maxf %cst_0, %190 : f32
        %303 = arith.shli %true_1, %true_2 : i1
        scf.condition(%true) %c1676342753_i64 : i64
      } do {
      ^bb0(%arg3: i64):
        bufferization.dealloc_tensor %expanded : tensor<14x1xi1>
        %299 = affine.min affine_map<(d0, d1, d2, d3) -> ((d2 mod 4) * -2 - 64, d2)>(%c14, %102, %51, %24)
        %300 = arith.maxui %true_2, %true_1 : i1
        %301 = vector.bitcast %52 : vector<1xi64> to vector<1xi64>
        %302 = math.fpowi %cst, %c2052943229_i32 : f16, i32
        %303 = arith.ori %c1676342753_i64, %c1676342753_i64 : i64
        %304 = index.mul %47, %158
        %c-14404_i16 = arith.constant -14404 : i16
        bufferization.dealloc_tensor %17 : tensor<14xi1>
        %dest_47, %accumulated_value_48 = vector.scan <mul>, %159, %84 {inclusive = false, reduction_dim = 1 : i64} : vector<16x16x14xf32>, vector<16x14xf32>
        %305 = arith.subi %c988780503_i64, %c0_i64 : i64
        %306 = arith.remsi %c-20547_i16, %c24348_i16 : i16
        %307 = index.castu %c988780503_i64 : i64 to index
        %308 = arith.shrui %true_1, %true_2 : i1
        %collapsed_49 = tensor.collapse_shape %90 [[0, 1]] : tensor<256x14xf32> into tensor<3584xf32>
        %extracted = tensor.extract %15[%c5] : tensor<14xi64>
        scf.yield %extracted : i64
      }
      %285 = vector.flat_transpose %18 {columns = 3 : i32, rows = 1 : i32} : vector<3xi64> -> vector<3xi64>
      %286 = math.rsqrt %194 : tensor<16x16x14xf16>
      %287 = vector.reduction <minsi>, %72 : vector<3xi64> into i64
      %288 = index.ceildivu %c11, %c12
      %289 = math.powf %5, %5 : tensor<14xf16>
      %290 = scf.while (%arg3 = %273) : (i64) -> i64 {
        %299 = math.ceil %19 : tensor<f16>
        %300 = arith.xori %273, %c0_i64 : i64
        %301 = bufferization.to_tensor %alloc_11 : memref<6xf16>
        %302 = math.cos %194 : tensor<16x16x14xf16>
        %collapsed_47 = tensor.collapse_shape %3 [[0, 1], [2]] : tensor<16x16x14xi1> into tensor<256x14xi1>
        %true_48 = index.bool.constant true
        %303 = math.ceil %collapsed_28 : tensor<256x14xf16>
        memref.store %c1212773757_i64, %alloc_15[%c6] : memref<14xi64>
        scf.condition(%true_25) %c0_i64 : i64
      } do {
      ^bb0(%arg3: i64):
        %dest_47, %accumulated_value_48 = vector.scan <maxf>, %81, %84 {inclusive = true, reduction_dim = 1 : i64} : vector<16x16x14xf32>, vector<16x14xf32>
        %299 = affine.max affine_map<(d0, d1, d2, d3) -> (d2, d2 - 4, d2 * 8)>(%74, %51, %82, %173)
        %300 = vector.extract_strided_slice %99 {offsets = [12], sizes = [1], strides = [1]} : vector<14xi64> to vector<1xi64>
        %301 = math.tan %cst_4 : f16
        %c1447808586_i32 = arith.constant 1447808586 : i32
        %302 = arith.maxf %27, %cst_4 : f16
        %303 = vector.multi_reduction <and>, %99, %99 [] : vector<14xi64> to vector<14xi64>
        %304 = vector.splat %185 : vector<14xindex>
        %305 = index.mul %51, %rank
        vector.print %29 : vector<3xi64>
        %306 = arith.cmpf ogt, %190, %cst_0 : f32
        %collapsed_49 = tensor.collapse_shape %194 [[0, 1], [2]] : tensor<16x16x14xf16> into tensor<256x14xf16>
        %307 = arith.subi %c32214_i16, %c32214_i16 : i16
        %308 = vector.broadcast %190 : f32 to vector<16x16x14xf32>
        %309 = vector.fma %308, %159, %308 : vector<16x16x14xf32>
        memref.assume_alignment %alloc_17, 1 : memref<14xi64>
        memref.store %c0_i64, %alloc_15[%c13] : memref<14xi64>
        scf.yield %c0_i64 : i64
      }
      %291 = vector.broadcast %c30443_i16 : i16 to vector<16x14xi16>
      %dest_45, %accumulated_value_46 = vector.scan <maxui>, %104, %291 {inclusive = true, reduction_dim = 0 : i64} : vector<16x16x14xi16>, vector<16x14xi16>
      scf.execute_region {
        %299 = arith.divf %cst_4, %cst_4 : f16
        %300 = vector.insert %100, %84 [0] : vector<14xf32> into vector<16x14xf32>
        %301 = math.cos %collapsed_29 : tensor<768xf32>
        %c1_i64 = arith.constant 1 : i64
        %c0_i64_47 = arith.constant 0 : i64
        %302 = vector.transfer_read %15[%30], %c0_i64_47 : tensor<14xi64>, vector<i64>
        %303 = arith.ori %273, %c1_i64 : i64
        %cst_48 = arith.constant 1.000000e+00 : f16
        %304 = vector.transfer_read %collapsed_28[%74, %175], %cst_48 : tensor<256x14xf16>, vector<14xf16>
        %305 = arith.shrui %c0_i64, %149 : i64
        %306 = arith.divui %c24348_i16, %c32214_i16 : i16
        %307 = index.divs %74, %c13
        %308 = vector.broadcast %c24348_i16 : i16 to vector<14xi16>
        %309 = vector.maskedload %alloc[%c0], %116, %308 : memref<14xi16>, vector<14xi1>, vector<14xi16> into vector<14xi16>
        %310 = arith.maxui %c1676342753_i64, %273 : i64
        %311 = arith.cmpf oge, %cst_3, %27 : f16
        %312 = tensor.empty(%69) : tensor<?xi1>
        memref.store %190, %alloc_18[%c1] : memref<14xf32>
        %313 = vector.insertelement %c0_i64, %285[%34 : index] : vector<3xi64>
        %314 = math.ceil %splat : tensor<16x16x14xf16>
        scf.yield
      }
      %292 = vector.reduction <minui>, %73 : vector<1xi64> into i64
      %293 = tensor.empty() : tensor<16x16x14xi16>
      %294 = vector.broadcast %c32214_i16 : i16 to vector<14xi16>
      %295 = vector.broadcast %c2052943229_i32 : i32 to vector<14xi32>
      %296 = vector.gather %293[%34, %143, %175] [%295], %116, %294 : tensor<16x16x14xi16>, vector<14xi32>, vector<14xi1>, vector<14xi16> into vector<14xi16>
      %297 = affine.min affine_map<(d0, d1, d2) -> (d0 floordiv 8, d2 ceildiv 2)>(%c9, %c13, %c7)
      %298 = vector.extract %72[1] : vector<3xi64>
      bufferization.dealloc_tensor %14 : tensor<16x16x14xf32>
      scf.execute_region {
        %299 = vector.shuffle %132, %285 [4] : vector<3xi64>, vector<3xi64>
        %300 = affine.max affine_map<(d0) -> ((d0 + 1) ceildiv 128 - (d0 * 32) floordiv 128, ((d0 + 1) ceildiv 128) floordiv 2, (d0 + 1) ceildiv 128 - (d0 * 32) floordiv 128, (d0 + 1) ceildiv 128 - (d0 * 32) floordiv 128)>(%c13)
        %301 = math.log2 %27 : f16
        %302 = arith.subi %c-20547_i16, %c30443_i16 : i16
        %dest_47, %accumulated_value_48 = vector.scan <add>, %112, %84 {inclusive = true, reduction_dim = 1 : i64} : vector<16x16x14xf32>, vector<16x14xf32>
        %303 = math.roundeven %5 : tensor<14xf16>
        %304 = vector.reduction <add>, %29 : vector<3xi64> into i64
        %305 = math.rsqrt %14 : tensor<16x16x14xf32>
        %306 = bufferization.to_tensor %alloc_8 : memref<14xf16>
        %307 = arith.cmpi sgt, %true_25, %false : i1
        bufferization.dealloc_tensor %19 : tensor<f16>
        %308 = math.ctpop %8 : tensor<14xi32>
        memref.store %149, %alloc_13[%c4] : memref<14xi64>
        %309 = arith.andi %true, %true_1 : i1
        %310 = arith.xori %273, %273 : i64
        %311 = index.castu %c2052943229_i32 : i32 to index
        scf.yield
      }
      scf.if %true_25 {
        %c1_i64 = arith.constant 1 : i64
        %299 = vector.transfer_read %13[%51, %30, %c12], %c1_i64 : tensor<16x16x14xi64>, vector<i64>
        %300 = math.tan %85 : tensor<14xf32>
        %301 = index.mul %102, %103
        %302 = vector.load %alloc_15[%c5] : memref<14xi64>, vector<16x16x14xi64>
        %303 = arith.subi %c24348_i16, %c-20547_i16 : i16
        %304 = index.ceildivs %66, %c10
        %305 = math.exp2 %14 : tensor<16x16x14xf32>
        %dest_47, %accumulated_value_48 = vector.scan <add>, %160, %84 {inclusive = false, reduction_dim = 1 : i64} : vector<16x16x14xf32>, vector<16x14xf32>
      } else {
        %299 = index.mul %74, %184
        %300 = math.tanh %5 : tensor<14xf16>
        %301 = arith.xori %c1212773757_i64, %273 : i64
        %302 = math.log2 %collapsed_28 : tensor<256x14xf16>
        %303 = arith.negf %cst_0 : f32
        %304 = index.floordivs %30, %158
        %305 = vector.reduction <add>, %72 : vector<3xi64> into i64
        %306 = math.sqrt %85 : tensor<14xf32>
      }
    }
    %197 = arith.maxui %c1676342753_i64, %149 : i64
    memref.copy %alloc_19, %alloc_5 : memref<14xi32> to memref<14xi32>
    %198 = vector.broadcast %c-20547_i16 : i16 to vector<16x16xi16>
    %dest_31, %accumulated_value_32 = vector.scan <minui>, %104, %198 {inclusive = true, reduction_dim = 2 : i64} : vector<16x16x14xi16>, vector<16x16xi16>
    %expanded_33 = tensor.expand_shape %0 [[0, 1]] : tensor<14xi16> into tensor<14x1xi16>
    %199 = index.castu %true_1 : i1 to index
    %200 = index.divs %92, %184
    %201 = vector.insert %c0_i64, %99 [9] : i64 into vector<14xi64>
    %202 = arith.addi %true_2, %true : i1
    %203 = index.floordivs %30, %28
    %204 = arith.divui %c1676342753_i64, %c1676342753_i64 : i64
    %205 = vector.reduction <add>, %117 : vector<14xf16> into f16
    %dest_34, %accumulated_value_35 = vector.scan <maxf>, %80, %84 {inclusive = true, reduction_dim = 1 : i64} : vector<16x16x14xf32>, vector<16x14xf32>
    %206 = arith.shrsi %c0_i64, %c0_i64 : i64
    memref.store %c2052943229_i32, %alloc_20[%c5] : memref<6xi32>
    %207 = math.powf %85, %85 : tensor<14xf32>
    %208 = scf.while (%arg3 = %alloc_20) : (memref<6xi32>) -> memref<6xi32> {
      %271 = math.log1p %20 : tensor<f16>
      %272 = index.ceildivs %184, %102
      %273 = arith.maxsi %c0_i64, %c1676342753_i64 : i64
      %274 = math.log1p %5 : tensor<14xf16>
      %275 = math.rsqrt %85 : tensor<14xf32>
      %276 = math.exp2 %190 : f32
      %277 = arith.minf %27, %cst : f16
      memref.alloca_scope  {
        %278 = math.absf %14 : tensor<16x16x14xf32>
        %279 = affine.apply affine_map<(d0, d1, d2, d3) -> (d2 * 2)>(%185, %173, %121, %200)
        %280 = vector.shuffle %18, %18 [0, 3, 5] : vector<3xi64>, vector<3xi64>
        %281 = math.ipowi %9, %9 : tensor<6xi1>
        %282 = index.floordivs %121, %rank
        %283 = affine.apply affine_map<(d0, d1) -> (d1)>(%109, %28)
        %from_elements = tensor.from_elements %cst_0, %190, %190, %190, %190, %cst_0, %190, %190, %cst_0, %190, %190, %190, %190, %190, %cst_0, %cst_0, %cst_0, %cst_0, %cst_0, %190, %cst_0, %190, %cst_0, %cst_0, %cst_0, %190, %190, %190, %cst_0, %cst_0, %cst_0, %cst_0, %cst_0, %190, %190, %190, %cst_0, %190, %cst_0, %190, %190, %190, %190, %190, %190, %cst_0, %cst_0, %190, %cst_0, %cst_0, %190, %cst_0, %cst_0, %190, %190, %cst_0, %190, %190, %cst_0, %190, %190, %cst_0, %cst_0, %190, %cst_0, %190, %190, %190, %cst_0, %cst_0, %190, %cst_0, %cst_0, %190, %190, %cst_0, %cst_0, %cst_0, %cst_0, %190, %190, %cst_0, %cst_0, %190, %cst_0, %cst_0, %cst_0, %190, %190, %190, %190, %cst_0, %190, %cst_0, %cst_0, %cst_0, %190, %190, %190, %cst_0, %cst_0, %cst_0, %cst_0, %cst_0, %190, %190, %cst_0, %cst_0, %cst_0, %cst_0, %190, %190, %cst_0, %cst_0, %190, %190, %190, %190, %cst_0, %190, %190, %190, %190, %cst_0, %190, %cst_0, %190, %190, %cst_0, %cst_0, %cst_0, %cst_0, %190, %cst_0, %cst_0, %cst_0, %cst_0, %190, %190, %190, %190, %190, %cst_0, %cst_0, %cst_0, %190, %cst_0, %cst_0, %cst_0, %190, %cst_0, %190, %190, %cst_0, %cst_0, %cst_0, %cst_0, %cst_0, %cst_0, %190, %190, %cst_0, %cst_0, %cst_0, %190, %190, %190, %cst_0, %190, %190, %190, %190, %190, %190, %190, %190, %190, %190, %cst_0, %190, %190, %190, %190, %190, %190, %cst_0, %cst_0, %190, %cst_0, %cst_0, %190, %cst_0, %cst_0, %190, %190, %190, %cst_0, %190, %cst_0, %cst_0, %190, %cst_0, %190, %cst_0, %cst_0, %cst_0, %190, %cst_0, %cst_0, %cst_0, %190, %cst_0, %cst_0, %cst_0, %cst_0, %190, %cst_0, %cst_0, %190, %cst_0, %cst_0, %190, %190, %190, %cst_0, %190, %190, %cst_0, %190, %190, %190, %190, %cst_0, %190, %cst_0, %cst_0, %cst_0, %cst_0, %cst_0, %190, %190, %190, %cst_0, %190, %190, %190, %cst_0, %cst_0, %190, %190, %cst_0, %cst_0, %cst_0, %190, %cst_0, %cst_0, %190, %190, %cst_0, %cst_0, %cst_0, %cst_0, %190, %190, %190, %190, %190, %cst_0, %190, %190, %cst_0, %190, %cst_0, %cst_0, %190, %190, %cst_0, %cst_0, %190, %190, %190, %cst_0, %190, %190, %cst_0, %190, %190, %190, %190, %190, %190, %190, %cst_0, %190, %cst_0, %cst_0, %cst_0, %190, %cst_0, %190, %cst_0, %cst_0, %190, %cst_0, %cst_0, %cst_0, %190, %cst_0, %190, %190, %cst_0, %cst_0, %190, %190, %190, %cst_0, %190, %cst_0, %cst_0, %cst_0, %190, %cst_0, %190, %cst_0, %cst_0, %cst_0, %cst_0, %190, %cst_0, %190, %190, %190, %190, %cst_0, %cst_0, %cst_0, %cst_0, %190, %190, %cst_0, %190, %190, %cst_0, %190, %190, %cst_0, %190, %cst_0, %cst_0, %cst_0, %cst_0, %cst_0, %cst_0, %190, %190, %cst_0, %190, %190, %cst_0, %190, %cst_0, %190, %cst_0, %cst_0, %190, %cst_0, %cst_0, %190, %cst_0, %cst_0, %190, %190, %cst_0, %190, %190, %cst_0, %cst_0, %190, %190, %cst_0, %190, %cst_0, %cst_0, %cst_0, %190, %cst_0, %cst_0, %cst_0, %cst_0, %cst_0, %190, %cst_0, %cst_0, %cst_0, %190, %190, %cst_0, %cst_0, %190, %cst_0, %cst_0, %cst_0, %cst_0, %190, %190, %cst_0, %cst_0, %190, %cst_0, %cst_0, %cst_0, %190, %190, %cst_0, %190, %190, %190, %cst_0, %cst_0, %cst_0, %190, %cst_0, %190, %190, %190, %cst_0, %190, %cst_0, %190, %190, %190, %cst_0, %190, %cst_0, %190, %190, %190, %190, %190, %190, %190, %190, %cst_0, %190, %cst_0, %cst_0, %cst_0, %cst_0, %cst_0, %190, %190, %cst_0, %190, %cst_0, %cst_0, %cst_0, %cst_0, %cst_0, %190, %cst_0, %190, %190, %cst_0, %cst_0, %cst_0, %cst_0, %190, %cst_0, %190, %190, %cst_0, %190, %cst_0, %cst_0, %cst_0, %190, %190, %cst_0, %190, %cst_0, %cst_0, %cst_0, %cst_0, %190, %190, %190, %cst_0, %190, %cst_0, %cst_0, %190, %cst_0, %190, %cst_0, %cst_0, %cst_0, %cst_0, %cst_0, %190, %190, %cst_0, %cst_0, %cst_0, %190, %cst_0, %190, %cst_0, %cst_0, %190, %190, %cst_0, %190, %cst_0, %cst_0, %190, %cst_0, %190, %cst_0, %cst_0, %190, %cst_0, %cst_0, %190, %190, %190, %190, %cst_0, %cst_0, %cst_0, %cst_0, %190, %190, %190, %190, %cst_0, %190, %190, %cst_0, %190, %cst_0, %cst_0, %cst_0, %cst_0, %190, %cst_0, %cst_0, %cst_0, %190, %190, %cst_0, %cst_0, %cst_0, %cst_0, %cst_0, %cst_0, %190, %cst_0, %190, %190, %190, %cst_0, %cst_0, %190, %cst_0, %190, %190, %190, %190, %cst_0, %cst_0, %190, %190, %190, %cst_0, %190, %190, %cst_0, %cst_0, %cst_0, %190, %cst_0, %190, %190, %cst_0, %cst_0, %190, %190, %190, %190, %190, %cst_0, %190, %cst_0, %cst_0, %190, %cst_0, %190, %cst_0, %cst_0, %190, %cst_0, %cst_0, %cst_0, %cst_0, %cst_0, %190, %190, %cst_0, %190, %cst_0, %cst_0, %190, %cst_0, %190, %190, %190, %cst_0, %cst_0, %cst_0, %cst_0, %190, %cst_0, %cst_0, %190, %190, %190, %190, %cst_0, %190, %cst_0, %190, %190, %cst_0, %190, %190, %cst_0, %190, %cst_0, %cst_0, %190, %190, %cst_0, %190, %cst_0, %190, %190, %190, %190, %cst_0, %190, %cst_0, %190, %190, %cst_0, %190, %190, %cst_0, %190, %190, %190, %190, %cst_0, %190, %190, %cst_0, %190, %190, %190, %cst_0, %190, %190, %190, %cst_0, %cst_0, %190, %cst_0, %cst_0, %cst_0, %cst_0, %cst_0, %190, %cst_0, %cst_0, %cst_0, %190, %190, %190, %190, %190, %190, %cst_0, %190, %190, %190, %190, %cst_0, %190, %190, %cst_0, %190, %190, %190, %190, %cst_0, %190, %cst_0, %190, %cst_0, %190, %cst_0, %190, %cst_0, %cst_0, %cst_0, %190, %190, %cst_0, %190, %cst_0, %190, %cst_0, %190, %190, %cst_0, %cst_0, %cst_0, %cst_0, %190, %cst_0, %190, %190, %cst_0, %190, %190, %cst_0, %190, %190, %cst_0, %190, %190, %190, %cst_0, %cst_0, %190, %cst_0, %cst_0, %190, %cst_0, %190, %190, %cst_0, %cst_0, %190, %cst_0, %190, %cst_0, %cst_0, %190, %190, %cst_0, %cst_0, %cst_0, %190, %190, %190, %cst_0, %cst_0, %190, %cst_0, %cst_0, %cst_0, %190, %190, %cst_0, %cst_0, %cst_0, %cst_0, %cst_0, %cst_0, %cst_0, %190, %cst_0, %cst_0, %190, %190, %cst_0, %cst_0, %cst_0, %190, %190, %cst_0, %cst_0, %cst_0, %cst_0, %cst_0, %190, %cst_0, %190, %cst_0, %190, %cst_0, %190, %190, %190, %cst_0, %cst_0, %190, %190, %cst_0, %cst_0, %cst_0, %cst_0, %cst_0, %190, %cst_0, %cst_0, %cst_0, %190, %190, %190, %cst_0, %190, %190, %cst_0, %190, %cst_0, %cst_0, %cst_0, %cst_0, %cst_0, %cst_0, %190, %cst_0, %190, %cst_0, %cst_0, %cst_0, %190, %cst_0, %cst_0, %cst_0, %190, %190, %cst_0, %190, %190, %cst_0, %cst_0, %cst_0, %190, %190, %cst_0, %190, %190, %cst_0, %190, %cst_0, %cst_0, %190, %cst_0, %cst_0, %190, %cst_0, %190, %190, %cst_0, %cst_0, %cst_0, %190, %cst_0, %190, %190, %190, %cst_0, %190, %cst_0, %190, %190, %cst_0, %cst_0, %190, %cst_0, %190, %cst_0, %cst_0, %190, %cst_0, %cst_0, %190, %cst_0, %cst_0, %190, %190, %190, %190, %cst_0, %190, %190, %190, %190, %190, %cst_0, %cst_0, %190, %cst_0, %190, %cst_0, %190, %190, %190, %190, %cst_0, %cst_0, %cst_0, %cst_0, %cst_0, %cst_0, %190, %cst_0, %cst_0, %190, %cst_0, %cst_0, %190, %cst_0, %190, %cst_0, %190, %cst_0, %190, %cst_0, %cst_0, %190, %190, %190, %190, %cst_0, %cst_0, %cst_0, %cst_0, %190, %cst_0, %190, %190, %cst_0, %cst_0, %190, %cst_0, %190, %190, %cst_0, %cst_0, %190, %cst_0, %190, %190, %cst_0, %cst_0, %190, %cst_0, %cst_0, %190, %cst_0, %cst_0, %cst_0, %190, %cst_0, %cst_0, %cst_0, %cst_0, %190, %190, %cst_0, %cst_0, %190, %190, %190, %cst_0, %190, %190, %cst_0, %190, %cst_0, %190, %190, %190, %cst_0, %190, %190, %cst_0, %cst_0, %190, %190, %cst_0, %190, %190, %cst_0, %190, %190, %190, %190, %190, %cst_0, %190, %cst_0, %190, %cst_0, %190, %190, %190, %190, %cst_0, %cst_0, %190, %190, %190, %190, %190, %190, %cst_0, %190, %190, %190, %cst_0, %190, %cst_0, %190, %190, %cst_0, %cst_0, %cst_0, %cst_0, %cst_0, %190, %190, %cst_0, %cst_0, %190, %190, %190, %cst_0, %190, %190, %cst_0, %190, %190, %190, %190, %cst_0, %cst_0, %cst_0, %190, %190, %cst_0, %190, %190, %190, %cst_0, %cst_0, %cst_0, %cst_0, %190, %190, %190, %190, %cst_0, %cst_0, %190, %190, %cst_0, %190, %190, %190, %190, %190, %190, %cst_0, %190, %190, %190, %190, %190, %190, %190, %cst_0, %190, %cst_0, %cst_0, %cst_0, %cst_0, %cst_0, %190, %190, %cst_0, %cst_0, %190, %cst_0, %190, %190, %cst_0, %190, %190, %190, %cst_0, %cst_0, %190, %190, %190, %190, %cst_0, %190, %cst_0, %cst_0, %190, %cst_0, %190, %190, %190, %cst_0, %cst_0, %cst_0, %190, %cst_0, %190, %cst_0, %cst_0, %190, %190, %190, %190, %190, %190, %190, %190, %190, %190, %190, %190, %190, %190, %190, %cst_0, %190, %cst_0, %190, %cst_0, %190, %cst_0, %190, %190, %190, %190, %cst_0, %190, %190, %cst_0, %cst_0, %190, %cst_0, %190, %cst_0, %190, %190, %cst_0, %cst_0, %190, %190, %190, %190, %190, %cst_0, %190, %190, %cst_0, %190, %190, %190, %cst_0, %190, %cst_0, %cst_0, %190, %cst_0, %cst_0, %cst_0, %cst_0, %190, %cst_0, %190, %cst_0, %cst_0, %190, %cst_0, %190, %cst_0, %190, %cst_0, %190, %cst_0, %cst_0, %cst_0, %cst_0, %190, %cst_0, %190, %cst_0, %cst_0, %190, %cst_0, %190, %190, %cst_0, %cst_0, %190, %cst_0, %cst_0, %190, %cst_0, %cst_0, %cst_0, %190, %cst_0, %190, %190, %cst_0, %190, %cst_0, %cst_0, %cst_0, %cst_0, %190, %cst_0, %cst_0, %190, %cst_0, %cst_0, %cst_0, %190, %cst_0, %cst_0, %190, %cst_0, %cst_0, %190, %cst_0, %cst_0, %190, %190, %190, %cst_0, %cst_0, %190, %190, %190, %cst_0, %190, %cst_0, %190, %cst_0, %cst_0, %cst_0, %cst_0, %cst_0, %190, %cst_0, %190, %cst_0, %190, %cst_0, %cst_0, %190, %190, %190, %190, %190, %190, %190, %cst_0, %190, %cst_0, %190, %cst_0, %cst_0, %cst_0, %cst_0, %190, %190, %190, %190, %190, %cst_0, %cst_0, %190, %190, %cst_0, %cst_0, %190, %cst_0, %190, %190, %cst_0, %190, %190, %cst_0, %cst_0, %190, %cst_0, %cst_0, %cst_0, %cst_0, %190, %190, %cst_0, %190, %190, %190, %190, %cst_0, %cst_0, %190, %cst_0, %190, %cst_0, %cst_0, %cst_0, %cst_0, %cst_0, %190, %cst_0, %190, %190, %cst_0, %cst_0, %190, %190, %190, %190, %190, %190, %190, %190, %190, %cst_0, %190, %190, %190, %190, %cst_0, %cst_0, %cst_0, %190, %cst_0, %190, %cst_0, %190, %cst_0, %190, %cst_0, %190, %cst_0, %cst_0, %cst_0, %190, %cst_0, %190, %cst_0, %cst_0, %cst_0, %190, %cst_0, %cst_0, %190, %190, %cst_0, %cst_0, %190, %cst_0, %190, %cst_0, %cst_0, %190, %190, %cst_0, %190, %cst_0, %cst_0, %190, %190, %cst_0, %cst_0, %cst_0, %190, %190, %190, %190, %190, %190, %cst_0, %cst_0, %190, %cst_0, %190, %cst_0, %190, %190, %cst_0, %190, %cst_0, %cst_0, %cst_0, %190, %190, %190, %cst_0, %190, %190, %cst_0, %190, %190, %cst_0, %cst_0, %cst_0, %cst_0, %cst_0, %190, %190, %190, %190, %190, %190, %cst_0, %cst_0, %cst_0, %cst_0, %190, %cst_0, %cst_0, %cst_0, %cst_0, %cst_0, %190, %cst_0, %190, %190, %cst_0, %190, %cst_0, %cst_0, %cst_0, %190, %cst_0, %190, %cst_0, %cst_0, %cst_0, %cst_0, %190, %190, %cst_0, %cst_0, %190, %190, %cst_0, %190, %cst_0, %cst_0, %190, %cst_0, %190, %cst_0, %cst_0, %cst_0, %190, %190, %cst_0, %190, %190, %cst_0, %cst_0, %cst_0, %190, %cst_0, %190, %cst_0, %cst_0, %190, %cst_0, %190, %190, %cst_0, %190, %190, %190, %cst_0, %cst_0, %190, %cst_0, %cst_0, %190, %cst_0, %cst_0, %190, %190, %cst_0, %cst_0, %190, %190, %cst_0, %cst_0, %190, %cst_0, %cst_0, %190, %190, %cst_0, %190, %190, %190, %cst_0, %cst_0, %cst_0, %190, %cst_0, %cst_0, %190, %cst_0, %190, %190, %190, %cst_0, %cst_0, %cst_0, %190, %190, %cst_0, %190, %190, %cst_0, %cst_0, %cst_0, %cst_0, %190, %190, %cst_0, %cst_0, %190, %cst_0, %cst_0, %cst_0, %190, %190, %190, %190, %190, %cst_0, %cst_0, %cst_0, %190, %cst_0, %190, %cst_0, %190, %cst_0, %190, %cst_0, %cst_0, %190, %190, %190, %cst_0, %190, %190, %cst_0, %190, %cst_0, %190, %190, %cst_0, %190, %190, %cst_0, %190, %cst_0, %190, %190, %cst_0, %cst_0, %cst_0, %cst_0, %190, %190, %cst_0, %cst_0, %190, %190, %cst_0, %190, %cst_0, %cst_0, %190, %cst_0, %cst_0, %190, %190, %190, %190, %cst_0, %190, %190, %190, %cst_0, %cst_0, %190, %190, %cst_0, %cst_0, %190, %190, %cst_0, %190, %cst_0, %cst_0, %190, %cst_0, %cst_0, %190, %cst_0, %cst_0, %190, %cst_0, %190, %cst_0, %190, %190, %190, %190, %190, %190, %190, %190, %cst_0, %190, %190, %cst_0, %cst_0, %cst_0, %cst_0, %cst_0, %cst_0, %190, %190, %190, %cst_0, %190, %cst_0, %cst_0, %cst_0, %cst_0, %190, %190, %190, %190, %190, %190, %cst_0, %190, %190, %cst_0, %cst_0, %190, %190, %190, %cst_0, %cst_0, %cst_0, %190, %cst_0, %190, %cst_0, %cst_0, %cst_0, %190, %190, %cst_0, %190, %190, %190, %cst_0, %cst_0, %190, %cst_0, %cst_0, %190, %190, %190, %190, %cst_0, %190, %190, %cst_0, %190, %190, %cst_0, %cst_0, %190, %190, %190, %cst_0, %cst_0, %190, %cst_0, %190, %cst_0, %190, %cst_0, %cst_0, %cst_0, %190, %cst_0, %cst_0, %cst_0, %190, %190, %190, %cst_0, %190, %cst_0, %cst_0, %cst_0, %190, %cst_0, %190, %cst_0, %190, %cst_0, %cst_0, %190, %190, %190, %190, %cst_0, %190, %cst_0, %cst_0, %cst_0, %190, %190, %190, %cst_0, %cst_0, %cst_0, %190, %190, %190, %cst_0, %cst_0, %190, %cst_0, %190, %cst_0, %cst_0, %cst_0, %190, %cst_0, %cst_0, %190, %cst_0, %190, %190, %190, %cst_0, %cst_0, %190, %190, %190, %190, %190, %cst_0, %190, %190, %190, %190, %cst_0, %cst_0, %cst_0, %190, %cst_0, %cst_0, %190, %190, %cst_0, %cst_0, %190, %cst_0, %190, %190, %190, %190, %cst_0, %cst_0, %cst_0, %190, %cst_0, %cst_0, %cst_0, %190, %190, %cst_0, %cst_0, %190, %190, %cst_0, %190, %190, %cst_0, %cst_0, %190, %190, %cst_0, %cst_0, %190, %190, %190, %190, %cst_0, %190, %cst_0, %190, %190, %190, %cst_0, %cst_0, %190, %190, %cst_0, %cst_0, %190, %cst_0, %190, %cst_0, %cst_0, %190, %190, %cst_0, %190, %190, %190, %cst_0, %cst_0, %190, %190, %cst_0, %190, %190, %cst_0, %190, %190, %190, %190, %cst_0, %cst_0, %190, %190, %190, %190, %190, %190, %cst_0, %cst_0, %cst_0, %cst_0, %cst_0, %cst_0, %cst_0, %cst_0, %190, %cst_0, %190, %cst_0, %cst_0, %cst_0, %190, %cst_0, %cst_0, %190, %cst_0, %cst_0, %190, %cst_0, %cst_0, %190, %cst_0, %cst_0, %cst_0, %190, %190, %190, %cst_0, %cst_0, %cst_0, %190, %190, %190, %cst_0, %190, %190, %190, %cst_0, %cst_0, %cst_0, %cst_0, %cst_0, %cst_0, %190, %190, %190, %190, %190, %cst_0, %190, %190, %cst_0, %190, %190, %190, %cst_0, %190, %190, %cst_0, %190, %190, %190, %190, %190, %190, %190, %cst_0, %cst_0, %190, %cst_0, %190, %cst_0, %cst_0, %190, %190, %cst_0, %cst_0, %cst_0, %190, %190, %cst_0, %cst_0, %190, %cst_0, %190, %190, %190, %cst_0, %cst_0, %190, %190, %190, %190, %190, %190, %cst_0, %cst_0, %190, %cst_0, %cst_0, %cst_0, %cst_0, %cst_0, %cst_0, %cst_0, %190, %cst_0, %cst_0, %190, %cst_0, %cst_0, %190, %190, %cst_0, %190, %cst_0, %190, %cst_0, %190, %190, %190, %cst_0, %cst_0, %190, %190, %cst_0, %190, %cst_0, %190, %cst_0, %cst_0, %190, %190, %cst_0, %190, %cst_0, %190, %190, %cst_0, %cst_0, %190, %190, %cst_0, %cst_0, %190, %190, %190, %cst_0, %190, %190, %190, %cst_0, %cst_0, %190, %cst_0, %cst_0, %190, %190, %190, %190, %190, %cst_0, %cst_0, %190, %190, %190, %190, %190, %190, %cst_0, %190, %190, %cst_0, %190, %cst_0, %190, %190, %cst_0, %cst_0, %190, %190, %190, %cst_0, %cst_0, %190, %190, %cst_0, %cst_0, %cst_0, %190, %190, %cst_0, %190, %cst_0, %190, %cst_0, %190, %190, %190, %190, %190, %190, %cst_0, %cst_0, %cst_0, %190, %190, %190, %cst_0, %190, %cst_0, %cst_0, %cst_0, %cst_0, %cst_0, %cst_0, %190, %190, %cst_0, %cst_0, %190, %190, %190, %190, %cst_0, %cst_0, %190, %190, %cst_0, %190, %190, %cst_0, %190, %cst_0, %cst_0, %190, %cst_0, %cst_0, %190, %190, %cst_0, %cst_0, %cst_0, %190, %190, %cst_0, %190, %cst_0, %190, %cst_0, %190, %190, %cst_0, %cst_0, %190, %190, %190, %cst_0, %cst_0, %190, %190, %190, %cst_0, %cst_0, %190, %cst_0, %cst_0, %190, %190, %cst_0, %cst_0, %190, %cst_0, %190, %190, %190, %cst_0, %190, %190, %190, %cst_0, %190, %cst_0, %190, %cst_0, %190, %190, %cst_0, %cst_0, %190, %190, %190, %cst_0, %190, %cst_0, %190, %190, %190, %190, %190, %cst_0, %cst_0, %190, %cst_0, %190, %cst_0, %190, %cst_0, %cst_0, %cst_0, %190, %190, %cst_0, %cst_0, %190, %cst_0, %190, %190, %cst_0, %190, %cst_0, %cst_0, %190, %cst_0, %cst_0, %cst_0, %cst_0, %cst_0, %cst_0, %190, %190, %190, %cst_0, %190, %cst_0, %cst_0, %cst_0, %cst_0, %cst_0, %cst_0, %190, %cst_0, %190, %190, %cst_0, %190, %190, %190, %cst_0, %cst_0, %190, %190, %cst_0, %cst_0, %190, %190, %190, %190, %190, %cst_0, %cst_0, %cst_0, %190, %190, %cst_0, %cst_0, %190, %cst_0, %cst_0, %cst_0, %cst_0, %cst_0, %cst_0, %cst_0, %cst_0, %cst_0, %190, %cst_0, %190, %cst_0, %190, %cst_0, %190, %cst_0, %cst_0, %cst_0, %190, %190, %cst_0, %cst_0, %cst_0, %cst_0, %cst_0, %cst_0, %190, %190, %cst_0, %190, %cst_0, %cst_0, %cst_0, %cst_0, %190, %190, %cst_0, %190, %cst_0, %cst_0, %cst_0, %190, %cst_0, %cst_0, %cst_0, %190, %190, %cst_0, %190, %cst_0, %190, %190, %190, %cst_0, %cst_0, %190, %cst_0, %cst_0, %cst_0, %cst_0, %190, %cst_0, %cst_0, %190, %cst_0, %cst_0, %cst_0, %cst_0, %cst_0, %cst_0, %cst_0, %cst_0, %190, %cst_0, %cst_0, %cst_0, %190, %190, %cst_0, %190, %190, %190, %cst_0, %190, %cst_0, %cst_0, %cst_0, %190, %190, %190, %cst_0, %cst_0, %cst_0, %190, %190, %190, %190, %190, %cst_0, %cst_0, %cst_0, %cst_0, %cst_0, %cst_0, %190, %190, %190, %cst_0, %cst_0, %190, %cst_0, %190, %190, %190, %cst_0, %cst_0, %190, %190, %cst_0, %cst_0, %190, %190, %190, %190, %190, %190, %190, %cst_0, %cst_0, %cst_0, %cst_0, %cst_0, %190, %cst_0, %cst_0, %cst_0, %cst_0, %cst_0, %190, %cst_0, %cst_0, %190, %cst_0, %cst_0, %cst_0, %cst_0, %190, %190, %190, %190, %190, %cst_0, %190, %cst_0, %cst_0, %190, %190, %cst_0, %190, %cst_0, %190, %190, %cst_0, %cst_0, %190, %cst_0, %190, %cst_0, %190, %190, %cst_0, %190, %cst_0, %cst_0, %190, %cst_0, %190, %190, %190, %cst_0, %190, %cst_0, %190, %cst_0, %190, %190, %190, %cst_0, %cst_0, %cst_0, %cst_0, %cst_0, %190, %190, %cst_0, %cst_0, %cst_0, %190, %190, %190, %cst_0, %190, %190, %cst_0, %190, %190, %cst_0, %190, %cst_0, %190, %190, %cst_0, %190, %190, %190, %cst_0, %190, %cst_0, %cst_0, %190, %cst_0, %cst_0, %190, %190, %190, %cst_0, %190, %190, %190, %cst_0, %190, %cst_0, %190, %cst_0, %190, %cst_0, %cst_0, %cst_0, %cst_0, %190, %cst_0, %190, %190, %190, %190, %190, %190, %cst_0, %190, %190, %cst_0, %cst_0, %190, %190, %190, %190, %190, %190, %cst_0, %190, %190, %cst_0, %cst_0, %cst_0, %190, %cst_0, %cst_0, %190, %190, %cst_0, %190, %cst_0, %cst_0, %190, %cst_0, %cst_0, %cst_0, %cst_0, %cst_0, %cst_0, %cst_0, %cst_0, %190, %cst_0, %cst_0, %190, %cst_0, %190, %cst_0, %190, %cst_0, %cst_0, %190, %cst_0, %cst_0, %190, %190, %190, %190, %cst_0, %cst_0, %cst_0, %cst_0, %cst_0, %cst_0, %190, %cst_0, %190, %190, %190, %cst_0, %cst_0, %190, %190, %190, %190, %190, %190, %190, %cst_0, %190, %190, %190, %190, %cst_0, %190, %cst_0, %190, %190, %cst_0, %cst_0, %190, %190, %cst_0, %190, %190, %190, %cst_0, %190, %190, %190, %cst_0, %cst_0, %cst_0, %cst_0, %190, %cst_0, %190, %cst_0, %190, %190, %cst_0, %cst_0, %cst_0, %190, %cst_0, %cst_0, %190, %cst_0, %190, %cst_0, %190, %cst_0, %190, %190, %cst_0, %cst_0, %cst_0, %cst_0, %cst_0, %cst_0, %190, %190, %190, %190, %cst_0, %190, %190, %190, %cst_0, %cst_0, %cst_0, %cst_0, %190, %cst_0, %190, %cst_0, %cst_0, %cst_0, %cst_0, %cst_0, %190, %190, %cst_0, %190, %cst_0, %190, %cst_0, %cst_0, %cst_0, %190, %190, %cst_0, %cst_0, %190, %cst_0, %190, %190, %190, %cst_0, %cst_0, %cst_0, %cst_0, %cst_0, %cst_0, %190, %cst_0, %cst_0, %cst_0, %cst_0, %190, %cst_0, %190, %190, %190, %cst_0, %cst_0, %cst_0, %cst_0, %190, %190, %cst_0, %cst_0, %190, %190, %190, %190, %cst_0, %cst_0, %cst_0, %190, %190, %190, %190, %cst_0, %cst_0, %cst_0, %190, %cst_0, %190, %190, %190, %190, %cst_0, %190, %cst_0, %cst_0, %190, %190, %190, %190, %190, %190, %190, %cst_0, %190, %190, %190, %190, %190, %190, %190, %190, %190, %190, %cst_0, %cst_0, %190, %cst_0, %cst_0, %cst_0, %190, %cst_0, %cst_0, %190, %cst_0, %cst_0, %cst_0, %190, %cst_0, %cst_0, %cst_0, %190, %190, %190, %cst_0, %cst_0, %190, %cst_0, %cst_0, %cst_0, %cst_0, %190, %190, %cst_0, %cst_0, %190, %190, %190, %190, %190, %190, %190, %190, %190, %cst_0, %cst_0, %190, %190, %cst_0, %cst_0, %190, %cst_0, %cst_0, %190, %190, %190, %190, %cst_0, %cst_0, %190, %cst_0, %190, %190, %190, %190, %cst_0, %190, %190, %cst_0, %190, %cst_0, %cst_0, %cst_0, %190, %190, %190, %cst_0, %cst_0, %cst_0, %cst_0, %190, %cst_0, %190, %cst_0, %cst_0, %cst_0, %190, %190, %190, %cst_0, %190, %cst_0, %cst_0, %cst_0, %190, %cst_0, %190, %190, %cst_0, %190, %cst_0, %190, %cst_0, %cst_0, %190, %190, %190, %190, %cst_0, %cst_0, %190, %cst_0, %190, %cst_0, %cst_0, %cst_0, %190, %190, %190, %190, %cst_0, %cst_0, %cst_0, %190, %cst_0, %cst_0, %cst_0, %cst_0, %190, %190, %cst_0, %190, %cst_0, %190, %190, %cst_0, %190, %190, %cst_0, %190, %cst_0, %190, %190, %cst_0, %cst_0, %190, %190, %cst_0, %cst_0, %cst_0, %cst_0, %cst_0, %190, %cst_0, %cst_0, %190, %190, %cst_0, %190, %190, %190, %190, %190, %cst_0, %190, %190, %190, %cst_0, %190, %cst_0, %190, %190, %190, %190, %cst_0, %190, %cst_0, %cst_0, %190, %190, %190, %190, %cst_0, %cst_0, %190, %cst_0, %cst_0, %190, %cst_0, %190, %cst_0, %cst_0, %cst_0, %cst_0, %190, %cst_0, %cst_0, %cst_0, %190, %190, %190, %190, %cst_0, %cst_0, %190, %190, %190, %190, %cst_0, %cst_0, %190, %190, %cst_0, %190, %cst_0, %190, %190, %190, %cst_0, %190, %cst_0, %190, %190, %cst_0, %cst_0, %190, %190, %cst_0, %cst_0, %cst_0, %190, %190, %190, %190, %cst_0, %cst_0, %190, %cst_0, %cst_0, %cst_0, %cst_0, %190, %190, %190, %cst_0, %190, %190, %190, %cst_0, %190, %190, %190, %cst_0, %190, %190, %190, %cst_0, %cst_0, %cst_0, %190, %190, %cst_0, %190, %190, %cst_0, %cst_0, %cst_0, %190, %190, %190, %190, %190, %cst_0, %190, %190, %190, %cst_0, %190, %cst_0, %190, %cst_0, %190, %190, %190, %190, %190, %cst_0, %cst_0, %cst_0, %190, %190, %cst_0, %190, %cst_0, %190, %cst_0, %190, %190, %190, %cst_0, %190, %190, %cst_0, %cst_0, %190, %cst_0, %cst_0, %190, %cst_0, %cst_0, %cst_0, %cst_0, %cst_0, %190, %190, %cst_0, %190, %cst_0, %190, %cst_0, %cst_0, %cst_0, %190, %190, %cst_0, %cst_0, %190, %cst_0, %190, %190, %190, %190, %190, %cst_0, %190, %190, %190, %190, %cst_0, %cst_0, %190, %190, %cst_0, %cst_0, %cst_0, %cst_0, %190, %190, %cst_0, %190, %cst_0, %190, %cst_0, %190, %cst_0, %190, %cst_0, %cst_0, %190, %cst_0, %cst_0, %190, %190, %cst_0, %cst_0, %190, %cst_0, %190, %190, %cst_0, %cst_0, %190, %190, %cst_0, %190, %cst_0, %190, %cst_0, %cst_0, %cst_0, %cst_0, %cst_0, %190, %cst_0, %190, %cst_0, %cst_0, %190, %cst_0, %cst_0, %190, %190, %190, %190, %cst_0, %190, %cst_0, %cst_0, %cst_0, %cst_0, %cst_0, %cst_0, %190, %cst_0, %cst_0, %cst_0, %cst_0, %cst_0, %190, %190, %cst_0, %190, %cst_0, %190, %190, %cst_0, %190, %cst_0, %190, %190, %cst_0, %190, %cst_0, %cst_0, %cst_0, %190, %190, %cst_0, %cst_0, %cst_0, %190, %190, %190, %190, %cst_0, %cst_0, %cst_0, %190, %cst_0, %cst_0, %cst_0, %cst_0, %190, %190, %190, %190, %cst_0, %190, %cst_0, %190, %cst_0, %cst_0, %cst_0, %190, %190, %cst_0, %cst_0, %190, %cst_0, %190, %cst_0, %cst_0, %190, %190, %190, %cst_0, %cst_0, %190, %cst_0, %190, %cst_0, %cst_0, %cst_0, %cst_0, %190, %190, %cst_0, %cst_0, %190, %190, %cst_0, %cst_0, %cst_0, %cst_0, %cst_0, %190, %190, %cst_0, %190, %190, %190, %cst_0, %190, %190, %190, %190, %190, %190, %190, %190, %cst_0, %190, %cst_0, %cst_0, %cst_0, %cst_0, %190, %190, %cst_0, %190, %cst_0, %190, %190, %190, %190, %190, %190, %cst_0, %cst_0, %cst_0, %190, %cst_0, %cst_0, %cst_0, %190, %cst_0, %190, %cst_0, %cst_0, %190, %cst_0, %190, %190, %cst_0, %190, %cst_0, %190, %cst_0, %190, %cst_0, %cst_0, %190, %190, %190, %190, %190, %190, %cst_0, %cst_0, %cst_0, %cst_0, %cst_0, %cst_0, %190, %190, %190, %190, %cst_0, %cst_0, %cst_0, %190, %cst_0, %190, %cst_0, %cst_0, %190, %190, %cst_0, %190, %190, %cst_0, %190, %190, %190, %cst_0, %cst_0, %cst_0, %cst_0, %cst_0, %190, %190, %cst_0, %190, %190, %190, %cst_0, %190, %cst_0, %cst_0, %190, %190, %190, %190, %cst_0, %cst_0, %190, %cst_0, %190, %cst_0, %cst_0, %190, %190, %190, %cst_0, %190, %190, %cst_0, %190, %190, %cst_0, %cst_0, %190, %190, %cst_0, %190, %cst_0, %190, %190, %190, %cst_0, %190, %190, %cst_0, %190, %190, %190, %190, %cst_0, %cst_0, %190, %190, %190, %190, %cst_0, %cst_0, %190, %cst_0, %cst_0, %190, %cst_0, %190, %cst_0, %190, %190, %190, %190, %190, %cst_0, %190, %190, %190, %190, %cst_0, %cst_0, %190, %cst_0, %190, %190, %190, %190, %cst_0, %190, %190, %190, %190, %cst_0, %cst_0, %cst_0, %190, %cst_0, %cst_0, %cst_0, %190, %190, %190, %190, %190, %cst_0, %190, %190, %cst_0, %cst_0, %190, %190, %cst_0, %cst_0, %cst_0, %190, %cst_0, %cst_0, %190, %cst_0, %cst_0, %190, %cst_0, %190, %cst_0, %cst_0, %cst_0, %190, %cst_0, %190, %cst_0, %cst_0, %190, %cst_0, %190, %190, %190, %190, %190, %190, %190, %190, %190, %cst_0, %cst_0, %cst_0, %190, %190, %cst_0, %190, %190, %190, %cst_0, %190, %cst_0, %cst_0, %cst_0, %cst_0, %cst_0, %190, %190, %190, %190, %cst_0, %190, %cst_0, %190, %190, %190, %cst_0, %190, %cst_0, %190, %190, %190, %190, %190, %cst_0, %190, %190, %cst_0, %190, %190, %cst_0, %cst_0, %190, %cst_0, %190, %cst_0, %190, %cst_0, %cst_0, %190, %190, %190, %cst_0, %190, %cst_0, %190, %190, %cst_0, %cst_0, %cst_0, %190, %190, %cst_0, %190, %cst_0, %cst_0, %cst_0, %190, %cst_0, %190, %cst_0, %cst_0, %190, %cst_0, %cst_0, %190, %190, %cst_0, %cst_0, %190, %cst_0, %cst_0, %cst_0, %cst_0, %cst_0, %cst_0, %190, %cst_0, %cst_0, %190, %190, %190, %190, %cst_0, %cst_0, %190, %cst_0, %190, %190, %cst_0, %cst_0, %cst_0, %cst_0, %190, %cst_0, %cst_0, %190, %190, %190, %190, %190, %cst_0, %cst_0, %190, %190, %190, %190, %190, %190, %190, %190, %190, %190, %190, %cst_0, %cst_0, %cst_0, %190, %190, %cst_0, %cst_0, %cst_0, %cst_0, %190, %190, %cst_0, %cst_0, %cst_0, %cst_0, %190, %cst_0, %cst_0, %190, %190, %190, %190, %cst_0, %190, %cst_0, %190, %cst_0, %190, %190, %190, %cst_0, %cst_0, %cst_0, %190, %190, %190 : tensor<16x16x14xf32>
        %284 = affine.min affine_map<(d0, d1, d2, d3) -> (0)>(%184, %143, %28, %c7)
        %285 = math.round %135 : tensor<256x3xf32>
        %286 = memref.realloc %alloc_9 : memref<14xf32> to memref<16xf32>
        %287 = arith.divui %true_1, %true_2 : i1
        %288 = arith.maxf %cst_0, %cst_0 : f32
        %289 = vector.extract_strided_slice %160 {offsets = [3], sizes = [12], strides = [1]} : vector<16x16x14xf32> to vector<12x16x14xf32>
        %290 = affine.max affine_map<(d0, d1, d2, d3) -> (d1 floordiv 128, d1 floordiv 128)>(%c7, %c9, %c1, %c13)
        %291 = vector.broadcast %199 : index to vector<14xindex>
        vector.scatter %alloc_7[%c1] [%291], %116, %99 : memref<6xi64>, vector<14xindex>, vector<14xi1>, vector<14xi64>
        bufferization.dealloc_tensor %8 : tensor<14xi32>
        %292 = arith.remf %190, %cst_0 : f32
        %293 = math.rsqrt %cst_4 : f16
        %294 = bufferization.clone %alloc_20 : memref<6xi32> to memref<6xi32>
        memref.store %c2052943229_i32, %alloc_5[%c3] : memref<14xi32>
        %295 = math.expm1 %90 : tensor<256x14xf32>
        %296 = index.floordivs %102, %c3
        %297 = math.ipowi %3, %3 : tensor<16x16x14xi1>
        %c0_i64_42 = arith.constant 0 : i64
        %c0_i64_43 = arith.constant 0 : i64
        %298 = vector.transfer_read %alloc_14[%c2], %c0_i64_43 : memref<14xi64>, vector<i64>
        %299 = vector.extract_strided_slice %159 {offsets = [7], sizes = [3], strides = [1]} : vector<16x16x14xf32> to vector<3x16x14xf32>
        %splat_44 = tensor.splat %27 : tensor<6xf16>
        %300 = arith.maxf %cst_0, %190 : f32
        %301 = index.floordivs %c3, %184
        %302 = vector.broadcast %false : i1 to vector<i1>
        %303 = vector.transfer_write %302, %9[%70] : vector<i1>, tensor<6xi1>
        vector.print %84 : vector<16x14xf32>
        %304 = vector.broadcast %true_2 : i1 to vector<i1>
        %305 = vector.transfer_write %304, %17[%82] : vector<i1>, tensor<14xi1>
        %306 = arith.maxui %c0_i64_42, %c0_i64 : i64
      }
      scf.condition(%true_1) %alloc_20 : memref<6xi32>
    } do {
    ^bb0(%arg3: memref<6xi32>):
      %271 = arith.divsi %true_25, %true : i1
      %272 = index.floordivs %176, %47
      %273 = math.floor %19 : tensor<f16>
      %274 = index.ceildivs %66, %74
      scf.if %true_2 {
        %285 = math.ceil %cst_0 : f32
        %from_elements = tensor.from_elements %149, %c0_i64, %149, %c1676342753_i64, %c988780503_i64, %c1676342753_i64, %c1212773757_i64, %c988780503_i64, %149, %c1676342753_i64, %c988780503_i64, %c1212773757_i64, %149, %c988780503_i64 : tensor<14xi64>
        %286 = vector.load %95[%c1] : memref<14xi16>, vector<16x16x14xi16>
        %287 = vector.multi_reduction <xor>, %116, %116 [] : vector<14xi1> to vector<14xi1>
        %288 = arith.maxf %cst, %27 : f16
        %289 = math.fpowi %27, %c2052943229_i32 : f16, i32
        %290 = vector.broadcast %c0_i64 : i64 to vector<3x3xi64>
        %291 = vector.outerproduct %18, %18, %290 {kind = #vector.kind<add>} : vector<3xi64>, vector<3xi64>
        %292 = vector.broadcast %cst_4 : f16 to vector<f16>
        %293 = vector.transfer_write %292, %5[%c13] : vector<f16>, tensor<14xf16>
      } else {
        %285 = arith.xori %c988780503_i64, %c0_i64 : i64
        %286 = arith.cmpi ule, %false, %true_25 : i1
        %287 = arith.shrui %c2052943229_i32, %c2052943229_i32 : i32
        %288 = math.exp %cst_0 : f32
        %289 = arith.subi %true_1, %false : i1
        %rank_42 = tensor.rank %generated : tensor<?xi32>
        %290 = math.rsqrt %2 : tensor<16x16x14xf16>
        %inserted = tensor.insert %cst_4 into %2[%c5, %c9, %c12] : tensor<16x16x14xf16>
      }
      %275 = math.atan2 %collapsed_28, %collapsed_28 : tensor<256x14xf16>
      %276 = memref.atomic_rmw maxf %cst_4, %alloc_8[%c3] : (f16, memref<14xf16>) -> f16
      %277 = affine.min affine_map<(d0, d1, d2, d3) -> (d1)>(%175, %185, %43, %c10)
      %278 = math.fpowi %cst, %c2052943229_i32 : f16, i32
      %279 = math.round %90 : tensor<256x14xf32>
      %280 = math.roundeven %splat : tensor<16x16x14xf16>
      %281 = arith.xori %true, %true_1 : i1
      %282 = index.floordivs %121, %180
      %c493130768_i32 = arith.constant 493130768 : i32
      %283 = vector.flat_transpose %116 {columns = 7 : i32, rows = 2 : i32} : vector<14xi1> -> vector<14xi1>
      %284 = math.rsqrt %cst : f16
      scf.yield %alloc_20 : memref<6xi32>
    }
    %209 = vector.broadcast %cst_0 : f32 to vector<16x16x14xf32>
    %210 = vector.fma %209, %80, %81 : vector<16x16x14xf32>
    %211 = vector.transpose %132, [0] : vector<3xi64> to vector<3xi64>
    %alloca_36 = memref.alloca() : memref<16x16x14xi1>
    %212 = arith.cmpi ult, %c32214_i16, %c-20547_i16 : i16
    %213 = math.tanh %cst_4 : f16
    %214 = arith.divui %c-20547_i16, %c-20547_i16 : i16
    %215 = arith.maxf %cst_0, %cst_0 : f32
    %216 = affine.min affine_map<(d0, d1, d2) -> (d0 mod 32, d1 + d2 + 1, d1 + d2 + d1 + d2 + 5)>(%43, %173, %175)
    %217 = vector.extract_strided_slice %116 {offsets = [7], sizes = [5], strides = [1]} : vector<14xi1> to vector<5xi1>
    %218 = vector.bitcast %160 : vector<16x16x14xf32> to vector<16x16x14xf32>
    %219 = index.ceildivu %48, %c1
    %220 = vector.extract %52[0] : vector<1xi64>
    %221 = vector.broadcast %47 : index to vector<16xindex>
    %222 = vector.broadcast %true_25 : i1 to vector<16xi1>
    %223 = vector.broadcast %c2052943229_i32 : i32 to vector<16xi32>
    vector.scatter %alloc_20[%c0] [%221], %222, %223 : memref<6xi32>, vector<16xindex>, vector<16xi1>, vector<16xi32>
    %224 = vector.extract_strided_slice %115 {offsets = [6], sizes = [2], strides = [1]} : vector<14xf16> to vector<2xf16>
    %225 = arith.divsi %c2052943229_i32, %c2052943229_i32 : i32
    %226 = bufferization.to_tensor %alloc_16 : memref<14xi1>
    %227 = math.absf %2 : tensor<16x16x14xf16>
    %228 = arith.subi %c1212773757_i64, %c1212773757_i64 : i64
    %229 = index.sizeof
    %collapsed_37 = tensor.collapse_shape %156 [[0, 1]] : tensor<256x14xi32> into tensor<3584xi32>
    %230 = affine.min affine_map<(d0) -> (0, d0 * 8, (d0 floordiv 128) mod 4, (d0 floordiv 128) ceildiv 4)>(%199)
    %231 = arith.shrsi %true_1, %true : i1
    %232 = vector.broadcast %c2052943229_i32 : i32 to vector<14xi32>
    %233 = vector.maskedload %alloc_19[%c2], %116, %232 : memref<14xi32>, vector<14xi1>, vector<14xi32> into vector<14xi32>
    %234 = math.round %splat : tensor<16x16x14xf16>
    %235 = arith.shrui %true, %true_25 : i1
    %236 = math.absi %expanded_33 : tensor<14x1xi16>
    %cst_38 = arith.constant 1.169000e+03 : f16
    %237 = tensor.empty(%180) : tensor<16x16x?xi16>
    %238 = index.floordivs %103, %185
    %239 = math.ctpop %c-20547_i16 : i16
    %240 = vector.load %alloc_5[%c13] : memref<14xi32>, vector<14xi32>
    %241 = math.fma %27, %cst, %cst : f16
    vector.print %218 : vector<16x16x14xf32>
    %collapsed_39 = tensor.collapse_shape %14 [[0, 1], [2]] : tensor<16x16x14xf32> into tensor<256x14xf32>
    %242 = math.absf %2 : tensor<16x16x14xf16>
    vector.print %240 : vector<14xi32>
    %243 = vector.broadcast %true : i1 to vector<6x14xi1>
    vector.transfer_write %243, %alloc_12[%34, %70, %143] {permutation_map = affine_map<(d0, d1, d2) -> (d0, d1)>} : vector<6x14xi1>, memref<16x16x14xi1>
    %244 = index.ceildivs %203, %c12
    %245 = math.round %90 : tensor<256x14xf32>
    %246 = math.atan2 %2, %194 : tensor<16x16x14xf16>
    %247 = math.absi %11 : tensor<14xi1>
    %248 = arith.remsi %c1212773757_i64, %c1212773757_i64 : i64
    %249 = math.powf %splat, %2 : tensor<16x16x14xf16>
    %250 = vector.insertelement %c2052943229_i32, %232[%30 : index] : vector<14xi32>
    %251 = vector.bitcast %218 : vector<16x16x14xf32> to vector<16x16x14xf32>
    %252 = math.log2 %splat : tensor<16x16x14xf16>
    bufferization.dealloc_tensor %9 : tensor<6xi1>
    %253 = arith.divui %c988780503_i64, %149 : i64
    %254 = math.rsqrt %cst_3 : f16
    %255 = vector.create_mask %203 : vector<6xi1>
    %256 = index.castu %176 : index to i32
    %c1_i16 = arith.constant 1 : i16
    %c0_i16 = arith.constant 0 : i16
    %257 = vector.transfer_read %alloc_10[%103, %229, %47], %c0_i16 {permutation_map = affine_map<(d0, d1, d2) -> (d0)>} : memref<16x16x14xi16>, vector<3xi16>
    %258 = vector.broadcast %190 : f32 to vector<6xf32>
    %259 = vector.fma %258, %258, %258 : vector<6xf32>
    memref.assume_alignment %alloc, 16 : memref<14xi16>
    %260 = index.divu %c3, %102
    %261 = math.floor %135 : tensor<256x3xf32>
    %262 = vector.insert %cst_0, %259 [4] : f32 into vector<6xf32>
    %263 = tensor.empty() : tensor<14xi16>
    %264 = vector.broadcast %216 : index to vector<14xindex>
    %265 = vector.broadcast %c32214_i16 : i16 to vector<14xi16>
    vector.scatter %alloc[%c2] [%264], %116, %265 : memref<14xi16>, vector<14xindex>, vector<14xi1>, vector<14xi16>
    %266 = affine.max affine_map<(d0, d1, d2, d3) -> (d0 ceildiv 16, -d1 + d0)>(%219, %c12, %203, %244)
    %267 = tensor.empty() : tensor<16x16x14xi32>
    %268 = linalg.copy ins(%10 : tensor<16x16x14xi32>) outs(%267 : tensor<16x16x14xi32>) -> tensor<16x16x14xi32>
    %alloc_40 = memref.alloc() : memref<14x16x16xi64>
    linalg.transpose ins(%13 : tensor<16x16x14xi64>) outs(%alloc_40 : memref<14x16x16xi64>) permutation = [2, 0, 1] 
    %alloc_41 = memref.alloc() : memref<f16>
    linalg.reduce ins(%alloc_8 : memref<14xf16>) outs(%alloc_41 : memref<f16>) dimensions = [0] 
      (%in: f16, %init: f16) {
        %271 = index.mul %c10, %121
        %272 = math.tanh %27 : f16
        %273 = vector.broadcast %true_25 : i1 to vector<3xi1>
        %274 = vector.maskedload %alloc_12[%c0, %c3, %c0], %273, %273 : memref<16x16x14xi1>, vector<3xi1>, vector<3xi1> into vector<3xi1>
        %275 = vector.flat_transpose %132 {columns = 3 : i32, rows = 1 : i32} : vector<3xi64> -> vector<3xi64>
        memref.store %cst_0, %alloc_18[%c0] : memref<14xf32>
        memref.tensor_store %5, %alloc_8 : memref<14xf16>
        %276 = arith.maxf %cst, %cst_4 : f16
        %277 = arith.addi %true_2, %false : i1
        %cst_42 = arith.constant 1.000000e+00 : f16
        linalg.yield %cst_42 : f16
      }
    %269 = scf.parallel (%arg3, %arg4) = (%c14, %175) to (%c0, %70) step (%c15, %c13) init (%splat) -> tensor<16x16x14xf16> {
      %271 = math.atan %splat : tensor<16x16x14xf16>
      %false_42 = index.bool.constant false
      %272 = arith.xori %c1676342753_i64, %c988780503_i64 : i64
      %273 = math.ctpop %3 : tensor<16x16x14xi1>
      scf.if %true_25 {
        %284 = math.cos %cst_0 : f32
        %285 = vector.shuffle %243, %243 [1, 3, 5, 6, 8, 9, 11] : vector<6x14xi1>, vector<6x14xi1>
        %286 = math.log10 %90 : tensor<256x14xf32>
        %287 = vector.insert %true_1, %116 [10] : i1 into vector<14xi1>
        %288 = math.tan %cst : f16
        %289 = vector.contract {indexing_maps = [affine_map<(d0) -> (d0)>, affine_map<(d0) -> (d0)>, affine_map<(d0) -> ()>], iterator_types = ["reduction"], kind = #vector.kind<maxf>} %115, %115, %27 : vector<14xf16>, vector<14xf16> into f16
        %290 = affine.load %alloc_8[%c6] : memref<14xf16>
        %291 = vector.insertelement %190, %258[%arg3 : index] : vector<6xf32>
      }
      %274 = vector.bitcast %259 : vector<6xf32> to vector<6xf32>
      %275 = index.sub %77, %30
      %276 = vector.splat %30 : vector<14xindex>
      %277 = vector.splat %30 : vector<14xindex>
      memref.tensor_store %1, %alloc_19 : memref<14xi32>
      %278 = arith.shrui %c30443_i16, %c32214_i16 : i16
      %279 = affine.apply affine_map<(d0, d1) -> (d0 * 32)>(%c0, %34)
      %280 = math.round %90 : tensor<256x14xf32>
      %281 = math.ctlz %12 : tensor<16x16x14xi64>
      %282 = arith.maxsi %true_1, %true : i1
      memref.store %149, %alloc_14[%c8] : memref<14xi64>
      %283 = tensor.empty() : tensor<16x16x14xf16>
      scf.reduce(%283)  : tensor<16x16x14xf16> {
      ^bb0(%arg5: tensor<16x16x14xf16>, %arg6: tensor<16x16x14xf16>):
        %from_elements = tensor.from_elements %c2052943229_i32, %c2052943229_i32, %c2052943229_i32, %c2052943229_i32, %c2052943229_i32, %c2052943229_i32, %c2052943229_i32, %c2052943229_i32, %c2052943229_i32, %c2052943229_i32, %c2052943229_i32, %c2052943229_i32, %c2052943229_i32, %c2052943229_i32 : tensor<14xi32>
        %284 = index.ceildivu %77, %143
        %285 = math.sqrt %splat : tensor<16x16x14xf16>
        %286 = vector.broadcast %cst_0 : f32 to vector<16x16xf32>
        %dest_43, %accumulated_value_44 = vector.scan <maxf>, %159, %286 {inclusive = true, reduction_dim = 2 : i64} : vector<16x16x14xf32>, vector<16x16xf32>
        %287 = math.log10 %5 : tensor<14xf16>
        %288 = vector.broadcast %190 : f32 to vector<6xf32>
        %289 = vector.fma %288, %259, %274 : vector<6xf32>
        %290 = math.fpowi %2, %10 : tensor<16x16x14xf16>, tensor<16x16x14xi32>
        %291 = arith.remsi %149, %c1212773757_i64 : i64
        %292 = tensor.empty() : tensor<16x16x14xf16>
        scf.reduce.return %292 : tensor<16x16x14xf16>
      }
      scf.yield
    }
    %270 = affine.vector_load %alloc_22[%c3] : memref<6xf16>, vector<3xf16>
    affine.vector_store %72, %alloc_7[%33] : memref<6xi64>, vector<3xi64>
    vector.print %18 : vector<3xi64>
    vector.print %29 : vector<3xi64>
    vector.print %38 : vector<i32>
    vector.print %52 : vector<1xi64>
    vector.print %57 : vector<i64>
    vector.print %72 : vector<3xi64>
    vector.print %73 : vector<1xi64>
    vector.print %80 : vector<16x16x14xf32>
    vector.print %81 : vector<16x16x14xf32>
    vector.print %84 : vector<16x14xf32>
    vector.print %86 : vector<16xf32>
    vector.print %99 : vector<14xi64>
    vector.print %100 : vector<14xf32>
    vector.print %104 : vector<16x16x14xi16>
    vector.print %110 : vector<i16>
    vector.print %112 : vector<16x16x14xf32>
    vector.print %115 : vector<14xf16>
    vector.print %116 : vector<14xi1>
    vector.print %117 : vector<14xf16>
    vector.print %132 : vector<3xi64>
    vector.print %159 : vector<16x16x14xf32>
    vector.print %160 : vector<16x16x14xf32>
    vector.print %196 : vector<16xf32>
    vector.print %209 : vector<16x16x14xf32>
    vector.print %210 : vector<16x16x14xf32>
    vector.print %217 : vector<5xi1>
    vector.print %218 : vector<16x16x14xf32>
    vector.print %224 : vector<2xf16>
    vector.print %232 : vector<14xi32>
    vector.print %233 : vector<14xi32>
    vector.print %240 : vector<14xi32>
    vector.print %243 : vector<6x14xi1>
    vector.print %251 : vector<16x16x14xf32>
    vector.print %255 : vector<6xi1>
    vector.print %258 : vector<6xf32>
    vector.print %259 : vector<6xf32>
    vector.print %270 : vector<3xf16>
    vector.print %cst : f16
    vector.print %c1676342753_i64 : i64
    vector.print %false : i1
    vector.print %true : i1
    vector.print %c24348_i16 : i16
    vector.print %c-20547_i16 : i16
    vector.print %cst_0 : f32
    vector.print %true_1 : i1
    vector.print %c2052943229_i32 : i32
    vector.print %c1212773757_i64 : i64
    vector.print %true_2 : i1
    vector.print %c32214_i16 : i16
    vector.print %c988780503_i64 : i64
    vector.print %cst_3 : f16
    vector.print %cst_4 : f16
    vector.print %c30443_i16 : i16
    vector.print %27 : f16
    vector.print %true_25 : i1
    vector.print %c0_i64 : i64
    vector.print %149 : i64
    vector.print %190 : f32
    vector.print %c1_i16 : i16
    return
  }
}
