module {
  func.func @func1(%arg0: vector<16x5xi16>, %arg1: vector<16xi16>, %arg2: vector<5x15xi64>) -> tensor<5x15xf32> {
    %cst = arith.constant 5.206400e+04 : f16
    %cst_0 = arith.constant 0x4E02E340 : f32
    %cst_1 = arith.constant 3.609600e+04 : f16
    %c1450_i16 = arith.constant 1450 : i16
    %false = arith.constant false
    %c1867817484_i64 = arith.constant 1867817484 : i64
    %cst_2 = arith.constant 5.958400e+04 : f16
    %c298733396_i64 = arith.constant 298733396 : i64
    %c844708500_i32 = arith.constant 844708500 : i32
    %cst_3 = arith.constant 2.497600e+04 : f16
    %cst_4 = arith.constant 1.28687488E+9 : f32
    %cst_5 = arith.constant 2.684800e+04 : f16
    %c262262597_i64 = arith.constant 262262597 : i64
    %c15540_i16 = arith.constant 15540 : i16
    %false_6 = arith.constant false
    %c20624_i16 = arith.constant 20624 : i16
    %0 = tensor.empty() : tensor<16x5xf16>
    %1 = tensor.empty() : tensor<8x8xi64>
    %2 = tensor.empty() : tensor<5x15xf32>
    %3 = tensor.empty() : tensor<16x5xi16>
    %4 = tensor.empty() : tensor<5x15xf32>
    %5 = tensor.empty() : tensor<8x8xf16>
    %6 = tensor.empty() : tensor<8x8xi32>
    %7 = tensor.empty() : tensor<5x15xi64>
    %8 = tensor.empty() : tensor<8x8xi64>
    %9 = tensor.empty() : tensor<5x15xf32>
    %10 = tensor.empty() : tensor<5x15xi16>
    %11 = tensor.empty() : tensor<5x15xf32>
    %12 = tensor.empty() : tensor<5x15xi64>
    %13 = tensor.empty() : tensor<8x8xf16>
    %14 = tensor.empty() : tensor<16x5xi64>
    %15 = tensor.empty() : tensor<16x5xf16>
    %c0 = arith.constant 0 : index
    %c1 = arith.constant 1 : index
    %c2 = arith.constant 2 : index
    %c3 = arith.constant 3 : index
    %c4 = arith.constant 4 : index
    %c5 = arith.constant 5 : index
    %c6 = arith.constant 6 : index
    %c7 = arith.constant 7 : index
    %c8 = arith.constant 8 : index
    %c9 = arith.constant 9 : index
    %c10 = arith.constant 10 : index
    %c11 = arith.constant 11 : index
    %c12 = arith.constant 12 : index
    %c13 = arith.constant 13 : index
    %c14 = arith.constant 14 : index
    %c15 = arith.constant 15 : index
    %alloc = memref.alloc() : memref<8x8xi64>
    %alloc_7 = memref.alloc() : memref<16x5xi1>
    %alloc_8 = memref.alloc() : memref<8x8xi1>
    %alloc_9 = memref.alloc() : memref<16xi64>
    %alloc_10 = memref.alloc() : memref<16xi32>
    %alloc_11 = memref.alloc() : memref<16xi32>
    %alloc_12 = memref.alloc() : memref<8x8xi1>
    %alloc_13 = memref.alloc() : memref<5x15xi16>
    %alloc_14 = memref.alloc() : memref<16x5xi64>
    %alloc_15 = memref.alloc() : memref<5x15xf32>
    %alloc_16 = memref.alloc() : memref<16xi32>
    %alloc_17 = memref.alloc() : memref<16x5xi1>
    %alloc_18 = memref.alloc() : memref<8x8xi16>
    %alloc_19 = memref.alloc() : memref<16x5xf16>
    %alloc_20 = memref.alloc() : memref<5x15xf32>
    %alloc_21 = memref.alloc() : memref<5x15xf32>
    %16 = tensor.empty() : tensor<5x15xf32>
    %17 = linalg.copy ins(%9 : tensor<5x15xf32>) outs(%16 : tensor<5x15xf32>) -> tensor<5x15xf32>
    %alloc_22 = memref.alloc() : memref<8x8xi64>
    linalg.transpose ins(%1 : tensor<8x8xi64>) outs(%alloc_22 : memref<8x8xi64>) permutation = [1, 0] 
    %alloc_23 = memref.alloc() : memref<8xf16>
    linalg.reduce ins(%5 : tensor<8x8xf16>) outs(%alloc_23 : memref<8xf16>) dimensions = [0] 
      (%in: f16, %init: f16) {
        %236 = vector.create_mask %c4, %c4 : vector<8x8xi1>
        %generated_52 = tensor.generate %c9 {
        ^bb0(%arg3: index, %arg4: index):
          %242 = math.log2 %15 : tensor<16x5xf16>
          %243 = arith.addi %false, %false : i1
          %244 = arith.maxf %in, %init : f16
          %245 = tensor.empty() : tensor<5x15xf16>
          tensor.yield %c298733396_i64 : i64
        } : tensor<?x5xi64>
        %237 = arith.remf %cst_2, %cst_3 : f16
        affine.store %c844708500_i32, %alloc_16[%c8] : memref<16xi32>
        %238 = memref.atomic_rmw minu %c844708500_i32, %alloc_11[%c0] : (i32, memref<16xi32>) -> i32
        %239 = math.cttz %14 : tensor<16x5xi64>
        %cst_53 = arith.constant 1.000000e+00 : f32
        %240 = vector.transfer_read %2[%c7, %c2], %cst_53 : tensor<5x15xf32>, vector<15xf32>
        %241 = math.cttz %8 : tensor<8x8xi64>
        %cst_54 = arith.constant 1.000000e+00 : f16
        linalg.yield %cst_54 : f16
      }
    %18 = scf.parallel (%arg3) = (%c5) to (%c5) step (%c10) init (%8) -> tensor<8x8xi64> {
      %236 = math.tanh %16 : tensor<5x15xf32>
      %237 = math.absf %cst_3 : f16
      %238 = arith.cmpf false, %cst_1, %cst_2 : f16
      %239 = index.divs %c7, %c15
      %240 = math.fma %16, %4, %2 : tensor<5x15xf32>
      %241 = math.atan %17 : tensor<5x15xf32>
      %242 = vector.broadcast %c844708500_i32 : i32 to vector<1xi32>
      %243 = vector.multi_reduction <maxui>, %242, %c844708500_i32 [0] : vector<1xi32> to i32
      vector.print %242 : vector<1xi32>
      %244 = arith.subi %c15540_i16, %c1450_i16 : i16
      %245 = math.sqrt %16 : tensor<5x15xf32>
      %246 = math.ctlz %c298733396_i64 : i64
      %247 = tensor.empty() : tensor<16x5xi32>
      %248 = math.fpowi %15, %247 : tensor<16x5xf16>, tensor<16x5xi32>
      %249 = arith.addi %c1867817484_i64, %c298733396_i64 : i64
      %250 = arith.minf %cst_1, %cst_1 : f16
      %251 = math.atan %cst_1 : f16
      %252 = index.sub %c7, %c7
      %253 = tensor.empty() : tensor<8x8xi64>
      scf.reduce(%253)  : tensor<8x8xi64> {
      ^bb0(%arg4: tensor<8x8xi64>, %arg5: tensor<8x8xi64>):
        %254 = arith.subi %c262262597_i64, %c1867817484_i64 : i64
        %255 = arith.maxsi %c1450_i16, %c20624_i16 : i16
        %cst_52 = arith.constant 0x4E0B1217 : f32
        %256 = index.floordivs %c13, %c6
        %257 = vector.insertelement %c844708500_i32, %242[%c6 : index] : vector<1xi32>
        %258 = vector.load %alloc_18[%c5, %c4] : memref<8x8xi16>, vector<16xi16>
        %259 = math.log10 %9 : tensor<5x15xf32>
        %260 = math.log1p %9 : tensor<5x15xf32>
        %261 = tensor.empty() : tensor<8x8xi64>
        scf.reduce.return %261 : tensor<8x8xi64>
      }
      scf.yield
    }
    %19 = affine.vector_load %alloc_11[%c12] : memref<16xi32>, vector<15xi32>
    affine.vector_store %19, %alloc_10[%c1] : memref<16xi32>, vector<15xi32>
    %alloc_24 = memref.alloc() : memref<16xi32>
    %20 = tensor.empty() : tensor<i32>
    %21 = linalg.dot ins(%alloc_10, %alloc_24 : memref<16xi32>, memref<16xi32>) outs(%20 : tensor<i32>) -> tensor<i32>
    %22 = math.roundeven %cst_1 : f16
    %23 = index.maxu %c1, %c11
    %24 = vector.splat %cst_5 : vector<8x8xf16>
    %alloca = memref.alloca() : memref<16x5xi32>
    %25 = arith.muli %c298733396_i64, %c262262597_i64 : i64
    %26 = arith.divsi %c20624_i16, %c1450_i16 : i16
    %27 = arith.maxf %cst_0, %cst_4 : f32
    %28 = math.sqrt %2 : tensor<5x15xf32>
    %29 = tensor.empty() : tensor<8x8xi32>
    %30 = linalg.matmul ins(%6, %6 : tensor<8x8xi32>, tensor<8x8xi32>) outs(%29 : tensor<8x8xi32>) -> tensor<8x8xi32>
    %31 = arith.minui %c20624_i16, %c1450_i16 : i16
    %32 = arith.mulf %cst_1, %cst_1 : f16
    %33 = math.ctpop %8 : tensor<8x8xi64>
    %34 = arith.muli %c844708500_i32, %c844708500_i32 : i32
    %35 = tensor.empty() : tensor<16xi1>
    %36 = index.maxs %c4, %c2
    %37 = math.log1p %cst_3 : f16
    %38 = arith.remf %cst_2, %cst_1 : f16
    %false_25 = arith.constant false
    %39 = arith.maxf %cst_4, %cst_0 : f32
    %40 = math.cos %5 : tensor<8x8xf16>
    %41 = arith.cmpf uno, %cst_0, %cst_0 : f32
    %42 = arith.divsi %c262262597_i64, %c262262597_i64 : i64
    %43 = affine.load %alloc_22[%c2, %c14] : memref<8x8xi64>
    %cast = tensor.cast %15 : tensor<16x5xf16> to tensor<?x?xf16>
    %44 = arith.andi %c1867817484_i64, %c298733396_i64 : i64
    %45 = math.powf %cst_1, %cst : f16
    %46 = math.atan %2 : tensor<5x15xf32>
    %47 = vector.broadcast %c6 : index to vector<16xindex>
    %48 = vector.broadcast %false : i1 to vector<16xi1>
    %49 = vector.broadcast %c844708500_i32 : i32 to vector<16xi32>
    vector.scatter %alloc_24[%c5] [%47], %48, %49 : memref<16xi32>, vector<16xindex>, vector<16xi1>, vector<16xi32>
    %50 = index.divs %c10, %36
    %generated = tensor.generate %c5 {
    ^bb0(%arg3: index, %arg4: index):
      %236 = math.log1p %cst_4 : f32
      %237 = math.roundeven %5 : tensor<8x8xf16>
      %alloc_52 = memref.alloc() : memref<16xf32>
      %238 = vector.broadcast %cst_0 : f32 to vector<16x5xf32>
      %239 = vector.broadcast %false_6 : i1 to vector<16x5xi1>
      %240 = vector.broadcast %c844708500_i32 : i32 to vector<16x5xi32>
      %241 = vector.gather %alloc_52[%36] [%240], %239, %238 : memref<16xf32>, vector<16x5xi32>, vector<16x5xi1>, vector<16x5xf32> into vector<16x5xf32>
      %242 = affine.if affine_set<(d0, d1) : (d0 * 2 - 64 >= 0, d1 * 4 == 0)>(%c10, %c15) -> memref<16x5xi64> {
        %243 = index.divs %c0, %arg4
        %244 = affine.load %alloc_11[%c10] : memref<16xi32>
        %245 = math.atan2 %cst_0, %cst_4 : f32
        %246 = index.maxu %c9, %c10
        %247 = math.atan2 %cst_3, %cst_5 : f16
        %248 = index.mul %c1, %50
        %249 = math.atan2 %9, %11 : tensor<5x15xf32>
        %alloc_53 = memref.alloc() : memref<5x15xi64>
        affine.yield %alloc_14 : memref<16x5xi64>
      } else {
        %243 = math.ipowi %c298733396_i64, %c262262597_i64 : i64
        affine.store %c262262597_i64, %alloc_9[%c2] : memref<16xi64>
        %244 = vector.transpose %19, [0] : vector<15xi32> to vector<15xi32>
        %245 = math.cttz %c15540_i16 : i16
        %246 = tensor.empty() : tensor<16xi32>
        %alloc_53 = memref.alloc() : memref<5x15xi32>
        %247 = math.ceil %0 : tensor<16x5xf16>
        %248 = math.log1p %13 : tensor<8x8xf16>
        affine.yield %alloc_14 : memref<16x5xi64>
      }
      tensor.yield %false : i1
    } : tensor<?x8xi1>
    %51 = math.atan %0 : tensor<16x5xf16>
    %52 = index.add %c10, %c9
    %53 = arith.subi %c262262597_i64, %c262262597_i64 : i64
    %54 = affine.if affine_set<(d0, d1) : (-((d0 ceildiv 8) floordiv 8 + 4) == 0)>(%c14, %c13) -> i64 {
      %236 = arith.remf %cst_0, %cst_4 : f32
      %237 = index.add %c12, %c12
      %238 = arith.minui %false_6, %false_6 : i1
      %239 = arith.remf %cst_1, %cst_2 : f16
      memref.store %c15540_i16, %alloc_18[%c1, %c5] : memref<8x8xi16>
      %240 = memref.atomic_rmw assign %c844708500_i32, %alloc_16[%c4] : (i32, memref<16xi32>) -> i32
      %alloca_52 = memref.alloca() : memref<8x8xi16>
      %241 = math.absf %4 : tensor<5x15xf32>
      affine.yield %c298733396_i64 : i64
    } else {
      %236 = index.maxu %c8, %52
      %237 = vector.splat %c15 : vector<16x5xindex>
      %expanded_52 = tensor.expand_shape %12 [[0], [1, 2]] : tensor<5x15xi64> into tensor<5x15x1xi64>
      %238 = math.cos %cst_0 : f32
      %alloc_53 = memref.alloc() : memref<16x5xf16>
      memref.copy %alloc_19, %alloc_53 : memref<16x5xf16> to memref<16x5xf16>
      %239 = math.log2 %4 : tensor<5x15xf32>
      memref.tensor_store %9, %alloc_15 : memref<5x15xf32>
      %240 = index.casts %c1450_i16 : i16 to index
      affine.yield %43 : i64
    }
    bufferization.dealloc_tensor %7 : tensor<5x15xi64>
    %cst_26 = arith.constant 1.774400e+04 : f16
    memref.store %c844708500_i32, %alloc_11[%c0] : memref<16xi32>
    %generated_27 = tensor.generate %c15, %c14 {
    ^bb0(%arg3: index, %arg4: index):
      %236 = scf.if %false_6 -> (f16) {
        %243 = arith.subi %c15540_i16, %c15540_i16 : i16
        %244 = memref.atomic_rmw minu %c1450_i16, %alloc_18[%c3, %c3] : (i16, memref<8x8xi16>) -> i16
        %245 = vector.extract %19[6] : vector<15xi32>
        %246 = arith.mulf %cst_2, %cst_3 : f16
        %247 = math.exp2 %17 : tensor<5x15xf32>
        %248 = arith.cmpf uno, %cst_3, %cst_5 : f16
        %249 = vector.splat %c1 : vector<8x8xindex>
        %alloca_53 = memref.alloca() : memref<5x15xi32>
        scf.yield %cst_1 : f16
      } else {
        %243 = math.ceil %11 : tensor<5x15xf32>
        %244 = tensor.empty(%c7, %c3) : tensor<?x?xi32>
        %245 = arith.remui %c1450_i16, %c1450_i16 : i16
        %246 = math.expm1 %cst_0 : f32
        %247 = math.round %17 : tensor<5x15xf32>
        %248 = vector.broadcast %c2 : index to vector<5xindex>
        %249 = vector.broadcast %false : i1 to vector<5xi1>
        %250 = vector.broadcast %cst_1 : f16 to vector<5xf16>
        vector.scatter %alloc_19[%c9, %c3] [%248], %249, %250 : memref<16x5xf16>, vector<5xindex>, vector<5xi1>, vector<5xf16>
        %251 = vector.multi_reduction <or>, %19, %c844708500_i32 [0] : vector<15xi32> to i32
        %252 = vector.broadcast %cst_4 : f32 to vector<8x8xf32>
        %253 = vector.broadcast %false : i1 to vector<8x8xi1>
        %254 = vector.broadcast %251 : i32 to vector<8x8xi32>
        %255 = vector.gather %alloc_21[%c13, %c8] [%254], %253, %252 : memref<5x15xf32>, vector<8x8xi32>, vector<8x8xi1>, vector<8x8xf32> into vector<8x8xf32>
        scf.yield %cst_3 : f16
      }
      %237 = tensor.empty() : tensor<16x5xf32>
      %238 = vector.broadcast %cst_4 : f32 to vector<16x5xf32>
      %239 = vector.broadcast %false_6 : i1 to vector<16x5xi1>
      %240 = vector.broadcast %c844708500_i32 : i32 to vector<16x5xi32>
      %241 = vector.gather %237[%50, %c2] [%240], %239, %238 : tensor<16x5xf32>, vector<16x5xi32>, vector<16x5xi1>, vector<16x5xf32> into vector<16x5xf32>
      %242 = arith.minui %false_6, %false_6 : i1
      %true_52 = index.bool.constant true
      tensor.yield %cst_4 : f32
    } : tensor<?x?xf32>
    memref.copy %alloc_22, %alloc : memref<8x8xi64> to memref<8x8xi64>
    scf.if %false_6 {
      %alloca_52 = memref.alloca() : memref<8x8xf16>
      %236 = math.round %cst_5 : f16
      %237 = index.castu %c6 : index to i32
      %238 = memref.realloc %alloc_9 : memref<16xi64> to memref<5xi64>
      %239 = scf.execute_region -> i64 {
        %243 = arith.subi %c844708500_i32, %c844708500_i32 : i32
        %244 = affine.load %alloc_11[%c2] : memref<16xi32>
        %cast_53 = tensor.cast %15 : tensor<16x5xf16> to tensor<?x?xf16>
        %alloca_54 = memref.alloca() : memref<16x5xi1>
        %245 = arith.remf %cst_3, %cst : f16
        %246 = arith.minf %cst_4, %cst_0 : f32
        %247 = math.cos %5 : tensor<8x8xf16>
        %248 = vector.insertelement %244, %19[%52 : index] : vector<15xi32>
        %249 = math.copysign %13, %5 : tensor<8x8xf16>
        %250 = arith.minf %cst_5, %cst : f16
        %251 = vector.broadcast %23 : index to vector<16xindex>
        %252 = vector.broadcast %false : i1 to vector<16xi1>
        %253 = vector.broadcast %c1450_i16 : i16 to vector<16xi16>
        vector.scatter %alloc_18[%c0, %c4] [%251], %252, %253 : memref<8x8xi16>, vector<16xindex>, vector<16xi1>, vector<16xi16>
        %254 = affine.load %alloc_19[%c0, %c7] : memref<16x5xf16>
        %false_55 = index.bool.constant false
        %255 = index.divs %c8, %c1
        %256 = affine.max affine_map<(d0) -> ((d0 - 31) * 2, (d0 - 31) * 2, ((d0 + 1) * 2) ceildiv 8, (d0 - 31) * 2 + ((d0 + 1) * 2) ceildiv 8)>(%c7)
        %257 = tensor.empty(%c14) : tensor<?xi1>
        scf.yield %43 : i64
      }
      %240 = affine.max affine_map<(d0, d1) -> (d1 ceildiv 4, d0 * 64, (d1 ceildiv 32) mod 2, (d1 ceildiv 4) * 128)>(%c3, %36)
      %c1_i32 = arith.constant 1 : i32
      %241 = vector.transfer_read %29[%c6, %240], %c1_i32 : tensor<8x8xi32>, vector<i32>
      %242 = arith.minui %43, %c262262597_i64 : i64
    } else {
      %236 = arith.andi %c262262597_i64, %c262262597_i64 : i64
      %237 = vector.extract_strided_slice %19 {offsets = [1], sizes = [11], strides = [1]} : vector<15xi32> to vector<11xi32>
      %238 = math.sqrt %cst : f16
      %false_52 = index.bool.constant false
      %239 = arith.maxsi %false_52, %false_52 : i1
      %240 = tensor.empty() : tensor<8x8xf16>
      %241 = linalg.matmul ins(%13, %5 : tensor<8x8xf16>, tensor<8x8xf16>) outs(%240 : tensor<8x8xf16>) -> tensor<8x8xf16>
      %from_elements_53 = tensor.from_elements %cst_4, %cst_4, %cst_4, %cst_0, %cst_4, %cst_4, %cst_0, %cst_4, %cst_4, %cst_4, %cst_4, %cst_4, %cst_4, %cst_0, %cst_4, %cst_0, %cst_0, %cst_0, %cst_4, %cst_4, %cst_0, %cst_4, %cst_0, %cst_4, %cst_4, %cst_4, %cst_4, %cst_4, %cst_4, %cst_4, %cst_4, %cst_4, %cst_0, %cst_0, %cst_0, %cst_4, %cst_0, %cst_0, %cst_4, %cst_4, %cst_4, %cst_4, %cst_4, %cst_4, %cst_0, %cst_4, %cst_4, %cst_4, %cst_0, %cst_0, %cst_4, %cst_4, %cst_0, %cst_4, %cst_0, %cst_4, %cst_0, %cst_4, %cst_4, %cst_4, %cst_4, %cst_4, %cst_4, %cst_0, %cst_0, %cst_4, %cst_0, %cst_0, %cst_0, %cst_4, %cst_4, %cst_4, %cst_4, %cst_4, %cst_0, %cst_0, %cst_4, %cst_0, %cst_0, %cst_4 : tensor<16x5xf32>
      %242 = vector.broadcast %c0 : index to vector<8xindex>
      %243 = vector.broadcast %false_52 : i1 to vector<8xi1>
      %244 = vector.broadcast %c1450_i16 : i16 to vector<8xi16>
      vector.scatter %alloc_13[%c4, %c6] [%242], %243, %244 : memref<5x15xi16>, vector<8xindex>, vector<8xi1>, vector<8xi16>
    }
    %alloc_28 = memref.alloc() : memref<15x8xf32>
    %55 = tensor.empty() : tensor<5x8xf32>
    %56 = linalg.matmul ins(%2, %alloc_28 : tensor<5x15xf32>, memref<15x8xf32>) outs(%55 : tensor<5x8xf32>) -> tensor<5x8xf32>
    %c1_i64 = arith.constant 1 : i64
    %c0_i64 = arith.constant 0 : i64
    %57 = vector.transfer_read %7[%c15, %c4], %c0_i64 : tensor<5x15xi64>, vector<i64>
    %alloca_29 = memref.alloca() : memref<16xi32>
    %cst_30 = arith.constant 2.382400e+04 : f16
    %58 = math.atan %cst : f16
    %59 = arith.andi %c1450_i16, %c15540_i16 : i16
    %60 = arith.minsi %c1450_i16, %c20624_i16 : i16
    %61 = vector.insertelement %c844708500_i32, %19[%c8 : index] : vector<15xi32>
    %62 = vector.broadcast %c6 : index to vector<16xindex>
    %63 = vector.broadcast %false_6 : i1 to vector<16xi1>
    %64 = vector.broadcast %c844708500_i32 : i32 to vector<16xi32>
    vector.scatter %alloc_24[%c8] [%62], %63, %64 : memref<16xi32>, vector<16xindex>, vector<16xi1>, vector<16xi32>
    %65 = arith.maxf %cst_5, %cst_3 : f16
    %66 = arith.remf %cst_3, %cst : f16
    %67 = index.add %c15, %c13
    %68 = vector.create_mask %52, %c11 : vector<8x8xi1>
    %69 = arith.maxsi %c20624_i16, %c1450_i16 : i16
    %70 = math.tanh %9 : tensor<5x15xf32>
    %71 = math.absf %55 : tensor<5x8xf32>
    memref.alloca_scope  {
      bufferization.dealloc_tensor %4 : tensor<5x15xf32>
      %236 = arith.remui %c262262597_i64, %43 : i64
      %237 = affine.min affine_map<(d0, d1, d2) -> (((-d0) ceildiv 128) floordiv 2, ((-d0) ceildiv 128) floordiv 2 - 128)>(%c1, %c11, %c12)
      memref.copy %alloc, %alloc_22 : memref<8x8xi64> to memref<8x8xi64>
      %238 = arith.divui %c1_i64, %43 : i64
      %239 = arith.remf %cst_4, %cst_4 : f32
      %240 = math.absi %3 : tensor<16x5xi16>
      %241 = index.maxu %c5, %c1
      %242 = math.ceil %13 : tensor<8x8xf16>
      %alloc_52 = memref.alloc() : memref<8x8xf32>
      %243 = vector.broadcast %cst_0 : f32 to vector<16xf32>
      %244 = vector.broadcast %false : i1 to vector<16xi1>
      %245 = vector.broadcast %c844708500_i32 : i32 to vector<16xi32>
      %246 = vector.gather %alloc_52[%c9, %c11] [%245], %244, %243 : memref<8x8xf32>, vector<16xi32>, vector<16xi1>, vector<16xf32> into vector<16xf32>
      %247 = math.roundeven %cst_2 : f16
      %splat_53 = tensor.splat %c1_i64 : tensor<8x8xi64>
      %248 = math.rsqrt %13 : tensor<8x8xf16>
      %249 = arith.divsi %c15540_i16, %c20624_i16 : i16
      %250 = bufferization.to_tensor %alloc_9 : memref<16xi64>
      %251 = vector.create_mask %c7 : vector<16xi1>
      %252 = vector.transpose %19, [0] : vector<15xi32> to vector<15xi32>
      %from_elements_54 = tensor.from_elements %c262262597_i64, %c262262597_i64, %43, %43, %c262262597_i64, %c1867817484_i64, %c262262597_i64, %c1_i64, %43, %c1_i64, %c298733396_i64, %c1_i64, %c298733396_i64, %c262262597_i64, %c298733396_i64, %c262262597_i64, %c262262597_i64, %c298733396_i64, %43, %43, %c298733396_i64, %c298733396_i64, %c1867817484_i64, %c1_i64, %c1_i64, %43, %c1867817484_i64, %c1_i64, %c262262597_i64, %c1867817484_i64, %c298733396_i64, %c262262597_i64, %c298733396_i64, %c1_i64, %c1867817484_i64, %c298733396_i64, %c298733396_i64, %c298733396_i64, %c1867817484_i64, %43, %c1867817484_i64, %43, %c262262597_i64, %c1867817484_i64, %c298733396_i64, %c298733396_i64, %c262262597_i64, %c262262597_i64, %c1_i64, %43, %43, %c1_i64, %c262262597_i64, %c1867817484_i64, %c1867817484_i64, %c298733396_i64, %c298733396_i64, %43, %43, %43, %c298733396_i64, %43, %c1867817484_i64, %c1867817484_i64 : tensor<8x8xi64>
      %253 = math.sqrt %9 : tensor<5x15xf32>
      %expanded_55 = tensor.expand_shape %6 [[0], [1, 2]] : tensor<8x8xi32> into tensor<8x8x1xi32>
      %254 = arith.remf %cst, %cst_3 : f16
      %255 = arith.ori %c1_i64, %c1_i64 : i64
      %splat_56 = tensor.splat %cst_3 : tensor<5x15xf16>
      %256 = tensor.empty() : tensor<8x8xf16>
      %257 = linalg.matmul ins(%5, %5 : tensor<8x8xf16>, tensor<8x8xf16>) outs(%256 : tensor<8x8xf16>) -> tensor<8x8xf16>
      %258 = math.sqrt %cst_3 : f16
      %259 = arith.remui %c20624_i16, %c1450_i16 : i16
      %260 = bufferization.clone %alloc_20 : memref<5x15xf32> to memref<5x15xf32>
      %alloca_57 = memref.alloca() : memref<16xf16>
      %261 = arith.cmpf ogt, %cst_5, %cst : f16
      %262 = math.absi %1 : tensor<8x8xi64>
      %263 = arith.mulf %cst_1, %cst_1 : f16
      %264 = math.expm1 %0 : tensor<16x5xf16>
    }
    %72 = arith.negf %cst_0 : f32
    %73 = vector.broadcast %false : i1 to vector<8x8xi1>
    %74 = memref.alloca_scope  -> (memref<8x8xi32>) {
      %236 = math.fma %55, %55, %55 : tensor<5x8xf32>
      %237 = index.sub %c4, %c5
      %238 = arith.shrsi %c15540_i16, %c1450_i16 : i16
      %239 = vector.broadcast %cst_0 : f32 to vector<16x5xf32>
      %240 = vector.fma %239, %239, %239 : vector<16x5xf32>
      %241 = math.fma %cst_2, %cst_3, %cst : f16
      %242 = vector.broadcast %43 : i64 to vector<15xi64>
      %243 = vector.broadcast %false : i1 to vector<15xi1>
      %244 = vector.maskedload %alloc_14[%c5, %c3], %243, %242 : memref<16x5xi64>, vector<15xi1>, vector<15xi64> into vector<15xi64>
      %245 = arith.cmpi sle, %c1450_i16, %c15540_i16 : i16
      %246 = vector.create_mask %c12 : vector<16xi1>
      affine.store %c1_i64, %alloc[%c13, %c2] : memref<8x8xi64>
      %247 = vector.broadcast %c844708500_i32 : i32 to vector<16x5xi32>
      %248 = vector.broadcast %false_6 : i1 to vector<16x5xi1>
      %249 = vector.gather %alloc_24[%23] [%247], %248, %247 : memref<16xi32>, vector<16x5xi32>, vector<16x5xi1>, vector<16x5xi32> into vector<16x5xi32>
      %250 = arith.minf %cst, %cst_2 : f16
      %cast_52 = tensor.cast %4 : tensor<5x15xf32> to tensor<?x?xf32>
      %251 = bufferization.clone %alloc_21 : memref<5x15xf32> to memref<5x15xf32>
      %252 = arith.maxsi %false_6, %false : i1
      %253 = arith.cmpi ne, %c20624_i16, %c20624_i16 : i16
      %254 = math.ceil %2 : tensor<5x15xf32>
      %255 = arith.minf %cst_4, %cst_4 : f32
      %256 = vector.create_mask %c2 : vector<16xi1>
      %257 = bufferization.to_memref %10 : memref<5x15xi16>
      %258 = vector.matrix_multiply %242, %244 {lhs_columns = 15 : i32, lhs_rows = 1 : i32, rhs_columns = 1 : i32} : (vector<15xi64>, vector<15xi64>) -> vector<1xi64>
      bufferization.dealloc_tensor %6 : tensor<8x8xi32>
      %259 = arith.addi %false, %false : i1
      %260 = scf.execute_region -> memref<16xi64> {
        %270 = memref.atomic_rmw mulf %cst_1, %alloc_19[%c12, %c4] : (f16, memref<16x5xf16>) -> f16
        %271 = arith.xori %false_6, %false : i1
        %expanded_54 = tensor.expand_shape %11 [[0], [1, 2]] : tensor<5x15xf32> into tensor<5x15x1xf32>
        %272 = math.floor %13 : tensor<8x8xf16>
        %273 = math.ctpop %43 : i64
        %274 = vector.insertelement %false_6, %243[%c9 : index] : vector<15xi1>
        %275 = arith.mulf %cst_1, %cst_5 : f16
        %276 = vector.broadcast %cst_3 : f16 to vector<16xf16>
        %277 = tensor.empty() : tensor<16xf16>
        %278 = vector.broadcast %cst : f16 to vector<16x5xf16>
        %279 = vector.gather %277[%237] [%247], %248, %278 : tensor<16xf16>, vector<16x5xi32>, vector<16x5xi1>, vector<16x5xf16> into vector<16x5xf16>
        bufferization.dealloc_tensor %55 : tensor<5x8xf32>
        %280 = index.ceildivu %c5, %52
        %281 = arith.remui %false_6, %false_6 : i1
        %282 = vector.broadcast %c15540_i16 : i16 to vector<16xi16>
        %283 = vector.broadcast %c844708500_i32 : i32 to vector<16xi32>
        %284 = vector.gather %257[%36, %c1] [%283], %256, %282 : memref<5x15xi16>, vector<16xi32>, vector<16xi1>, vector<16xi16> into vector<16xi16>
        %285 = affine.load %alloc_17[%c9, %c6] : memref<16x5xi1>
        %286 = math.sqrt %expanded_54 : tensor<5x15x1xf32>
        %true_55 = index.bool.constant true
        scf.yield %alloc_9 : memref<16xi64>
      }
      vector.print %68 : vector<8x8xi1>
      %261 = memref.atomic_rmw maxf %cst_1, %alloc_19[%c0, %c4] : (f16, memref<16x5xf16>) -> f16
      %262 = vector.multi_reduction <mul>, %19, %19 [] : vector<15xi32> to vector<15xi32>
      %263 = vector.broadcast %false_6 : i1 to vector<5x5xi1>
      %264 = vector.contract {indexing_maps = [affine_map<(d0, d1, d2) -> (d2, d0)>, affine_map<(d0, d1, d2) -> (d2, d1)>, affine_map<(d0, d1, d2) -> (d0, d1)>], iterator_types = ["parallel", "parallel", "reduction"], kind = #vector.kind<maxui>} %248, %248, %263 : vector<16x5xi1>, vector<16x5xi1> into vector<5x5xi1>
      %265 = vector.extract_strided_slice %239 {offsets = [13], sizes = [1], strides = [1]} : vector<16x5xf32> to vector<1x5xf32>
      %266 = math.absf %9 : tensor<5x15xf32>
      %267 = arith.minf %cst_1, %cst_2 : f16
      %268 = vector.splat %c1450_i16 : vector<16x5xi16>
      %269 = index.divs %c1, %50
      %alloc_53 = memref.alloc() : memref<8x8xi32>
      memref.alloca_scope.return %alloc_53 : memref<8x8xi32>
    }
    %75 = arith.divsi %c844708500_i32, %c844708500_i32 : i32
    %76 = arith.subi %c298733396_i64, %c298733396_i64 : i64
    %77 = affine.min affine_map<(d0, d1) -> (-d1 - (d0 - 16) * 64, d0 - d1 - 16, d1 * -2 + 128, -d1)>(%50, %67)
    %78 = arith.minf %cst, %cst_5 : f16
    %79 = math.round %4 : tensor<5x15xf32>
    %80 = math.sqrt %cst_5 : f16
    %81 = arith.negf %cst_0 : f32
    %82 = vector.transpose %68, [0, 1] : vector<8x8xi1> to vector<8x8xi1>
    %83 = vector.broadcast %cst_5 : f16 to vector<16xf16>
    %84 = vector.transfer_write %83, %5[%c14, %c8] {permutation_map = affine_map<(d0, d1) -> (d0)>} : vector<16xf16>, tensor<8x8xf16>
    %85 = math.tan %4 : tensor<5x15xf32>
    %86 = affine.load %alloc_17[%c5, %c11] : memref<16x5xi1>
    memref.copy %alloc, %alloc_22 : memref<8x8xi64> to memref<8x8xi64>
    scf.if %false_6 {
      %236 = math.expm1 %cst_2 : f16
      %237 = math.ctlz %14 : tensor<16x5xi64>
      %238 = scf.execute_region -> i1 {
        %246 = arith.divsi %43, %c298733396_i64 : i64
        %247 = math.tanh %5 : tensor<8x8xf16>
        %248 = math.ctpop %12 : tensor<5x15xi64>
        %249 = math.cttz %21 : tensor<i32>
        %250 = arith.maxsi %c15540_i16, %c20624_i16 : i16
        %251 = vector.shuffle %73, %68 [1, 3, 8, 9, 10, 11, 12, 14] : vector<8x8xi1>, vector<8x8xi1>
        %252 = arith.remf %cst_4, %cst_0 : f32
        %253 = arith.remui %c20624_i16, %c15540_i16 : i16
        %254 = arith.subi %c298733396_i64, %c1_i64 : i64
        %255 = index.ceildivs %c6, %c5
        %256 = arith.mulf %cst_1, %cst_5 : f16
        %257 = index.floordivs %c10, %c10
        %258 = math.ceil %9 : tensor<5x15xf32>
        %259 = arith.divsi %c1450_i16, %c20624_i16 : i16
        %260 = arith.xori %c1_i64, %c262262597_i64 : i64
        %splat_52 = tensor.splat %cst_5 : tensor<16xf16>
        scf.yield %false : i1
      }
      %239 = vector.insertelement %c844708500_i32, %19[%67 : index] : vector<15xi32>
      %240 = math.ceil %5 : tensor<8x8xf16>
      %241 = memref.atomic_rmw assign %c844708500_i32, %alloc_11[%c2] : (i32, memref<16xi32>) -> i32
      %242 = math.ipowi %c15540_i16, %c20624_i16 : i16
      %243 = vector.broadcast %c844708500_i32 : i32 to vector<16xi32>
      %244 = vector.broadcast %86 : i1 to vector<16xi1>
      %245 = vector.maskedload %alloc_24[%c4], %244, %243 : memref<16xi32>, vector<16xi1>, vector<16xi32> into vector<16xi32>
    } else {
      scf.if %false_6 {
        %splat_52 = tensor.splat %c298733396_i64 : tensor<5x15xi64>
        %244 = arith.cmpi sge, %c1450_i16, %c20624_i16 : i16
        %245 = vector.broadcast %false : i1 to vector<8xi1>
        %dest_53, %accumulated_value_54 = vector.scan <minsi>, %73, %245 {inclusive = true, reduction_dim = 0 : i64} : vector<8x8xi1>, vector<8xi1>
        %246 = arith.shrsi %c844708500_i32, %c844708500_i32 : i32
        %247 = math.ctlz %7 : tensor<5x15xi64>
        %248 = arith.remf %cst_3, %cst_1 : f16
        %splat_55 = tensor.splat %false_6 : tensor<16x5xi1>
        %249 = affine.load %alloc_15[%c2, %c10] : memref<5x15xf32>
      }
      %236 = arith.remsi %c844708500_i32, %c844708500_i32 : i32
      %237 = vector.broadcast %86 : i1 to vector<8xi1>
      %238 = vector.multi_reduction <or>, %73, %237 [0] : vector<8x8xi1> to vector<8xi1>
      %239 = math.ceil %4 : tensor<5x15xf32>
      %240 = arith.minui %c1_i64, %c1_i64 : i64
      %241 = math.ceil %cst_5 : f16
      %242 = math.absi %29 : tensor<8x8xi32>
      %243 = math.round %cst_1 : f16
    }
    %87 = index.add %c0, %c4
    %88 = vector.shuffle %73, %68 [0, 2, 3, 10, 11, 14] : vector<8x8xi1>, vector<8x8xi1>
    %89 = arith.subi %c1450_i16, %c20624_i16 : i16
    %90 = arith.xori %c20624_i16, %c1450_i16 : i16
    %91 = arith.muli %false_6, %false_6 : i1
    %92 = arith.mulf %cst_3, %cst_2 : f16
    %false_31 = index.bool.constant false
    memref.copy %alloc_24, %alloc_11 : memref<16xi32> to memref<16xi32>
    %collapsed = tensor.collapse_shape %14 [[0, 1]] : tensor<16x5xi64> into tensor<80xi64>
    memref.copy %alloc_12, %alloc_8 : memref<8x8xi1> to memref<8x8xi1>
    %93 = vector.shuffle %19, %19 [3, 4, 6, 7, 8, 10, 11, 12, 14, 15, 16, 18, 22, 23, 26] : vector<15xi32>, vector<15xi32>
    %94 = arith.shrui %c844708500_i32, %c844708500_i32 : i32
    %95 = arith.mulf %cst_5, %cst_5 : f16
    %96 = math.fma %9, %17, %9 : tensor<5x15xf32>
    %97 = vector.bitcast %68 : vector<8x8xi1> to vector<8x8xi1>
    %c1038503900_i64 = arith.constant 1038503900 : i64
    %98 = index.castu %50 : index to i32
    %99 = arith.muli %c298733396_i64, %c1867817484_i64 : i64
    %expanded = tensor.expand_shape %15 [[0], [1, 2]] : tensor<16x5xf16> into tensor<16x5x1xf16>
    %true = index.bool.constant true
    %100 = vector.broadcast %77 : index to vector<5xindex>
    %101 = vector.broadcast %false_31 : i1 to vector<5xi1>
    vector.scatter %alloc_7[%c7, %c0] [%100], %101, %101 : memref<16x5xi1>, vector<5xindex>, vector<5xi1>, vector<5xi1>
    %alloc_32 = memref.alloc() : memref<8xf16>
    memref.copy %alloc_23, %alloc_32 : memref<8xf16> to memref<8xf16>
    affine.store %c298733396_i64, %alloc_22[%c6, %c4] : memref<8x8xi64>
    affine.store %cst_3, %alloc_19[%c14, %c13] : memref<16x5xf16>
    %102 = arith.mulf %cst_1, %cst_3 : f16
    %103 = arith.divsi %c262262597_i64, %c262262597_i64 : i64
    %104 = vector.reduction <or>, %19 : vector<15xi32> into i32
    %105 = index.castu %c298733396_i64 : i64 to index
    %106 = arith.remsi %c298733396_i64, %c262262597_i64 : i64
    %107 = arith.floordivsi %c15540_i16, %c1450_i16 : i16
    %108 = math.ceil %13 : tensor<8x8xf16>
    %109 = arith.shli %false_31, %true : i1
    %110 = affine.max affine_map<(d0, d1, d2) -> ((d2 * 16) ceildiv 128, (d1 - d2 - (d2 - (d1 - 16) - 64) - 16) ceildiv 4, -d2, -(d1 - 16))>(%c11, %c6, %67)
    %111 = math.ctpop %29 : tensor<8x8xi32>
    %112 = index.castu %36 : index to i32
    %113 = math.cos %cst_2 : f16
    %114 = vector.broadcast %cst_0 : f32 to vector<16x5xf32>
    %115 = vector.fma %114, %114, %114 : vector<16x5xf32>
    %116 = tensor.empty() : tensor<5x15xf32>
    %117 = math.absi %3 : tensor<16x5xi16>
    %118 = vector.contract {indexing_maps = [affine_map<(d0, d1, d2) -> (d2, d0)>, affine_map<(d0, d1, d2) -> (d2, d1)>, affine_map<(d0, d1, d2) -> (d0, d1)>], iterator_types = ["parallel", "parallel", "reduction"], kind = #vector.kind<minui>} %68, %73, %97 : vector<8x8xi1>, vector<8x8xi1> into vector<8x8xi1>
    %119 = arith.ori %c298733396_i64, %43 : i64
    %120 = math.absi %c1_i64 : i64
    %121 = index.castu %c6 : index to i32
    %122 = arith.cmpi sle, %c1450_i16, %c1450_i16 : i16
    %alloc_33 = memref.alloc() : memref<5x15xi64>
    memref.tensor_store %12, %alloc_33 : memref<5x15xi64>
    memref.assume_alignment %alloc_15, 4 : memref<5x15xf32>
    %123 = math.absf %13 : tensor<8x8xf16>
    affine.store %false_6, %alloc_8[%c7, %c5] : memref<8x8xi1>
    bufferization.dealloc_tensor %14 : tensor<16x5xi64>
    %124 = math.ctlz %c844708500_i32 : i32
    %rank = tensor.rank %12 : tensor<5x15xi64>
    %125 = index.sub %c13, %c0
    %126 = math.atan %0 : tensor<16x5xf16>
    %127 = vector.splat %c3 : vector<16x5xindex>
    %128 = math.fma %13, %13, %5 : tensor<8x8xf16>
    %alloca_34 = memref.alloca() : memref<8x8xf16>
    %129 = math.exp2 %5 : tensor<8x8xf16>
    %130 = arith.andi %c15540_i16, %c15540_i16 : i16
    %131 = math.atan2 %55, %55 : tensor<5x8xf32>
    memref.store %cst_5, %alloc_19[%c4, %c4] : memref<16x5xf16>
    %132 = arith.cmpf oge, %cst_1, %cst_5 : f16
    %133 = arith.maxsi %c15540_i16, %c20624_i16 : i16
    %134 = math.ctlz %1 : tensor<8x8xi64>
    %135 = affine.max affine_map<(d0, d1, d2, d3) -> (d3 ceildiv 16, d3 + 4, d2)>(%c9, %c14, %c5, %77)
    affine.store %c844708500_i32, %alloc_11[%c1] : memref<16xi32>
    %136 = math.tanh %116 : tensor<5x15xf32>
    %inserted = tensor.insert %c20624_i16 into %10[%c0, %c8] : tensor<5x15xi16>
    %alloca_35 = memref.alloca() : memref<16xi32>
    %137 = bufferization.clone %74 : memref<8x8xi32> to memref<8x8xi32>
    %138 = arith.maxsi %c1_i64, %c298733396_i64 : i64
    %139 = vector.multi_reduction <minf>, %114, %114 [] : vector<16x5xf32> to vector<16x5xf32>
    %140 = math.rsqrt %cst_2 : f16
    %141 = vector.bitcast %19 : vector<15xi32> to vector<15xi32>
    %142 = math.cttz %collapsed : tensor<80xi64>
    %143 = math.absf %116 : tensor<5x15xf32>
    %144 = arith.mulf %cst_0, %cst_4 : f32
    %145 = tensor.empty() : tensor<5x15xf16>
    %146 = arith.minui %true, %false : i1
    %true_36 = index.bool.constant true
    %147 = scf.execute_region -> i64 {
      %236 = math.log1p %17 : tensor<5x15xf32>
      bufferization.dealloc_tensor %6 : tensor<8x8xi32>
      %237 = memref.load %alloc_22[%c2, %c6] : memref<8x8xi64>
      %238 = arith.addf %cst_5, %cst : f16
      memref.copy %137, %74 : memref<8x8xi32> to memref<8x8xi32>
      scf.index_switch %c14 
      case 1 {
        bufferization.dealloc_tensor %29 : tensor<8x8xi32>
        %253 = arith.divsi %false_31, %true_36 : i1
        %254 = math.tanh %15 : tensor<16x5xf16>
        %255 = bufferization.clone %74 : memref<8x8xi32> to memref<8x8xi32>
        %rank_52 = tensor.rank %7 : tensor<5x15xi64>
        %256 = affine.load %alloc_11[%c6] : memref<16xi32>
        %257 = math.roundeven %cst_4 : f32
        %from_elements_53 = tensor.from_elements %cst_3, %cst_2, %cst_3, %cst_2, %cst, %cst, %cst_3, %cst_5, %cst_1, %cst_1, %cst_3, %cst_5, %cst_2, %cst_2, %cst_3, %cst_3, %cst, %cst_2, %cst_1, %cst_5, %cst_5, %cst_2, %cst, %cst_1, %cst_1, %cst, %cst_3, %cst, %cst_1, %cst_2, %cst_5, %cst_2, %cst_2, %cst_3, %cst_1, %cst_1, %cst_5, %cst_2, %cst, %cst_2, %cst_1, %cst, %cst_1, %cst_2, %cst, %cst_5, %cst_3, %cst_5, %cst, %cst_2, %cst_2, %cst_5, %cst_5, %cst, %cst_3, %cst, %cst_2, %cst_2, %cst_2, %cst_5, %cst_3, %cst_2, %cst_5, %cst_5, %cst_5, %cst, %cst_2, %cst_5, %cst_1, %cst_2, %cst_2, %cst_1, %cst_5, %cst, %cst_5, %cst_2, %cst_5, %cst_5, %cst_5, %cst_3 : tensor<16x5xf16>
        %258 = vector.insertelement %256, %141[%c3 : index] : vector<15xi32>
        %259 = math.ipowi %c15540_i16, %c20624_i16 : i16
        %from_elements_54 = tensor.from_elements %cst_4, %cst_4, %cst_4, %cst_4, %cst_0, %cst_0, %cst_0, %cst_0, %cst_0, %cst_0, %cst_4, %cst_4, %cst_4, %cst_0, %cst_4, %cst_0, %cst_0, %cst_4, %cst_4, %cst_4, %cst_0, %cst_4, %cst_0, %cst_4, %cst_0, %cst_4, %cst_0, %cst_4, %cst_4, %cst_4, %cst_0, %cst_4, %cst_0, %cst_4, %cst_4, %cst_4, %cst_4, %cst_0, %cst_0, %cst_4, %cst_0, %cst_0, %cst_0, %cst_0, %cst_0, %cst_0, %cst_0, %cst_0, %cst_0, %cst_4, %cst_4, %cst_4, %cst_4, %cst_4, %cst_0, %cst_4, %cst_4, %cst_0, %cst_4, %cst_4, %cst_0, %cst_0, %cst_4, %cst_0, %cst_4, %cst_4, %cst_4, %cst_0, %cst_0, %cst_4, %cst_0, %cst_0, %cst_4, %cst_0, %cst_0, %cst_0, %cst_0, %cst_4, %cst_4, %cst_4 : tensor<16x5xf32>
        %260 = math.fma %cst_5, %cst_3, %cst : f16
        %261 = affine.load %alloc_22[%c3, %c2] : memref<8x8xi64>
        %262 = arith.divsi %c1_i64, %c262262597_i64 : i64
        %263 = vector.broadcast %cst_0 : f32 to vector<5x5xf32>
        %264 = vector.contract {indexing_maps = [affine_map<(d0, d1, d2) -> (d2, d0)>, affine_map<(d0, d1, d2) -> (d2, d1)>, affine_map<(d0, d1, d2) -> (d0, d1)>], iterator_types = ["parallel", "parallel", "reduction"], kind = #vector.kind<mul>} %115, %114, %263 : vector<16x5xf32>, vector<16x5xf32> into vector<5x5xf32>
        %265 = math.expm1 %from_elements_53 : tensor<16x5xf16>
        scf.yield
      }
      case 2 {
        %253 = math.ceil %cst_3 : f16
        %254 = math.log1p %2 : tensor<5x15xf32>
        %255 = arith.mulf %cst_2, %cst_5 : f16
        %256 = index.sub %rank, %67
        %257 = memref.atomic_rmw addf %cst_1, %alloc_23[%c2] : (f16, memref<8xf16>) -> f16
        %258 = vector.transpose %141, [0] : vector<15xi32> to vector<15xi32>
        %259 = vector.insertelement %c844708500_i32, %141[%77 : index] : vector<15xi32>
        %260 = arith.mulf %cst, %cst_5 : f16
        %261 = math.log1p %cst_1 : f16
        %262 = math.tanh %11 : tensor<5x15xf32>
        %263 = vector.multi_reduction <or>, %19, %141 [] : vector<15xi32> to vector<15xi32>
        %from_elements_52 = tensor.from_elements %false_6, %false_31, %false, %true, %true_36, %false, %true, %true_36, %86, %false, %false, %false, %86, %86, %true_36, %true, %true_36, %false, %false_6, %false_6, %true_36, %true, %false, %86, %false_31, %true, %false, %false_6, %false_6, %86, %true_36, %false, %true, %86, %true_36, %true, %true, %false_6, %false_31, %false_31, %false, %86, %false, %86, %false, %false, %true_36, %false, %true_36, %true_36, %false_31, %86, %false_6, %true, %false_6, %false_31, %86, %86, %86, %true, %false_31, %true_36, %true, %false_31 : tensor<8x8xi1>
        %from_elements_53 = tensor.from_elements %c1450_i16, %c20624_i16, %c20624_i16, %c15540_i16, %c15540_i16, %c20624_i16, %c20624_i16, %c1450_i16, %c1450_i16, %c15540_i16, %c15540_i16, %c15540_i16, %c20624_i16, %c1450_i16, %c15540_i16, %c1450_i16, %c1450_i16, %c20624_i16, %c15540_i16, %c20624_i16, %c1450_i16, %c20624_i16, %c1450_i16, %c1450_i16, %c20624_i16, %c20624_i16, %c15540_i16, %c1450_i16, %c1450_i16, %c15540_i16, %c20624_i16, %c20624_i16, %c15540_i16, %c1450_i16, %c20624_i16, %c15540_i16, %c15540_i16, %c20624_i16, %c1450_i16, %c15540_i16, %c1450_i16, %c15540_i16, %c15540_i16, %c15540_i16, %c20624_i16, %c15540_i16, %c15540_i16, %c20624_i16, %c20624_i16, %c20624_i16, %c1450_i16, %c15540_i16, %c20624_i16, %c1450_i16, %c1450_i16, %c20624_i16, %c15540_i16, %c15540_i16, %c15540_i16, %c1450_i16, %c15540_i16, %c1450_i16, %c1450_i16, %c20624_i16 : tensor<8x8xi16>
        %264 = vector.contract {indexing_maps = [affine_map<(d0) -> (d0)>, affine_map<(d0) -> (d0)>, affine_map<(d0) -> ()>], iterator_types = ["reduction"], kind = #vector.kind<maxsi>} %141, %19, %c844708500_i32 : vector<15xi32>, vector<15xi32> into i32
        affine.store %true, %alloc_12[%c0, %c6] : memref<8x8xi1>
        %265 = arith.minf %cst_4, %cst_4 : f32
        scf.yield
      }
      default {
        %cast_52 = tensor.cast %15 : tensor<16x5xf16> to tensor<?x?xf16>
        affine.store %c15540_i16, %alloc_18[%c8, %c13] : memref<8x8xi16>
        %253 = vector.create_mask %c9, %c12 : vector<16x5xi1>
        %254 = index.add %c0, %50
        %alloc_53 = memref.alloc() : memref<16x5xf16>
        memref.copy %alloc_19, %alloc_53 : memref<16x5xf16> to memref<16x5xf16>
        %255 = vector.insertelement %c844708500_i32, %141[%36 : index] : vector<15xi32>
        %alloca_54 = memref.alloca() : memref<8x8xi64>
        %256 = bufferization.clone %alloc_20 : memref<5x15xf32> to memref<5x15xf32>
        %257 = vector.broadcast %false : i1 to vector<5xi1>
        %258 = vector.maskedload %alloc_17[%c8, %c1], %257, %257 : memref<16x5xi1>, vector<5xi1>, vector<5xi1> into vector<5xi1>
        %splat_55 = tensor.splat %c20624_i16 : tensor<8x8xi16>
        %259 = bufferization.clone %137 : memref<8x8xi32> to memref<8x8xi32>
        %260 = vector.broadcast %135 : index to vector<15xindex>
        %261 = vector.broadcast %true : i1 to vector<15xi1>
        vector.scatter %alloc_16[%c9] [%260], %261, %141 : memref<16xi32>, vector<15xindex>, vector<15xi1>, vector<15xi32>
        %262 = memref.atomic_rmw minf %cst_4, %alloc_15[%c0, %c8] : (f32, memref<5x15xf32>) -> f32
        bufferization.dealloc_tensor %35 : tensor<16xi1>
        %263 = vector.create_mask %c10, %50 : vector<16x5xi1>
        %264 = arith.floordivsi %c1_i64, %c1867817484_i64 : i64
      }
      %239 = vector.broadcast %false : i1 to vector<8xi1>
      %240 = vector.multi_reduction <add>, %97, %239 [0] : vector<8x8xi1> to vector<8xi1>
      %241 = math.atan %116 : tensor<5x15xf32>
      %242 = arith.minf %cst, %cst_1 : f16
      %243 = vector.splat %c1 : vector<16xindex>
      %244 = arith.cmpf true, %cst, %cst_2 : f16
      %245 = bufferization.clone %alloc_10 : memref<16xi32> to memref<16xi32>
      %246 = arith.addi %c844708500_i32, %c844708500_i32 : i32
      %247 = vector.broadcast %cst_4 : f32 to vector<5x15xf32>
      %248 = vector.broadcast %true_36 : i1 to vector<5x15xi1>
      %249 = vector.broadcast %c844708500_i32 : i32 to vector<5x15xi32>
      %250 = vector.gather %alloc_20[%c7, %67] [%249], %248, %247 : memref<5x15xf32>, vector<5x15xi32>, vector<5x15xi1>, vector<5x15xf32> into vector<5x15xf32>
      %251 = arith.subi %true_36, %false_31 : i1
      %252 = math.ctpop %1 : tensor<8x8xi64>
      scf.yield %43 : i64
    }
    %148 = vector.broadcast %cst_0 : f32 to vector<f32>
    %149 = vector.transfer_write %148, %2[%c7, %77] : vector<f32>, tensor<5x15xf32>
    memref.copy %alloc_7, %alloc_17 : memref<16x5xi1> to memref<16x5xi1>
    %150 = vector.transpose %141, [0] : vector<15xi32> to vector<15xi32>
    %151 = math.sqrt %expanded : tensor<16x5x1xf16>
    affine.store %c844708500_i32, %74[%c3, %c1] : memref<8x8xi32>
    %alloca_37 = memref.alloca() : memref<5x15xi1>
    %152 = math.ceil %11 : tensor<5x15xf32>
    %153 = vector.splat %c1867817484_i64 : vector<16x5xi64>
    %154 = memref.realloc %alloc_16 : memref<16xi32> to memref<5xi32>
    %alloc_38 = memref.alloc() : memref<5x15xf16>
    memref.tensor_store %145, %alloc_38 : memref<5x15xf16>
    %155 = vector.broadcast %43 : i64 to vector<5x15xi64>
    %156 = math.expm1 %cst_5 : f16
    vector.print %155 : vector<5x15xi64>
    affine.store %c844708500_i32, %74[%c13, %c11] : memref<8x8xi32>
    %true_39 = index.bool.constant true
    %157 = arith.divsi %86, %true_39 : i1
    %158 = arith.addi %true_36, %false_6 : i1
    %159 = vector.extract %83[5] : vector<16xf16>
    %160 = math.ceil %expanded : tensor<16x5x1xf16>
    %161 = vector.extract_strided_slice %19 {offsets = [11], sizes = [3], strides = [1]} : vector<15xi32> to vector<3xi32>
    %162 = arith.andi %86, %true_36 : i1
    %163 = arith.mulf %cst_5, %cst : f16
    %alloca_40 = memref.alloca() : memref<8x8xi1>
    %164 = math.expm1 %0 : tensor<16x5xf16>
    memref.assume_alignment %74, 8 : memref<8x8xi32>
    %165 = math.copysign %116, %116 : tensor<5x15xf32>
    %166 = tensor.empty() : tensor<8x8xi16>
    %mapped = linalg.map ins(%alloc_18, %alloc_18, %alloc_18 : memref<8x8xi16>, memref<8x8xi16>, memref<8x8xi16>) outs(%166 : tensor<8x8xi16>)
      (%in: i16, %in_52: i16, %in_53: i16) {
        %236 = arith.andi %true_36, %true_36 : i1
        %237 = arith.xori %147, %c262262597_i64 : i64
        %238 = vector.extract_strided_slice %155 {offsets = [2], sizes = [1], strides = [1]} : vector<5x15xi64> to vector<1x15xi64>
        %alloca_54 = memref.alloca() : memref<8x8xi32>
        %239 = arith.minsi %false, %false_31 : i1
        %240 = vector.splat %67 : vector<5x15xindex>
        %241 = math.cos %9 : tensor<5x15xf32>
        %alloc_55 = memref.alloc() : memref<5x1x16xf16>
        %242 = linalg.generic {indexing_maps = [affine_map<(d0, d1, d2) -> (d1, d2, d0)>, affine_map<(d0, d1, d2) -> (d0, d1, d2)>], iterator_types = ["parallel", "parallel", "parallel"]} ins(%alloc_55 : memref<5x1x16xf16>) outs(%expanded : tensor<16x5x1xf16>) {
        ^bb0(%in_58: f16, %out: f16):
          %271 = memref.load %alloc_19[%c11, %c0] : memref<16x5xf16>
          %272 = index.castu %in_52 : i16 to index
          %273 = memref.atomic_rmw ori %c1_i64, %alloc_9[%c9] : (i64, memref<16xi64>) -> i64
          %274 = vector.broadcast %false_31 : i1 to vector<16xi1>
          %alloc_59 = memref.alloc() : memref<16x5xf16>
          memref.copy %alloc_19, %alloc_59 : memref<16x5xf16> to memref<16x5xf16>
          %275 = memref.load %alloc_19[%c2, %c2] : memref<16x5xf16>
          %276 = math.floor %2 : tensor<5x15xf32>
          %277 = arith.maxsi %c1450_i16, %in : i16
          %278 = arith.divsi %c1450_i16, %c15540_i16 : i16
          %279 = arith.remf %in_58, %cst_1 : f16
          %280 = arith.minsi %in, %in_52 : i16
          %281 = vector.broadcast %false_31 : i1 to vector<8xi1>
          %dest_60, %accumulated_value_61 = vector.scan <xor>, %73, %281 {inclusive = true, reduction_dim = 0 : i64} : vector<8x8xi1>, vector<8xi1>
          %282 = memref.realloc %alloc_23 : memref<8xf16> to memref<15xf16>
          %283 = bufferization.clone %alloc_12 : memref<8x8xi1> to memref<8x8xi1>
          %284 = memref.atomic_rmw addi %c844708500_i32, %137[%c0, %c6] : (i32, memref<8x8xi32>) -> i32
          %285 = math.ctpop %true : i1
          %286 = math.log2 %0 : tensor<16x5xf16>
          %287 = math.atan2 %cst, %cst_2 : f16
          %alloca_62 = memref.alloca() : memref<16xf32>
          %288 = arith.subi %true_36, %true : i1
          %289 = vector.transpose %148, [] : vector<f32> to vector<f32>
          %290 = vector.broadcast %in_58 : f16 to vector<8x8xf16>
          %291 = vector.broadcast %c844708500_i32 : i32 to vector<8x8xi32>
          %292 = vector.gather %alloc_19[%c6, %c12] [%291], %73, %290 : memref<16x5xf16>, vector<8x8xi32>, vector<8x8xi1>, vector<8x8xf16> into vector<8x8xf16>
          %293 = arith.minsi %c844708500_i32, %c844708500_i32 : i32
          %294 = math.tan %in_58 : f16
          %295 = vector.create_mask %87, %23 : vector<5x15xi1>
          memref.store %c844708500_i32, %alloc_24[%c12] : memref<16xi32>
          %296 = math.ipowi %35, %35 : tensor<16xi1>
          %c-31994_i16 = arith.constant -31994 : i16
          %297 = vector.broadcast %c298733396_i64 : i64 to vector<15xi64>
          %298 = vector.insert %297, %238 [0] : vector<15xi64> into vector<1x15xi64>
          %299 = arith.maxf %in_58, %cst_1 : f16
          %300 = arith.andi %true_39, %false_6 : i1
          %301 = vector.broadcast %cst_2 : f16 to vector<5xf16>
          %302 = vector.transfer_write %301, %145[%135, %c12] {permutation_map = affine_map<(d0, d1) -> (d0)>} : vector<5xf16>, tensor<5x15xf16>
          linalg.yield %cst : f16
        } -> tensor<16x5x1xf16>
        %243 = math.ctlz %20 : tensor<i32>
        %244 = arith.remui %c15540_i16, %c1450_i16 : i16
        %alloc_56 = memref.alloc() : memref<15x5xf32>
        %245 = tensor.empty() : tensor<5x5xf32>
        %246 = linalg.matmul ins(%2, %alloc_56 : tensor<5x15xf32>, memref<15x5xf32>) outs(%245 : tensor<5x5xf32>) -> tensor<5x5xf32>
        scf.index_switch %c1 
        case 1 {
          %rank_58 = tensor.rank %55 : tensor<5x8xf32>
          %c1_i32 = arith.constant 1 : i32
          %c0_i32 = arith.constant 0 : i32
          %271 = vector.transfer_read %6[%c11, %50], %c0_i32 {permutation_map = affine_map<(d0, d1) -> (d0)>} : tensor<8x8xi32>, vector<5xi32>
          %272 = math.ceil %cst_3 : f16
          %273 = math.log1p %4 : tensor<5x15xf32>
          %274 = tensor.empty() : tensor<16xi1>
          %275 = arith.shrui %c15540_i16, %in : i16
          %276 = arith.remf %cst_3, %cst_1 : f16
          %277 = vector.extract_strided_slice %161 {offsets = [1], sizes = [2], strides = [1]} : vector<3xi32> to vector<2xi32>
          memref.assume_alignment %alloc_14, 4 : memref<16x5xi64>
          %278 = arith.cmpi sle, %false_31, %86 : i1
          %279 = tensor.empty() : tensor<16x5xf16>
          %280 = index.divs %50, %52
          %281 = vector.broadcast %cst_4 : f32 to vector<5x5xf32>
          %282 = vector.contract {indexing_maps = [affine_map<(d0, d1, d2) -> (d2, d0)>, affine_map<(d0, d1, d2) -> (d2, d1)>, affine_map<(d0, d1, d2) -> (d0, d1)>], iterator_types = ["parallel", "parallel", "reduction"], kind = #vector.kind<maxf>} %115, %114, %281 : vector<16x5xf32>, vector<16x5xf32> into vector<5x5xf32>
          %283 = math.tan %15 : tensor<16x5xf16>
          %284 = arith.minui %c262262597_i64, %c298733396_i64 : i64
          %285 = arith.minsi %true_36, %true : i1
          scf.yield
        }
        case 2 {
          %271 = math.log10 %5 : tensor<8x8xf16>
          %272 = tensor.empty() : tensor<16x5xf32>
          %273 = vector.broadcast %cst_0 : f32 to vector<5x15xf32>
          %274 = vector.broadcast %false_6 : i1 to vector<5x15xi1>
          %275 = vector.broadcast %c844708500_i32 : i32 to vector<5x15xi32>
          %276 = vector.gather %272[%135, %c4] [%275], %274, %273 : tensor<16x5xf32>, vector<5x15xi32>, vector<5x15xi1>, vector<5x15xf32> into vector<5x15xf32>
          %277 = math.ceil %245 : tensor<5x5xf32>
          %278 = index.add %rank, %c6
          %279 = arith.minui %true_39, %false : i1
          %280 = math.ctlz %collapsed : tensor<80xi64>
          %281 = vector.broadcast %cst_4 : f32 to vector<16x5xf32>
          %282 = vector.fma %281, %281, %281 : vector<16x5xf32>
          %283 = index.castu %c1_i64 : i64 to index
          %284 = bufferization.to_memref %14 : memref<16x5xi64>
          bufferization.dealloc_tensor %10 : tensor<5x15xi16>
          %285 = vector.broadcast %cst_0 : f32 to vector<16x5xf32>
          %286 = vector.fma %285, %114, %115 : vector<16x5xf32>
          %287 = math.cttz %c844708500_i32 : i32
          %rank_58 = tensor.rank %cast : tensor<?x?xf16>
          %from_elements_59 = tensor.from_elements %cst_0, %cst_0, %cst_4, %cst_0, %cst_4, %cst_4, %cst_4, %cst_4, %cst_4, %cst_0, %cst_4, %cst_4, %cst_0, %cst_4, %cst_4, %cst_0 : tensor<16xf32>
          %288 = math.expm1 %2 : tensor<5x15xf32>
          %289 = vector.broadcast %in : i16 to vector<5x15xi16>
          %290 = vector.gather %166[%c14, %c12] [%275], %274, %289 : tensor<8x8xi16>, vector<5x15xi32>, vector<5x15xi1>, vector<5x15xi16> into vector<5x15xi16>
          scf.yield
        }
        default {
          %271 = affine.max affine_map<(d0) -> ((d0 * 3) mod 4 + d0, (d0 * 3) mod 4 + d0, (d0 * 6) mod 8 + 16, d0 * 6)>(%c12)
          %272 = bufferization.clone %alloc_14 : memref<16x5xi64> to memref<16x5xi64>
          %273 = affine.load %alloc_9[%c15] : memref<16xi64>
          %274 = index.castu %c1_i64 : i64 to index
          %275 = vector.insertelement %c844708500_i32, %161[%36 : index] : vector<3xi32>
          %alloca_58 = memref.alloca() : memref<8x8xf16>
          %276 = arith.minf %cst, %cst : f16
          %277 = bufferization.clone %alloc_18 : memref<8x8xi16> to memref<8x8xi16>
          %c1_i32 = arith.constant 1 : i32
          %c0_i32 = arith.constant 0 : i32
          %278 = vector.transfer_read %alloc_24[%c0], %c0_i32 : memref<16xi32>, vector<i32>
          %rank_59 = tensor.rank %9 : tensor<5x15xf32>
          %279 = vector.insertelement %cst_0, %148[] : vector<f32>
          %280 = vector.multi_reduction <mul>, %115, %115 [] : vector<16x5xf32> to vector<16x5xf32>
          %281 = vector.contract {indexing_maps = [affine_map<(d0, d1, d2) -> (d2, d0)>, affine_map<(d0, d1, d2) -> (d2, d1)>, affine_map<(d0, d1, d2) -> (d0, d1)>], iterator_types = ["parallel", "parallel", "reduction"], kind = #vector.kind<and>} %68, %68, %68 : vector<8x8xi1>, vector<8x8xi1> into vector<8x8xi1>
          %282 = index.divs %52, %rank_59
          %283 = arith.remf %cst, %cst_3 : f16
          %284 = index.divs %c7, %125
        }
        %247 = bufferization.to_memref %20 : memref<i32>
        %248 = memref.atomic_rmw maxu %c844708500_i32, %alloc_16[%c13] : (i32, memref<16xi32>) -> i32
        %249 = math.ceil %0 : tensor<16x5xf16>
        %cast_57 = tensor.cast %15 : tensor<16x5xf16> to tensor<?x?xf16>
        %250 = bufferization.clone %137 : memref<8x8xi32> to memref<8x8xi32>
        %251 = math.log1p %11 : tensor<5x15xf32>
        %252 = arith.remui %in_53, %in : i16
        %253 = vector.broadcast %c844708500_i32 : i32 to vector<3x3xi32>
        %254 = vector.outerproduct %161, %161, %253 {kind = #vector.kind<or>} : vector<3xi32>, vector<3xi32>
        %255 = affine.max affine_map<(d0) -> (d0 - 2, d0 floordiv 16)>(%c3)
        %256 = index.ceildivs %c7, %c6
        %257 = vector.broadcast %cst_0 : f32 to vector<16x5xf32>
        %258 = vector.fma %257, %257, %114 : vector<16x5xf32>
        %259 = math.log10 %cst_2 : f16
        scf.execute_region {
          %271 = index.maxu %125, %87
          %272 = math.round %cst_2 : f16
          %273 = arith.xori %c15540_i16, %in_52 : i16
          %274 = math.powf %13, %5 : tensor<8x8xf16>
          %275 = vector.multi_reduction <maxf>, %83, %cst_5 [0] : vector<16xf16> to f16
          %276 = math.ctlz %c844708500_i32 : i32
          bufferization.dealloc_tensor %0 : tensor<16x5xf16>
          %277 = vector.broadcast %cst_4 : f32 to vector<8xf32>
          vector.transfer_write %277, %alloc_15[%c11, %c8] {permutation_map = affine_map<(d0, d1) -> (d0)>} : vector<8xf32>, memref<5x15xf32>
          %278 = vector.splat %cst_5 : vector<5x15xf16>
          %279 = tensor.empty() : tensor<16x15xf16>
          %280 = linalg.matmul ins(%0, %145 : tensor<16x5xf16>, tensor<5x15xf16>) outs(%279 : tensor<16x15xf16>) -> tensor<16x15xf16>
          %from_elements_58 = tensor.from_elements %false, %false, %false_6, %false_6, %false_6, %false_31, %false_6, %true_39, %true_39, %false_6, %86, %true_36, %false, %true, %true_36, %false_31, %false, %false, %true_36, %86, %86, %true, %false_31, %false_31, %false, %false_6, %true_39, %false_6, %true, %true_39, %true_36, %false, %false_31, %false_31, %false_6, %true_36, %true_39, %86, %false_31, %true_39, %false, %true, %false, %true_36, %false_31, %true_36, %true_39, %false_6, %true_39, %false_6, %true_36, %false_31, %true_39, %false_31, %true_36, %true_39, %86, %true_39, %86, %true, %false, %false, %86, %false_6, %86, %86, %true_36, %false, %86, %true, %true, %false_31, %true_36, %false_31, %true_36, %true_36, %true, %true, %86, %true_36 : tensor<16x5xi1>
          %281 = arith.minsi %147, %c262262597_i64 : i64
          %282 = index.maxu %50, %c8
          %alloc_59 = memref.alloc() : memref<15x15xi64>
          %283 = tensor.empty() : tensor<5x15xi64>
          %284 = linalg.matmul ins(%7, %alloc_59 : tensor<5x15xi64>, memref<15x15xi64>) outs(%283 : tensor<5x15xi64>) -> tensor<5x15xi64>
          %285 = bufferization.clone %250 : memref<8x8xi32> to memref<8x8xi32>
          %286 = index.add %77, %c2
          scf.yield
        }
        %260 = memref.load %alloc_17[%c3, %c0] : memref<16x5xi1>
        %261 = arith.remf %cst_1, %cst_5 : f16
        %262 = arith.remsi %false_6, %true_36 : i1
        %263 = tensor.empty() : tensor<16x5xi32>
        %264 = vector.broadcast %c844708500_i32 : i32 to vector<16x5xi32>
        %265 = vector.broadcast %true_39 : i1 to vector<16x5xi1>
        %266 = vector.gather %263[%c9, %50] [%264], %265, %264 : tensor<16x5xi32>, vector<16x5xi32>, vector<16x5xi1>, vector<16x5xi32> into vector<16x5xi32>
        %267 = tensor.empty() : tensor<15x16xf32>
        %268 = tensor.empty() : tensor<5x16xf32>
        %269 = linalg.matmul ins(%4, %267 : tensor<5x15xf32>, tensor<15x16xf32>) outs(%268 : tensor<5x16xf32>) -> tensor<5x16xf32>
        %270 = vector.splat %c13 : vector<16xindex>
        vector.print %83 : vector<16xf16>
        %c1_i16 = arith.constant 1 : i16
        linalg.yield %c1_i16 : i16
      }
    %167 = vector.extract %155[4] : vector<5x15xi64>
    %168 = math.absi %29 : tensor<8x8xi32>
    %169 = arith.remui %c20624_i16, %c1450_i16 : i16
    %170 = index.divu %36, %c5
    %171 = math.atan2 %4, %2 : tensor<5x15xf32>
    %172 = bufferization.to_tensor %alloc_15 : memref<5x15xf32>
    %173 = affine.max affine_map<(d0, d1) -> (d0)>(%c7, %125)
    vector.print %141 : vector<15xi32>
    %174 = vector.extract %155[1] : vector<5x15xi64>
    %175 = arith.ori %c262262597_i64, %43 : i64
    %176 = arith.cmpf oeq, %cst, %cst_5 : f16
    %177 = math.ipowi %true_39, %true : i1
    %178 = arith.remsi %true_36, %true_36 : i1
    %179 = index.castu %c10 : index to i32
    %180 = vector.bitcast %115 : vector<16x5xf32> to vector<16x5xf32>
    %181 = arith.minsi %c844708500_i32, %c844708500_i32 : i32
    vector.print %68 : vector<8x8xi1>
    memref.assume_alignment %alloc_12, 4 : memref<8x8xi1>
    %182 = arith.floordivsi %c298733396_i64, %c1867817484_i64 : i64
    scf.if %false {
      %236 = arith.andi %c1450_i16, %c15540_i16 : i16
      %237 = vector.broadcast %147 : i64 to vector<8xi64>
      %238 = vector.transfer_write %237, %14[%c4, %67] {permutation_map = affine_map<(d0, d1) -> (d0)>} : vector<8xi64>, tensor<16x5xi64>
      %expanded_52 = tensor.expand_shape %6 [[0], [1, 2]] : tensor<8x8xi32> into tensor<8x8x1xi32>
      %239 = index.sub %135, %170
      %240 = arith.remf %cst_3, %cst_3 : f16
      %241 = math.log1p %15 : tensor<16x5xf16>
      %242 = arith.maxui %43, %c262262597_i64 : i64
      %243 = vector.broadcast %c6 : index to vector<16xindex>
      %244 = vector.broadcast %true : i1 to vector<16xi1>
      %245 = vector.broadcast %cst_4 : f32 to vector<16xf32>
      vector.scatter %alloc_21[%c3, %c4] [%243], %244, %245 : memref<5x15xf32>, vector<16xindex>, vector<16xi1>, vector<16xf32>
    } else {
      %236 = vector.broadcast %c20624_i16 : i16 to vector<16xi16>
      %237 = math.cos %2 : tensor<5x15xf32>
      %cst_52 = arith.constant 4.054400e+04 : f16
      %238 = arith.addf %cst_2, %cst_5 : f16
      vector.print %73 : vector<8x8xi1>
      %rank_53 = tensor.rank %expanded : tensor<16x5x1xf16>
      %239 = affine.load %alloc_19[%c10, %c2] : memref<16x5xf16>
      %rank_54 = tensor.rank %55 : tensor<5x8xf32>
    }
    %183 = arith.xori %false_31, %false : i1
    %184 = arith.remf %cst, %cst_5 : f16
    %185 = vector.broadcast %true_36 : i1 to vector<8xi1>
    %dest, %accumulated_value = vector.scan <minsi>, %97, %185 {inclusive = true, reduction_dim = 0 : i64} : vector<8x8xi1>, vector<8xi1>
    scf.execute_region {
      %236 = arith.minui %c1450_i16, %c20624_i16 : i16
      %237 = affine.if affine_set<(d0, d1, d2) : ((d0 - d1) * 8 == 0, d2 mod 2 == 0, d0 == 0)>(%c14, %c5, %c1) -> i64 {
        %250 = arith.maxf %cst_5, %cst_3 : f16
        %251 = vector.reduction <and>, %167 : vector<15xi64> into i64
        bufferization.dealloc_tensor %10 : tensor<5x15xi16>
        vector.print %155 : vector<5x15xi64>
        %true_55 = index.bool.constant true
        %252 = arith.maxui %c20624_i16, %c1450_i16 : i16
        %rank_56 = tensor.rank %expanded : tensor<16x5x1xf16>
        %253 = arith.remsi %true_39, %true : i1
        affine.yield %c262262597_i64 : i64
      } else {
        %alloc_55 = memref.alloc() : memref<5x15xi1>
        %250 = vector.contract {indexing_maps = [affine_map<(d0, d1, d2) -> (d2, d0)>, affine_map<(d0, d1, d2) -> (d2, d1)>, affine_map<(d0, d1, d2) -> (d0, d1)>], iterator_types = ["parallel", "parallel", "reduction"], kind = #vector.kind<mul>} %68, %73, %68 : vector<8x8xi1>, vector<8x8xi1> into vector<8x8xi1>
        %251 = math.tanh %15 : tensor<16x5xf16>
        %252 = arith.maxsi %true, %false_6 : i1
        %253 = vector.insertelement %c262262597_i64, %174[%77 : index] : vector<15xi64>
        %254 = arith.addf %cst_4, %cst_4 : f32
        %255 = vector.bitcast %73 : vector<8x8xi1> to vector<8x8xi1>
        %alloca_56 = memref.alloca() : memref<16xi1>
        affine.yield %c262262597_i64 : i64
      }
      %238 = math.round %cst_3 : f16
      %239 = math.cos %0 : tensor<16x5xf16>
      affine.store %cst_0, %alloc_20[%c11, %c11] : memref<5x15xf32>
      %240 = index.add %52, %c0
      %241 = tensor.empty() : tensor<15x8xf32>
      %242 = tensor.empty() : tensor<5x8xf32>
      %243 = linalg.matmul ins(%11, %241 : tensor<5x15xf32>, tensor<15x8xf32>) outs(%242 : tensor<5x8xf32>) -> tensor<5x8xf32>
      %alloca_52 = memref.alloca() : memref<16xf16>
      %rank_53 = tensor.rank %collapsed : tensor<80xi64>
      %244 = vector.broadcast %c20624_i16 : i16 to vector<16xi16>
      %245 = arith.remui %147, %c298733396_i64 : i64
      %246 = index.casts %c1 : index to i32
      %alloca_54 = memref.alloca() : memref<5x15xi64>
      %247 = arith.addf %cst_1, %cst : f16
      %248 = vector.broadcast %cst_0 : f32 to vector<16x5xf32>
      %249 = tensor.empty() : tensor<16xi64>
      scf.yield
    }
    %186 = math.atan %cst_3 : f16
    %187 = bufferization.clone %alloc_12 : memref<8x8xi1> to memref<8x8xi1>
    %188 = bufferization.clone %alloc_12 : memref<8x8xi1> to memref<8x8xi1>
    %189 = math.cttz %true_36 : i1
    %190 = tensor.empty() : tensor<16xf16>
    %191 = vector.bitcast %115 : vector<16x5xf32> to vector<16x5xi32>
    %false_41 = index.bool.constant false
    %192 = arith.remf %cst, %cst : f16
    %193 = arith.minf %cst_3, %cst_2 : f16
    %194 = index.castu %c262262597_i64 : i64 to index
    %c119507222_i32 = arith.constant 119507222 : i32
    %195 = math.absi %false : i1
    %from_elements = tensor.from_elements %cst_4, %cst_0, %cst_0, %cst_0, %cst_0, %cst_0, %cst_4, %cst_0, %cst_4, %cst_0, %cst_4, %cst_0, %cst_0, %cst_0, %cst_4, %cst_4, %cst_0, %cst_0, %cst_0, %cst_4, %cst_4, %cst_4, %cst_4, %cst_0, %cst_0, %cst_0, %cst_4, %cst_4, %cst_4, %cst_4, %cst_0, %cst_4, %cst_0, %cst_0, %cst_0, %cst_0, %cst_0, %cst_4, %cst_4, %cst_0, %cst_4, %cst_4, %cst_0, %cst_0, %cst_4, %cst_4, %cst_0, %cst_4, %cst_4, %cst_0, %cst_0, %cst_4, %cst_4, %cst_4, %cst_4, %cst_0, %cst_4, %cst_0, %cst_4, %cst_0, %cst_0, %cst_4, %cst_0, %cst_0, %cst_4, %cst_4, %cst_0, %cst_4, %cst_4, %cst_0, %cst_0, %cst_4, %cst_4, %cst_0, %cst_0 : tensor<5x15xf32>
    %196 = math.exp %15 : tensor<16x5xf16>
    %197 = math.ceil %2 : tensor<5x15xf32>
    %198 = arith.shli %c1867817484_i64, %c262262597_i64 : i64
    %true_42 = index.bool.constant true
    %199 = arith.ceildivsi %86, %true_36 : i1
    %200 = tensor.empty() : tensor<15x8xi64>
    %201 = tensor.empty() : tensor<5x8xi64>
    %202 = linalg.matmul ins(%7, %200 : tensor<5x15xi64>, tensor<15x8xi64>) outs(%201 : tensor<5x8xi64>) -> tensor<5x8xi64>
    %203 = math.tanh %16 : tensor<5x15xf32>
    memref.store %true_36, %188[%c2, %c4] : memref<8x8xi1>
    %204 = vector.broadcast %c10 : index to vector<8xindex>
    %205 = vector.broadcast %true_36 : i1 to vector<8xi1>
    %206 = vector.broadcast %c844708500_i32 : i32 to vector<8xi32>
    vector.scatter %alloc_11[%c11] [%204], %205, %206 : memref<16xi32>, vector<8xindex>, vector<8xi1>, vector<8xi32>
    %207 = math.round %9 : tensor<5x15xf32>
    memref.alloca_scope  {
      %236 = arith.minsi %43, %c262262597_i64 : i64
      %237 = arith.divui %c15540_i16, %c1450_i16 : i16
      %238 = tensor.empty() : tensor<8x8xf16>
      %mapped_52 = linalg.map ins(%5 : tensor<8x8xf16>) outs(%238 : tensor<8x8xf16>)
        (%in: f16) {
          %259 = index.ceildivs %50, %c13
          vector.print %161 : vector<3xi32>
          %alloc_59 = memref.alloc() : memref<8x8xf16>
          %260 = vector.broadcast %c844708500_i32 : i32 to vector<16xi32>
          %dest_60, %accumulated_value_61 = vector.scan <or>, %191, %260 {inclusive = false, reduction_dim = 1 : i64} : vector<16x5xi32>, vector<16xi32>
          %261 = arith.remf %cst_3, %cst_1 : f16
          %262 = arith.maxui %true_42, %true_42 : i1
          %263 = math.expm1 %5 : tensor<8x8xf16>
          %264 = math.ceil %4 : tensor<5x15xf32>
          %265 = tensor.empty() : tensor<16x15xf16>
          %266 = linalg.matmul ins(%0, %145 : tensor<16x5xf16>, tensor<5x15xf16>) outs(%265 : tensor<16x15xf16>) -> tensor<16x15xf16>
          %false_62 = index.bool.constant false
          %267 = vector.load %alloc_22[%c0, %c5] : memref<8x8xi64>, vector<16xi64>
          %alloc_63 = memref.alloc() : memref<16xi64>
          memref.copy %alloc_9, %alloc_63 : memref<16xi64> to memref<16xi64>
          %268 = vector.broadcast %false_41 : i1 to vector<16x5xi1>
          memref.copy %alloc_10, %alloc_11 : memref<16xi32> to memref<16xi32>
          %269 = vector.broadcast %false_41 : i1 to vector<8xi1>
          %dest_64, %accumulated_value_65 = vector.scan <xor>, %73, %269 {inclusive = false, reduction_dim = 0 : i64} : vector<8x8xi1>, vector<8xi1>
          %270 = math.atan %17 : tensor<5x15xf32>
          %271 = math.absi %8 : tensor<8x8xi64>
          %272 = arith.cmpi ule, %true, %false_41 : i1
          %273 = arith.divui %c15540_i16, %c15540_i16 : i16
          %274 = memref.realloc %alloc_23 : memref<8xf16> to memref<5xf16>
          %275 = arith.remsi %false_41, %false_6 : i1
          %276 = vector.broadcast %c1_i64 : i64 to vector<i64>
          %277 = vector.transfer_write %276, %8[%c1, %c12] : vector<i64>, tensor<8x8xi64>
          %278 = math.tanh %0 : tensor<16x5xf16>
          %279 = arith.remf %cst_3, %cst_2 : f16
          vector.print %141 : vector<15xi32>
          %alloc_66 = memref.alloc() : memref<16xi16>
          %280 = vector.broadcast %c15540_i16 : i16 to vector<16xi16>
          %281 = vector.broadcast %true_36 : i1 to vector<16xi1>
          %282 = vector.broadcast %c844708500_i32 : i32 to vector<16xi32>
          %283 = vector.gather %alloc_66[%c14] [%282], %281, %280 : memref<16xi16>, vector<16xi32>, vector<16xi1>, vector<16xi16> into vector<16xi16>
          %true_67 = index.bool.constant true
          %284 = arith.muli %true, %false_41 : i1
          %285 = bufferization.to_tensor %alloc_18 : memref<8x8xi16>
          %286 = arith.minui %true_36, %false_62 : i1
          %287 = vector.broadcast %c4 : index to vector<15xindex>
          %288 = vector.broadcast %false_31 : i1 to vector<15xi1>
          vector.scatter %alloc_22[%c2, %c4] [%287], %288, %167 : memref<8x8xi64>, vector<15xindex>, vector<15xi1>, vector<15xi64>
          %289 = vector.insertelement %c844708500_i32, %161[%c13 : index] : vector<3xi32>
          %cst_68 = arith.constant 1.000000e+00 : f16
          linalg.yield %cst_68 : f16
        }
      %239 = arith.minf %cst, %cst_3 : f16
      %240 = arith.cmpi sle, %false_31, %true_42 : i1
      bufferization.dealloc_tensor %5 : tensor<8x8xf16>
      %241 = arith.maxsi %c15540_i16, %c1450_i16 : i16
      %242 = tensor.empty() : tensor<8x8xi1>
      %mapped_53 = linalg.map ins(%alloc_12, %alloc_12 : memref<8x8xi1>, memref<8x8xi1>) outs(%242 : tensor<8x8xi1>)
        (%in: i1, %in_59: i1) {
          %259 = arith.negf %cst_4 : f32
          %260 = math.log1p %cst_3 : f16
          %alloc_60 = memref.alloc() : memref<5x15xi16>
          memref.copy %alloc_13, %alloc_60 : memref<5x15xi16> to memref<5x15xi16>
          %261 = math.rsqrt %15 : tensor<16x5xf16>
          %262 = math.log1p %cst_1 : f16
          %263 = arith.ori %c1450_i16, %c15540_i16 : i16
          %rank_61 = tensor.rank %166 : tensor<8x8xi16>
          %extracted = tensor.extract %11[%c0, %c2] : tensor<5x15xf32>
          %264 = math.tanh %9 : tensor<5x15xf32>
          %265 = arith.andi %true_42, %true : i1
          %266 = arith.cmpi sgt, %true_42, %true : i1
          %267 = vector.extract %191[15] : vector<16x5xi32>
          %268 = affine.apply affine_map<(d0, d1, d2, d3) -> (d0)>(%rank_61, %194, %67, %c2)
          %269 = vector.splat %true_36 : vector<8x8xi1>
          affine.store %cst_1, %alloc_19[%c7, %c9] : memref<16x5xf16>
          %270 = arith.divsi %c844708500_i32, %c844708500_i32 : i32
          %271 = index.mul %c9, %87
          %272 = arith.minf %cst, %cst_3 : f16
          %273 = math.absi %10 : tensor<5x15xi16>
          %274 = index.sub %c14, %271
          %275 = math.ctlz %86 : i1
          %alloc_62 = memref.alloc() : memref<5x15xi1>
          %276 = vector.broadcast %in_59 : i1 to vector<5x15xi1>
          %277 = vector.broadcast %c844708500_i32 : i32 to vector<5x15xi32>
          %278 = vector.gather %alloc_62[%125, %173] [%277], %276, %276 : memref<5x15xi1>, vector<5x15xi32>, vector<5x15xi1>, vector<5x15xi1> into vector<5x15xi1>
          %279 = math.roundeven %11 : tensor<5x15xf32>
          %280 = index.divs %c1, %c0
          %281 = arith.maxui %false_31, %true_39 : i1
          %c7155_i16 = arith.constant 7155 : i16
          %282 = arith.remsi %86, %86 : i1
          %283 = math.exp2 %4 : tensor<5x15xf32>
          %284 = arith.ori %false_6, %in_59 : i1
          %285 = vector.broadcast %c15540_i16 : i16 to vector<i16>
          %286 = vector.transfer_write %285, %166[%125, %c7] : vector<i16>, tensor<8x8xi16>
          %287 = arith.maxui %false, %true_39 : i1
          vector.print %83 : vector<16xf16>
          %true_63 = arith.constant true
          linalg.yield %true_63 : i1
        }
      %243 = math.copysign %2, %11 : tensor<5x15xf32>
      %collapsed_54 = tensor.collapse_shape %13 [[0, 1]] : tensor<8x8xf16> into tensor<64xf16>
      %244 = scf.execute_region -> vector<5x15xf32> {
        %259 = arith.remui %true_36, %false : i1
        %c175138922_i32 = arith.constant 175138922 : i32
        %260 = affine.load %alloc_14[%c3, %c11] : memref<16x5xi64>
        %261 = math.round %9 : tensor<5x15xf32>
        %262 = index.divs %194, %105
        %expanded_59 = tensor.expand_shape %5 [[0], [1, 2]] : tensor<8x8xf16> into tensor<8x8x1xf16>
        %263 = arith.maxui %c15540_i16, %c15540_i16 : i16
        %264 = arith.divsi %86, %true_42 : i1
        %265 = arith.minui %c844708500_i32, %c844708500_i32 : i32
        %266 = index.divs %c7, %194
        %267 = arith.ori %c1867817484_i64, %c1_i64 : i64
        %268 = math.atan %11 : tensor<5x15xf32>
        %269 = vector.matrix_multiply %167, %167 {lhs_columns = 15 : i32, lhs_rows = 1 : i32, rhs_columns = 1 : i32} : (vector<15xi64>, vector<15xi64>) -> vector<1xi64>
        vector.print %161 : vector<3xi32>
        %collapsed_60 = tensor.collapse_shape %1 [[0, 1]] : tensor<8x8xi64> into tensor<64xi64>
        %270 = math.cos %145 : tensor<5x15xf16>
        %271 = vector.broadcast %cst_4 : f32 to vector<5x15xf32>
        scf.yield %271 : vector<5x15xf32>
      }
      %expanded_55 = tensor.expand_shape %8 [[0], [1, 2]] : tensor<8x8xi64> into tensor<8x8x1xi64>
      %245 = affine.max affine_map<(d0) -> (d0 ceildiv 2, d0 * 128, 0)>(%c10)
      scf.if %true {
        %259 = vector.broadcast %cst_4 : f32 to vector<5x5xf32>
        %260 = vector.contract {indexing_maps = [affine_map<(d0, d1, d2) -> (d2, d0)>, affine_map<(d0, d1, d2) -> (d2, d1)>, affine_map<(d0, d1, d2) -> (d0, d1)>], iterator_types = ["parallel", "parallel", "reduction"], kind = #vector.kind<minf>} %115, %114, %259 : vector<16x5xf32>, vector<16x5xf32> into vector<5x5xf32>
        vector.print %180 : vector<16x5xf32>
        %c1_i64_59 = arith.constant 1 : i64
        %c0_i64_60 = arith.constant 0 : i64
        %261 = vector.transfer_read %alloc_14[%c10, %c8], %c0_i64_60 {permutation_map = affine_map<(d0, d1) -> (d0)>} : memref<16x5xi64>, vector<5xi64>
        %rank_61 = tensor.rank %35 : tensor<16xi1>
        %262 = math.log1p %15 : tensor<16x5xf16>
        %263 = math.ceil %5 : tensor<8x8xf16>
        %264 = arith.shli %true, %false : i1
        %265 = arith.maxsi %c298733396_i64, %c1867817484_i64 : i64
      }
      %246 = bufferization.clone %188 : memref<8x8xi1> to memref<8x8xi1>
      %247 = bufferization.to_memref %4 : memref<5x15xf32>
      %248 = math.tanh %11 : tensor<5x15xf32>
      %249 = math.roundeven %from_elements : tensor<5x15xf32>
      %alloc_56 = memref.alloc() : memref<5x15xi16>
      memref.copy %alloc_13, %alloc_56 : memref<5x15xi16> to memref<5x15xi16>
      %250 = vector.insertelement %147, %174[%c13 : index] : vector<15xi64>
      %251 = affine.max affine_map<(d0, d1, d2, d3) -> (d0 mod 4)>(%c0, %c3, %173, %c10)
      %false_57 = index.bool.constant false
      %252 = vector.insertelement %c1867817484_i64, %174[%105 : index] : vector<15xi64>
      %253 = math.round %9 : tensor<5x15xf32>
      %254 = math.ctpop %true_42 : i1
      %alloca_58 = memref.alloca() : memref<8x8xi16>
      %255 = bufferization.clone %188 : memref<8x8xi1> to memref<8x8xi1>
      memref.copy %alloc, %alloc_22 : memref<8x8xi64> to memref<8x8xi64>
      memref.assume_alignment %alloc_18, 4 : memref<8x8xi16>
      %256 = math.expm1 %cst : f16
      %257 = math.absf %11 : tensor<5x15xf32>
      %258 = memref.atomic_rmw muli %c844708500_i32, %74[%c2, %c2] : (i32, memref<8x8xi32>) -> i32
    }
    %208 = vector.matrix_multiply %83, %83 {lhs_columns = 16 : i32, lhs_rows = 1 : i32, rhs_columns = 1 : i32} : (vector<16xf16>, vector<16xf16>) -> vector<1xf16>
    %209 = arith.minui %43, %c1_i64 : i64
    %210 = arith.cmpf one, %cst_0, %cst_0 : f32
    %expanded_43 = tensor.expand_shape %5 [[0], [1, 2]] : tensor<8x8xf16> into tensor<8x8x1xf16>
    %211 = math.ipowi %c844708500_i32, %c844708500_i32 : i32
    %212 = vector.broadcast %c844708500_i32 : i32 to vector<8xi32>
    %213 = vector.broadcast %true_36 : i1 to vector<8xi1>
    %214 = vector.maskedload %74[%c2, %c6], %213, %212 : memref<8x8xi32>, vector<8xi1>, vector<8xi32> into vector<8xi32>
    %rank_44 = tensor.rank %14 : tensor<16x5xi64>
    %splat = tensor.splat %cst_1 : tensor<5x15xf16>
    %215 = index.divs %c1, %c10
    %alloc_45 = memref.alloc() : memref<15x15xf16>
    %216 = tensor.empty() : tensor<5x15xf16>
    %217 = linalg.matmul ins(%splat, %alloc_45 : tensor<5x15xf16>, memref<15x15xf16>) outs(%216 : tensor<5x15xf16>) -> tensor<5x15xf16>
    %218 = math.log1p %15 : tensor<16x5xf16>
    %rank_46 = tensor.rank %generated : tensor<?x8xi1>
    memref.tensor_store %6, %137 : memref<8x8xi32>
    vector.print %213 : vector<8xi1>
    %219 = arith.addi %false, %false_6 : i1
    memref.store %false_31, %alloc_7[%c14, %c3] : memref<16x5xi1>
    %alloc_47 = memref.alloc() : memref<16x5xi1>
    %220 = memref.realloc %alloc_9 : memref<16xi64> to memref<15xi64>
    %221 = vector.broadcast %147 : i64 to vector<16xi64>
    %222 = vector.broadcast %false_41 : i1 to vector<16xi1>
    %223 = vector.broadcast %c844708500_i32 : i32 to vector<16xi32>
    %224 = vector.gather %14[%110, %170] [%223], %222, %221 : tensor<16x5xi64>, vector<16xi32>, vector<16xi1>, vector<16xi64> into vector<16xi64>
    bufferization.dealloc_tensor %4 : tensor<5x15xf32>
    %225 = memref.atomic_rmw andi %c844708500_i32, %alloc_24[%c5] : (i32, memref<16xi32>) -> i32
    %226 = index.maxu %215, %rank_46
    %227 = arith.minsi %true, %true_42 : i1
    %alloc_48 = memref.alloc() : memref<16x5xf32>
    %228 = math.sqrt %expanded_43 : tensor<8x8x1xf16>
    %229 = tensor.empty() : tensor<16x5xf16>
    %mapped_49 = linalg.map ins(%alloc_19, %15, %alloc_19 : memref<16x5xf16>, tensor<16x5xf16>, memref<16x5xf16>) outs(%229 : tensor<16x5xf16>)
      (%in: f16, %in_52: f16, %in_53: f16) {
        %236 = vector.splat %true_39 : vector<16x5xi1>
        %237 = arith.remui %true, %false_31 : i1
        memref.copy %alloc_17, %alloc_7 : memref<16x5xi1> to memref<16x5xi1>
        %238 = math.absi %false_6 : i1
        %239 = tensor.empty(%c9) : tensor<5x?xf32>
        %240 = vector.matrix_multiply %19, %161 {lhs_columns = 3 : i32, lhs_rows = 5 : i32, rhs_columns = 1 : i32} : (vector<15xi32>, vector<3xi32>) -> vector<5xi32>
        %241 = arith.subi %true, %true : i1
        %242 = vector.splat %c298733396_i64 : vector<16x5xi64>
        %243 = memref.realloc %alloc_16 : memref<16xi32> to memref<16xi32>
        %244 = arith.remf %in_52, %in : f16
        %245 = arith.mulf %in_52, %cst_2 : f16
        %246 = arith.maxsi %false, %false_41 : i1
        %splat_54 = tensor.splat %in_53 : tensor<5x15xf16>
        %247 = math.roundeven %17 : tensor<5x15xf32>
        %248 = arith.cmpf uge, %cst_4, %cst_0 : f32
        %249 = arith.maxsi %147, %c298733396_i64 : i64
        %250 = arith.remui %c262262597_i64, %c262262597_i64 : i64
        %251 = index.divu %c11, %c12
        %252 = arith.andi %true_36, %true : i1
        vector.print %155 : vector<5x15xi64>
        %253 = vector.shuffle %68, %68 [2, 3, 4, 5, 6, 11, 12, 13, 15] : vector<8x8xi1>, vector<8x8xi1>
        %true_55 = arith.constant true
        %254 = math.atan %15 : tensor<16x5xf16>
        %rank_56 = tensor.rank %35 : tensor<16xi1>
        %alloca_57 = memref.alloca() : memref<8x8xi16>
        %255 = arith.mulf %cst_0, %cst_0 : f32
        %256 = index.sub %c12, %c1
        %257 = math.expm1 %5 : tensor<8x8xf16>
        %258 = tensor.empty() : tensor<8x8xi64>
        %259 = linalg.matmul ins(%8, %1 : tensor<8x8xi64>, tensor<8x8xi64>) outs(%258 : tensor<8x8xi64>) -> tensor<8x8xi64>
        %260 = vector.broadcast %c1_i64 : i64 to vector<5xi64>
        %261 = vector.broadcast %86 : i1 to vector<5xi1>
        %262 = vector.maskedload %alloc[%c1, %c4], %261, %260 : memref<8x8xi64>, vector<5xi1>, vector<5xi64> into vector<5xi64>
        %263 = index.sub %c8, %173
        %264 = index.sub %rank_56, %36
        %cst_58 = arith.constant 1.000000e+00 : f16
        linalg.yield %cst_58 : f16
      }
    %230 = index.floordivs %67, %c13
    %231 = math.roundeven %116 : tensor<5x15xf32>
    %232 = tensor.empty() : tensor<8x8xi32>
    %233 = linalg.copy ins(%6 : tensor<8x8xi32>) outs(%232 : tensor<8x8xi32>) -> tensor<8x8xi32>
    %alloc_50 = memref.alloc(%rank_44) : memref<8x?xi1>
    linalg.transpose ins(%generated : tensor<?x8xi1>) outs(%alloc_50 : memref<8x?xi1>) permutation = [1, 0] 
    %alloc_51 = memref.alloc() : memref<8xi32>
    linalg.reduce ins(%29 : tensor<8x8xi32>) outs(%alloc_51 : memref<8xi32>) dimensions = [0] 
      (%in: i32, %init: i32) {
        %236 = vector.broadcast %cst_4 : f32 to vector<5x15xf32>
        %237 = vector.load %alloc_51[%c4] : memref<8xi32>, vector<16x5xi32>
        %238 = math.atan2 %splat, %145 : tensor<5x15xf16>
        %239 = math.absi %c1_i64 : i64
        %from_elements_52 = tensor.from_elements %c15540_i16, %c15540_i16, %c1450_i16, %c1450_i16, %c20624_i16, %c1450_i16, %c1450_i16, %c1450_i16, %c20624_i16, %c15540_i16, %c20624_i16, %c20624_i16, %c15540_i16, %c20624_i16, %c1450_i16, %c1450_i16 : tensor<16xi16>
        %240 = vector.broadcast %cst_4 : f32 to vector<8xf32>
        %241 = vector.transfer_write %240, %16[%c2, %50] {permutation_map = affine_map<(d0, d1) -> (d0)>} : vector<8xf32>, tensor<5x15xf32>
        %242 = vector.broadcast %cst_0 : f32 to vector<16xf32>
        %243 = vector.fma %242, %242, %242 : vector<16xf32>
        %244 = math.log2 %4 : tensor<5x15xf32>
        %c1_i32 = arith.constant 1 : i32
        linalg.yield %c1_i32 : i32
      }
    %234 = scf.parallel (%arg3) = (%c5) to (%87) step (%c5) init (%86) -> i1 {
      %236 = index.casts %true : i1 to index
      %237 = vector.extract_strided_slice %114 {offsets = [10], sizes = [2], strides = [1]} : vector<16x5xf32> to vector<2x5xf32>
      %cst_52 = arith.constant 4.224000e+03 : f16
      %238 = math.atan2 %9, %172 : tensor<5x15xf32>
      %239 = arith.maxf %cst_5, %cst : f16
      %240 = math.floor %55 : tensor<5x8xf32>
      %241 = vector.broadcast %cst_4 : f32 to vector<16xf32>
      %242 = vector.maskedload %alloc_21[%c1, %c11], %222, %241 : memref<5x15xf32>, vector<16xi1>, vector<16xf32> into vector<16xf32>
      %243 = arith.cmpf une, %cst, %cst_2 : f16
      scf.if %false_31 {
        %251 = memref.realloc %alloc_9 : memref<16xi64> to memref<5xi64>
        %from_elements_54 = tensor.from_elements %true, %true_36, %false_31, %false, %true, %true_42, %true_36, %true, %86, %true, %86, %false_6, %false, %false_31, %86, %false_31, %true, %false_41, %true, %true_36, %true_42, %true, %false_6, %false_41, %true_36, %86, %false, %true_36, %false_41, %true_39, %false_6, %true_39, %false, %false_41, %true, %true_36, %false_41, %false_31, %true_39, %false_6, %false_6, %false, %true_36, %true_42, %true, %86, %true_39, %true_36, %false, %false, %true_39, %false, %true_39, %false_6, %86, %true_39, %true, %true_39, %false_6, %false_6, %false_31, %true_39, %false_31, %true_42 : tensor<8x8xi1>
        %true_55 = index.bool.constant true
        %252 = math.copysign %0, %229 : tensor<16x5xf16>
        %253 = vector.broadcast %77 : index to vector<15xindex>
        %254 = vector.broadcast %false : i1 to vector<15xi1>
        %255 = vector.broadcast %c20624_i16 : i16 to vector<15xi16>
        vector.scatter %alloc_13[%c0, %c12] [%253], %254, %255 : memref<5x15xi16>, vector<15xindex>, vector<15xi1>, vector<15xi16>
        %256 = vector.splat %c1_i64 : vector<5x15xi64>
        %257 = arith.minui %true_42, %false : i1
        %258 = affine.load %alloc_8[%c15, %c10] : memref<8x8xi1>
      } else {
        %251 = affine.max affine_map<(d0, d1, d2) -> (d2, d2, (d0 - d1) * -2, -(d0 - d1))>(%c5, %77, %173)
        %252 = math.ctpop %8 : tensor<8x8xi64>
        %253 = affine.load %alloc_16[%c4] : memref<16xi32>
        %254 = arith.xori %c15540_i16, %c15540_i16 : i16
        %255 = math.tan %cst_3 : f16
        %256 = vector.insertelement %c844708500_i32, %212[%23 : index] : vector<8xi32>
        %257 = arith.subi %c298733396_i64, %147 : i64
        %true_54 = index.bool.constant true
      }
      %244 = arith.divui %c298733396_i64, %c1867817484_i64 : i64
      %245 = index.divs %110, %236
      %246 = arith.maxui %c1867817484_i64, %c262262597_i64 : i64
      %247 = arith.subi %false_41, %false_31 : i1
      %248 = arith.addi %c20624_i16, %c15540_i16 : i16
      %249 = arith.maxui %c298733396_i64, %147 : i64
      %250 = arith.shrsi %false_6, %false : i1
      %true_53 = arith.constant true
      scf.reduce(%true_53)  : i1 {
      ^bb0(%arg4: i1, %arg5: i1):
        %251 = arith.floordivsi %true_42, %true_36 : i1
        %252 = index.sub %c1, %c1
        %253 = arith.maxui %false_31, %false_6 : i1
        %254 = vector.extract_strided_slice %237 {offsets = [0], sizes = [2], strides = [1]} : vector<2x5xf32> to vector<2x5xf32>
        memref.store %c1450_i16, %alloc_18[%c2, %c7] : memref<8x8xi16>
        %255 = math.tan %cst_4 : f32
        %256 = arith.minui %true_39, %arg4 : i1
        %collapsed_54 = tensor.collapse_shape %201 [[0, 1]] : tensor<5x8xi64> into tensor<40xi64>
        %false_55 = arith.constant false
        scf.reduce.return %false_55 : i1
      }
      scf.yield
    }
    %235 = affine.vector_load %alloc_51[%c15] : memref<8xi32>, vector<8xi32>
    affine.vector_store %19, %137[%226, %c12] : memref<8x8xi32>, vector<15xi32>
    vector.print %19 : vector<15xi32>
    vector.print %68 : vector<8x8xi1>
    vector.print %73 : vector<8x8xi1>
    vector.print %83 : vector<16xf16>
    vector.print %97 : vector<8x8xi1>
    vector.print %114 : vector<16x5xf32>
    vector.print %115 : vector<16x5xf32>
    vector.print %141 : vector<15xi32>
    vector.print %148 : vector<f32>
    vector.print %155 : vector<5x15xi64>
    vector.print %161 : vector<3xi32>
    vector.print %167 : vector<15xi64>
    vector.print %174 : vector<15xi64>
    vector.print %180 : vector<16x5xf32>
    vector.print %191 : vector<16x5xi32>
    vector.print %208 : vector<1xf16>
    vector.print %212 : vector<8xi32>
    vector.print %213 : vector<8xi1>
    vector.print %214 : vector<8xi32>
    vector.print %221 : vector<16xi64>
    vector.print %222 : vector<16xi1>
    vector.print %223 : vector<16xi32>
    vector.print %224 : vector<16xi64>
    vector.print %235 : vector<8xi32>
    vector.print %cst : f16
    vector.print %cst_0 : f32
    vector.print %cst_1 : f16
    vector.print %c1450_i16 : i16
    vector.print %false : i1
    vector.print %c1867817484_i64 : i64
    vector.print %cst_2 : f16
    vector.print %c298733396_i64 : i64
    vector.print %c844708500_i32 : i32
    vector.print %cst_3 : f16
    vector.print %cst_4 : f32
    vector.print %cst_5 : f16
    vector.print %c262262597_i64 : i64
    vector.print %c15540_i16 : i16
    vector.print %false_6 : i1
    vector.print %c20624_i16 : i16
    vector.print %43 : i64
    vector.print %c1_i64 : i64
    vector.print %86 : i1
    vector.print %false_31 : i1
    vector.print %true : i1
    vector.print %true_36 : i1
    vector.print %147 : i64
    vector.print %true_39 : i1
    vector.print %false_41 : i1
    vector.print %true_42 : i1
    return %4 : tensor<5x15xf32>
  }
}
