module {
  func.func @func1(%arg0: i16, %arg1: index, %arg2: vector<5xf16>) -> memref<5xi1> {
    %cst = arith.constant 1.59910515E+9 : f32
    %c1291372147_i32 = arith.constant 1291372147 : i32
    %cst_0 = arith.constant 0x4C260DF5 : f32
    %c614625657_i32 = arith.constant 614625657 : i32
    %false = arith.constant false
    %false_1 = arith.constant false
    %cst_2 = arith.constant 1.1763063E+9 : f32
    %c8837_i16 = arith.constant 8837 : i16
    %c1750124934_i64 = arith.constant 1750124934 : i64
    %c1777150014_i32 = arith.constant 1777150014 : i32
    %c304038688_i64 = arith.constant 304038688 : i64
    %cst_3 = arith.constant 1.851200e+04 : f16
    %cst_4 = arith.constant 2.163200e+04 : f16
    %false_5 = arith.constant false
    %cst_6 = arith.constant 0x4E21C5F7 : f32
    %c342629357_i32 = arith.constant 342629357 : i32
    %0 = tensor.empty() : tensor<2x12x15xi1>
    %1 = tensor.empty() : tensor<2xi1>
    %2 = tensor.empty() : tensor<5xi64>
    %3 = tensor.empty() : tensor<15xi16>
    %4 = tensor.empty() : tensor<15xi32>
    %5 = tensor.empty() : tensor<5xi64>
    %6 = tensor.empty() : tensor<5xi16>
    %7 = tensor.empty() : tensor<15xi1>
    %8 = tensor.empty() : tensor<2x12x15xi64>
    %9 = tensor.empty() : tensor<2xi32>
    %10 = tensor.empty() : tensor<5xi64>
    %11 = tensor.empty() : tensor<15xi64>
    %12 = tensor.empty() : tensor<15xi16>
    %13 = tensor.empty() : tensor<5xi16>
    %14 = tensor.empty() : tensor<15xi64>
    %15 = tensor.empty() : tensor<15xi64>
    %c0 = arith.constant 0 : index
    %c1 = arith.constant 1 : index
    %c2 = arith.constant 2 : index
    %c3 = arith.constant 3 : index
    %c4 = arith.constant 4 : index
    %c5 = arith.constant 5 : index
    %c6 = arith.constant 6 : index
    %c7 = arith.constant 7 : index
    %c8 = arith.constant 8 : index
    %c9 = arith.constant 9 : index
    %c10 = arith.constant 10 : index
    %c11 = arith.constant 11 : index
    %c12 = arith.constant 12 : index
    %c13 = arith.constant 13 : index
    %c14 = arith.constant 14 : index
    %c15 = arith.constant 15 : index
    %alloc = memref.alloc() : memref<2xf32>
    %alloc_7 = memref.alloc() : memref<5xi16>
    %alloc_8 = memref.alloc() : memref<2xf16>
    %alloc_9 = memref.alloc() : memref<2xi16>
    %alloc_10 = memref.alloc() : memref<2x12x15xi64>
    %alloc_11 = memref.alloc() : memref<2xf32>
    %alloc_12 = memref.alloc() : memref<2x12x15xf32>
    %alloc_13 = memref.alloc() : memref<5xf32>
    %alloc_14 = memref.alloc() : memref<15xf32>
    %alloc_15 = memref.alloc() : memref<2x12x15xi16>
    %alloc_16 = memref.alloc() : memref<15xi16>
    %alloc_17 = memref.alloc() : memref<2xi16>
    %alloc_18 = memref.alloc() : memref<5xf16>
    %alloc_19 = memref.alloc() : memref<5xi64>
    %alloc_20 = memref.alloc() : memref<2xf32>
    %alloc_21 = memref.alloc() : memref<2x12x15xf16>
    %16 = tensor.empty() : tensor<15xi64>
    %17 = linalg.copy ins(%15 : tensor<15xi64>) outs(%16 : tensor<15xi64>) -> tensor<15xi64>
    %18 = tensor.empty() : tensor<15xi1>
    %transposed = linalg.transpose ins(%7 : tensor<15xi1>) outs(%18 : tensor<15xi1>) permutation = [0] 
    %19 = tensor.empty() : tensor<i64>
    %reduced = linalg.reduce ins(%5 : tensor<5xi64>) outs(%19 : tensor<i64>) dimensions = [0] 
      (%in: i64, %init: i64) {
        %261 = index.maxs %c8, %c0
        %262 = math.rsqrt %cst_6 : f32
        %263 = arith.divui %init, %c1750124934_i64 : i64
        %alloca_46 = memref.alloca() : memref<2xi64>
        %264 = arith.minf %cst_2, %cst_6 : f32
        %265 = bufferization.to_memref %4 : memref<15xi32>
        %266 = math.absi %7 : tensor<15xi1>
        %267 = tensor.empty() : tensor<2xi32>
        %c0_i64 = arith.constant 0 : i64
        linalg.yield %c0_i64 : i64
      }
    scf.parallel (%arg3) = (%c8) to (%c5) step (%c5) {
      %261 = math.fma %cst_0, %cst_2, %cst_6 : f32
      %262 = vector.broadcast %cst_0 : f32 to vector<f32>
      %263 = vector.insertelement %cst_2, %262[] : vector<f32>
      %264 = vector.broadcast %c1 : index to vector<12xindex>
      %265 = vector.broadcast %false : i1 to vector<12xi1>
      %266 = vector.broadcast %cst_2 : f32 to vector<12xf32>
      vector.scatter %alloc_13[%c1] [%264], %265, %266 : memref<5xf32>, vector<12xindex>, vector<12xi1>, vector<12xf32>
      %267 = math.log1p %cst_0 : f32
      vector.print %262 : vector<f32>
      memref.assume_alignment %alloc_11, 2 : memref<2xf32>
      %268 = arith.divf %cst_6, %cst : f32
      %269 = vector.splat %c3 : vector<5xindex>
      %270 = affine.for %arg4 = 0 to 3 iter_args(%arg5 = %c1) -> (index) {
        affine.yield %c15 : index
      }
      %splat_46 = tensor.splat %cst_0 : tensor<5xf32>
      %271 = arith.negf %cst_0 : f32
      %272 = bufferization.clone %alloc_10 : memref<2x12x15xi64> to memref<2x12x15xi64>
      %273 = vector.broadcast %c304038688_i64 : i64 to vector<1xi64>
      %274 = vector.extract %273[0] : vector<1xi64>
      %275 = arith.andi %c614625657_i32, %c342629357_i32 : i32
      %276 = vector.flat_transpose %273 {columns = 1 : i32, rows = 1 : i32} : vector<1xi64> -> vector<1xi64>
      %277 = affine.apply affine_map<(d0) -> (d0 + d0 floordiv 128 - d0 floordiv 128)>(%c8)
      scf.yield
    }
    %20 = affine.vector_load %alloc_21[%c5, %c0, %c1] : memref<2x12x15xf16>, vector<12xf16>
    affine.vector_store %20, %alloc_8[%c15] : memref<2xf16>, vector<12xf16>
    %alloc_22 = memref.alloc() : memref<15xi64>
    %21 = tensor.empty() : tensor<i64>
    %22 = linalg.dot ins(%14, %alloc_22 : tensor<15xi64>, memref<15xi64>) outs(%21 : tensor<i64>) -> tensor<i64>
    %23 = vector.splat %c3 : vector<15xindex>
    %24 = vector.shuffle %20, %20 [3, 5, 7, 8, 9, 12, 14, 15, 16, 17, 20, 22] : vector<12xf16>, vector<12xf16>
    %25 = bufferization.clone %alloc : memref<2xf32> to memref<2xf32>
    memref.assume_alignment %alloc_17, 2 : memref<2xi16>
    %26 = math.cos %cst_3 : f16
    %27 = arith.divf %cst_3, %cst_4 : f16
    %28 = index.divs %c14, %c10
    %29 = bufferization.to_memref %21 : memref<i64>
    %30 = memref.realloc %alloc_8 : memref<2xf16> to memref<5xf16>
    %31 = tensor.empty() : tensor<2xi16>
    %32 = vector.broadcast %c8837_i16 : i16 to vector<2xi16>
    %33 = vector.broadcast %false : i1 to vector<2xi1>
    %34 = vector.broadcast %c1777150014_i32 : i32 to vector<2xi32>
    %35 = vector.gather %31[%c9] [%34], %33, %32 : tensor<2xi16>, vector<2xi32>, vector<2xi1>, vector<2xi16> into vector<2xi16>
    %36 = math.round %cst_2 : f32
    %37 = math.atan2 %cst_0, %cst : f32
    %38 = arith.ori %c304038688_i64, %c304038688_i64 : i64
    %39 = math.fpowi %cst_6, %c1777150014_i32 : f32, i32
    %40 = math.powf %cst_2, %cst_0 : f32
    %41 = arith.minf %cst_0, %cst : f32
    %42 = vector.create_mask %c8 : vector<5xi1>
    %43 = arith.minui %false_1, %false_5 : i1
    %44 = math.ceil %cst_3 : f16
    %45 = arith.xori %c614625657_i32, %c1291372147_i32 : i32
    %46 = index.sizeof
    %collapsed = tensor.collapse_shape %8 [[0, 1], [2]] : tensor<2x12x15xi64> into tensor<24x15xi64>
    %47 = vector.load %alloc_20[%c0] : memref<2xf32>, vector<15xf32>
    %48 = math.atan %cst_6 : f32
    %49 = math.round %cst : f32
    %50 = arith.addf %cst_2, %cst_2 : f32
    %51 = arith.negf %cst : f32
    %cast = tensor.cast %2 : tensor<5xi64> to tensor<?xi64>
    vector.print %42 : vector<5xi1>
    affine.store %cst_2, %alloc[%c14] : memref<2xf32>
    %52 = arith.shrui %c1777150014_i32, %c1777150014_i32 : i32
    %53 = arith.shrui %c614625657_i32, %c1777150014_i32 : i32
    %54 = arith.muli %c342629357_i32, %c1777150014_i32 : i32
    %55 = math.atan %cst : f32
    %cst_23 = arith.constant 4.137600e+04 : f16
    %56 = math.ceil %cst : f32
    %57 = vector.insert %cst_0, %47 [3] : f32 into vector<15xf32>
    %58 = math.ipowi %14, %14 : tensor<15xi64>
    %59 = tensor.empty() : tensor<5xf32>
    %60 = vector.broadcast %cst_6 : f32 to vector<2xf32>
    %61 = vector.gather %59[%c10] [%34], %33, %60 : tensor<5xf32>, vector<2xi32>, vector<2xi1>, vector<2xf32> into vector<2xf32>
    %62 = affine.for %arg3 = 0 to 4 iter_args(%arg4 = %12) -> (tensor<15xi16>) {
      affine.yield %12 : tensor<15xi16>
    }
    %63 = index.mul %46, %c4
    memref.alloca_scope  {
      %261 = memref.load %alloc_18[%c4] : memref<5xf16>
      %false_46 = index.bool.constant false
      %262 = scf.while (%arg3 = %42) : (vector<5xi1>) -> vector<5xi1> {
        %289 = index.sub %28, %63
        %splat_51 = tensor.splat %c1777150014_i32 : tensor<5xi32>
        memref.store %cst_6, %alloc_13[%c2] : memref<5xf32>
        %290 = index.sub %c10, %28
        %splat_52 = tensor.splat %c614625657_i32 : tensor<5xi32>
        %291 = index.ceildivs %c1, %c7
        %292 = affine.load %alloc_12[%c4, %c5, %c14] : memref<2x12x15xf32>
        %293 = arith.minf %cst_6, %cst_6 : f32
        scf.condition(%false_46) %42 : vector<5xi1>
      } do {
      ^bb0(%arg3: vector<5xi1>):
        %289 = arith.muli %false, %false_1 : i1
        %290 = index.divs %c8, %c15
        %291 = vector.load %alloc_9[%c1] : memref<2xi16>, vector<2xi16>
        %292 = memref.load %alloc_22[%c8] : memref<15xi64>
        %293 = bufferization.to_memref %transposed : memref<15xi1>
        %294 = arith.maxsi %c1750124934_i64, %c1750124934_i64 : i64
        %295 = math.round %59 : tensor<5xf32>
        %296 = math.sqrt %cst_3 : f16
        %297 = math.atan2 %cst_6, %cst_2 : f32
        %298 = math.expm1 %cst_3 : f16
        %299 = math.ipowi %reduced, %19 : tensor<i64>
        %300 = arith.ori %c304038688_i64, %c1750124934_i64 : i64
        %301 = vector.splat %c304038688_i64 : vector<5xi64>
        %splat_51 = tensor.splat %false_5 : tensor<5xi1>
        %302 = arith.divf %cst, %cst : f32
        %alloc_52 = memref.alloc() : memref<2x12x15xi1>
        scf.yield %42 : vector<5xi1>
      }
      %263 = index.casts %c1777150014_i32 : i32 to index
      %from_elements_47 = tensor.from_elements %c304038688_i64, %c1750124934_i64 : tensor<2xi64>
      %264 = vector.splat %c11 : vector<15xindex>
      scf.index_switch %c5 
      case 1 {
        %289 = bufferization.to_memref %6 : memref<5xi16>
        memref.store %cst_2, %25[%c1] : memref<2xf32>
        %290 = vector.load %alloc[%c1] : memref<2xf32>, vector<15xf32>
        %291 = arith.negf %cst_4 : f16
        %292 = vector.insert %c1291372147_i32, %34 [0] : i32 into vector<2xi32>
        %293 = math.copysign %cst_3, %cst_4 : f16
        %294 = arith.ori %c8837_i16, %c8837_i16 : i16
        %295 = math.log %cst_4 : f16
        %296 = vector.insertelement %cst_2, %61[%c1 : index] : vector<2xf32>
        %297 = arith.negf %cst : f32
        %alloca_51 = memref.alloca() : memref<2x12x15xi32>
        %298 = arith.maxsi %c342629357_i32, %c614625657_i32 : i32
        %299 = arith.remsi %false_1, %false_46 : i1
        %300 = memref.realloc %alloc_22 : memref<15xi64> to memref<12xi64>
        %301 = memref.realloc %alloc_16 : memref<15xi16> to memref<15xi16>
        %302 = index.ceildivu %46, %263
        scf.yield
      }
      default {
        %289 = math.log %cst_2 : f32
        %290 = math.round %59 : tensor<5xf32>
        %291 = tensor.empty(%c7) : tensor<2x?x15xi16>
        %292 = vector.shuffle %32, %32 [2] : vector<2xi16>, vector<2xi16>
        %splat_51 = tensor.splat %false_1 : tensor<2xi1>
        %splat_52 = tensor.splat %c1291372147_i32 : tensor<5xi32>
        %293 = index.mul %c2, %28
        %294 = vector.broadcast %c8837_i16 : i16 to vector<i16>
        %295 = vector.transfer_write %294, %13[%c0] : vector<i16>, tensor<5xi16>
        %splat_53 = tensor.splat %cst_2 : tensor<2xf32>
        %296 = vector.insert %cst, %47 [11] : f32 into vector<15xf32>
        memref.store %c8837_i16, %alloc_16[%c7] : memref<15xi16>
        %297 = tensor.empty() : tensor<15xi16>
        %cast_54 = tensor.cast %11 : tensor<15xi64> to tensor<?xi64>
        %298 = arith.muli %c1777150014_i32, %c1777150014_i32 : i32
        %299 = math.absf %cst_2 : f32
        %300 = math.exp2 %cst_0 : f32
      }
      %265 = arith.minui %false_46, %false_46 : i1
      %266 = vector.matrix_multiply %32, %32 {lhs_columns = 2 : i32, lhs_rows = 1 : i32, rhs_columns = 1 : i32} : (vector<2xi16>, vector<2xi16>) -> vector<1xi16>
      %267 = math.powf %cst_0, %cst_6 : f32
      %268 = arith.muli %c342629357_i32, %c1291372147_i32 : i32
      %269 = memref.load %alloc_11[%c1] : memref<2xf32>
      %270 = math.round %59 : tensor<5xf32>
      %271 = arith.maxsi %c1750124934_i64, %c304038688_i64 : i64
      %272 = memref.realloc %25 : memref<2xf32> to memref<12xf32>
      %cast_48 = tensor.cast %3 : tensor<15xi16> to tensor<?xi16>
      %273 = math.atan2 %cst_4, %cst_4 : f16
      %274 = math.powf %cst_3, %cst_4 : f16
      %275 = index.maxs %c2, %c0
      %276 = tensor.empty(%c15) : tensor<?xf32>
      %277 = index.maxs %275, %c15
      %collapsed_49 = tensor.collapse_shape %0 [[0, 1], [2]] : tensor<2x12x15xi1> into tensor<24x15xi1>
      %278 = index.divu %c10, %c6
      %cast_50 = tensor.cast %reduced : tensor<i64> to tensor<i64>
      %279 = vector.broadcast %c11 : index to vector<15xindex>
      %280 = vector.broadcast %false_5 : i1 to vector<15xi1>
      %281 = vector.broadcast %cst_4 : f16 to vector<15xf16>
      vector.scatter %alloc_18[%c3] [%279], %280, %281 : memref<5xf16>, vector<15xindex>, vector<15xi1>, vector<15xf16>
      %282 = math.atan %cst_2 : f32
      %283 = bufferization.clone %alloc_9 : memref<2xi16> to memref<2xi16>
      %284 = index.casts %c8 : index to i32
      %285 = math.round %cst_3 : f16
      %286 = tensor.empty(%c12) : tensor<?xi32>
      %287 = bufferization.clone %alloc_11 : memref<2xf32> to memref<2xf32>
      %288 = memref.atomic_rmw mins %c8837_i16, %alloc_9[%c1] : (i16, memref<2xi16>) -> i16
    }
    %64 = arith.cmpf ugt, %cst_2, %cst_0 : f32
    %65 = memref.alloca_scope  -> (i32) {
      %261 = index.sizeof
      %splat_46 = tensor.splat %c342629357_i32 : tensor<15xi32>
      %262 = vector.extract %35[0] : vector<2xi16>
      %263 = math.atan %cst_3 : f16
      %264 = arith.ceildivsi %c1750124934_i64, %c304038688_i64 : i64
      memref.assume_alignment %alloc, 4 : memref<2xf32>
      bufferization.dealloc_tensor %8 : tensor<2x12x15xi64>
      %265 = math.atan %cst_3 : f16
      %alloc_47 = memref.alloc() : memref<5xf16>
      %266 = math.fma %cst_0, %cst, %cst_6 : f32
      affine.for %arg3 = 0 to 6 {
      }
      %267 = arith.muli %c1750124934_i64, %c304038688_i64 : i64
      %268 = arith.minf %cst_6, %cst_0 : f32
      %269 = arith.minsi %false_5, %false_5 : i1
      %270 = scf.index_switch %c15 -> index 
      case 1 {
        %288 = arith.minui %false_1, %false_5 : i1
        %289 = arith.divsi %c1750124934_i64, %c304038688_i64 : i64
        %290 = memref.atomic_rmw mulf %cst_2, %alloc[%c1] : (f32, memref<2xf32>) -> f32
        %291 = index.ceildivs %28, %c11
        %292 = index.ceildivs %c6, %28
        %293 = math.copysign %59, %59 : tensor<5xf32>
        %294 = math.exp %59 : tensor<5xf32>
        %295 = math.fma %cst_3, %cst_4, %cst_3 : f16
        memref.store %c1750124934_i64, %29[] : memref<i64>
        %296 = math.ipowi %5, %2 : tensor<5xi64>
        %297 = arith.divf %cst_4, %cst_3 : f16
        %298 = vector.transpose %32, [0] : vector<2xi16> to vector<2xi16>
        %299 = arith.divui %c1291372147_i32, %c1777150014_i32 : i32
        %300 = index.sizeof
        %301 = arith.shli %c342629357_i32, %c1291372147_i32 : i32
        %302 = arith.shrui %false_1, %false_5 : i1
        scf.yield %63 : index
      }
      case 2 {
        %288 = arith.cmpi ule, %c342629357_i32, %c1777150014_i32 : i32
        %289 = math.tanh %cst_4 : f16
        %290 = math.fma %59, %59, %59 : tensor<5xf32>
        %291 = math.cos %cst_3 : f16
        %292 = index.add %63, %c9
        %293 = math.rsqrt %cst_0 : f32
        %cst_49 = arith.constant 1.77533939E+9 : f32
        %294 = arith.remsi %false, %false : i1
        %295 = math.rsqrt %cst : f32
        %296 = math.log1p %cst_4 : f16
        %297 = arith.muli %false_5, %false_1 : i1
        %298 = affine.apply affine_map<(d0) -> (d0 ceildiv 32)>(%c4)
        %cast_50 = tensor.cast %22 : tensor<i64> to tensor<i64>
        %299 = arith.cmpi sle, %c1291372147_i32, %c1291372147_i32 : i32
        %300 = math.atan %cst_2 : f32
        %301 = index.divs %46, %c10
        scf.yield %c14 : index
      }
      default {
        %288 = vector.transpose %35, [0] : vector<2xi16> to vector<2xi16>
        %289 = bufferization.to_tensor %alloc_22 : memref<15xi64>
        %290 = index.ceildivs %c12, %c3
        %291 = math.atan %cst_4 : f16
        %292 = arith.cmpi sge, %false, %false_1 : i1
        %293 = index.divu %c9, %c15
        %294 = vector.shuffle %60, %47 [0, 1, 2, 4, 10, 11, 12, 13, 14] : vector<2xf32>, vector<15xf32>
        %295 = arith.minf %cst_2, %cst_2 : f32
        %296 = math.floor %cst_4 : f16
        %297 = math.expm1 %cst_4 : f16
        %298 = affine.load %25[%c7] : memref<2xf32>
        %299 = tensor.empty() : tensor<15xi32>
        %300 = arith.remsi %c1750124934_i64, %c1750124934_i64 : i64
        %301 = vector.transpose %61, [0] : vector<2xf32> to vector<2xf32>
        %302 = math.rsqrt %cst : f32
        %303 = vector.flat_transpose %42 {columns = 5 : i32, rows = 1 : i32} : vector<5xi1> -> vector<5xi1>
        scf.yield %c1 : index
      }
      %271 = memref.realloc %alloc_16 : memref<15xi16> to memref<2xi16>
      %cast_48 = tensor.cast %0 : tensor<2x12x15xi1> to tensor<?x?x?xi1>
      %272 = tensor.empty() : tensor<15xf16>
      %273 = vector.broadcast %cst_4 : f16 to vector<15xf16>
      %274 = vector.broadcast %false : i1 to vector<15xi1>
      %275 = vector.broadcast %c342629357_i32 : i32 to vector<15xi32>
      %276 = vector.gather %272[%c5] [%275], %274, %273 : tensor<15xf16>, vector<15xi32>, vector<15xi1>, vector<15xf16> into vector<15xf16>
      %277 = vector.flat_transpose %35 {columns = 1 : i32, rows = 2 : i32} : vector<2xi16> -> vector<2xi16>
      %278 = math.expm1 %cst_4 : f16
      %279 = arith.shrsi %false_5, %false : i1
      affine.for %arg3 = 0 to 24 {
      }
      %280 = arith.negf %cst_3 : f16
      memref.alloca_scope  {
        %288 = index.ceildivs %c6, %c8
        %289 = arith.andi %c614625657_i32, %c1777150014_i32 : i32
        %290 = index.ceildivs %261, %c14
        %291 = vector.insertelement %cst_3, %276[%c12 : index] : vector<15xf16>
        %292 = vector.load %alloc_12[%c0, %c3, %c5] : memref<2x12x15xf32>, vector<2xf32>
        %c1_i64 = arith.constant 1 : i64
        %c0_i64 = arith.constant 0 : i64
        %293 = vector.transfer_read %8[%c3, %c6, %c10], %c0_i64 {permutation_map = affine_map<(d0, d1, d2) -> (0)>} : tensor<2x12x15xi64>, vector<15xi64>
        %294 = index.casts %false_5 : i1 to index
        %295 = vector.insert %cst_4, %273 [11] : f16 into vector<15xf16>
        %296 = math.round %cst_0 : f32
        %297 = arith.divf %cst_2, %cst_0 : f32
        %298 = affine.load %alloc_21[%c12, %c2, %c3] : memref<2x12x15xf16>
        %299 = arith.ori %c1777150014_i32, %c1291372147_i32 : i32
        %300 = math.expm1 %cst_4 : f16
        %301 = vector.load %25[%c1] : memref<2xf32>, vector<15xf32>
        %302 = bufferization.to_tensor %alloc_7 : memref<5xi16>
        %303 = arith.subi %false, %false : i1
        %splat_49 = tensor.splat %cst_0 : tensor<2xf32>
        %304 = math.tanh %cst_0 : f32
        %305 = arith.negf %cst_6 : f32
        %306 = index.divu %c14, %c15
        %307 = arith.cmpf oeq, %cst, %cst : f32
        %308 = arith.negf %cst_6 : f32
        %309 = bufferization.clone %alloc_14 : memref<15xf32> to memref<15xf32>
        %310 = math.fpowi %298, %c1777150014_i32 : f16, i32
        %311 = math.floor %59 : tensor<5xf32>
        %312 = vector.extract %33[1] : vector<2xi1>
        %313 = math.copysign %272, %272 : tensor<15xf16>
        %314 = arith.addi %false_5, %false : i1
        memref.copy %alloc_20, %alloc_11 : memref<2xf32> to memref<2xf32>
        %315 = arith.shli %c1777150014_i32, %c342629357_i32 : i32
        %alloc_50 = memref.alloc() : memref<15x15xi64>
        %316 = tensor.empty() : tensor<24x15xi64>
        %317 = linalg.matmul ins(%collapsed, %alloc_50 : tensor<24x15xi64>, memref<15x15xi64>) outs(%316 : tensor<24x15xi64>) -> tensor<24x15xi64>
        %318 = index.ceildivs %c14, %c4
      }
      %281 = arith.cmpf true, %cst, %cst_6 : f32
      %282 = vector.transpose %34, [0] : vector<2xi32> to vector<2xi32>
      %283 = bufferization.to_tensor %alloc_12 : memref<2x12x15xf32>
      %284 = arith.remf %cst_0, %cst_2 : f32
      %285 = arith.cmpi sle, %c342629357_i32, %c1777150014_i32 : i32
      %286 = scf.index_switch %63 -> vector<5xf16> 
      case 1 {
        %288 = index.sizeof
        %289 = index.sizeof
        %290 = arith.maxsi %c1291372147_i32, %c342629357_i32 : i32
        %291 = vector.insertelement %cst_0, %47[%c4 : index] : vector<15xf32>
        %292 = math.cos %cst_6 : f32
        %rank_49 = tensor.rank %1 : tensor<2xi1>
        %293 = vector.transpose %277, [0] : vector<2xi16> to vector<2xi16>
        %294 = arith.maxsi %c1750124934_i64, %c304038688_i64 : i64
        %295 = arith.divui %c1750124934_i64, %c304038688_i64 : i64
        %296 = affine.load %alloc_21[%c5, %c2, %c13] : memref<2x12x15xf16>
        %297 = arith.shrsi %c614625657_i32, %c342629357_i32 : i32
        %298 = arith.minf %296, %296 : f16
        %299 = math.absf %cst_4 : f16
        %300 = math.exp %cst_2 : f32
        %c1_i64 = arith.constant 1 : i64
        %301 = vector.transfer_read %collapsed[%c1, %c9], %c1_i64 : tensor<24x15xi64>, vector<15xi64>
        %302 = index.maxs %c15, %c11
        %303 = vector.broadcast %cst_4 : f16 to vector<5xf16>
        scf.yield %303 : vector<5xf16>
      }
      default {
        %288 = math.expm1 %cst_3 : f16
        %289 = math.round %59 : tensor<5xf32>
        %290 = arith.ori %c1777150014_i32, %c342629357_i32 : i32
        %291 = vector.extract_strided_slice %274 {offsets = [10], sizes = [1], strides = [1]} : vector<15xi1> to vector<1xi1>
        %292 = vector.create_mask %46, %c1, %c5 : vector<2x12x15xi1>
        %293 = math.tanh %cst_4 : f16
        %294 = arith.divsi %false_1, %false_5 : i1
        %295 = math.exp2 %cst_4 : f16
        %296 = bufferization.to_memref %2 : memref<5xi64>
        %297 = arith.cmpi ne, %c1291372147_i32, %c1777150014_i32 : i32
        vector.print %35 : vector<2xi16>
        %298 = index.ceildivs %c8, %c13
        affine.store %c8837_i16, %alloc_7[%c7] : memref<5xi16>
        %299 = arith.divsi %c8837_i16, %c8837_i16 : i16
        %300 = math.ceil %272 : tensor<15xf16>
        %301 = math.sqrt %272 : tensor<15xf16>
        %302 = vector.broadcast %cst_3 : f16 to vector<5xf16>
        scf.yield %302 : vector<5xf16>
      }
      %287 = vector.extract %61[1] : vector<2xf32>
      memref.assume_alignment %alloc_21, 8 : memref<2x12x15xf16>
      memref.alloca_scope.return %c342629357_i32 : i32
    }
    %66 = math.log10 %cst_4 : f16
    %67 = math.log10 %cst_4 : f16
    %68 = vector.splat %false_1 : vector<15xi1>
    memref.assume_alignment %alloc_8, 4 : memref<2xf16>
    %69 = vector.broadcast %cst : f32 to vector<5xf32>
    vector.transfer_write %69, %alloc_12[%c2, %c6, %c5] {permutation_map = affine_map<(d0, d1, d2) -> (d0)>} : vector<5xf32>, memref<2x12x15xf32>
    %70 = vector.extract %20[9] : vector<12xf16>
    %71 = math.ctlz %false : i1
    %72 = vector.extract %32[0] : vector<2xi16>
    %73 = vector.load %25[%c0] : memref<2xf32>, vector<15xf32>
    %74 = affine.apply affine_map<(d0, d1, d2, d3) -> (d1 + d2 - d0)>(%c4, %c8, %c11, %c5)
    %75 = arith.divsi %c614625657_i32, %65 : i32
    %76 = vector.extract_strided_slice %61 {offsets = [0], sizes = [2], strides = [1]} : vector<2xf32> to vector<2xf32>
    %77 = index.maxu %74, %c15
    %true = arith.constant true
    %false_24 = arith.constant false
    %78 = vector.transfer_read %1[%c6], %false_24 : tensor<2xi1>, vector<i1>
    %79 = vector.insertelement %cst_6, %60[%74 : index] : vector<2xf32>
    %80 = math.atan %cst : f32
    %81 = arith.subi %c1291372147_i32, %65 : i32
    %82 = arith.shrsi %c342629357_i32, %c1777150014_i32 : i32
    %83 = arith.xori %c614625657_i32, %65 : i32
    %84 = arith.negf %cst_2 : f32
    %85 = arith.minf %cst_2, %cst_6 : f32
    %86 = vector.insert %true, %33 [1] : i1 into vector<2xi1>
    %87 = bufferization.to_tensor %alloc_15 : memref<2x12x15xi16>
    %88 = arith.divf %cst, %cst_2 : f32
    %89 = math.exp2 %cst_3 : f16
    %90 = affine.apply affine_map<(d0, d1) -> ((d1 mod 16) floordiv 32)>(%74, %c10)
    %collapsed_25 = tensor.collapse_shape %collapsed [[0, 1]] : tensor<24x15xi64> into tensor<360xi64>
    %91 = vector.load %alloc_20[%c1] : memref<2xf32>, vector<2xf32>
    memref.alloca_scope  {
      %261 = affine.max affine_map<(d0) -> (-(d0 + 64))>(%c0)
      %262 = arith.ori %c304038688_i64, %c304038688_i64 : i64
      %generated = tensor.generate %c2 {
      ^bb0(%arg3: index):
        %286 = vector.transpose %42, [0] : vector<5xi1> to vector<5xi1>
        %287 = math.tanh %cst : f32
        %288 = index.ceildivs %74, %c7
        %289 = vector.create_mask %c14 : vector<5xi1>
        tensor.yield %cst_3 : f16
      } : tensor<?xf16>
      %263 = math.fma %cst_6, %cst_2, %cst_0 : f32
      %264 = math.atan %cst_0 : f32
      %collapsed_46 = tensor.collapse_shape %0 [[0, 1], [2]] : tensor<2x12x15xi1> into tensor<24x15xi1>
      %c1_i64 = arith.constant 1 : i64
      %265 = vector.transfer_read %2[%c3], %c1_i64 : tensor<5xi64>, vector<i64>
      %alloc_47 = memref.alloc() : memref<12xi64>
      %alloc_48 = memref.alloc() : memref<15x12xi64>
      %266 = linalg.generic {indexing_maps = [affine_map<(d0, d1, d2) -> (d1)>, affine_map<(d0, d1, d2) -> (d2, d1)>, affine_map<(d0, d1, d2) -> (d0, d1, d2)>], iterator_types = ["parallel", "parallel", "parallel"]} ins(%alloc_47, %alloc_48 : memref<12xi64>, memref<15x12xi64>) outs(%8 : tensor<2x12x15xi64>) {
      ^bb0(%in: i64, %in_53: i64, %out: i64):
        %286 = vector.transpose %60, [0] : vector<2xf32> to vector<2xf32>
        %287 = affine.load %alloc_10[%c10, %c14, %c5] : memref<2x12x15xi64>
        %collapsed_54 = tensor.collapse_shape %0 [[0, 1], [2]] : tensor<2x12x15xi1> into tensor<24x15xi1>
        %288 = vector.broadcast %c1750124934_i64 : i64 to vector<i64>
        %289 = vector.transfer_write %288, %2[%c15] : vector<i64>, tensor<5xi64>
        %290 = index.ceildivu %c11, %c7
        %from_elements_55 = tensor.from_elements %c1291372147_i32, %c342629357_i32, %c1291372147_i32, %c1777150014_i32, %c614625657_i32, %c1777150014_i32, %65, %c614625657_i32, %c1291372147_i32, %c1777150014_i32, %c342629357_i32, %c342629357_i32, %c1777150014_i32, %c614625657_i32, %c1291372147_i32, %65, %c614625657_i32, %c1291372147_i32, %c614625657_i32, %c342629357_i32, %65, %c1291372147_i32, %c342629357_i32, %c1777150014_i32, %c1777150014_i32, %c342629357_i32, %c342629357_i32, %c1777150014_i32, %c1777150014_i32, %c342629357_i32, %c614625657_i32, %c1777150014_i32, %65, %c1291372147_i32, %65, %65, %c1777150014_i32, %c1291372147_i32, %c342629357_i32, %c342629357_i32, %c1291372147_i32, %c614625657_i32, %c1777150014_i32, %c614625657_i32, %c1291372147_i32, %65, %c1777150014_i32, %c614625657_i32, %c342629357_i32, %65, %c1291372147_i32, %65, %c614625657_i32, %c1291372147_i32, %c1291372147_i32, %c1291372147_i32, %65, %65, %c342629357_i32, %65, %c614625657_i32, %c614625657_i32, %c614625657_i32, %65, %c1291372147_i32, %65, %c1291372147_i32, %65, %c614625657_i32, %c1291372147_i32, %c1777150014_i32, %65, %c1291372147_i32, %c614625657_i32, %c1291372147_i32, %65, %65, %c342629357_i32, %65, %c1291372147_i32, %c1777150014_i32, %c614625657_i32, %c1777150014_i32, %c1291372147_i32, %65, %c1291372147_i32, %c614625657_i32, %c1777150014_i32, %65, %c1777150014_i32, %c1291372147_i32, %c614625657_i32, %c1291372147_i32, %c1291372147_i32, %c342629357_i32, %65, %c342629357_i32, %c1777150014_i32, %c342629357_i32, %c1291372147_i32, %c342629357_i32, %c1291372147_i32, %c1777150014_i32, %65, %c614625657_i32, %c1291372147_i32, %c1777150014_i32, %c1291372147_i32, %c1777150014_i32, %c342629357_i32, %c1291372147_i32, %c1291372147_i32, %c342629357_i32, %c614625657_i32, %c614625657_i32, %c1777150014_i32, %c342629357_i32, %c1291372147_i32, %c1777150014_i32, %c614625657_i32, %65, %c614625657_i32, %65, %c1291372147_i32, %c1291372147_i32, %c1777150014_i32, %c1291372147_i32, %c614625657_i32, %65, %65, %c1777150014_i32, %c1777150014_i32, %c1291372147_i32, %c1777150014_i32, %65, %c614625657_i32, %c1291372147_i32, %c614625657_i32, %c1291372147_i32, %c1777150014_i32, %65, %65, %c614625657_i32, %c1291372147_i32, %c614625657_i32, %c1291372147_i32, %c342629357_i32, %65, %c1777150014_i32, %c1777150014_i32, %c1291372147_i32, %65, %c1291372147_i32, %c614625657_i32, %65, %c1777150014_i32, %c1291372147_i32, %c1291372147_i32, %c1291372147_i32, %c342629357_i32, %65, %c1291372147_i32, %c1291372147_i32, %c1291372147_i32, %c1777150014_i32, %c1291372147_i32, %c342629357_i32, %65, %c1777150014_i32, %c342629357_i32, %c614625657_i32, %65, %c342629357_i32, %65, %c1777150014_i32, %c1777150014_i32, %c1777150014_i32, %c614625657_i32, %c1777150014_i32, %c1291372147_i32, %c1291372147_i32, %65, %c1777150014_i32, %c614625657_i32, %c342629357_i32, %65, %c614625657_i32, %c1291372147_i32, %c342629357_i32, %65, %c1777150014_i32, %c614625657_i32, %c614625657_i32, %c1777150014_i32, %c1777150014_i32, %c1777150014_i32, %c1291372147_i32, %c614625657_i32, %c342629357_i32, %c1777150014_i32, %c342629357_i32, %c1777150014_i32, %c1291372147_i32, %c614625657_i32, %c614625657_i32, %c342629357_i32, %c1777150014_i32, %c342629357_i32, %c1291372147_i32, %65, %c1777150014_i32, %c1291372147_i32, %c614625657_i32, %c1291372147_i32, %c1291372147_i32, %c1777150014_i32, %65, %c1291372147_i32, %c342629357_i32, %65, %c342629357_i32, %c1777150014_i32, %65, %c614625657_i32, %c614625657_i32, %c342629357_i32, %c342629357_i32, %c1291372147_i32, %c614625657_i32, %c1291372147_i32, %c1777150014_i32, %c1291372147_i32, %c1777150014_i32, %c614625657_i32, %c1777150014_i32, %65, %c1291372147_i32, %c1291372147_i32, %c614625657_i32, %c1777150014_i32, %c614625657_i32, %c614625657_i32, %65, %c342629357_i32, %c1291372147_i32, %c614625657_i32, %c1291372147_i32, %c1291372147_i32, %c1291372147_i32, %c614625657_i32, %c1291372147_i32, %c342629357_i32, %c614625657_i32, %65, %c342629357_i32, %c1777150014_i32, %c342629357_i32, %c342629357_i32, %c1291372147_i32, %c614625657_i32, %65, %c342629357_i32, %c1777150014_i32, %65, %c1291372147_i32, %c1291372147_i32, %c1777150014_i32, %c614625657_i32, %c342629357_i32, %65, %c1777150014_i32, %c1291372147_i32, %c342629357_i32, %65, %c614625657_i32, %c1777150014_i32, %c1291372147_i32, %65, %65, %c1777150014_i32, %c614625657_i32, %c1291372147_i32, %c1291372147_i32, %c342629357_i32, %c342629357_i32, %c1291372147_i32, %c614625657_i32, %c614625657_i32, %c342629357_i32, %c614625657_i32, %c614625657_i32, %c342629357_i32, %65, %c614625657_i32, %65, %c1291372147_i32, %c614625657_i32, %c614625657_i32, %65, %c614625657_i32, %c614625657_i32, %c1777150014_i32, %c342629357_i32, %c1291372147_i32, %65, %65, %c1291372147_i32, %65, %c1777150014_i32, %c342629357_i32, %c1777150014_i32, %c1291372147_i32, %65, %c614625657_i32, %c1777150014_i32, %c614625657_i32, %c614625657_i32, %c614625657_i32, %c1291372147_i32, %c342629357_i32, %c342629357_i32, %c1291372147_i32, %c614625657_i32, %c342629357_i32, %c614625657_i32, %c614625657_i32, %65, %65, %c1777150014_i32, %c614625657_i32, %c1777150014_i32, %c1291372147_i32, %c1777150014_i32, %c614625657_i32, %c614625657_i32, %c1291372147_i32, %c1291372147_i32, %c614625657_i32, %c342629357_i32, %c342629357_i32, %c342629357_i32, %c1291372147_i32, %c1777150014_i32, %c1777150014_i32, %65, %65, %c342629357_i32, %c1777150014_i32, %c342629357_i32, %c342629357_i32, %c1777150014_i32, %c1777150014_i32, %c614625657_i32, %c342629357_i32, %c1777150014_i32, %65, %65, %c614625657_i32, %c614625657_i32, %c1777150014_i32 : tensor<2x12x15xi32>
        %291 = arith.shrui %287, %in_53 : i64
        %from_elements_56 = tensor.from_elements %out, %c1_i64, %c304038688_i64, %287, %c1750124934_i64, %c1750124934_i64, %287, %287, %c304038688_i64, %in, %c1_i64, %in, %c304038688_i64, %c304038688_i64, %c304038688_i64 : tensor<15xi64>
        %292 = vector.load %alloc_10[%c1, %c9, %c8] : memref<2x12x15xi64>, vector<2x12x15xi64>
        memref.assume_alignment %alloc_21, 4 : memref<2x12x15xf16>
        %293 = math.round %cst_2 : f32
        %294 = arith.minf %cst_4, %cst_3 : f16
        %295 = arith.maxsi %false_1, %false : i1
        %296 = vector.broadcast %c11 : index to vector<2xindex>
        vector.scatter %alloc_14[%c1] [%296], %33, %61 : memref<15xf32>, vector<2xindex>, vector<2xi1>, vector<2xf32>
        %297 = arith.remsi %in_53, %out : i64
        %298 = arith.subi %false_1, %false_1 : i1
        %299 = index.sizeof
        %300 = math.powf %cst_3, %cst_3 : f16
        %from_elements_57 = tensor.from_elements %true, %false_1, %false_1, %false, %true : tensor<5xi1>
        %301 = math.ipowi %7, %18 : tensor<15xi1>
        %302 = arith.divsi %c304038688_i64, %287 : i64
        %303 = index.divs %c3, %90
        %304 = math.ipowi %3, %12 : tensor<15xi16>
        %305 = index.mul %c0, %c6
        %306 = math.powf %59, %59 : tensor<5xf32>
        %307 = arith.divf %cst_4, %cst_4 : f16
        %308 = index.sizeof
        %alloc_58 = memref.alloc() : memref<2x12x15xf32>
        %309 = arith.divf %cst_4, %cst_3 : f16
        %310 = math.rsqrt %cst_2 : f32
        %311 = math.copysign %cst_3, %cst_4 : f16
        %312 = arith.muli %c1_i64, %c1750124934_i64 : i64
        linalg.yield %in_53 : i64
      } -> tensor<2x12x15xi64>
      %267 = scf.if %true -> (memref<2x12x15xi1>) {
        %286 = arith.divui %c8837_i16, %c8837_i16 : i16
        %287 = bufferization.clone %alloc_7 : memref<5xi16> to memref<5xi16>
        %288 = arith.andi %c342629357_i32, %65 : i32
        %289 = math.tan %cst_2 : f32
        %290 = vector.broadcast %28 : index to vector<5xindex>
        %291 = vector.broadcast %c8837_i16 : i16 to vector<5xi16>
        vector.scatter %alloc_16[%c10] [%290], %42, %291 : memref<15xi16>, vector<5xindex>, vector<5xi1>, vector<5xi16>
        %292 = math.absi %c1750124934_i64 : i64
        %293 = vector.flat_transpose %34 {columns = 1 : i32, rows = 2 : i32} : vector<2xi32> -> vector<2xi32>
        %294 = memref.atomic_rmw mulf %cst_0, %alloc_20[%c0] : (f32, memref<2xf32>) -> f32
        %alloc_53 = memref.alloc() : memref<2x12x15xi1>
        scf.yield %alloc_53 : memref<2x12x15xi1>
      } else {
        %286 = vector.transpose %61, [0] : vector<2xf32> to vector<2xf32>
        %287 = memref.load %alloc_13[%c0] : memref<5xf32>
        %288 = math.absi %c1777150014_i32 : i32
        %289 = math.ipowi %8, %8 : tensor<2x12x15xi64>
        %290 = math.round %cst_3 : f16
        %291 = math.ipowi %31, %31 : tensor<2xi16>
        %292 = vector.insert %c1291372147_i32, %34 [1] : i32 into vector<2xi32>
        %293 = vector.shuffle %73, %47 [0, 1, 2, 4, 7, 9, 10, 13, 18, 19, 21, 22, 23, 24, 25, 27] : vector<15xf32>, vector<15xf32>
        %alloc_53 = memref.alloc() : memref<2x12x15xi1>
        scf.yield %alloc_53 : memref<2x12x15xi1>
      }
      %268 = index.ceildivu %46, %c10
      %269 = arith.subi %false_5, %false : i1
      scf.index_switch %90 
      case 1 {
        %286 = math.log10 %cst_3 : f16
        %287 = arith.muli %false_1, %false_5 : i1
        %288 = index.casts %63 : index to i32
        %289 = math.fma %cst_4, %cst_3, %cst_3 : f16
        %290 = index.sub %c15, %c5
        %splat_53 = tensor.splat %cst_6 : tensor<15xf32>
        %291 = index.divu %46, %c15
        %292 = vector.extract %42[2] : vector<5xi1>
        %293 = math.sqrt %cst : f32
        vector.print %35 : vector<2xi16>
        %294 = math.ipowi %1, %1 : tensor<2xi1>
        %295 = math.cos %cst_2 : f32
        %296 = math.tanh %cst_2 : f32
        %297 = arith.cmpi uge, %true, %false_5 : i1
        vector.print %47 : vector<15xf32>
        %298 = arith.shrsi %c1777150014_i32, %65 : i32
        scf.yield
      }
      default {
        %286 = math.fma %59, %59, %59 : tensor<5xf32>
        %287 = arith.shli %c1_i64, %c1_i64 : i64
        %288 = arith.divf %cst_6, %cst_0 : f32
        %289 = arith.ori %c614625657_i32, %c1291372147_i32 : i32
        %c0_i64_53 = arith.constant 0 : i64
        %c0_i64_54 = arith.constant 0 : i64
        %290 = vector.transfer_read %15[%c5], %c0_i64_54 : tensor<15xi64>, vector<i64>
        %291 = bufferization.to_memref %1 : memref<2xi1>
        %292 = math.roundeven %cst_2 : f32
        vector.print %32 : vector<2xi16>
        %293 = vector.flat_transpose %91 {columns = 1 : i32, rows = 2 : i32} : vector<2xf32> -> vector<2xf32>
        %294 = arith.shrsi %true, %false_1 : i1
        %295 = arith.remsi %false_1, %false : i1
        %cst_55 = arith.constant 1.15384461E+9 : f32
        %296 = arith.divsi %c1750124934_i64, %c1_i64 : i64
        %297 = arith.cmpi ne, %c1291372147_i32, %65 : i32
        %298 = math.round %cst_3 : f16
        %299 = index.maxu %74, %77
      }
      %270 = memref.alloca_scope  -> (memref<5xi32>) {
        %286 = index.maxu %c11, %46
        memref.store %cst_3, %alloc_18[%c0] : memref<5xf16>
        %287 = arith.shrsi %c1750124934_i64, %c304038688_i64 : i64
        %from_elements_53 = tensor.from_elements %false_1, %false_1 : tensor<2xi1>
        %288 = math.powf %cst_4, %cst_4 : f16
        %289 = arith.subi %c8837_i16, %c8837_i16 : i16
        %290 = index.divu %c13, %46
        %collapsed_54 = tensor.collapse_shape %8 [[0, 1], [2]] : tensor<2x12x15xi64> into tensor<24x15xi64>
        %291 = arith.muli %c1750124934_i64, %c304038688_i64 : i64
        %292 = memref.atomic_rmw assign %cst_2, %alloc_14[%c2] : (f32, memref<15xf32>) -> f32
        %293 = arith.cmpi sgt, %c614625657_i32, %c1291372147_i32 : i32
        %from_elements_55 = tensor.from_elements %c1_i64, %c304038688_i64, %c304038688_i64, %c1_i64, %c1750124934_i64, %c1_i64, %c1_i64, %c1_i64, %c1_i64, %c1_i64, %c304038688_i64, %c1_i64, %c304038688_i64, %c1750124934_i64, %c1_i64, %c1_i64, %c1750124934_i64, %c1750124934_i64, %c1_i64, %c1750124934_i64, %c304038688_i64, %c1_i64, %c1_i64, %c304038688_i64, %c1750124934_i64, %c304038688_i64, %c1750124934_i64, %c1_i64, %c304038688_i64, %c1_i64, %c304038688_i64, %c304038688_i64, %c1_i64, %c1_i64, %c304038688_i64, %c1_i64, %c304038688_i64, %c1_i64, %c1_i64, %c304038688_i64, %c304038688_i64, %c1750124934_i64, %c1_i64, %c1750124934_i64, %c1750124934_i64, %c304038688_i64, %c1750124934_i64, %c1750124934_i64, %c304038688_i64, %c1_i64, %c1750124934_i64, %c1750124934_i64, %c304038688_i64, %c1_i64, %c1750124934_i64, %c1750124934_i64, %c1_i64, %c1_i64, %c1_i64, %c1750124934_i64, %c304038688_i64, %c304038688_i64, %c304038688_i64, %c1750124934_i64, %c1_i64, %c304038688_i64, %c304038688_i64, %c304038688_i64, %c1750124934_i64, %c1750124934_i64, %c304038688_i64, %c1750124934_i64, %c1750124934_i64, %c304038688_i64, %c1_i64, %c1_i64, %c1_i64, %c1_i64, %c1750124934_i64, %c304038688_i64, %c1_i64, %c1750124934_i64, %c1_i64, %c304038688_i64, %c1_i64, %c1750124934_i64, %c304038688_i64, %c304038688_i64, %c1750124934_i64, %c1_i64, %c304038688_i64, %c304038688_i64, %c1750124934_i64, %c304038688_i64, %c1750124934_i64, %c1_i64, %c1750124934_i64, %c1_i64, %c1750124934_i64, %c1_i64, %c1750124934_i64, %c304038688_i64, %c1_i64, %c304038688_i64, %c1750124934_i64, %c1_i64, %c1_i64, %c1750124934_i64, %c1_i64, %c304038688_i64, %c1_i64, %c1750124934_i64, %c1_i64, %c304038688_i64, %c1750124934_i64, %c304038688_i64, %c1_i64, %c1_i64, %c1750124934_i64, %c1_i64, %c1750124934_i64, %c1750124934_i64, %c1_i64, %c304038688_i64, %c1_i64, %c1_i64, %c1750124934_i64, %c304038688_i64, %c304038688_i64, %c1750124934_i64, %c1750124934_i64, %c1750124934_i64, %c1750124934_i64, %c1750124934_i64, %c1750124934_i64, %c304038688_i64, %c1750124934_i64, %c304038688_i64, %c1750124934_i64, %c304038688_i64, %c1750124934_i64, %c304038688_i64, %c304038688_i64, %c304038688_i64, %c1750124934_i64, %c1_i64, %c1_i64, %c304038688_i64, %c1_i64, %c1_i64, %c1750124934_i64, %c1_i64, %c1750124934_i64, %c1750124934_i64, %c304038688_i64, %c1_i64, %c1750124934_i64, %c1750124934_i64, %c304038688_i64, %c1750124934_i64, %c1750124934_i64, %c1750124934_i64, %c1_i64, %c1_i64, %c304038688_i64, %c1750124934_i64, %c1_i64, %c1_i64, %c1_i64, %c1_i64, %c1_i64, %c304038688_i64, %c304038688_i64, %c1750124934_i64, %c1750124934_i64, %c1750124934_i64, %c1750124934_i64, %c1750124934_i64, %c1_i64, %c1750124934_i64, %c1750124934_i64, %c1_i64, %c1_i64, %c304038688_i64, %c1750124934_i64, %c1750124934_i64, %c1_i64, %c1750124934_i64, %c1750124934_i64, %c1_i64, %c1_i64, %c1_i64, %c1750124934_i64, %c304038688_i64, %c304038688_i64, %c1750124934_i64, %c304038688_i64, %c1750124934_i64, %c1_i64, %c304038688_i64, %c1_i64, %c304038688_i64, %c1750124934_i64, %c304038688_i64, %c1750124934_i64, %c1750124934_i64, %c1750124934_i64, %c1_i64, %c1_i64, %c1750124934_i64, %c304038688_i64, %c304038688_i64, %c304038688_i64, %c1_i64, %c1_i64, %c304038688_i64, %c1_i64, %c1750124934_i64, %c1_i64, %c1_i64, %c1750124934_i64, %c1750124934_i64, %c1750124934_i64, %c1_i64, %c304038688_i64, %c304038688_i64, %c304038688_i64, %c304038688_i64, %c1_i64, %c1_i64, %c1750124934_i64, %c1_i64, %c1_i64, %c304038688_i64, %c1750124934_i64, %c1_i64, %c304038688_i64, %c304038688_i64, %c1750124934_i64, %c304038688_i64, %c1750124934_i64, %c304038688_i64, %c304038688_i64, %c304038688_i64, %c1750124934_i64, %c1_i64, %c1_i64, %c1750124934_i64, %c1_i64, %c304038688_i64, %c1750124934_i64, %c1_i64, %c1750124934_i64, %c1_i64, %c1750124934_i64, %c1750124934_i64, %c1750124934_i64, %c304038688_i64, %c1_i64, %c304038688_i64, %c304038688_i64, %c304038688_i64, %c1750124934_i64, %c304038688_i64, %c1750124934_i64, %c304038688_i64, %c1750124934_i64, %c1750124934_i64, %c1_i64, %c1_i64, %c1_i64, %c1_i64, %c304038688_i64, %c1_i64, %c1750124934_i64, %c1750124934_i64, %c1_i64, %c1_i64, %c1750124934_i64, %c1750124934_i64, %c1750124934_i64, %c304038688_i64, %c1750124934_i64, %c304038688_i64, %c1750124934_i64, %c1_i64, %c304038688_i64, %c1_i64, %c1750124934_i64, %c1750124934_i64, %c1750124934_i64, %c1_i64, %c304038688_i64, %c304038688_i64, %c1_i64, %c1750124934_i64, %c1_i64, %c1_i64, %c1_i64, %c1750124934_i64, %c1_i64, %c1_i64, %c1_i64, %c1750124934_i64, %c1750124934_i64, %c304038688_i64, %c1750124934_i64, %c1750124934_i64, %c304038688_i64, %c304038688_i64, %c1750124934_i64, %c1750124934_i64, %c1_i64, %c1750124934_i64, %c304038688_i64, %c304038688_i64, %c1750124934_i64, %c1750124934_i64, %c1750124934_i64, %c1_i64, %c1750124934_i64, %c1750124934_i64, %c1750124934_i64, %c1_i64, %c1_i64, %c304038688_i64, %c1750124934_i64, %c1750124934_i64, %c304038688_i64, %c304038688_i64, %c1750124934_i64, %c1_i64, %c1_i64, %c1750124934_i64, %c1_i64, %c1750124934_i64, %c1_i64, %c1_i64, %c1750124934_i64, %c1_i64, %c1_i64, %c1750124934_i64, %c304038688_i64, %c1_i64, %c304038688_i64, %c304038688_i64, %c1_i64, %c1_i64, %c1_i64, %c304038688_i64, %c304038688_i64, %c1_i64, %c304038688_i64, %c304038688_i64, %c1_i64, %c1_i64, %c1_i64, %c1750124934_i64, %c304038688_i64, %c1750124934_i64 : tensor<2x12x15xi64>
        %294 = math.exp2 %cst_4 : f16
        %295 = vector.splat %c13 : vector<15xindex>
        %296 = memref.realloc %alloc_7 : memref<5xi16> to memref<15xi16>
        %297 = arith.negf %cst_0 : f32
        %298 = math.log10 %cst_2 : f32
        %299 = arith.divui %c1_i64, %c1750124934_i64 : i64
        %300 = affine.load %alloc_22[%c2] : memref<15xi64>
        %301 = vector.broadcast %cst_4 : f16 to vector<12x12xf16>
        %302 = vector.outerproduct %20, %20, %301 {kind = #vector.kind<mul>} : vector<12xf16>, vector<12xf16>
        %303 = math.exp2 %cst : f32
        %rank_56 = tensor.rank %3 : tensor<15xi16>
        %304 = vector.broadcast %c304038688_i64 : i64 to vector<12xi64>
        %305 = vector.broadcast %false_5 : i1 to vector<12xi1>
        %306 = vector.maskedload %29[], %305, %304 : memref<i64>, vector<12xi1>, vector<12xi64> into vector<12xi64>
        %307 = arith.divsi %c1777150014_i32, %c342629357_i32 : i32
        memref.copy %alloc_17, %alloc_9 : memref<2xi16> to memref<2xi16>
        %alloc_57 = memref.alloc() : memref<5xi64>
        memref.copy %alloc_19, %alloc_57 : memref<5xi64> to memref<5xi64>
        %308 = index.casts %c304038688_i64 : i64 to index
        %309 = arith.cmpf uno, %cst_2, %cst_6 : f32
        %splat_58 = tensor.splat %c1750124934_i64 : tensor<15xi64>
        %310 = index.mul %c8, %261
        %311 = bufferization.clone %alloc_14 : memref<15xf32> to memref<15xf32>
        %312 = arith.divui %true, %false_1 : i1
        %alloc_59 = memref.alloc() : memref<5xi32>
        memref.alloca_scope.return %alloc_59 : memref<5xi32>
      }
      %alloc_49 = memref.alloc() : memref<2x12x15xf16>
      memref.copy %alloc_21, %alloc_49 : memref<2x12x15xf16> to memref<2x12x15xf16>
      %271 = math.tan %59 : tensor<5xf32>
      %272 = math.copysign %59, %59 : tensor<5xf32>
      %273 = arith.ceildivsi %true, %true : i1
      %c0_i64 = arith.constant 0 : i64
      %c0_i64_50 = arith.constant 0 : i64
      %274 = vector.transfer_read %10[%268], %c0_i64_50 : tensor<5xi64>, vector<i64>
      %275 = vector.transpose %33, [0] : vector<2xi1> to vector<2xi1>
      %276 = index.mul %c5, %90
      %277 = index.ceildivu %90, %268
      %278 = index.sizeof
      %279 = bufferization.to_tensor %alloc : memref<2xf32>
      %280 = memref.alloca_scope  -> (memref<15xf32>) {
        %286 = arith.ori %false_1, %false_1 : i1
        %287 = index.sizeof
        %288 = tensor.empty() : tensor<15x15xi1>
        %289 = tensor.empty() : tensor<24x15xi1>
        %290 = linalg.matmul ins(%collapsed_46, %288 : tensor<24x15xi1>, tensor<15x15xi1>) outs(%289 : tensor<24x15xi1>) -> tensor<24x15xi1>
        %291 = math.round %cst_3 : f16
        %292 = memref.atomic_rmw minf %cst_4, %alloc_18[%c2] : (f16, memref<5xf16>) -> f16
        %293 = bufferization.clone %alloc_21 : memref<2x12x15xf16> to memref<2x12x15xf16>
        %294 = vector.shuffle %60, %60 [0, 1, 2] : vector<2xf32>, vector<2xf32>
        %295 = math.floor %cst_4 : f16
        %296 = math.exp2 %cst_0 : f32
        %297 = math.expm1 %cst_3 : f16
        %298 = index.casts %c12 : index to i32
        %299 = arith.remsi %c1291372147_i32, %c1291372147_i32 : i32
        vector.print %60 : vector<2xf32>
        %300 = math.atan %279 : tensor<2xf32>
        %301 = vector.transpose %76, [0] : vector<2xf32> to vector<2xf32>
        %302 = math.fma %cst_4, %cst_4, %cst_3 : f16
        %303 = arith.subi %c0_i64, %c0_i64 : i64
        %304 = index.sizeof
        %305 = affine.apply affine_map<(d0, d1, d2, d3) -> (d1 * -2 - 1)>(%c0, %c15, %304, %c1)
        %306 = math.cttz %4 : tensor<15xi32>
        %307 = vector.extract_strided_slice %73 {offsets = [7], sizes = [2], strides = [1]} : vector<15xf32> to vector<2xf32>
        %308 = vector.extract_strided_slice %33 {offsets = [0], sizes = [2], strides = [1]} : vector<2xi1> to vector<2xi1>
        %309 = vector.broadcast %c8 : index to vector<15xindex>
        %310 = vector.broadcast %false_5 : i1 to vector<15xi1>
        vector.scatter %alloc_13[%c3] [%309], %310, %47 : memref<5xf32>, vector<15xindex>, vector<15xi1>, vector<15xf32>
        %311 = vector.reduction <mul>, %76 : vector<2xf32> into f32
        %312 = index.divu %28, %c12
        %313 = arith.addi %c1777150014_i32, %c1291372147_i32 : i32
        %314 = arith.divui %true, %false : i1
        %315 = math.copysign %cst_3, %cst_4 : f16
        %splat_53 = tensor.splat %cst_6 : tensor<5xf32>
        %alloc_54 = memref.alloc() : memref<5xi64>
        memref.copy %alloc_19, %alloc_54 : memref<5xi64> to memref<5xi64>
        %316 = memref.load %25[%c0] : memref<2xf32>
        %317 = arith.remsi %c8837_i16, %c8837_i16 : i16
        memref.alloca_scope.return %alloc_14 : memref<15xf32>
      }
      %281 = index.add %c3, %c6
      %282 = math.log10 %cst : f32
      %283 = arith.divf %cst_0, %cst_6 : f32
      %cast_51 = tensor.cast %11 : tensor<15xi64> to tensor<?xi64>
      scf.if %false {
        %286 = arith.divf %cst_4, %cst_3 : f16
        %287 = arith.andi %c8837_i16, %c8837_i16 : i16
        %288 = vector.flat_transpose %20 {columns = 3 : i32, rows = 4 : i32} : vector<12xf16> -> vector<12xf16>
        %289 = arith.remsi %c1_i64, %c1750124934_i64 : i64
        %290 = arith.mulf %cst_4, %cst_3 : f16
        %291 = index.mul %c4, %c1
        %292 = math.powf %cst_4, %cst_4 : f16
        %293 = vector.create_mask %276 : vector<5xi1>
      } else {
        %286 = math.rsqrt %279 : tensor<2xf32>
        %287 = index.sub %c7, %c5
        %288 = math.rsqrt %59 : tensor<5xf32>
        %289 = index.casts %c614625657_i32 : i32 to index
        %290 = arith.cmpf oeq, %cst_2, %cst_2 : f32
        %291 = arith.cmpi ne, %c1291372147_i32, %c614625657_i32 : i32
        %292 = arith.minui %c8837_i16, %c8837_i16 : i16
        bufferization.dealloc_tensor %cast_51 : tensor<?xi64>
      }
      %cast_52 = tensor.cast %7 : tensor<15xi1> to tensor<?xi1>
      %284 = vector.splat %c7 : vector<2x12x15xindex>
      %285 = index.add %c1, %c8
    }
    %92 = arith.muli %c1750124934_i64, %c304038688_i64 : i64
    %93 = math.log2 %cst_3 : f16
    %94 = vector.splat %c8837_i16 : vector<2x12x15xi16>
    %95 = index.divs %c6, %c8
    %96 = math.absi %6 : tensor<5xi16>
    %97 = math.floor %cst : f32
    %98 = memref.realloc %alloc_14 : memref<15xf32> to memref<15xf32>
    %99 = affine.apply affine_map<(d0) -> (d0 + d0 floordiv 128 - d0 floordiv 128)>(%c6)
    %100 = math.round %cst_2 : f32
    %from_elements = tensor.from_elements %c1750124934_i64, %c1750124934_i64 : tensor<2xi64>
    %101 = math.powf %cst_6, %cst_2 : f32
    %cast_26 = tensor.cast %2 : tensor<5xi64> to tensor<?xi64>
    %102 = arith.addi %false_1, %false_5 : i1
    %103 = math.log %cst_0 : f32
    %104 = vector.broadcast %c7 : index to vector<2xindex>
    vector.scatter %alloc_11[%c0] [%104], %33, %76 : memref<2xf32>, vector<2xindex>, vector<2xi1>, vector<2xf32>
    %105 = vector.insert %cst_2, %60 [1] : f32 into vector<2xf32>
    %106 = affine.load %29[] : memref<i64>
    %107 = index.sizeof
    %108 = memref.atomic_rmw assign %106, %alloc_22[%c7] : (i64, memref<15xi64>) -> i64
    %alloca = memref.alloca() : memref<15xi16>
    %109 = arith.ceildivsi %65, %c342629357_i32 : i32
    %110 = index.ceildivu %c10, %c5
    %111 = index.divu %c0, %c0
    %112 = math.absf %cst_4 : f16
    %113 = vector.shuffle %61, %91 [2, 3] : vector<2xf32>, vector<2xf32>
    %114 = math.atan2 %cst_6, %cst_2 : f32
    %alloc_27 = memref.alloc() : memref<i64>
    memref.copy %29, %alloc_27 : memref<i64> to memref<i64>
    %115 = index.sizeof
    %116 = index.sizeof
    %alloc_28 = memref.alloc() : memref<12xi64>
    %117 = linalg.generic {indexing_maps = [affine_map<(d0, d1, d2) -> (d1)>, affine_map<(d0, d1, d2) -> (d0, d1, d2)>], iterator_types = ["parallel", "parallel", "parallel"]} ins(%alloc_28 : memref<12xi64>) outs(%8 : tensor<2x12x15xi64>) {
    ^bb0(%in: i64, %out: i64):
      %261 = arith.addi %c342629357_i32, %c1777150014_i32 : i32
      %splat_46 = tensor.splat %c304038688_i64 : tensor<5xi64>
      %from_elements_47 = tensor.from_elements %false, %false, %false_5, %true, %false, %false_5, %false_1, %true, %false_1, %true, %false, %false, %true, %false, %false_5 : tensor<15xi1>
      %262 = arith.shrui %false_1, %false_1 : i1
      vector.print %33 : vector<2xi1>
      %cast_48 = tensor.cast %2 : tensor<5xi64> to tensor<?xi64>
      %263 = arith.xori %c342629357_i32, %c1777150014_i32 : i32
      %264 = tensor.empty() : tensor<12xi1>
      %265 = tensor.empty() : tensor<12x15xi1>
      %266 = linalg.generic {indexing_maps = [affine_map<(d0, d1, d2) -> (d0)>, affine_map<(d0, d1, d2) -> (d1)>, affine_map<(d0, d1, d2) -> (d1, d2)>, affine_map<(d0, d1, d2) -> (d0, d1, d2)>], iterator_types = ["parallel", "parallel", "parallel"]} ins(%1, %264, %265 : tensor<2xi1>, tensor<12xi1>, tensor<12x15xi1>) outs(%0 : tensor<2x12x15xi1>) {
      ^bb0(%in_52: i1, %in_53: i1, %in_54: i1, %out_55: i1):
        %alloc_56 = memref.alloc() : memref<15x15xi64>
        %289 = tensor.empty() : tensor<24x15xi64>
        %290 = linalg.matmul ins(%collapsed, %alloc_56 : tensor<24x15xi64>, memref<15x15xi64>) outs(%289 : tensor<24x15xi64>) -> tensor<24x15xi64>
        %alloc_57 = memref.alloc() : memref<2x12x15xi16>
        memref.copy %alloc_15, %alloc_57 : memref<2x12x15xi16> to memref<2x12x15xi16>
        %alloc_58 = memref.alloc() : memref<5xi16>
        memref.copy %alloc_7, %alloc_58 : memref<5xi16> to memref<5xi16>
        %291 = index.ceildivu %116, %116
        %alloc_59 = memref.alloc() : memref<2x12x15xi32>
        %292 = arith.remui %false_1, %false_1 : i1
        %293 = math.absf %cst_2 : f32
        %294 = math.floor %cst_0 : f32
        %295 = math.sqrt %59 : tensor<5xf32>
        %296 = index.maxs %c15, %c13
        %297 = arith.minui %in_52, %false_5 : i1
        %298 = index.mul %63, %c8
        %299 = index.sizeof
        %300 = vector.broadcast %cst_4 : f16 to vector<5x15xf16>
        %301 = vector.broadcast %cst_4 : f16 to vector<5xf16>
        %dest, %accumulated_value = vector.scan <minf>, %300, %301 {inclusive = false, reduction_dim = 1 : i64} : vector<5x15xf16>, vector<5xf16>
        %splat_60 = tensor.splat %cst_4 : tensor<15xf16>
        %302 = arith.remf %cst, %cst_0 : f32
        %303 = arith.minf %cst_3, %cst_4 : f16
        %304 = vector.broadcast %106 : i64 to vector<2xi64>
        %305 = vector.maskedload %alloc_22[%c13], %33, %304 : memref<15xi64>, vector<2xi1>, vector<2xi64> into vector<2xi64>
        memref.store %c8837_i16, %alloc_9[%c1] : memref<2xi16>
        %306 = vector.contract {indexing_maps = [affine_map<(d0) -> (d0)>, affine_map<(d0) -> (d0)>, affine_map<(d0) -> ()>], iterator_types = ["reduction"], kind = #vector.kind<add>} %73, %73, %cst_6 : vector<15xf32>, vector<15xf32> into f32
        %307 = math.tan %cst_3 : f16
        %308 = math.round %cst_4 : f16
        %309 = arith.addf %cst_2, %cst_6 : f32
        %310 = arith.andi %out, %106 : i64
        %c164498954_i32 = arith.constant 164498954 : i32
        %311 = arith.cmpi ne, %65, %c614625657_i32 : i32
        %312 = vector.broadcast %c9 : index to vector<2xindex>
        vector.scatter %alloc_10[%c1, %c2, %c12] [%312], %33, %305 : memref<2x12x15xi64>, vector<2xindex>, vector<2xi1>, vector<2xi64>
        %313 = index.ceildivs %c13, %115
        %314 = arith.divsi %106, %out : i64
        %315 = arith.shli %c342629357_i32, %c614625657_i32 : i32
        %316 = arith.shrui %c614625657_i32, %c1291372147_i32 : i32
        %317 = vector.transpose %20, [0] : vector<12xf16> to vector<12xf16>
        linalg.yield %false : i1
      } -> tensor<2x12x15xi1>
      %splat_49 = tensor.splat %true : tensor<15xi1>
      %267 = arith.divui %c8837_i16, %c8837_i16 : i16
      %268 = index.mul %107, %c13
      %269 = bufferization.to_tensor %alloc_7 : memref<5xi16>
      %270 = math.log %cst_3 : f16
      %from_elements_50 = tensor.from_elements %cst_3, %cst_3, %cst_3, %cst_3, %cst_4, %cst_4, %cst_3, %cst_4, %cst_3, %cst_4, %cst_3, %cst_3, %cst_4, %cst_4, %cst_3, %cst_4, %cst_4, %cst_3, %cst_3, %cst_4, %cst_3, %cst_3, %cst_3, %cst_4, %cst_4, %cst_4, %cst_3, %cst_3, %cst_4, %cst_4, %cst_4, %cst_3, %cst_3, %cst_3, %cst_3, %cst_3, %cst_3, %cst_4, %cst_3, %cst_3, %cst_3, %cst_3, %cst_3, %cst_4, %cst_3, %cst_3, %cst_4, %cst_3, %cst_3, %cst_3, %cst_3, %cst_4, %cst_4, %cst_3, %cst_3, %cst_4, %cst_3, %cst_3, %cst_3, %cst_4, %cst_4, %cst_4, %cst_3, %cst_4, %cst_3, %cst_3, %cst_3, %cst_3, %cst_3, %cst_3, %cst_3, %cst_4, %cst_4, %cst_4, %cst_3, %cst_3, %cst_4, %cst_4, %cst_4, %cst_3, %cst_4, %cst_4, %cst_3, %cst_3, %cst_4, %cst_3, %cst_3, %cst_3, %cst_4, %cst_4, %cst_4, %cst_3, %cst_4, %cst_4, %cst_4, %cst_4, %cst_3, %cst_3, %cst_4, %cst_3, %cst_4, %cst_4, %cst_4, %cst_4, %cst_3, %cst_3, %cst_3, %cst_4, %cst_4, %cst_4, %cst_3, %cst_4, %cst_3, %cst_4, %cst_4, %cst_4, %cst_4, %cst_4, %cst_3, %cst_3, %cst_4, %cst_4, %cst_4, %cst_3, %cst_4, %cst_4, %cst_4, %cst_3, %cst_4, %cst_3, %cst_3, %cst_3, %cst_4, %cst_4, %cst_4, %cst_3, %cst_3, %cst_4, %cst_3, %cst_4, %cst_3, %cst_4, %cst_4, %cst_3, %cst_4, %cst_4, %cst_4, %cst_3, %cst_3, %cst_4, %cst_4, %cst_3, %cst_4, %cst_4, %cst_4, %cst_4, %cst_4, %cst_4, %cst_3, %cst_3, %cst_3, %cst_4, %cst_4, %cst_4, %cst_4, %cst_3, %cst_4, %cst_4, %cst_3, %cst_4, %cst_4, %cst_3, %cst_4, %cst_3, %cst_4, %cst_3, %cst_4, %cst_3, %cst_4, %cst_3, %cst_4, %cst_3, %cst_4, %cst_4, %cst_3, %cst_4, %cst_4, %cst_3, %cst_4, %cst_4, %cst_3, %cst_3, %cst_4, %cst_4, %cst_4, %cst_3, %cst_3, %cst_4, %cst_4, %cst_4, %cst_4, %cst_3, %cst_3, %cst_3, %cst_4, %cst_4, %cst_3, %cst_3, %cst_3, %cst_4, %cst_3, %cst_3, %cst_4, %cst_3, %cst_3, %cst_4, %cst_4, %cst_4, %cst_4, %cst_3, %cst_3, %cst_3, %cst_3, %cst_3, %cst_4, %cst_3, %cst_4, %cst_4, %cst_3, %cst_4, %cst_3, %cst_4, %cst_4, %cst_4, %cst_4, %cst_3, %cst_3, %cst_3, %cst_4, %cst_3, %cst_4, %cst_4, %cst_3, %cst_4, %cst_3, %cst_4, %cst_4, %cst_4, %cst_4, %cst_4, %cst_3, %cst_3, %cst_3, %cst_3, %cst_3, %cst_3, %cst_3, %cst_3, %cst_3, %cst_3, %cst_4, %cst_3, %cst_3, %cst_4, %cst_4, %cst_4, %cst_3, %cst_3, %cst_4, %cst_4, %cst_3, %cst_4, %cst_4, %cst_3, %cst_3, %cst_3, %cst_3, %cst_3, %cst_4, %cst_4, %cst_4, %cst_4, %cst_3, %cst_4, %cst_3, %cst_4, %cst_3, %cst_3, %cst_4, %cst_4, %cst_4, %cst_3, %cst_3, %cst_4, %cst_4, %cst_3, %cst_3, %cst_3, %cst_4, %cst_3, %cst_4, %cst_3, %cst_4, %cst_4, %cst_4, %cst_4, %cst_4, %cst_4, %cst_3, %cst_4, %cst_3, %cst_3, %cst_4, %cst_4, %cst_4, %cst_4, %cst_3, %cst_4, %cst_3, %cst_4, %cst_3, %cst_4, %cst_4, %cst_4, %cst_3, %cst_4, %cst_3, %cst_3, %cst_3, %cst_4, %cst_3, %cst_4, %cst_3, %cst_4, %cst_4, %cst_4, %cst_3, %cst_3, %cst_3, %cst_4, %cst_3, %cst_3, %cst_3, %cst_4, %cst_3, %cst_3, %cst_3, %cst_4, %cst_3, %cst_3, %cst_4, %cst_3, %cst_4, %cst_4, %cst_4, %cst_4, %cst_4, %cst_4, %cst_3, %cst_3 : tensor<2x12x15xf16>
      %271 = index.add %c14, %c12
      %272 = arith.shrsi %false_5, %true : i1
      %273 = math.cttz %65 : i32
      %274 = arith.andi %106, %c304038688_i64 : i64
      %275 = math.atan %59 : tensor<5xf32>
      %276 = tensor.empty() : tensor<15xi64>
      %277 = index.ceildivs %c13, %c3
      %278 = arith.remsi %c8837_i16, %c8837_i16 : i16
      %279 = index.maxs %c12, %99
      %280 = math.tanh %cst : f32
      %281 = affine.apply affine_map<(d0) -> ((d0 floordiv 4 + 1) ceildiv 4)>(%c1)
      %282 = bufferization.to_tensor %alloc_17 : memref<2xi16>
      %283 = index.sub %110, %c0
      %284 = math.rsqrt %cst_4 : f16
      %rank_51 = tensor.rank %16 : tensor<15xi64>
      %285 = vector.broadcast %true : i1 to vector<15xi1>
      %286 = vector.maskedload %alloc_11[%c1], %285, %73 : memref<2xf32>, vector<15xi1>, vector<15xf32> into vector<15xf32>
      %287 = arith.subi %c304038688_i64, %106 : i64
      %288 = math.round %from_elements_50 : tensor<2x12x15xf16>
      linalg.yield %c1750124934_i64 : i64
    } -> tensor<2x12x15xi64>
    %118 = arith.remsi %c342629357_i32, %c614625657_i32 : i32
    %119 = index.mul %63, %116
    %120 = math.fpowi %cst_0, %c614625657_i32 : f32, i32
    %121 = affine.if affine_set<(d0) : (d0 mod 2 - d0 >= 0, d0 mod 32 - 12 == 0, d0 mod 32 >= 0)>(%c7) -> memref<5xi64> {
      %261 = math.ipowi %c614625657_i32, %c1291372147_i32 : i32
      %262 = vector.load %alloc_14[%c3] : memref<15xf32>, vector<15xf32>
      %263 = arith.xori %c8837_i16, %c8837_i16 : i16
      %264 = bufferization.clone %alloc_11 : memref<2xf32> to memref<2xf32>
      %265 = bufferization.clone %alloc_11 : memref<2xf32> to memref<2xf32>
      %266 = math.exp2 %59 : tensor<5xf32>
      %267 = math.copysign %cst_2, %cst_0 : f32
      %cast_46 = tensor.cast %19 : tensor<i64> to tensor<i64>
      affine.yield %alloc_19 : memref<5xi64>
    } else {
      %c-27231_i16 = arith.constant -27231 : i16
      %261 = arith.addf %cst_3, %cst_3 : f16
      %alloc_46 = memref.alloc() : memref<5xf16>
      memref.copy %alloc_18, %alloc_46 : memref<5xf16> to memref<5xf16>
      %262 = math.expm1 %cst_0 : f32
      %263 = math.exp %cst_4 : f16
      %264 = math.round %cst_3 : f16
      %265 = math.fma %59, %59, %59 : tensor<5xf32>
      %266 = arith.minui %false, %false_5 : i1
      affine.yield %alloc_19 : memref<5xi64>
    }
    %122 = index.casts %c1291372147_i32 : i32 to index
    %123 = vector.insert %cst_2, %60 [1] : f32 into vector<2xf32>
    %124 = bufferization.to_tensor %alloc_12 : memref<2x12x15xf32>
    %rank = tensor.rank %12 : tensor<15xi16>
    %125 = vector.transpose %32, [0] : vector<2xi16> to vector<2xi16>
    %126 = tensor.empty() : tensor<15x12xi1>
    %alloc_29 = memref.alloc() : memref<12x15xi1>
    %127 = linalg.generic {indexing_maps = [affine_map<(d0, d1, d2) -> (d2)>, affine_map<(d0, d1, d2) -> (d2, d1)>, affine_map<(d0, d1, d2) -> (d1, d2)>, affine_map<(d0, d1, d2) -> (d0, d1, d2)>], iterator_types = ["parallel", "parallel", "parallel"]} ins(%18, %126, %alloc_29 : tensor<15xi1>, tensor<15x12xi1>, memref<12x15xi1>) outs(%0 : tensor<2x12x15xi1>) {
    ^bb0(%in: i1, %in_46: i1, %in_47: i1, %out: i1):
      %261 = arith.minf %cst_4, %cst_3 : f16
      %cast_48 = tensor.cast %6 : tensor<5xi16> to tensor<?xi16>
      %262 = scf.if %out -> (i16) {
        %290 = math.powf %59, %59 : tensor<5xf32>
        %291 = arith.cmpi sge, %true, %false_1 : i1
        %292 = vector.broadcast %cst : f32 to vector<2x2xf32>
        %293 = vector.outerproduct %61, %60, %292 {kind = #vector.kind<maxf>} : vector<2xf32>, vector<2xf32>
        %294 = index.maxs %c9, %c15
        %295 = tensor.empty(%74) : tensor<?xi1>
        %296 = index.add %c9, %rank
        memref.store %c8837_i16, %alloc_16[%c9] : memref<15xi16>
        %297 = index.maxs %28, %c4
        scf.yield %c8837_i16 : i16
      } else {
        %290 = index.mul %c2, %90
        %291 = math.rsqrt %cst_0 : f32
        vector.print %73 : vector<15xf32>
        %292 = arith.negf %cst_6 : f32
        %293 = vector.flat_transpose %76 {columns = 1 : i32, rows = 2 : i32} : vector<2xf32> -> vector<2xf32>
        %294 = math.sqrt %cst_0 : f32
        %295 = arith.divf %cst_4, %cst_3 : f16
        %296 = math.floor %cst_3 : f16
        scf.yield %c8837_i16 : i16
      }
      %263 = affine.max affine_map<(d0) -> (0, 0)>(%110)
      %264 = arith.minui %in_46, %false : i1
      %265 = index.casts %c11 : index to i32
      %266 = vector.flat_transpose %42 {columns = 5 : i32, rows = 1 : i32} : vector<5xi1> -> vector<5xi1>
      scf.index_switch %90 
      case 1 {
        %290 = arith.andi %c1750124934_i64, %c304038688_i64 : i64
        %291 = math.round %59 : tensor<5xf32>
        %292 = index.ceildivu %c15, %rank
        %alloc_50 = memref.alloc() : memref<15xf32>
        memref.copy %alloc_14, %alloc_50 : memref<15xf32> to memref<15xf32>
        %293 = math.log10 %cst_0 : f32
        %294 = index.ceildivu %c13, %c0
        %295 = math.round %cst_2 : f32
        %296 = arith.remf %cst_6, %cst_6 : f32
        %297 = math.atan2 %cst_4, %cst_4 : f16
        %cast_51 = tensor.cast %124 : tensor<2x12x15xf32> to tensor<?x?x?xf32>
        %cast_52 = tensor.cast %6 : tensor<5xi16> to tensor<?xi16>
        %alloc_53 = memref.alloc() : memref<5xf32>
        memref.copy %alloc_13, %alloc_53 : memref<5xf32> to memref<5xf32>
        %298 = math.atan %59 : tensor<5xf32>
        %299 = math.round %59 : tensor<5xf32>
        %300 = math.atan %cst_6 : f32
        %301 = math.ceil %cst_6 : f32
        scf.yield
      }
      default {
        %290 = arith.remsi %c1777150014_i32, %c1777150014_i32 : i32
        %291 = arith.addi %c614625657_i32, %c1777150014_i32 : i32
        %292 = bufferization.to_tensor %alloc_14 : memref<15xf32>
        %293 = arith.minsi %in, %true : i1
        %294 = arith.andi %106, %c304038688_i64 : i64
        %295 = math.floor %cst_3 : f16
        %296 = bufferization.clone %29 : memref<i64> to memref<i64>
        %297 = arith.cmpi uge, %false_1, %false : i1
        %298 = vector.splat %c0 : vector<2xindex>
        memref.store %cst_2, %alloc_12[%c0, %c1, %c12] : memref<2x12x15xf32>
        %299 = arith.subi %c614625657_i32, %c342629357_i32 : i32
        %300 = arith.shrui %in_47, %out : i1
        %301 = index.ceildivu %119, %77
        %c0_i64 = arith.constant 0 : i64
        %c0_i64_50 = arith.constant 0 : i64
        %302 = vector.transfer_read %17[%116], %c0_i64_50 : tensor<15xi64>, vector<i64>
        %303 = arith.andi %false_5, %false_5 : i1
        %304 = index.casts %in_47 : i1 to index
      }
      %267 = math.powf %cst_2, %cst_0 : f32
      %268 = scf.index_switch %c11 -> index 
      case 1 {
        %290 = vector.flat_transpose %33 {columns = 1 : i32, rows = 2 : i32} : vector<2xi1> -> vector<2xi1>
        %rank_50 = tensor.rank %17 : tensor<15xi64>
        %291 = vector.insert %cst_6, %61 [0] : f32 into vector<2xf32>
        %292 = vector.splat %c342629357_i32 : vector<5xi32>
        %293 = tensor.empty() : tensor<15x5xi64>
        %294 = tensor.empty() : tensor<24x5xi64>
        %295 = linalg.matmul ins(%collapsed, %293 : tensor<24x15xi64>, tensor<15x5xi64>) outs(%294 : tensor<24x5xi64>) -> tensor<24x5xi64>
        %296 = arith.addf %cst_3, %cst_3 : f16
        %297 = arith.muli %c614625657_i32, %c614625657_i32 : i32
        %298 = arith.addi %c304038688_i64, %106 : i64
        %c1_i64 = arith.constant 1 : i64
        %c0_i64 = arith.constant 0 : i64
        %299 = vector.transfer_read %16[%c0], %c0_i64 : tensor<15xi64>, vector<i64>
        %300 = index.mul %c5, %116
        %301 = index.casts %c8 : index to i32
        %302 = index.ceildivs %c9, %95
        %303 = vector.load %alloc_19[%c2] : memref<5xi64>, vector<5xi64>
        memref.assume_alignment %alloc_15, 2 : memref<2x12x15xi16>
        %304 = math.atan2 %cst_6, %cst_6 : f32
        %305 = math.round %cst_4 : f16
        scf.yield %122 : index
      }
      case 2 {
        %c1_i16 = arith.constant 1 : i16
        %c0_i16 = arith.constant 0 : i16
        %290 = vector.transfer_read %6[%77], %c0_i16 : tensor<5xi16>, vector<i16>
        %291 = arith.divf %cst_3, %cst_3 : f16
        %292 = arith.minui %c1291372147_i32, %65 : i32
        %293 = math.round %cst_6 : f32
        %alloca_50 = memref.alloca() : memref<5xi32>
        %294 = math.fma %cst_6, %cst, %cst_6 : f32
        %295 = vector.insert %c614625657_i32, %34 [0] : i32 into vector<2xi32>
        %296 = index.maxs %263, %c12
        %c-2962_i16 = arith.constant -2962 : i16
        %297 = math.rsqrt %cst : f32
        %298 = vector.broadcast %77 : index to vector<5xindex>
        %299 = vector.broadcast %c304038688_i64 : i64 to vector<5xi64>
        vector.scatter %29[] [%298], %266, %299 : memref<i64>, vector<5xindex>, vector<5xi1>, vector<5xi64>
        %alloc_51 = memref.alloc() : memref<15x5xi64>
        %300 = tensor.empty() : tensor<24x5xi64>
        %301 = linalg.matmul ins(%collapsed, %alloc_51 : tensor<24x15xi64>, memref<15x5xi64>) outs(%300 : tensor<24x5xi64>) -> tensor<24x5xi64>
        %302 = arith.divsi %false, %false_5 : i1
        %303 = bufferization.to_memref %cast_48 : memref<?xi16>
        %304 = arith.minui %in_46, %false_5 : i1
        %305 = arith.remsi %out, %false_5 : i1
        scf.yield %110 : index
      }
      case 3 {
        %290 = math.fma %cst_3, %cst_4, %cst_4 : f16
        %291 = arith.remsi %false_1, %false : i1
        %292 = math.ctlz %6 : tensor<5xi16>
        %293 = arith.cmpf ueq, %cst_3, %cst_3 : f16
        %294 = arith.addf %cst_6, %cst : f32
        %295 = vector.broadcast %cst_2 : f32 to vector<15xf32>
        %296 = vector.fma %295, %73, %73 : vector<15xf32>
        %297 = arith.divui %in_47, %true : i1
        %298 = arith.addf %cst_6, %cst_0 : f32
        %alloc_50 = memref.alloc() : memref<5xf32>
        %299 = math.fpowi %cst_0, %c342629357_i32 : f32, i32
        %300 = tensor.empty() : tensor<15x12xi64>
        %301 = tensor.empty() : tensor<24x12xi64>
        %302 = linalg.matmul ins(%collapsed, %300 : tensor<24x15xi64>, tensor<15x12xi64>) outs(%301 : tensor<24x12xi64>) -> tensor<24x12xi64>
        %303 = index.sizeof
        vector.print %296 : vector<15xf32>
        %304 = index.ceildivs %63, %c12
        %305 = math.exp %cst_2 : f32
        %306 = arith.minui %true, %in_47 : i1
        scf.yield %c5 : index
      }
      case 4 {
        %290 = arith.muli %65, %c342629357_i32 : i32
        %291 = vector.extract_strided_slice %32 {offsets = [0], sizes = [1], strides = [1]} : vector<2xi16> to vector<1xi16>
        %292 = bufferization.to_memref %13 : memref<5xi16>
        %splat_50 = tensor.splat %cst_3 : tensor<5xf16>
        %alloc_51 = memref.alloc() : memref<5xf16>
        %293 = math.atan %cst_3 : f16
        %294 = math.fpowi %cst_2, %c342629357_i32 : f32, i32
        %295 = index.sizeof
        %296 = arith.addf %cst_3, %cst_3 : f16
        %297 = arith.divsi %false_1, %out : i1
        %298 = arith.divui %c1291372147_i32, %65 : i32
        %299 = tensor.empty(%c15) : tensor<?xf32>
        %300 = math.roundeven %cst_6 : f32
        %301 = math.atan %splat_50 : tensor<5xf16>
        %302 = arith.minf %cst_0, %cst_2 : f32
        %303 = index.ceildivs %c9, %77
        scf.yield %c5 : index
      }
      default {
        memref.assume_alignment %29, 1 : memref<i64>
        %290 = memref.realloc %25 : memref<2xf32> to memref<12xf32>
        %291 = memref.atomic_rmw maxu %c8837_i16, %alloc_9[%c0] : (i16, memref<2xi16>) -> i16
        %292 = math.roundeven %cst_0 : f32
        %collapsed_50 = tensor.collapse_shape %8 [[0, 1], [2]] : tensor<2x12x15xi64> into tensor<24x15xi64>
        %293 = affine.apply affine_map<(d0, d1, d2, d3) -> (d1 * -2 - 1)>(%90, %116, %c3, %111)
        %294 = index.sizeof
        %295 = vector.transpose %34, [0] : vector<2xi32> to vector<2xi32>
        %296 = vector.splat %c9 : vector<5xindex>
        %297 = vector.flat_transpose %35 {columns = 1 : i32, rows = 2 : i32} : vector<2xi16> -> vector<2xi16>
        %298 = vector.extract %297[0] : vector<2xi16>
        %299 = bufferization.to_memref %9 : memref<2xi32>
        %300 = arith.divsi %false_1, %false_1 : i1
        %301 = index.sub %116, %c8
        %302 = index.sizeof
        %303 = index.divs %c2, %99
        scf.yield %119 : index
      }
      %269 = math.log10 %cst_0 : f32
      %270 = arith.divui %out, %true : i1
      %271 = arith.shli %c1291372147_i32, %65 : i32
      %272 = index.mul %c13, %119
      %273 = index.sizeof
      %274 = math.exp2 %59 : tensor<5xf32>
      %rank_49 = tensor.rank %10 : tensor<5xi64>
      %275 = arith.mulf %cst_4, %cst_3 : f16
      %276 = bufferization.clone %alloc_17 : memref<2xi16> to memref<2xi16>
      %277 = math.log1p %cst_2 : f32
      %278 = vector.load %276[%c0] : memref<2xi16>, vector<2x12x15xi16>
      %279 = index.mul %c2, %c13
      %280 = vector.broadcast %c5 : index to vector<12xindex>
      %281 = vector.broadcast %false : i1 to vector<12xi1>
      %282 = vector.broadcast %c1750124934_i64 : i64 to vector<12xi64>
      vector.scatter %29[] [%280], %281, %282 : memref<i64>, vector<12xindex>, vector<12xi1>, vector<12xi64>
      %283 = index.sizeof
      %284 = arith.maxsi %in, %in : i1
      %285 = arith.andi %false_5, %true : i1
      %286 = bufferization.to_tensor %alloc : memref<2xf32>
      memref.store %c304038688_i64, %29[] : memref<i64>
      %287 = vector.flat_transpose %73 {columns = 5 : i32, rows = 3 : i32} : vector<15xf32> -> vector<15xf32>
      %288 = arith.shrui %true, %in_46 : i1
      memref.tensor_store %2, %alloc_19 : memref<5xi64>
      %289 = arith.cmpf one, %cst_2, %cst_6 : f32
      linalg.yield %in : i1
    } -> tensor<2x12x15xi1>
    %128 = scf.while (%arg3 = %cst_0) : (f32) -> f32 {
      %261 = bufferization.to_memref %1 : memref<2xi1>
      %262 = bufferization.to_tensor %29 : memref<i64>
      %263 = math.floor %cst_4 : f16
      %264 = math.floor %cst_2 : f32
      %alloca_46 = memref.alloca() : memref<2xf16>
      memref.store %cst_4, %alloc_21[%c1, %c9, %c13] : memref<2x12x15xf16>
      %alloc_47 = memref.alloc() : memref<2x15x12xi1>
      %265 = linalg.generic {indexing_maps = [affine_map<(d0, d1, d2) -> (d0, d2, d1)>, affine_map<(d0, d1, d2) -> (d0, d1, d2)>], iterator_types = ["parallel", "parallel", "parallel"]} ins(%alloc_47 : memref<2x15x12xi1>) outs(%0 : tensor<2x12x15xi1>) {
      ^bb0(%in: i1, %out: i1):
        %267 = math.atan2 %124, %124 : tensor<2x12x15xf32>
        %268 = arith.mulf %cst_2, %arg3 : f32
        %269 = affine.apply affine_map<(d0) -> ((d0 floordiv 4 + 1) ceildiv 4)>(%c11)
        %270 = math.log %cst_0 : f32
        %271 = math.exp2 %cst_4 : f16
        %splat_48 = tensor.splat %c614625657_i32 : tensor<2xi32>
        %272 = arith.shrsi %false, %true : i1
        %273 = index.add %c3, %c14
        %274 = arith.subi %c342629357_i32, %c1777150014_i32 : i32
        %275 = arith.addi %c614625657_i32, %c342629357_i32 : i32
        %276 = math.rsqrt %124 : tensor<2x12x15xf32>
        %277 = index.maxu %c13, %110
        %278 = arith.divf %cst_6, %cst_0 : f32
        %279 = vector.insert %cst_0, %76 [1] : f32 into vector<2xf32>
        %280 = affine.max affine_map<(d0, d1) -> ((d1 mod 2) * 128, (d1 mod 2) * 128, d1 mod 8)>(%74, %63)
        %281 = math.round %cst : f32
        %282 = math.round %59 : tensor<5xf32>
        %283 = vector.extract %35[0] : vector<2xi16>
        memref.store %cst_4, %alloc_18[%c0] : memref<5xf16>
        %284 = arith.cmpf false, %cst_0, %arg3 : f32
        %285 = math.log2 %59 : tensor<5xf32>
        %286 = math.floor %cst_3 : f16
        %287 = tensor.empty() : tensor<15x2xi64>
        %288 = tensor.empty() : tensor<24x2xi64>
        %289 = linalg.matmul ins(%collapsed, %287 : tensor<24x15xi64>, tensor<15x2xi64>) outs(%288 : tensor<24x2xi64>) -> tensor<24x2xi64>
        %290 = math.ipowi %13, %13 : tensor<5xi16>
        %291 = arith.negf %cst_0 : f32
        %292 = vector.broadcast %77 : index to vector<12xindex>
        %293 = vector.broadcast %false_5 : i1 to vector<12xi1>
        vector.scatter %alloc_8[%c0] [%292], %293, %20 : memref<2xf16>, vector<12xindex>, vector<12xi1>, vector<12xf16>
        %294 = index.mul %c14, %c9
        %295 = vector.flat_transpose %61 {columns = 1 : i32, rows = 2 : i32} : vector<2xf32> -> vector<2xf32>
        %296 = arith.minui %true, %false_5 : i1
        %c0_i16 = arith.constant 0 : i16
        %297 = vector.transfer_read %6[%c12], %c0_i16 : tensor<5xi16>, vector<i16>
        %298 = vector.load %alloc_21[%c1, %c10, %c2] : memref<2x12x15xf16>, vector<5xf16>
        %299 = math.atan2 %cst_2, %cst_0 : f32
        linalg.yield %in : i1
      } -> tensor<2x12x15xi1>
      %266 = arith.shrui %false, %false_1 : i1
      scf.condition(%true) %cst_2 : f32
    } do {
    ^bb0(%arg3: f32):
      %261 = vector.broadcast %c8837_i16 : i16 to vector<2x12x12xi16>
      %262 = vector.broadcast %c8837_i16 : i16 to vector<12x12xi16>
      %dest, %accumulated_value = vector.scan <add>, %261, %262 {inclusive = true, reduction_dim = 0 : i64} : vector<2x12x12xi16>, vector<12x12xi16>
      vector.print %60 : vector<2xf32>
      %263 = arith.andi %c1777150014_i32, %c342629357_i32 : i32
      %264 = math.tanh %cst_0 : f32
      %265 = bufferization.to_tensor %alloc_22 : memref<15xi64>
      %266 = arith.divsi %c1777150014_i32, %c342629357_i32 : i32
      %267 = affine.for %arg4 = 0 to 126 iter_args(%arg5 = %5) -> (tensor<5xi64>) {
        affine.yield %5 : tensor<5xi64>
      }
      %cst_46 = arith.constant 1.76518157E+9 : f32
      %268 = scf.index_switch %c5 -> memref<2x12x15xi1> 
      case 1 {
        %274 = math.round %124 : tensor<2x12x15xf32>
        %275 = arith.addi %c8837_i16, %c8837_i16 : i16
        %276 = affine.load %alloc_12[%c0, %c9, %c11] : memref<2x12x15xf32>
        %277 = arith.mulf %cst_0, %arg3 : f32
        %278 = math.copysign %cst_4, %cst_3 : f16
        %279 = bufferization.to_tensor %alloc : memref<2xf32>
        %collapsed_47 = tensor.collapse_shape %collapsed [[0, 1]] : tensor<24x15xi64> into tensor<360xi64>
        %280 = arith.maxsi %false, %true : i1
        %281 = arith.shrui %106, %106 : i64
        %282 = bufferization.clone %alloc_17 : memref<2xi16> to memref<2xi16>
        %283 = vector.broadcast %c8837_i16 : i16 to vector<i16>
        vector.transfer_write %283, %alloc_15[%46, %c3, %c11] : vector<i16>, memref<2x12x15xi16>
        %284 = arith.cmpf ule, %cst, %cst_6 : f32
        %285 = math.ipowi %265, %16 : tensor<15xi64>
        %286 = affine.apply affine_map<(d0, d1) -> (d1 - 32)>(%28, %c11)
        %true_48 = index.bool.constant true
        %287 = math.atan2 %cst_6, %cst : f32
        %alloc_49 = memref.alloc() : memref<2x12x15xi1>
        scf.yield %alloc_49 : memref<2x12x15xi1>
      }
      default {
        %274 = index.sub %c2, %46
        %275 = arith.addi %c614625657_i32, %c342629357_i32 : i32
        %276 = arith.remf %cst_6, %cst : f32
        %277 = vector.load %alloc_11[%c1] : memref<2xf32>, vector<2x12x15xf32>
        %splat_47 = tensor.splat %106 : tensor<5xi64>
        %278 = math.tan %cst_0 : f32
        %279 = memref.realloc %alloc_22 : memref<15xi64> to memref<12xi64>
        %280 = arith.subi %c1750124934_i64, %c304038688_i64 : i64
        %281 = arith.xori %c1291372147_i32, %c342629357_i32 : i32
        %282 = arith.andi %65, %65 : i32
        %283 = math.expm1 %cst_4 : f16
        %284 = vector.flat_transpose %91 {columns = 1 : i32, rows = 2 : i32} : vector<2xf32> -> vector<2xf32>
        %cst_48 = arith.constant 1.000000e+00 : f32
        %285 = vector.transfer_read %alloc_12[%c1, %90, %c14], %cst_48 : memref<2x12x15xf32>, vector<2x15xf32>
        %286 = arith.ori %c1750124934_i64, %c304038688_i64 : i64
        %extracted = tensor.extract %0[%c1, %c3, %c8] : tensor<2x12x15xi1>
        %287 = arith.negf %cst_0 : f32
        %alloc_49 = memref.alloc() : memref<2x12x15xi1>
        scf.yield %alloc_49 : memref<2x12x15xi1>
      }
      memref.assume_alignment %alloc, 4 : memref<2xf32>
      %269 = math.atan2 %arg3, %cst_0 : f32
      %270 = index.ceildivs %c13, %c2
      %271 = arith.ceildivsi %c1291372147_i32, %c614625657_i32 : i32
      %272 = arith.andi %false_5, %false_1 : i1
      %273 = arith.andi %false_5, %false_1 : i1
      scf.index_switch %116 
      case 1 {
        %alloc_47 = memref.alloc() : memref<2x12x15xf32>
        memref.copy %alloc_12, %alloc_47 : memref<2x12x15xf32> to memref<2x12x15xf32>
        %274 = index.sizeof
        %275 = math.fma %cst_2, %cst_0, %cst_6 : f32
        %276 = arith.divui %false_1, %false : i1
        %277 = arith.negf %arg3 : f32
        %alloc_48 = memref.alloc() : memref<2xf16>
        memref.copy %alloc_8, %alloc_48 : memref<2xf16> to memref<2xf16>
        %278 = math.fma %cst_2, %cst_2, %cst_6 : f32
        %cast_49 = tensor.cast %0 : tensor<2x12x15xi1> to tensor<?x?x?xi1>
        %cast_50 = tensor.cast %1 : tensor<2xi1> to tensor<?xi1>
        %279 = math.roundeven %arg3 : f32
        %from_elements_51 = tensor.from_elements %cst_2, %arg3, %arg3, %arg3, %arg3, %cst_2, %cst_2, %arg3, %arg3, %cst_6, %cst_2, %cst_6, %cst, %arg3, %cst_2, %arg3, %cst_6, %cst_2, %cst, %cst, %cst_2, %arg3, %arg3, %cst_2, %cst_2, %cst_0, %cst_6, %cst, %cst_6, %cst_2, %cst_6, %cst, %cst_6, %cst_0, %cst_0, %cst_6, %cst_0, %cst_0, %cst, %cst_0, %cst_0, %arg3, %arg3, %cst, %cst_0, %cst_2, %cst_2, %cst_0, %cst_2, %cst_2, %cst, %arg3, %cst_2, %cst_0, %cst, %cst, %cst_2, %cst_6, %cst, %cst_6, %cst_0, %cst_6, %cst_6, %cst_2, %cst_0, %cst_6, %cst_2, %cst_2, %arg3, %arg3, %cst_2, %cst, %arg3, %cst_6, %cst, %cst_0, %cst_2, %cst, %arg3, %cst_0, %arg3, %cst_6, %cst_6, %cst_2, %cst_6, %cst, %cst, %cst, %cst, %cst, %cst_0, %cst_0, %arg3, %cst, %cst_0, %cst_0, %cst_0, %cst, %cst, %arg3, %arg3, %arg3, %cst_2, %cst_2, %cst_6, %cst_0, %cst_6, %cst_6, %cst_6, %cst_2, %cst_2, %cst_6, %arg3, %arg3, %arg3, %cst_6, %cst, %cst, %cst_0, %cst, %arg3, %cst, %cst_6, %cst_2, %cst, %cst_6, %arg3, %arg3, %arg3, %cst_6, %arg3, %cst_6, %cst_2, %cst, %cst, %arg3, %cst, %cst_6, %cst_6, %cst, %arg3, %cst_2, %cst_6, %cst_6, %cst_2, %cst, %arg3, %cst_0, %cst_0, %cst_0, %cst_0, %cst_0, %cst_0, %cst_6, %cst_2, %arg3, %cst, %cst, %cst_0, %cst_6, %cst_6, %arg3, %cst_0, %cst_0, %cst, %cst_2, %cst_2, %cst_0, %cst, %cst_0, %arg3, %cst_6, %cst_2, %cst_2, %arg3, %cst, %cst, %cst, %cst_6, %arg3, %cst_6, %cst, %cst_6, %cst_2, %cst_6, %cst_6, %cst_6, %cst_6, %cst_2, %cst_6, %cst_6, %cst, %cst, %arg3, %cst_2, %cst_2, %arg3, %cst_2, %cst_2, %cst_0, %cst, %arg3, %cst_0, %arg3, %cst_6, %cst_0, %arg3, %cst, %cst_2, %cst_6, %cst_2, %cst_6, %cst, %cst, %cst_2, %cst_2, %arg3, %cst_0, %cst, %arg3, %cst_6, %cst_0, %cst_0, %cst_0, %arg3, %cst_0, %arg3, %cst_2, %arg3, %arg3, %cst_0, %cst_2, %cst_0, %arg3, %cst_2, %arg3, %cst_2, %cst_0, %cst, %cst_0, %arg3, %arg3, %arg3, %cst_6, %cst_2, %cst_6, %cst_2, %cst_6, %cst_0, %cst_0, %cst_2, %cst_0, %arg3, %cst_0, %cst_2, %cst, %cst_2, %cst_2, %cst, %cst, %cst_2, %cst_0, %arg3, %cst, %cst_6, %arg3, %cst, %cst_2, %arg3, %cst_6, %cst_6, %cst_2, %cst_2, %arg3, %cst_6, %cst_2, %arg3, %arg3, %cst_2, %cst_2, %cst_2, %cst, %cst_6, %cst_0, %cst_0, %cst_6, %cst_0, %cst_2, %cst, %cst_2, %cst_0, %arg3, %cst_2, %cst_2, %arg3, %cst_6, %cst_2, %cst, %cst_0, %arg3, %cst_0, %cst_2, %cst_6, %cst_2, %cst_2, %cst, %cst, %arg3, %cst, %cst_6, %arg3, %cst_0, %cst_6, %cst_6, %cst_2, %cst_6, %arg3, %cst, %cst_2, %cst, %cst, %cst_6, %cst_2, %cst, %cst_0, %cst_6, %cst_2, %arg3, %arg3, %cst_0, %arg3, %cst_2, %cst, %cst_6, %arg3, %arg3, %arg3, %cst_2, %arg3, %cst_6, %cst_2, %arg3, %cst_6, %cst_2, %cst, %cst_0, %arg3, %cst, %cst_0, %cst_0, %cst_2, %cst_2, %cst_2, %cst_2, %cst_0, %cst_6, %cst_6, %cst_0, %cst_2, %arg3 : tensor<2x12x15xf32>
        %280 = arith.xori %c342629357_i32, %c342629357_i32 : i32
        %281 = math.powf %from_elements_51, %124 : tensor<2x12x15xf32>
        %282 = tensor.empty(%119) : tensor<2x12x?xi32>
        %283 = arith.andi %c1291372147_i32, %c1777150014_i32 : i32
        %284 = tensor.empty() : tensor<5xi32>
        %285 = math.fpowi %59, %284 : tensor<5xf32>, tensor<5xi32>
        scf.yield
      }
      case 2 {
        %274 = vector.transpose %69, [0] : vector<5xf32> to vector<5xf32>
        %splat_47 = tensor.splat %false_5 : tensor<5xi1>
        %275 = memref.load %alloc_21[%c1, %c6, %c10] : memref<2x12x15xf16>
        %276 = math.atan %cst_0 : f32
        %277 = index.maxs %116, %c5
        %278 = math.exp2 %cst_6 : f32
        %279 = vector.flat_transpose %33 {columns = 1 : i32, rows = 2 : i32} : vector<2xi1> -> vector<2xi1>
        %from_elements_48 = tensor.from_elements %c1750124934_i64, %106, %c304038688_i64, %106, %c1750124934_i64, %c1750124934_i64, %c1750124934_i64, %c304038688_i64, %106, %c304038688_i64, %106, %c304038688_i64, %c1750124934_i64, %106, %106 : tensor<15xi64>
        %alloc_49 = memref.alloc() : memref<2xf16>
        memref.copy %alloc_8, %alloc_49 : memref<2xf16> to memref<2xf16>
        %280 = vector.flat_transpose %69 {columns = 5 : i32, rows = 1 : i32} : vector<5xf32> -> vector<5xf32>
        %281 = math.atan2 %cst_3, %cst_3 : f16
        %282 = index.mul %c8, %c12
        %283 = arith.muli %true, %false_5 : i1
        memref.store %106, %alloc_19[%c3] : memref<5xi64>
        %284 = vector.broadcast %c304038688_i64 : i64 to vector<5x5xi64>
        %285 = vector.transfer_write %284, %8[%c8, %c1, %rank] {permutation_map = affine_map<(d0, d1, d2) -> (d0, d1)>} : vector<5x5xi64>, tensor<2x12x15xi64>
        %286 = vector.shuffle %280, %61 [1, 2, 3, 4, 5, 6] : vector<5xf32>, vector<2xf32>
        scf.yield
      }
      default {
        %274 = arith.andi %c8837_i16, %c8837_i16 : i16
        %275 = arith.cmpf ugt, %arg3, %cst_6 : f32
        %collapsed_47 = tensor.collapse_shape %124 [[0, 1], [2]] : tensor<2x12x15xf32> into tensor<24x15xf32>
        %276 = math.copysign %cst_0, %cst_2 : f32
        %277 = index.ceildivs %c9, %77
        memref.assume_alignment %25, 1 : memref<2xf32>
        %278 = math.atan %arg3 : f32
        %alloca_48 = memref.alloca() : memref<5xf32>
        %279 = math.rsqrt %collapsed_47 : tensor<24x15xf32>
        %280 = vector.flat_transpose %35 {columns = 1 : i32, rows = 2 : i32} : vector<2xi16> -> vector<2xi16>
        %true_49 = arith.constant true
        %false_50 = arith.constant false
        %281 = vector.transfer_read %0[%99, %28, %c14], %false_50 {permutation_map = affine_map<(d0, d1, d2) -> (d0, 0)>} : tensor<2x12x15xi1>, vector<12x15xi1>
        %282 = math.ipowi %6, %13 : tensor<5xi16>
        %283 = index.mul %277, %c14
        %284 = arith.remsi %c614625657_i32, %c1777150014_i32 : i32
        %285 = vector.matrix_multiply %280, %280 {lhs_columns = 2 : i32, lhs_rows = 1 : i32, rhs_columns = 1 : i32} : (vector<2xi16>, vector<2xi16>) -> vector<1xi16>
        %286 = arith.divui %c1777150014_i32, %c342629357_i32 : i32
      }
      scf.yield %cst_6 : f32
    }
    %129 = vector.load %alloc_9[%c0] : memref<2xi16>, vector<2xi16>
    %130 = arith.shrui %c304038688_i64, %106 : i64
    %131 = arith.ori %false_1, %false_5 : i1
    %132 = arith.subi %65, %c1291372147_i32 : i32
    %splat = tensor.splat %c1750124934_i64 : tensor<2xi64>
    scf.if %false {
      %261 = math.floor %cst_4 : f16
      %262 = arith.addf %cst_3, %cst_4 : f16
      %263 = math.log2 %cst_4 : f16
      %264 = arith.xori %c1291372147_i32, %c342629357_i32 : i32
      %265 = arith.addi %false, %false : i1
      %266 = vector.extract %129[0] : vector<2xi16>
      %267 = math.exp %cst_6 : f32
      %268 = arith.shrui %true, %false_5 : i1
    }
    %133 = math.tan %cst_3 : f16
    %134 = math.tan %124 : tensor<2x12x15xf32>
    %135 = affine.load %alloc_9[%c10] : memref<2xi16>
    %136 = tensor.empty() : tensor<15x12xi64>
    %137 = tensor.empty() : tensor<24x12xi64>
    %138 = linalg.matmul ins(%collapsed, %136 : tensor<24x15xi64>, tensor<15x12xi64>) outs(%137 : tensor<24x12xi64>) -> tensor<24x12xi64>
    %139 = vector.extract_strided_slice %61 {offsets = [0], sizes = [1], strides = [1]} : vector<2xf32> to vector<1xf32>
    %140 = affine.load %alloc_12[%c7, %c5, %c12] : memref<2x12x15xf32>
    %141 = arith.shrsi %c1750124934_i64, %c304038688_i64 : i64
    %142 = tensor.empty() : tensor<2x12x15xi32>
    %143 = math.fpowi %124, %142 : tensor<2x12x15xf32>, tensor<2x12x15xi32>
    %cast_30 = tensor.cast %22 : tensor<i64> to tensor<i64>
    %144 = index.sizeof
    %145 = arith.mulf %140, %cst_6 : f32
    %146 = vector.transpose %73, [0] : vector<15xf32> to vector<15xf32>
    bufferization.dealloc_tensor %12 : tensor<15xi16>
    %collapsed_31 = tensor.collapse_shape %8 [[0, 1], [2]] : tensor<2x12x15xi64> into tensor<24x15xi64>
    %147 = memref.realloc %alloc_11 : memref<2xf32> to memref<12xf32>
    %148 = math.rsqrt %140 : f32
    %149 = arith.negf %cst_0 : f32
    %150 = math.floor %cst_6 : f32
    %151 = vector.transpose %35, [0] : vector<2xi16> to vector<2xi16>
    %152 = math.ipowi %1, %1 : tensor<2xi1>
    %153 = index.casts %107 : index to i32
    scf.if %true {
      %261 = vector.create_mask %c4, %122, %74 : vector<2x12x15xi1>
      %262 = vector.broadcast %false_1 : i1 to vector<2x12xi1>
      %263 = vector.multi_reduction <add>, %261, %262 [2] : vector<2x12x15xi1> to vector<2x12xi1>
      %264 = math.ceil %cst : f32
      %265 = arith.ori %135, %135 : i16
      %266 = arith.ori %c304038688_i64, %106 : i64
      %267 = vector.broadcast %cst_2 : f32 to vector<15xf32>
      vector.transfer_write %267, %alloc_12[%77, %c7, %c6] {permutation_map = affine_map<(d0, d1, d2) -> (d0)>} : vector<15xf32>, memref<2x12x15xf32>
      %268 = math.expm1 %cst_4 : f16
      %cst_46 = arith.constant 1.000000e+00 : f32
      %cst_47 = arith.constant 0.000000e+00 : f32
      %269 = vector.transfer_read %alloc_14[%c9], %cst_47 : memref<15xf32>, vector<f32>
    } else {
      %261 = memref.load %alloc_7[%c3] : memref<5xi16>
      %262 = vector.extract_strided_slice %35 {offsets = [0], sizes = [1], strides = [1]} : vector<2xi16> to vector<1xi16>
      %263 = math.log10 %cst_3 : f16
      %264 = math.atan2 %cst_4, %cst_3 : f16
      %c1_i64 = arith.constant 1 : i64
      %265 = vector.transfer_read %11[%c1], %c1_i64 : tensor<15xi64>, vector<i64>
      %266 = vector.insert %cst_6, %76 [0] : f32 into vector<2xf32>
      %267 = arith.addi %false_5, %true : i1
      %cst_46 = arith.constant 0x4D10741F : f32
    }
    %154 = memref.realloc %alloc_14 : memref<15xf32> to memref<12xf32>
    %from_elements_32 = tensor.from_elements %65, %c1777150014_i32, %c342629357_i32, %65, %c1291372147_i32, %c342629357_i32, %c1777150014_i32, %65, %c1777150014_i32, %c1291372147_i32, %c1291372147_i32, %c1777150014_i32, %c1777150014_i32, %65, %65, %c614625657_i32, %c342629357_i32, %c614625657_i32, %c614625657_i32, %65, %c614625657_i32, %65, %c614625657_i32, %c342629357_i32, %c1291372147_i32, %c1777150014_i32, %c342629357_i32, %65, %65, %c1777150014_i32, %c614625657_i32, %65, %c1291372147_i32, %c342629357_i32, %c1777150014_i32, %c1291372147_i32, %c1777150014_i32, %c342629357_i32, %c614625657_i32, %c1777150014_i32, %c614625657_i32, %c614625657_i32, %65, %c342629357_i32, %c614625657_i32, %c1291372147_i32, %65, %c1291372147_i32, %c614625657_i32, %65, %65, %c342629357_i32, %c614625657_i32, %c1777150014_i32, %c342629357_i32, %c342629357_i32, %65, %c342629357_i32, %c1777150014_i32, %c1291372147_i32, %c614625657_i32, %c614625657_i32, %c1291372147_i32, %c1777150014_i32, %c614625657_i32, %c614625657_i32, %c1777150014_i32, %65, %c614625657_i32, %c614625657_i32, %c1777150014_i32, %c1291372147_i32, %c614625657_i32, %65, %c342629357_i32, %65, %c1291372147_i32, %c1291372147_i32, %c342629357_i32, %65, %65, %c342629357_i32, %c1777150014_i32, %65, %65, %c614625657_i32, %c1291372147_i32, %c1777150014_i32, %65, %c614625657_i32, %c1291372147_i32, %c1291372147_i32, %c1291372147_i32, %c342629357_i32, %c614625657_i32, %c1291372147_i32, %c1291372147_i32, %65, %c1291372147_i32, %c1777150014_i32, %65, %c614625657_i32, %c1291372147_i32, %c614625657_i32, %c342629357_i32, %c614625657_i32, %c342629357_i32, %c1291372147_i32, %c342629357_i32, %c1777150014_i32, %65, %65, %c614625657_i32, %65, %65, %c1291372147_i32, %65, %c1777150014_i32, %65, %c1291372147_i32, %c1777150014_i32, %c1777150014_i32, %c1291372147_i32, %65, %c342629357_i32, %c614625657_i32, %c1291372147_i32, %65, %c614625657_i32, %c1291372147_i32, %c342629357_i32, %c1777150014_i32, %c614625657_i32, %65, %65, %65, %65, %c614625657_i32, %c1777150014_i32, %c614625657_i32, %65, %65, %65, %c1291372147_i32, %c1291372147_i32, %c1291372147_i32, %c342629357_i32, %c614625657_i32, %c1777150014_i32, %c614625657_i32, %c342629357_i32, %c1291372147_i32, %c1291372147_i32, %c614625657_i32, %c614625657_i32, %c342629357_i32, %c1777150014_i32, %c614625657_i32, %c342629357_i32, %65, %c1777150014_i32, %65, %c1777150014_i32, %c1291372147_i32, %c1291372147_i32, %c1777150014_i32, %c1291372147_i32, %c1291372147_i32, %c614625657_i32, %c342629357_i32, %65, %65, %c1777150014_i32, %c614625657_i32, %65, %c1777150014_i32, %c1291372147_i32, %c1291372147_i32, %c614625657_i32, %c342629357_i32, %c1291372147_i32, %c614625657_i32, %c614625657_i32, %c614625657_i32, %c1777150014_i32, %c614625657_i32, %c342629357_i32, %c614625657_i32, %c342629357_i32, %c342629357_i32, %65, %c1291372147_i32, %c1777150014_i32, %65, %65, %c614625657_i32, %c614625657_i32, %c1291372147_i32, %c614625657_i32, %c342629357_i32, %65, %c1291372147_i32, %c1777150014_i32, %65, %65, %c342629357_i32, %c342629357_i32, %c614625657_i32, %65, %c1777150014_i32, %c614625657_i32, %c614625657_i32, %c342629357_i32, %c614625657_i32, %c614625657_i32, %65, %c614625657_i32, %c1777150014_i32, %c1291372147_i32, %c342629357_i32, %c614625657_i32, %c614625657_i32, %c1777150014_i32, %c342629357_i32, %c614625657_i32, %c1777150014_i32, %c614625657_i32, %c614625657_i32, %c1291372147_i32, %c342629357_i32, %65, %c1777150014_i32, %c342629357_i32, %c1291372147_i32, %c1777150014_i32, %c342629357_i32, %65, %c342629357_i32, %c1777150014_i32, %c1291372147_i32, %c1777150014_i32, %c342629357_i32, %c342629357_i32, %c342629357_i32, %c342629357_i32, %c1777150014_i32, %c1291372147_i32, %c1291372147_i32, %65, %c1777150014_i32, %c614625657_i32, %c342629357_i32, %c1291372147_i32, %c342629357_i32, %c1777150014_i32, %c1777150014_i32, %c342629357_i32, %c342629357_i32, %c342629357_i32, %65, %65, %c1291372147_i32, %c1777150014_i32, %c1291372147_i32, %c342629357_i32, %65, %c342629357_i32, %65, %c342629357_i32, %c1777150014_i32, %65, %c342629357_i32, %c614625657_i32, %c1777150014_i32, %c342629357_i32, %65, %c1291372147_i32, %65, %c342629357_i32, %c614625657_i32, %c1777150014_i32, %c1291372147_i32, %65, %c1291372147_i32, %c614625657_i32, %c1291372147_i32, %c1291372147_i32, %c1777150014_i32, %c614625657_i32, %c614625657_i32, %c1777150014_i32, %65, %c1291372147_i32, %c1777150014_i32, %c614625657_i32, %c1777150014_i32, %65, %c1291372147_i32, %65, %c1291372147_i32, %c342629357_i32, %65, %c1777150014_i32, %c342629357_i32, %c1291372147_i32, %c1777150014_i32, %c1777150014_i32, %65, %65, %c1777150014_i32, %c1777150014_i32, %c1777150014_i32, %c614625657_i32, %c1291372147_i32, %c342629357_i32, %c342629357_i32, %c1777150014_i32, %c614625657_i32, %c614625657_i32, %c1777150014_i32, %65, %c1777150014_i32, %c1291372147_i32, %65, %c342629357_i32, %65, %c1291372147_i32, %c1291372147_i32, %65, %c1291372147_i32, %c1777150014_i32, %c1777150014_i32, %65, %c1777150014_i32, %c342629357_i32, %c342629357_i32, %c1291372147_i32, %c342629357_i32, %c1291372147_i32, %c1291372147_i32, %c614625657_i32, %c1291372147_i32, %65, %c614625657_i32, %c1777150014_i32, %c1291372147_i32, %c1291372147_i32, %c614625657_i32, %c1777150014_i32, %65, %c614625657_i32, %c1777150014_i32, %c342629357_i32, %c1777150014_i32, %c342629357_i32, %c1777150014_i32, %c614625657_i32, %c342629357_i32, %c342629357_i32, %c1291372147_i32 : tensor<2x12x15xi32>
    %155 = memref.alloca_scope  -> (f32) {
      %generated = tensor.generate %95 {
      ^bb0(%arg3: index):
        vector.print %129 : vector<2xi16>
        %285 = arith.remui %false_5, %false : i1
        memref.store %cst_0, %alloc_13[%c2] : memref<5xf32>
        %286 = math.atan %cst_3 : f16
        tensor.yield %cst_2 : f32
      } : tensor<?xf32>
      %from_elements_46 = tensor.from_elements %c8837_i16, %135 : tensor<2xi16>
      %261 = arith.shrsi %65, %c1291372147_i32 : i32
      %rank_47 = tensor.rank %2 : tensor<5xi64>
      %262 = arith.subi %c1291372147_i32, %c614625657_i32 : i32
      %263 = index.casts %true : i1 to index
      %264 = bufferization.to_tensor %alloc_15 : memref<2x12x15xi16>
      memref.store %cst_3, %alloc_18[%c2] : memref<5xf16>
      %265 = vector.extract %32[0] : vector<2xi16>
      %266 = index.casts %c1777150014_i32 : i32 to index
      %267 = index.casts %c614625657_i32 : i32 to index
      %268 = math.fpowi %cst, %c614625657_i32 : f32, i32
      affine.for %arg3 = 0 to 41 {
      }
      %269 = math.atan %cst_3 : f16
      %270 = vector.splat %135 : vector<15xi16>
      %splat_48 = tensor.splat %106 : tensor<2xi64>
      %271 = math.powf %cst, %cst_2 : f32
      affine.store %c304038688_i64, %alloc_22[%c1] : memref<15xi64>
      %272 = math.log1p %cst_0 : f32
      %273 = vector.insert %cst, %139 [0] : f32 into vector<1xf32>
      %274 = math.log2 %124 : tensor<2x12x15xf32>
      %alloc_49 = memref.alloc() : memref<5xf32>
      memref.copy %alloc_13, %alloc_49 : memref<5xf32> to memref<5xf32>
      %275 = math.round %cst_0 : f32
      %276 = vector.insert %135, %35 [0] : i16 into vector<2xi16>
      %277 = vector.extract_strided_slice %139 {offsets = [0], sizes = [1], strides = [1]} : vector<1xf32> to vector<1xf32>
      %278 = vector.broadcast %c4 : index to vector<12xindex>
      %279 = vector.broadcast %false_5 : i1 to vector<12xi1>
      %280 = vector.broadcast %135 : i16 to vector<12xi16>
      vector.scatter %alloc_9[%c1] [%278], %279, %280 : memref<2xi16>, vector<12xindex>, vector<12xi1>, vector<12xi16>
      %cast_50 = tensor.cast %9 : tensor<2xi32> to tensor<?xi32>
      %281 = math.expm1 %cst_3 : f16
      memref.assume_alignment %alloc_19, 1 : memref<5xi64>
      %282 = math.atan %cst_0 : f32
      %283 = arith.addi %false_1, %false_1 : i1
      %284 = vector.extract %91[1] : vector<2xf32>
      memref.alloca_scope.return %cst_6 : f32
    }
    %156 = arith.ori %c342629357_i32, %65 : i32
    %157 = tensor.empty() : tensor<2x12x15xi1>
    %158 = math.atan2 %124, %124 : tensor<2x12x15xf32>
    %159 = index.mul %111, %74
    %160 = math.atan %155 : f32
    %161 = arith.subi %c342629357_i32, %c342629357_i32 : i32
    %162 = math.exp %124 : tensor<2x12x15xf32>
    %163 = math.tan %cst_4 : f16
    %164 = math.sqrt %cst : f32
    memref.assume_alignment %alloc_14, 16 : memref<15xf32>
    %165 = math.fpowi %140, %c1777150014_i32 : f32, i32
    %from_elements_33 = tensor.from_elements %135, %c8837_i16, %135, %c8837_i16, %135, %c8837_i16, %c8837_i16, %135, %c8837_i16, %c8837_i16, %c8837_i16, %c8837_i16, %135, %135, %c8837_i16 : tensor<15xi16>
    %from_elements_34 = tensor.from_elements %c614625657_i32, %c1777150014_i32 : tensor<2xi32>
    %166 = index.ceildivu %c0, %c1
    %167 = math.ipowi %137, %137 : tensor<24x12xi64>
    %from_elements_35 = tensor.from_elements %c8837_i16, %135, %c8837_i16, %c8837_i16, %c8837_i16, %c8837_i16, %c8837_i16, %c8837_i16, %c8837_i16, %c8837_i16, %135, %c8837_i16, %c8837_i16, %135, %c8837_i16, %135, %135, %c8837_i16, %135, %135, %135, %c8837_i16, %135, %c8837_i16, %135, %135, %135, %c8837_i16, %c8837_i16, %135, %135, %135, %c8837_i16, %135, %c8837_i16, %135, %135, %c8837_i16, %c8837_i16, %c8837_i16, %c8837_i16, %c8837_i16, %135, %135, %c8837_i16, %c8837_i16, %c8837_i16, %135, %135, %c8837_i16, %c8837_i16, %c8837_i16, %135, %c8837_i16, %135, %135, %135, %c8837_i16, %135, %c8837_i16, %c8837_i16, %135, %c8837_i16, %135, %c8837_i16, %135, %135, %c8837_i16, %135, %c8837_i16, %c8837_i16, %c8837_i16, %135, %c8837_i16, %c8837_i16, %c8837_i16, %c8837_i16, %c8837_i16, %c8837_i16, %135, %c8837_i16, %135, %c8837_i16, %c8837_i16, %135, %c8837_i16, %135, %c8837_i16, %135, %135, %c8837_i16, %135, %135, %c8837_i16, %135, %135, %135, %135, %135, %135, %135, %135, %c8837_i16, %135, %c8837_i16, %c8837_i16, %c8837_i16, %c8837_i16, %c8837_i16, %c8837_i16, %135, %135, %c8837_i16, %c8837_i16, %135, %c8837_i16, %135, %135, %c8837_i16, %c8837_i16, %135, %135, %135, %135, %135, %c8837_i16, %c8837_i16, %135, %c8837_i16, %c8837_i16, %135, %c8837_i16, %135, %c8837_i16, %135, %135, %135, %135, %c8837_i16, %135, %c8837_i16, %c8837_i16, %c8837_i16, %135, %135, %c8837_i16, %c8837_i16, %135, %135, %c8837_i16, %135, %135, %135, %135, %135, %135, %135, %c8837_i16, %135, %c8837_i16, %c8837_i16, %135, %c8837_i16, %c8837_i16, %c8837_i16, %c8837_i16, %135, %c8837_i16, %c8837_i16, %135, %c8837_i16, %c8837_i16, %135, %135, %135, %135, %c8837_i16, %135, %c8837_i16, %c8837_i16, %c8837_i16, %c8837_i16, %c8837_i16, %135, %c8837_i16, %135, %c8837_i16, %135, %c8837_i16, %135, %135, %135, %c8837_i16, %c8837_i16, %c8837_i16, %c8837_i16, %135, %c8837_i16, %135, %135, %c8837_i16, %135, %c8837_i16, %135, %135, %135, %135, %c8837_i16, %135, %135, %135, %c8837_i16, %135, %c8837_i16, %135, %135, %c8837_i16, %c8837_i16, %135, %c8837_i16, %135, %135, %135, %c8837_i16, %135, %c8837_i16, %c8837_i16, %c8837_i16, %c8837_i16, %c8837_i16, %c8837_i16, %135, %c8837_i16, %135, %c8837_i16, %c8837_i16, %c8837_i16, %135, %c8837_i16, %135, %135, %c8837_i16, %135, %c8837_i16, %135, %135, %c8837_i16, %c8837_i16, %c8837_i16, %c8837_i16, %c8837_i16, %135, %135, %135, %135, %135, %c8837_i16, %c8837_i16, %c8837_i16, %135, %135, %c8837_i16, %c8837_i16, %c8837_i16, %135, %135, %135, %135, %c8837_i16, %c8837_i16, %c8837_i16, %135, %135, %c8837_i16, %c8837_i16, %c8837_i16, %135, %135, %135, %c8837_i16, %c8837_i16, %135, %135, %135, %c8837_i16, %c8837_i16, %135, %135, %135, %135, %c8837_i16, %135, %135, %135, %c8837_i16, %135, %135, %c8837_i16, %135, %135, %135, %135, %135, %c8837_i16, %c8837_i16, %c8837_i16, %c8837_i16, %c8837_i16, %c8837_i16, %c8837_i16, %c8837_i16, %135, %135, %c8837_i16, %135, %c8837_i16, %135, %c8837_i16, %c8837_i16, %135, %135, %c8837_i16, %135, %c8837_i16, %135, %c8837_i16, %135, %c8837_i16, %135, %c8837_i16, %c8837_i16, %c8837_i16, %c8837_i16, %c8837_i16, %c8837_i16, %c8837_i16, %135, %c8837_i16, %135, %c8837_i16, %135, %135, %c8837_i16, %c8837_i16, %135, %135, %c8837_i16, %c8837_i16, %135, %135, %c8837_i16, %c8837_i16, %c8837_i16, %135, %135, %135, %135, %135, %135, %135 : tensor<2x12x15xi16>
    %168 = index.maxu %c15, %c7
    %169 = math.log %cst_6 : f32
    %170 = math.floor %124 : tensor<2x12x15xf32>
    %171 = math.log10 %140 : f32
    %cast_36 = tensor.cast %7 : tensor<15xi1> to tensor<?xi1>
    %172 = arith.shli %true, %false_1 : i1
    %173 = math.ceil %cst_4 : f16
    %174 = math.tanh %cst_0 : f32
    %175 = vector.shuffle %20, %20 [0, 1, 2, 3, 6, 8, 10, 11, 12, 14, 16, 18, 20, 21, 23] : vector<12xf16>, vector<12xf16>
    scf.index_switch %c6 
    case 1 {
      %261 = scf.while (%arg3 = %91) : (vector<2xf32>) -> vector<2xf32> {
        %273 = arith.muli %135, %c8837_i16 : i16
        %274 = vector.insertelement %cst_0, %61[%110 : index] : vector<2xf32>
        %cast_48 = tensor.cast %13 : tensor<5xi16> to tensor<?xi16>
        %275 = math.log10 %140 : f32
        %276 = index.sub %90, %166
        %277 = math.copysign %cst_0, %cst_0 : f32
        %278 = arith.divsi %c1291372147_i32, %c1777150014_i32 : i32
        %279 = arith.mulf %cst_3, %cst_3 : f16
        scf.condition(%true) %91 : vector<2xf32>
      } do {
      ^bb0(%arg3: vector<2xf32>):
        %273 = vector.transpose %139, [0] : vector<1xf32> to vector<1xf32>
        memref.tensor_store %15, %alloc_22 : memref<15xi64>
        %274 = math.atan %124 : tensor<2x12x15xf32>
        %275 = arith.addf %cst_2, %155 : f32
        %276 = math.fpowi %cst_3, %c614625657_i32 : f16, i32
        %277 = memref.atomic_rmw addf %cst_6, %alloc_20[%c0] : (f32, memref<2xf32>) -> f32
        %278 = arith.negf %140 : f32
        %279 = index.ceildivs %168, %c10
        %280 = vector.create_mask %c13, %99, %c8 : vector<2x12x15xi1>
        %281 = math.floor %124 : tensor<2x12x15xf32>
        %282 = arith.addi %c304038688_i64, %c1750124934_i64 : i64
        %283 = arith.remf %cst_3, %cst_3 : f16
        %284 = affine.min affine_map<(d0, d1, d2) -> (-d1)>(%28, %99, %168)
        %285 = arith.remsi %c614625657_i32, %c614625657_i32 : i32
        %286 = memref.load %alloc[%c0] : memref<2xf32>
        %287 = arith.shrsi %c614625657_i32, %c614625657_i32 : i32
        scf.yield %91 : vector<2xf32>
      }
      %262 = index.ceildivs %122, %74
      %263 = vector.insertelement %cst_3, %20[%c1 : index] : vector<12xf16>
      %from_elements_46 = tensor.from_elements %106, %106, %106, %c1750124934_i64, %c1750124934_i64 : tensor<5xi64>
      %alloc_47 = memref.alloc() : memref<15xi64>
      memref.copy %alloc_22, %alloc_47 : memref<15xi64> to memref<15xi64>
      %264 = math.tanh %cst_6 : f32
      %265 = arith.divf %cst_0, %cst_0 : f32
      %266 = math.rsqrt %cst_4 : f16
      %267 = math.ipowi %11, %11 : tensor<15xi64>
      %268 = math.atan %155 : f32
      %269 = math.absf %155 : f32
      memref.alloca_scope  {
        %273 = math.roundeven %cst_3 : f16
        %274 = math.copysign %124, %124 : tensor<2x12x15xf32>
        %275 = arith.subi %c304038688_i64, %106 : i64
        %276 = arith.shrsi %65, %c614625657_i32 : i32
        %277 = memref.atomic_rmw minf %155, %alloc_11[%c0] : (f32, memref<2xf32>) -> f32
        %278 = arith.divsi %false, %false_1 : i1
        %279 = arith.andi %c1777150014_i32, %c1777150014_i32 : i32
        %280 = arith.divsi %65, %65 : i32
        %281 = index.sizeof
        %282 = arith.addi %c8837_i16, %135 : i16
        %283 = vector.broadcast %c304038688_i64 : i64 to vector<i64>
        %284 = vector.transfer_write %283, %15[%262] : vector<i64>, tensor<15xi64>
        %285 = arith.xori %false, %false : i1
        %286 = vector.extract %73[5] : vector<15xf32>
        %287 = index.sub %144, %c10
        %288 = arith.maxsi %c1750124934_i64, %c304038688_i64 : i64
        %cast_48 = tensor.cast %4 : tensor<15xi32> to tensor<?xi32>
        %289 = arith.addi %false_5, %false_5 : i1
        %290 = arith.divf %140, %cst_2 : f32
        %291 = arith.remsi %106, %c1750124934_i64 : i64
        %292 = index.mul %c12, %159
        %293 = arith.divsi %c304038688_i64, %c304038688_i64 : i64
        %294 = vector.extract %60[0] : vector<2xf32>
        %295 = arith.ceildivsi %false_5, %true : i1
        %296 = index.ceildivs %c13, %111
        %297 = affine.load %alloc_8[%c5] : memref<2xf16>
        memref.copy %alloc, %alloc_20 : memref<2xf32> to memref<2xf32>
        %298 = math.round %cst_2 : f32
        %299 = arith.ori %c614625657_i32, %c1291372147_i32 : i32
        %300 = math.ceil %cst_3 : f16
        %301 = bufferization.to_memref %15 : memref<15xi64>
        %302 = bufferization.to_tensor %alloc_20 : memref<2xf32>
        %303 = arith.addf %cst, %cst : f32
      }
      %270 = math.cos %cst_0 : f32
      %271 = math.expm1 %140 : f32
      %272 = tensor.empty() : tensor<5xi64>
      memref.assume_alignment %alloc_13, 1 : memref<5xf32>
      scf.yield
    }
    case 2 {
      %261 = arith.ceildivsi %false_5, %false_5 : i1
      %262 = math.atan %59 : tensor<5xf32>
      %263 = bufferization.to_tensor %alloc_21 : memref<2x12x15xf16>
      %264 = index.divu %c3, %c14
      %265 = memref.atomic_rmw maxf %cst, %alloc[%c1] : (f32, memref<2xf32>) -> f32
      %266 = scf.if %false -> (i1) {
        %276 = bufferization.to_memref %cast_26 : memref<?xi64>
        %277 = bufferization.to_tensor %alloc_16 : memref<15xi16>
        %278 = bufferization.to_tensor %alloc_12 : memref<2x12x15xf32>
        %279 = arith.maxf %cst_2, %155 : f32
        %280 = arith.shrui %c1777150014_i32, %65 : i32
        %281 = math.fma %cst_6, %cst_2, %140 : f32
        %282 = index.ceildivs %77, %77
        %283 = arith.ori %c614625657_i32, %c614625657_i32 : i32
        scf.yield %true : i1
      } else {
        %splat_46 = tensor.splat %c8837_i16 : tensor<15xi16>
        %cast_47 = tensor.cast %7 : tensor<15xi1> to tensor<?xi1>
        %276 = affine.load %alloc_16[%c4] : memref<15xi16>
        %277 = math.log %59 : tensor<5xf32>
        %cast_48 = tensor.cast %19 : tensor<i64> to tensor<i64>
        %278 = affine.load %alloc_12[%c1, %c2, %c9] : memref<2x12x15xf32>
        %279 = arith.addi %106, %c1750124934_i64 : i64
        %280 = math.ceil %263 : tensor<2x12x15xf16>
        scf.yield %false_5 : i1
      }
      %267 = memref.atomic_rmw addf %140, %alloc[%c1] : (f32, memref<2xf32>) -> f32
      %268 = index.divu %c5, %c11
      %269 = math.round %cst_6 : f32
      %270 = math.rsqrt %140 : f32
      %271 = vector.transpose %73, [0] : vector<15xf32> to vector<15xf32>
      %272 = arith.muli %c1291372147_i32, %65 : i32
      %273 = affine.apply affine_map<(d0, d1) -> (d1 - 32)>(%c7, %168)
      %274 = vector.load %alloc_15[%c1, %c10, %c12] : memref<2x12x15xi16>, vector<5xi16>
      %275 = index.casts %c1291372147_i32 : i32 to index
      affine.store %cst_2, %alloc[%c11] : memref<2xf32>
      scf.yield
    }
    default {
      %261 = bufferization.to_tensor %alloc_13 : memref<5xf32>
      %262 = math.tanh %cst_4 : f16
      %263 = arith.andi %c342629357_i32, %c1777150014_i32 : i32
      %264 = index.sizeof
      affine.store %cst_4, %alloc_8[%c8] : memref<2xf16>
      %265 = arith.divui %106, %c1750124934_i64 : i64
      %266 = math.powf %cst_2, %cst_6 : f32
      %267 = index.mul %99, %c9
      %268 = tensor.empty() : tensor<15xi64>
      %269 = index.divu %c9, %c5
      %270 = arith.shli %65, %c614625657_i32 : i32
      %271 = math.exp %cst_0 : f32
      %272 = bufferization.to_tensor %alloc_9 : memref<2xi16>
      %273 = tensor.empty(%c5, %111) : tensor<?x?x15xf32>
      %274 = arith.divui %c614625657_i32, %c614625657_i32 : i32
      %275 = bufferization.clone %alloc_19 : memref<5xi64> to memref<5xi64>
    }
    %176 = scf.while (%arg3 = %alloc) : (memref<2xf32>) -> memref<2xf32> {
      %261 = math.cttz %false_1 : i1
      %262 = vector.splat %c6 : vector<15xindex>
      %263 = arith.divf %cst_2, %155 : f32
      %264 = arith.shli %c1750124934_i64, %c1750124934_i64 : i64
      %from_elements_46 = tensor.from_elements %cst_4, %cst_4 : tensor<2xf16>
      %265 = arith.maxsi %c1777150014_i32, %c1777150014_i32 : i32
      %266 = math.ipowi %87, %87 : tensor<2x12x15xi16>
      %267 = scf.while (%arg4 = %alloc_8) : (memref<2xf16>) -> memref<2xf16> {
        %268 = vector.load %25[%c0] : memref<2xf32>, vector<2xf32>
        %269 = math.exp2 %from_elements_46 : tensor<2xf16>
        %270 = arith.divf %cst_3, %cst_3 : f16
        affine.store %cst_3, %alloc_8[%c8] : memref<2xf16>
        %cast_47 = tensor.cast %collapsed : tensor<24x15xi64> to tensor<?x?xi64>
        %true_48 = index.bool.constant true
        %271 = index.add %77, %107
        %272 = affine.load %alloc_11[%c13] : memref<2xf32>
        scf.condition(%false_5) %arg4 : memref<2xf16>
      } do {
      ^bb0(%arg4: memref<2xf16>):
        %268 = vector.splat %28 : vector<15xindex>
        %269 = vector.broadcast %99 : index to vector<2xindex>
        vector.scatter %alloc_16[%c4] [%269], %33, %129 : memref<15xi16>, vector<2xindex>, vector<2xi1>, vector<2xi16>
        %270 = vector.broadcast %77 : index to vector<2xindex>
        %271 = vector.broadcast %cst_3 : f16 to vector<2xf16>
        vector.scatter %alloc_21[%c0, %c3, %c0] [%270], %33, %271 : memref<2x12x15xf16>, vector<2xindex>, vector<2xi1>, vector<2xf16>
        %272 = index.sub %c12, %c14
        %273 = vector.transpose %76, [0] : vector<2xf32> to vector<2xf32>
        %274 = arith.divsi %c1291372147_i32, %65 : i32
        %cast_47 = tensor.cast %15 : tensor<15xi64> to tensor<?xi64>
        %275 = vector.load %alloc_12[%c1, %c9, %c11] : memref<2x12x15xf32>, vector<15xf32>
        %276 = vector.insertelement %155, %76[%c7 : index] : vector<2xf32>
        %rank_48 = tensor.rank %6 : tensor<5xi16>
        %277 = vector.create_mask %c6 : vector<5xi1>
        %c1_i64 = arith.constant 1 : i64
        %278 = vector.transfer_read %11[%95], %c1_i64 : tensor<15xi64>, vector<i64>
        %279 = memref.realloc %alloc_8 : memref<2xf16> to memref<12xf16>
        %280 = arith.remf %155, %cst_6 : f32
        %281 = arith.divsi %c304038688_i64, %c1_i64 : i64
        %282 = vector.flat_transpose %76 {columns = 1 : i32, rows = 2 : i32} : vector<2xf32> -> vector<2xf32>
        scf.yield %alloc_8 : memref<2xf16>
      }
      scf.condition(%true) %arg3 : memref<2xf32>
    } do {
    ^bb0(%arg3: memref<2xf32>):
      %261 = arith.divsi %c342629357_i32, %c342629357_i32 : i32
      %262 = arith.negf %cst : f32
      %263 = arith.remui %c1777150014_i32, %c614625657_i32 : i32
      %264 = math.ctpop %9 : tensor<2xi32>
      %265 = math.exp %cst_2 : f32
      %266 = index.floordivs %c14, %46
      %267 = math.round %cst_4 : f16
      %268 = bufferization.to_tensor %alloc_7 : memref<5xi16>
      %269 = affine.if affine_set<(d0) : (d0 * -8 == 0)>(%c1) -> memref<2x12x15xf16> {
        %276 = arith.addi %65, %c614625657_i32 : i32
        %c818650543_i32 = arith.constant 818650543 : i32
        %277 = math.rsqrt %cst_4 : f16
        %278 = arith.remui %c1750124934_i64, %106 : i64
        %279 = index.divs %c7, %46
        %280 = vector.extract_strided_slice %35 {offsets = [0], sizes = [1], strides = [1]} : vector<2xi16> to vector<1xi16>
        %281 = math.floor %cst : f32
        %282 = arith.addi %c1777150014_i32, %65 : i32
        affine.yield %alloc_21 : memref<2x12x15xf16>
      } else {
        %276 = arith.shrsi %c614625657_i32, %c342629357_i32 : i32
        %277 = math.log2 %124 : tensor<2x12x15xf32>
        %278 = arith.shrui %false_5, %false_1 : i1
        %279 = memref.realloc %alloc_16 : memref<15xi16> to memref<2xi16>
        %c1_i64 = arith.constant 1 : i64
        %c0_i64 = arith.constant 0 : i64
        %280 = vector.transfer_read %15[%c10], %c0_i64 : tensor<15xi64>, vector<i64>
        %281 = index.ceildivs %168, %63
        %282 = arith.divsi %106, %106 : i64
        %283 = vector.load %alloc_17[%c1] : memref<2xi16>, vector<5xi16>
        affine.yield %alloc_21 : memref<2x12x15xf16>
      }
      %270 = math.log10 %155 : f32
      %271 = scf.while (%arg4 = %76) : (vector<2xf32>) -> vector<2xf32> {
        %276 = bufferization.to_tensor %alloc_19 : memref<5xi64>
        %alloc_47 = memref.alloc() : memref<5xi64>
        memref.copy %alloc_19, %alloc_47 : memref<5xi64> to memref<5xi64>
        %277 = index.sizeof
        %278 = arith.muli %c8837_i16, %135 : i16
        %279 = arith.mulf %cst_6, %cst : f32
        %280 = vector.extract_strided_slice %61 {offsets = [0], sizes = [2], strides = [1]} : vector<2xf32> to vector<2xf32>
        %281 = affine.apply affine_map<(d0, d1) -> (-(d0 * 2 + 18))>(%c6, %rank)
        %282 = math.atan %cst_0 : f32
        scf.condition(%false_5) %91 : vector<2xf32>
      } do {
      ^bb0(%arg4: vector<2xf32>):
        %276 = vector.bitcast %32 : vector<2xi16> to vector<2xf16>
        %277 = math.tan %59 : tensor<5xf32>
        %278 = affine.apply affine_map<(d0, d1, d2) -> (-(d1 mod 8))>(%28, %28, %c6)
        %true_47 = arith.constant true
        %279 = memref.realloc %alloc_13 : memref<5xf32> to memref<15xf32>
        %280 = arith.shrsi %false_1, %true : i1
        %281 = math.log %cst : f32
        %282 = math.round %cst_6 : f32
        %283 = arith.minf %cst, %cst_2 : f32
        %284 = arith.remf %cst_3, %cst_4 : f16
        %285 = arith.shrsi %c342629357_i32, %c1291372147_i32 : i32
        %286 = arith.negf %cst_3 : f16
        %287 = arith.minui %c1777150014_i32, %c1291372147_i32 : i32
        %288 = arith.negf %cst_2 : f32
        %289 = index.maxs %111, %46
        %290 = math.roundeven %cst_2 : f32
        scf.yield %91 : vector<2xf32>
      }
      %272 = vector.reduction <maxf>, %76 : vector<2xf32> into f32
      %splat_46 = tensor.splat %c1291372147_i32 : tensor<2xi32>
      %273 = affine.apply affine_map<(d0, d1) -> (d1 - 32)>(%116, %166)
      %274 = math.copysign %59, %59 : tensor<5xf32>
      %275 = index.divu %77, %273
      scf.yield %alloc : memref<2xf32>
    }
    %177 = math.fpowi %124, %142 : tensor<2x12x15xf32>, tensor<2x12x15xi32>
    %178 = arith.negf %cst_3 : f16
    %179 = arith.negf %cst_2 : f32
    %c0_i32 = arith.constant 0 : i32
    %c0_i32_37 = arith.constant 0 : i32
    %180 = vector.transfer_read %4[%115], %c0_i32_37 : tensor<15xi32>, vector<i32>
    %181 = tensor.empty() : tensor<12xf32>
    %182 = tensor.empty() : tensor<2x15xf32>
    %183 = linalg.generic {indexing_maps = [affine_map<(d0, d1, d2) -> (d1)>, affine_map<(d0, d1, d2) -> (d2)>, affine_map<(d0, d1, d2) -> (d0, d2)>, affine_map<(d0, d1, d2) -> (d0, d1, d2)>], iterator_types = ["parallel", "parallel", "parallel"]} ins(%181, %alloc_14, %182 : tensor<12xf32>, memref<15xf32>, tensor<2x15xf32>) outs(%124 : tensor<2x12x15xf32>) {
    ^bb0(%in: f32, %in_46: f32, %in_47: f32, %out: f32):
      %261 = math.round %out : f32
      %262 = index.sub %c3, %122
      %263 = index.casts %c14 : index to i32
      %264 = scf.while (%arg3 = %alloc_20) : (memref<2xf32>) -> memref<2xf32> {
        %from_elements_51 = tensor.from_elements %135, %c8837_i16, %135, %c8837_i16, %c8837_i16, %c8837_i16, %135, %c8837_i16, %c8837_i16, %135, %135, %135, %135, %c8837_i16, %135 : tensor<15xi16>
        %289 = index.divs %95, %77
        vector.print %34 : vector<2xi32>
        %290 = arith.addi %true, %false_1 : i1
        %291 = vector.broadcast %135 : i16 to vector<i16>
        %292 = vector.transfer_write %291, %3[%c10] : vector<i16>, tensor<15xi16>
        %293 = vector.insert %false, %33 [1] : i1 into vector<2xi1>
        %294 = vector.extract_strided_slice %76 {offsets = [0], sizes = [1], strides = [1]} : vector<2xf32> to vector<1xf32>
        %295 = bufferization.to_memref %splat : memref<2xi64>
        scf.condition(%false_1) %alloc : memref<2xf32>
      } do {
      ^bb0(%arg3: memref<2xf32>):
        %289 = math.tan %cst_2 : f32
        %290 = bufferization.to_tensor %alloc_9 : memref<2xi16>
        %291 = arith.andi %c614625657_i32, %c614625657_i32 : i32
        %292 = arith.divsi %106, %106 : i64
        %293 = math.ipowi %0, %0 : tensor<2x12x15xi1>
        %294 = math.atan2 %cst_4, %cst_4 : f16
        %295 = math.ipowi %14, %14 : tensor<15xi64>
        %cast_51 = tensor.cast %8 : tensor<2x12x15xi64> to tensor<?x?x?xi64>
        %296 = arith.xori %false, %false_1 : i1
        %297 = tensor.empty() : tensor<5xf32>
        %298 = arith.negf %in : f32
        %from_elements_52 = tensor.from_elements %true, %false_1 : tensor<2xi1>
        %299 = vector.flat_transpose %34 {columns = 1 : i32, rows = 2 : i32} : vector<2xi32> -> vector<2xi32>
        %300 = vector.shuffle %20, %20 [0, 4, 5, 10, 15, 16, 20] : vector<12xf16>, vector<12xf16>
        %301 = arith.minui %c614625657_i32, %c1777150014_i32 : i32
        %302 = memref.load %alloc[%c1] : memref<2xf32>
        scf.yield %alloc_20 : memref<2xf32>
      }
      %265 = vector.create_mask %c1 : vector<15xi1>
      %266 = math.tanh %cst_2 : f32
      %267 = index.casts %c304038688_i64 : i64 to index
      %268 = arith.divf %cst_2, %in : f32
      %from_elements_48 = tensor.from_elements %c8837_i16, %135 : tensor<2xi16>
      %269 = vector.transpose %76, [0] : vector<2xf32> to vector<2xf32>
      %generated = tensor.generate %c11 {
      ^bb0(%arg3: index):
        %289 = math.cttz %12 : tensor<15xi16>
        %290 = arith.shli %106, %c304038688_i64 : i64
        %291 = index.mul %115, %c1
        %292 = vector.extract %20[11] : vector<12xf16>
        tensor.yield %135 : i16
      } : tensor<?xi16>
      %alloc_49 = memref.alloc() : memref<2x12x15xi64>
      memref.copy %alloc_10, %alloc_49 : memref<2x12x15xi64> to memref<2x12x15xi64>
      %270 = vector.flat_transpose %47 {columns = 5 : i32, rows = 3 : i32} : vector<15xf32> -> vector<15xf32>
      %271 = index.sizeof
      %272 = arith.ceildivsi %false_1, %false_1 : i1
      %273 = arith.remsi %true, %false_5 : i1
      %274 = arith.addi %c0_i32, %c1777150014_i32 : i32
      %275 = index.mul %c12, %c6
      %276 = arith.remsi %false_5, %false_1 : i1
      %277 = vector.splat %false_1 : vector<2xi1>
      %278 = arith.remsi %false_5, %false : i1
      %279 = arith.addf %cst_0, %cst : f32
      %generated_50 = tensor.generate %275 {
      ^bb0(%arg3: index):
        %289 = arith.subi %true, %false_1 : i1
        %290 = arith.minf %155, %cst_6 : f32
        %291 = vector.flat_transpose %33 {columns = 1 : i32, rows = 2 : i32} : vector<2xi1> -> vector<2xi1>
        %292 = vector.broadcast %cst_0 : f32 to vector<15xf32>
        %293 = vector.fma %292, %47, %47 : vector<15xf32>
        tensor.yield %135 : i16
      } : tensor<?xi16>
      %280 = scf.index_switch %c2 -> index 
      case 1 {
        %289 = math.ipowi %collapsed_25, %collapsed_25 : tensor<360xi64>
        %290 = arith.divui %c614625657_i32, %65 : i32
        %291 = arith.muli %false_5, %true : i1
        %292 = arith.cmpi ugt, %c8837_i16, %c8837_i16 : i16
        %c1052_i16 = arith.constant 1052 : i16
        %293 = bufferization.to_memref %59 : memref<5xf32>
        %294 = math.absi %4 : tensor<15xi32>
        %295 = arith.cmpf ogt, %155, %out : f32
        %296 = vector.extract_strided_slice %91 {offsets = [0], sizes = [2], strides = [1]} : vector<2xf32> to vector<2xf32>
        %from_elements_51 = tensor.from_elements %cst_4, %cst_3, %cst_3, %cst_3, %cst_4, %cst_4, %cst_3, %cst_3, %cst_3, %cst_4, %cst_4, %cst_3, %cst_4, %cst_4, %cst_4, %cst_3, %cst_3, %cst_3, %cst_3, %cst_3, %cst_4, %cst_4, %cst_3, %cst_3, %cst_3, %cst_3, %cst_4, %cst_3, %cst_3, %cst_3, %cst_3, %cst_3, %cst_4, %cst_3, %cst_4, %cst_4, %cst_4, %cst_3, %cst_4, %cst_3, %cst_4, %cst_3, %cst_4, %cst_4, %cst_3, %cst_3, %cst_3, %cst_3, %cst_4, %cst_4, %cst_3, %cst_3, %cst_3, %cst_3, %cst_4, %cst_4, %cst_4, %cst_3, %cst_3, %cst_4, %cst_4, %cst_4, %cst_3, %cst_3, %cst_4, %cst_4, %cst_4, %cst_3, %cst_3, %cst_4, %cst_4, %cst_4, %cst_4, %cst_3, %cst_3, %cst_4, %cst_3, %cst_3, %cst_3, %cst_4, %cst_3, %cst_3, %cst_3, %cst_4, %cst_4, %cst_3, %cst_3, %cst_3, %cst_3, %cst_3, %cst_4, %cst_3, %cst_4, %cst_3, %cst_3, %cst_4, %cst_3, %cst_3, %cst_3, %cst_3, %cst_3, %cst_4, %cst_3, %cst_4, %cst_4, %cst_3, %cst_3, %cst_3, %cst_4, %cst_4, %cst_4, %cst_3, %cst_4, %cst_4, %cst_3, %cst_4, %cst_4, %cst_3, %cst_3, %cst_3, %cst_3, %cst_3, %cst_4, %cst_4, %cst_3, %cst_3, %cst_3, %cst_4, %cst_3, %cst_3, %cst_3, %cst_3, %cst_3, %cst_4, %cst_4, %cst_4, %cst_3, %cst_4, %cst_4, %cst_4, %cst_4, %cst_4, %cst_4, %cst_3, %cst_3, %cst_4, %cst_3, %cst_3, %cst_4, %cst_3, %cst_4, %cst_4, %cst_4, %cst_3, %cst_3, %cst_3, %cst_4, %cst_4, %cst_4, %cst_3, %cst_4, %cst_4, %cst_3, %cst_3, %cst_4, %cst_4, %cst_3, %cst_4, %cst_3, %cst_4, %cst_3, %cst_4, %cst_4, %cst_3, %cst_3, %cst_3, %cst_3, %cst_4, %cst_4, %cst_3, %cst_4, %cst_3, %cst_3, %cst_3, %cst_3, %cst_4, %cst_3, %cst_3, %cst_4, %cst_3, %cst_3, %cst_4, %cst_3, %cst_4, %cst_4, %cst_4, %cst_3, %cst_3, %cst_3, %cst_4, %cst_4, %cst_3, %cst_4, %cst_4, %cst_3, %cst_4, %cst_3, %cst_4, %cst_3, %cst_4, %cst_4, %cst_3, %cst_4, %cst_3, %cst_4, %cst_4, %cst_3, %cst_3, %cst_3, %cst_4, %cst_4, %cst_4, %cst_4, %cst_4, %cst_4, %cst_4, %cst_3, %cst_4, %cst_4, %cst_3, %cst_4, %cst_4, %cst_4, %cst_3, %cst_4, %cst_4, %cst_4, %cst_3, %cst_3, %cst_3, %cst_3, %cst_3, %cst_3, %cst_3, %cst_4, %cst_3, %cst_3, %cst_4, %cst_3, %cst_3, %cst_3, %cst_4, %cst_4, %cst_3, %cst_4, %cst_3, %cst_4, %cst_4, %cst_3, %cst_3, %cst_3, %cst_4, %cst_4, %cst_3, %cst_4, %cst_3, %cst_4, %cst_4, %cst_3, %cst_4, %cst_4, %cst_3, %cst_3, %cst_4, %cst_3, %cst_3, %cst_3, %cst_3, %cst_3, %cst_4, %cst_4, %cst_4, %cst_3, %cst_3, %cst_4, %cst_4, %cst_4, %cst_3, %cst_3, %cst_3, %cst_4, %cst_4, %cst_4, %cst_3, %cst_3, %cst_4, %cst_4, %cst_3, %cst_4, %cst_4, %cst_3, %cst_4, %cst_4, %cst_3, %cst_4, %cst_4, %cst_3, %cst_4, %cst_3, %cst_3, %cst_3, %cst_3, %cst_4, %cst_4, %cst_3, %cst_4, %cst_3, %cst_4, %cst_4, %cst_3, %cst_4, %cst_4, %cst_4, %cst_3, %cst_3, %cst_3, %cst_3, %cst_3, %cst_3, %cst_3, %cst_3, %cst_4, %cst_3, %cst_3, %cst_3, %cst_3, %cst_3, %cst_3, %cst_4, %cst_4, %cst_4, %cst_3, %cst_4, %cst_4, %cst_3, %cst_4, %cst_3, %cst_3, %cst_4, %cst_3, %cst_4, %cst_4, %cst_4, %cst_4, %cst_3, %cst_4, %cst_4, %cst_3, %cst_3, %cst_4 : tensor<2x12x15xf16>
        %297 = math.round %124 : tensor<2x12x15xf32>
        %298 = arith.muli %false_5, %false_5 : i1
        %299 = math.tanh %in : f32
        %300 = arith.subi %c304038688_i64, %c304038688_i64 : i64
        %301 = index.maxs %c12, %90
        %302 = bufferization.to_tensor %alloc : memref<2xf32>
        scf.yield %116 : index
      }
      default {
        %289 = index.ceildivu %74, %95
        %290 = math.ipowi %c0_i32, %c1291372147_i32 : i32
        %splat_51 = tensor.splat %c1291372147_i32 : tensor<15xi32>
        %291 = math.round %in_47 : f32
        %292 = index.ceildivu %90, %168
        %293 = math.fpowi %cst_6, %c1291372147_i32 : f32, i32
        %splat_52 = tensor.splat %cst : tensor<15xf32>
        %294 = math.rsqrt %cst_2 : f32
        %295 = arith.addf %cst_4, %cst_3 : f16
        %296 = math.powf %155, %cst_6 : f32
        %297 = affine.load %alloc_21[%c6, %c5, %c1] : memref<2x12x15xf16>
        %298 = math.atan2 %cst_0, %in : f32
        %299 = tensor.empty(%c11) : tensor<2x?x15xi1>
        %300 = arith.subi %c342629357_i32, %65 : i32
        %301 = vector.broadcast %135 : i16 to vector<i16>
        vector.transfer_write %301, %alloc_17[%c1] : vector<i16>, memref<2xi16>
        %302 = arith.remf %cst_6, %in_47 : f32
        scf.yield %119 : index
      }
      %281 = tensor.empty(%95) : tensor<?xf16>
      %282 = arith.minf %cst, %155 : f32
      %283 = math.fpowi %cst_2, %c342629357_i32 : f32, i32
      %284 = vector.extract %35[1] : vector<2xi16>
      %285 = math.floor %in_47 : f32
      %286 = math.round %155 : f32
      %287 = index.add %c6, %90
      %288 = vector.flat_transpose %73 {columns = 5 : i32, rows = 3 : i32} : vector<15xf32> -> vector<15xf32>
      linalg.yield %out : f32
    } -> tensor<2x12x15xf32>
    %184 = index.divu %c8, %77
    %185 = math.atan2 %cst_4, %cst_3 : f16
    %186 = vector.splat %c1291372147_i32 : vector<5xi32>
    %187 = arith.divui %c1750124934_i64, %c304038688_i64 : i64
    %188 = arith.addf %cst_6, %cst : f32
    %189 = arith.divf %140, %155 : f32
    %190 = arith.ori %true, %false : i1
    %191 = index.divs %c15, %184
    %192 = vector.flat_transpose %60 {columns = 1 : i32, rows = 2 : i32} : vector<2xf32> -> vector<2xf32>
    memref.copy %alloc_20, %25 : memref<2xf32> to memref<2xf32>
    %193 = arith.shrui %false_5, %true : i1
    %194 = math.rsqrt %cst_3 : f16
    %195 = math.log %cst_6 : f32
    %196 = arith.shli %false_1, %false_1 : i1
    %197 = index.mul %c14, %c14
    %198 = math.copysign %cst_2, %cst : f32
    %199 = vector.load %alloc_20[%c1] : memref<2xf32>, vector<2x12x15xf32>
    %c271841568_i32 = arith.constant 271841568 : i32
    %200 = arith.addf %cst_3, %cst_3 : f16
    %201 = arith.minsi %false_5, %false_1 : i1
    %202 = vector.load %alloc[%c1] : memref<2xf32>, vector<2xf32>
    %203 = math.round %cst_4 : f16
    scf.index_switch %c11 
    case 1 {
      memref.store %106, %alloc_22[%c4] : memref<15xi64>
      %261 = math.floor %cst_0 : f32
      %262 = index.ceildivu %122, %c14
      %263 = arith.divf %cst_4, %cst_3 : f16
      scf.index_switch %74 
      case 1 {
        %275 = math.exp %155 : f32
        %276 = index.mul %28, %107
        %277 = vector.broadcast %c13 : index to vector<15xindex>
        %278 = vector.broadcast %false_1 : i1 to vector<15xi1>
        vector.scatter %alloc_13[%c3] [%277], %278, %73 : memref<5xf32>, vector<15xindex>, vector<15xi1>, vector<15xf32>
        %279 = arith.ori %c304038688_i64, %106 : i64
        %280 = arith.shli %c1750124934_i64, %c304038688_i64 : i64
        %281 = math.tan %cst_0 : f32
        %282 = vector.insert %cst, %139 [0] : f32 into vector<1xf32>
        memref.assume_alignment %alloc_17, 4 : memref<2xi16>
        memref.assume_alignment %alloc_17, 4 : memref<2xi16>
        %283 = math.tan %cst : f32
        %284 = arith.divui %c1777150014_i32, %c1291372147_i32 : i32
        %285 = vector.splat %true : vector<2xi1>
        %286 = index.mul %197, %95
        %287 = affine.load %alloc_12[%c5, %c2, %c0] : memref<2x12x15xf32>
        %splat_46 = tensor.splat %65 : tensor<2xi32>
        %288 = index.divu %c9, %c6
        scf.yield
      }
      case 2 {
        %275 = affine.load %alloc_9[%c10] : memref<2xi16>
        %276 = index.ceildivu %c0, %c5
        %277 = index.sub %28, %159
        %278 = math.floor %cst : f32
        %279 = index.casts %c1750124934_i64 : i64 to index
        %280 = affine.max affine_map<(d0) -> (d0, d0 - (d0 - 4) - 32, d0 mod 32)>(%c15)
        %281 = arith.shli %false_5, %false_1 : i1
        %282 = math.log %59 : tensor<5xf32>
        %283 = vector.load %alloc_7[%c3] : memref<5xi16>, vector<2xi16>
        %collapsed_46 = tensor.collapse_shape %collapsed_31 [[0, 1]] : tensor<24x15xi64> into tensor<360xi64>
        %284 = vector.load %alloc_20[%c1] : memref<2xf32>, vector<2x12x15xf32>
        %285 = bufferization.to_tensor %alloc_7 : memref<5xi16>
        %286 = math.tanh %59 : tensor<5xf32>
        %287 = index.maxs %191, %c5
        %288 = math.ceil %cst_6 : f32
        %289 = arith.addf %cst_4, %cst_4 : f16
        scf.yield
      }
      case 3 {
        %alloc_46 = memref.alloc() : memref<15x2xi64>
        %275 = tensor.empty() : tensor<24x2xi64>
        %276 = linalg.matmul ins(%collapsed, %alloc_46 : tensor<24x15xi64>, memref<15x2xi64>) outs(%275 : tensor<24x2xi64>) -> tensor<24x2xi64>
        %277 = arith.muli %false_1, %false : i1
        %278 = arith.divsi %c0_i32, %c0_i32 : i32
        %279 = arith.shli %c1777150014_i32, %c342629357_i32 : i32
        %280 = math.fma %59, %59, %59 : tensor<5xf32>
        %281 = math.log10 %cst_0 : f32
        %282 = math.copysign %124, %124 : tensor<2x12x15xf32>
        vector.print %69 : vector<5xf32>
        %283 = math.tanh %cst_6 : f32
        memref.store %c8837_i16, %alloc_17[%c0] : memref<2xi16>
        %284 = arith.cmpi eq, %c614625657_i32, %c1777150014_i32 : i32
        %285 = math.copysign %cst_0, %cst_0 : f32
        %286 = math.ceil %cst_6 : f32
        %cast_47 = tensor.cast %5 : tensor<5xi64> to tensor<?xi64>
        %287 = index.casts %99 : index to i32
        %288 = index.sizeof
        scf.yield
      }
      case 4 {
        %275 = math.exp %59 : tensor<5xf32>
        %276 = arith.divui %65, %c1291372147_i32 : i32
        %277 = math.exp2 %cst_3 : f16
        %278 = index.divs %90, %c13
        %cast_46 = tensor.cast %0 : tensor<2x12x15xi1> to tensor<?x?x?xi1>
        %279 = arith.divsi %false, %false : i1
        %280 = math.log1p %cst_3 : f16
        %281 = math.fma %cst_6, %140, %155 : f32
        %282 = memref.realloc %alloc_13 : memref<5xf32> to memref<12xf32>
        %283 = arith.ori %c0_i32, %c614625657_i32 : i32
        %284 = index.divs %166, %c6
        %285 = bufferization.to_tensor %alloc_22 : memref<15xi64>
        %286 = arith.minui %false_5, %true : i1
        %287 = math.tanh %cst_3 : f16
        %alloca_47 = memref.alloca() : memref<15xi32>
        %288 = index.mul %c4, %122
        scf.yield
      }
      default {
        %275 = index.divu %c2, %191
        %276 = index.sizeof
        %277 = math.fpowi %cst_2, %c614625657_i32 : f32, i32
        %278 = arith.addf %cst_3, %cst_3 : f16
        %alloc_46 = memref.alloc() : memref<5xi16>
        memref.copy %alloc_7, %alloc_46 : memref<5xi16> to memref<5xi16>
        %cst_47 = arith.constant 2.337600e+04 : f16
        %279 = arith.addf %cst_3, %cst_3 : f16
        %280 = math.ipowi %collapsed_31, %collapsed_31 : tensor<24x15xi64>
        %281 = math.fpowi %cst_6, %c614625657_i32 : f32, i32
        %282 = math.fma %140, %140, %155 : f32
        %283 = arith.subi %c304038688_i64, %c1750124934_i64 : i64
        %284 = arith.divui %false_5, %false : i1
        %285 = arith.divsi %c342629357_i32, %65 : i32
        %286 = arith.ori %c1291372147_i32, %c342629357_i32 : i32
        %287 = memref.atomic_rmw maxf %140, %alloc_11[%c0] : (f32, memref<2xf32>) -> f32
        %288 = math.atan %124 : tensor<2x12x15xf32>
      }
      %264 = math.ipowi %c614625657_i32, %c1291372147_i32 : i32
      %265 = arith.subi %135, %135 : i16
      %266 = arith.cmpi eq, %c342629357_i32, %c614625657_i32 : i32
      %267 = math.copysign %cst, %cst_2 : f32
      %268 = arith.xori %65, %c0_i32 : i32
      %269 = vector.broadcast %c0 : index to vector<2xindex>
      vector.scatter %alloc_7[%c0] [%269], %33, %129 : memref<5xi16>, vector<2xindex>, vector<2xi1>, vector<2xi16>
      %270 = bufferization.to_tensor %alloc_22 : memref<15xi64>
      %271 = math.log10 %140 : f32
      %272 = math.atan2 %cst_2, %cst_0 : f32
      %273 = arith.cmpf false, %cst, %cst : f32
      %274 = arith.addi %106, %106 : i64
      scf.yield
    }
    default {
      %261 = math.atan %cst_0 : f32
      %262 = vector.broadcast %false : i1 to vector<i1>
      %263 = vector.transfer_write %262, %18[%c12] : vector<i1>, tensor<15xi1>
      %264 = math.exp2 %cst_2 : f32
      memref.copy %alloc_9, %alloc_17 : memref<2xi16> to memref<2xi16>
      %265 = vector.broadcast %cst_3 : f16 to vector<12x12xf16>
      %266 = vector.outerproduct %20, %20, %265 {kind = #vector.kind<minf>} : vector<12xf16>, vector<12xf16>
      memref.copy %25, %alloc_11 : memref<2xf32> to memref<2xf32>
      %splat_46 = tensor.splat %cst : tensor<2xf32>
      %267 = math.ceil %155 : f32
      %268 = index.sub %90, %c2
      %269 = arith.divf %155, %cst_2 : f32
      %270 = vector.extract %192[0] : vector<2xf32>
      %271 = tensor.empty() : tensor<5xi32>
      %272 = math.fpowi %59, %271 : tensor<5xf32>, tensor<5xi32>
      %273 = index.casts %106 : i64 to index
      %274 = index.casts %c614625657_i32 : i32 to index
      %275 = math.absi %14 : tensor<15xi64>
      %from_elements_47 = tensor.from_elements %c304038688_i64, %106, %c304038688_i64, %106, %c1750124934_i64, %106, %106, %106, %106, %106, %c304038688_i64, %c304038688_i64, %c1750124934_i64, %c304038688_i64, %106 : tensor<15xi64>
    }
    %204 = math.round %cst_3 : f16
    vector.print %91 : vector<2xf32>
    %205 = index.sizeof
    %206 = vector.transpose %35, [0] : vector<2xi16> to vector<2xi16>
    %207 = arith.mulf %140, %140 : f32
    %208 = math.copysign %cst_2, %155 : f32
    %209 = tensor.empty(%c8) : tensor<?xi1>
    %210 = math.powf %cst_2, %cst_2 : f32
    %211 = math.round %cst_6 : f32
    %212 = memref.alloca_scope  -> (memref<15xf32>) {
      %261 = math.log %155 : f32
      %262 = vector.extract %139[0] : vector<1xf32>
      %263 = math.powf %59, %59 : tensor<5xf32>
      %from_elements_46 = tensor.from_elements %140, %cst_0, %cst_6, %140, %cst_6 : tensor<5xf32>
      %264 = arith.subi %65, %c0_i32 : i32
      %265 = vector.insert %cst_3, %20 [6] : f16 into vector<12xf16>
      %266 = index.mul %c15, %90
      scf.index_switch %107 
      case 1 {
        %282 = math.tan %cst : f32
        %283 = arith.shrui %135, %c8837_i16 : i16
        %284 = affine.apply affine_map<(d0, d1, d2, d3) -> (d1 * -2 - 1)>(%c9, %c2, %184, %c3)
        %285 = math.floor %59 : tensor<5xf32>
        %286 = arith.remsi %false, %false_5 : i1
        memref.assume_alignment %alloc_19, 16 : memref<5xi64>
        %287 = vector.maskedload %alloc_12[%c0, %c8, %c4], %42, %69 : memref<2x12x15xf32>, vector<5xi1>, vector<5xf32> into vector<5xf32>
        %288 = math.log1p %140 : f32
        %289 = index.maxu %111, %74
        %true_56 = arith.constant true
        %290 = vector.transfer_read %157[%c11, %144, %77], %true_56 : tensor<2x12x15xi1>, vector<12xi1>
        %291 = index.divs %122, %c11
        %292 = bufferization.to_tensor %alloc_11 : memref<2xf32>
        %293 = memref.atomic_rmw muli %c304038688_i64, %alloc_19[%c1] : (i64, memref<5xi64>) -> i64
        memref.assume_alignment %alloc_7, 1 : memref<5xi16>
        %294 = arith.negf %cst_6 : f32
        %295 = arith.subi %false_1, %false : i1
        scf.yield
      }
      case 2 {
        %282 = vector.broadcast %c0_i32 : i32 to vector<i32>
        %283 = vector.transfer_write %282, %9[%95] : vector<i32>, tensor<2xi32>
        %cast_56 = tensor.cast %reduced : tensor<i64> to tensor<i64>
        %284 = math.round %155 : f32
        %285 = bufferization.clone %alloc_18 : memref<5xf16> to memref<5xf16>
        %286 = index.sizeof
        %287 = affine.apply affine_map<(d0, d1, d2, d3) -> (d1 * -2 - 1)>(%c15, %197, %115, %c12)
        %288 = affine.load %alloc_9[%c12] : memref<2xi16>
        %289 = math.ceil %155 : f32
        %290 = arith.subi %false_5, %true : i1
        %291 = index.sizeof
        %292 = math.tanh %cst_2 : f32
        %293 = arith.addi %true, %false : i1
        %splat_57 = tensor.splat %288 : tensor<5xi16>
        %294 = arith.remsi %c8837_i16, %c8837_i16 : i16
        %295 = vector.flat_transpose %129 {columns = 1 : i32, rows = 2 : i32} : vector<2xi16> -> vector<2xi16>
        %296 = arith.cmpi ule, %c8837_i16, %c8837_i16 : i16
        scf.yield
      }
      default {
        %282 = math.atan %155 : f32
        %283 = math.round %cst : f32
        %284 = math.expm1 %cst_3 : f16
        %285 = vector.flat_transpose %192 {columns = 1 : i32, rows = 2 : i32} : vector<2xf32> -> vector<2xf32>
        %286 = arith.remf %140, %cst_6 : f32
        %287 = bufferization.to_memref %2 : memref<5xi64>
        %288 = arith.divf %cst_2, %cst_2 : f32
        %289 = math.ceil %from_elements_46 : tensor<5xf32>
        %splat_56 = tensor.splat %cst_4 : tensor<2x12x15xf16>
        %290 = arith.maxsi %65, %c342629357_i32 : i32
        %291 = index.mul %205, %205
        %from_elements_57 = tensor.from_elements %cst_4, %cst_4 : tensor<2xf16>
        %292 = arith.remf %cst_0, %155 : f32
        %293 = arith.mulf %cst_6, %cst_6 : f32
        %294 = vector.transpose %199, [2, 1, 0] : vector<2x12x15xf32> to vector<15x12x2xf32>
        %295 = index.sub %111, %c5
      }
      %267 = tensor.empty() : tensor<15xf16>
      %268 = vector.flat_transpose %139 {columns = 1 : i32, rows = 1 : i32} : vector<1xf32> -> vector<1xf32>
      %from_elements_47 = tensor.from_elements %106, %106, %c1750124934_i64, %106, %c304038688_i64, %c304038688_i64, %c1750124934_i64, %c304038688_i64, %c304038688_i64, %c304038688_i64, %106, %106, %c1750124934_i64, %c1750124934_i64, %c304038688_i64, %c304038688_i64, %c1750124934_i64, %106, %c1750124934_i64, %c1750124934_i64, %c1750124934_i64, %106, %106, %c304038688_i64, %106, %c304038688_i64, %c304038688_i64, %106, %106, %c304038688_i64, %c304038688_i64, %106, %106, %c1750124934_i64, %c1750124934_i64, %106, %c304038688_i64, %106, %c1750124934_i64, %c1750124934_i64, %106, %c1750124934_i64, %106, %106, %c304038688_i64, %106, %c1750124934_i64, %c304038688_i64, %c304038688_i64, %106, %c304038688_i64, %c1750124934_i64, %c1750124934_i64, %106, %c304038688_i64, %c304038688_i64, %106, %c304038688_i64, %106, %c1750124934_i64, %c1750124934_i64, %c1750124934_i64, %c304038688_i64, %c304038688_i64, %106, %c304038688_i64, %106, %c1750124934_i64, %c1750124934_i64, %106, %c304038688_i64, %106, %c304038688_i64, %c304038688_i64, %c1750124934_i64, %c304038688_i64, %c304038688_i64, %106, %c304038688_i64, %c1750124934_i64, %c304038688_i64, %106, %106, %c1750124934_i64, %c1750124934_i64, %106, %c304038688_i64, %c304038688_i64, %c304038688_i64, %c1750124934_i64, %c1750124934_i64, %106, %c304038688_i64, %c1750124934_i64, %c1750124934_i64, %106, %c304038688_i64, %106, %c304038688_i64, %c304038688_i64, %106, %c1750124934_i64, %c1750124934_i64, %c1750124934_i64, %c1750124934_i64, %c1750124934_i64, %c1750124934_i64, %c304038688_i64, %106, %c1750124934_i64, %c1750124934_i64, %106, %106, %c304038688_i64, %c1750124934_i64, %c1750124934_i64, %106, %c304038688_i64, %106, %106, %c304038688_i64, %c1750124934_i64, %c1750124934_i64, %106, %c304038688_i64, %106, %106, %c1750124934_i64, %106, %c1750124934_i64, %c1750124934_i64, %106, %106, %106, %c1750124934_i64, %c1750124934_i64, %c304038688_i64, %c304038688_i64, %c1750124934_i64, %c304038688_i64, %c304038688_i64, %106, %c1750124934_i64, %c304038688_i64, %c304038688_i64, %106, %c304038688_i64, %c1750124934_i64, %106, %c1750124934_i64, %106, %106, %c1750124934_i64, %c304038688_i64, %106, %106, %106, %c304038688_i64, %106, %106, %106, %c1750124934_i64, %106, %106, %c304038688_i64, %c304038688_i64, %106, %106, %106, %c304038688_i64, %c304038688_i64, %106, %c1750124934_i64, %106, %106, %106, %c304038688_i64, %c1750124934_i64, %c1750124934_i64, %c304038688_i64, %c1750124934_i64, %106, %c304038688_i64, %c304038688_i64, %106, %106, %c304038688_i64, %106, %106, %106, %c304038688_i64, %c1750124934_i64, %c304038688_i64, %c304038688_i64, %c1750124934_i64, %c304038688_i64, %c1750124934_i64, %c304038688_i64, %106, %106, %106, %106, %106, %c1750124934_i64, %106, %c1750124934_i64, %c304038688_i64, %c304038688_i64, %c1750124934_i64, %c304038688_i64, %c1750124934_i64, %c1750124934_i64, %c1750124934_i64, %c304038688_i64, %c1750124934_i64, %c304038688_i64, %106, %106, %106, %106, %106, %c1750124934_i64, %106, %c304038688_i64, %106, %106, %c1750124934_i64, %c304038688_i64, %c304038688_i64, %c304038688_i64, %c1750124934_i64, %c304038688_i64, %c304038688_i64, %c1750124934_i64, %c304038688_i64, %106, %c304038688_i64, %106, %c304038688_i64, %c304038688_i64, %106, %106, %c304038688_i64, %c1750124934_i64, %c1750124934_i64, %c304038688_i64, %106, %c1750124934_i64, %c304038688_i64, %c304038688_i64, %c1750124934_i64, %106, %c1750124934_i64, %c1750124934_i64, %106, %c1750124934_i64, %c1750124934_i64, %c1750124934_i64, %106, %106, %c1750124934_i64, %106, %106, %c1750124934_i64, %c304038688_i64, %c1750124934_i64, %c1750124934_i64, %c304038688_i64, %c1750124934_i64, %c304038688_i64, %c1750124934_i64, %106, %c304038688_i64, %c1750124934_i64, %106, %106, %c1750124934_i64, %106, %106, %106, %106, %106, %106, %c304038688_i64, %c304038688_i64, %106, %c304038688_i64, %c1750124934_i64, %c304038688_i64, %c304038688_i64, %c1750124934_i64, %c304038688_i64, %c304038688_i64, %c304038688_i64, %c304038688_i64, %c1750124934_i64, %c304038688_i64, %106, %c304038688_i64, %106, %c1750124934_i64, %c1750124934_i64, %c304038688_i64, %c1750124934_i64, %106, %c1750124934_i64, %c1750124934_i64, %c1750124934_i64, %106, %c304038688_i64, %c1750124934_i64, %106, %106, %c304038688_i64, %c1750124934_i64, %c1750124934_i64, %c304038688_i64, %c1750124934_i64, %c1750124934_i64, %c304038688_i64, %c304038688_i64, %106, %c1750124934_i64, %c304038688_i64, %106, %106, %c1750124934_i64, %106, %c1750124934_i64, %c304038688_i64, %c304038688_i64, %c1750124934_i64, %106, %c304038688_i64, %c304038688_i64, %106, %c304038688_i64, %106, %106, %106, %c304038688_i64, %c1750124934_i64, %c304038688_i64, %106, %c1750124934_i64, %c1750124934_i64, %c1750124934_i64, %c1750124934_i64, %c1750124934_i64, %c304038688_i64, %106, %c304038688_i64, %c1750124934_i64, %c304038688_i64, %c304038688_i64, %c1750124934_i64, %c1750124934_i64, %106, %c1750124934_i64, %106 : tensor<2x12x15xi64>
      %alloc_48 = memref.alloc() : memref<5xf32>
      memref.copy %alloc_13, %alloc_48 : memref<5xf32> to memref<5xf32>
      %cast_49 = tensor.cast %10 : tensor<5xi64> to tensor<?xi64>
      %cast_50 = tensor.cast %12 : tensor<15xi16> to tensor<?xi16>
      %269 = math.round %140 : f32
      %270 = arith.maxsi %c304038688_i64, %c1750124934_i64 : i64
      %alloc_51 = memref.alloc() : memref<2x12x15xi32>
      %rank_52 = tensor.rank %4 : tensor<15xi32>
      %splat_53 = tensor.splat %155 : tensor<15xf32>
      %cast_54 = tensor.cast %collapsed_31 : tensor<24x15xi64> to tensor<?x?xi64>
      %271 = arith.cmpf ole, %cst, %140 : f32
      %272 = bufferization.clone %alloc_9 : memref<2xi16> to memref<2xi16>
      %273 = affine.if affine_set<(d0, d1) : (((-(d1 + d1 mod 16)) ceildiv 64) mod 16 == 0, d1 + d1 mod 16 == 0)>(%c12, %c4) -> memref<15xf32> {
        affine.store %135, %alloc_9[%c2] : memref<2xi16>
        %282 = index.divu %c0, %107
        %283 = index.maxs %c1, %c6
        %284 = vector.insertelement %135, %129[%168 : index] : vector<2xi16>
        %285 = arith.ori %c304038688_i64, %106 : i64
        memref.store %cst_0, %alloc_13[%c3] : memref<5xf32>
        %286 = index.casts %205 : index to i32
        %287 = index.ceildivu %95, %c8
        affine.yield %alloc_14 : memref<15xf32>
      } else {
        %282 = arith.cmpi ult, %c1750124934_i64, %c304038688_i64 : i64
        %283 = math.floor %splat_53 : tensor<15xf32>
        %284 = math.atan %cst_6 : f32
        %285 = arith.remsi %c1750124934_i64, %c1750124934_i64 : i64
        %286 = math.ipowi %4, %4 : tensor<15xi32>
        %287 = arith.shrsi %false_5, %true : i1
        %288 = vector.flat_transpose %20 {columns = 3 : i32, rows = 4 : i32} : vector<12xf16> -> vector<12xf16>
        memref.store %c8837_i16, %alloc_9[%c0] : memref<2xi16>
        affine.yield %alloc_14 : memref<15xf32>
      }
      %from_elements_55 = tensor.from_elements %false_5, %false, %false_5, %false_1, %true, %false_5, %true, %false_5, %false_1, %false_1, %true, %false_5, %false, %true, %false_5 : tensor<15xi1>
      %274 = vector.broadcast %c8837_i16 : i16 to vector<5xi16>
      %275 = vector.maskedload %alloc_15[%c0, %c11, %c10], %42, %274 : memref<2x12x15xi16>, vector<5xi1>, vector<5xi16> into vector<5xi16>
      %276 = index.floordivs %rank, %266
      %277 = index.mul %c6, %107
      %278 = arith.cmpi ult, %c8837_i16, %c8837_i16 : i16
      %279 = vector.extract %61[1] : vector<2xf32>
      %280 = arith.muli %c1750124934_i64, %106 : i64
      %281 = index.sizeof
      memref.alloca_scope  {
        %282 = math.atan2 %splat_53, %splat_53 : tensor<15xf32>
        %283 = index.ceildivs %74, %c14
        %284 = vector.load %alloc_17[%c1] : memref<2xi16>, vector<15xi16>
        %285 = math.ctpop %c8837_i16 : i16
        %286 = vector.broadcast %c8837_i16 : i16 to vector<2x2xi16>
        %287 = vector.outerproduct %129, %32, %286 {kind = #vector.kind<add>} : vector<2xi16>, vector<2xi16>
        %288 = math.atan %267 : tensor<15xf16>
        %289 = arith.minf %cst_6, %cst_6 : f32
        %290 = arith.addi %c614625657_i32, %c342629357_i32 : i32
        %291 = arith.shrui %c1750124934_i64, %c1750124934_i64 : i64
        %292 = math.rsqrt %splat_53 : tensor<15xf32>
        %293 = arith.cmpf une, %cst_0, %cst : f32
        %294 = index.sizeof
        %cst_56 = arith.constant 1.17060122E+9 : f32
        %rank_57 = tensor.rank %31 : tensor<2xi16>
        %295 = arith.minf %140, %140 : f32
        %296 = index.ceildivs %115, %115
        %297 = arith.negf %cst_2 : f32
        %298 = arith.divui %c614625657_i32, %c614625657_i32 : i32
        %299 = math.atan2 %cst_2, %cst_6 : f32
        %300 = math.log10 %splat_53 : tensor<15xf32>
        %301 = vector.create_mask %276 : vector<2xi1>
        %cst_58 = arith.constant 6.377600e+04 : f16
        %302 = math.copysign %140, %155 : f32
        %303 = math.absi %11 : tensor<15xi64>
        %304 = memref.realloc %alloc_7 : memref<5xi16> to memref<2xi16>
        %305 = math.round %cst : f32
        %306 = bufferization.to_tensor %29 : memref<i64>
        %307 = arith.negf %cst_2 : f32
        %308 = vector.flat_transpose %192 {columns = 1 : i32, rows = 2 : i32} : vector<2xf32> -> vector<2xf32>
        %309 = math.absf %140 : f32
        %true_59 = index.bool.constant true
        %310 = memref.realloc %alloc_17 : memref<2xi16> to memref<12xi16>
      }
      memref.alloca_scope.return %alloc_14 : memref<15xf32>
    }
    %213 = memref.atomic_rmw assign %135, %alloc_17[%c1] : (i16, memref<2xi16>) -> i16
    %214 = arith.andi %c1750124934_i64, %c304038688_i64 : i64
    %215 = arith.remf %cst_2, %155 : f32
    %216 = math.powf %cst_2, %155 : f32
    %217 = scf.while (%arg3 = %91) : (vector<2xf32>) -> vector<2xf32> {
      %261 = affine.if affine_set<(d0, d1) : (-(((d0 floordiv 4) floordiv 2) ceildiv 16) - 8 >= 0, (d0 ceildiv 64) mod 128 >= 0)>(%c3, %c0) -> i64 {
        %268 = arith.addi %65, %65 : i32
        memref.assume_alignment %alloc_13, 1 : memref<5xf32>
        %269 = arith.shrsi %c304038688_i64, %c1750124934_i64 : i64
        %270 = arith.cmpi sle, %false_5, %false_5 : i1
        %271 = arith.maxsi %135, %c8837_i16 : i16
        %272 = math.floor %124 : tensor<2x12x15xf32>
        %273 = vector.shuffle %69, %69 [0, 1, 2, 3, 4, 5, 6, 7, 9] : vector<5xf32>, vector<5xf32>
        %274 = arith.remsi %c0_i32, %c614625657_i32 : i32
        affine.yield %106 : i64
      } else {
        %268 = vector.load %212[%c5] : memref<15xf32>, vector<2x12x15xf32>
        %269 = arith.remf %155, %cst_2 : f32
        %collapsed_46 = tensor.collapse_shape %from_elements_35 [[0, 1], [2]] : tensor<2x12x15xi16> into tensor<24x15xi16>
        %270 = vector.broadcast %106 : i64 to vector<i64>
        %271 = vector.transfer_write %270, %2[%116] : vector<i64>, tensor<5xi64>
        %272 = vector.extract %129[1] : vector<2xi16>
        %273 = math.exp %cst_3 : f16
        %274 = math.ipowi %15, %17 : tensor<15xi64>
        %275 = arith.minf %cst_3, %cst_4 : f16
        affine.yield %106 : i64
      }
      %262 = index.maxs %c15, %144
      %263 = memref.load %alloc_9[%c0] : memref<2xi16>
      %264 = math.round %cst_3 : f16
      %265 = math.log1p %cst_2 : f32
      %266 = bufferization.clone %alloc_13 : memref<5xf32> to memref<5xf32>
      affine.for %arg4 = 0 to 40 {
      }
      %267 = math.log1p %cst_3 : f16
      scf.condition(%false_5) %76 : vector<2xf32>
    } do {
    ^bb0(%arg3: vector<2xf32>):
      %c0_i64 = arith.constant 0 : i64
      %261 = vector.transfer_read %alloc_19[%159], %c0_i64 : memref<5xi64>, vector<i64>
      %alloc_46 = memref.alloc() : memref<15x2xi64>
      %262 = tensor.empty() : tensor<24x2xi64>
      %263 = linalg.matmul ins(%collapsed_31, %alloc_46 : tensor<24x15xi64>, memref<15x2xi64>) outs(%262 : tensor<24x2xi64>) -> tensor<24x2xi64>
      %264 = vector.load %alloc[%c1] : memref<2xf32>, vector<5xf32>
      %false_47 = index.bool.constant false
      %265 = math.powf %155, %155 : f32
      %266 = index.divs %c12, %c15
      %267 = math.fma %155, %cst, %155 : f32
      %268 = tensor.empty() : tensor<2xi32>
      %269 = arith.muli %c0_i64, %c304038688_i64 : i64
      %270 = math.rsqrt %140 : f32
      %271 = vector.create_mask %95 : vector<5xi1>
      %272 = index.divu %c8, %111
      %273 = index.sizeof
      %274 = index.floordivs %273, %c13
      %275 = arith.cmpi ugt, %c304038688_i64, %106 : i64
      %276 = arith.remf %cst_6, %cst_2 : f32
      scf.yield %91 : vector<2xf32>
    }
    %from_elements_38 = tensor.from_elements %false_1, %true, %false_5, %false_5, %false_1 : tensor<5xi1>
    %from_elements_39 = tensor.from_elements %c1750124934_i64, %106, %c304038688_i64, %106, %106 : tensor<5xi64>
    %218 = linalg.generic {indexing_maps = [affine_map<(d0, d1, d2) -> (d2)>, affine_map<(d0, d1, d2) -> (d0, d1, d2)>], iterator_types = ["parallel", "parallel", "parallel"]} ins(%7 : tensor<15xi1>) outs(%157 : tensor<2x12x15xi1>) {
    ^bb0(%in: i1, %out: i1):
      %cst_46 = arith.constant 1.676800e+04 : f16
      %261 = arith.negf %cst : f32
      %collapsed_47 = tensor.collapse_shape %collapsed_31 [[0, 1]] : tensor<24x15xi64> into tensor<360xi64>
      %262 = affine.max affine_map<(d0, d1) -> (d1 - (d1 mod 16 + 32) - (d1 mod 16 + 32) - 192, d0 ceildiv 8, d1 - (d1 mod 16 + 32) + d1 - (d1 mod 16 + 32) - 64)>(%90, %111)
      %263 = arith.negf %140 : f32
      %264 = arith.divui %c0_i32, %c614625657_i32 : i32
      %265 = vector.flat_transpose %73 {columns = 5 : i32, rows = 3 : i32} : vector<15xf32> -> vector<15xf32>
      %266 = vector.extract_strided_slice %129 {offsets = [0], sizes = [1], strides = [1]} : vector<2xi16> to vector<1xi16>
      %267 = memref.realloc %alloc_16 : memref<15xi16> to memref<5xi16>
      %generated = tensor.generate %119 {
      ^bb0(%arg3: index):
        %287 = math.atan %cst : f32
        %288 = vector.flat_transpose %265 {columns = 5 : i32, rows = 3 : i32} : vector<15xf32> -> vector<15xf32>
        %289 = vector.shuffle %69, %288 [1, 2, 3, 5, 8, 10, 11, 12, 13, 14, 15, 17] : vector<5xf32>, vector<15xf32>
        %290 = index.mul %262, %c14
        tensor.yield %c8837_i16 : i16
      } : tensor<?xi16>
      %268 = math.atan2 %cst, %155 : f32
      %269 = math.ipowi %18, %transposed : tensor<15xi1>
      %270 = arith.negf %cst_2 : f32
      %271 = arith.addi %true, %false_1 : i1
      %alloc_48 = memref.alloc() : memref<2xf16>
      memref.copy %alloc_8, %alloc_48 : memref<2xf16> to memref<2xf16>
      %272 = arith.negf %140 : f32
      %273 = vector.broadcast %cst_4 : f16 to vector<f16>
      vector.transfer_write %273, %alloc_8[%159] : vector<f16>, memref<2xf16>
      %274 = math.expm1 %cst_3 : f16
      %cast_49 = tensor.cast %4 : tensor<15xi32> to tensor<?xi32>
      %false_50 = index.bool.constant false
      %275 = arith.ceildivsi %c1777150014_i32, %c1291372147_i32 : i32
      %276 = vector.load %25[%c1] : memref<2xf32>, vector<15xf32>
      %277 = arith.addf %cst, %140 : f32
      %c0_i32_51 = arith.constant 0 : i32
      %278 = vector.transfer_read %from_elements_34[%c14], %c0_i32_51 : tensor<2xi32>, vector<i32>
      %cst_52 = arith.constant 1.000000e+00 : f32
      %279 = vector.transfer_read %alloc_20[%c9], %cst_52 : memref<2xf32>, vector<f32>
      %280 = affine.for %arg3 = 0 to 69 iter_args(%arg4 = %c7) -> (index) {
        affine.yield %c8 : index
      }
      %281 = index.add %rank, %c1
      %282 = affine.for %arg3 = 0 to 113 iter_args(%arg4 = %transposed) -> (tensor<15xi1>) {
        affine.yield %7 : tensor<15xi1>
      }
      %283 = affine.apply affine_map<(d0, d1, d2) -> (d0 mod 64 + 16)>(%c11, %c12, %c6)
      %284 = arith.andi %out, %false : i1
      %285 = math.exp %155 : f32
      %286 = arith.remf %cst_6, %cst_2 : f32
      linalg.yield %out : i1
    } -> tensor<2x12x15xi1>
    %219 = math.ipowi %1, %1 : tensor<2xi1>
    %collapsed_40 = tensor.collapse_shape %87 [[0, 1], [2]] : tensor<2x12x15xi16> into tensor<24x15xi16>
    %220 = index.ceildivu %119, %119
    %221 = vector.broadcast %115 : index to vector<5xindex>
    vector.scatter %alloc_14[%c11] [%221], %42, %69 : memref<15xf32>, vector<5xindex>, vector<5xi1>, vector<5xf32>
    %222 = arith.negf %140 : f32
    %223 = math.log1p %cst_2 : f32
    %224 = vector.load %alloc_16[%c8] : memref<15xi16>, vector<15xi16>
    %225 = bufferization.to_memref %124 : memref<2x12x15xf32>
    %226 = vector.broadcast %197 : index to vector<12xindex>
    %227 = vector.broadcast %false_1 : i1 to vector<12xi1>
    %228 = vector.broadcast %135 : i16 to vector<12xi16>
    vector.scatter %alloc_7[%c1] [%226], %227, %228 : memref<5xi16>, vector<12xindex>, vector<12xi1>, vector<12xi16>
    %229 = arith.divsi %c1777150014_i32, %c342629357_i32 : i32
    %230 = tensor.empty(%166, %184) : tensor<?x?x15xf32>
    %231 = math.ctpop %2 : tensor<5xi64>
    %232 = vector.splat %c0 : vector<2xindex>
    %233 = index.ceildivs %184, %166
    %234 = arith.shrui %true, %false : i1
    %collapsed_41 = tensor.collapse_shape %137 [[0, 1]] : tensor<24x12xi64> into tensor<288xi64>
    %235 = math.roundeven %155 : f32
    %236 = arith.shrui %c614625657_i32, %65 : i32
    %237 = affine.apply affine_map<(d0, d1, d2) -> (d0)>(%46, %c11, %c12)
    %238 = affine.max affine_map<(d0) -> ((d0 + 1) mod 8, -(d0 - 16) + d0 mod 32, 0, d0 + 1)>(%c13)
    %239 = arith.addf %140, %155 : f32
    %240 = math.tanh %59 : tensor<5xf32>
    %from_elements_42 = tensor.from_elements %135, %135, %c8837_i16, %c8837_i16, %135 : tensor<5xi16>
    %241 = vector.create_mask %205, %c10, %205 : vector<2x12x15xi1>
    %242 = math.floor %140 : f32
    %243 = vector.broadcast %c8837_i16 : i16 to vector<i16>
    %244 = vector.transfer_write %243, %from_elements_42[%c0] : vector<i16>, tensor<5xi16>
    %245 = math.rsqrt %cst_6 : f32
    %246 = arith.addi %true, %true : i1
    %247 = math.expm1 %cst_2 : f32
    %248 = arith.xori %c614625657_i32, %c0_i32 : i32
    %249 = math.ipowi %106, %c1750124934_i64 : i64
    %250 = index.ceildivs %191, %191
    %251 = arith.muli %true, %false : i1
    %252 = vector.extract_strided_slice %241 {offsets = [0], sizes = [1], strides = [1]} : vector<2x12x15xi1> to vector<1x12x15xi1>
    %253 = math.fpowi %124, %from_elements_32 : tensor<2x12x15xf32>, tensor<2x12x15xi32>
    %254 = arith.minui %c1777150014_i32, %65 : i32
    %255 = math.floor %cst_0 : f32
    %256 = math.exp2 %59 : tensor<5xf32>
    %257 = tensor.empty() : tensor<5xi16>
    %258 = linalg.copy ins(%13 : tensor<5xi16>) outs(%257 : tensor<5xi16>) -> tensor<5xi16>
    %alloc_43 = memref.alloc() : memref<15xi1>
    linalg.transpose ins(%18 : tensor<15xi1>) outs(%alloc_43 : memref<15xi1>) permutation = [0] 
    %259 = tensor.empty() : tensor<12xf32>
    %reduced_44 = linalg.reduce ins(%124 : tensor<2x12x15xf32>) outs(%259 : tensor<12xf32>) dimensions = [0, 2] 
      (%in: f32, %init: f32) {
        %collapsed_46 = tensor.collapse_shape %from_elements_32 [[0, 1], [2]] : tensor<2x12x15xi32> into tensor<24x15xi32>
        memref.store %cst_3, %alloc_8[%c1] : memref<2xf16>
        %261 = arith.ori %c304038688_i64, %106 : i64
        %262 = arith.divf %cst_6, %155 : f32
        %collapsed_47 = tensor.collapse_shape %142 [[0, 1], [2]] : tensor<2x12x15xi32> into tensor<24x15xi32>
        %263 = math.absf %cst_4 : f16
        %264 = math.expm1 %cst_2 : f32
        %265 = math.absf %cst_4 : f16
        %cst_48 = arith.constant 1.000000e+00 : f32
        linalg.yield %cst_48 : f32
      }
    scf.parallel (%arg3) = (%95) to (%250) step (%c3) {
      %261 = math.tan %cst_4 : f16
      %262 = math.log %259 : tensor<12xf32>
      %263 = math.atan2 %cst_6, %140 : f32
      %264 = math.exp %155 : f32
      memref.alloca_scope  {
        %collapsed_48 = tensor.collapse_shape %0 [[0, 1], [2]] : tensor<2x12x15xi1> into tensor<24x15xi1>
        %cast_49 = tensor.cast %11 : tensor<15xi64> to tensor<?xi64>
        %275 = vector.shuffle %34, %34 [2, 3] : vector<2xi32>, vector<2xi32>
        %276 = arith.divsi %c0_i32, %c614625657_i32 : i32
        %277 = math.round %cst_2 : f32
        %278 = math.exp2 %cst_4 : f16
        %279 = math.log10 %cst_2 : f32
        %280 = index.mul %arg3, %197
        %281 = arith.remsi %false, %false : i1
        %c0_i64 = arith.constant 0 : i64
        %282 = vector.transfer_read %2[%46], %c0_i64 : tensor<5xi64>, vector<i64>
        %283 = arith.minf %155, %cst_6 : f32
        %284 = math.roundeven %124 : tensor<2x12x15xf32>
        %alloca_50 = memref.alloca() : memref<5xi64>
        %285 = vector.multi_reduction <minsi>, %34, %34 [] : vector<2xi32> to vector<2xi32>
        %286 = index.mul %c10, %c1
        %287 = arith.andi %c0_i64, %c1750124934_i64 : i64
        %288 = vector.flat_transpose %32 {columns = 1 : i32, rows = 2 : i32} : vector<2xi16> -> vector<2xi16>
        %289 = math.round %140 : f32
        %290 = arith.negf %cst_2 : f32
        %291 = math.atan %cst_2 : f32
        %292 = bufferization.clone %alloc_13 : memref<5xf32> to memref<5xf32>
        %293 = math.cttz %false_5 : i1
        %294 = bufferization.to_tensor %alloc_13 : memref<5xf32>
        %295 = math.powf %294, %294 : tensor<5xf32>
        %296 = arith.ceildivsi %c342629357_i32, %65 : i32
        %297 = arith.shrui %true, %true : i1
        %298 = vector.load %alloc_15[%c0, %c2, %c9] : memref<2x12x15xi16>, vector<2xi16>
        memref.assume_alignment %alloc_11, 1 : memref<2xf32>
        %299 = math.log %cst : f32
        %from_elements_51 = tensor.from_elements %135, %c8837_i16 : tensor<2xi16>
        %300 = arith.divf %140, %140 : f32
        %301 = math.atan %reduced_44 : tensor<12xf32>
      }
      %265 = math.expm1 %59 : tensor<5xf32>
      %266 = vector.extract_strided_slice %35 {offsets = [0], sizes = [1], strides = [1]} : vector<2xi16> to vector<1xi16>
      %267 = math.fma %155, %cst_6, %cst_2 : f32
      %268 = arith.negf %140 : f32
      %269 = arith.divsi %false_1, %false_5 : i1
      %alloc_46 = memref.alloc() : memref<15x5xi16>
      %270 = tensor.empty() : tensor<24x5xi16>
      %271 = linalg.matmul ins(%collapsed_40, %alloc_46 : tensor<24x15xi16>, memref<15x5xi16>) outs(%270 : tensor<24x5xi16>) -> tensor<24x5xi16>
      %272 = vector.load %alloc_12[%c0, %c4, %c14] : memref<2x12x15xf32>, vector<2xf32>
      %273 = math.log %cst : f32
      affine.store %cst_3, %alloc_21[%c14, %c10, %c0] : memref<2x12x15xf16>
      %274 = index.sub %95, %99
      %alloca_47 = memref.alloca() : memref<5xi64>
      scf.yield
    }
    %260 = affine.vector_load %alloc_7[%95] : memref<5xi16>, vector<12xi16>
    affine.vector_store %192, %alloc_20[%238] : memref<2xf32>, vector<2xf32>
    vector.print %20 : vector<12xf16>
    vector.print %32 : vector<2xi16>
    vector.print %33 : vector<2xi1>
    vector.print %34 : vector<2xi32>
    vector.print %35 : vector<2xi16>
    vector.print %42 : vector<5xi1>
    vector.print %47 : vector<15xf32>
    vector.print %60 : vector<2xf32>
    vector.print %61 : vector<2xf32>
    vector.print %69 : vector<5xf32>
    vector.print %73 : vector<15xf32>
    vector.print %76 : vector<2xf32>
    vector.print %91 : vector<2xf32>
    vector.print %129 : vector<2xi16>
    vector.print %139 : vector<1xf32>
    vector.print %192 : vector<2xf32>
    vector.print %199 : vector<2x12x15xf32>
    vector.print %202 : vector<2xf32>
    vector.print %224 : vector<15xi16>
    vector.print %241 : vector<2x12x15xi1>
    vector.print %243 : vector<i16>
    vector.print %252 : vector<1x12x15xi1>
    vector.print %260 : vector<12xi16>
    vector.print %cst : f32
    vector.print %c1291372147_i32 : i32
    vector.print %cst_0 : f32
    vector.print %c614625657_i32 : i32
    vector.print %false : i1
    vector.print %false_1 : i1
    vector.print %cst_2 : f32
    vector.print %c8837_i16 : i16
    vector.print %c1750124934_i64 : i64
    vector.print %c1777150014_i32 : i32
    vector.print %c304038688_i64 : i64
    vector.print %cst_3 : f16
    vector.print %cst_4 : f16
    vector.print %false_5 : i1
    vector.print %cst_6 : f32
    vector.print %c342629357_i32 : i32
    vector.print %65 : i32
    vector.print %true : i1
    vector.print %106 : i64
    vector.print %135 : i16
    vector.print %140 : f32
    vector.print %155 : f32
    vector.print %c0_i32 : i32
    %alloc_45 = memref.alloc() : memref<5xi1>
    return %alloc_45 : memref<5xi1>
  }
}
