module {
  func.func @func1(%arg0: vector<4x13xi32>, %arg1: memref<9x4xi1>) {
    %cst = arith.constant 1.46791885E+9 : f32
    %false = arith.constant false
    %c-983_i16 = arith.constant -983 : i16
    %c11477_i16 = arith.constant 11477 : i16
    %cst_0 = arith.constant 1.907000e+03 : f16
    %c1002341114_i32 = arith.constant 1002341114 : i32
    %c383015234_i64 = arith.constant 383015234 : i64
    %c991861544_i32 = arith.constant 991861544 : i32
    %c1133603789_i32 = arith.constant 1133603789 : i32
    %c12536_i16 = arith.constant 12536 : i16
    %c318591709_i32 = arith.constant 318591709 : i32
    %c-17634_i16 = arith.constant -17634 : i16
    %cst_1 = arith.constant 2.009600e+04 : f16
    %cst_2 = arith.constant 8.352000e+03 : f16
    %c921153525_i64 = arith.constant 921153525 : i64
    %c56933747_i32 = arith.constant 56933747 : i32
    %0 = tensor.empty() : tensor<9x4xi64>
    %1 = tensor.empty() : tensor<5x9xi1>
    %2 = tensor.empty() : tensor<4x13xi1>
    %3 = tensor.empty() : tensor<4x13xf32>
    %4 = tensor.empty() : tensor<9x4xi64>
    %5 = tensor.empty() : tensor<9x4xf32>
    %6 = tensor.empty() : tensor<9x4xi16>
    %7 = tensor.empty() : tensor<5x9xf32>
    %8 = tensor.empty() : tensor<5x9xi64>
    %9 = tensor.empty() : tensor<5x9xi1>
    %10 = tensor.empty() : tensor<5x9xi64>
    %11 = tensor.empty() : tensor<4x13xf32>
    %12 = tensor.empty() : tensor<4x13xf16>
    %13 = tensor.empty() : tensor<9x4xi1>
    %14 = tensor.empty() : tensor<5x9xi32>
    %15 = tensor.empty() : tensor<9x4xi16>
    %c0 = arith.constant 0 : index
    %c1 = arith.constant 1 : index
    %c2 = arith.constant 2 : index
    %c3 = arith.constant 3 : index
    %c4 = arith.constant 4 : index
    %c5 = arith.constant 5 : index
    %c6 = arith.constant 6 : index
    %c7 = arith.constant 7 : index
    %c8 = arith.constant 8 : index
    %c9 = arith.constant 9 : index
    %c10 = arith.constant 10 : index
    %c11 = arith.constant 11 : index
    %c12 = arith.constant 12 : index
    %c13 = arith.constant 13 : index
    %c14 = arith.constant 14 : index
    %c15 = arith.constant 15 : index
    %alloc = memref.alloc() : memref<5x9xi32>
    %alloc_3 = memref.alloc() : memref<4x13xi32>
    %alloc_4 = memref.alloc() : memref<4x13xf32>
    %alloc_5 = memref.alloc() : memref<5x9xi16>
    %alloc_6 = memref.alloc() : memref<5x9xi16>
    %alloc_7 = memref.alloc() : memref<9x4xi1>
    %alloc_8 = memref.alloc() : memref<9x4xf32>
    %alloc_9 = memref.alloc() : memref<5x9xi1>
    %alloc_10 = memref.alloc() : memref<4x13xi1>
    %alloc_11 = memref.alloc() : memref<9x4xi32>
    %alloc_12 = memref.alloc() : memref<4x13xi32>
    %alloc_13 = memref.alloc() : memref<4x13xi16>
    %alloc_14 = memref.alloc() : memref<5x9xi16>
    %alloc_15 = memref.alloc() : memref<9x4xi64>
    %alloc_16 = memref.alloc() : memref<5x9xi64>
    %alloc_17 = memref.alloc() : memref<4x13xf16>
    %16 = tensor.empty() : tensor<4x13xi1>
    %17 = linalg.copy ins(%2 : tensor<4x13xi1>) outs(%16 : tensor<4x13xi1>) -> tensor<4x13xi1>
    %18 = tensor.empty() : tensor<13x4xi1>
    %transposed = linalg.transpose ins(%17 : tensor<4x13xi1>) outs(%18 : tensor<13x4xi1>) permutation = [1, 0] 
    %alloc_18 = memref.alloc() : memref<4xi1>
    linalg.reduce ins(%2 : tensor<4x13xi1>) outs(%alloc_18 : memref<4xi1>) dimensions = [1] 
      (%in: i1, %init: i1) {
        %cast = tensor.cast %5 : tensor<9x4xf32> to tensor<?x?xf32>
        %250 = arith.addf %cst, %cst : f32
        %251 = arith.ori %c383015234_i64, %c383015234_i64 : i64
        %252 = arith.negf %cst : f32
        %253 = index.ceildivu %c0, %c0
        %254 = arith.subi %c921153525_i64, %c921153525_i64 : i64
        %255 = arith.shrui %c1133603789_i32, %c1002341114_i32 : i32
        %256 = vector.broadcast %c318591709_i32 : i32 to vector<1xi32>
        %257 = vector.extract_strided_slice %256 {offsets = [0], sizes = [1], strides = [1]} : vector<1xi32> to vector<1xi32>
        %true_49 = arith.constant true
        linalg.yield %true_49 : i1
      }
    scf.parallel (%arg2) = (%c10) to (%c8) step (%c12) {
      %250 = arith.addf %cst, %cst : f32
      %extracted_49 = tensor.extract %1[%c0, %c3] : tensor<5x9xi1>
      %false_50 = index.bool.constant false
      %251 = arith.addf %cst_1, %cst_1 : f16
      %252 = vector.broadcast %cst : f32 to vector<4x13xf32>
      %253 = vector.transpose %252, [0, 1] : vector<4x13xf32> to vector<4x13xf32>
      %254 = vector.broadcast %cst : f32 to vector<4xf32>
      %255 = vector.multi_reduction <add>, %252, %254 [1] : vector<4x13xf32> to vector<4xf32>
      %256 = index.maxu %c13, %c5
      %257 = arith.shrsi %false_50, %false_50 : i1
      %false_51 = index.bool.constant false
      %258 = bufferization.to_tensor %alloc : memref<5x9xi32>
      scf.if %false_51 {
        %264 = arith.ceildivsi %c383015234_i64, %c383015234_i64 : i64
        %265 = arith.maxsi %c-17634_i16, %c12536_i16 : i16
        %expanded_52 = tensor.expand_shape %3 [[0], [1, 2]] : tensor<4x13xf32> into tensor<4x13x1xf32>
        %266 = affine.min affine_map<(d0) -> (d0, d0)>(%c6)
        %267 = bufferization.to_tensor %alloc_6 : memref<5x9xi16>
        %268 = arith.shli %c1002341114_i32, %c318591709_i32 : i32
        %269 = affine.max affine_map<(d0) -> (d0 * 8, -(d0 * 2 + d0 - 2 + 16), d0 * 2, d0 - 2)>(%c0)
        %270 = math.cttz %14 : tensor<5x9xi32>
      } else {
        %264 = arith.remsi %c991861544_i32, %c1002341114_i32 : i32
        %265 = arith.cmpi ugt, %c383015234_i64, %c921153525_i64 : i64
        %266 = math.sqrt %12 : tensor<4x13xf16>
        %267 = tensor.empty() : tensor<4x4xi1>
        %268 = linalg.matmul ins(%2, %18 : tensor<4x13xi1>, tensor<13x4xi1>) outs(%267 : tensor<4x4xi1>) -> tensor<4x4xi1>
        %269 = math.log2 %7 : tensor<5x9xf32>
        %270 = math.log2 %3 : tensor<4x13xf32>
        %271 = arith.xori %c-17634_i16, %c-983_i16 : i16
        %272 = index.ceildivs %c15, %c0
      }
      %259 = math.cttz %258 : tensor<5x9xi32>
      %260 = affine.load %alloc_6[%c1, %c8] : memref<5x9xi16>
      %261 = bufferization.clone %alloc_3 : memref<4x13xi32> to memref<4x13xi32>
      %262 = math.round %11 : tensor<4x13xf32>
      %263 = memref.load %alloc_13[%c2, %c3] : memref<4x13xi16>
      scf.yield
    }
    %19 = affine.vector_load %alloc_14[%c8, %c11] : memref<5x9xi16>, vector<4xi16>
    affine.vector_store %19, %alloc_13[%c10, %c0] : memref<4x13xi16>, vector<4xi16>
    %alloc_19 = memref.alloc() : memref<4xi1>
    %20 = tensor.empty() : tensor<i1>
    %21 = linalg.dot ins(%alloc_18, %alloc_19 : memref<4xi1>, memref<4xi1>) outs(%20 : tensor<i1>) -> tensor<i1>
    %22 = math.ipowi %c1133603789_i32, %c1002341114_i32 : i32
    %23 = vector.matrix_multiply %19, %19 {lhs_columns = 4 : i32, lhs_rows = 1 : i32, rhs_columns = 1 : i32} : (vector<4xi16>, vector<4xi16>) -> vector<1xi16>
    %24 = vector.bitcast %19 : vector<4xi16> to vector<4xi16>
    %extracted = tensor.extract %0[%c7, %c1] : tensor<9x4xi64>
    %25 = vector.matrix_multiply %23, %19 {lhs_columns = 1 : i32, lhs_rows = 1 : i32, rhs_columns = 4 : i32} : (vector<1xi16>, vector<4xi16>) -> vector<4xi16>
    %26 = index.mul %c1, %c12
    %27 = affine.apply affine_map<(d0, d1, d2) -> (((d0 floordiv 128) * 2) mod 4)>(%c9, %c6, %c11)
    %28 = math.floor %7 : tensor<5x9xf32>
    %29 = arith.minf %cst_1, %cst_2 : f16
    %30 = math.copysign %5, %5 : tensor<9x4xf32>
    %31 = math.atan2 %3, %11 : tensor<4x13xf32>
    bufferization.dealloc_tensor %0 : tensor<9x4xi64>
    %32 = math.atan2 %11, %11 : tensor<4x13xf32>
    %33 = index.floordivs %c9, %c9
    %34 = index.castu %c991861544_i32 : i32 to index
    %35 = vector.broadcast %c12536_i16 : i16 to vector<4x4xi16>
    %dest, %accumulated_value = vector.scan <maxui>, %35, %25 {inclusive = true, reduction_dim = 1 : i64} : vector<4x4xi16>, vector<4xi16>
    %36 = arith.muli %false, %false : i1
    %37 = index.maxu %c13, %c13
    %38 = vector.broadcast %c11 : index to vector<9xindex>
    %39 = vector.broadcast %false : i1 to vector<9xi1>
    %40 = vector.broadcast %extracted : i64 to vector<9xi64>
    vector.scatter %alloc_16[%c3, %c8] [%38], %39, %40 : memref<5x9xi64>, vector<9xindex>, vector<9xi1>, vector<9xi64>
    %41 = vector.load %alloc_10[%c3, %c12] : memref<4x13xi1>, vector<5x9xi1>
    memref.assume_alignment %alloc_10, 8 : memref<4x13xi1>
    %42 = arith.negf %cst_2 : f16
    %43 = arith.addi %extracted, %extracted : i64
    %44 = tensor.empty() : tensor<5x9xi16>
    %45 = arith.maxf %cst_1, %cst_2 : f16
    %46 = arith.andi %c1002341114_i32, %c1002341114_i32 : i32
    %47 = scf.index_switch %c15 -> vector<9x4xi32> 
    case 1 {
      %250 = vector.extract_strided_slice %24 {offsets = [1], sizes = [3], strides = [1]} : vector<4xi16> to vector<3xi16>
      %251 = math.exp2 %3 : tensor<4x13xf32>
      %252 = vector.load %alloc_5[%c4, %c1] : memref<5x9xi16>, vector<5x9xi16>
      %253 = affine.min affine_map<(d0, d1, d2, d3) -> (d0 - d3 - (d0 + 4) - d0 + 4, (d0 - d3 - (d0 + 4) + 4) * 4, d0 - d3 - (d0 + 4) + 4, d0)>(%34, %c11, %c12, %c10)
      %254 = arith.minsi %c56933747_i32, %c318591709_i32 : i32
      %255 = arith.shrui %false, %false : i1
      %256 = math.copysign %12, %12 : tensor<4x13xf16>
      %257 = math.absi %false : i1
      %generated_49 = tensor.generate %c8, %c15 {
      ^bb0(%arg2: index, %arg3: index):
        %expanded_52 = tensor.expand_shape %9 [[0], [1, 2]] : tensor<5x9xi1> into tensor<5x9x1xi1>
        %263 = bufferization.clone %alloc_7 : memref<9x4xi1> to memref<9x4xi1>
        bufferization.dealloc_tensor %2 : tensor<4x13xi1>
        %264 = math.roundeven %3 : tensor<4x13xf32>
        tensor.yield %c921153525_i64 : i64
      } : tensor<?x?xi64>
      %258 = index.sub %c11, %27
      %extracted_50 = tensor.extract %21[] : tensor<i1>
      %259 = math.round %5 : tensor<9x4xf32>
      %false_51 = index.bool.constant false
      vector.print %250 : vector<3xi16>
      %260 = arith.ori %c-17634_i16, %c-17634_i16 : i16
      %261 = math.log2 %11 : tensor<4x13xf32>
      %262 = vector.broadcast %c1002341114_i32 : i32 to vector<9x4xi32>
      scf.yield %262 : vector<9x4xi32>
    }
    default {
      %250 = index.casts %c7 : index to i32
      %251 = index.divu %c15, %c14
      %alloca_49 = memref.alloca() : memref<5x9xf16>
      %252 = affine.for %arg2 = 0 to 0 iter_args(%arg3 = %11) -> (tensor<4x13xf32>) {
        affine.yield %3 : tensor<4x13xf32>
      }
      %253 = math.log1p %3 : tensor<4x13xf32>
      memref.store %c921153525_i64, %alloc_16[%c2, %c1] : memref<5x9xi64>
      %254 = math.roundeven %3 : tensor<4x13xf32>
      %255 = math.cos %3 : tensor<4x13xf32>
      %256 = index.maxu %26, %c2
      %257 = arith.minf %cst_2, %cst_0 : f16
      %258 = index.ceildivu %c15, %34
      %259 = arith.subi %c-983_i16, %c11477_i16 : i16
      %260 = index.ceildivu %c14, %c13
      %261 = math.log1p %cst_0 : f16
      %262 = arith.remsi %c383015234_i64, %extracted : i64
      %263 = vector.matrix_multiply %23, %25 {lhs_columns = 1 : i32, lhs_rows = 1 : i32, rhs_columns = 4 : i32} : (vector<1xi16>, vector<4xi16>) -> vector<4xi16>
      %264 = vector.broadcast %c1133603789_i32 : i32 to vector<9x4xi32>
      scf.yield %264 : vector<9x4xi32>
    }
    %48 = arith.addf %cst_1, %cst_1 : f16
    %49 = vector.extract_strided_slice %41 {offsets = [1], sizes = [3], strides = [1]} : vector<5x9xi1> to vector<3x9xi1>
    %false_20 = index.bool.constant false
    %50 = index.mul %c3, %c13
    %51 = index.mul %50, %50
    %52 = arith.mulf %cst_1, %cst_2 : f16
    %53 = vector.matrix_multiply %24, %25 {lhs_columns = 4 : i32, lhs_rows = 1 : i32, rhs_columns = 1 : i32} : (vector<4xi16>, vector<4xi16>) -> vector<1xi16>
    %expanded = tensor.expand_shape %4 [[0], [1, 2]] : tensor<9x4xi64> into tensor<9x4x1xi64>
    %54 = vector.broadcast %c1133603789_i32 : i32 to vector<9x4xi32>
    %expanded_21 = tensor.expand_shape %10 [[0], [1, 2]] : tensor<5x9xi64> into tensor<5x9x1xi64>
    %55 = math.copysign %3, %3 : tensor<4x13xf32>
    %alloc_22 = memref.alloc() : memref<4x4xi64>
    %56 = tensor.empty() : tensor<9x4xi64>
    %57 = linalg.matmul ins(%0, %alloc_22 : tensor<9x4xi64>, memref<4x4xi64>) outs(%56 : tensor<9x4xi64>) -> tensor<9x4xi64>
    memref.alloca_scope  {
      %250 = math.ctpop %2 : tensor<4x13xi1>
      %251 = index.sub %c13, %c11
      %252 = bufferization.clone %alloc_8 : memref<9x4xf32> to memref<9x4xf32>
      %253 = vector.matrix_multiply %25, %24 {lhs_columns = 4 : i32, lhs_rows = 1 : i32, rhs_columns = 1 : i32} : (vector<4xi16>, vector<4xi16>) -> vector<1xi16>
      %254 = vector.broadcast %c991861544_i32 : i32 to vector<5xi32>
      vector.transfer_write %254, %alloc_11[%c15, %51] {permutation_map = affine_map<(d0, d1) -> (d0)>} : vector<5xi32>, memref<9x4xi32>
      %255 = scf.while (%arg2 = %c-983_i16) : (i16) -> i16 {
        %281 = vector.broadcast %c6 : index to vector<13xindex>
        %282 = vector.broadcast %false : i1 to vector<13xi1>
        %283 = vector.broadcast %c991861544_i32 : i32 to vector<13xi32>
        vector.scatter %alloc_11[%c5, %c1] [%281], %282, %283 : memref<9x4xi32>, vector<13xindex>, vector<13xi1>, vector<13xi32>
        bufferization.dealloc_tensor %8 : tensor<5x9xi64>
        %284 = index.ceildivu %34, %c7
        %285 = math.cttz %0 : tensor<9x4xi64>
        %alloca_54 = memref.alloca() : memref<5x9xi64>
        %286 = arith.shli %c1002341114_i32, %c1002341114_i32 : i32
        %inserted_55 = tensor.insert %extracted into %8[%c1, %c6] : tensor<5x9xi64>
        %287 = vector.create_mask %c13, %33 : vector<5x9xi1>
        scf.condition(%false) %c11477_i16 : i16
      } do {
      ^bb0(%arg2: i16):
        %281 = affine.min affine_map<(d0, d1, d2) -> (d2)>(%51, %c5, %c15)
        %282 = arith.addf %cst_0, %cst_1 : f16
        %283 = memref.realloc %alloc_19 : memref<4xi1> to memref<5xi1>
        %284 = math.rsqrt %3 : tensor<4x13xf32>
        %285 = vector.transpose %54, [1, 0] : vector<9x4xi32> to vector<4x9xi32>
        %286 = vector.insertelement %c11477_i16, %23[%c15 : index] : vector<1xi16>
        %287 = index.sub %251, %33
        %288 = arith.shli %arg2, %c11477_i16 : i16
        %289 = index.divu %251, %c11
        %c1_i16_54 = arith.constant 1 : i16
        %c0_i16 = arith.constant 0 : i16
        %290 = vector.transfer_read %alloc_5[%c11, %281], %c0_i16 {permutation_map = affine_map<(d0, d1) -> (0)>} : memref<5x9xi16>, vector<5xi16>
        %291 = math.exp2 %5 : tensor<9x4xf32>
        %292 = vector.load %alloc_6[%c3, %c7] : memref<5x9xi16>, vector<4x13xi16>
        %293 = math.log1p %11 : tensor<4x13xf32>
        vector.print %23 : vector<1xi16>
        %from_elements_55 = tensor.from_elements %cst, %cst, %cst, %cst, %cst, %cst, %cst, %cst, %cst, %cst, %cst, %cst, %cst, %cst, %cst, %cst, %cst, %cst, %cst, %cst, %cst, %cst, %cst, %cst, %cst, %cst, %cst, %cst, %cst, %cst, %cst, %cst, %cst, %cst, %cst, %cst, %cst, %cst, %cst, %cst, %cst, %cst, %cst, %cst, %cst : tensor<5x9xf32>
        %294 = tensor.empty() : tensor<13x4xf32>
        %295 = tensor.empty() : tensor<4x4xf32>
        %296 = linalg.matmul ins(%3, %294 : tensor<4x13xf32>, tensor<13x4xf32>) outs(%295 : tensor<4x4xf32>) -> tensor<4x4xf32>
        scf.yield %c11477_i16 : i16
      }
      %256 = linalg.generic {indexing_maps = [affine_map<(d0, d1, d2) -> (d0, d1, d2)>], iterator_types = ["parallel", "parallel", "parallel"]} outs(%expanded : tensor<9x4x1xi64>) {
      ^bb0(%out: i64):
        %281 = math.atan %7 : tensor<5x9xf32>
        %282 = affine.max affine_map<(d0, d1, d2) -> (-d0 + 56)>(%33, %c5, %251)
        %283 = vector.broadcast %c15 : index to vector<4xindex>
        %284 = vector.broadcast %false : i1 to vector<4xi1>
        %285 = vector.broadcast %cst_1 : f16 to vector<4xf16>
        vector.scatter %alloc_17[%c1, %c1] [%283], %284, %285 : memref<4x13xf16>, vector<4xindex>, vector<4xi1>, vector<4xf16>
        %286 = affine.load %alloc_16[%c15, %c14] : memref<5x9xi64>
        %287 = vector.load %alloc_4[%c0, %c6] : memref<4x13xf32>, vector<9x4xf32>
        %288 = math.cttz %9 : tensor<5x9xi1>
        %289 = index.divs %251, %c6
        %290 = vector.broadcast %c0 : index to vector<5xindex>
        %291 = vector.broadcast %false : i1 to vector<5xi1>
        vector.scatter %alloc_10[%c2, %c7] [%290], %291, %291 : memref<4x13xi1>, vector<5xindex>, vector<5xi1>, vector<5xi1>
        %292 = vector.load %alloc_11[%c1, %c2] : memref<9x4xi32>, vector<5x9xi32>
        memref.assume_alignment %252, 4 : memref<9x4xf32>
        %293 = affine.min affine_map<(d0, d1, d2) -> (d0 * 16, d0 * 16, (d2 + d0 * 16) mod 128, (d2 + d0 * 16) mod 128)>(%c4, %33, %c1)
        vector.print %23 : vector<1xi16>
        %294 = math.tan %cst_2 : f16
        %295 = arith.addf %cst, %cst : f32
        %296 = math.copysign %11, %3 : tensor<4x13xf32>
        %297 = arith.ceildivsi %out, %c921153525_i64 : i64
        memref.copy %alloc_18, %alloc_19 : memref<4xi1> to memref<4xi1>
        %298 = vector.extract_strided_slice %24 {offsets = [2], sizes = [1], strides = [1]} : vector<4xi16> to vector<1xi16>
        %299 = math.absf %5 : tensor<9x4xf32>
        %300 = bufferization.clone %alloc_12 : memref<4x13xi32> to memref<4x13xi32>
        %expanded_54 = tensor.expand_shape %1 [[0], [1, 2]] : tensor<5x9xi1> into tensor<5x9x1xi1>
        %301 = arith.addi %c11477_i16, %c12536_i16 : i16
        %expanded_55 = tensor.expand_shape %4 [[0], [1, 2]] : tensor<9x4xi64> into tensor<9x4x1xi64>
        %302 = index.floordivs %251, %c6
        %303 = arith.xori %out, %286 : i64
        %304 = index.ceildivu %282, %37
        %305 = arith.remf %cst_1, %cst_2 : f16
        %expanded_56 = tensor.expand_shape %9 [[0], [1, 2]] : tensor<5x9xi1> into tensor<5x9x1xi1>
        memref.assume_alignment %alloc_12, 16 : memref<4x13xi32>
        %306 = affine.load %alloc_11[%c4, %c13] : memref<9x4xi32>
        memref.assume_alignment %alloc_17, 8 : memref<4x13xf16>
        %from_elements_57 = tensor.from_elements %cst, %cst, %cst, %cst, %cst, %cst, %cst, %cst, %cst, %cst, %cst, %cst, %cst, %cst, %cst, %cst, %cst, %cst, %cst, %cst, %cst, %cst, %cst, %cst, %cst, %cst, %cst, %cst, %cst, %cst, %cst, %cst, %cst, %cst, %cst, %cst, %cst, %cst, %cst, %cst, %cst, %cst, %cst, %cst, %cst : tensor<5x9xf32>
        linalg.yield %286 : i64
      } -> tensor<9x4x1xi64>
      %257 = arith.minsi %c-983_i16, %c-17634_i16 : i16
      %258 = vector.broadcast %c12536_i16 : i16 to vector<9xi16>
      %259 = vector.broadcast %false_20 : i1 to vector<9xi1>
      %260 = vector.maskedload %alloc_14[%c3, %c3], %259, %258 : memref<5x9xi16>, vector<9xi1>, vector<9xi16> into vector<9xi16>
      %261 = scf.while (%arg2 = %54) : (vector<9x4xi32>) -> vector<9x4xi32> {
        %281 = math.log2 %11 : tensor<4x13xf32>
        %282 = vector.insert %259, %49 [0] : vector<9xi1> into vector<3x9xi1>
        %collapsed_54 = tensor.collapse_shape %4 [[0, 1]] : tensor<9x4xi64> into tensor<36xi64>
        %283 = affine.min affine_map<(d0) -> ((d0 floordiv 16) floordiv 4 - 1, (d0 floordiv 16 - 4) * -8, (d0 floordiv 16 - 4) * -8, (d0 floordiv 16 - 4) * 8 + 4)>(%c14)
        %284 = math.floor %7 : tensor<5x9xf32>
        %285 = bufferization.clone %alloc_10 : memref<4x13xi1> to memref<4x13xi1>
        %286 = math.floor %7 : tensor<5x9xf32>
        %287 = vector.broadcast %cst : f32 to vector<9x4xf32>
        %288 = vector.fma %287, %287, %287 : vector<9x4xf32>
        scf.condition(%false) %54 : vector<9x4xi32>
      } do {
      ^bb0(%arg2: vector<9x4xi32>):
        %281 = math.log1p %cst_2 : f16
        %extracted_54 = tensor.extract %18[%c10, %c3] : tensor<13x4xi1>
        %282 = math.absi %20 : tensor<i1>
        %283 = arith.ori %c-17634_i16, %c12536_i16 : i16
        %284 = vector.broadcast %cst : f32 to vector<13xf32>
        vector.transfer_write %284, %alloc_4[%37, %37] {permutation_map = affine_map<(d0, d1) -> (d0)>} : vector<13xf32>, memref<4x13xf32>
        %285 = memref.load %alloc_19[%c1] : memref<4xi1>
        %alloc_55 = memref.alloc() : memref<9x5xi32>
        %286 = tensor.empty() : tensor<5x5xi32>
        %287 = linalg.matmul ins(%14, %alloc_55 : tensor<5x9xi32>, memref<9x5xi32>) outs(%286 : tensor<5x5xi32>) -> tensor<5x5xi32>
        %288 = affine.apply affine_map<(d0, d1) -> ((d0 + d1) * 128)>(%c13, %51)
        %289 = math.ctpop %10 : tensor<5x9xi64>
        %290 = affine.max affine_map<(d0, d1, d2, d3) -> (d3 + d3 ceildiv 8, d3 ceildiv 8)>(%c2, %c3, %c9, %c13)
        %291 = arith.minui %c11477_i16, %c12536_i16 : i16
        %292 = math.ctpop %14 : tensor<5x9xi32>
        %293 = math.atan %12 : tensor<4x13xf16>
        memref.store %extracted_54, %alloc_9[%c3, %c1] : memref<5x9xi1>
        %294 = index.ceildivu %c15, %c14
        %rank_56 = tensor.rank %5 : tensor<9x4xf32>
        scf.yield %54 : vector<9x4xi32>
      }
      %262 = vector.broadcast %cst : f32 to vector<f32>
      vector.transfer_write %262, %alloc_4[%c15, %251] : vector<f32>, memref<4x13xf32>
      %263 = affine.for %arg2 = 0 to 104 iter_args(%arg3 = %8) -> (tensor<5x9xi64>) {
        affine.yield %8 : tensor<5x9xi64>
      }
      %264 = vector.matrix_multiply %25, %19 {lhs_columns = 4 : i32, lhs_rows = 1 : i32, rhs_columns = 1 : i32} : (vector<4xi16>, vector<4xi16>) -> vector<1xi16>
      %265 = affine.load %alloc_11[%c6, %c9] : memref<9x4xi32>
      %266 = memref.load %alloc_13[%c0, %c3] : memref<4x13xi16>
      %267 = math.roundeven %7 : tensor<5x9xf32>
      %268 = arith.maxf %cst_0, %cst_2 : f16
      %269 = math.atan2 %cst_0, %cst_0 : f16
      %270 = vector.transpose %264, [0] : vector<1xi16> to vector<1xi16>
      %cst_49 = arith.constant 1.000000e+00 : f32
      %cst_50 = arith.constant 0.000000e+00 : f32
      %271 = vector.transfer_read %3[%c10, %c15], %cst_50 {permutation_map = affine_map<(d0, d1) -> (0)>} : tensor<4x13xf32>, vector<13xf32>
      %272 = vector.broadcast %c56933747_i32 : i32 to vector<i32>
      %273 = vector.transfer_write %272, %14[%c9, %c10] : vector<i32>, tensor<5x9xi32>
      %expanded_51 = tensor.expand_shape %13 [[0], [1, 2]] : tensor<9x4xi1> into tensor<9x4x1xi1>
      %274 = vector.insertelement %c11477_i16, %19[%c8 : index] : vector<4xi16>
      %275 = index.floordivs %251, %34
      bufferization.dealloc_tensor %15 : tensor<9x4xi16>
      memref.alloca_scope  {
        %expanded_54 = tensor.expand_shape %0 [[0], [1, 2]] : tensor<9x4xi64> into tensor<9x4x1xi64>
        %281 = arith.remsi %false, %false : i1
        %282 = affine.apply affine_map<(d0) -> (d0 ceildiv 16)>(%c11)
        %283 = vector.broadcast %33 : index to vector<4xindex>
        %284 = vector.broadcast %false_20 : i1 to vector<4xi1>
        vector.scatter %alloc_18[%c0] [%283], %284, %284 : memref<4xi1>, vector<4xindex>, vector<4xi1>, vector<4xi1>
        %285 = math.round %cst : f32
        %286 = vector.broadcast %c56933747_i32 : i32 to vector<4xi32>
        %287 = vector.insert %286, %54 [4] : vector<4xi32> into vector<9x4xi32>
        %288 = bufferization.clone %alloc_7 : memref<9x4xi1> to memref<9x4xi1>
        %289 = math.round %11 : tensor<4x13xf32>
        %290 = vector.broadcast %false_20 : i1 to vector<i1>
        %291 = vector.transfer_write %290, %expanded_51[%c11, %282, %c14] : vector<i1>, tensor<9x4x1xi1>
        %292 = arith.divsi %false_20, %false_20 : i1
        %293 = math.roundeven %7 : tensor<5x9xf32>
        %294 = arith.floordivsi %c921153525_i64, %extracted : i64
        %295 = vector.maskedload %alloc_7[%c0, %c2], %259, %259 : memref<9x4xi1>, vector<9xi1>, vector<9xi1> into vector<9xi1>
        %296 = math.cttz %56 : tensor<9x4xi64>
        %297 = vector.reduction <or>, %254 : vector<5xi32> into i32
        %rank_55 = tensor.rank %15 : tensor<9x4xi16>
        %c1_i16_56 = arith.constant 1 : i16
        %298 = vector.transfer_read %44[%c3, %c9], %c1_i16_56 : tensor<5x9xi16>, vector<13xi16>
        %299 = index.sub %c6, %c10
        %300 = arith.mulf %cst_1, %cst_0 : f16
        %false_57 = arith.constant false
        %301 = arith.floordivsi %c12536_i16, %c11477_i16 : i16
        %302 = math.absf %7 : tensor<5x9xf32>
        %303 = index.divu %27, %c11
        %304 = math.copysign %12, %12 : tensor<4x13xf16>
        %splat = tensor.splat %c1002341114_i32 : tensor<9x4xi32>
        %305 = index.floordivs %c14, %51
        %306 = math.absi %c-983_i16 : i16
        %307 = math.ceil %5 : tensor<9x4xf32>
        %308 = arith.minf %cst_2, %cst_1 : f16
        %309 = vector.extract_strided_slice %54 {offsets = [5], sizes = [3], strides = [1]} : vector<9x4xi32> to vector<3x4xi32>
        %310 = arith.ceildivsi %c921153525_i64, %c383015234_i64 : i64
        %inserted_58 = tensor.insert %extracted into %8[%c4, %c2] : tensor<5x9xi64>
      }
      %276 = tensor.empty() : tensor<4x4xi1>
      %277 = linalg.matmul ins(%2, %18 : tensor<4x13xi1>, tensor<13x4xi1>) outs(%276 : tensor<4x4xi1>) -> tensor<4x4xi1>
      %rank_52 = tensor.rank %11 : tensor<4x13xf32>
      %from_elements_53 = tensor.from_elements %false_20, %false, %false, %false, %false, %false, %false_20, %false_20, %false, %false, %false, %false_20, %false_20, %false_20, %false_20, %false_20, %false, %false_20, %false, %false, %false_20, %false, %false, %false_20, %false, %false, %false, %false_20, %false_20, %false, %false, %false_20, %false, %false, %false_20, %false : tensor<9x4xi1>
      %278 = arith.addf %cst_0, %cst_0 : f16
      %279 = arith.remui %c56933747_i32, %c56933747_i32 : i32
      %280 = affine.load %alloc_14[%c10, %c14] : memref<5x9xi16>
    }
    %58 = math.ceil %cst_0 : f16
    vector.print %24 : vector<4xi16>
    %59 = arith.ceildivsi %extracted, %extracted : i64
    affine.for %arg2 = 0 to 79 {
    }
    %true = arith.constant true
    %60 = vector.transfer_read %13[%c4, %27], %true : tensor<9x4xi1>, vector<i1>
    %61 = vector.broadcast %cst : f32 to vector<5x9xf32>
    %62 = vector.fma %61, %61, %61 : vector<5x9xf32>
    %63 = math.sqrt %3 : tensor<4x13xf32>
    %64 = vector.broadcast %c1002341114_i32 : i32 to vector<4xi32>
    %dest_23, %accumulated_value_24 = vector.scan <add>, %54, %64 {inclusive = false, reduction_dim = 0 : i64} : vector<9x4xi32>, vector<4xi32>
    %65 = arith.shli %c383015234_i64, %extracted : i64
    %66 = arith.addi %c12536_i16, %c-17634_i16 : i16
    %rank = tensor.rank %3 : tensor<4x13xf32>
    %alloc_25 = memref.alloc() : memref<5x9xf32>
    %67 = arith.minf %cst_1, %cst_0 : f16
    %true_26 = arith.constant true
    %68 = arith.ori %true, %false : i1
    %69 = math.atan %3 : tensor<4x13xf32>
    %70 = affine.min affine_map<(d0, d1, d2) -> ((d0 - d1 - d0) * 32)>(%c14, %rank, %rank)
    %inserted = tensor.insert %c921153525_i64 into %4[%c1, %c0] : tensor<9x4xi64>
    %71 = tensor.empty() : tensor<5x9xi64>
    %mapped = linalg.map ins(%10 : tensor<5x9xi64>) outs(%71 : tensor<5x9xi64>)
      (%in: i64) {
        %250 = linalg.generic {indexing_maps = [affine_map<(d0, d1, d2) -> (d0, d1, d2)>], iterator_types = ["parallel", "parallel", "parallel"]} outs(%expanded_21 : tensor<5x9x1xi64>) {
        ^bb0(%out: i64):
          %275 = arith.ceildivsi %false, %false_20 : i1
          %276 = index.sizeof
          %277 = arith.xori %out, %extracted : i64
          %278 = index.add %c6, %50
          %279 = bufferization.clone %alloc_15 : memref<9x4xi64> to memref<9x4xi64>
          %280 = index.divu %c13, %c12
          %281 = memref.realloc %alloc_19 : memref<4xi1> to memref<13xi1>
          %282 = arith.shrsi %c12536_i16, %c12536_i16 : i16
          %283 = index.maxu %27, %50
          memref.store %extracted, %279[%c0, %c2] : memref<9x4xi64>
          %284 = arith.divsi %c921153525_i64, %extracted : i64
          %285 = arith.maxsi %c56933747_i32, %c991861544_i32 : i32
          memref.copy %279, %alloc_15 : memref<9x4xi64> to memref<9x4xi64>
          %286 = vector.multi_reduction <and>, %25, %19 [] : vector<4xi16> to vector<4xi16>
          %287 = vector.broadcast %cst : f32 to vector<9xf32>
          %288 = vector.broadcast %false_20 : i1 to vector<9xi1>
          %289 = vector.maskedload %alloc_4[%c2, %c9], %288, %287 : memref<4x13xf32>, vector<9xi1>, vector<9xf32> into vector<9xf32>
          %from_elements_54 = tensor.from_elements %cst_1, %cst_1, %cst_2, %cst_2, %cst_0, %cst_2, %cst_1, %cst_2, %cst_1, %cst_0, %cst_1, %cst_0, %cst_0, %cst_2, %cst_2, %cst_1, %cst_2, %cst_2, %cst_0, %cst_1, %cst_2, %cst_0, %cst_2, %cst_0, %cst_0, %cst_1, %cst_2, %cst_1, %cst_0, %cst_1, %cst_0, %cst_2, %cst_0, %cst_2, %cst_1, %cst_0, %cst_2, %cst_1, %cst_1, %cst_2, %cst_1, %cst_2, %cst_1, %cst_0, %cst_1 : tensor<5x9xf16>
          %290 = arith.mulf %cst_2, %cst_2 : f16
          %291 = vector.broadcast %50 : index to vector<9xindex>
          %292 = vector.broadcast %c1002341114_i32 : i32 to vector<9xi32>
          vector.scatter %alloc_3[%c1, %c4] [%291], %288, %292 : memref<4x13xi32>, vector<9xindex>, vector<9xi1>, vector<9xi32>
          %293 = vector.broadcast %false_20 : i1 to vector<i1>
          %294 = vector.transfer_write %293, %1[%70, %37] : vector<i1>, tensor<5x9xi1>
          %295 = math.round %7 : tensor<5x9xf32>
          %296 = index.sizeof
          %297 = vector.broadcast %c56933747_i32 : i32 to vector<13xi32>
          %298 = vector.broadcast %false_20 : i1 to vector<13xi1>
          %299 = vector.maskedload %alloc_12[%c1, %c0], %298, %297 : memref<4x13xi32>, vector<13xi1>, vector<13xi32> into vector<13xi32>
          %300 = index.divs %70, %rank
          %301 = math.atan %cst_0 : f16
          %302 = arith.minsi %false_20, %true : i1
          %303 = vector.broadcast %cst : f32 to vector<5xf32>
          %dest_55, %accumulated_value_56 = vector.scan <minf>, %62, %303 {inclusive = true, reduction_dim = 1 : i64} : vector<5x9xf32>, vector<5xf32>
          %304 = vector.load %alloc_11[%c4, %c0] : memref<9x4xi32>, vector<5x9xi32>
          %305 = affine.min affine_map<(d0) -> (d0 floordiv 64 - d0 ceildiv 128, 0)>(%rank)
          %306 = affine.load %alloc_12[%c1, %c7] : memref<4x13xi32>
          memref.assume_alignment %alloc_18, 4 : memref<4xi1>
          %307 = vector.insertelement %c11477_i16, %53[%c15 : index] : vector<1xi16>
          %308 = memref.load %alloc_11[%c0, %c2] : memref<9x4xi32>
          linalg.yield %out : i64
        } -> tensor<5x9x1xi64>
        %251 = arith.mulf %cst, %cst : f32
        %252 = vector.extract_strided_slice %19 {offsets = [0], sizes = [4], strides = [1]} : vector<4xi16> to vector<4xi16>
        %253 = index.mul %c0, %33
        %254 = math.round %5 : tensor<9x4xf32>
        %255 = math.absf %11 : tensor<4x13xf32>
        %256 = vector.matrix_multiply %53, %25 {lhs_columns = 1 : i32, lhs_rows = 1 : i32, rhs_columns = 4 : i32} : (vector<1xi16>, vector<4xi16>) -> vector<4xi16>
        %257 = vector.broadcast %c14 : index to vector<9xindex>
        %258 = vector.broadcast %true : i1 to vector<9xi1>
        vector.scatter %alloc_7[%c6, %c3] [%257], %258, %258 : memref<9x4xi1>, vector<9xindex>, vector<9xi1>, vector<9xi1>
        %259 = vector.broadcast %c383015234_i64 : i64 to vector<4xi64>
        vector.transfer_write %259, %alloc_15[%c1, %c2] {permutation_map = affine_map<(d0, d1) -> (d0)>} : vector<4xi64>, memref<9x4xi64>
        %260 = arith.ori %c56933747_i32, %c991861544_i32 : i32
        %261 = math.cos %5 : tensor<9x4xf32>
        affine.store %cst, %alloc_8[%c4, %c7] : memref<9x4xf32>
        bufferization.dealloc_tensor %71 : tensor<5x9xi64>
        %262 = arith.ceildivsi %c-17634_i16, %c12536_i16 : i16
        vector.print %41 : vector<5x9xi1>
        %263 = arith.minf %cst_1, %cst_0 : f16
        %264 = vector.broadcast %cst : f32 to vector<9xf32>
        %265 = vector.insert %264, %61 [3] : vector<9xf32> into vector<5x9xf32>
        %expanded_49 = tensor.expand_shape %12 [[0], [1, 2]] : tensor<4x13xf16> into tensor<4x13x1xf16>
        %266 = math.round %5 : tensor<9x4xf32>
        %rank_50 = tensor.rank %0 : tensor<9x4xi64>
        %267 = arith.ceildivsi %in, %extracted : i64
        memref.copy %alloc_5, %alloc_6 : memref<5x9xi16> to memref<5x9xi16>
        %alloca_51 = memref.alloca() : memref<5x9xi32>
        %inserted_52 = tensor.insert %cst into %11[%c0, %c6] : tensor<4x13xf32>
        %268 = math.ctpop %14 : tensor<5x9xi32>
        %269 = arith.shrui %c-17634_i16, %c-983_i16 : i16
        %270 = memref.realloc %alloc_18 : memref<4xi1> to memref<9xi1>
        %271 = index.maxu %c6, %c14
        %generated_53 = tensor.generate %253 {
        ^bb0(%arg2: index, %arg3: index):
          %275 = arith.divf %cst_2, %cst_0 : f16
          affine.store %true, %alloc_10[%c8, %c5] : memref<4x13xi1>
          %276 = vector.transpose %54, [1, 0] : vector<9x4xi32> to vector<4x9xi32>
          %277 = arith.addf %cst, %cst : f32
          tensor.yield %false : i1
        } : tensor<?x4xi1>
        %272 = index.maxu %c1, %rank_50
        %273 = memref.atomic_rmw ori %c-17634_i16, %alloc_6[%c3, %c1] : (i16, memref<5x9xi16>) -> i16
        %274 = arith.ori %c12536_i16, %c12536_i16 : i16
        %c1_i64 = arith.constant 1 : i64
        linalg.yield %c1_i64 : i64
      }
    %72 = math.roundeven %7 : tensor<5x9xf32>
    %inserted_27 = tensor.insert %true into %13[%c0, %c0] : tensor<9x4xi1>
    %73 = math.atan %7 : tensor<5x9xf32>
    %74 = bufferization.clone %alloc_11 : memref<9x4xi32> to memref<9x4xi32>
    %75 = vector.extract_strided_slice %23 {offsets = [0], sizes = [1], strides = [1]} : vector<1xi16> to vector<1xi16>
    %76 = vector.broadcast %c991861544_i32 : i32 to vector<13xi32>
    vector.transfer_write %76, %alloc[%c3, %c1] {permutation_map = affine_map<(d0, d1) -> (d0)>} : vector<13xi32>, memref<5x9xi32>
    %77 = vector.insert %c56933747_i32, %76 [9] : i32 into vector<13xi32>
    %78 = arith.divui %c-17634_i16, %c-983_i16 : i16
    %79 = tensor.empty() : tensor<5x4xf32>
    %80 = linalg.matmul ins(%7, %5 : tensor<5x9xf32>, tensor<9x4xf32>) outs(%79 : tensor<5x4xf32>) -> tensor<5x4xf32>
    %81 = index.castu %false_20 : i1 to index
    %82 = arith.ceildivsi %c921153525_i64, %c921153525_i64 : i64
    %83 = memref.load %alloc_14[%c4, %c2] : memref<5x9xi16>
    %84 = math.log10 %5 : tensor<9x4xf32>
    %85 = index.mul %c8, %c13
    %86 = affine.if affine_set<(d0, d1, d2, d3) : (d2 * 8 + d0 + 128 == 0, d0 + d1 + d3 + 8 == 0, d0 mod 32 >= 0, d2 * 8 >= 0)>(%c9, %c10, %c14, %c4) -> f32 {
      %250 = index.castu %27 : index to i32
      %inserted_49 = tensor.insert %c12536_i16 into %44[%c2, %c2] : tensor<5x9xi16>
      %251 = math.round %79 : tensor<5x4xf32>
      %cst_50 = arith.constant 6.080000e+04 : f16
      %252 = arith.minui %false, %false : i1
      %expanded_51 = tensor.expand_shape %44 [[0], [1, 2]] : tensor<5x9xi16> into tensor<5x9x1xi16>
      %253 = index.castu %c7 : index to i32
      %254 = math.roundeven %cst_0 : f16
      affine.yield %cst : f32
    } else {
      affine.for %arg2 = 0 to 104 {
      }
      %250 = arith.addi %c11477_i16, %c-17634_i16 : i16
      %251 = math.atan2 %7, %7 : tensor<5x9xf32>
      %true_49 = index.bool.constant true
      %252 = vector.transpose %61, [1, 0] : vector<5x9xf32> to vector<9x5xf32>
      %253 = vector.extract_strided_slice %49 {offsets = [0], sizes = [3], strides = [1]} : vector<3x9xi1> to vector<3x9xi1>
      %254 = math.atan2 %3, %3 : tensor<4x13xf32>
      memref.alloca_scope  {
        %255 = vector.broadcast %c9 : index to vector<13xindex>
        %256 = vector.broadcast %true : i1 to vector<13xi1>
        %257 = vector.broadcast %c-17634_i16 : i16 to vector<13xi16>
        vector.scatter %alloc_13[%c2, %c5] [%255], %256, %257 : memref<4x13xi16>, vector<13xindex>, vector<13xi1>, vector<13xi16>
        %258 = arith.shrsi %true_49, %false : i1
        %259 = vector.broadcast %cst : f32 to vector<9xf32>
        %260 = vector.insert %259, %61 [1] : vector<9xf32> into vector<5x9xf32>
        %261 = vector.broadcast %false : i1 to vector<9xi1>
        %262 = vector.insert %261, %41 [2] : vector<9xi1> into vector<5x9xi1>
        %263 = math.absf %7 : tensor<5x9xf32>
        %264 = arith.minsi %c383015234_i64, %c383015234_i64 : i64
        %265 = arith.floordivsi %c1133603789_i32, %c318591709_i32 : i32
        %from_elements_50 = tensor.from_elements %cst, %cst, %cst, %cst, %cst, %cst, %cst, %cst, %cst, %cst, %cst, %cst, %cst, %cst, %cst, %cst, %cst, %cst, %cst, %cst, %cst, %cst, %cst, %cst, %cst, %cst, %cst, %cst, %cst, %cst, %cst, %cst, %cst, %cst, %cst, %cst, %cst, %cst, %cst, %cst, %cst, %cst, %cst, %cst, %cst, %cst, %cst, %cst, %cst, %cst, %cst, %cst : tensor<4x13xf32>
        %266 = arith.remui %false, %true_49 : i1
        %267 = math.absf %79 : tensor<5x4xf32>
        %268 = math.round %7 : tensor<5x9xf32>
        %269 = arith.shli %false_20, %false_20 : i1
        %cst_51 = arith.constant 1.000000e+00 : f32
        %cst_52 = arith.constant 0.000000e+00 : f32
        %270 = vector.transfer_read %7[%51, %c0], %cst_52 {permutation_map = affine_map<(d0, d1) -> (d0)>} : tensor<5x9xf32>, vector<13xf32>
        %271 = vector.broadcast %26 : index to vector<5xindex>
        %272 = vector.broadcast %true_49 : i1 to vector<5xi1>
        vector.scatter %alloc_10[%c3, %c11] [%271], %272, %272 : memref<4x13xi1>, vector<5xindex>, vector<5xi1>, vector<5xi1>
        %extracted_53 = tensor.extract %21[] : tensor<i1>
        %273 = math.round %11 : tensor<4x13xf32>
        %274 = math.ctpop %extracted_53 : i1
        %275 = math.absi %false : i1
        %276 = index.mul %c2, %26
        affine.store %true, %alloc_18[%c12] : memref<4xi1>
        memref.assume_alignment %alloc_15, 1 : memref<9x4xi64>
        %splat = tensor.splat %c56933747_i32 : tensor<5x9xi32>
        %277 = index.floordivs %c14, %70
        %278 = math.absf %cst_1 : f16
        %279 = math.log1p %from_elements_50 : tensor<4x13xf32>
        %inserted_54 = tensor.insert %cst into %7[%c4, %c8] : tensor<5x9xf32>
        %expanded_55 = tensor.expand_shape %2 [[0], [1, 2]] : tensor<4x13xi1> into tensor<4x13x1xi1>
        %cast = tensor.cast %10 : tensor<5x9xi64> to tensor<?x?xi64>
        %280 = math.round %3 : tensor<4x13xf32>
        %281 = arith.shli %c-17634_i16, %c-17634_i16 : i16
        %282 = vector.broadcast %c921153525_i64 : i64 to vector<4xi64>
        %283 = vector.transfer_write %282, %4[%rank, %50] {permutation_map = affine_map<(d0, d1) -> (d0)>} : vector<4xi64>, tensor<9x4xi64>
        %284 = index.add %70, %c5
      }
      affine.yield %cst : f32
    }
    %87 = vector.matrix_multiply %53, %53 {lhs_columns = 1 : i32, lhs_rows = 1 : i32, rhs_columns = 1 : i32} : (vector<1xi16>, vector<1xi16>) -> vector<1xi16>
    %88 = math.floor %5 : tensor<9x4xf32>
    %89 = affine.min affine_map<(d0, d1) -> (d1 * -256, -d1 + 1)>(%c7, %34)
    %90 = arith.minsi %c383015234_i64, %c383015234_i64 : i64
    %rank_28 = tensor.rank %2 : tensor<4x13xi1>
    %91 = scf.if %false -> (memref<5x9xi1>) {
      %250 = math.roundeven %7 : tensor<5x9xf32>
      %extracted_49 = tensor.extract %17[%c1, %c3] : tensor<4x13xi1>
      %251 = math.copysign %5, %5 : tensor<9x4xf32>
      %252 = arith.mulf %cst_2, %cst_0 : f16
      %253 = arith.shrsi %c1002341114_i32, %c1133603789_i32 : i32
      %from_elements_50 = tensor.from_elements %c1002341114_i32, %c318591709_i32, %c56933747_i32, %c1002341114_i32, %c1002341114_i32, %c1002341114_i32, %c1002341114_i32, %c56933747_i32, %c1002341114_i32, %c56933747_i32, %c991861544_i32, %c56933747_i32, %c1133603789_i32, %c1002341114_i32, %c1133603789_i32, %c991861544_i32, %c991861544_i32, %c1133603789_i32, %c56933747_i32, %c1133603789_i32, %c991861544_i32, %c1002341114_i32, %c1133603789_i32, %c56933747_i32, %c1133603789_i32, %c1133603789_i32, %c1133603789_i32, %c1133603789_i32, %c318591709_i32, %c1002341114_i32, %c1002341114_i32, %c56933747_i32, %c1002341114_i32, %c1133603789_i32, %c56933747_i32, %c56933747_i32, %c318591709_i32, %c991861544_i32, %c1002341114_i32, %c1133603789_i32, %c56933747_i32, %c1133603789_i32, %c1002341114_i32, %c991861544_i32, %c1133603789_i32 : tensor<5x9xi32>
      %254 = arith.xori %c318591709_i32, %c56933747_i32 : i32
      %255 = index.divs %rank_28, %34
      scf.yield %alloc_9 : memref<5x9xi1>
    } else {
      affine.store %false_20, %alloc_9[%c8, %c5] : memref<5x9xi1>
      %true_49 = index.bool.constant true
      %250 = math.log1p %79 : tensor<5x4xf32>
      %251 = arith.ceildivsi %c1002341114_i32, %c1133603789_i32 : i32
      %252 = vector.extract_strided_slice %24 {offsets = [2], sizes = [2], strides = [1]} : vector<4xi16> to vector<2xi16>
      memref.copy %alloc_19, %alloc_18 : memref<4xi1> to memref<4xi1>
      %253 = math.cos %5 : tensor<9x4xf32>
      %254 = tensor.empty() : tensor<4x13xf16>
      %mapped_50 = linalg.map ins(%alloc_17, %alloc_17, %alloc_17 : memref<4x13xf16>, memref<4x13xf16>, memref<4x13xf16>) outs(%254 : tensor<4x13xf16>)
        (%in: f16, %in_51: f16, %in_52: f16) {
          %255 = index.divs %c8, %c14
          %256 = arith.addf %in, %in_51 : f16
          %257 = vector.bitcast %54 : vector<9x4xi32> to vector<9x4xf32>
          memref.assume_alignment %alloc_4, 8 : memref<4x13xf32>
          %258 = index.sub %c7, %rank
          %259 = index.floordivs %34, %c5
          %260 = math.absi %6 : tensor<9x4xi16>
          %261 = index.divu %85, %c15
          %262 = vector.matrix_multiply %75, %24 {lhs_columns = 1 : i32, lhs_rows = 1 : i32, rhs_columns = 4 : i32} : (vector<1xi16>, vector<4xi16>) -> vector<4xi16>
          %263 = arith.shrui %c-17634_i16, %c-17634_i16 : i16
          %cast = tensor.cast %1 : tensor<5x9xi1> to tensor<?x?xi1>
          %264 = index.floordivs %70, %c15
          %265 = vector.broadcast %c12 : index to vector<13xindex>
          %266 = vector.broadcast %false_20 : i1 to vector<13xi1>
          vector.scatter %alloc_3[%c1, %c2] [%265], %266, %76 : memref<4x13xi32>, vector<13xindex>, vector<13xi1>, vector<13xi32>
          %267 = arith.shli %false_20, %true_49 : i1
          %268 = index.castu %c1002341114_i32 : i32 to index
          %269 = index.sub %c10, %37
          %270 = arith.remsi %true_49, %true_49 : i1
          %inserted_53 = tensor.insert %c921153525_i64 into %expanded[%c5, %c2, %c0] : tensor<9x4x1xi64>
          bufferization.dealloc_tensor %cast : tensor<?x?xi1>
          %271 = arith.ori %c1002341114_i32, %c1133603789_i32 : i32
          %272 = arith.minsi %c1133603789_i32, %c991861544_i32 : i32
          %273 = arith.ori %false, %false_20 : i1
          %274 = arith.minsi %c1002341114_i32, %c56933747_i32 : i32
          %275 = vector.extract_strided_slice %53 {offsets = [0], sizes = [1], strides = [1]} : vector<1xi16> to vector<1xi16>
          %276 = vector.extract_strided_slice %76 {offsets = [8], sizes = [4], strides = [1]} : vector<13xi32> to vector<4xi32>
          %277 = arith.addi %c318591709_i32, %c318591709_i32 : i32
          %278 = arith.ori %false_20, %false_20 : i1
          %279 = math.atan2 %254, %254 : tensor<4x13xf16>
          %280 = bufferization.clone %alloc_14 : memref<5x9xi16> to memref<5x9xi16>
          %281 = vector.broadcast %c-983_i16 : i16 to vector<9xi16>
          %282 = vector.broadcast %true_49 : i1 to vector<9xi1>
          %283 = vector.maskedload %alloc_6[%c4, %c3], %282, %281 : memref<5x9xi16>, vector<9xi1>, vector<9xi16> into vector<9xi16>
          %284 = math.copysign %cst_0, %cst_2 : f16
          %285 = arith.remf %in_51, %cst_2 : f16
          %cst_54 = arith.constant 1.000000e+00 : f16
          linalg.yield %cst_54 : f16
        }
      scf.yield %alloc_9 : memref<5x9xi1>
    }
    %92 = arith.floordivsi %c12536_i16, %c12536_i16 : i16
    %93 = index.maxu %c4, %81
    memref.store %c991861544_i32, %alloc_3[%c0, %c5] : memref<4x13xi32>
    %94 = arith.shrsi %false, %false_20 : i1
    %95 = math.log10 %cst_1 : f16
    %96 = arith.divui %c1002341114_i32, %c1002341114_i32 : i32
    %97 = scf.if %false_20 -> (memref<5x9xi16>) {
      %250 = index.divs %81, %37
      affine.for %arg2 = 0 to 7 {
      }
      %251 = index.floordivs %50, %70
      %252 = memref.realloc %alloc_18 : memref<4xi1> to memref<13xi1>
      %253 = arith.muli %c1133603789_i32, %c1133603789_i32 : i32
      %c1_i16_49 = arith.constant 1 : i16
      %254 = vector.transfer_read %6[%c5, %34], %c1_i16_49 : tensor<9x4xi16>, vector<i16>
      %255 = tensor.empty() : tensor<5x9xi16>
      %mapped_50 = linalg.map ins(%alloc_6 : memref<5x9xi16>) outs(%255 : tensor<5x9xi16>)
        (%in: i16) {
          %257 = arith.floordivsi %false_20, %false : i1
          %258 = index.ceildivu %26, %c12
          %259 = index.mul %81, %c1
          %260 = math.absf %3 : tensor<4x13xf32>
          %261 = math.exp2 %5 : tensor<9x4xf32>
          %262 = vector.insertelement %in, %75[%c14 : index] : vector<1xi16>
          %263 = arith.divsi %true, %false : i1
          %264 = index.mul %c11, %250
          %265 = arith.xori %c56933747_i32, %c991861544_i32 : i32
          %266 = math.atan %cst : f32
          %267 = math.tanh %12 : tensor<4x13xf16>
          %rank_51 = tensor.rank %2 : tensor<4x13xi1>
          %268 = arith.addi %c1133603789_i32, %c56933747_i32 : i32
          %269 = vector.broadcast %cst : f32 to vector<4x13xf32>
          %270 = vector.fma %269, %269, %269 : vector<4x13xf32>
          %271 = index.ceildivu %264, %85
          %inserted_52 = tensor.insert %cst into %3[%c2, %c10] : tensor<4x13xf32>
          %272 = arith.divf %cst, %cst : f32
          %273 = math.round %3 : tensor<4x13xf32>
          %274 = arith.minsi %c1133603789_i32, %c991861544_i32 : i32
          %275 = vector.matrix_multiply %24, %87 {lhs_columns = 1 : i32, lhs_rows = 4 : i32, rhs_columns = 1 : i32} : (vector<4xi16>, vector<1xi16>) -> vector<4xi16>
          %276 = arith.minsi %c56933747_i32, %c1002341114_i32 : i32
          %277 = math.round %11 : tensor<4x13xf32>
          %278 = vector.extract_strided_slice %25 {offsets = [2], sizes = [2], strides = [1]} : vector<4xi16> to vector<2xi16>
          %splat = tensor.splat %true : tensor<5x9xi1>
          %inserted_53 = tensor.insert %cst into %5[%c8, %c3] : tensor<9x4xf32>
          %splat_54 = tensor.splat %false_20 : tensor<5x9xi1>
          %279 = vector.splat %false : vector<9x4xi1>
          %280 = index.maxu %c1, %34
          %281 = affine.apply affine_map<(d0, d1) -> (d1 - 16)>(%259, %c4)
          %282 = arith.addi %c56933747_i32, %c1002341114_i32 : i32
          %true_55 = index.bool.constant true
          %283 = vector.broadcast %in : i16 to vector<5x9xi16>
          %c0_i16 = arith.constant 0 : i16
          linalg.yield %c0_i16 : i16
        }
      %256 = arith.addi %c12536_i16, %c11477_i16 : i16
      scf.yield %alloc_6 : memref<5x9xi16>
    } else {
      %250 = arith.divf %cst_2, %cst_2 : f16
      %251 = math.log2 %5 : tensor<9x4xf32>
      %252 = vector.broadcast %false_20 : i1 to vector<9xi1>
      %dest_49, %accumulated_value_50 = vector.scan <maxsi>, %41, %252 {inclusive = true, reduction_dim = 0 : i64} : vector<5x9xi1>, vector<9xi1>
      %253 = math.atan2 %cst_1, %cst_1 : f16
      %expanded_51 = tensor.expand_shape %2 [[0], [1, 2]] : tensor<4x13xi1> into tensor<4x13x1xi1>
      %254 = arith.minf %cst_1, %cst_1 : f16
      %255 = vector.extract_strided_slice %19 {offsets = [0], sizes = [4], strides = [1]} : vector<4xi16> to vector<4xi16>
      %256 = affine.apply affine_map<(d0) -> (d0 floordiv 2 - 16)>(%33)
      scf.yield %alloc_6 : memref<5x9xi16>
    }
    %98 = arith.addf %cst, %cst : f32
    %99 = arith.addi %c1133603789_i32, %c1133603789_i32 : i32
    %100 = math.sqrt %12 : tensor<4x13xf16>
    %101 = arith.divsi %false_20, %false_20 : i1
    %102 = index.maxu %89, %rank_28
    %103 = vector.splat %cst : vector<5x9xf32>
    %104 = vector.extract_strided_slice %23 {offsets = [0], sizes = [1], strides = [1]} : vector<1xi16> to vector<1xi16>
    memref.alloca_scope  {
      %from_elements_49 = tensor.from_elements %cst_1, %cst_1, %cst_1, %cst_1, %cst_2, %cst_0, %cst_2, %cst_1, %cst_0, %cst_2, %cst_1, %cst_1, %cst_1, %cst_2, %cst_2, %cst_1, %cst_1, %cst_1, %cst_2, %cst_2, %cst_1, %cst_1, %cst_2, %cst_1, %cst_0, %cst_2, %cst_2, %cst_1, %cst_2, %cst_1, %cst_0, %cst_2, %cst_0, %cst_1, %cst_1, %cst_0, %cst_2, %cst_1, %cst_2, %cst_1, %cst_1, %cst_1, %cst_2, %cst_2, %cst_1, %cst_0, %cst_2, %cst_2, %cst_2, %cst_0, %cst_0, %cst_1 : tensor<4x13xf16>
      %250 = arith.addf %cst, %cst : f32
      %expanded_50 = tensor.expand_shape %4 [[0], [1, 2]] : tensor<9x4xi64> into tensor<9x4x1xi64>
      %expanded_51 = tensor.expand_shape %expanded_50 [[0], [1], [2, 3]] : tensor<9x4x1xi64> into tensor<9x4x1x1xi64>
      %251 = math.cttz %c1133603789_i32 : i32
      %252 = math.log1p %cst_1 : f16
      %253 = vector.broadcast %c1002341114_i32 : i32 to vector<5xi32>
      %254 = vector.broadcast %false_20 : i1 to vector<5xi1>
      %255 = vector.maskedload %alloc_3[%c0, %c1], %254, %253 : memref<4x13xi32>, vector<5xi1>, vector<5xi32> into vector<5xi32>
      %256 = math.copysign %12, %12 : tensor<4x13xf16>
      vector.print %25 : vector<4xi16>
      %false_52 = index.bool.constant false
      %257 = math.round %5 : tensor<9x4xf32>
      %258 = index.maxu %34, %85
      %259 = arith.remsi %c12536_i16, %c-983_i16 : i16
      %260 = affine.min affine_map<(d0) -> (d0 mod 64, (d0 floordiv 64) ceildiv 16 - 2, d0 floordiv 64 - d0 ceildiv 128)>(%c10)
      %261 = math.atan2 %cst_0, %cst_2 : f16
      %262 = arith.negf %cst_0 : f16
      %263 = arith.remui %c1133603789_i32, %c318591709_i32 : i32
      %264 = arith.remsi %c991861544_i32, %c1133603789_i32 : i32
      %265 = math.atan2 %cst, %cst : f32
      memref.assume_alignment %alloc_9, 4 : memref<5x9xi1>
      %266 = memref.load %alloc_3[%c1, %c4] : memref<4x13xi32>
      %267 = math.round %cst : f32
      %268 = math.ctpop %17 : tensor<4x13xi1>
      %269 = arith.ceildivsi %c1002341114_i32, %c991861544_i32 : i32
      %270 = vector.broadcast %true : i1 to vector<i1>
      %271 = vector.transfer_write %270, %2[%c3, %51] : vector<i1>, tensor<4x13xi1>
      %generated_53 = tensor.generate %c15 {
      ^bb0(%arg2: index, %arg3: index):
        %278 = index.floordivs %34, %c8
        %279 = vector.matrix_multiply %254, %254 {lhs_columns = 5 : i32, lhs_rows = 1 : i32, rhs_columns = 1 : i32} : (vector<5xi1>, vector<5xi1>) -> vector<1xi1>
        bufferization.dealloc_tensor %1 : tensor<5x9xi1>
        %280 = math.roundeven %12 : tensor<4x13xf16>
        tensor.yield %false_20 : i1
      } : tensor<?x9xi1>
      %272 = math.round %cst_2 : f16
      %273 = memref.alloca_scope  -> (memref<5x9xi32>) {
        %278 = affine.max affine_map<(d0, d1) -> (d1 ceildiv 8 + d1, d1 ceildiv 8 - 32)>(%c14, %c4)
        %279 = index.ceildivu %c7, %85
        %280 = math.ctpop %c-983_i16 : i16
        affine.store %false_20, %alloc_9[%c4, %c7] : memref<5x9xi1>
        %281 = math.absi %10 : tensor<5x9xi64>
        vector.print %25 : vector<4xi16>
        %282 = memref.atomic_rmw ori %c383015234_i64, %alloc_16[%c4, %c1] : (i64, memref<5x9xi64>) -> i64
        %283 = vector.broadcast %c318591709_i32 : i32 to vector<5x9xi32>
        %284 = arith.floordivsi %c-17634_i16, %c-17634_i16 : i16
        %285 = vector.load %97[%c0, %c0] : memref<5x9xi16>, vector<4x13xi16>
        %286 = math.copysign %12, %12 : tensor<4x13xf16>
        %287 = affine.apply affine_map<(d0) -> (d0 floordiv 8 - 1)>(%c7)
        %cst_55 = arith.constant 1.000000e+00 : f16
        %cst_56 = arith.constant 0.000000e+00 : f16
        %288 = vector.transfer_read %from_elements_49[%37, %c11], %cst_56 : tensor<4x13xf16>, vector<f16>
        affine.store %cst, %alloc_4[%c9, %c3] : memref<4x13xf32>
        %289 = arith.addi %extracted, %c921153525_i64 : i64
        %290 = math.exp2 %7 : tensor<5x9xf32>
        %291 = vector.matrix_multiply %53, %25 {lhs_columns = 1 : i32, lhs_rows = 1 : i32, rhs_columns = 4 : i32} : (vector<1xi16>, vector<4xi16>) -> vector<4xi16>
        %292 = vector.matrix_multiply %75, %24 {lhs_columns = 1 : i32, lhs_rows = 1 : i32, rhs_columns = 4 : i32} : (vector<1xi16>, vector<4xi16>) -> vector<4xi16>
        %293 = vector.broadcast %true : i1 to vector<5x5xi1>
        %294 = vector.outerproduct %254, %254, %293 {kind = #vector.kind<add>} : vector<5xi1>, vector<5xi1>
        %295 = arith.remf %cst_55, %cst_2 : f16
        memref.assume_alignment %alloc_15, 4 : memref<9x4xi64>
        %296 = index.floordivs %27, %85
        %297 = vector.load %alloc_5[%c2, %c0] : memref<5x9xi16>, vector<5x9xi16>
        %298 = vector.matrix_multiply %53, %23 {lhs_columns = 1 : i32, lhs_rows = 1 : i32, rhs_columns = 1 : i32} : (vector<1xi16>, vector<1xi16>) -> vector<1xi16>
        %299 = index.castu %c12536_i16 : i16 to index
        %from_elements_57 = tensor.from_elements %false, %true, %false_20, %true, %false_52, %false_20, %false_20, %true, %false_20, %true, %true, %false_52, %false_52, %false_20, %false, %false_52, %false_52, %false_20, %true, %true, %false_20, %false_52, %false_20, %false_52, %false_20, %false_52, %false_52, %false_20, %false_20, %false_20, %false, %false_20, %false_52, %false, %true, %false_52 : tensor<9x4xi1>
        %300 = bufferization.to_tensor %alloc_4 : memref<4x13xf32>
        %alloca_58 = memref.alloca() : memref<5x9xi32>
        %301 = index.floordivs %37, %85
        %302 = arith.addi %c318591709_i32, %c991861544_i32 : i32
        %303 = index.ceildivu %278, %c5
        memref.assume_alignment %alloc_7, 8 : memref<9x4xi1>
        memref.alloca_scope.return %alloc : memref<5x9xi32>
      }
      %274 = tensor.empty() : tensor<4x4xi1>
      %275 = linalg.matmul ins(%17, %18 : tensor<4x13xi1>, tensor<13x4xi1>) outs(%274 : tensor<4x4xi1>) -> tensor<4x4xi1>
      %extracted_54 = tensor.extract %11[%c0, %c1] : tensor<4x13xf32>
      %276 = memref.atomic_rmw minu %c-17634_i16, %alloc_13[%c1, %c8] : (i16, memref<4x13xi16>) -> i16
      %277 = affine.apply affine_map<(d0, d1) -> (d0 ceildiv 2 + d1 * 16)>(%81, %33)
    }
    %105 = math.atan %3 : tensor<4x13xf32>
    %106 = index.divs %c10, %c0
    %107 = arith.mulf %cst_0, %cst_0 : f16
    %rank_29 = tensor.rank %0 : tensor<9x4xi64>
    %108 = arith.subi %c12536_i16, %c-17634_i16 : i16
    %109 = vector.create_mask %34, %26 : vector<5x9xi1>
    %110 = vector.broadcast %extracted : i64 to vector<5xi64>
    %111 = vector.broadcast %true : i1 to vector<5xi1>
    %112 = vector.maskedload %alloc_16[%c4, %c5], %111, %110 : memref<5x9xi64>, vector<5xi1>, vector<5xi64> into vector<5xi64>
    %113 = index.castu %c2 : index to i32
    %114 = arith.shrui %true, %false : i1
    %115 = arith.divsi %c1133603789_i32, %c1133603789_i32 : i32
    %116 = arith.floordivsi %c-17634_i16, %c12536_i16 : i16
    memref.store %c1002341114_i32, %alloc_3[%c0, %c9] : memref<4x13xi32>
    %117 = arith.maxsi %c991861544_i32, %c318591709_i32 : i32
    %118 = tensor.empty() : tensor<4x4xi64>
    %119 = tensor.empty() : tensor<9x4xi64>
    %120 = linalg.matmul ins(%0, %118 : tensor<9x4xi64>, tensor<4x4xi64>) outs(%119 : tensor<9x4xi64>) -> tensor<9x4xi64>
    %cst_30 = arith.constant 1.82794637E+9 : f32
    %121 = index.maxu %c0, %106
    %alloca = memref.alloca() : memref<5x9xi32>
    %122 = memref.alloca_scope  -> (f32) {
      %250 = affine.min affine_map<(d0, d1) -> ((d0 ceildiv 16) floordiv 128, ((d0 ceildiv 16) floordiv 128) mod 16, (d1 + 8) ceildiv 16 - 64, (d1 + 8) ceildiv 16)>(%rank, %c0)
      %251 = arith.shli %c1133603789_i32, %c56933747_i32 : i32
      %252 = arith.remsi %c11477_i16, %c12536_i16 : i16
      %alloca_49 = memref.alloca() : memref<4x13xi32>
      %253 = vector.broadcast %106 : index to vector<4xindex>
      %254 = vector.broadcast %false : i1 to vector<4xi1>
      %255 = vector.broadcast %c1002341114_i32 : i32 to vector<4xi32>
      vector.scatter %alloc_11[%c7, %c3] [%253], %254, %255 : memref<9x4xi32>, vector<4xindex>, vector<4xi1>, vector<4xi32>
      vector.print %104 : vector<1xi16>
      %256 = bufferization.to_tensor %alloc_18 : memref<4xi1>
      %257 = vector.transpose %110, [0] : vector<5xi64> to vector<5xi64>
      %258 = math.tanh %12 : tensor<4x13xf16>
      %259 = arith.ceildivsi %false_20, %false : i1
      %260 = affine.load %91[%c2, %c4] : memref<5x9xi1>
      %261 = arith.remui %c-983_i16, %c11477_i16 : i16
      %extracted_50 = tensor.extract %11[%c3, %c8] : tensor<4x13xf32>
      %262 = arith.maxsi %260, %false : i1
      %263 = vector.broadcast %c11477_i16 : i16 to vector<9xi16>
      %264 = vector.broadcast %false : i1 to vector<9xi1>
      %265 = vector.maskedload %alloc_6[%c3, %c2], %264, %263 : memref<5x9xi16>, vector<9xi1>, vector<9xi16> into vector<9xi16>
      %266 = index.mul %c3, %c12
      %cast = tensor.cast %7 : tensor<5x9xf32> to tensor<?x?xf32>
      %267 = math.log1p %extracted_50 : f32
      %cast_51 = tensor.cast %0 : tensor<9x4xi64> to tensor<?x?xi64>
      %alloc_52 = memref.alloc() : memref<4x13xi64>
      %268 = tensor.empty() : tensor<9x13xi64>
      %269 = linalg.matmul ins(%119, %alloc_52 : tensor<9x4xi64>, memref<4x13xi64>) outs(%268 : tensor<9x13xi64>) -> tensor<9x13xi64>
      scf.execute_region {
        %284 = affine.max affine_map<(d0, d1, d2, d3) -> (((-d3) floordiv 2) mod 8, d3 * -16 - d0 floordiv 8)>(%26, %c2, %c1, %c11)
        %285 = math.floor %7 : tensor<5x9xf32>
        %286 = arith.divsi %c12536_i16, %c11477_i16 : i16
        %287 = math.absi %extracted : i64
        %288 = math.cttz %16 : tensor<4x13xi1>
        %289 = math.round %extracted_50 : f32
        %290 = vector.broadcast %extracted_50 : f32 to vector<5x9xf32>
        %291 = math.absi %transposed : tensor<13x4xi1>
        %292 = arith.shli %false, %false : i1
        %293 = arith.ori %false_20, %false_20 : i1
        %294 = vector.broadcast %c12536_i16 : i16 to vector<4x13xi16>
        %295 = arith.addi %260, %false_20 : i1
        %296 = vector.load %alloc_19[%c3] : memref<4xi1>, vector<9x4xi1>
        %cst_54 = arith.constant 1.000000e+00 : f32
        %297 = vector.transfer_read %5[%c2, %284], %cst_54 : tensor<9x4xf32>, vector<f32>
        %expanded_55 = tensor.expand_shape %expanded_21 [[0], [1], [2, 3]] : tensor<5x9x1xi64> into tensor<5x9x1x1xi64>
        %298 = math.roundeven %3 : tensor<4x13xf32>
        scf.yield
      }
      %270 = arith.shli %c-983_i16, %c-983_i16 : i16
      %271 = math.absf %cst_1 : f16
      %272 = tensor.empty() : tensor<4x9xi64>
      %273 = tensor.empty() : tensor<9x9xi64>
      %274 = linalg.matmul ins(%0, %272 : tensor<9x4xi64>, tensor<4x9xi64>) outs(%273 : tensor<9x9xi64>) -> tensor<9x9xi64>
      %275 = math.round %7 : tensor<5x9xf32>
      %276 = tensor.empty() : tensor<9x13xi1>
      %277 = linalg.matmul ins(%13, %2 : tensor<9x4xi1>, tensor<4x13xi1>) outs(%276 : tensor<9x13xi1>) -> tensor<9x13xi1>
      %cast_53 = tensor.cast %7 : tensor<5x9xf32> to tensor<?x?xf32>
      %278 = arith.shli %c991861544_i32, %c56933747_i32 : i32
      %279 = arith.muli %c383015234_i64, %c921153525_i64 : i64
      %280 = arith.shli %true, %false : i1
      %281 = vector.broadcast %c318591709_i32 : i32 to vector<9xi32>
      %282 = vector.maskedload %alloc[%c2, %c1], %264, %281 : memref<5x9xi32>, vector<9xi1>, vector<9xi32> into vector<9xi32>
      %283 = arith.muli %c12536_i16, %c11477_i16 : i16
      memref.alloca_scope.return %cst : f32
    }
    %123 = arith.remui %c-983_i16, %c-983_i16 : i16
    affine.store %c1002341114_i32, %alloc_12[%c8, %c14] : memref<4x13xi32>
    %124 = arith.addi %c921153525_i64, %extracted : i64
    %125 = index.mul %rank, %c11
    %126 = arith.addi %c-983_i16, %c11477_i16 : i16
    %127 = math.floor %cst_2 : f16
    %c0_i32 = arith.constant 0 : i32
    %c0_i32_31 = arith.constant 0 : i32
    %128 = vector.transfer_read %74[%70, %c13], %c0_i32_31 : memref<9x4xi32>, vector<i32>
    %129 = vector.insertelement %c-17634_i16, %19[%c0 : index] : vector<4xi16>
    %130 = tensor.empty() : tensor<5x4xi1>
    %131 = linalg.matmul ins(%9, %13 : tensor<5x9xi1>, tensor<9x4xi1>) outs(%130 : tensor<5x4xi1>) -> tensor<5x4xi1>
    %132 = math.floor %79 : tensor<5x4xf32>
    %133 = scf.while (%arg2 = %24) : (vector<4xi16>) -> vector<4xi16> {
      %250 = vector.broadcast %122 : f32 to vector<5x9xf32>
      %251 = vector.fma %250, %61, %62 : vector<5x9xf32>
      %252 = bufferization.to_tensor %74 : memref<9x4xi32>
      %expanded_49 = tensor.expand_shape %8 [[0], [1, 2]] : tensor<5x9xi64> into tensor<5x9x1xi64>
      %expanded_50 = tensor.expand_shape %9 [[0], [1, 2]] : tensor<5x9xi1> into tensor<5x9x1xi1>
      %253 = index.sub %c7, %c2
      %254 = arith.remui %c1002341114_i32, %c0_i32 : i32
      %255 = math.cttz %expanded : tensor<9x4x1xi64>
      %256 = arith.mulf %cst, %cst : f32
      scf.condition(%false) %19 : vector<4xi16>
    } do {
    ^bb0(%arg2: vector<4xi16>):
      %250 = arith.ceildivsi %c-983_i16, %c-983_i16 : i16
      %251 = tensor.empty() : tensor<9x4xi1>
      %mapped_49 = linalg.map ins(%13 : tensor<9x4xi1>) outs(%251 : tensor<9x4xi1>)
        (%in: i1) {
          %266 = index.maxu %c4, %27
          %267 = math.round %3 : tensor<4x13xf32>
          %268 = vector.broadcast %cst : f32 to vector<4x13xf32>
          %269 = vector.fma %268, %268, %268 : vector<4x13xf32>
          %270 = bufferization.clone %alloc_15 : memref<9x4xi64> to memref<9x4xi64>
          %271 = arith.remsi %c56933747_i32, %c318591709_i32 : i32
          %cast = tensor.cast %0 : tensor<9x4xi64> to tensor<?x?xi64>
          %272 = arith.maxsi %false_20, %false_20 : i1
          %273 = arith.shrsi %c0_i32, %c56933747_i32 : i32
          %274 = arith.minsi %c991861544_i32, %c1002341114_i32 : i32
          %275 = math.log10 %7 : tensor<5x9xf32>
          %276 = vector.broadcast %cst : f32 to vector<5x9xf32>
          %277 = vector.fma %276, %62, %276 : vector<5x9xf32>
          %278 = arith.addf %cst_1, %cst_0 : f16
          %279 = vector.transpose %276, [1, 0] : vector<5x9xf32> to vector<9x5xf32>
          memref.tensor_store %0, %alloc_15 : memref<9x4xi64>
          %280 = index.castu %27 : index to i32
          %281 = vector.broadcast %c-983_i16 : i16 to vector<5xi16>
          %282 = vector.maskedload %alloc_6[%c1, %c1], %111, %281 : memref<5x9xi16>, vector<5xi1>, vector<5xi16> into vector<5xi16>
          %283 = vector.transpose %276, [0, 1] : vector<5x9xf32> to vector<5x9xf32>
          %284 = math.cttz %0 : tensor<9x4xi64>
          %285 = index.castu %c9 : index to i32
          %286 = vector.broadcast %c-983_i16 : i16 to vector<13xi16>
          %287 = vector.broadcast %false_20 : i1 to vector<13xi1>
          %288 = vector.maskedload %alloc_14[%c2, %c4], %287, %286 : memref<5x9xi16>, vector<13xi1>, vector<13xi16> into vector<13xi16>
          %289 = vector.contract {indexing_maps = [affine_map<(d0) -> (d0)>, affine_map<(d0) -> (d0)>, affine_map<(d0) -> ()>], iterator_types = ["reduction"], kind = #vector.kind<minsi>} %281, %282, %c-17634_i16 : vector<5xi16>, vector<5xi16> into i16
          %290 = arith.minf %122, %122 : f32
          %291 = math.atan %cst_2 : f16
          %292 = math.absf %cst_0 : f16
          %293 = vector.extract_strided_slice %288 {offsets = [4], sizes = [6], strides = [1]} : vector<13xi16> to vector<6xi16>
          %294 = arith.floordivsi %c991861544_i32, %c991861544_i32 : i32
          %from_elements_51 = tensor.from_elements %c-983_i16, %c-17634_i16, %c12536_i16, %c-983_i16, %c-983_i16, %c11477_i16, %c12536_i16, %c12536_i16, %c-983_i16, %c11477_i16, %c12536_i16, %c-17634_i16, %c-983_i16, %c-983_i16, %c-17634_i16, %c-17634_i16, %c-983_i16, %c-17634_i16, %c-983_i16, %c12536_i16, %c-17634_i16, %c12536_i16, %c11477_i16, %c11477_i16, %c11477_i16, %c-17634_i16, %c-983_i16, %c11477_i16, %c-17634_i16, %c-17634_i16, %c-17634_i16, %c11477_i16, %c-983_i16, %c12536_i16, %c-983_i16, %c-983_i16, %c-17634_i16, %c11477_i16, %c-983_i16, %c12536_i16, %c-983_i16, %c11477_i16, %c-983_i16, %c11477_i16, %c-983_i16 : tensor<5x9xi16>
          %295 = arith.maxui %c1002341114_i32, %c56933747_i32 : i32
          %296 = affine.min affine_map<(d0, d1, d2) -> ((d2 ceildiv 128) mod 8, (d2 ceildiv 128) mod 8, d1 floordiv 2 + 2, d2 mod 8)>(%c15, %c14, %c4)
          %297 = affine.min affine_map<(d0, d1) -> (-(d1 ceildiv 32 - d1), d1 ceildiv 32)>(%26, %51)
          %298 = arith.minsi %c12536_i16, %c12536_i16 : i16
          %299 = arith.floordivsi %c11477_i16, %c-17634_i16 : i16
          %true_52 = arith.constant true
          linalg.yield %true_52 : i1
        }
      %252 = vector.broadcast %c-983_i16 : i16 to vector<9xi16>
      %253 = vector.broadcast %false_20 : i1 to vector<9xi1>
      %254 = vector.maskedload %alloc_14[%c0, %c8], %253, %252 : memref<5x9xi16>, vector<9xi1>, vector<9xi16> into vector<9xi16>
      %255 = vector.extract_strided_slice %49 {offsets = [1], sizes = [1], strides = [1]} : vector<3x9xi1> to vector<1x9xi1>
      %256 = index.divu %34, %102
      %generated_50 = tensor.generate %c15 {
      ^bb0(%arg3: index, %arg4: index):
        %inserted_51 = tensor.insert %c-983_i16 into %44[%c0, %c1] : tensor<5x9xi16>
        %266 = arith.floordivsi %c318591709_i32, %c318591709_i32 : i32
        %267 = math.tanh %11 : tensor<4x13xf32>
        %268 = vector.broadcast %false_20 : i1 to vector<1xi1>
        %dest_52, %accumulated_value_53 = vector.scan <xor>, %255, %268 {inclusive = true, reduction_dim = 1 : i64} : vector<1x9xi1>, vector<1xi1>
        tensor.yield %c1002341114_i32 : i32
      } : tensor<?x9xi32>
      %257 = arith.xori %c-983_i16, %c-17634_i16 : i16
      %258 = memref.realloc %alloc_19 : memref<4xi1> to memref<5xi1>
      %259 = index.ceildivs %37, %rank
      %260 = vector.broadcast %c12 : index to vector<5xindex>
      %261 = vector.broadcast %c11477_i16 : i16 to vector<5xi16>
      vector.scatter %alloc_5[%c3, %c2] [%260], %111, %261 : memref<5x9xi16>, vector<5xindex>, vector<5xi1>, vector<5xi16>
      %262 = memref.load %alloc_18[%c0] : memref<4xi1>
      memref.store %false, %91[%c0, %c2] : memref<5x9xi1>
      %263 = vector.load %alloc_9[%c1, %c0] : memref<5x9xi1>, vector<5x9xi1>
      scf.if %false {
        %266 = memref.realloc %alloc_18 : memref<4xi1> to memref<13xi1>
        %267 = math.sqrt %cst : f32
        %268 = arith.minf %122, %cst : f32
        %269 = arith.divui %c56933747_i32, %c0_i32 : i32
        %270 = index.castu %51 : index to i32
        %271 = math.exp2 %cst : f32
        %272 = arith.maxsi %c921153525_i64, %c383015234_i64 : i64
        %273 = vector.broadcast %cst : f32 to vector<5xf32>
        %dest_51, %accumulated_value_52 = vector.scan <maxf>, %62, %273 {inclusive = true, reduction_dim = 1 : i64} : vector<5x9xf32>, vector<5xf32>
      } else {
        %266 = math.ctpop %transposed : tensor<13x4xi1>
        %267 = index.sub %26, %85
        %alloca_51 = memref.alloca() : memref<9x4xi64>
        %268 = arith.shrui %c921153525_i64, %c383015234_i64 : i64
        %269 = arith.mulf %cst_0, %cst_2 : f16
        %270 = vector.insert %c-17634_i16, %254 [3] : i16 into vector<9xi16>
        %271 = index.floordivs %106, %rank
        %272 = vector.broadcast %cst : f32 to vector<f32>
        %273 = vector.transfer_write %272, %11[%c15, %27] : vector<f32>, tensor<4x13xf32>
      }
      %264 = vector.insertelement %false_20, %111[%106 : index] : vector<5xi1>
      %265 = arith.minf %cst_2, %cst_0 : f16
      scf.yield %19 : vector<4xi16>
    }
    %134 = math.absf %11 : tensor<4x13xf32>
    %135 = vector.load %alloc_9[%c1, %c5] : memref<5x9xi1>, vector<4x13xi1>
    %136 = arith.maxui %c1133603789_i32, %c318591709_i32 : i32
    %137 = arith.addi %false_20, %false_20 : i1
    %138 = vector.load %alloc_3[%c1, %c6] : memref<4x13xi32>, vector<5x9xi32>
    %rank_32 = tensor.rank %79 : tensor<5x4xf32>
    %cst_33 = arith.constant 1.000000e+00 : f32
    %cst_34 = arith.constant 0.000000e+00 : f32
    %139 = vector.transfer_read %79[%c6, %c4], %cst_34 {permutation_map = affine_map<(d0, d1) -> (0)>} : tensor<5x4xf32>, vector<5xf32>
    %140 = arith.mulf %cst_33, %cst : f32
    %141 = index.sub %rank, %rank
    memref.alloca_scope  {
      %250 = math.absf %cst : f32
      %251 = math.floor %cst : f32
      %true_49 = index.bool.constant true
      %252 = arith.xori %false, %true_49 : i1
      %253 = index.mul %141, %89
      %254 = vector.load %alloc[%c1, %c8] : memref<5x9xi32>, vector<9x4xi32>
      %255 = math.exp2 %5 : tensor<9x4xf32>
      %256 = math.exp %cst_33 : f32
      %257 = arith.remui %c-983_i16, %c11477_i16 : i16
      %258 = arith.ceildivsi %false, %true : i1
      %259 = math.log2 %12 : tensor<4x13xf16>
      %260 = affine.if affine_set<(d0, d1) : ((d1 mod 4) mod 16 >= 0, d1 floordiv 2 - d0 == 0)>(%c0, %c14) -> i64 {
        %280 = arith.mulf %cst_33, %cst_33 : f32
        %281 = vector.load %alloc_12[%c1, %c10] : memref<4x13xi32>, vector<5x9xi32>
        %true_51 = index.bool.constant true
        %282 = arith.addf %cst_33, %cst : f32
        %283 = math.rsqrt %12 : tensor<4x13xf16>
        %284 = arith.cmpi sle, %c11477_i16, %c-17634_i16 : i16
        %285 = affine.load %alloc_5[%c10, %c5] : memref<5x9xi16>
        %286 = arith.ceildivsi %extracted, %extracted : i64
        affine.yield %extracted : i64
      } else {
        %280 = vector.matrix_multiply %75, %19 {lhs_columns = 1 : i32, lhs_rows = 1 : i32, rhs_columns = 4 : i32} : (vector<1xi16>, vector<4xi16>) -> vector<4xi16>
        %281 = arith.divf %cst_1, %cst_0 : f16
        %282 = index.mul %37, %c12
        %283 = index.maxu %c13, %34
        %alloca_51 = memref.alloca() : memref<5x9xi32>
        %284 = bufferization.clone %alloc_18 : memref<4xi1> to memref<4xi1>
        %285 = memref.load %alloc_12[%c3, %c11] : memref<4x13xi32>
        %286 = math.round %11 : tensor<4x13xf32>
        affine.yield %c921153525_i64 : i64
      }
      %261 = bufferization.clone %alloc_19 : memref<4xi1> to memref<4xi1>
      %262 = index.add %51, %c5
      %263 = arith.addi %c0_i32, %c56933747_i32 : i32
      %264 = arith.ori %c991861544_i32, %c1002341114_i32 : i32
      %265 = math.log1p %5 : tensor<9x4xf32>
      %cst_50 = arith.constant 1.000000e+00 : f32
      %266 = vector.transfer_read %7[%c14, %262], %cst_50 : tensor<5x9xf32>, vector<f32>
      vector.print %54 : vector<9x4xi32>
      %267 = math.tanh %12 : tensor<4x13xf16>
      %268 = vector.multi_reduction <minsi>, %110, %c383015234_i64 [0] : vector<5xi64> to i64
      %269 = vector.broadcast %true_49 : i1 to vector<5x9xi1>
      %270 = affine.min affine_map<(d0, d1, d2) -> ((-d1) ceildiv 8, d0 ceildiv 16, d2 * 16)>(%c5, %89, %c1)
      %271 = memref.realloc %alloc_18 : memref<4xi1> to memref<5xi1>
      %272 = arith.divf %cst_33, %cst_50 : f32
      %273 = vector.broadcast %c11477_i16 : i16 to vector<i16>
      %274 = vector.transfer_write %273, %15[%253, %c2] : vector<i16>, tensor<9x4xi16>
      %275 = bufferization.clone %alloc_10 : memref<4x13xi1> to memref<4x13xi1>
      affine.store %c1002341114_i32, %alloc[%c12, %c0] : memref<5x9xi32>
      %276 = arith.addi %c0_i32, %c56933747_i32 : i32
      %277 = arith.shli %true, %false_20 : i1
      %278 = vector.matrix_multiply %75, %53 {lhs_columns = 1 : i32, lhs_rows = 1 : i32, rhs_columns = 1 : i32} : (vector<1xi16>, vector<1xi16>) -> vector<1xi16>
      %279 = arith.floordivsi %c1133603789_i32, %c1133603789_i32 : i32
    }
    %142 = vector.bitcast %24 : vector<4xi16> to vector<4xi16>
    %143 = vector.load %alloc_9[%c2, %c8] : memref<5x9xi1>, vector<5x9xi1>
    %144 = vector.transpose %19, [0] : vector<4xi16> to vector<4xi16>
    %145 = scf.execute_region -> tensor<5x9xf32> {
      %250 = arith.remf %cst_1, %cst_1 : f16
      memref.copy %alloc_14, %97 : memref<5x9xi16> to memref<5x9xi16>
      %inserted_49 = tensor.insert %c-983_i16 into %15[%c8, %c1] : tensor<9x4xi16>
      %251 = vector.matrix_multiply %87, %87 {lhs_columns = 1 : i32, lhs_rows = 1 : i32, rhs_columns = 1 : i32} : (vector<1xi16>, vector<1xi16>) -> vector<1xi16>
      affine.store %c11477_i16, %alloc_14[%c7, %c8] : memref<5x9xi16>
      %252 = math.ctlz %10 : tensor<5x9xi64>
      %253 = arith.shli %c1133603789_i32, %c1002341114_i32 : i32
      %254 = index.divs %33, %c3
      %255 = affine.load %alloc_11[%c10, %c10] : memref<9x4xi32>
      bufferization.dealloc_tensor %3 : tensor<4x13xf32>
      %256 = affine.load %91[%c0, %c7] : memref<5x9xi1>
      %257 = math.floor %122 : f32
      %258 = arith.remf %cst_1, %cst_1 : f16
      %259 = vector.load %alloc_17[%c3, %c5] : memref<4x13xf16>, vector<9x4xf16>
      %260 = arith.divf %122, %122 : f32
      %261 = vector.broadcast %c-17634_i16 : i16 to vector<4x4xi16>
      %262 = vector.outerproduct %142, %24, %261 {kind = #vector.kind<minui>} : vector<4xi16>, vector<4xi16>
      scf.yield %7 : tensor<5x9xf32>
    }
    %146 = math.round %145 : tensor<5x9xf32>
    %147 = math.tanh %12 : tensor<4x13xf16>
    %148 = math.absi %130 : tensor<5x4xi1>
    %false_35 = arith.constant false
    %false_36 = arith.constant false
    %149 = vector.transfer_read %16[%c12, %c4], %false_36 {permutation_map = affine_map<(d0, d1) -> (d0)>} : tensor<4x13xi1>, vector<4xi1>
    %150 = arith.addi %false, %false_20 : i1
    memref.copy %74, %alloc_11 : memref<9x4xi32> to memref<9x4xi32>
    %151 = arith.ceildivsi %c991861544_i32, %c318591709_i32 : i32
    %152 = arith.addi %c921153525_i64, %extracted : i64
    %153 = arith.muli %true, %false_35 : i1
    memref.alloca_scope  {
      %250 = index.maxu %89, %51
      %251 = arith.addi %c383015234_i64, %c921153525_i64 : i64
      %252 = index.maxu %c13, %c6
      vector.print %138 : vector<5x9xi32>
      %253 = affine.max affine_map<(d0, d1, d2) -> (-(d1 ceildiv 128 - 1), d0 + d1, d0 floordiv 8, (d1 ceildiv 128) mod 4 - d1 floordiv 32)>(%121, %27, %51)
      %from_elements_49 = tensor.from_elements %c1133603789_i32, %c318591709_i32, %c1002341114_i32, %c56933747_i32, %c1002341114_i32, %c318591709_i32, %c318591709_i32, %c1002341114_i32, %c0_i32, %c991861544_i32, %c991861544_i32, %c991861544_i32, %c1002341114_i32, %c318591709_i32, %c991861544_i32, %c318591709_i32, %c0_i32, %c318591709_i32, %c56933747_i32, %c56933747_i32, %c0_i32, %c0_i32, %c318591709_i32, %c1002341114_i32, %c991861544_i32, %c1133603789_i32, %c318591709_i32, %c1133603789_i32, %c0_i32, %c991861544_i32, %c991861544_i32, %c56933747_i32, %c991861544_i32, %c1002341114_i32, %c0_i32, %c0_i32, %c1133603789_i32, %c1002341114_i32, %c1002341114_i32, %c318591709_i32, %c0_i32, %c1002341114_i32, %c0_i32, %c991861544_i32, %c56933747_i32, %c1002341114_i32, %c0_i32, %c1002341114_i32, %c1133603789_i32, %c1133603789_i32, %c991861544_i32, %c56933747_i32 : tensor<4x13xi32>
      %c822853106_i32 = arith.constant 822853106 : i32
      %254 = vector.broadcast %c11477_i16 : i16 to vector<4xi16>
      %255 = vector.transfer_write %254, %44[%rank_32, %c0] {permutation_map = affine_map<(d0, d1) -> (d0)>} : vector<4xi16>, tensor<5x9xi16>
      %256 = bufferization.to_tensor %alloc_9 : memref<5x9xi1>
      %c1_i16_50 = arith.constant 1 : i16
      %c0_i16 = arith.constant 0 : i16
      %257 = vector.transfer_read %alloc_5[%26, %c11], %c0_i16 : memref<5x9xi16>, vector<i16>
      %258 = math.ctlz %expanded : tensor<9x4x1xi64>
      %259 = index.ceildivu %c14, %252
      %alloca_51 = memref.alloca() : memref<5x9xi32>
      %260 = vector.insert %c383015234_i64, %112 [4] : i64 into vector<5xi64>
      %261 = tensor.empty() : tensor<4x13xi1>
      %mapped_52 = linalg.map ins(%alloc_10 : memref<4x13xi1>) outs(%261 : tensor<4x13xi1>)
        (%in: i1) {
          %alloca_53 = memref.alloca() : memref<4x13xi64>
          %inserted_54 = tensor.insert %extracted into %expanded_21[%c3, %c6, %c0] : tensor<5x9x1xi64>
          %279 = vector.insertelement %c-983_i16, %142[%c15 : index] : vector<4xi16>
          %280 = memref.load %alloc_15[%c4, %c1] : memref<9x4xi64>
          vector.print %62 : vector<5x9xf32>
          %281 = vector.insertelement %c1_i16_50, %254[%102 : index] : vector<4xi16>
          %282 = arith.ori %in, %false : i1
          %283 = bufferization.clone %alloc : memref<5x9xi32> to memref<5x9xi32>
          %inserted_55 = tensor.insert %false_20 into %1[%c0, %c6] : tensor<5x9xi1>
          %284 = bufferization.to_tensor %alloc_15 : memref<9x4xi64>
          %285 = arith.remf %cst_33, %cst : f32
          %286 = affine.min affine_map<(d0) -> (d0 ceildiv 2 - 2)>(%89)
          %287 = arith.xori %false, %false : i1
          %288 = memref.realloc %alloc_18 : memref<4xi1> to memref<9xi1>
          %289 = index.mul %c6, %rank_28
          %290 = math.roundeven %11 : tensor<4x13xf32>
          %291 = arith.shrui %c56933747_i32, %c0_i32 : i32
          affine.store %false_35, %alloc_7[%c12, %c8] : memref<9x4xi1>
          %alloca_56 = memref.alloca() : memref<9x4xf16>
          %292 = math.ctlz %0 : tensor<9x4xi64>
          %293 = memref.load %alloc_13[%c0, %c5] : memref<4x13xi16>
          %294 = index.sub %c12, %289
          %295 = math.log2 %7 : tensor<5x9xf32>
          %296 = vector.load %97[%c1, %c7] : memref<5x9xi16>, vector<5x9xi16>
          %297 = arith.shli %false_20, %false : i1
          %298 = affine.apply affine_map<(d0, d1) -> (d0 ceildiv 2 + d1 * 16)>(%c7, %252)
          %expanded_57 = tensor.expand_shape %44 [[0], [1, 2]] : tensor<5x9xi16> into tensor<5x9x1xi16>
          %299 = arith.shrsi %c-983_i16, %c12536_i16 : i16
          %300 = arith.floordivsi %c991861544_i32, %c991861544_i32 : i32
          %301 = vector.broadcast %c11477_i16 : i16 to vector<5xi16>
          %302 = vector.maskedload %97[%c3, %c0], %111, %301 : memref<5x9xi16>, vector<5xi1>, vector<5xi16> into vector<5xi16>
          %303 = index.mul %c9, %c15
          %304 = vector.extract_strided_slice %19 {offsets = [0], sizes = [3], strides = [1]} : vector<4xi16> to vector<3xi16>
          %false_58 = arith.constant false
          linalg.yield %false_58 : i1
        }
      %262 = vector.matrix_multiply %87, %24 {lhs_columns = 1 : i32, lhs_rows = 1 : i32, rhs_columns = 4 : i32} : (vector<1xi16>, vector<4xi16>) -> vector<4xi16>
      %263 = vector.broadcast %false_20 : i1 to vector<13xi1>
      %264 = vector.maskedload %alloc_19[%c3], %263, %263 : memref<4xi1>, vector<13xi1>, vector<13xi1> into vector<13xi1>
      %265 = affine.max affine_map<(d0, d1) -> (-(d1 - 1) - 8, (-(d1 - 1) - 8) ceildiv 8)>(%c14, %93)
      %266 = arith.mulf %cst_33, %cst_33 : f32
      %267 = affine.max affine_map<(d0, d1, d2) -> (d1, (d0 floordiv 16 - 1) * 16, 0)>(%33, %c8, %85)
      %268 = affine.load %alloc_3[%c10, %c11] : memref<4x13xi32>
      %269 = arith.remui %c1_i16_50, %c-17634_i16 : i16
      %270 = math.log1p %5 : tensor<9x4xf32>
      %271 = vector.insert %c12536_i16, %25 [0] : i16 into vector<4xi16>
      %272 = arith.remui %c-983_i16, %c-17634_i16 : i16
      %273 = memref.alloca_scope  -> (f32) {
        %279 = memref.load %alloc_11[%c2, %c2] : memref<9x4xi32>
        memref.store %c383015234_i64, %alloc_15[%c3, %c0] : memref<9x4xi64>
        %280 = arith.xori %true, %false_35 : i1
        %281 = memref.atomic_rmw ori %c-17634_i16, %alloc_5[%c3, %c2] : (i16, memref<5x9xi16>) -> i16
        memref.assume_alignment %alloc_19, 1 : memref<4xi1>
        %282 = affine.max affine_map<(d0, d1, d2, d3) -> ((d3 - (d3 + d3 + 2)) mod 2, d3 - (d3 + d3 + 2) + 4, (d3 + d3 + 2) * 2)>(%37, %37, %c4, %250)
        %283 = arith.maxui %c318591709_i32, %c318591709_i32 : i32
        %284 = arith.minsi %c11477_i16, %c-17634_i16 : i16
        %285 = memref.load %alloc_5[%c1, %c4] : memref<5x9xi16>
        %286 = arith.mulf %cst_2, %cst_2 : f16
        %287 = math.exp2 %3 : tensor<4x13xf32>
        %288 = math.ctpop %14 : tensor<5x9xi32>
        %289 = arith.shrui %c1002341114_i32, %268 : i32
        %290 = index.mul %51, %rank_29
        %291 = arith.shli %c318591709_i32, %c1002341114_i32 : i32
        %inserted_53 = tensor.insert %extracted into %4[%c6, %c2] : tensor<9x4xi64>
        %292 = arith.shrsi %c12536_i16, %c-17634_i16 : i16
        %293 = index.divu %282, %c0
        %rank_54 = tensor.rank %7 : tensor<5x9xf32>
        %294 = math.ctpop %261 : tensor<4x13xi1>
        %295 = vector.load %alloc_14[%c3, %c1] : memref<5x9xi16>, vector<5x9xi16>
        %296 = index.maxu %93, %c10
        %297 = bufferization.clone %alloc_12 : memref<4x13xi32> to memref<4x13xi32>
        %298 = arith.subi %c991861544_i32, %c56933747_i32 : i32
        affine.store %c1002341114_i32, %74[%c6, %c13] : memref<9x4xi32>
        %299 = memref.load %297[%c0, %c2] : memref<4x13xi32>
        %cst_55 = arith.constant 1.000000e+00 : f32
        %300 = vector.transfer_read %3[%c9, %c11], %cst_55 : tensor<4x13xf32>, vector<13xf32>
        %301 = vector.insert %c1_i16_50, %142 [2] : i16 into vector<4xi16>
        %302 = vector.transpose %263, [0] : vector<13xi1> to vector<13xi1>
        %303 = vector.extract_strided_slice %142 {offsets = [1], sizes = [3], strides = [1]} : vector<4xi16> to vector<3xi16>
        %304 = arith.shrui %c1133603789_i32, %c318591709_i32 : i32
        %alloca_56 = memref.alloca() : memref<9x4xi16>
        memref.alloca_scope.return %cst_55 : f32
      }
      %274 = arith.floordivsi %c318591709_i32, %c318591709_i32 : i32
      %275 = math.tanh %122 : f32
      %276 = affine.max affine_map<(d0) -> (d0, 0)>(%c5)
      %277 = arith.negf %cst_0 : f16
      %278 = tensor.empty() : tensor<5x9xi64>
      memref.tensor_store %12, %alloc_17 : memref<4x13xf16>
    }
    %154 = math.cttz %1 : tensor<5x9xi1>
    %155 = math.copysign %7, %145 : tensor<5x9xf32>
    %156 = arith.shrui %c11477_i16, %c-983_i16 : i16
    %157 = math.atan %7 : tensor<5x9xf32>
    %alloc_37 = memref.alloc() : memref<4x13xi1>
    memref.copy %alloc_10, %alloc_37 : memref<4x13xi1> to memref<4x13xi1>
    memref.store %c12536_i16, %alloc_13[%c3, %c5] : memref<4x13xi16>
    %158 = arith.floordivsi %false_35, %false_20 : i1
    %159 = math.copysign %12, %12 : tensor<4x13xf16>
    %160 = math.roundeven %cst_2 : f16
    affine.store %c11477_i16, %alloc_6[%c12, %c6] : memref<5x9xi16>
    %161 = arith.remui %c921153525_i64, %c921153525_i64 : i64
    %162 = index.add %50, %c6
    %163 = index.divu %c7, %c13
    affine.for %arg2 = 0 to 74 {
    }
    %164 = index.casts %c-983_i16 : i16 to index
    scf.index_switch %85 
    case 1 {
      %250 = arith.minf %cst_33, %cst : f32
      %expanded_49 = tensor.expand_shape %9 [[0], [1, 2]] : tensor<5x9xi1> into tensor<5x9x1xi1>
      %251 = bufferization.clone %alloc_5 : memref<5x9xi16> to memref<5x9xi16>
      %false_50 = index.bool.constant false
      %252 = index.mul %26, %c0
      %253 = math.log2 %cst_33 : f32
      %254 = index.add %c14, %c7
      %255 = index.maxs %163, %c6
      %256 = scf.if %false -> (memref<5x9xf32>) {
        %266 = arith.mulf %cst, %cst_33 : f32
        %267 = index.divs %51, %c1
        %268 = arith.addf %cst_0, %cst_0 : f16
        %269 = vector.matrix_multiply %75, %104 {lhs_columns = 1 : i32, lhs_rows = 1 : i32, rhs_columns = 1 : i32} : (vector<1xi16>, vector<1xi16>) -> vector<1xi16>
        %270 = arith.negf %122 : f32
        %271 = vector.broadcast %c-17634_i16 : i16 to vector<1x1xi16>
        %272 = vector.outerproduct %53, %87, %271 {kind = #vector.kind<minsi>} : vector<1xi16>, vector<1xi16>
        %273 = math.absf %12 : tensor<4x13xf16>
        %274 = arith.negf %cst_1 : f16
        %alloc_52 = memref.alloc() : memref<5x9xf32>
        scf.yield %alloc_52 : memref<5x9xf32>
      } else {
        %266 = vector.transpose %111, [0] : vector<5xi1> to vector<5xi1>
        memref.assume_alignment %alloc_19, 1 : memref<4xi1>
        %267 = index.divu %33, %121
        %268 = arith.minsi %c1133603789_i32, %c56933747_i32 : i32
        %269 = arith.shli %false_50, %false_20 : i1
        %270 = math.floor %cst_33 : f32
        %271 = arith.floordivsi %false_50, %false_35 : i1
        %alloca_52 = memref.alloca() : memref<5x9xi64>
        %alloc_53 = memref.alloc() : memref<5x9xf32>
        scf.yield %alloc_53 : memref<5x9xf32>
      }
      %257 = arith.shrsi %false, %false_35 : i1
      %258 = vector.broadcast %c921153525_i64 : i64 to vector<13xi64>
      %259 = vector.broadcast %false : i1 to vector<13xi1>
      %260 = vector.maskedload %alloc_15[%c1, %c3], %259, %258 : memref<9x4xi64>, vector<13xi1>, vector<13xi64> into vector<13xi64>
      %261 = index.maxu %125, %37
      %false_51 = index.bool.constant false
      %262 = index.add %27, %rank_28
      %263 = arith.divui %c-983_i16, %c-983_i16 : i16
      %264 = tensor.empty() : tensor<5x13xf32>
      %265 = linalg.matmul ins(%79, %3 : tensor<5x4xf32>, tensor<4x13xf32>) outs(%264 : tensor<5x13xf32>) -> tensor<5x13xf32>
      scf.yield
    }
    case 2 {
      %250 = memref.realloc %alloc_19 : memref<4xi1> to memref<13xi1>
      %251 = affine.min affine_map<(d0) -> (d0 * 2, (-d0 + 1) * -2, (-d0 - 63) * 32)>(%85)
      %c0_i64 = arith.constant 0 : i64
      %252 = vector.transfer_read %8[%85, %c0], %c0_i64 : tensor<5x9xi64>, vector<4xi64>
      affine.store %true, %alloc_18[%c13] : memref<4xi1>
      %splat = tensor.splat %c383015234_i64 : tensor<5x9xi64>
      %253 = vector.matrix_multiply %110, %110 {lhs_columns = 5 : i32, lhs_rows = 1 : i32, rhs_columns = 1 : i32} : (vector<5xi64>, vector<5xi64>) -> vector<1xi64>
      %254 = affine.min affine_map<(d0, d1, d2) -> (((d1 floordiv 2) floordiv 16) mod 16, (d0 + d2 ceildiv 64) floordiv 8, d0)>(%c12, %106, %163)
      %255 = index.divu %81, %26
      %256 = arith.ori %extracted, %c921153525_i64 : i64
      %257 = index.mul %c12, %51
      %258 = affine.max affine_map<(d0, d1) -> ((d1 - 32) ceildiv 4, -(d1 - 32))>(%c6, %141)
      %c0_i64_49 = arith.constant 0 : i64
      %259 = vector.transfer_read %10[%c15, %c1], %c0_i64_49 : tensor<5x9xi64>, vector<i64>
      %260 = bufferization.clone %alloc_10 : memref<4x13xi1> to memref<4x13xi1>
      %261 = index.castu %c10 : index to i32
      %262 = vector.broadcast %cst : f32 to vector<5x9xf32>
      %263 = vector.fma %262, %262, %262 : vector<5x9xf32>
      %264 = scf.if %false -> (memref<9x4xi64>) {
        bufferization.dealloc_tensor %expanded : tensor<9x4x1xi64>
        %265 = math.cttz %10 : tensor<5x9xi64>
        %266 = arith.ceildivsi %c12536_i16, %c12536_i16 : i16
        bufferization.dealloc_tensor %2 : tensor<4x13xi1>
        %alloca_50 = memref.alloca() : memref<5x9xi64>
        %267 = affine.max affine_map<(d0) -> (126, -6)>(%c1)
        %268 = memref.realloc %alloc_19 : memref<4xi1> to memref<4xi1>
        %269 = math.copysign %cst_1, %cst_1 : f16
        scf.yield %alloc_15 : memref<9x4xi64>
      } else {
        %265 = index.casts %false_20 : i1 to index
        %266 = memref.load %260[%c3, %c11] : memref<4x13xi1>
        %267 = arith.shli %false, %false_20 : i1
        %268 = math.copysign %11, %3 : tensor<4x13xf32>
        %269 = index.maxu %254, %251
        %270 = memref.realloc %alloc_18 : memref<4xi1> to memref<9xi1>
        %271 = memref.load %alloc_5[%c1, %c5] : memref<5x9xi16>
        bufferization.dealloc_tensor %7 : tensor<5x9xf32>
        scf.yield %alloc_15 : memref<9x4xi64>
      }
      scf.yield
    }
    case 3 {
      %250 = math.log1p %7 : tensor<5x9xf32>
      %rank_49 = tensor.rank %0 : tensor<9x4xi64>
      %251 = math.log1p %11 : tensor<4x13xf32>
      %252 = arith.muli %true, %false : i1
      %253 = vector.broadcast %c921153525_i64 : i64 to vector<i64>
      %254 = vector.transfer_write %253, %10[%c9, %c13] : vector<i64>, tensor<5x9xi64>
      %255 = arith.remsi %c-17634_i16, %c-17634_i16 : i16
      %256 = affine.apply affine_map<(d0, d1) -> (d0 ceildiv 2 + d1 * 16)>(%c12, %163)
      %257 = index.casts %c-17634_i16 : i16 to index
      %rank_50 = tensor.rank %15 : tensor<9x4xi16>
      %258 = affine.min affine_map<(d0, d1, d2, d3) -> ((d3 + 64) * 32, d3 + d1 + d3 + 64, d1 floordiv 2)>(%c11, %125, %257, %50)
      scf.if %false_35 {
        %alloc_52 = memref.alloc() : memref<5x4xi1>
        memref.tensor_store %130, %alloc_52 : memref<5x4xi1>
        %262 = math.absf %cst_0 : f16
        %263 = affine.max affine_map<(d0) -> (d0 ceildiv 4, d0 mod 2 + d0)>(%141)
        %264 = vector.broadcast %50 : index to vector<13xindex>
        %265 = vector.broadcast %false_35 : i1 to vector<13xi1>
        %266 = vector.broadcast %122 : f32 to vector<13xf32>
        vector.scatter %alloc_8[%c2, %c2] [%264], %265, %266 : memref<9x4xf32>, vector<13xindex>, vector<13xi1>, vector<13xf32>
        %267 = arith.remui %c11477_i16, %c-17634_i16 : i16
        %268 = vector.broadcast %false_35 : i1 to vector<9xi1>
        %269 = vector.maskedload %alloc_18[%c2], %268, %268 : memref<4xi1>, vector<9xi1>, vector<9xi1> into vector<9xi1>
        %expanded_53 = tensor.expand_shape %12 [[0], [1, 2]] : tensor<4x13xf16> into tensor<4x13x1xf16>
        %270 = affine.apply affine_map<(d0, d1, d2, d3) -> (d1 - 4)>(%c2, %37, %50, %258)
      } else {
        %262 = math.log1p %12 : tensor<4x13xf16>
        %263 = math.ctpop %13 : tensor<9x4xi1>
        %264 = math.ctlz %false : i1
        %265 = bufferization.clone %alloc_5 : memref<5x9xi16> to memref<5x9xi16>
        %266 = vector.broadcast %c11477_i16 : i16 to vector<5x9xi16>
        %267 = bufferization.clone %alloc_16 : memref<5x9xi64> to memref<5x9xi64>
        %268 = math.tanh %cst : f32
        %269 = memref.realloc %alloc_19 : memref<4xi1> to memref<9xi1>
      }
      %259 = vector.load %alloc_3[%c3, %c12] : memref<4x13xi32>, vector<4x13xi32>
      vector.print %76 : vector<13xi32>
      %260 = arith.addi %false_35, %false : i1
      %inserted_51 = tensor.insert %c921153525_i64 into %expanded[%c0, %c3, %c0] : tensor<9x4x1xi64>
      %261 = arith.minsi %c12536_i16, %c-17634_i16 : i16
      scf.yield
    }
    case 4 {
      %250 = math.roundeven %7 : tensor<5x9xf32>
      affine.store %extracted, %alloc_16[%c2, %c2] : memref<5x9xi64>
      %251 = vector.broadcast %c0_i32 : i32 to vector<4xi32>
      %dest_49, %accumulated_value_50 = vector.scan <minsi>, %54, %251 {inclusive = true, reduction_dim = 0 : i64} : vector<9x4xi32>, vector<4xi32>
      %252 = affine.max affine_map<(d0, d1) -> (0)>(%50, %c3)
      %253 = index.mul %c2, %c3
      %254 = affine.min affine_map<(d0, d1) -> (d0 - 16)>(%141, %37)
      %255 = arith.remui %true, %false_20 : i1
      %256 = index.sub %85, %c12
      %257 = arith.xori %c0_i32, %c318591709_i32 : i32
      %c0_i64 = arith.constant 0 : i64
      %258 = vector.transfer_read %expanded_21[%253, %141, %102], %c0_i64 : tensor<5x9x1xi64>, vector<9xi64>
      %259 = arith.divui %c-983_i16, %c-983_i16 : i16
      %260 = memref.alloca_scope  -> (memref<4x13xi64>) {
        %264 = vector.matrix_multiply %111, %111 {lhs_columns = 5 : i32, lhs_rows = 1 : i32, rhs_columns = 1 : i32} : (vector<5xi1>, vector<5xi1>) -> vector<1xi1>
        %265 = math.atan2 %cst_2, %cst_1 : f16
        %alloca_53 = memref.alloca() : memref<9x4xi32>
        affine.store %false, %alloc_7[%c12, %c5] : memref<9x4xi1>
        %266 = affine.load %alloc_7[%c7, %c13] : memref<9x4xi1>
        %267 = bufferization.to_tensor %74 : memref<9x4xi32>
        %268 = vector.matrix_multiply %19, %87 {lhs_columns = 1 : i32, lhs_rows = 4 : i32, rhs_columns = 1 : i32} : (vector<4xi16>, vector<1xi16>) -> vector<4xi16>
        %269 = memref.realloc %alloc_19 : memref<4xi1> to memref<4xi1>
        %alloca_54 = memref.alloca() : memref<9x4xi1>
        %270 = affine.load %alloc_11[%c7, %c12] : memref<9x4xi32>
        memref.assume_alignment %alloc_6, 2 : memref<5x9xi16>
        %alloc_55 = memref.alloc() : memref<5x9xi32>
        memref.copy %alloc, %alloc_55 : memref<5x9xi32> to memref<5x9xi32>
        %271 = math.round %cst_1 : f16
        %272 = arith.remui %c-983_i16, %c-17634_i16 : i16
        %273 = vector.insert %c-983_i16, %19 [3] : i16 into vector<4xi16>
        %from_elements_56 = tensor.from_elements %cst, %cst_33, %cst_33, %122, %cst_33, %cst_33, %122, %122, %cst, %122, %122, %cst_33, %cst_33, %cst, %122, %cst, %cst, %122, %122, %cst_33, %122, %cst, %cst, %122, %122, %122, %cst, %cst_33, %122, %cst, %cst_33, %cst, %cst, %122, %cst_33, %122, %cst_33, %cst_33, %cst_33, %122, %cst, %122, %122, %cst_33, %122 : tensor<5x9xf32>
        %274 = math.atan %cst : f32
        %275 = math.round %from_elements_56 : tensor<5x9xf32>
        %276 = arith.mulf %cst, %cst : f32
        bufferization.dealloc_tensor %1 : tensor<5x9xi1>
        %277 = index.maxu %c4, %51
        %278 = arith.ceildivsi %c1133603789_i32, %c318591709_i32 : i32
        %279 = index.divu %252, %c9
        %false_57 = index.bool.constant false
        %rank_58 = tensor.rank %267 : tensor<9x4xi32>
        %c1_i64 = arith.constant 1 : i64
        %280 = vector.transfer_read %10[%164, %c5], %c1_i64 : tensor<5x9xi64>, vector<13xi64>
        %inserted_59 = tensor.insert %cst_33 into %11[%c0, %c6] : tensor<4x13xf32>
        %281 = math.floor %cst_2 : f16
        %282 = arith.xori %true, %266 : i1
        %283 = arith.ceildivsi %266, %false : i1
        %284 = vector.extract %135[0] : vector<4x13xi1>
        bufferization.dealloc_tensor %4 : tensor<9x4xi64>
        %alloc_60 = memref.alloc() : memref<4x13xi64>
        memref.alloca_scope.return %alloc_60 : memref<4x13xi64>
      }
      %extracted_51 = tensor.extract %145[%c4, %c8] : tensor<5x9xf32>
      %inserted_52 = tensor.insert %c921153525_i64 into %10[%c2, %c2] : tensor<5x9xi64>
      %261 = vector.bitcast %75 : vector<1xi16> to vector<1xf16>
      %262 = tensor.empty() : tensor<5x4xi1>
      %263 = linalg.matmul ins(%1, %13 : tensor<5x9xi1>, tensor<9x4xi1>) outs(%262 : tensor<5x4xi1>) -> tensor<5x4xi1>
      scf.yield
    }
    default {
      %250 = vector.broadcast %false_20 : i1 to vector<3x5xi1>
      %251 = vector.contract {indexing_maps = [affine_map<(d0, d1, d2) -> (d0, d2)>, affine_map<(d0, d1, d2) -> (d1, d2)>, affine_map<(d0, d1, d2) -> (d0, d1)>], iterator_types = ["parallel", "parallel", "reduction"], kind = #vector.kind<add>} %49, %109, %250 : vector<3x9xi1>, vector<5x9xi1> into vector<3x5xi1>
      %252 = math.cttz %9 : tensor<5x9xi1>
      %253 = math.atan %cst_1 : f16
      %254 = vector.create_mask %85, %c10 : vector<9x4xi1>
      %255 = math.ctlz %17 : tensor<4x13xi1>
      %alloc_49 = memref.alloc() : memref<4x13xf32>
      memref.copy %alloc_4, %alloc_49 : memref<4x13xf32> to memref<4x13xf32>
      %256 = math.cttz %c1002341114_i32 : i32
      %257 = math.rsqrt %7 : tensor<5x9xf32>
      %258 = math.atan %cst_0 : f16
      %259 = vector.broadcast %122 : f32 to vector<9x4xf32>
      %260 = vector.fma %259, %259, %259 : vector<9x4xf32>
      %261 = memref.load %alloc_18[%c1] : memref<4xi1>
      %cast = tensor.cast %15 : tensor<9x4xi16> to tensor<?x?xi16>
      %262 = scf.if %false -> (f32) {
        %266 = math.round %3 : tensor<4x13xf32>
        %267 = arith.ori %c-17634_i16, %c11477_i16 : i16
        %268 = arith.negf %cst_0 : f16
        affine.store %c-17634_i16, %alloc_13[%c1, %c8] : memref<4x13xi16>
        %269 = math.absi %true : i1
        %270 = math.round %cst_0 : f16
        %271 = index.mul %c12, %c3
        %272 = vector.broadcast %cst_2 : f16 to vector<13xf16>
        %273 = vector.transfer_write %272, %12[%26, %33] {permutation_map = affine_map<(d0, d1) -> (d0)>} : vector<13xf16>, tensor<4x13xf16>
        scf.yield %cst : f32
      } else {
        %cast_51 = tensor.cast %1 : tensor<5x9xi1> to tensor<?x?xi1>
        %alloc_52 = memref.alloc() : memref<9x4xf32>
        memref.copy %alloc_8, %alloc_52 : memref<9x4xf32> to memref<9x4xf32>
        %inserted_53 = tensor.insert %c383015234_i64 into %4[%c7, %c2] : tensor<9x4xi64>
        %266 = arith.remsi %c-983_i16, %c11477_i16 : i16
        %267 = vector.insertelement %c11477_i16, %87[%c14 : index] : vector<1xi16>
        %268 = arith.remf %cst_33, %122 : f32
        memref.copy %91, %alloc_9 : memref<5x9xi1> to memref<5x9xi1>
        %269 = math.round %5 : tensor<9x4xf32>
        scf.yield %cst : f32
      }
      %263 = vector.broadcast %c3 : index to vector<13xindex>
      %264 = vector.broadcast %false_35 : i1 to vector<13xi1>
      %265 = vector.broadcast %c921153525_i64 : i64 to vector<13xi64>
      vector.scatter %alloc_15[%c5, %c0] [%263], %264, %265 : memref<9x4xi64>, vector<13xindex>, vector<13xi1>, vector<13xi64>
      memref.assume_alignment %91, 1 : memref<5x9xi1>
      %inserted_50 = tensor.insert %c921153525_i64 into %71[%c3, %c3] : tensor<5x9xi64>
    }
    affine.store %c56933747_i32, %74[%c15, %c2] : memref<9x4xi32>
    %165 = arith.addf %cst_33, %cst_33 : f32
    %166 = arith.negf %cst_1 : f16
    %167 = math.tanh %3 : tensor<4x13xf32>
    %168 = math.atan2 %145, %7 : tensor<5x9xf32>
    %169 = vector.splat %70 : vector<9x4xindex>
    %alloca_38 = memref.alloca() : memref<9x4xi64>
    %170 = vector.matrix_multiply %110, %110 {lhs_columns = 5 : i32, lhs_rows = 1 : i32, rhs_columns = 1 : i32} : (vector<5xi64>, vector<5xi64>) -> vector<1xi64>
    %171 = math.absf %145 : tensor<5x9xf32>
    %172 = memref.load %alloc_16[%c4, %c1] : memref<5x9xi64>
    %173 = arith.addf %cst_33, %cst_33 : f32
    %174 = arith.mulf %cst_2, %cst_1 : f16
    %c1_i16 = arith.constant 1 : i16
    %175 = vector.transfer_read %alloc_6[%34, %26], %c1_i16 : memref<5x9xi16>, vector<i16>
    %176 = arith.divsi %c-17634_i16, %c1_i16 : i16
    %177 = arith.minf %cst_2, %cst_1 : f16
    %178 = arith.negf %cst_1 : f16
    %generated = tensor.generate %93, %85 {
    ^bb0(%arg2: index, %arg3: index):
      %250 = vector.broadcast %rank_29 : index to vector<4xindex>
      %251 = vector.broadcast %true : i1 to vector<4xi1>
      %252 = vector.broadcast %c318591709_i32 : i32 to vector<4xi32>
      vector.scatter %alloc_3[%c0, %c9] [%250], %251, %252 : memref<4x13xi32>, vector<4xindex>, vector<4xi1>, vector<4xi32>
      %253 = vector.load %alloc_5[%c3, %c1] : memref<5x9xi16>, vector<5x9xi16>
      %expanded_49 = tensor.expand_shape %10 [[0], [1, 2]] : tensor<5x9xi64> into tensor<5x9x1xi64>
      %254 = math.floor %3 : tensor<4x13xf32>
      tensor.yield %c1133603789_i32 : i32
    } : tensor<?x?xi32>
    %179 = arith.addi %c1_i16, %c-983_i16 : i16
    %180 = arith.shli %c318591709_i32, %c56933747_i32 : i32
    bufferization.dealloc_tensor %14 : tensor<5x9xi32>
    affine.store %122, %alloc_8[%c12, %c11] : memref<9x4xf32>
    %181 = arith.subi %extracted, %c921153525_i64 : i64
    memref.assume_alignment %97, 1 : memref<5x9xi16>
    %182 = vector.extract_strided_slice %49 {offsets = [0], sizes = [3], strides = [1]} : vector<3x9xi1> to vector<3x9xi1>
    %183 = arith.ceildivsi %c12536_i16, %c-17634_i16 : i16
    %184 = vector.load %alloc_14[%c2, %c7] : memref<5x9xi16>, vector<5x9xi16>
    %185 = arith.subi %c991861544_i32, %c318591709_i32 : i32
    %186 = arith.addi %c12536_i16, %c11477_i16 : i16
    memref.store %c318591709_i32, %alloc_11[%c5, %c2] : memref<9x4xi32>
    %187 = vector.load %97[%c4, %c5] : memref<5x9xi16>, vector<5x9xi16>
    %188 = arith.shli %c1_i16, %c-983_i16 : i16
    %189 = math.log10 %122 : f32
    %190 = memref.load %alloc_6[%c3, %c3] : memref<5x9xi16>
    %191 = affine.max affine_map<(d0) -> (d0 floordiv 8 + (d0 floordiv 32) * 2)>(%rank_28)
    %192 = math.log1p %3 : tensor<4x13xf32>
    %193 = bufferization.clone %91 : memref<5x9xi1> to memref<5x9xi1>
    %194 = math.roundeven %cst_0 : f16
    %195 = arith.subi %c56933747_i32, %c1133603789_i32 : i32
    memref.copy %alloc_3, %alloc_12 : memref<4x13xi32> to memref<4x13xi32>
    %196 = vector.broadcast %false_35 : i1 to vector<13xi1>
    %197 = vector.insert %196, %135 [0] : vector<13xi1> into vector<4x13xi1>
    memref.copy %74, %alloc_11 : memref<9x4xi32> to memref<9x4xi32>
    %198 = arith.shli %c1133603789_i32, %c1133603789_i32 : i32
    %199 = vector.load %97[%c3, %c1] : memref<5x9xi16>, vector<9x4xi16>
    %200 = vector.broadcast %c0 : index to vector<5xindex>
    vector.scatter %alloc_16[%c2, %c3] [%200], %111, %112 : memref<5x9xi64>, vector<5xindex>, vector<5xi1>, vector<5xi64>
    %201 = arith.divui %true, %false_20 : i1
    %202 = bufferization.to_tensor %alloc_19 : memref<4xi1>
    %203 = tensor.empty() : tensor<5x9xi1>
    %mapped_39 = linalg.map ins(%9, %9 : tensor<5x9xi1>, tensor<5x9xi1>) outs(%203 : tensor<5x9xi1>)
      (%in: i1, %in_49: i1) {
        %250 = vector.transpose %104, [0] : vector<1xi16> to vector<1xi16>
        %251 = vector.broadcast %122 : f32 to vector<13xf32>
        %252 = vector.maskedload %alloc_8[%c3, %c2], %196, %251 : memref<9x4xf32>, vector<13xi1>, vector<13xf32> into vector<13xf32>
        %253 = math.round %122 : f32
        %254 = math.atan %cst_33 : f32
        %255 = vector.matrix_multiply %53, %53 {lhs_columns = 1 : i32, lhs_rows = 1 : i32, rhs_columns = 1 : i32} : (vector<1xi16>, vector<1xi16>) -> vector<1xi16>
        %256 = arith.minsi %false_35, %false_20 : i1
        %257 = arith.negf %cst : f32
        %258 = math.copysign %cst_33, %cst_33 : f32
        %259 = affine.min affine_map<(d0, d1, d2, d3) -> (d1 mod 8, d1 - 1)>(%c5, %c3, %c13, %c6)
        %260 = arith.xori %c991861544_i32, %c1002341114_i32 : i32
        %261 = vector.bitcast %251 : vector<13xf32> to vector<13xf32>
        %262 = arith.remui %true, %true : i1
        scf.if %in_49 {
          %277 = affine.apply affine_map<(d0, d1, d2) -> (d2)>(%51, %c0, %259)
          %278 = bufferization.to_tensor %alloc_15 : memref<9x4xi64>
          %279 = arith.addf %122, %122 : f32
          %280 = index.divu %163, %c13
          %281 = math.log1p %cst_0 : f16
          %282 = vector.extract_strided_slice %199 {offsets = [4], sizes = [4], strides = [1]} : vector<9x4xi16> to vector<4x4xi16>
          %283 = math.copysign %cst_0, %cst_0 : f16
          %284 = bufferization.clone %alloc_15 : memref<9x4xi64> to memref<9x4xi64>
        }
        %263 = vector.matrix_multiply %75, %53 {lhs_columns = 1 : i32, lhs_rows = 1 : i32, rhs_columns = 1 : i32} : (vector<1xi16>, vector<1xi16>) -> vector<1xi16>
        %rank_50 = tensor.rank %4 : tensor<9x4xi64>
        %264 = math.atan %cst_1 : f16
        %265 = affine.apply affine_map<(d0) -> (d0 floordiv 2 - 16)>(%191)
        scf.index_switch %rank 
        case 1 {
          %277 = arith.addf %cst_33, %122 : f32
          %278 = math.tanh %5 : tensor<9x4xf32>
          %279 = arith.maxsi %c991861544_i32, %c991861544_i32 : i32
          %280 = affine.min affine_map<(d0, d1) -> (-d0, d1, (-d1) mod 32)>(%259, %163)
          %inserted_54 = tensor.insert %cst_33 into %7[%c4, %c4] : tensor<5x9xf32>
          %281 = vector.broadcast %cst : f32 to vector<9x4xf32>
          %282 = vector.fma %281, %281, %281 : vector<9x4xf32>
          %283 = arith.addf %cst_1, %cst_1 : f16
          %284 = vector.extract_strided_slice %61 {offsets = [0], sizes = [2], strides = [1]} : vector<5x9xf32> to vector<2x9xf32>
          %285 = arith.mulf %cst_1, %cst_0 : f16
          bufferization.dealloc_tensor %3 : tensor<4x13xf32>
          %286 = arith.maxui %c12536_i16, %c1_i16 : i16
          %287 = vector.matrix_multiply %255, %53 {lhs_columns = 1 : i32, lhs_rows = 1 : i32, rhs_columns = 1 : i32} : (vector<1xi16>, vector<1xi16>) -> vector<1xi16>
          %288 = arith.muli %c11477_i16, %c11477_i16 : i16
          %289 = arith.remui %c0_i32, %c1002341114_i32 : i32
          %290 = math.roundeven %cst : f32
          %291 = index.divu %163, %c1
          scf.yield
        }
        case 2 {
          %277 = math.absf %5 : tensor<9x4xf32>
          %278 = index.add %141, %rank_32
          %279 = index.sub %c7, %rank_28
          %280 = index.ceildivu %c12, %c0
          %281 = arith.divf %cst_0, %cst_0 : f16
          %alloc_54 = memref.alloc() : memref<4x13xi16>
          memref.copy %alloc_13, %alloc_54 : memref<4x13xi16> to memref<4x13xi16>
          %expanded_55 = tensor.expand_shape %6 [[0], [1, 2]] : tensor<9x4xi16> into tensor<9x4x1xi16>
          %282 = arith.minf %cst_33, %122 : f32
          %283 = vector.maskedload %alloc_19[%c3], %196, %196 : memref<4xi1>, vector<13xi1>, vector<13xi1> into vector<13xi1>
          %284 = vector.broadcast %cst : f32 to vector<5x9xf32>
          %285 = vector.fma %284, %61, %284 : vector<5x9xf32>
          %286 = arith.negf %cst : f32
          %287 = arith.addi %extracted, %c383015234_i64 : i64
          %288 = affine.apply affine_map<(d0, d1) -> (d0 ceildiv 2 + d1 * 16)>(%c4, %c15)
          %289 = vector.broadcast %c7 : index to vector<13xindex>
          vector.scatter %alloc_12[%c2, %c2] [%289], %196, %76 : memref<4x13xi32>, vector<13xindex>, vector<13xi1>, vector<13xi32>
          %290 = arith.ori %false_20, %in : i1
          %alloca_56 = memref.alloca() : memref<5x9xi1>
          scf.yield
        }
        case 3 {
          %277 = arith.ceildivsi %c12536_i16, %c11477_i16 : i16
          %278 = index.maxu %c7, %c14
          %true_54 = index.bool.constant true
          %279 = vector.broadcast %122 : f32 to vector<9x4xf32>
          %280 = vector.fma %279, %279, %279 : vector<9x4xf32>
          %281 = arith.ceildivsi %true_54, %false : i1
          %282 = affine.min affine_map<(d0, d1, d2, d3) -> ((d2 floordiv 2) * 2, d0)>(%34, %265, %c5, %rank_28)
          %283 = arith.remui %c991861544_i32, %c318591709_i32 : i32
          %284 = vector.matrix_multiply %252, %252 {lhs_columns = 13 : i32, lhs_rows = 1 : i32, rhs_columns = 1 : i32} : (vector<13xf32>, vector<13xf32>) -> vector<1xf32>
          %285 = arith.ori %c-17634_i16, %c1_i16 : i16
          %286 = vector.bitcast %112 : vector<5xi64> to vector<5xi64>
          %287 = bufferization.to_tensor %alloc_5 : memref<5x9xi16>
          %288 = vector.broadcast %true_54 : i1 to vector<9xi1>
          %289 = vector.insert %288, %182 [2] : vector<9xi1> into vector<3x9xi1>
          %290 = affine.min affine_map<(d0, d1) -> (d0 - d1 - 2)>(%c4, %278)
          %291 = arith.addf %cst_33, %cst_33 : f32
          %292 = index.castu %33 : index to i32
          %293 = vector.create_mask %rank, %c0 : vector<4x13xi1>
          scf.yield
        }
        default {
          %277 = math.round %12 : tensor<4x13xf16>
          %278 = math.absf %7 : tensor<5x9xf32>
          %279 = arith.floordivsi %c-17634_i16, %c-17634_i16 : i16
          %280 = math.exp2 %cst_1 : f16
          %false_54 = index.bool.constant false
          %281 = index.maxu %163, %70
          %282 = memref.realloc %alloc_18 : memref<4xi1> to memref<9xi1>
          %283 = index.floordivs %34, %37
          %284 = arith.shrui %in, %false_20 : i1
          %285 = affine.max affine_map<(d0, d1, d2) -> (d1, (d0 * 8) ceildiv 64)>(%141, %c7, %163)
          %286 = index.sub %141, %c15
          %287 = math.atan %7 : tensor<5x9xf32>
          memref.store %extracted, %alloc_15[%c3, %c3] : memref<9x4xi64>
          %288 = vector.broadcast %true : i1 to vector<4xi1>
          %289 = vector.maskedload %alloc_19[%c2], %288, %288 : memref<4xi1>, vector<4xi1>, vector<4xi1> into vector<4xi1>
          %290 = index.maxu %93, %283
          bufferization.dealloc_tensor %14 : tensor<5x9xi32>
        }
        %266 = index.maxu %93, %89
        %267 = arith.shli %c1133603789_i32, %c318591709_i32 : i32
        vector.print %76 : vector<13xi32>
        %268 = arith.divsi %false_20, %false : i1
        %269 = arith.minsi %c12536_i16, %c-17634_i16 : i16
        %cast = tensor.cast %145 : tensor<5x9xf32> to tensor<?x?xf32>
        %false_51 = index.bool.constant false
        %alloca_52 = memref.alloca() : memref<5x9xf32>
        %270 = arith.maxui %c0_i32, %c1133603789_i32 : i32
        %271 = memref.alloca_scope  -> (memref<9x4xi64>) {
          %277 = arith.maxsi %true, %false : i1
          %278 = index.mul %c15, %c15
          %279 = index.maxu %26, %93
          %expanded_54 = tensor.expand_shape %7 [[0], [1, 2]] : tensor<5x9xf32> into tensor<5x9x1xf32>
          %280 = math.absi %14 : tensor<5x9xi32>
          %281 = arith.shrsi %c1133603789_i32, %c1133603789_i32 : i32
          %282 = vector.broadcast %125 : index to vector<13xindex>
          vector.scatter %alloc_7[%c4, %c3] [%282], %196, %196 : memref<9x4xi1>, vector<13xindex>, vector<13xi1>, vector<13xi1>
          %283 = index.divu %rank_32, %259
          %alloc_55 = memref.alloc() : memref<4x5xi16>
          %284 = tensor.empty() : tensor<9x5xi16>
          %285 = linalg.matmul ins(%15, %alloc_55 : tensor<9x4xi16>, memref<4x5xi16>) outs(%284 : tensor<9x5xi16>) -> tensor<9x5xi16>
          %286 = math.roundeven %cst_0 : f16
          %287 = arith.ori %c383015234_i64, %extracted : i64
          %288 = vector.broadcast %266 : index to vector<13xindex>
          vector.scatter %alloc_19[%c2] [%288], %196, %196 : memref<4xi1>, vector<13xindex>, vector<13xi1>, vector<13xi1>
          %289 = arith.subi %c1133603789_i32, %c1002341114_i32 : i32
          %290 = bufferization.to_tensor %alloc_16 : memref<5x9xi64>
          %291 = index.ceildivu %c1, %102
          %292 = arith.ori %false_35, %false : i1
          memref.assume_alignment %alloc_14, 8 : memref<5x9xi16>
          %293 = arith.subi %c12536_i16, %c11477_i16 : i16
          memref.copy %74, %alloc_11 : memref<9x4xi32> to memref<9x4xi32>
          %expanded_56 = tensor.expand_shape %expanded_54 [[0], [1], [2, 3]] : tensor<5x9x1xf32> into tensor<5x9x1x1xf32>
          %294 = math.absi %in_49 : i1
          %295 = math.floor %5 : tensor<9x4xf32>
          %296 = arith.ceildivsi %c11477_i16, %c11477_i16 : i16
          %extracted_57 = tensor.extract %0[%c4, %c2] : tensor<9x4xi64>
          %expanded_58 = tensor.expand_shape %202 [[0, 1]] : tensor<4xi1> into tensor<4x1xi1>
          %collapsed_59 = tensor.collapse_shape %cast [[0, 1]] : tensor<?x?xf32> into tensor<?xf32>
          %297 = index.ceildivu %rank_29, %27
          %298 = arith.shli %c-17634_i16, %c11477_i16 : i16
          %299 = vector.broadcast %266 : index to vector<13xindex>
          vector.scatter %alloc[%c0, %c7] [%299], %196, %76 : memref<5x9xi32>, vector<13xindex>, vector<13xi1>, vector<13xi32>
          vector.print %138 : vector<5x9xi32>
          %300 = memref.load %alloc_14[%c2, %c8] : memref<5x9xi16>
          %301 = vector.broadcast %c1133603789_i32 : i32 to vector<5xi32>
          vector.transfer_write %301, %alloc_3[%81, %162] {permutation_map = affine_map<(d0, d1) -> (d0)>} : vector<5xi32>, memref<4x13xi32>
          memref.alloca_scope.return %alloc_15 : memref<9x4xi64>
        }
        %272 = bufferization.clone %alloc_3 : memref<4x13xi32> to memref<4x13xi32>
        %273 = arith.minf %122, %cst_33 : f32
        %274 = vector.broadcast %cst_33 : f32 to vector<5x9xf32>
        %275 = vector.fma %274, %61, %61 : vector<5x9xf32>
        %276 = index.add %164, %121
        %true_53 = arith.constant true
        linalg.yield %true_53 : i1
      }
    %from_elements = tensor.from_elements %cst_2, %cst_0, %cst_0, %cst_0, %cst_0, %cst_0, %cst_0, %cst_1, %cst_2, %cst_0, %cst_1, %cst_0, %cst_0, %cst_0, %cst_0, %cst_0, %cst_1, %cst_2, %cst_1, %cst_2, %cst_1, %cst_1, %cst_2, %cst_0, %cst_0, %cst_1, %cst_0, %cst_2, %cst_2, %cst_0, %cst_1, %cst_1, %cst_0, %cst_2, %cst_1, %cst_1, %cst_1, %cst_0, %cst_0, %cst_0, %cst_0, %cst_1, %cst_0, %cst_1, %cst_2, %cst_1, %cst_2, %cst_0, %cst_2, %cst_2, %cst_0, %cst_1 : tensor<4x13xf16>
    %204 = vector.load %alloc_19[%c3] : memref<4xi1>, vector<9x4xi1>
    %205 = arith.muli %c56933747_i32, %c1133603789_i32 : i32
    %false_40 = arith.constant false
    %206 = vector.transfer_read %9[%c1, %c8], %false_40 : tensor<5x9xi1>, vector<i1>
    memref.assume_alignment %alloc_3, 2 : memref<4x13xi32>
    %207 = arith.divui %c991861544_i32, %c56933747_i32 : i32
    %208 = arith.xori %false, %false : i1
    %alloca_41 = memref.alloca() : memref<4x13xf16>
    %209 = bufferization.clone %alloc_6 : memref<5x9xi16> to memref<5x9xi16>
    %210 = math.atan %79 : tensor<5x4xf32>
    %211 = math.exp2 %11 : tensor<4x13xf32>
    %212 = math.atan2 %cst_1, %cst_0 : f16
    %213 = index.divu %162, %c0
    %214 = math.copysign %79, %79 : tensor<5x4xf32>
    %215 = tensor.empty() : tensor<5x9xi16>
    %216 = arith.mulf %122, %cst_33 : f32
    %217 = bufferization.clone %74 : memref<9x4xi32> to memref<9x4xi32>
    memref.assume_alignment %alloc_4, 4 : memref<4x13xf32>
    %218 = vector.insertelement %c11477_i16, %75[%37 : index] : vector<1xi16>
    %collapsed = tensor.collapse_shape %1 [[0, 1]] : tensor<5x9xi1> into tensor<45xi1>
    %219 = arith.addi %c1_i16, %c-983_i16 : i16
    %220 = arith.ceildivsi %false_20, %false_35 : i1
    %221 = math.round %11 : tensor<4x13xf32>
    %222 = arith.mulf %cst_2, %cst_1 : f16
    %223 = math.atan2 %cst_33, %cst_33 : f32
    %224 = vector.broadcast %cst : f32 to vector<5x9xf32>
    %225 = vector.fma %224, %62, %61 : vector<5x9xf32>
    %226 = vector.broadcast %c12536_i16 : i16 to vector<i16>
    %227 = vector.transfer_write %226, %6[%213, %c9] : vector<i16>, tensor<9x4xi16>
    %228 = index.floordivs %213, %c5
    %229 = math.copysign %7, %7 : tensor<5x9xf32>
    %230 = vector.bitcast %54 : vector<9x4xi32> to vector<9x4xi32>
    %231 = arith.minsi %c-17634_i16, %c-983_i16 : i16
    %expanded_42 = tensor.expand_shape %collapsed [[0, 1]] : tensor<45xi1> into tensor<45x1xi1>
    scf.index_switch %c10 
    case 1 {
      %250 = math.floor %cst_33 : f32
      %251 = math.ctlz %4 : tensor<9x4xi64>
      %252 = arith.ceildivsi %extracted, %extracted : i64
      %rank_49 = tensor.rank %14 : tensor<5x9xi32>
      %true_50 = index.bool.constant true
      %253 = arith.shrui %c1002341114_i32, %c1002341114_i32 : i32
      %rank_51 = tensor.rank %13 : tensor<9x4xi1>
      %254 = index.mul %rank, %141
      %255 = math.round %11 : tensor<4x13xf32>
      memref.alloca_scope  {
        %261 = index.floordivs %rank_29, %c2
        %262 = vector.broadcast %c921153525_i64 : i64 to vector<5x5xi64>
        %263 = vector.outerproduct %112, %112, %262 {kind = #vector.kind<or>} : vector<5xi64>, vector<5xi64>
        %264 = math.roundeven %7 : tensor<5x9xf32>
        %expanded_52 = tensor.expand_shape %17 [[0], [1, 2]] : tensor<4x13xi1> into tensor<4x13x1xi1>
        %265 = math.absi %c-17634_i16 : i16
        %inserted_53 = tensor.insert %c1133603789_i32 into %14[%c0, %c8] : tensor<5x9xi32>
        %266 = arith.shrui %c-17634_i16, %c-983_i16 : i16
        %267 = index.floordivs %c14, %c6
        %268 = math.cttz %119 : tensor<9x4xi64>
        %269 = index.divs %c9, %rank_29
        %rank_54 = tensor.rank %119 : tensor<9x4xi64>
        %extracted_55 = tensor.extract %5[%c5, %c1] : tensor<9x4xf32>
        %270 = arith.addi %c11477_i16, %c1_i16 : i16
        %271 = math.log10 %11 : tensor<4x13xf32>
        %272 = index.floordivs %191, %162
        %273 = index.ceildivu %c14, %213
        %274 = math.ctlz %10 : tensor<5x9xi64>
        %275 = index.mul %rank_29, %121
        %276 = index.floordivs %81, %164
        %277 = arith.ceildivsi %extracted, %c921153525_i64 : i64
        %278 = math.copysign %5, %5 : tensor<9x4xf32>
        vector.print %143 : vector<5x9xi1>
        %279 = affine.max affine_map<(d0, d1, d2, d3) -> (d3, -64, d3 ceildiv 64, -64)>(%228, %162, %51, %228)
        %280 = index.ceildivu %27, %c7
        %281 = arith.minsi %c991861544_i32, %c991861544_i32 : i32
        %282 = index.mul %275, %85
        %283 = vector.broadcast %cst_0 : f16 to vector<9x4xf16>
        %from_elements_56 = tensor.from_elements %c1_i16, %c-983_i16, %c-17634_i16, %c11477_i16, %c-17634_i16, %c1_i16, %c-17634_i16, %c12536_i16, %c1_i16, %c12536_i16, %c1_i16, %c11477_i16, %c12536_i16, %c1_i16, %c11477_i16, %c-983_i16, %c11477_i16, %c-983_i16, %c-17634_i16, %c12536_i16, %c11477_i16, %c11477_i16, %c-983_i16, %c11477_i16, %c11477_i16, %c1_i16, %c12536_i16, %c-17634_i16, %c1_i16, %c12536_i16, %c-17634_i16, %c-17634_i16, %c-983_i16, %c1_i16, %c-983_i16, %c12536_i16, %c1_i16, %c-17634_i16, %c12536_i16, %c-983_i16, %c1_i16, %c1_i16, %c-983_i16, %c12536_i16, %c12536_i16, %c11477_i16, %c12536_i16, %c-983_i16, %c12536_i16, %c11477_i16, %c11477_i16, %c-983_i16 : tensor<4x13xi16>
        %284 = bufferization.clone %alloc : memref<5x9xi32> to memref<5x9xi32>
        %285 = math.log2 %7 : tensor<5x9xf32>
        %286 = arith.shrui %false_20, %true : i1
        %true_57 = arith.constant true
        %287 = vector.transfer_read %1[%c6, %c4], %true_57 : tensor<5x9xi1>, vector<4xi1>
      }
      %256 = arith.xori %true, %true_50 : i1
      %257 = arith.divf %122, %cst_33 : f32
      %258 = vector.load %alloc_12[%c0, %c3] : memref<4x13xi32>, vector<9x4xi32>
      %259 = index.maxu %34, %c5
      vector.print %138 : vector<5x9xi32>
      %260 = scf.if %false -> (i1) {
        %261 = arith.maxsi %c-983_i16, %c-983_i16 : i16
        %262 = math.ctlz %14 : tensor<5x9xi32>
        %cast = tensor.cast %11 : tensor<4x13xf32> to tensor<?x?xf32>
        %inserted_52 = tensor.insert %cst_33 into %11[%c3, %c5] : tensor<4x13xf32>
        %263 = memref.load %alloc_16[%c3, %c7] : memref<5x9xi64>
        %264 = index.divu %c4, %c7
        %265 = vector.splat %89 : vector<5x9xindex>
        %266 = vector.matrix_multiply %104, %87 {lhs_columns = 1 : i32, lhs_rows = 1 : i32, rhs_columns = 1 : i32} : (vector<1xi16>, vector<1xi16>) -> vector<1xi16>
        scf.yield %true : i1
      } else {
        memref.store %c1002341114_i32, %alloc_3[%c3, %c7] : memref<4x13xi32>
        %261 = index.floordivs %125, %c11
        memref.copy %alloc_6, %97 : memref<5x9xi16> to memref<5x9xi16>
        %262 = affine.max affine_map<(d0, d1) -> (d0 mod 4, (d0 ceildiv 2) mod 2, d0 ceildiv 2)>(%228, %c14)
        %splat = tensor.splat %c12536_i16 : tensor<4x13xi16>
        %263 = math.ctpop %c921153525_i64 : i64
        %264 = index.castu %c1133603789_i32 : i32 to index
        %265 = index.divs %26, %163
        scf.yield %false_35 : i1
      }
      scf.yield
    }
    case 2 {
      %250 = arith.maxui %c383015234_i64, %c383015234_i64 : i64
      %251 = memref.realloc %alloc_19 : memref<4xi1> to memref<5xi1>
      %252 = index.floordivs %rank, %rank_28
      %253 = math.log1p %cst_1 : f16
      %254 = arith.shrui %c1_i16, %c11477_i16 : i16
      %255 = arith.shli %extracted, %c383015234_i64 : i64
      vector.print %230 : vector<9x4xi32>
      %generated_49 = tensor.generate %c12 {
      ^bb0(%arg2: index, %arg3: index):
        %266 = math.tanh %122 : f32
        %267 = math.absf %11 : tensor<4x13xf32>
        %268 = arith.addi %c0_i32, %c991861544_i32 : i32
        %269 = memref.realloc %alloc_19 : memref<4xi1> to memref<13xi1>
        tensor.yield %false_40 : i1
      } : tensor<?x9xi1>
      %256 = arith.addi %c-983_i16, %c-17634_i16 : i16
      %257 = arith.minsi %false_35, %false_40 : i1
      %258 = vector.bitcast %187 : vector<5x9xi16> to vector<5x9xi16>
      %259 = vector.extract_strided_slice %204 {offsets = [1], sizes = [1], strides = [1]} : vector<9x4xi1> to vector<1x4xi1>
      %260 = math.copysign %145, %7 : tensor<5x9xf32>
      %261 = affine.min affine_map<(d0, d1, d2) -> (-d0 - 2, 0)>(%51, %c12, %51)
      %262 = math.floor %cst : f32
      %263 = vector.broadcast %106 : index to vector<9xindex>
      %264 = vector.broadcast %false_35 : i1 to vector<9xi1>
      %265 = vector.broadcast %extracted : i64 to vector<9xi64>
      vector.scatter %alloc_16[%c0, %c7] [%263], %264, %265 : memref<5x9xi64>, vector<9xindex>, vector<9xi1>, vector<9xi64>
      scf.yield
    }
    default {
      %250 = arith.mulf %122, %122 : f32
      %251 = vector.extract_strided_slice %19 {offsets = [0], sizes = [3], strides = [1]} : vector<4xi16> to vector<3xi16>
      %rank_49 = tensor.rank %9 : tensor<5x9xi1>
      %252 = math.floor %7 : tensor<5x9xf32>
      %253 = index.maxu %125, %164
      %254 = vector.insertelement %false_20, %111[%c2 : index] : vector<5xi1>
      %alloc_50 = memref.alloc() : memref<9x4xi1>
      memref.copy %alloc_7, %alloc_50 : memref<9x4xi1> to memref<9x4xi1>
      %255 = arith.divf %cst_33, %cst : f32
      %256 = scf.if %false_40 -> (f32) {
        %264 = math.sqrt %145 : tensor<5x9xf32>
        %265 = arith.shli %true, %false_40 : i1
        %266 = vector.matrix_multiply %76, %76 {lhs_columns = 13 : i32, lhs_rows = 1 : i32, rhs_columns = 1 : i32} : (vector<13xi32>, vector<13xi32>) -> vector<1xi32>
        %267 = vector.matrix_multiply %25, %251 {lhs_columns = 1 : i32, lhs_rows = 4 : i32, rhs_columns = 3 : i32} : (vector<4xi16>, vector<3xi16>) -> vector<12xi16>
        %268 = arith.xori %c0_i32, %c991861544_i32 : i32
        %269 = math.roundeven %cst_1 : f16
        %270 = vector.broadcast %c-983_i16 : i16 to vector<9x9xi16>
        %271 = vector.contract {indexing_maps = [affine_map<(d0, d1, d2) -> (d2, d0)>, affine_map<(d0, d1, d2) -> (d2, d1)>, affine_map<(d0, d1, d2) -> (d0, d1)>], iterator_types = ["parallel", "parallel", "reduction"], kind = #vector.kind<xor>} %187, %187, %270 : vector<5x9xi16>, vector<5x9xi16> into vector<9x9xi16>
        %272 = index.castu %33 : index to i32
        scf.yield %122 : f32
      } else {
        %264 = index.castu %false_35 : i1 to index
        %c1_i16_53 = arith.constant 1 : i16
        %c0_i16 = arith.constant 0 : i16
        %265 = vector.transfer_read %15[%164, %164], %c0_i16 : tensor<9x4xi16>, vector<i16>
        %266 = math.exp %cst : f32
        %inserted_54 = tensor.insert %true into %9[%c0, %c1] : tensor<5x9xi1>
        %267 = math.ctpop %14 : tensor<5x9xi32>
        %268 = tensor.empty() : tensor<13x13xi1>
        %269 = linalg.matmul ins(%transposed, %16 : tensor<13x4xi1>, tensor<4x13xi1>) outs(%268 : tensor<13x13xi1>) -> tensor<13x13xi1>
        %expanded_55 = tensor.expand_shape %15 [[0], [1, 2]] : tensor<9x4xi16> into tensor<9x4x1xi16>
        %270 = math.floor %7 : tensor<5x9xf32>
        scf.yield %cst : f32
      }
      %257 = arith.remsi %c318591709_i32, %c318591709_i32 : i32
      %258 = math.tanh %cst_1 : f16
      %259 = memref.alloca_scope  -> (i64) {
        %264 = math.copysign %cst, %122 : f32
        %265 = vector.maskedload %alloc_10[%c3, %c3], %111, %111 : memref<4x13xi1>, vector<5xi1>, vector<5xi1> into vector<5xi1>
        %266 = index.floordivs %121, %106
        memref.store %false_20, %91[%c4, %c7] : memref<5x9xi1>
        %267 = affine.load %alloc_17[%c2, %c2] : memref<4x13xf16>
        %268 = arith.shrui %c0_i32, %c56933747_i32 : i32
        %269 = arith.mulf %267, %cst_2 : f16
        %270 = math.round %3 : tensor<4x13xf32>
        bufferization.dealloc_tensor %119 : tensor<9x4xi64>
        %271 = vector.broadcast %c11477_i16 : i16 to vector<9xi16>
        %272 = vector.transfer_write %271, %6[%81, %c15] {permutation_map = affine_map<(d0, d1) -> (d0)>} : vector<9xi16>, tensor<9x4xi16>
        %273 = math.sqrt %7 : tensor<5x9xf32>
        %274 = arith.divui %c0_i32, %c991861544_i32 : i32
        %rank_53 = tensor.rank %9 : tensor<5x9xi1>
        %275 = index.ceildivu %89, %70
        %276 = vector.broadcast %extracted : i64 to vector<9x4xi64>
        %277 = affine.apply affine_map<(d0, d1, d2) -> (d2 ceildiv 16)>(%81, %c2, %c7)
        %278 = vector.extract_strided_slice %170 {offsets = [0], sizes = [1], strides = [1]} : vector<1xi64> to vector<1xi64>
        %279 = affine.min affine_map<(d0, d1, d2, d3) -> (d3 * 32, d1 + d3)>(%191, %33, %141, %rank_28)
        %alloc_54 = memref.alloc() : memref<9x9xi32>
        %280 = tensor.empty() : tensor<5x9xi32>
        %281 = linalg.matmul ins(%14, %alloc_54 : tensor<5x9xi32>, memref<9x9xi32>) outs(%280 : tensor<5x9xi32>) -> tensor<5x9xi32>
        %282 = arith.muli %c0_i32, %c318591709_i32 : i32
        %283 = arith.ceildivsi %c-17634_i16, %c1_i16 : i16
        %284 = vector.broadcast %c318591709_i32 : i32 to vector<4xi32>
        %285 = vector.broadcast %false_20 : i1 to vector<4xi1>
        %286 = vector.maskedload %alloc_11[%c0, %c2], %285, %284 : memref<9x4xi32>, vector<4xi1>, vector<4xi32> into vector<4xi32>
        %287 = arith.maxui %true, %true : i1
        %288 = memref.realloc %alloc_18 : memref<4xi1> to memref<5xi1>
        %289 = arith.maxui %c0_i32, %c991861544_i32 : i32
        %290 = arith.remui %c-17634_i16, %c-983_i16 : i16
        %inserted_55 = tensor.insert %267 into %12[%c0, %c1] : tensor<4x13xf16>
        %291 = arith.minsi %c-983_i16, %c-17634_i16 : i16
        %292 = vector.broadcast %cst_33 : f32 to vector<5xf32>
        %dest_56, %accumulated_value_57 = vector.scan <minf>, %61, %292 {inclusive = false, reduction_dim = 1 : i64} : vector<5x9xf32>, vector<5xf32>
        %alloc_58 = memref.alloc() : memref<5x9xi32>
        memref.copy %alloc, %alloc_58 : memref<5x9xi32> to memref<5x9xi32>
        memref.assume_alignment %alloc_9, 16 : memref<5x9xi1>
        %293 = math.absi %10 : tensor<5x9xi64>
        memref.alloca_scope.return %c921153525_i64 : i64
      }
      %260 = math.sqrt %cst_2 : f16
      %261 = scf.if %false -> (f32) {
        %264 = arith.divsi %c921153525_i64, %extracted : i64
        %265 = math.log10 %cst_1 : f16
        %266 = index.ceildivu %50, %c0
        %267 = memref.load %217[%c5, %c0] : memref<9x4xi32>
        %268 = math.ctpop %transposed : tensor<13x4xi1>
        %inserted_53 = tensor.insert %c0_i32 into %14[%c0, %c0] : tensor<5x9xi32>
        %269 = math.roundeven %11 : tensor<4x13xf32>
        %270 = vector.bitcast %76 : vector<13xi32> to vector<13xi32>
        scf.yield %cst : f32
      } else {
        %264 = arith.floordivsi %c-17634_i16, %c1_i16 : i16
        %alloc_53 = memref.alloc() : memref<9x4xi1>
        memref.copy %alloc_7, %alloc_53 : memref<9x4xi1> to memref<9x4xi1>
        %265 = math.roundeven %11 : tensor<4x13xf32>
        %266 = vector.broadcast %256 : f32 to vector<9xf32>
        %267 = vector.insert %266, %225 [1] : vector<9xf32> into vector<5x9xf32>
        %rank_54 = tensor.rank %12 : tensor<4x13xf16>
        %268 = index.add %26, %106
        %269 = arith.shli %259, %extracted : i64
        memref.store %true, %alloc_19[%c3] : memref<4xi1>
        scf.yield %cst : f32
      }
      %262 = bufferization.clone %alloc : memref<5x9xi32> to memref<5x9xi32>
      %true_51 = arith.constant true
      %false_52 = arith.constant false
      %263 = vector.transfer_read %1[%c0, %c11], %false_52 : tensor<5x9xi1>, vector<i1>
    }
    %232 = vector.broadcast %70 : index to vector<9xindex>
    %233 = vector.broadcast %true : i1 to vector<9xi1>
    %234 = vector.broadcast %c-17634_i16 : i16 to vector<9xi16>
    vector.scatter %alloc_14[%c2, %c1] [%232], %233, %234 : memref<5x9xi16>, vector<9xindex>, vector<9xi1>, vector<9xi16>
    %235 = vector.broadcast %c921153525_i64 : i64 to vector<5x4xi64>
    %236 = vector.transfer_write %235, %expanded[%c0, %27, %89] {permutation_map = affine_map<(d0, d1, d2) -> (d0, d1)>} : vector<5x4xi64>, tensor<9x4x1xi64>
    %rank_43 = tensor.rank %79 : tensor<5x4xf32>
    %237 = math.sqrt %79 : tensor<5x4xf32>
    %238 = bufferization.clone %alloc_6 : memref<5x9xi16> to memref<5x9xi16>
    %true_44 = arith.constant true
    %false_45 = arith.constant false
    %239 = vector.transfer_read %18[%213, %141], %false_45 : tensor<13x4xi1>, vector<i1>
    %240 = math.atan %7 : tensor<5x9xf32>
    bufferization.dealloc_tensor %expanded : tensor<9x4x1xi64>
    %alloc_46 = memref.alloc() : memref<13x4xf16>
    %241 = tensor.empty() : tensor<4x4xf16>
    %242 = linalg.matmul ins(%12, %alloc_46 : tensor<4x13xf16>, memref<13x4xf16>) outs(%241 : tensor<4x4xf16>) -> tensor<4x4xf16>
    %243 = index.floordivs %c8, %81
    scf.if %false {
      %250 = math.tanh %241 : tensor<4x4xf16>
      %251 = affine.load %alloc_18[%c5] : memref<4xi1>
      %252 = affine.min affine_map<(d0) -> (((d0 ceildiv 2 - 2) * 8 - 4) mod 64, d0, (d0 ceildiv 2 - 2) * 8, ((d0 ceildiv 2) ceildiv 32 - 64) mod 128 + (d0 ceildiv 2 - 2) * 8 + 16)>(%34)
      %253 = math.absi %14 : tensor<5x9xi32>
      %254 = arith.mulf %cst_33, %cst : f32
      %255 = tensor.empty() : tensor<5x4xi64>
      %256 = linalg.matmul ins(%10, %0 : tensor<5x9xi64>, tensor<9x4xi64>) outs(%255 : tensor<5x4xi64>) -> tensor<5x4xi64>
      %257 = index.casts %c5 : index to i32
      %258 = math.absf %from_elements : tensor<4x13xf16>
    }
    %244 = arith.addf %cst_1, %cst_2 : f16
    %245 = tensor.empty() : tensor<5x9xf32>
    %246 = linalg.copy ins(%7 : tensor<5x9xf32>) outs(%245 : tensor<5x9xf32>) -> tensor<5x9xf32>
    %247 = tensor.empty() : tensor<4xi1>
    %transposed_47 = linalg.transpose ins(%202 : tensor<4xi1>) outs(%247 : tensor<4xi1>) permutation = [0] 
    %alloc_48 = memref.alloc() : memref<f32>
    linalg.reduce ins(%alloc_8 : memref<9x4xf32>) outs(%alloc_48 : memref<f32>) dimensions = [0, 1] 
      (%in: f32, %init: f32) {
        %250 = arith.remui %c1133603789_i32, %c1133603789_i32 : i32
        memref.alloca_scope  {
          %257 = math.sqrt %79 : tensor<5x4xf32>
          %258 = arith.ceildivsi %c991861544_i32, %c1133603789_i32 : i32
          %259 = arith.shrsi %c1_i16, %c-983_i16 : i16
          %260 = vector.broadcast %c5 : index to vector<5xindex>
          vector.scatter %alloc_19[%c1] [%260], %111, %111 : memref<4xi1>, vector<5xindex>, vector<5xi1>, vector<5xi1>
          %true_52 = arith.constant true
          %false_53 = arith.constant false
          %261 = vector.transfer_read %alloc_7[%163, %121], %false_53 {permutation_map = affine_map<(d0, d1) -> (d0)>} : memref<9x4xi1>, vector<13xi1>
          %262 = arith.negf %cst_1 : f16
          %263 = math.absf %12 : tensor<4x13xf16>
          %264 = arith.remsi %true, %false_35 : i1
          %265 = affine.max affine_map<(d0) -> (d0, d0)>(%c0)
          %266 = vector.matrix_multiply %112, %170 {lhs_columns = 1 : i32, lhs_rows = 5 : i32, rhs_columns = 1 : i32} : (vector<5xi64>, vector<1xi64>) -> vector<5xi64>
          %267 = vector.broadcast %162 : index to vector<9xindex>
          %268 = vector.broadcast %true_44 : i1 to vector<9xi1>
          %269 = vector.broadcast %c0_i32 : i32 to vector<9xi32>
          vector.scatter %alloc[%c3, %c6] [%267], %268, %269 : memref<5x9xi32>, vector<9xindex>, vector<9xi1>, vector<9xi32>
          %270 = vector.broadcast %cst : f32 to vector<5x9xf32>
          %271 = vector.fma %270, %224, %224 : vector<5x9xf32>
          %272 = arith.addf %in, %init : f32
          %273 = arith.divui %true_44, %false : i1
          %274 = arith.mulf %cst, %cst_33 : f32
          %275 = arith.addi %false_40, %true_52 : i1
          %276 = arith.divui %true, %true_52 : i1
          memref.assume_alignment %91, 4 : memref<5x9xi1>
          %277 = index.castu %c1002341114_i32 : i32 to index
          %278 = math.roundeven %246 : tensor<5x9xf32>
          %279 = affine.apply affine_map<(d0, d1) -> ((-d0) mod 64 - d0)>(%c1, %c6)
          %280 = math.round %79 : tensor<5x4xf32>
          %rank_54 = tensor.rank %5 : tensor<9x4xf32>
          %collapsed_55 = tensor.collapse_shape %17 [[0, 1]] : tensor<4x13xi1> into tensor<52xi1>
          %281 = index.sub %c11, %162
          %282 = affine.max affine_map<(d0) -> (-(d0 floordiv 128) + ((-(d0 floordiv 128)) mod 4) * 2, (d0 floordiv 128) floordiv 16 + d0 floordiv 128, -(d0 floordiv 128) + ((-(d0 floordiv 128)) mod 4) * 2, ((d0 floordiv 128) floordiv 16) * 64)>(%228)
          %283 = arith.floordivsi %true, %false_20 : i1
          %284 = math.ctpop %202 : tensor<4xi1>
          %285 = affine.max affine_map<(d0, d1) -> (d1 + 1, d1 - (d1 + 1) - 4, d1 - 66)>(%c1, %213)
          %286 = memref.realloc %alloc_19 : memref<4xi1> to memref<9xi1>
          %287 = bufferization.to_tensor %alloc_9 : memref<5x9xi1>
          %288 = vector.broadcast %false : i1 to vector<4xi1>
          %289 = vector.maskedload %97[%c1, %c7], %288, %19 : memref<5x9xi16>, vector<4xi1>, vector<4xi16> into vector<4xi16>
        }
        %251 = vector.broadcast %cst_33 : f32 to vector<9xf32>
        %dest_49, %accumulated_value_50 = vector.scan <add>, %224, %251 {inclusive = false, reduction_dim = 0 : i64} : vector<5x9xf32>, vector<9xf32>
        %252 = vector.broadcast %c1 : index to vector<5xindex>
        %253 = vector.broadcast %c-983_i16 : i16 to vector<5xi16>
        vector.scatter %alloc_13[%c1, %c4] [%252], %111, %253 : memref<4x13xi16>, vector<5xindex>, vector<5xi1>, vector<5xi16>
        %254 = math.ctlz %c1002341114_i32 : i32
        affine.store %true, %91[%c4, %c0] : memref<5x9xi1>
        %255 = arith.divf %cst, %in : f32
        %256 = index.add %141, %106
        %cst_51 = arith.constant 1.000000e+00 : f32
        linalg.yield %cst_51 : f32
      }
    %248 = scf.parallel (%arg2) = (%37) to (%34) step (%c15) init (%alloc_6) -> memref<5x9xi16> {
      scf.if %true {
        %266 = arith.addf %122, %cst : f32
        %inserted_52 = tensor.insert %true_44 into %247[%c0] : tensor<4xi1>
        %267 = math.absf %12 : tensor<4x13xf16>
        %268 = bufferization.clone %alloc_7 : memref<9x4xi1> to memref<9x4xi1>
        %269 = math.ctlz %collapsed : tensor<45xi1>
        %270 = index.castu %121 : index to i32
        %271 = arith.maxsi %c1002341114_i32, %c991861544_i32 : i32
        %alloca_53 = memref.alloca() : memref<4x13xi32>
      }
      %250 = math.tanh %3 : tensor<4x13xf32>
      %251 = arith.shli %c11477_i16, %c-17634_i16 : i16
      %252 = math.ctlz %20 : tensor<i1>
      %alloc_49 = memref.alloc() : memref<1x5xi64>
      %253 = tensor.empty() : tensor<5xi64>
      %254 = tensor.empty() : tensor<9x1xi64>
      %255 = linalg.generic {indexing_maps = [affine_map<(d0, d1, d2) -> (d2, d0)>, affine_map<(d0, d1, d2) -> (d0)>, affine_map<(d0, d1, d2) -> (d1, d2)>, affine_map<(d0, d1, d2) -> (d0, d1, d2)>], iterator_types = ["parallel", "parallel", "parallel"]} ins(%alloc_49, %253, %254 : memref<1x5xi64>, tensor<5xi64>, tensor<9x1xi64>) outs(%expanded_21 : tensor<5x9x1xi64>) {
      ^bb0(%in: i64, %in_52: i64, %in_53: i64, %out: i64):
        %266 = arith.shli %true, %true : i1
        %267 = arith.shli %c991861544_i32, %c56933747_i32 : i32
        %268 = math.ctpop %9 : tensor<5x9xi1>
        %269 = arith.remsi %false_20, %true_44 : i1
        %270 = affine.min affine_map<(d0, d1, d2) -> ((d0 floordiv 32) mod 32 - d1, d0 floordiv 32)>(%191, %50, %125)
        %271 = math.exp %11 : tensor<4x13xf32>
        %272 = index.sub %81, %c15
        %273 = math.absi %0 : tensor<9x4xi64>
        %274 = index.divs %163, %c7
        memref.assume_alignment %74, 2 : memref<9x4xi32>
        %275 = memref.load %97[%c1, %c5] : memref<5x9xi16>
        %expanded_54 = tensor.expand_shape %202 [[0, 1]] : tensor<4xi1> into tensor<4x1xi1>
        %276 = arith.minf %cst_2, %cst_1 : f16
        %277 = index.divs %125, %34
        %278 = index.ceildivu %c2, %rank_32
        %279 = index.floordivs %277, %50
        %280 = affine.max affine_map<(d0, d1, d2, d3) -> (d0)>(%277, %c14, %c2, %85)
        %281 = math.roundeven %12 : tensor<4x13xf16>
        bufferization.dealloc_tensor %8 : tensor<5x9xi64>
        %282 = vector.broadcast %164 : index to vector<5xindex>
        vector.scatter %alloc_15[%c7, %c1] [%282], %111, %110 : memref<9x4xi64>, vector<5xindex>, vector<5xi1>, vector<5xi64>
        %283 = arith.minf %122, %cst : f32
        %284 = arith.ori %in, %in : i64
        %alloc_55 = memref.alloc() : memref<9x4xi64>
        memref.copy %alloc_15, %alloc_55 : memref<9x4xi64> to memref<9x4xi64>
        %285 = math.sqrt %cst_0 : f16
        %c0_i32_56 = arith.constant 0 : i32
        %286 = vector.transfer_read %74[%162, %arg2], %c0_i32_56 : memref<9x4xi32>, vector<13xi32>
        %287 = arith.divf %cst_1, %cst_0 : f16
        %288 = arith.shrui %in_53, %in_52 : i64
        %289 = arith.addf %cst_2, %cst_0 : f16
        %290 = math.tanh %11 : tensor<4x13xf32>
        %291 = vector.broadcast %122 : f32 to vector<4x13xf32>
        %292 = vector.fma %291, %291, %291 : vector<4x13xf32>
        %293 = arith.minui %in_53, %out : i64
        %294 = math.atan2 %cst_0, %cst_0 : f16
        linalg.yield %in_52 : i64
      } -> tensor<5x9x1xi64>
      %256 = vector.insert %c-983_i16, %75 [0] : i16 into vector<1xi16>
      %257 = vector.load %alloc_8[%c0, %c1] : memref<9x4xf32>, vector<9x4xf32>
      %alloca_50 = memref.alloca() : memref<4x13xf32>
      %258 = math.roundeven %11 : tensor<4x13xf32>
      %259 = arith.addi %false, %false_35 : i1
      %260 = arith.shrui %false_35, %false : i1
      %261 = index.castu %extracted : i64 to index
      %262 = math.copysign %5, %5 : tensor<9x4xf32>
      %263 = affine.min affine_map<(d0) -> (d0 * 64, d0 ceildiv 64, d0)>(%c14)
      %264 = arith.minsi %c1133603789_i32, %c1133603789_i32 : i32
      %265 = math.copysign %11, %3 : tensor<4x13xf32>
      %alloc_51 = memref.alloc() : memref<5x9xi16>
      scf.reduce(%alloc_51)  : memref<5x9xi16> {
      ^bb0(%arg3: memref<5x9xi16>, %arg4: memref<5x9xi16>):
        %266 = vector.broadcast %c1002341114_i32 : i32 to vector<9xi32>
        %dest_52, %accumulated_value_53 = vector.scan <xor>, %54, %266 {inclusive = false, reduction_dim = 1 : i64} : vector<9x4xi32>, vector<9xi32>
        %267 = affine.max affine_map<(d0, d1, d2) -> ((d2 floordiv 16) mod 64, (d2 floordiv 16) mod 64, d1 mod 4, d1 ceildiv 8)>(%51, %164, %106)
        %268 = arith.ceildivsi %true, %true_44 : i1
        %269 = index.maxu %c11, %c10
        %270 = vector.broadcast %false_35 : i1 to vector<i1>
        %271 = vector.transfer_write %270, %transposed_47[%121] : vector<i1>, tensor<4xi1>
        %272 = vector.broadcast %cst : f32 to vector<4xf32>
        %dest_54, %accumulated_value_55 = vector.scan <add>, %257, %272 {inclusive = true, reduction_dim = 0 : i64} : vector<9x4xf32>, vector<4xf32>
        %273 = arith.ori %c-17634_i16, %c-983_i16 : i16
        %274 = index.mul %c10, %269
        %alloc_56 = memref.alloc() : memref<5x9xi16>
        scf.reduce.return %alloc_56 : memref<5x9xi16>
      }
      scf.yield
    }
    %249 = affine.vector_load %alloc_14[%85, %c4] : memref<5x9xi16>, vector<9xi16>
    affine.vector_store %110, %alloc_16[%50, %228] : memref<5x9xi64>, vector<5xi64>
    vector.print %19 : vector<4xi16>
    vector.print %23 : vector<1xi16>
    vector.print %24 : vector<4xi16>
    vector.print %25 : vector<4xi16>
    vector.print %41 : vector<5x9xi1>
    vector.print %49 : vector<3x9xi1>
    vector.print %53 : vector<1xi16>
    vector.print %54 : vector<9x4xi32>
    vector.print %61 : vector<5x9xf32>
    vector.print %62 : vector<5x9xf32>
    vector.print %75 : vector<1xi16>
    vector.print %76 : vector<13xi32>
    vector.print %87 : vector<1xi16>
    vector.print %104 : vector<1xi16>
    vector.print %109 : vector<5x9xi1>
    vector.print %110 : vector<5xi64>
    vector.print %111 : vector<5xi1>
    vector.print %112 : vector<5xi64>
    vector.print %135 : vector<4x13xi1>
    vector.print %138 : vector<5x9xi32>
    vector.print %142 : vector<4xi16>
    vector.print %143 : vector<5x9xi1>
    vector.print %170 : vector<1xi64>
    vector.print %182 : vector<3x9xi1>
    vector.print %184 : vector<5x9xi16>
    vector.print %187 : vector<5x9xi16>
    vector.print %196 : vector<13xi1>
    vector.print %199 : vector<9x4xi16>
    vector.print %204 : vector<9x4xi1>
    vector.print %224 : vector<5x9xf32>
    vector.print %225 : vector<5x9xf32>
    vector.print %226 : vector<i16>
    vector.print %230 : vector<9x4xi32>
    vector.print %235 : vector<5x4xi64>
    vector.print %249 : vector<9xi16>
    vector.print %cst : f32
    vector.print %false : i1
    vector.print %c-983_i16 : i16
    vector.print %c11477_i16 : i16
    vector.print %cst_0 : f16
    vector.print %c1002341114_i32 : i32
    vector.print %c383015234_i64 : i64
    vector.print %c991861544_i32 : i32
    vector.print %c1133603789_i32 : i32
    vector.print %c12536_i16 : i16
    vector.print %c318591709_i32 : i32
    vector.print %c-17634_i16 : i16
    vector.print %cst_1 : f16
    vector.print %cst_2 : f16
    vector.print %c921153525_i64 : i64
    vector.print %c56933747_i32 : i32
    vector.print %extracted : i64
    vector.print %false_20 : i1
    vector.print %true : i1
    vector.print %122 : f32
    vector.print %c0_i32 : i32
    vector.print %cst_33 : f32
    vector.print %false_35 : i1
    vector.print %c1_i16 : i16
    vector.print %false_40 : i1
    vector.print %true_44 : i1
    return
  }
}
