module {
  func.func private @func1(%arg0: tensor<11x2xf32>, %arg1: tensor<11x2xi1>) {
    %c574062382_i64 = arith.constant 574062382 : i64
    %c949626383_i32 = arith.constant 949626383 : i32
    %c1124090300_i64 = arith.constant 1124090300 : i64
    %true = arith.constant true
    %cst = arith.constant 9.568000e+03 : f16
    %cst_0 = arith.constant 2.798400e+04 : f16
    %cst_1 = arith.constant 3.337600e+04 : f16
    %cst_2 = arith.constant 4.275200e+04 : f16
    %c29700_i16 = arith.constant 29700 : i16
    %c13697_i16 = arith.constant 13697 : i16
    %false = arith.constant false
    %cst_3 = arith.constant 0x4E353DD1 : f32
    %c469795614_i64 = arith.constant 469795614 : i64
    %c53372327_i64 = arith.constant 53372327 : i64
    %c-25155_i16 = arith.constant -25155 : i16
    %c468925637_i64 = arith.constant 468925637 : i64
    %0 = tensor.empty() : tensor<2xi64>
    %1 = tensor.empty() : tensor<11x2xi16>
    %2 = tensor.empty() : tensor<11x2xi1>
    %3 = tensor.empty() : tensor<2xi64>
    %4 = tensor.empty() : tensor<2xi64>
    %5 = tensor.empty() : tensor<2xi1>
    %6 = tensor.empty() : tensor<11x2xf16>
    %7 = tensor.empty() : tensor<2xi1>
    %8 = tensor.empty() : tensor<2x11x2xi32>
    %9 = tensor.empty() : tensor<2x11x2xi64>
    %10 = tensor.empty() : tensor<11x2xi32>
    %11 = tensor.empty() : tensor<2xf32>
    %12 = tensor.empty() : tensor<11x2xi1>
    %13 = tensor.empty() : tensor<2x11x2xi32>
    %14 = tensor.empty() : tensor<2x11x2xi1>
    %15 = tensor.empty() : tensor<2x11x2xf16>
    %c0 = arith.constant 0 : index
    %c1 = arith.constant 1 : index
    %c2 = arith.constant 2 : index
    %c3 = arith.constant 3 : index
    %c4 = arith.constant 4 : index
    %c5 = arith.constant 5 : index
    %c6 = arith.constant 6 : index
    %c7 = arith.constant 7 : index
    %c8 = arith.constant 8 : index
    %c9 = arith.constant 9 : index
    %c10 = arith.constant 10 : index
    %c11 = arith.constant 11 : index
    %c12 = arith.constant 12 : index
    %c13 = arith.constant 13 : index
    %c14 = arith.constant 14 : index
    %c15 = arith.constant 15 : index
    %alloc = memref.alloc() : memref<11x2xi1>
    %alloc_4 = memref.alloc() : memref<2x11x2xi64>
    %alloc_5 = memref.alloc() : memref<11x2xf32>
    %alloc_6 = memref.alloc() : memref<2x11x2xf32>
    %alloc_7 = memref.alloc() : memref<11x2xf16>
    %alloc_8 = memref.alloc() : memref<2xf16>
    %alloc_9 = memref.alloc() : memref<2xi32>
    %alloc_10 = memref.alloc() : memref<11x2xi1>
    %alloc_11 = memref.alloc() : memref<11x2xi64>
    %alloc_12 = memref.alloc() : memref<2xi32>
    %alloc_13 = memref.alloc() : memref<11x2xi16>
    %alloc_14 = memref.alloc() : memref<11x2xi64>
    %alloc_15 = memref.alloc() : memref<11x2xi16>
    %alloc_16 = memref.alloc() : memref<2xi64>
    %alloc_17 = memref.alloc() : memref<11x2xi32>
    %alloc_18 = memref.alloc() : memref<11x2xf32>
    %16 = tensor.empty() : tensor<2xi64>
    %17 = linalg.copy ins(%4 : tensor<2xi64>) outs(%16 : tensor<2xi64>) -> tensor<2xi64>
    %alloc_19 = memref.alloc() : memref<2xi64>
    linalg.transpose ins(%17 : tensor<2xi64>) outs(%alloc_19 : memref<2xi64>) permutation = [0] 
    %18 = tensor.empty() : tensor<2xi1>
    %reduced = linalg.reduce ins(%2 : tensor<11x2xi1>) outs(%18 : tensor<2xi1>) dimensions = [0] 
      (%in: i1, %init: i1) {
        %262 = math.cttz %12 : tensor<11x2xi1>
        %263 = vector.broadcast %c29700_i16 : i16 to vector<11x2xi16>
        %264 = vector.transpose %263, [0, 1] : vector<11x2xi16> to vector<11x2xi16>
        %265 = arith.muli %in, %init : i1
        %266 = math.round %15 : tensor<2x11x2xf16>
        %267 = affine.for %arg2 = 0 to 24 iter_args(%arg3 = %14) -> (tensor<2x11x2xi1>) {
          affine.yield %14 : tensor<2x11x2xi1>
        }
        %268 = arith.floordivsi %false, %in : i1
        %269 = arith.remf %cst, %cst_0 : f16
        %270 = vector.broadcast %c29700_i16 : i16 to vector<2x2xi16>
        %271 = vector.contract {indexing_maps = [affine_map<(d0, d1, d2) -> (d2, d0)>, affine_map<(d0, d1, d2) -> (d2, d1)>, affine_map<(d0, d1, d2) -> (d0, d1)>], iterator_types = ["parallel", "parallel", "reduction"], kind = #vector.kind<minsi>} %263, %263, %270 : vector<11x2xi16>, vector<11x2xi16> into vector<2x2xi16>
        %true_46 = arith.constant true
        linalg.yield %true_46 : i1
      }
    scf.parallel (%arg2, %arg3) = (%c10, %c5) to (%c4, %c6) step (%c2, %c2) {
      %262 = arith.maxui %false, %false : i1
      %263 = arith.ceildivsi %c13697_i16, %c29700_i16 : i16
      %264 = math.log10 %cst : f16
      %alloca = memref.alloca() : memref<2x11x2xi1>
      %265 = math.cttz %c-25155_i16 : i16
      %266 = arith.subi %c949626383_i32, %c949626383_i32 : i32
      %267 = vector.broadcast %cst_3 : f32 to vector<2xf32>
      vector.print %267 : vector<2xf32>
      %268 = vector.transpose %267, [0] : vector<2xf32> to vector<2xf32>
      %269 = math.round %15 : tensor<2x11x2xf16>
      %270 = math.cttz %c468925637_i64 : i64
      %271 = arith.divui %c468925637_i64, %c468925637_i64 : i64
      %272 = math.floor %15 : tensor<2x11x2xf16>
      vector.print %267 : vector<2xf32>
      %273 = arith.maxf %cst_0, %cst_1 : f16
      %274 = math.exp2 %6 : tensor<11x2xf16>
      %275 = vector.insert %cst_3, %267 [1] : f32 into vector<2xf32>
      scf.yield
    }
    %19 = affine.vector_load %alloc_9[%c4] : memref<2xi32>, vector<2xi32>
    affine.vector_store %19, %alloc_12[%c8] : memref<2xi32>, vector<2xi32>
    %alloc_20 = memref.alloc() : memref<2xi64>
    %20 = tensor.empty() : tensor<i64>
    %21 = linalg.dot ins(%alloc_19, %alloc_20 : memref<2xi64>, memref<2xi64>) outs(%20 : tensor<i64>) -> tensor<i64>
    %22 = arith.remui %c574062382_i64, %c53372327_i64 : i64
    %23 = math.ipowi %12, %2 : tensor<11x2xi1>
    %24 = math.ipowi %5, %7 : tensor<2xi1>
    %25 = arith.divui %c574062382_i64, %c469795614_i64 : i64
    %26 = arith.divsi %c468925637_i64, %c469795614_i64 : i64
    %27 = bufferization.to_memref %3 : memref<2xi64>
    %alloc_21 = memref.alloc() : memref<2xf16>
    %28 = arith.minsi %false, %false : i1
    %29 = arith.divsi %true, %false : i1
    %30 = vector.bitcast %19 : vector<2xi32> to vector<2xi32>
    %31 = arith.shrui %c469795614_i64, %c468925637_i64 : i64
    %32 = arith.floordivsi %true, %false : i1
    %33 = arith.divf %cst_3, %cst_3 : f32
    %alloc_22 = memref.alloc() : memref<2x11xi1>
    %34 = tensor.empty() : tensor<11x11xi1>
    %35 = linalg.matmul ins(%2, %alloc_22 : tensor<11x2xi1>, memref<2x11xi1>) outs(%34 : tensor<11x11xi1>) -> tensor<11x11xi1>
    %36 = vector.flat_transpose %19 {columns = 1 : i32, rows = 2 : i32} : vector<2xi32> -> vector<2xi32>
    %37 = arith.shrsi %c469795614_i64, %c1124090300_i64 : i64
    %38 = bufferization.to_memref %13 : memref<2x11x2xi32>
    %39 = index.casts %c9 : index to i32
    %40 = math.absi %34 : tensor<11x11xi1>
    %41 = vector.broadcast %c469795614_i64 : i64 to vector<i64>
    vector.transfer_write %41, %alloc_20[%c0] : vector<i64>, memref<2xi64>
    %42 = math.expm1 %6 : tensor<11x2xf16>
    %43 = memref.realloc %alloc_9 : memref<2xi32> to memref<2xi32>
    %44 = math.ctpop %1 : tensor<11x2xi16>
    %45 = math.ipowi %5, %5 : tensor<2xi1>
    %inserted = tensor.insert %true into %5[%c1] : tensor<2xi1>
    %46 = math.tan %cst : f16
    %47 = math.tan %6 : tensor<11x2xf16>
    %alloc_23 = memref.alloc() : memref<2x11xi32>
    %48 = tensor.empty() : tensor<11x11xi32>
    %49 = linalg.matmul ins(%10, %alloc_23 : tensor<11x2xi32>, memref<2x11xi32>) outs(%48 : tensor<11x11xi32>) -> tensor<11x11xi32>
    %50 = memref.atomic_rmw muli %c949626383_i32, %alloc_9[%c0] : (i32, memref<2xi32>) -> i32
    %51 = vector.broadcast %c468925637_i64 : i64 to vector<i64>
    %52 = vector.transfer_write %51, %16[%c13] : vector<i64>, tensor<2xi64>
    %53 = index.maxs %c4, %c12
    %54 = vector.broadcast %cst_3 : f32 to vector<2x11x2xf32>
    %55 = vector.fma %54, %54, %54 : vector<2x11x2xf32>
    %56 = arith.divsi %true, %false : i1
    %from_elements = tensor.from_elements %true, %true, %true, %false, %false, %true, %false, %true, %false, %true, %false, %true, %true, %true, %true, %false, %true, %true, %true, %true, %false, %true, %true, %true, %false, %true, %false, %false, %false, %false, %false, %true, %true, %true, %true, %false, %false, %false, %true, %true, %false, %false, %true, %false : tensor<2x11x2xi1>
    %57 = math.atan %cst_1 : f16
    %58 = arith.addf %cst, %cst : f16
    %59 = index.maxu %c4, %c0
    memref.copy %alloc_13, %alloc_15 : memref<11x2xi16> to memref<11x2xi16>
    %60 = math.ceil %15 : tensor<2x11x2xf16>
    %alloc_24 = memref.alloc() : memref<2x11x2xi1>
    %61 = vector.broadcast %false : i1 to vector<2xi1>
    %62 = vector.gather %alloc_24[%c2, %53, %c1] [%36], %61, %61 : memref<2x11x2xi1>, vector<2xi32>, vector<2xi1>, vector<2xi1> into vector<2xi1>
    %63 = arith.divui %c-25155_i16, %c-25155_i16 : i16
    %64 = arith.remf %cst, %cst_1 : f16
    %65 = index.maxs %c12, %59
    %66 = index.ceildivu %c14, %c9
    %67 = math.sqrt %6 : tensor<11x2xf16>
    %68 = arith.shli %c-25155_i16, %c29700_i16 : i16
    %69 = vector.broadcast %true : i1 to vector<i1>
    %70 = vector.transfer_write %69, %5[%c6] : vector<i1>, tensor<2xi1>
    %71 = arith.remf %cst_2, %cst_0 : f16
    %false_25 = index.bool.constant false
    %72 = bufferization.to_tensor %alloc_16 : memref<2xi64>
    %73 = linalg.generic {indexing_maps = [affine_map<(d0, d1, d2) -> (d0, d1, d2)>], iterator_types = ["parallel", "parallel", "parallel"]} outs(%15 : tensor<2x11x2xf16>) {
    ^bb0(%out: f16):
      memref.assume_alignment %alloc_15, 1 : memref<11x2xi16>
      %262 = arith.floordivsi %true, %false : i1
      %263 = vector.insert %c949626383_i32, %19 [0] : i32 into vector<2xi32>
      memref.assume_alignment %alloc_5, 8 : memref<11x2xf32>
      %264 = affine.load %alloc_15[%c7, %c4] : memref<11x2xi16>
      %265 = math.atan2 %cst_1, %cst_1 : f16
      %266 = math.powf %11, %11 : tensor<2xf32>
      vector.print %51 : vector<i64>
      %alloc_46 = memref.alloc() : memref<2x11x2xf32>
      memref.copy %alloc_6, %alloc_46 : memref<2x11x2xf32> to memref<2x11x2xf32>
      %267 = arith.subi %false, %true : i1
      %268 = arith.xori %c1124090300_i64, %c53372327_i64 : i64
      %269 = arith.divsi %c468925637_i64, %c574062382_i64 : i64
      %from_elements_47 = tensor.from_elements %c574062382_i64, %c53372327_i64, %c469795614_i64, %c468925637_i64, %c468925637_i64, %c1124090300_i64, %c469795614_i64, %c574062382_i64, %c574062382_i64, %c1124090300_i64, %c1124090300_i64, %c469795614_i64, %c53372327_i64, %c1124090300_i64, %c469795614_i64, %c468925637_i64, %c1124090300_i64, %c574062382_i64, %c469795614_i64, %c469795614_i64, %c468925637_i64, %c53372327_i64, %c1124090300_i64, %c469795614_i64, %c468925637_i64, %c469795614_i64, %c468925637_i64, %c468925637_i64, %c574062382_i64, %c469795614_i64, %c53372327_i64, %c53372327_i64, %c469795614_i64, %c468925637_i64, %c1124090300_i64, %c469795614_i64, %c574062382_i64, %c469795614_i64, %c469795614_i64, %c1124090300_i64, %c574062382_i64, %c53372327_i64, %c468925637_i64, %c1124090300_i64 : tensor<2x11x2xi64>
      %270 = affine.if affine_set<(d0, d1, d2, d3) : (d2 - 4 == 0, (d2 + 128) * 4 == 0, (d2 + 128) * 64 + 1 >= 0, (d2 + 128) * 4 == 0)>(%c3, %c0, %c7, %c4) -> memref<2x11x2xf16> {
        %289 = math.sqrt %11 : tensor<2xf32>
        %290 = vector.contract {indexing_maps = [affine_map<(d0) -> (d0)>, affine_map<(d0) -> (d0)>, affine_map<(d0) -> ()>], iterator_types = ["reduction"], kind = #vector.kind<mul>} %19, %36, %c949626383_i32 : vector<2xi32>, vector<2xi32> into i32
        %291 = vector.contract {indexing_maps = [affine_map<(d0) -> (d0)>, affine_map<(d0) -> (d0)>, affine_map<(d0) -> ()>], iterator_types = ["reduction"], kind = #vector.kind<xor>} %62, %62, %false_25 : vector<2xi1>, vector<2xi1> into i1
        %292 = math.powf %6, %6 : tensor<11x2xf16>
        %293 = math.atan2 %11, %11 : tensor<2xf32>
        %294 = arith.ceildivsi %c-25155_i16, %c-25155_i16 : i16
        %295 = vector.splat %c-25155_i16 : vector<2x11x2xi16>
        %296 = index.mul %c8, %59
        %alloc_49 = memref.alloc() : memref<2x11x2xf16>
        affine.yield %alloc_49 : memref<2x11x2xf16>
      } else {
        %289 = tensor.empty() : tensor<11x2xi1>
        %290 = vector.broadcast %264 : i16 to vector<2x11x2xi16>
        %291 = vector.broadcast %cst_2 : f16 to vector<f16>
        vector.transfer_write %291, %alloc_8[%c14] : vector<f16>, memref<2xf16>
        %292 = arith.remsi %c-25155_i16, %c-25155_i16 : i16
        %293 = arith.subi %c949626383_i32, %c949626383_i32 : i32
        %294 = arith.remui %c53372327_i64, %c1124090300_i64 : i64
        %295 = arith.cmpi eq, %true, %true : i1
        %296 = vector.broadcast %c-25155_i16 : i16 to vector<2x2xi16>
        %dest, %accumulated_value = vector.scan <minui>, %290, %296 {inclusive = true, reduction_dim = 1 : i64} : vector<2x11x2xi16>, vector<2x2xi16>
        %alloc_49 = memref.alloc() : memref<2x11x2xf16>
        affine.yield %alloc_49 : memref<2x11x2xf16>
      }
      %271 = index.maxu %c4, %c11
      %272 = memref.realloc %alloc_9 : memref<2xi32> to memref<2xi32>
      %expanded_48 = tensor.expand_shape %14 [[0], [1], [2, 3]] : tensor<2x11x2xi1> into tensor<2x11x2x1xi1>
      %273 = affine.load %alloc_14[%c7, %c3] : memref<11x2xi64>
      %274 = arith.xori %c29700_i16, %264 : i16
      %275 = arith.divf %cst_1, %cst : f16
      %276 = arith.maxf %cst_3, %cst_3 : f32
      %277 = index.sub %c5, %c9
      %278 = affine.apply affine_map<(d0, d1, d2) -> ((d2 - d1) floordiv 8 - (d2 - d1) + 8)>(%271, %c1, %c10)
      %279 = arith.minf %cst_1, %cst_0 : f16
      %280 = index.maxu %c7, %66
      %281 = math.fpowi %cst_0, %c949626383_i32 : f16, i32
      %282 = affine.min affine_map<(d0, d1, d2, d3) -> ((d2 - (d2 - 1)) floordiv 2, (d2 - (d2 - 1) - 8) * 2 - 32, d2 - (d2 - 1) + d1 - 8, d1)>(%c14, %278, %c0, %c10)
      %283 = math.ctlz %c-25155_i16 : i16
      %284 = vector.broadcast %true : i1 to vector<2x2xi1>
      %285 = vector.outerproduct %62, %62, %284 {kind = #vector.kind<add>} : vector<2xi1>, vector<2xi1>
      %286 = arith.maxsi %c13697_i16, %c13697_i16 : i16
      %287 = arith.shrsi %c469795614_i64, %c468925637_i64 : i64
      %288 = vector.splat %c29700_i16 : vector<2xi16>
      linalg.yield %cst_0 : f16
    } -> tensor<2x11x2xf16>
    %74 = math.copysign %15, %15 : tensor<2x11x2xf16>
    %75 = vector.flat_transpose %19 {columns = 1 : i32, rows = 2 : i32} : vector<2xi32> -> vector<2xi32>
    %76 = affine.min affine_map<(d0, d1, d2) -> (d0)>(%c6, %c1, %c5)
    %77 = index.divu %66, %c13
    %from_elements_26 = tensor.from_elements %false, %true, %false, %false_25, %false, %true, %false_25, %false_25, %false, %false_25, %false_25, %true, %false, %true, %false, %false_25, %false_25, %true, %true, %true, %true, %true : tensor<11x2xi1>
    %78 = affine.apply affine_map<(d0, d1) -> (0)>(%c8, %c6)
    %79 = index.casts %false : i1 to index
    %80 = arith.minf %cst_3, %cst_3 : f32
    %81 = arith.minsi %c949626383_i32, %c949626383_i32 : i32
    %82 = arith.subi %c574062382_i64, %c1124090300_i64 : i64
    %83 = affine.min affine_map<(d0, d1, d2, d3) -> (d2, d1)>(%c9, %c13, %77, %c13)
    %84 = scf.while (%arg2 = %38) : (memref<2x11x2xi32>) -> memref<2x11x2xi32> {
      %262 = affine.min affine_map<(d0, d1) -> (-d0, 4)>(%c0, %c13)
      %263 = math.absi %0 : tensor<2xi64>
      %264 = math.sqrt %cst_3 : f32
      %alloca = memref.alloca() : memref<2xf32>
      scf.if %false {
        %inserted_47 = tensor.insert %c574062382_i64 into %20[] : tensor<i64>
        affine.store %c1124090300_i64, %alloc_20[%c8] : memref<2xi64>
        %267 = index.sizeof
        %268 = memref.load %alloc_8[%c1] : memref<2xf16>
        %from_elements_48 = tensor.from_elements %false, %true, %false_25, %true, %false, %false, %false_25, %false, %true, %false, %true, %false, %true, %true, %false, %false_25, %false, %false_25, %true, %false, %false_25, %false_25, %true, %false_25, %false, %true, %false_25, %false_25, %false, %false_25, %false_25, %true, %false, %true, %false_25, %false_25, %false_25, %true, %false_25, %true, %false, %false_25, %false, %true : tensor<2x11x2xi1>
        %269 = arith.maxsi %c574062382_i64, %c469795614_i64 : i64
        %270 = arith.addi %c468925637_i64, %c468925637_i64 : i64
        %alloc_49 = memref.alloc() : memref<2xf32>
        memref.tensor_store %11, %alloc_49 : memref<2xf32>
      }
      %265 = arith.floordivsi %c949626383_i32, %c949626383_i32 : i32
      %266 = vector.splat %cst_3 : vector<11x2xf32>
      %from_elements_46 = tensor.from_elements %cst_0, %cst : tensor<2xf16>
      scf.condition(%true) %38 : memref<2x11x2xi32>
    } do {
    ^bb0(%arg2: memref<2x11x2xi32>):
      %262 = math.atan2 %11, %11 : tensor<2xf32>
      %from_elements_46 = tensor.from_elements %c469795614_i64, %c469795614_i64, %c468925637_i64, %c469795614_i64, %c468925637_i64, %c574062382_i64, %c53372327_i64, %c469795614_i64, %c53372327_i64, %c574062382_i64, %c574062382_i64, %c468925637_i64, %c468925637_i64, %c469795614_i64, %c53372327_i64, %c53372327_i64, %c574062382_i64, %c574062382_i64, %c574062382_i64, %c468925637_i64, %c53372327_i64, %c469795614_i64 : tensor<11x2xi64>
      %263 = math.round %cst_2 : f16
      affine.store %c-25155_i16, %alloc_13[%c7, %c2] : memref<11x2xi16>
      %264 = arith.addi %c949626383_i32, %c949626383_i32 : i32
      memref.store %c949626383_i32, %arg2[%c1, %c8, %c1] : memref<2x11x2xi32>
      %265 = affine.min affine_map<(d0, d1) -> (d1 - d0 - d0, d1 ceildiv 32, (d1 ceildiv 32) ceildiv 32)>(%c10, %78)
      %266 = math.atan %cst_2 : f16
      %267 = math.sqrt %6 : tensor<11x2xf16>
      %268 = arith.cmpi slt, %c468925637_i64, %c574062382_i64 : i64
      %inserted_47 = tensor.insert %cst_2 into %6[%c0, %c1] : tensor<11x2xf16>
      %269 = vector.broadcast %true : i1 to vector<7xi1>
      %270 = vector.maskedload %alloc_24[%c0, %c5, %c0], %269, %269 : memref<2x11x2xi1>, vector<7xi1>, vector<7xi1> into vector<7xi1>
      %271 = math.log1p %cst : f16
      %272 = arith.minsi %c13697_i16, %c-25155_i16 : i16
      scf.index_switch %c10 
      case 1 {
        %274 = arith.ori %c-25155_i16, %c29700_i16 : i16
        %275 = arith.subi %c53372327_i64, %c574062382_i64 : i64
        %276 = arith.andi %c1124090300_i64, %c1124090300_i64 : i64
        %277 = vector.broadcast %cst_3 : f32 to vector<2xf32>
        %278 = vector.fma %277, %277, %277 : vector<2xf32>
        %279 = index.maxs %c9, %c1
        %alloc_48 = memref.alloc() : memref<2x11x2xi1>
        memref.copy %alloc_24, %alloc_48 : memref<2x11x2xi1> to memref<2x11x2xi1>
        %280 = math.absi %3 : tensor<2xi64>
        %alloc_49 = memref.alloc() : memref<2x15xi32>
        %281 = tensor.empty() : tensor<11x15xi32>
        %282 = linalg.matmul ins(%10, %alloc_49 : tensor<11x2xi32>, memref<2x15xi32>) outs(%281 : tensor<11x15xi32>) -> tensor<11x15xi32>
        %283 = vector.splat %cst_1 : vector<2x11x2xf16>
        %284 = arith.andi %true, %false_25 : i1
        %alloc_50 = memref.alloc() : memref<2x11x2xi1>
        %285 = index.maxs %66, %77
        %286 = math.fpowi %cst_3, %c949626383_i32 : f32, i32
        %287 = arith.cmpi sge, %true, %true : i1
        %288 = memref.realloc %alloc_16 : memref<2xi64> to memref<15xi64>
        %289 = vector.broadcast %c949626383_i32 : i32 to vector<7xi32>
        %290 = vector.transfer_write %289, %48[%c7, %c6] {permutation_map = affine_map<(d0, d1) -> (d0)>} : vector<7xi32>, tensor<11x11xi32>
        scf.yield
      }
      case 2 {
        %274 = math.ctpop %18 : tensor<2xi1>
        %275 = math.tanh %6 : tensor<11x2xf16>
        %true_48 = index.bool.constant true
        %276 = arith.minsi %c574062382_i64, %c1124090300_i64 : i64
        %alloca = memref.alloca() : memref<11x2xi64>
        %cast_49 = tensor.cast %21 : tensor<i64> to tensor<i64>
        %277 = bufferization.to_memref %11 : memref<2xf32>
        %inserted_50 = tensor.insert %false_25 into %2[%c1, %c1] : tensor<11x2xi1>
        %extracted_51 = tensor.extract %0[%c0] : tensor<2xi64>
        %278 = vector.broadcast %cst_3 : f32 to vector<11x2xf32>
        %279 = vector.broadcast %true_48 : i1 to vector<11x2xi1>
        %280 = vector.broadcast %c949626383_i32 : i32 to vector<11x2xi32>
        %281 = vector.gather %alloc_5[%c9, %c7] [%280], %279, %278 : memref<11x2xf32>, vector<11x2xi32>, vector<11x2xi1>, vector<11x2xf32> into vector<11x2xf32>
        %282 = math.round %6 : tensor<11x2xf16>
        %283 = arith.xori %c29700_i16, %c-25155_i16 : i16
        %inserted_52 = tensor.insert %false into %from_elements_26[%c5, %c1] : tensor<11x2xi1>
        %284 = math.floor %cst : f16
        %285 = math.powf %cst_3, %cst_3 : f32
        %286 = math.ceil %cst_3 : f32
        scf.yield
      }
      case 3 {
        %274 = vector.insertelement %c949626383_i32, %30[%53 : index] : vector<2xi32>
        %275 = arith.remf %cst, %cst_2 : f16
        %276 = arith.ceildivsi %false_25, %true : i1
        %alloca = memref.alloca() : memref<2xi1>
        %277 = arith.muli %c574062382_i64, %c468925637_i64 : i64
        %278 = math.atan2 %15, %15 : tensor<2x11x2xf16>
        %cast_48 = tensor.cast %4 : tensor<2xi64> to tensor<?xi64>
        %279 = memref.realloc %alloc_20 : memref<2xi64> to memref<2xi64>
        %280 = vector.broadcast %cst_3 : f32 to vector<f32>
        vector.transfer_write %280, %alloc_6[%c15, %c14, %c6] : vector<f32>, memref<2x11x2xf32>
        %281 = arith.shrsi %c1124090300_i64, %c53372327_i64 : i64
        %282 = affine.max affine_map<(d0) -> (-16384)>(%77)
        %283 = arith.divf %cst_0, %cst : f16
        %284 = vector.insert %false, %62 [1] : i1 into vector<2xi1>
        %285 = math.ipowi %5, %5 : tensor<2xi1>
        %286 = memref.atomic_rmw maxs %c949626383_i32, %alloc_12[%c0] : (i32, memref<2xi32>) -> i32
        %287 = arith.maxsi %c13697_i16, %c-25155_i16 : i16
        scf.yield
      }
      default {
        %274 = affine.apply affine_map<(d0, d1, d2) -> (-(d2 + d1) + 2)>(%c6, %c4, %265)
        %275 = vector.flat_transpose %36 {columns = 1 : i32, rows = 2 : i32} : vector<2xi32> -> vector<2xi32>
        %276 = index.floordivs %c2, %c9
        %277 = math.tan %11 : tensor<2xf32>
        %278 = arith.remf %cst_0, %cst : f16
        %279 = index.mul %c1, %276
        %280 = arith.shrsi %c468925637_i64, %c574062382_i64 : i64
        %281 = arith.cmpf uno, %cst_1, %cst : f16
        %282 = vector.bitcast %275 : vector<2xi32> to vector<2xi32>
        %283 = math.round %cst_2 : f16
        %284 = index.divs %65, %76
        %cast_48 = tensor.cast %6 : tensor<11x2xf16> to tensor<?x?xf16>
        %285 = arith.ceildivsi %c29700_i16, %c29700_i16 : i16
        %286 = arith.floordivsi %true, %true : i1
        memref.store %c949626383_i32, %arg2[%c1, %c1, %c1] : memref<2x11x2xi32>
        %287 = arith.ori %c574062382_i64, %c574062382_i64 : i64
      }
      %273 = arith.addi %c53372327_i64, %c468925637_i64 : i64
      scf.yield %arg2 : memref<2x11x2xi32>
    }
    %85 = memref.load %alloc_15[%c1, %c0] : memref<11x2xi16>
    %rank = tensor.rank %0 : tensor<2xi64>
    %86 = arith.muli %true, %true : i1
    %87 = arith.negf %cst : f16
    memref.copy %alloc_11, %alloc_14 : memref<11x2xi64> to memref<11x2xi64>
    %88 = arith.maxsi %c469795614_i64, %c469795614_i64 : i64
    %alloc_27 = memref.alloc() : memref<11x2xi16>
    %89 = index.maxs %c8, %c0
    %90 = math.atan2 %cst_2, %cst : f16
    %91 = affine.if affine_set<(d0, d1, d2, d3) : (d1 - 17 >= 0)>(%c11, %c2, %c5, %c9) -> memref<2xf16> {
      %262 = vector.broadcast %cst_3 : f32 to vector<15xf32>
      %263 = vector.broadcast %false : i1 to vector<15xi1>
      %264 = vector.maskedload %alloc_6[%c1, %c7, %c1], %263, %262 : memref<2x11x2xf32>, vector<15xi1>, vector<15xf32> into vector<15xf32>
      %265 = arith.ori %c469795614_i64, %c469795614_i64 : i64
      %266 = arith.remui %c574062382_i64, %c1124090300_i64 : i64
      %267 = arith.maxf %cst_2, %cst_1 : f16
      %268 = vector.extract %30[1] : vector<2xi32>
      %269 = arith.cmpi sle, %c29700_i16, %c13697_i16 : i16
      %270 = arith.subi %c949626383_i32, %c949626383_i32 : i32
      %271 = arith.shli %c574062382_i64, %c574062382_i64 : i64
      affine.yield %alloc_8 : memref<2xf16>
    } else {
      %262 = arith.subi %c574062382_i64, %c469795614_i64 : i64
      %263 = vector.transpose %54, [2, 0, 1] : vector<2x11x2xf32> to vector<2x2x11xf32>
      %264 = index.mul %c4, %c14
      %265 = index.maxs %c1, %66
      %266 = vector.broadcast %cst_3 : f32 to vector<2xf32>
      %267 = vector.multi_reduction <mul>, %54, %266 [0, 1] : vector<2x11x2xf32> to vector<2xf32>
      %268 = math.tanh %15 : tensor<2x11x2xf16>
      %rank_46 = tensor.rank %8 : tensor<2x11x2xi32>
      %269 = arith.remf %cst_1, %cst_0 : f16
      affine.yield %alloc_8 : memref<2xf16>
    }
    %92 = math.fpowi %15, %13 : tensor<2x11x2xf16>, tensor<2x11x2xi32>
    %93 = arith.divf %cst_2, %cst_0 : f16
    %94 = affine.min affine_map<(d0, d1, d2, d3) -> (d1)>(%c3, %c11, %c5, %c8)
    %95 = affine.for %arg2 = 0 to 111 iter_args(%arg3 = %alloc_10) -> (memref<11x2xi1>) {
      affine.yield %alloc : memref<11x2xi1>
    }
    %96 = math.round %cst : f16
    %97 = index.divu %66, %c6
    %98 = arith.andi %c13697_i16, %c-25155_i16 : i16
    %c-25291_i16 = arith.constant -25291 : i16
    %collapsed = tensor.collapse_shape %1 [[0, 1]] : tensor<11x2xi16> into tensor<22xi16>
    %99 = vector.bitcast %36 : vector<2xi32> to vector<2xi32>
    %100 = arith.xori %c53372327_i64, %c53372327_i64 : i64
    %101 = vector.broadcast %cst_3 : f32 to vector<2xf32>
    %102 = vector.fma %101, %101, %101 : vector<2xf32>
    %103 = arith.shrui %true, %false : i1
    %104 = index.divu %78, %53
    %105 = math.ctpop %7 : tensor<2xi1>
    affine.store %c469795614_i64, %alloc_4[%c12, %c9, %c6] : memref<2x11x2xi64>
    %106 = arith.cmpf uno, %cst_3, %cst_3 : f32
    %107 = math.round %15 : tensor<2x11x2xf16>
    %108 = arith.floordivsi %c29700_i16, %c29700_i16 : i16
    vector.print %101 : vector<2xf32>
    %109 = arith.subi %c13697_i16, %c13697_i16 : i16
    %110 = arith.maxsi %c469795614_i64, %c1124090300_i64 : i64
    affine.store %c469795614_i64, %alloc_14[%c12, %c3] : memref<11x2xi64>
    %rank_28 = tensor.rank %12 : tensor<11x2xi1>
    %111 = index.maxs %rank_28, %c14
    %112 = math.powf %cst, %cst : f16
    %113 = math.powf %6, %6 : tensor<11x2xf16>
    %114 = affine.apply affine_map<(d0, d1) -> (d1 - 4)>(%c5, %c14)
    %115 = vector.transpose %41, [] : vector<i64> to vector<i64>
    %116 = vector.splat %false : vector<2xi1>
    affine.for %arg2 = 0 to 89 {
    }
    %117 = math.floor %cst : f16
    %118 = index.maxs %c2, %c12
    %119 = tensor.empty() : tensor<11x2xi16>
    %mapped = linalg.map ins(%alloc_15, %1, %1 : memref<11x2xi16>, tensor<11x2xi16>, tensor<11x2xi16>) outs(%119 : tensor<11x2xi16>)
      (%in: i16, %in_46: i16, %in_47: i16) {
        %262 = math.powf %cst_1, %cst_0 : f16
        %263 = vector.contract {indexing_maps = [affine_map<(d0) -> (d0)>, affine_map<(d0) -> (d0)>, affine_map<(d0) -> ()>], iterator_types = ["reduction"], kind = #vector.kind<or>} %19, %99, %c949626383_i32 : vector<2xi32>, vector<2xi32> into i32
        %264 = tensor.empty() : tensor<2x7xi32>
        %265 = tensor.empty() : tensor<11x7xi32>
        %266 = linalg.matmul ins(%10, %264 : tensor<11x2xi32>, tensor<2x7xi32>) outs(%265 : tensor<11x7xi32>) -> tensor<11x7xi32>
        %267 = vector.broadcast %c949626383_i32 : i32 to vector<7x15xi32>
        %268 = vector.transfer_write %267, %8[%79, %c6, %c4] {permutation_map = affine_map<(d0, d1, d2) -> (d0, d1)>} : vector<7x15xi32>, tensor<2x11x2xi32>
        %alloc_48 = memref.alloc() : memref<2x11x2xi1>
        memref.copy %alloc_24, %alloc_48 : memref<2x11x2xi1> to memref<2x11x2xi1>
        %269 = arith.addf %cst_0, %cst : f16
        %270 = memref.atomic_rmw addf %cst_2, %alloc_7[%c8, %c0] : (f16, memref<11x2xf16>) -> f16
        memref.assume_alignment %alloc_10, 4 : memref<11x2xi1>
        %271 = arith.muli %false_25, %false : i1
        %272 = index.mul %77, %c5
        %273 = affine.if affine_set<(d0, d1) : (d1 * 2 - 2 == 0, (d1 - d0) * 64 >= 0, d1 >= 0)>(%c0, %c15) -> i32 {
          %294 = bufferization.to_tensor %alloc_11 : memref<11x2xi64>
          %295 = arith.ceildivsi %false_25, %true : i1
          %296 = math.round %cst_0 : f16
          %297 = arith.minsi %in, %c13697_i16 : i16
          %298 = math.round %15 : tensor<2x11x2xf16>
          %299 = math.ipowi %reduced, %7 : tensor<2xi1>
          %300 = index.casts %78 : index to i32
          %inserted_54 = tensor.insert %false_25 into %5[%c1] : tensor<2xi1>
          affine.yield %c949626383_i32 : i32
        } else {
          %294 = arith.cmpi sge, %false, %false : i1
          %295 = math.floor %cst_2 : f16
          affine.store %cst_3, %alloc_18[%c12, %c12] : memref<11x2xf32>
          %296 = bufferization.to_tensor %alloc_9 : memref<2xi32>
          %297 = math.fpowi %cst_1, %c949626383_i32 : f16, i32
          %298 = arith.subi %c469795614_i64, %c1124090300_i64 : i64
          %extracted_54 = tensor.extract %collapsed[%c8] : tensor<22xi16>
          %299 = bufferization.to_memref %9 : memref<2x11x2xi64>
          affine.yield %c949626383_i32 : i32
        }
        %274 = index.casts %c468925637_i64 : i64 to index
        %alloc_49 = memref.alloc() : memref<2x11x2xi64>
        memref.copy %alloc_4, %alloc_49 : memref<2x11x2xi64> to memref<2x11x2xi64>
        %275 = arith.cmpf une, %cst, %cst_2 : f16
        %false_50 = index.bool.constant false
        %276 = vector.broadcast %c949626383_i32 : i32 to vector<2x2xi32>
        %277 = vector.outerproduct %30, %75, %276 {kind = #vector.kind<and>} : vector<2xi32>, vector<2xi32>
        %278 = arith.divf %cst_2, %cst_2 : f16
        %279 = arith.remui %c574062382_i64, %c53372327_i64 : i64
        %280 = math.tan %15 : tensor<2x11x2xf16>
        %281 = math.log1p %cst_0 : f16
        %282 = tensor.empty() : tensor<2xf16>
        %283 = vector.broadcast %cst : f16 to vector<2xf16>
        %284 = vector.gather %282[%c14] [%19], %61, %283 : tensor<2xf16>, vector<2xi32>, vector<2xi1>, vector<2xf16> into vector<2xf16>
        %285 = vector.splat %c13697_i16 : vector<2x11x2xi16>
        %286 = arith.addf %cst_2, %cst_0 : f16
        %287 = memref.atomic_rmw addi %c574062382_i64, %alloc_14[%c2, %c0] : (i64, memref<11x2xi64>) -> i64
        %288 = math.atan %15 : tensor<2x11x2xf16>
        %289 = arith.shli %true, %false : i1
        %290 = affine.min affine_map<(d0, d1, d2, d3) -> ((d0 ceildiv 128) mod 16)>(%c14, %76, %c12, %94)
        %291 = arith.addf %cst_2, %cst_0 : f16
        %292 = math.ipowi %in_46, %in : i16
        %inserted_51 = tensor.insert %c949626383_i32 into %10[%c3, %c1] : tensor<11x2xi32>
        %293 = tensor.empty() : tensor<2xi64>
        %mapped_52 = linalg.map ins(%3, %72, %16 : tensor<2xi64>, tensor<2xi64>, tensor<2xi64>) outs(%293 : tensor<2xi64>)
          (%in_54: i64, %in_55: i64, %in_56: i64) {
            memref.copy %alloc_20, %27 : memref<2xi64> to memref<2xi64>
            %splat_57 = tensor.splat %cst : tensor<2xf16>
            %294 = arith.cmpi eq, %c53372327_i64, %c469795614_i64 : i64
            %rank_58 = tensor.rank %5 : tensor<2xi1>
            %295 = arith.remf %cst_0, %cst : f16
            %296 = index.casts %c8 : index to i32
            %297 = vector.broadcast %cst_1 : f16 to vector<7xf16>
            %298 = vector.transfer_write %297, %15[%66, %c8, %c8] {permutation_map = affine_map<(d0, d1, d2) -> (d0)>} : vector<7xf16>, tensor<2x11x2xf16>
            %299 = affine.apply affine_map<(d0, d1, d2, d3) -> ((-d1) ceildiv 128 + d1)>(%c12, %c7, %c5, %272)
            %300 = index.maxu %c6, %c13
            %rank_59 = tensor.rank %11 : tensor<2xf32>
            %301 = affine.load %alloc_11[%c8, %c14] : memref<11x2xi64>
            vector.print %41 : vector<i64>
            %302 = arith.divsi %in_55, %301 : i64
            %303 = math.powf %282, %282 : tensor<2xf16>
            affine.store %cst_3, %alloc_5[%c11, %c13] : memref<11x2xf32>
            %from_elements_60 = tensor.from_elements %in_54, %c1124090300_i64 : tensor<2xi64>
            memref.assume_alignment %alloc_20, 1 : memref<2xi64>
            %alloc_61 = memref.alloc() : memref<2xi16>
            %alloca = memref.alloca() : memref<11x2xf16>
            %304 = memref.realloc %alloc_8 : memref<2xf16> to memref<15xf16>
            %splat_62 = tensor.splat %c13697_i16 : tensor<2xi16>
            %rank_63 = tensor.rank %21 : tensor<i64>
            %305 = vector.load %alloc_4[%c1, %c5, %c0] : memref<2x11x2xi64>, vector<2xi64>
            %306 = index.mul %rank_28, %c8
            %307 = arith.addf %cst_2, %cst_1 : f16
            %308 = vector.transpose %284, [0] : vector<2xf16> to vector<2xf16>
            %309 = arith.andi %c13697_i16, %c13697_i16 : i16
            %310 = math.atan %cst_1 : f16
            %311 = arith.remsi %in_47, %in : i16
            %from_elements_64 = tensor.from_elements %cst_0, %cst_1, %cst_0, %cst, %cst_2, %cst_1, %cst_0, %cst, %cst_0, %cst_0, %cst_1, %cst, %cst_2, %cst_1, %cst_1, %cst_1, %cst_2, %cst_1, %cst, %cst_2, %cst_1, %cst_1 : tensor<11x2xf16>
            %312 = arith.cmpi ule, %in_54, %c574062382_i64 : i64
            %313 = vector.shuffle %305, %305 [0, 1, 3] : vector<2xi64>, vector<2xi64>
            %c0_i64 = arith.constant 0 : i64
            linalg.yield %c0_i64 : i64
          }
        %rank_53 = tensor.rank %collapsed : tensor<22xi16>
        %c1_i16 = arith.constant 1 : i16
        linalg.yield %c1_i16 : i16
      }
    %120 = affine.max affine_map<(d0) -> (((-d0) mod 2) * -16, ((-d0) mod 2) * -16, ((-d0) mod 2) * 16, (-d0) mod 32)>(%c6)
    %121 = index.sub %rank_28, %c6
    %122 = arith.divui %false, %false_25 : i1
    %123 = vector.broadcast %cst_3 : f32 to vector<2x11x2xf32>
    %124 = vector.fma %123, %54, %55 : vector<2x11x2xf32>
    %125 = arith.muli %c53372327_i64, %c469795614_i64 : i64
    %126 = index.maxs %118, %89
    %127 = arith.ceildivsi %false_25, %false_25 : i1
    %from_elements_29 = tensor.from_elements %false, %true, %false, %false_25, %false, %true, %false, %false_25, %false_25, %false, %false, %false, %false_25, %false_25, %false, %true, %false_25, %false_25, %true, %false, %true, %false_25 : tensor<11x2xi1>
    %128 = index.ceildivu %76, %rank
    %129 = arith.subi %c13697_i16, %c29700_i16 : i16
    %from_elements_30 = tensor.from_elements %c13697_i16, %c29700_i16, %c29700_i16, %c29700_i16, %c29700_i16, %c13697_i16, %c29700_i16, %c29700_i16, %c-25155_i16, %c13697_i16, %c-25155_i16, %c29700_i16, %c-25155_i16, %c29700_i16, %c29700_i16, %c13697_i16, %c-25155_i16, %c-25155_i16, %c13697_i16, %c-25155_i16, %c-25155_i16, %c-25155_i16 : tensor<11x2xi16>
    %130 = vector.load %alloc_8[%c1] : memref<2xf16>, vector<11x2xf16>
    %131 = index.maxu %121, %c8
    %132 = arith.negf %cst_3 : f32
    %133 = arith.subi %false_25, %false_25 : i1
    %134 = math.atan %15 : tensor<2x11x2xf16>
    %135 = math.copysign %6, %6 : tensor<11x2xf16>
    scf.index_switch %76 
    case 1 {
      %c26757051_i64 = arith.constant 26757051 : i64
      %262 = arith.remui %false, %false_25 : i1
      %263 = arith.remsi %c949626383_i32, %c949626383_i32 : i32
      %264 = arith.maxsi %c574062382_i64, %c53372327_i64 : i64
      %265 = arith.remsi %false, %true : i1
      %266 = vector.contract {indexing_maps = [affine_map<(d0) -> (d0)>, affine_map<(d0) -> (d0)>, affine_map<(d0) -> ()>], iterator_types = ["reduction"], kind = #vector.kind<xor>} %75, %75, %c949626383_i32 : vector<2xi32>, vector<2xi32> into i32
      %267 = vector.broadcast %cst_3 : f32 to vector<11x2xf32>
      %268 = vector.fma %267, %267, %267 : vector<11x2xf32>
      %269 = arith.subi %c1124090300_i64, %c1124090300_i64 : i64
      %alloc_46 = memref.alloc() : memref<2x11x2xi16>
      %270 = math.round %15 : tensor<2x11x2xf16>
      %271 = arith.muli %c469795614_i64, %c1124090300_i64 : i64
      %272 = arith.subi %true, %false : i1
      %273 = math.sqrt %15 : tensor<2x11x2xf16>
      %274 = arith.floordivsi %c574062382_i64, %c53372327_i64 : i64
      %275 = math.expm1 %cst_0 : f16
      %276 = math.log1p %15 : tensor<2x11x2xf16>
      scf.yield
    }
    default {
      %262 = math.absi %16 : tensor<2xi64>
      %alloc_46 = memref.alloc() : memref<2x11x2xf32>
      %263 = affine.min affine_map<(d0, d1, d2) -> (d0)>(%c4, %66, %59)
      %264 = index.maxs %c7, %263
      %265 = affine.for %arg2 = 0 to 5 iter_args(%arg3 = %66) -> (index) {
        affine.yield %128 : index
      }
      %266 = arith.remsi %true, %true : i1
      %267 = vector.transpose %36, [0] : vector<2xi32> to vector<2xi32>
      %268 = arith.divui %false, %false : i1
      %269 = index.divu %131, %263
      %270 = bufferization.to_tensor %38 : memref<2x11x2xi32>
      %271 = arith.cmpi sgt, %c29700_i16, %c29700_i16 : i16
      %272 = math.fma %6, %6, %6 : tensor<11x2xf16>
      %alloc_47 = memref.alloc() : memref<11x2xi32>
      %273 = vector.broadcast %cst_3 : f32 to vector<11x2x11x2xf32>
      %274 = vector.contract {indexing_maps = [affine_map<(d0, d1, d2, d3, d4) -> (d4, d0, d1)>, affine_map<(d0, d1, d2, d3, d4) -> (d4, d2, d3)>, affine_map<(d0, d1, d2, d3, d4) -> (d0, d1, d2, d3)>], iterator_types = ["parallel", "parallel", "parallel", "parallel", "reduction"], kind = #vector.kind<add>} %55, %124, %273 : vector<2x11x2xf32>, vector<2x11x2xf32> into vector<11x2x11x2xf32>
      %275 = arith.floordivsi %c53372327_i64, %c574062382_i64 : i64
      %276 = index.maxs %c0, %97
    }
    %136 = index.divu %120, %c14
    %137 = arith.divf %cst_2, %cst_1 : f16
    %138 = vector.broadcast %false : i1 to vector<i1>
    %139 = vector.transfer_write %138, %from_elements[%136, %128, %126] : vector<i1>, tensor<2x11x2xi1>
    %140 = affine.if affine_set<(d0, d1) : ((d1 + d0 * 2) floordiv 128 >= 0, (d1 + d0 * 2) floordiv 128 >= 0)>(%c3, %c6) -> i1 {
      %262 = arith.andi %c1124090300_i64, %c53372327_i64 : i64
      %263 = memref.atomic_rmw maxu %c574062382_i64, %alloc_11[%c9, %c0] : (i64, memref<11x2xi64>) -> i64
      %264 = arith.maxf %cst_1, %cst_0 : f16
      %265 = scf.while (%arg2 = %61) : (vector<2xi1>) -> vector<2xi1> {
        %271 = math.sqrt %6 : tensor<11x2xf16>
        %272 = arith.remsi %c1124090300_i64, %c1124090300_i64 : i64
        %273 = arith.divf %cst, %cst_1 : f16
        %274 = vector.broadcast %cst_3 : f32 to vector<11x2xf32>
        %275 = vector.fma %274, %274, %274 : vector<11x2xf32>
        %276 = index.mul %c9, %131
        %from_elements_47 = tensor.from_elements %c949626383_i32, %c949626383_i32 : tensor<2xi32>
        %277 = arith.negf %cst : f16
        %278 = vector.bitcast %123 : vector<2x11x2xf32> to vector<2x11x2xi32>
        scf.condition(%false_25) %62 : vector<2xi1>
      } do {
      ^bb0(%arg2: vector<2xi1>):
        %271 = vector.broadcast %c949626383_i32 : i32 to vector<7x15xi32>
        %272 = vector.transfer_write %271, %13[%c15, %111, %136] {permutation_map = affine_map<(d0, d1, d2) -> (d0, d1)>} : vector<7x15xi32>, tensor<2x11x2xi32>
        %273 = vector.broadcast %cst_0 : f16 to vector<2x2xf16>
        %274 = vector.contract {indexing_maps = [affine_map<(d0, d1, d2) -> (d2, d0)>, affine_map<(d0, d1, d2) -> (d2, d1)>, affine_map<(d0, d1, d2) -> (d0, d1)>], iterator_types = ["parallel", "parallel", "reduction"], kind = #vector.kind<mul>} %130, %130, %273 : vector<11x2xf16>, vector<11x2xf16> into vector<2x2xf16>
        %275 = arith.remsi %c-25155_i16, %c13697_i16 : i16
        %276 = math.floor %6 : tensor<11x2xf16>
        %277 = vector.multi_reduction <mul>, %99, %30 [] : vector<2xi32> to vector<2xi32>
        %278 = affine.load %alloc_14[%c0, %c6] : memref<11x2xi64>
        %279 = arith.andi %c13697_i16, %c-25155_i16 : i16
        %280 = math.sqrt %15 : tensor<2x11x2xf16>
        %281 = arith.remsi %c13697_i16, %c-25155_i16 : i16
        %282 = math.absi %2 : tensor<11x2xi1>
        affine.store %c574062382_i64, %alloc_16[%c12] : memref<2xi64>
        %283 = vector.transpose %51, [] : vector<i64> to vector<i64>
        %284 = affine.min affine_map<(d0, d1, d2) -> (d0 + d1 + d1 ceildiv 16, -(d0 + d1), d1 ceildiv 16)>(%c14, %c12, %76)
        %285 = arith.addi %c1124090300_i64, %c53372327_i64 : i64
        memref.assume_alignment %alloc_16, 1 : memref<2xi64>
        %286 = vector.broadcast %false_25 : i1 to vector<2x2xi1>
        %287 = vector.outerproduct %62, %61, %286 {kind = #vector.kind<and>} : vector<2xi1>, vector<2xi1>
        scf.yield %61 : vector<2xi1>
      }
      %266 = index.ceildivu %120, %111
      %alloc_46 = memref.alloc() : memref<11x2xi1>
      %267 = vector.broadcast %c574062382_i64 : i64 to vector<11xi64>
      %268 = vector.broadcast %true : i1 to vector<11xi1>
      %269 = vector.maskedload %alloc_11[%c7, %c0], %268, %267 : memref<11x2xi64>, vector<11xi1>, vector<11xi64> into vector<11xi64>
      %270 = arith.floordivsi %c-25155_i16, %c-25155_i16 : i16
      affine.yield %true : i1
    } else {
      %262 = scf.while (%arg2 = %36) : (vector<2xi32>) -> vector<2xi32> {
        %268 = arith.minsi %true, %true : i1
        %269 = math.floor %6 : tensor<11x2xf16>
        %splat_47 = tensor.splat %c574062382_i64 : tensor<11x2xi64>
        %270 = index.divs %97, %104
        %rank_48 = tensor.rank %9 : tensor<2x11x2xi64>
        %271 = math.floor %15 : tensor<2x11x2xf16>
        %272 = arith.maxf %cst, %cst_0 : f16
        %273 = math.powf %11, %11 : tensor<2xf32>
        scf.condition(%false) %30 : vector<2xi32>
      } do {
      ^bb0(%arg2: vector<2xi32>):
        %268 = arith.divsi %c1124090300_i64, %c469795614_i64 : i64
        %269 = vector.contract {indexing_maps = [affine_map<(d0) -> (d0)>, affine_map<(d0) -> (d0)>, affine_map<(d0) -> ()>], iterator_types = ["reduction"], kind = #vector.kind<minsi>} %36, %75, %c949626383_i32 : vector<2xi32>, vector<2xi32> into i32
        %270 = vector.load %alloc_14[%c5, %c0] : memref<11x2xi64>, vector<11x2xi64>
        %271 = arith.cmpf ugt, %cst_0, %cst : f16
        %rank_47 = tensor.rank %3 : tensor<2xi64>
        %272 = arith.addf %cst_0, %cst : f16
        %273 = arith.ceildivsi %c574062382_i64, %c574062382_i64 : i64
        %expanded_48 = tensor.expand_shape %5 [[0, 1]] : tensor<2xi1> into tensor<2x1xi1>
        %274 = arith.subi %c469795614_i64, %c1124090300_i64 : i64
        %alloc_49 = memref.alloc() : memref<11x2xi64>
        %275 = arith.subi %c29700_i16, %c29700_i16 : i16
        %rank_50 = tensor.rank %from_elements_30 : tensor<11x2xi16>
        %276 = vector.shuffle %36, %36 [2] : vector<2xi32>, vector<2xi32>
        %277 = index.mul %c14, %c9
        %278 = arith.minf %cst_0, %cst_0 : f16
        %rank_51 = tensor.rank %14 : tensor<2x11x2xi1>
        scf.yield %30 : vector<2xi32>
      }
      %263 = math.atan %15 : tensor<2x11x2xf16>
      %264 = math.log1p %cst : f16
      %265 = arith.xori %c468925637_i64, %c574062382_i64 : i64
      %c24506_i16 = arith.constant 24506 : i16
      %266 = arith.floordivsi %c53372327_i64, %c469795614_i64 : i64
      %267 = math.floor %cst_3 : f32
      %inserted_46 = tensor.insert %false into %12[%c6, %c0] : tensor<11x2xi1>
      affine.yield %true : i1
    }
    %from_elements_31 = tensor.from_elements %cst_0, %cst, %cst_0, %cst_0, %cst_1, %cst_1, %cst_0, %cst, %cst_0, %cst_2, %cst_0, %cst_1, %cst_0, %cst_2, %cst_0, %cst, %cst_1, %cst_2, %cst_1, %cst_1, %cst_1, %cst_0, %cst, %cst, %cst, %cst_2, %cst_2, %cst_2, %cst_0, %cst_0, %cst_1, %cst_0, %cst_1, %cst_2, %cst_1, %cst_0, %cst_1, %cst, %cst, %cst, %cst, %cst_2, %cst_0, %cst : tensor<2x11x2xf16>
    %141 = bufferization.to_memref %14 : memref<2x11x2xi1>
    %142 = affine.min affine_map<(d0, d1) -> (d0, (d0 ceildiv 64 + 1) floordiv 4, d0 - 1, d0 ceildiv 64)>(%79, %126)
    %143 = tensor.empty() : tensor<11x2xi64>
    %mapped_32 = linalg.map ins(%alloc_11, %alloc_11, %alloc_14 : memref<11x2xi64>, memref<11x2xi64>, memref<11x2xi64>) outs(%143 : tensor<11x2xi64>)
      (%in: i64, %in_46: i64, %in_47: i64) {
        %262 = arith.maxf %cst_0, %cst_1 : f16
        %263 = arith.ori %c469795614_i64, %in : i64
        %264 = math.atan %cst_2 : f16
        %rank_48 = tensor.rank %11 : tensor<2xf32>
        %265 = vector.matrix_multiply %61, %61 {lhs_columns = 2 : i32, lhs_rows = 1 : i32, rhs_columns = 1 : i32} : (vector<2xi1>, vector<2xi1>) -> vector<1xi1>
        affine.for %arg2 = 0 to 8 {
        }
        %266 = index.maxs %c4, %rank
        %267 = arith.floordivsi %in, %c574062382_i64 : i64
        %268 = arith.shrsi %in, %c469795614_i64 : i64
        %alloca = memref.alloca() : memref<2xi16>
        %269 = tensor.empty() : tensor<11x2xi64>
        memref.copy %27, %alloc_19 : memref<2xi64> to memref<2xi64>
        %270 = tensor.empty() : tensor<2x7xf16>
        %271 = tensor.empty() : tensor<11x7xf16>
        %272 = linalg.matmul ins(%6, %270 : tensor<11x2xf16>, tensor<2x7xf16>) outs(%271 : tensor<11x7xf16>) -> tensor<11x7xf16>
        %273 = vector.splat %77 : vector<2x11x2xindex>
        %274 = arith.andi %c53372327_i64, %c53372327_i64 : i64
        %275 = vector.create_mask %53, %79, %c15 : vector<2x11x2xi1>
        %276 = affine.for %arg2 = 0 to 66 iter_args(%arg3 = %collapsed) -> (tensor<22xi16>) {
          affine.yield %collapsed : tensor<22xi16>
        }
        affine.for %arg2 = 0 to 23 {
        }
        %277 = vector.transpose %51, [] : vector<i64> to vector<i64>
        %278 = index.maxu %83, %266
        %279 = vector.flat_transpose %99 {columns = 1 : i32, rows = 2 : i32} : vector<2xi32> -> vector<2xi32>
        %280 = arith.cmpi ult, %true, %false : i1
        %281 = math.sqrt %cst_3 : f32
        %282 = affine.apply affine_map<(d0, d1, d2) -> (((d1 mod 4) floordiv 32) * 64)>(%120, %59, %278)
        %alloca_49 = memref.alloca() : memref<2xi64>
        %283 = bufferization.to_tensor %alloc_6 : memref<2x11x2xf32>
        %284 = tensor.empty() : tensor<2x15xi32>
        %285 = tensor.empty() : tensor<11x15xi32>
        %286 = linalg.matmul ins(%10, %284 : tensor<11x2xi32>, tensor<2x15xi32>) outs(%285 : tensor<11x15xi32>) -> tensor<11x15xi32>
        %287 = index.ceildivu %53, %c9
        %288 = arith.maxf %cst_2, %cst_2 : f16
        %289 = affine.load %alloc_19[%c15] : memref<2xi64>
        %rank_50 = tensor.rank %14 : tensor<2x11x2xi1>
        %290 = arith.negf %cst_1 : f16
        %c0_i64 = arith.constant 0 : i64
        linalg.yield %c0_i64 : i64
      }
    %144 = memref.atomic_rmw andi %c53372327_i64, %alloc_11[%c7, %c0] : (i64, memref<11x2xi64>) -> i64
    %145 = arith.shrsi %c469795614_i64, %c53372327_i64 : i64
    %146 = arith.floordivsi %false, %false_25 : i1
    %147 = memref.atomic_rmw andi %c949626383_i32, %alloc_9[%c0] : (i32, memref<2xi32>) -> i32
    %148 = arith.addi %c949626383_i32, %c949626383_i32 : i32
    %149 = math.floor %from_elements_31 : tensor<2x11x2xf16>
    %collapsed_33 = tensor.collapse_shape %1 [[0, 1]] : tensor<11x2xi16> into tensor<22xi16>
    %150 = bufferization.to_memref %72 : memref<2xi64>
    %151 = arith.addf %cst, %cst_0 : f16
    %152 = index.divu %c0, %rank
    %153 = math.round %cst_2 : f16
    memref.assume_alignment %27, 2 : memref<2xi64>
    %154 = vector.extract %101[0] : vector<2xf32>
    %155 = arith.remf %cst_0, %cst_0 : f16
    %156 = arith.shrui %c469795614_i64, %c574062382_i64 : i64
    %157 = vector.insert %c949626383_i32, %19 [1] : i32 into vector<2xi32>
    %158 = arith.maxui %c469795614_i64, %c53372327_i64 : i64
    %159 = scf.if %true -> (memref<2xi1>) {
      %262 = vector.splat %142 : vector<11x2xindex>
      %extracted_46 = tensor.extract %3[%c1] : tensor<2xi64>
      %263 = index.maxu %53, %c13
      %264 = affine.for %arg2 = 0 to 40 iter_args(%arg3 = %cst_1) -> (f16) {
        affine.yield %cst_1 : f16
      }
      %265 = index.maxs %89, %rank
      %266 = arith.ori %c29700_i16, %c13697_i16 : i16
      %267 = arith.maxf %cst_2, %cst_1 : f16
      %268 = index.castu %c14 : index to i32
      %alloc_47 = memref.alloc() : memref<2xi1>
      scf.yield %alloc_47 : memref<2xi1>
    } else {
      %262 = math.log10 %cst_3 : f32
      memref.assume_alignment %alloc_8, 4 : memref<2xf16>
      scf.index_switch %c10 
      case 1 {
        %270 = arith.subi %false_25, %true : i1
        %271 = arith.addi %c13697_i16, %c13697_i16 : i16
        %272 = arith.addf %cst_2, %cst : f16
        %273 = arith.minf %cst_0, %cst : f16
        %274 = index.ceildivu %c0, %65
        %275 = arith.muli %c1124090300_i64, %c468925637_i64 : i64
        %276 = arith.addi %c-25155_i16, %c13697_i16 : i16
        %277 = vector.insert %c949626383_i32, %36 [0] : i32 into vector<2xi32>
        %278 = arith.muli %c29700_i16, %c13697_i16 : i16
        %279 = index.castu %c949626383_i32 : i32 to index
        %280 = arith.floordivsi %false, %false_25 : i1
        %281 = arith.divui %false, %false : i1
        memref.assume_alignment %alloc_10, 1 : memref<11x2xi1>
        %282 = index.ceildivs %94, %c5
        %283 = arith.divf %cst_1, %cst_2 : f16
        %284 = index.divu %136, %53
        scf.yield
      }
      case 2 {
        %270 = bufferization.to_memref %collapsed : memref<22xi16>
        memref.copy %alloc_12, %alloc_9 : memref<2xi32> to memref<2xi32>
        %alloc_47 = memref.alloc() : memref<2x11x2xi32>
        memref.copy %38, %alloc_47 : memref<2x11x2xi32> to memref<2x11x2xi32>
        %271 = arith.minsi %true, %false_25 : i1
        %272 = memref.atomic_rmw mulf %cst_2, %alloc_8[%c1] : (f16, memref<2xf16>) -> f16
        %273 = vector.bitcast %62 : vector<2xi1> to vector<2xi1>
        %274 = arith.remf %cst, %cst_0 : f16
        %275 = math.ipowi %9, %9 : tensor<2x11x2xi64>
        %276 = vector.transpose %102, [0] : vector<2xf32> to vector<2xf32>
        %277 = vector.multi_reduction <maxf>, %101, %101 [] : vector<2xf32> to vector<2xf32>
        %278 = vector.broadcast %cst_3 : f32 to vector<11x2x11x2xf32>
        %279 = vector.contract {indexing_maps = [affine_map<(d0, d1, d2, d3, d4) -> (d4, d0, d1)>, affine_map<(d0, d1, d2, d3, d4) -> (d4, d2, d3)>, affine_map<(d0, d1, d2, d3, d4) -> (d0, d1, d2, d3)>], iterator_types = ["parallel", "parallel", "parallel", "parallel", "reduction"], kind = #vector.kind<mul>} %55, %123, %278 : vector<2x11x2xf32>, vector<2x11x2xf32> into vector<11x2x11x2xf32>
        %280 = math.round %11 : tensor<2xf32>
        %281 = arith.xori %false, %false : i1
        %282 = vector.multi_reduction <mul>, %102, %cst_3 [0] : vector<2xf32> to f32
        %283 = index.add %rank_28, %89
        %284 = index.ceildivu %c1, %c7
        scf.yield
      }
      default {
        %270 = math.cttz %12 : tensor<11x2xi1>
        %271 = arith.divui %c574062382_i64, %c574062382_i64 : i64
        %272 = math.fpowi %15, %13 : tensor<2x11x2xf16>, tensor<2x11x2xi32>
        %rank_47 = tensor.rank %0 : tensor<2xi64>
        %273 = vector.broadcast %cst_3 : f32 to vector<2x11xf32>
        %dest, %accumulated_value = vector.scan <mul>, %124, %273 {inclusive = true, reduction_dim = 2 : i64} : vector<2x11x2xf32>, vector<2x11xf32>
        %274 = affine.max affine_map<(d0, d1, d2) -> (d0 - d2 - 32, d2 ceildiv 2, (d0 - d2 - (d0 - d2 - 32) + (d0 - d2) floordiv 16 - 10) floordiv 8 - 20)>(%rank_28, %79, %97)
        memref.copy %141, %alloc_24 : memref<2x11x2xi1> to memref<2x11x2xi1>
        %275 = math.ctlz %true : i1
        %276 = index.mul %94, %66
        %inserted_48 = tensor.insert %c468925637_i64 into %9[%c0, %c4, %c0] : tensor<2x11x2xi64>
        %277 = arith.subi %c949626383_i32, %c949626383_i32 : i32
        %278 = arith.addi %c53372327_i64, %c574062382_i64 : i64
        %279 = math.round %15 : tensor<2x11x2xf16>
        %collapsed_49 = tensor.collapse_shape %10 [[0, 1]] : tensor<11x2xi32> into tensor<22xi32>
        %280 = vector.multi_reduction <maxsi>, %19, %36 [] : vector<2xi32> to vector<2xi32>
        %281 = math.fpowi %cst_0, %c949626383_i32 : f16, i32
      }
      %263 = math.exp2 %6 : tensor<11x2xf16>
      %264 = tensor.empty() : tensor<2x2xi64>
      %265 = tensor.empty() : tensor<11x2xi64>
      %266 = linalg.matmul ins(%143, %264 : tensor<11x2xi64>, tensor<2x2xi64>) outs(%265 : tensor<11x2xi64>) -> tensor<11x2xi64>
      %267 = math.cos %cst_3 : f32
      %268 = memref.realloc %150 : memref<2xi64> to memref<11xi64>
      %269 = scf.index_switch %142 -> i16 
      case 1 {
        %270 = arith.shrui %c469795614_i64, %c53372327_i64 : i64
        %271 = math.ctlz %18 : tensor<2xi1>
        %272 = math.ctlz %c1124090300_i64 : i64
        %273 = vector.broadcast %false_25 : i1 to vector<11x2xi1>
        %274 = vector.broadcast %c949626383_i32 : i32 to vector<11x2xi32>
        %275 = vector.gather %alloc_24[%142, %c7, %83] [%274], %273, %273 : memref<2x11x2xi1>, vector<11x2xi32>, vector<11x2xi1>, vector<11x2xi1> into vector<11x2xi1>
        %276 = bufferization.to_tensor %alloc_19 : memref<2xi64>
        %277 = vector.broadcast %cst_3 : f32 to vector<11x2xf32>
        %278 = vector.fma %277, %277, %277 : vector<11x2xf32>
        %279 = math.ceil %cst_0 : f16
        affine.store %c468925637_i64, %alloc_11[%c9, %c7] : memref<11x2xi64>
        %280 = math.sqrt %15 : tensor<2x11x2xf16>
        %281 = vector.splat %c11 : vector<2x11x2xindex>
        %282 = math.floor %11 : tensor<2xf32>
        %283 = math.ctlz %21 : tensor<i64>
        %284 = index.casts %c9 : index to i32
        %285 = math.log2 %15 : tensor<2x11x2xf16>
        %286 = vector.splat %c4 : vector<2x11x2xindex>
        %287 = arith.ori %c-25155_i16, %c29700_i16 : i16
        scf.yield %c13697_i16 : i16
      }
      case 2 {
        %270 = affine.max affine_map<(d0) -> (d0, 0, d0 ceildiv 2)>(%152)
        %271 = arith.cmpi eq, %false, %false_25 : i1
        %272 = tensor.empty() : tensor<2x2xi1>
        %273 = tensor.empty() : tensor<11x2xi1>
        %274 = linalg.matmul ins(%2, %272 : tensor<11x2xi1>, tensor<2x2xi1>) outs(%273 : tensor<11x2xi1>) -> tensor<11x2xi1>
        %275 = arith.cmpf one, %cst_1, %cst : f16
        %276 = math.absi %c949626383_i32 : i32
        %277 = arith.divsi %c468925637_i64, %c1124090300_i64 : i64
        %278 = math.tanh %cst_2 : f16
        %279 = arith.cmpi slt, %c468925637_i64, %c1124090300_i64 : i64
        %c305737605_i32 = arith.constant 305737605 : i32
        %280 = vector.reduction <maxsi>, %62 : vector<2xi1> into i1
        %splat_47 = tensor.splat %cst_2 : tensor<2x11x2xf16>
        %281 = math.powf %15, %15 : tensor<2x11x2xf16>
        %282 = math.round %15 : tensor<2x11x2xf16>
        %283 = math.powf %cst_1, %cst : f16
        %284 = tensor.empty() : tensor<2x15xf16>
        %285 = tensor.empty() : tensor<11x15xf16>
        %286 = linalg.matmul ins(%6, %284 : tensor<11x2xf16>, tensor<2x15xf16>) outs(%285 : tensor<11x15xf16>) -> tensor<11x15xf16>
        %287 = affine.load %141[%c1, %c5, %c4] : memref<2x11x2xi1>
        scf.yield %c29700_i16 : i16
      }
      case 3 {
        %270 = vector.broadcast %c13697_i16 : i16 to vector<i16>
        %271 = vector.transfer_write %270, %collapsed_33[%c12] : vector<i16>, tensor<22xi16>
        %272 = arith.remf %cst_0, %cst : f16
        %273 = math.ctlz %143 : tensor<11x2xi64>
        %274 = memref.atomic_rmw maxf %cst_3, %alloc_18[%c9, %c1] : (f32, memref<11x2xf32>) -> f32
        %true_47 = index.bool.constant true
        %275 = vector.broadcast %c1124090300_i64 : i64 to vector<11xi64>
        %276 = vector.transfer_write %275, %265[%c4, %c8] {permutation_map = affine_map<(d0, d1) -> (d0)>} : vector<11xi64>, tensor<11x2xi64>
        %cast_48 = tensor.cast %21 : tensor<i64> to tensor<i64>
        %277 = bufferization.to_tensor %alloc_15 : memref<11x2xi16>
        %278 = arith.divui %c-25155_i16, %c-25155_i16 : i16
        %279 = math.floor %cst : f16
        %280 = affine.load %alloc_20[%c2] : memref<2xi64>
        %281 = arith.shrui %c469795614_i64, %c53372327_i64 : i64
        %282 = tensor.empty() : tensor<2xf16>
        %283 = math.exp2 %cst_2 : f16
        %284 = arith.addi %c13697_i16, %c-25155_i16 : i16
        %285 = vector.load %alloc_19[%c0] : memref<2xi64>, vector<2xi64>
        scf.yield %c29700_i16 : i16
      }
      default {
        %270 = index.floordivs %111, %c13
        %271 = arith.addf %cst_1, %cst_2 : f16
        %272 = math.absi %from_elements_30 : tensor<11x2xi16>
        %expanded_47 = tensor.expand_shape %265 [[0], [1, 2]] : tensor<11x2xi64> into tensor<11x2x1xi64>
        %273 = arith.addf %cst_3, %cst_3 : f32
        memref.assume_alignment %alloc_19, 2 : memref<2xi64>
        %274 = affine.load %alloc_7[%c13, %c7] : memref<11x2xf16>
        %275 = vector.splat %121 : vector<2xindex>
        %276 = arith.divf %cst_2, %cst : f16
        %277 = arith.divsi %c1124090300_i64, %c1124090300_i64 : i64
        %from_elements_48 = tensor.from_elements %cst_3, %cst_3, %cst_3, %cst_3, %cst_3, %cst_3, %cst_3, %cst_3, %cst_3, %cst_3, %cst_3, %cst_3, %cst_3, %cst_3, %cst_3, %cst_3, %cst_3, %cst_3, %cst_3, %cst_3, %cst_3, %cst_3 : tensor<11x2xf32>
        %278 = tensor.empty() : tensor<2x11xi16>
        %279 = tensor.empty() : tensor<11x11xi16>
        %280 = linalg.matmul ins(%1, %278 : tensor<11x2xi16>, tensor<2x11xi16>) outs(%279 : tensor<11x11xi16>) -> tensor<11x11xi16>
        %281 = arith.subi %c468925637_i64, %c53372327_i64 : i64
        %282 = vector.flat_transpose %101 {columns = 1 : i32, rows = 2 : i32} : vector<2xf32> -> vector<2xf32>
        %283 = arith.negf %cst_2 : f16
        %284 = vector.broadcast %c1124090300_i64 : i64 to vector<15xi64>
        %285 = vector.broadcast %true : i1 to vector<15xi1>
        %286 = vector.maskedload %alloc_20[%c1], %285, %284 : memref<2xi64>, vector<15xi1>, vector<15xi64> into vector<15xi64>
        scf.yield %c-25155_i16 : i16
      }
      %alloc_46 = memref.alloc() : memref<2xi1>
      scf.yield %alloc_46 : memref<2xi1>
    }
    %160 = arith.andi %c53372327_i64, %c1124090300_i64 : i64
    %161 = vector.splat %c8 : vector<11x2xindex>
    %162 = math.copysign %cst_3, %cst_3 : f32
    %163 = affine.if affine_set<(d0, d1, d2, d3) : (d1 - 17 >= 0)>(%c13, %c2, %c6, %c6) -> f16 {
      %262 = vector.broadcast %c-25155_i16 : i16 to vector<i16>
      %263 = vector.transfer_write %262, %collapsed[%c11] : vector<i16>, tensor<22xi16>
      %264 = vector.extract %99[0] : vector<2xi32>
      %265 = math.expm1 %11 : tensor<2xf32>
      %266 = arith.addi %c-25155_i16, %c-25155_i16 : i16
      %267 = arith.divui %true, %true : i1
      %268 = arith.divf %cst_2, %cst_2 : f16
      %269 = vector.splat %c949626383_i32 : vector<11x2xi32>
      %270 = math.powf %cst_3, %cst_3 : f32
      affine.yield %cst_2 : f16
    } else {
      %262 = arith.ceildivsi %false_25, %false : i1
      %263 = math.atan2 %cst_1, %cst : f16
      %264 = vector.load %alloc_15[%c8, %c1] : memref<11x2xi16>, vector<11x2xi16>
      %265 = arith.floordivsi %false_25, %false : i1
      %266 = vector.transpose %101, [0] : vector<2xf32> to vector<2xf32>
      %267 = vector.bitcast %130 : vector<11x2xf16> to vector<11x2xf16>
      %268 = arith.divsi %c-25155_i16, %c29700_i16 : i16
      %269 = math.cttz %12 : tensor<11x2xi1>
      affine.yield %cst_2 : f16
    }
    %164 = arith.cmpi ult, %c53372327_i64, %c1124090300_i64 : i64
    %165 = arith.shli %c29700_i16, %c-25155_i16 : i16
    %166 = vector.gather %alloc_17[%c5, %53] [%75], %61, %36 : memref<11x2xi32>, vector<2xi32>, vector<2xi1>, vector<2xi32> into vector<2xi32>
    %167 = math.absi %18 : tensor<2xi1>
    %168 = arith.divf %cst_0, %cst_2 : f16
    %169 = arith.subi %false_25, %true : i1
    %170 = math.sqrt %cst_3 : f32
    %171 = math.atan2 %cst_2, %cst_1 : f16
    %172 = arith.shli %c574062382_i64, %c1124090300_i64 : i64
    %173 = tensor.empty() : tensor<11x2xf16>
    %mapped_34 = linalg.map ins(%6, %6, %alloc_7 : tensor<11x2xf16>, tensor<11x2xf16>, memref<11x2xf16>) outs(%173 : tensor<11x2xf16>)
      (%in: f16, %in_46: f16, %in_47: f16) {
        %generated_48 = tensor.generate %136 {
        ^bb0(%arg2: index, %arg3: index):
          %294 = arith.divui %c13697_i16, %c13697_i16 : i16
          %295 = arith.andi %c469795614_i64, %c468925637_i64 : i64
          %cast_52 = tensor.cast %9 : tensor<2x11x2xi64> to tensor<?x?x?xi64>
          %296 = memref.load %alloc_8[%c0] : memref<2xf16>
          tensor.yield %c53372327_i64 : i64
        } : tensor<?x2xi64>
        %262 = index.mul %121, %120
        memref.copy %alloc_13, %alloc_15 : memref<11x2xi16> to memref<11x2xi16>
        %263 = arith.ceildivsi %c949626383_i32, %c949626383_i32 : i32
        %264 = math.round %173 : tensor<11x2xf16>
        %265 = vector.matrix_multiply %102, %101 {lhs_columns = 2 : i32, lhs_rows = 1 : i32, rhs_columns = 1 : i32} : (vector<2xf32>, vector<2xf32>) -> vector<1xf32>
        %266 = index.maxs %131, %c9
        %267 = math.sqrt %cst : f16
        %268 = arith.cmpf ogt, %cst_2, %in : f16
        %269 = vector.reduction <add>, %102 : vector<2xf32> into f32
        %270 = vector.insert %c949626383_i32, %166 [0] : i32 into vector<2xi32>
        %271 = arith.maxf %cst_1, %in_46 : f16
        %272 = vector.splat %79 : vector<11x2xindex>
        %273 = math.ctpop %c468925637_i64 : i64
        %274 = arith.ceildivsi %c949626383_i32, %c949626383_i32 : i32
        %275 = memref.realloc %alloc_9 : memref<2xi32> to memref<11xi32>
        %276 = math.atan2 %in, %in_47 : f16
        %277 = vector.insertelement %false_25, %62[%114 : index] : vector<2xi1>
        affine.store %c469795614_i64, %alloc_16[%c2] : memref<2xi64>
        %278 = arith.cmpf une, %cst_2, %in : f16
        %alloc_49 = memref.alloc() : memref<2x11xi16>
        %279 = tensor.empty() : tensor<11x11xi16>
        %280 = linalg.matmul ins(%from_elements_30, %alloc_49 : tensor<11x2xi16>, memref<2x11xi16>) outs(%279 : tensor<11x11xi16>) -> tensor<11x11xi16>
        %281 = arith.floordivsi %c469795614_i64, %c574062382_i64 : i64
        %282 = arith.minf %cst_2, %in_46 : f16
        %283 = vector.broadcast %cst_3 : f32 to vector<2x2xf32>
        %284 = vector.outerproduct %102, %102, %283 {kind = #vector.kind<minf>} : vector<2xf32>, vector<2xf32>
        %true_50 = arith.constant true
        %285 = math.sqrt %cst_1 : f16
        %286 = vector.broadcast %c949626383_i32 : i32 to vector<15xi32>
        %287 = vector.broadcast %false_25 : i1 to vector<15xi1>
        %288 = vector.maskedload %alloc_9[%c0], %287, %286 : memref<2xi32>, vector<15xi1>, vector<15xi32> into vector<15xi32>
        %289 = math.atan2 %cst_1, %cst_1 : f16
        %290 = arith.maxf %cst_3, %cst_3 : f32
        %291 = arith.maxsi %c29700_i16, %c-25155_i16 : i16
        %292 = vector.bitcast %102 : vector<2xf32> to vector<2xf32>
        %293 = vector.transpose %286, [0] : vector<15xi32> to vector<15xi32>
        %cst_51 = arith.constant 1.000000e+00 : f16
        linalg.yield %cst_51 : f16
      }
    %174 = affine.load %alloc_19[%c4] : memref<2xi64>
    %175 = index.maxs %114, %c9
    %176 = math.expm1 %cst_0 : f16
    %177 = arith.remf %cst_0, %cst_2 : f16
    %178 = arith.addf %cst_2, %cst : f16
    %179 = vector.transpose %123, [2, 0, 1] : vector<2x11x2xf32> to vector<2x2x11xf32>
    %splat = tensor.splat %174 : tensor<2xi64>
    %180 = arith.floordivsi %c574062382_i64, %c468925637_i64 : i64
    %181 = math.floor %6 : tensor<11x2xf16>
    %182 = arith.remsi %c-25155_i16, %c29700_i16 : i16
    %183 = index.mul %53, %111
    %184 = vector.broadcast %c949626383_i32 : i32 to vector<2x2xi32>
    %185 = vector.outerproduct %99, %36, %184 {kind = #vector.kind<minsi>} : vector<2xi32>, vector<2xi32>
    %186 = vector.broadcast %cst_3 : f32 to vector<2x2xf32>
    %187 = vector.multi_reduction <mul>, %123, %186 [1] : vector<2x11x2xf32> to vector<2x2xf32>
    %188 = math.log10 %11 : tensor<2xf32>
    %189 = index.casts %c53372327_i64 : i64 to index
    %190 = index.ceildivs %183, %152
    %191 = arith.ori %c574062382_i64, %c53372327_i64 : i64
    %192 = memref.atomic_rmw addi %c468925637_i64, %27[%c1] : (i64, memref<2xi64>) -> i64
    %inserted_35 = tensor.insert %c1124090300_i64 into %4[%c0] : tensor<2xi64>
    %cast = tensor.cast %9 : tensor<2x11x2xi64> to tensor<?x?x?xi64>
    %193 = math.powf %11, %11 : tensor<2xf32>
    %194 = index.casts %94 : index to i32
    %195 = math.log %cst_2 : f16
    %196 = affine.if affine_set<(d0, d1) : ((d1 + d0 * 2) floordiv 128 >= 0, (d1 + d0 * 2) floordiv 128 >= 0)>(%c11, %c11) -> memref<11x2xi32> {
      %262 = arith.maxsi %c468925637_i64, %174 : i64
      %263 = index.maxs %c4, %c2
      %264 = math.atan %6 : tensor<11x2xf16>
      %265 = memref.atomic_rmw minf %cst_3, %alloc_18[%c6, %c1] : (f32, memref<11x2xf32>) -> f32
      %266 = arith.divsi %c469795614_i64, %c53372327_i64 : i64
      %267 = vector.flat_transpose %62 {columns = 1 : i32, rows = 2 : i32} : vector<2xi1> -> vector<2xi1>
      %268 = math.log10 %6 : tensor<11x2xf16>
      %269 = arith.addi %c469795614_i64, %c53372327_i64 : i64
      affine.yield %alloc_17 : memref<11x2xi32>
    } else {
      %262 = math.powf %cst_1, %cst_2 : f16
      %263 = math.atan %6 : tensor<11x2xf16>
      %expanded_46 = tensor.expand_shape %14 [[0], [1], [2, 3]] : tensor<2x11x2xi1> into tensor<2x11x2x1xi1>
      %264 = arith.floordivsi %c1124090300_i64, %c1124090300_i64 : i64
      %265 = math.round %cst_1 : f16
      %266 = tensor.empty() : tensor<2xi64>
      %mapped_47 = linalg.map ins(%splat, %splat : tensor<2xi64>, tensor<2xi64>) outs(%266 : tensor<2xi64>)
        (%in: i64, %in_48: i64) {
          %alloc_49 = memref.alloc() : memref<2x11x2xf32>
          %268 = arith.addf %cst_1, %cst_2 : f16
          %collapsed_50 = tensor.collapse_shape %10 [[0, 1]] : tensor<11x2xi32> into tensor<22xi32>
          affine.store %in_48, %alloc_16[%c4] : memref<2xi64>
          %269 = arith.negf %cst_1 : f16
          %270 = math.copysign %15, %15 : tensor<2x11x2xf16>
          %271 = index.mul %136, %rank_28
          %272 = arith.maxsi %c949626383_i32, %c949626383_i32 : i32
          %273 = affine.max affine_map<(d0) -> (d0 ceildiv 16 - 256, (d0 ceildiv 16 - 256) * 32, d0 * 256)>(%79)
          %274 = math.atan2 %11, %11 : tensor<2xf32>
          %275 = math.floor %cst_0 : f16
          %276 = arith.subi %c469795614_i64, %c469795614_i64 : i64
          %277 = arith.maxf %cst_2, %cst_0 : f16
          %278 = arith.minsi %true, %true : i1
          %279 = memref.load %alloc_9[%c0] : memref<2xi32>
          %280 = affine.min affine_map<(d0, d1, d2) -> (d1, d1, ((-d2 - 16) ceildiv 8 - d0) * 2)>(%c15, %189, %77)
          %281 = vector.insertelement %c574062382_i64, %41[] : vector<i64>
          %282 = arith.minui %true, %true : i1
          %283 = arith.divf %cst_2, %cst_0 : f16
          %284 = vector.bitcast %61 : vector<2xi1> to vector<2xi1>
          %285 = arith.cmpf ugt, %cst, %cst : f16
          %286 = vector.multi_reduction <mul>, %99, %30 [] : vector<2xi32> to vector<2xi32>
          %alloc_51 = memref.alloc() : memref<2x7xi1>
          %287 = tensor.empty() : tensor<11x7xi1>
          %288 = linalg.matmul ins(%from_elements_29, %alloc_51 : tensor<11x2xi1>, memref<2x7xi1>) outs(%287 : tensor<11x7xi1>) -> tensor<11x7xi1>
          %289 = arith.negf %cst_0 : f16
          %290 = vector.outerproduct %102, %101, %186 {kind = #vector.kind<minf>} : vector<2xf32>, vector<2xf32>
          %alloc_52 = memref.alloc() : memref<2x15xi1>
          %291 = tensor.empty() : tensor<11x15xi1>
          %292 = linalg.matmul ins(%from_elements_29, %alloc_52 : tensor<11x2xi1>, memref<2x15xi1>) outs(%291 : tensor<11x15xi1>) -> tensor<11x15xi1>
          %293 = tensor.empty() : tensor<2xi16>
          %294 = vector.broadcast %c13697_i16 : i16 to vector<11x2xi16>
          %295 = vector.broadcast %true : i1 to vector<11x2xi1>
          %296 = vector.broadcast %c949626383_i32 : i32 to vector<11x2xi32>
          %297 = vector.gather %293[%c14] [%296], %295, %294 : tensor<2xi16>, vector<11x2xi32>, vector<11x2xi1>, vector<11x2xi16> into vector<11x2xi16>
          %298 = affine.min affine_map<(d0) -> (d0 * -2, d0 * 2, d0 floordiv 4)>(%66)
          %299 = arith.maxsi %false_25, %true : i1
          %300 = index.ceildivs %77, %rank_28
          %alloc_53 = memref.alloc() : memref<2x11x2xi32>
          memref.copy %38, %alloc_53 : memref<2x11x2xi32> to memref<2x11x2xi32>
          %301 = arith.andi %c13697_i16, %c13697_i16 : i16
          %c1_i64 = arith.constant 1 : i64
          linalg.yield %c1_i64 : i64
        }
      %267 = arith.remf %cst_2, %cst : f16
      scf.if %true {
        %268 = arith.shrsi %c574062382_i64, %174 : i64
        %269 = math.powf %cst_2, %cst : f16
        %270 = arith.divf %cst, %cst_0 : f16
        %271 = index.mul %97, %c6
        %272 = math.log1p %173 : tensor<11x2xf16>
        %true_48 = index.bool.constant true
        %273 = arith.xori %c13697_i16, %c29700_i16 : i16
        %274 = arith.cmpi ugt, %false_25, %false_25 : i1
      } else {
        %268 = index.castu %c0 : index to i32
        %269 = math.cttz %10 : tensor<11x2xi32>
        %270 = vector.broadcast %cst_0 : f16 to vector<7x7xf16>
        %271 = vector.transfer_write %270, %15[%c0, %c12, %c2] {permutation_map = affine_map<(d0, d1, d2) -> (d0, d1)>} : vector<7x7xf16>, tensor<2x11x2xf16>
        %272 = math.round %15 : tensor<2x11x2xf16>
        %273 = index.add %c10, %77
        %274 = arith.divsi %c574062382_i64, %174 : i64
        bufferization.dealloc_tensor %1 : tensor<11x2xi16>
        %275 = vector.insertelement %c949626383_i32, %30[%c14 : index] : vector<2xi32>
      }
      affine.yield %alloc_17 : memref<11x2xi32>
    }
    %197 = math.tan %11 : tensor<2xf32>
    %198 = vector.extract %101[1] : vector<2xf32>
    %alloc_36 = memref.alloc() : memref<2x11xi1>
    %199 = tensor.empty() : tensor<11x11xi1>
    %200 = linalg.matmul ins(%from_elements_26, %alloc_36 : tensor<11x2xi1>, memref<2x11xi1>) outs(%199 : tensor<11x11xi1>) -> tensor<11x11xi1>
    %201 = vector.broadcast %cst_3 : f32 to vector<2x11x2xf32>
    %202 = vector.fma %201, %201, %55 : vector<2x11x2xf32>
    %203 = affine.min affine_map<(d0, d1) -> (0)>(%c1, %c7)
    %204 = arith.minsi %c1124090300_i64, %c469795614_i64 : i64
    %205 = arith.cmpi sge, %true, %true : i1
    %collapsed_37 = tensor.collapse_shape %1 [[0, 1]] : tensor<11x2xi16> into tensor<22xi16>
    %splat_38 = tensor.splat %c13697_i16 : tensor<11x2xi16>
    %206 = math.powf %from_elements_31, %15 : tensor<2x11x2xf16>
    %207 = arith.ori %c13697_i16, %c29700_i16 : i16
    memref.assume_alignment %150, 1 : memref<2xi64>
    %208 = affine.load %alloc_13[%c15, %c0] : memref<11x2xi16>
    %209 = math.expm1 %6 : tensor<11x2xf16>
    %210 = arith.shrsi %c53372327_i64, %c53372327_i64 : i64
    %211 = arith.xori %c29700_i16, %208 : i16
    %212 = math.log1p %from_elements_31 : tensor<2x11x2xf16>
    %213 = memref.load %alloc_11[%c0, %c0] : memref<11x2xi64>
    %214 = index.divs %114, %c12
    %inserted_39 = tensor.insert %c469795614_i64 into %16[%c0] : tensor<2xi64>
    %215 = math.copysign %11, %11 : tensor<2xf32>
    %216 = arith.subi %c29700_i16, %c13697_i16 : i16
    %inserted_40 = tensor.insert %c949626383_i32 into %13[%c1, %c10, %c1] : tensor<2x11x2xi32>
    %217 = arith.addf %cst, %cst : f16
    %218 = arith.floordivsi %c469795614_i64, %c574062382_i64 : i64
    %219 = arith.addf %cst, %cst_1 : f16
    %220 = math.ctpop %from_elements : tensor<2x11x2xi1>
    %extracted = tensor.extract %16[%c1] : tensor<2xi64>
    %221 = arith.ori %false, %true : i1
    %222 = affine.load %alloc_20[%c9] : memref<2xi64>
    %223 = arith.maxsi %false_25, %true : i1
    %224 = arith.maxf %cst_0, %cst_0 : f16
    %225 = math.ipowi %10, %10 : tensor<11x2xi32>
    %extracted_41 = tensor.extract %0[%c0] : tensor<2xi64>
    %from_elements_42 = tensor.from_elements %c949626383_i32, %c949626383_i32, %c949626383_i32, %c949626383_i32, %c949626383_i32, %c949626383_i32, %c949626383_i32, %c949626383_i32, %c949626383_i32, %c949626383_i32, %c949626383_i32, %c949626383_i32, %c949626383_i32, %c949626383_i32, %c949626383_i32, %c949626383_i32, %c949626383_i32, %c949626383_i32, %c949626383_i32, %c949626383_i32, %c949626383_i32, %c949626383_i32 : tensor<11x2xi32>
    %226 = affine.for %arg2 = 0 to 83 iter_args(%arg3 = %c6) -> (index) {
      affine.yield %53 : index
    }
    %227 = arith.divf %cst_0, %cst_0 : f16
    scf.index_switch %214 
    case 1 {
      %262 = arith.remf %cst_2, %cst_0 : f16
      %263 = affine.load %alloc_7[%c13, %c8] : memref<11x2xf16>
      %264 = arith.floordivsi %c1124090300_i64, %174 : i64
      %265 = bufferization.to_tensor %alloc_11 : memref<11x2xi64>
      %from_elements_46 = tensor.from_elements %false, %true, %false, %true, %true, %false_25, %false_25, %false_25, %true, %false, %true, %false_25, %false_25, %false_25, %false, %true, %false_25, %false_25, %true, %false_25, %false, %true : tensor<11x2xi1>
      %rank_47 = tensor.rank %72 : tensor<2xi64>
      %266 = arith.floordivsi %c574062382_i64, %c1124090300_i64 : i64
      %rank_48 = tensor.rank %from_elements_31 : tensor<2x11x2xf16>
      %267 = arith.cmpi sle, %c949626383_i32, %c949626383_i32 : i32
      %268 = memref.realloc %150 : memref<2xi64> to memref<2xi64>
      %269 = arith.shli %c949626383_i32, %c949626383_i32 : i32
      %alloc_49 = memref.alloc() : memref<11x2xi32>
      memref.copy %alloc_17, %alloc_49 : memref<11x2xi32> to memref<11x2xi32>
      %270 = math.ipowi %34, %34 : tensor<11x11xi1>
      %271 = math.expm1 %263 : f16
      %272 = vector.outerproduct %101, %102, %186 {kind = #vector.kind<maxf>} : vector<2xf32>, vector<2xf32>
      %273 = index.sub %183, %189
      scf.yield
    }
    case 2 {
      %262 = arith.shli %c468925637_i64, %222 : i64
      %263 = vector.broadcast %174 : i64 to vector<i64>
      %264 = vector.transfer_write %263, %72[%190] : vector<i64>, tensor<2xi64>
      %265 = index.casts %c53372327_i64 : i64 to index
      %266 = arith.floordivsi %c53372327_i64, %174 : i64
      %267 = arith.negf %cst_3 : f32
      %268 = memref.atomic_rmw addi %208, %alloc_15[%c7, %c0] : (i16, memref<11x2xi16>) -> i16
      %269 = arith.remsi %extracted, %c469795614_i64 : i64
      %270 = scf.while (%arg2 = %61) : (vector<2xi1>) -> vector<2xi1> {
        %277 = math.log1p %from_elements_31 : tensor<2x11x2xf16>
        %278 = memref.atomic_rmw addi %extracted_41, %alloc_14[%c7, %c1] : (i64, memref<11x2xi64>) -> i64
        %from_elements_46 = tensor.from_elements %208, %c29700_i16, %c29700_i16, %c13697_i16, %208, %c13697_i16, %c-25155_i16, %c13697_i16, %c-25155_i16, %208, %c13697_i16, %c-25155_i16, %c-25155_i16, %c-25155_i16, %208, %208, %c-25155_i16, %208, %c13697_i16, %c-25155_i16, %c-25155_i16, %c13697_i16 : tensor<11x2xi16>
        %279 = arith.floordivsi %c468925637_i64, %c1124090300_i64 : i64
        %280 = vector.shuffle %99, %166 [0] : vector<2xi32>, vector<2xi32>
        %281 = vector.broadcast %false : i1 to vector<2x2xi1>
        %282 = vector.outerproduct %61, %61, %281 {kind = #vector.kind<maxsi>} : vector<2xi1>, vector<2xi1>
        %283 = memref.load %alloc_11[%c7, %c1] : memref<11x2xi64>
        %284 = arith.maxf %cst, %cst_1 : f16
        scf.condition(%true) %61 : vector<2xi1>
      } do {
      ^bb0(%arg2: vector<2xi1>):
        %277 = math.powf %cst_1, %cst_1 : f16
        %278 = arith.subi %c949626383_i32, %c949626383_i32 : i32
        %279 = vector.broadcast %cst_3 : f32 to vector<11x2xf32>
        %280 = vector.fma %279, %279, %279 : vector<11x2xf32>
        vector.print %124 : vector<2x11x2xf32>
        %cast_46 = tensor.cast %collapsed : tensor<22xi16> to tensor<?xi16>
        %281 = arith.maxsi %222, %extracted : i64
        %282 = math.fpowi %6, %10 : tensor<11x2xf16>, tensor<11x2xi32>
        %283 = arith.cmpi ugt, %false, %false : i1
        %284 = math.tanh %cst_0 : f16
        %285 = vector.splat %c2 : vector<2xindex>
        %inserted_47 = tensor.insert %cst_3 into %11[%c1] : tensor<2xf32>
        %286 = arith.remf %cst, %cst_1 : f16
        %287 = vector.broadcast %128 : index to vector<2xindex>
        %288 = vector.broadcast %c469795614_i64 : i64 to vector<2xi64>
        vector.scatter %alloc_20[%c1] [%287], %61, %288 : memref<2xi64>, vector<2xindex>, vector<2xi1>, vector<2xi64>
        %rank_48 = tensor.rank %11 : tensor<2xf32>
        %289 = affine.load %alloc_14[%c10, %c6] : memref<11x2xi64>
        %290 = vector.insert %101, %186 [1] : vector<2xf32> into vector<2x2xf32>
        scf.yield %62 : vector<2xi1>
      }
      %271 = vector.extract %62[1] : vector<2xi1>
      %272 = arith.cmpf une, %cst_3, %cst_3 : f32
      %273 = vector.load %141[%c0, %c9, %c0] : memref<2x11x2xi1>, vector<2xi1>
      %274 = math.exp2 %6 : tensor<11x2xf16>
      %alloca = memref.alloca() : memref<11x2xi32>
      affine.for %arg2 = 0 to 6 {
      }
      %275 = arith.addi %false_25, %false : i1
      %276 = affine.min affine_map<(d0, d1, d2) -> (d0 ceildiv 2, d1 + 4)>(%120, %111, %rank)
      scf.yield
    }
    default {
      %splat_46 = tensor.splat %c29700_i16 : tensor<11x2xi16>
      memref.assume_alignment %159, 1 : memref<2xi1>
      %262 = index.divu %c4, %120
      %263 = arith.andi %c1124090300_i64, %c1124090300_i64 : i64
      %from_elements_47 = tensor.from_elements %cst_3, %cst_3, %cst_3, %cst_3, %cst_3, %cst_3, %cst_3, %cst_3, %cst_3, %cst_3, %cst_3, %cst_3, %cst_3, %cst_3, %cst_3, %cst_3, %cst_3, %cst_3, %cst_3, %cst_3, %cst_3, %cst_3 : tensor<11x2xf32>
      %264 = scf.while (%arg2 = %false) : (i1) -> i1 {
        %274 = arith.maxui %c-25155_i16, %c13697_i16 : i16
        %inserted_50 = tensor.insert %c1124090300_i64 into %4[%c1] : tensor<2xi64>
        %from_elements_51 = tensor.from_elements %208, %c29700_i16, %c29700_i16, %208, %c-25155_i16, %c29700_i16, %c13697_i16, %c13697_i16, %c13697_i16, %c29700_i16, %208, %208, %c29700_i16, %c-25155_i16, %208, %208, %208, %c-25155_i16, %c29700_i16, %c13697_i16, %c13697_i16, %c-25155_i16 : tensor<11x2xi16>
        %275 = bufferization.to_tensor %alloc_16 : memref<2xi64>
        %276 = arith.addi %c468925637_i64, %222 : i64
        %277 = memref.load %alloc_5[%c3, %c0] : memref<11x2xf32>
        vector.print %201 : vector<2x11x2xf32>
        %278 = math.log1p %cst : f16
        scf.condition(%arg2) %arg2 : i1
      } do {
      ^bb0(%arg2: i1):
        %274 = arith.maxsi %222, %c1124090300_i64 : i64
        %275 = math.atan2 %11, %11 : tensor<2xf32>
        %alloca = memref.alloca() : memref<2xf16>
        %276 = affine.load %alloc_15[%c15, %c3] : memref<11x2xi16>
        %277 = vector.extract_strided_slice %54 {offsets = [0, 4], sizes = [1, 7], strides = [1, 1]} : vector<2x11x2xf32> to vector<1x7x2xf32>
        %inserted_50 = tensor.insert %c1124090300_i64 into %9[%c0, %c7, %c0] : tensor<2x11x2xi64>
        %278 = vector.broadcast %false_25 : i1 to vector<11x2xi1>
        %279 = vector.broadcast %c949626383_i32 : i32 to vector<11x2xi32>
        %280 = vector.gather %18[%78] [%279], %278, %278 : tensor<2xi1>, vector<11x2xi32>, vector<11x2xi1>, vector<11x2xi1> into vector<11x2xi1>
        %281 = arith.addi %c29700_i16, %276 : i16
        %282 = arith.shli %true, %arg2 : i1
        %283 = math.absi %false : i1
        %inserted_51 = tensor.insert %arg2 into %5[%c1] : tensor<2xi1>
        %alloc_52 = memref.alloc() : memref<11x2xf32>
        %284 = arith.remf %cst_1, %cst : f16
        %splat_53 = tensor.splat %c29700_i16 : tensor<11x2xi16>
        %285 = arith.shli %c574062382_i64, %c469795614_i64 : i64
        %286 = vector.insert %101, %277 [0, 3] : vector<2xf32> into vector<1x7x2xf32>
        scf.yield %true : i1
      }
      %expanded_48 = tensor.expand_shape %173 [[0], [1, 2]] : tensor<11x2xf16> into tensor<11x2x1xf16>
      %splat_49 = tensor.splat %extracted : tensor<11x2xi64>
      %265 = vector.create_mask %c12, %189 : vector<11x2xi1>
      %266 = vector.broadcast %cst_3 : f32 to vector<11x2x11x2xf32>
      %267 = vector.contract {indexing_maps = [affine_map<(d0, d1, d2, d3, d4) -> (d4, d0, d1)>, affine_map<(d0, d1, d2, d3, d4) -> (d4, d2, d3)>, affine_map<(d0, d1, d2, d3, d4) -> (d0, d1, d2, d3)>], iterator_types = ["parallel", "parallel", "parallel", "parallel", "reduction"], kind = #vector.kind<add>} %54, %123, %266 : vector<2x11x2xf32>, vector<2x11x2xf32> into vector<11x2x11x2xf32>
      %268 = arith.maxf %cst_1, %cst_2 : f16
      %269 = arith.ori %c29700_i16, %208 : i16
      %270 = math.expm1 %from_elements_31 : tensor<2x11x2xf16>
      %271 = arith.ori %c53372327_i64, %222 : i64
      %272 = affine.apply affine_map<(d0, d1) -> (d1 - 4)>(%262, %189)
      %273 = arith.maxf %cst_1, %cst_1 : f16
    }
    %228 = memref.atomic_rmw andi %c574062382_i64, %alloc_19[%c0] : (i64, memref<2xi64>) -> i64
    %229 = arith.addf %cst, %cst_0 : f16
    %230 = math.tanh %173 : tensor<11x2xf16>
    %231 = affine.min affine_map<(d0) -> (d0 ceildiv 8, d0 * 32, d0 * 2, -(d0 ceildiv 8))>(%214)
    %232 = index.sub %c0, %c4
    %233 = vector.matrix_multiply %166, %36 {lhs_columns = 2 : i32, lhs_rows = 1 : i32, rhs_columns = 1 : i32} : (vector<2xi32>, vector<2xi32>) -> vector<1xi32>
    %234 = scf.while (%arg2 = %69) : (vector<i1>) -> vector<i1> {
      %262 = affine.if affine_set<(d0, d1, d2, d3) : (d1 - 17 >= 0)>(%c12, %c9, %c5, %c12) -> f16 {
        %270 = arith.divsi %222, %c469795614_i64 : i64
        %271 = vector.broadcast %c949626383_i32 : i32 to vector<2x2xi32>
        %272 = vector.outerproduct %99, %99, %271 {kind = #vector.kind<add>} : vector<2xi32>, vector<2xi32>
        %273 = vector.transpose %202, [0, 1, 2] : vector<2x11x2xf32> to vector<2x11x2xf32>
        %from_elements_46 = tensor.from_elements %cst_2, %cst_0, %cst_1, %cst_1, %cst_1, %cst_2, %cst_2, %cst_0, %cst_2, %cst_0, %cst_2, %cst_1, %cst_1, %cst, %cst, %cst_0, %cst, %cst_2, %cst, %cst_2, %cst_2, %cst_2, %cst_2, %cst, %cst_0, %cst, %cst_1, %cst_2, %cst_1, %cst_1, %cst_0, %cst_1, %cst_0, %cst, %cst_1, %cst_2, %cst_0, %cst, %cst_1, %cst_1, %cst_0, %cst_0, %cst_0, %cst_2 : tensor<2x11x2xf16>
        %274 = affine.load %alloc_8[%c1] : memref<2xf16>
        %275 = vector.insert %c949626383_i32, %99 [1] : i32 into vector<2xi32>
        %expanded_47 = tensor.expand_shape %10 [[0], [1, 2]] : tensor<11x2xi32> into tensor<11x2x1xi32>
        %276 = affine.min affine_map<(d0, d1) -> (d1 + 16, ((-(d1 + 16) - 4) floordiv 8) * 128, d1 - 128)>(%118, %136)
        affine.yield %274 : f16
      } else {
        %c1496660654_i64 = arith.constant 1496660654 : i64
        %270 = arith.ceildivsi %208, %c-25155_i16 : i16
        %271 = math.expm1 %cst_2 : f16
        %272 = arith.shrsi %c29700_i16, %c13697_i16 : i16
        %273 = arith.xori %174, %c469795614_i64 : i64
        %rank_46 = tensor.rank %12 : tensor<11x2xi1>
        %274 = index.mul %214, %189
        %275 = math.ipowi %14, %14 : tensor<2x11x2xi1>
        affine.yield %cst : f16
      }
      %263 = math.round %6 : tensor<11x2xf16>
      %264 = arith.subi %c574062382_i64, %extracted : i64
      %265 = index.casts %c2 : index to i32
      %266 = math.sqrt %15 : tensor<2x11x2xf16>
      %267 = arith.shli %c469795614_i64, %c574062382_i64 : i64
      %268 = vector.splat %79 : vector<11x2xindex>
      %269 = math.round %173 : tensor<11x2xf16>
      scf.condition(%false_25) %138 : vector<i1>
    } do {
    ^bb0(%arg2: vector<i1>):
      affine.store %c13697_i16, %alloc_13[%c11, %c0] : memref<11x2xi16>
      %inserted_46 = tensor.insert %c949626383_i32 into %8[%c0, %c0, %c0] : tensor<2x11x2xi32>
      %262 = math.log2 %173 : tensor<11x2xf16>
      %263 = tensor.empty() : tensor<11x2xi1>
      %mapped_47 = linalg.map ins(%from_elements_26, %from_elements_29 : tensor<11x2xi1>, tensor<11x2xi1>) outs(%263 : tensor<11x2xi1>)
        (%in: i1, %in_49: i1) {
          %275 = arith.xori %true, %in : i1
          %276 = vector.shuffle %75, %75 [0] : vector<2xi32>, vector<2xi32>
          %277 = vector.broadcast %cst_3 : f32 to vector<11x2xf32>
          %278 = vector.contract {indexing_maps = [affine_map<(d0, d1, d2) -> (d2, d0, d1)>, affine_map<(d0, d1, d2) -> (d2)>, affine_map<(d0, d1, d2) -> (d0, d1)>], iterator_types = ["parallel", "parallel", "reduction"], kind = #vector.kind<minf>} %55, %102, %277 : vector<2x11x2xf32>, vector<2xf32> into vector<11x2xf32>
          %279 = arith.cmpi uge, %c-25155_i16, %c13697_i16 : i16
          %280 = arith.minsi %c469795614_i64, %extracted_41 : i64
          %281 = math.log10 %6 : tensor<11x2xf16>
          %282 = arith.ceildivsi %c13697_i16, %c13697_i16 : i16
          %283 = arith.maxf %cst_0, %cst_1 : f16
          %284 = arith.remf %cst_3, %cst_3 : f32
          %285 = arith.cmpi uge, %c13697_i16, %c-25155_i16 : i16
          %286 = vector.create_mask %79, %104, %65 : vector<2x11x2xi1>
          %287 = arith.ceildivsi %in, %in : i1
          %288 = index.maxu %c7, %c12
          %289 = arith.ori %true, %true : i1
          %290 = vector.create_mask %c1, %c6, %rank : vector<2x11x2xi1>
          %291 = vector.broadcast %cst : f16 to vector<11x11xf16>
          %292 = vector.transfer_write %291, %from_elements_31[%83, %114, %c1] {permutation_map = affine_map<(d0, d1, d2) -> (d0, d1)>} : vector<11x11xf16>, tensor<2x11x2xf16>
          %293 = arith.remsi %in_49, %false : i1
          memref.assume_alignment %alloc_15, 1 : memref<11x2xi16>
          %294 = arith.shrsi %c53372327_i64, %174 : i64
          %295 = index.ceildivu %189, %121
          %296 = vector.broadcast %222 : i64 to vector<i64>
          %297 = vector.transfer_write %296, %3[%121] : vector<i64>, tensor<2xi64>
          %298 = arith.divui %c-25155_i16, %c29700_i16 : i16
          %299 = arith.xori %extracted, %extracted_41 : i64
          %300 = math.sqrt %cst_3 : f32
          %301 = vector.load %alloc_14[%c9, %c0] : memref<11x2xi64>, vector<2x11x2xi64>
          %302 = arith.ceildivsi %extracted, %222 : i64
          %303 = arith.shli %174, %174 : i64
          %304 = vector.broadcast %true : i1 to vector<11xi1>
          %305 = vector.maskedload %141[%c1, %c1, %c1], %304, %304 : memref<2x11x2xi1>, vector<11xi1>, vector<11xi1> into vector<11xi1>
          %306 = vector.flat_transpose %99 {columns = 1 : i32, rows = 2 : i32} : vector<2xi32> -> vector<2xi32>
          %307 = arith.addf %cst_1, %cst_2 : f16
          %inserted_50 = tensor.insert %174 into %3[%c1] : tensor<2xi64>
          %308 = arith.minsi %in, %true : i1
          %true_51 = arith.constant true
          linalg.yield %true_51 : i1
        }
      memref.assume_alignment %alloc_12, 4 : memref<2xi32>
      %264 = arith.ori %extracted, %extracted_41 : i64
      %265 = math.round %cst_1 : f16
      %splat_48 = tensor.splat %c574062382_i64 : tensor<2x11x2xi64>
      %266 = arith.maxui %false, %false_25 : i1
      %267 = arith.maxf %cst_0, %cst : f16
      %268 = vector.transpose %202, [1, 2, 0] : vector<2x11x2xf32> to vector<11x2x2xf32>
      %269 = vector.broadcast %222 : i64 to vector<11xi64>
      %270 = vector.broadcast %false_25 : i1 to vector<11xi1>
      %271 = vector.maskedload %150[%c1], %270, %269 : memref<2xi64>, vector<11xi1>, vector<11xi64> into vector<11xi64>
      %272 = tensor.empty() : tensor<2xi32>
      memref.assume_alignment %alloc_8, 16 : memref<2xf16>
      %273 = index.sub %231, %c10
      %274 = linalg.generic {indexing_maps = [affine_map<(d0, d1, d2) -> (d0)>, affine_map<(d0, d1, d2) -> (d0, d1, d2)>], iterator_types = ["parallel", "parallel", "parallel"]} ins(%7 : tensor<2xi1>) outs(%14 : tensor<2x11x2xi1>) {
      ^bb0(%in: i1, %out: i1):
        %cast_49 = tensor.cast %48 : tensor<11x11xi32> to tensor<?x?xi32>
        %275 = index.maxs %c5, %c15
        %276 = arith.remf %cst_3, %cst_3 : f32
        %277 = vector.outerproduct %101, %102, %186 {kind = #vector.kind<mul>} : vector<2xf32>, vector<2xf32>
        %278 = index.casts %174 : i64 to index
        %collapsed_50 = tensor.collapse_shape %from_elements_26 [[0, 1]] : tensor<11x2xi1> into tensor<22xi1>
        %279 = math.exp2 %from_elements_31 : tensor<2x11x2xf16>
        %280 = index.sizeof
        %281 = bufferization.to_tensor %alloc_9 : memref<2xi32>
        %282 = index.ceildivs %65, %128
        %283 = math.copysign %15, %15 : tensor<2x11x2xf16>
        %284 = affine.load %alloc_5[%c5, %c9] : memref<11x2xf32>
        %285 = vector.insertelement %false_25, %69[] : vector<i1>
        %rank_51 = tensor.rank %3 : tensor<2xi64>
        %286 = arith.ori %208, %208 : i16
        %287 = index.mul %280, %c11
        %288 = vector.contract {indexing_maps = [affine_map<(d0) -> (d0)>, affine_map<(d0) -> (d0)>, affine_map<(d0) -> ()>], iterator_types = ["reduction"], kind = #vector.kind<maxsi>} %62, %62, %true : vector<2xi1>, vector<2xi1> into i1
        %289 = arith.maxui %c468925637_i64, %174 : i64
        %290 = index.floordivs %rank_28, %c12
        %291 = arith.maxui %c29700_i16, %c13697_i16 : i16
        %292 = math.round %15 : tensor<2x11x2xf16>
        %293 = arith.muli %extracted, %c468925637_i64 : i64
        %294 = memref.atomic_rmw muli %c949626383_i32, %alloc_9[%c1] : (i32, memref<2xi32>) -> i32
        %alloc_52 = memref.alloc() : memref<11x2xi32>
        %295 = math.ceil %284 : f32
        %296 = math.round %cst_1 : f16
        %297 = vector.broadcast %284 : f32 to vector<2x11x2xf32>
        %298 = vector.fma %297, %124, %297 : vector<2x11x2xf32>
        %299 = vector.load %alloc_6[%c0, %c5, %c0] : memref<2x11x2xf32>, vector<2x11x2xf32>
        affine.store %c949626383_i32, %alloc_9[%c0] : memref<2xi32>
        memref.copy %150, %27 : memref<2xi64> to memref<2xi64>
        %300 = index.casts %114 : index to i32
        %301 = math.powf %6, %173 : tensor<11x2xf16>
        linalg.yield %in : i1
      } -> tensor<2x11x2xi1>
      scf.yield %69 : vector<i1>
    }
    %alloc_43 = memref.alloc() : memref<2x7xi32>
    %235 = tensor.empty() : tensor<11x7xi32>
    %236 = linalg.matmul ins(%10, %alloc_43 : tensor<11x2xi32>, memref<2x7xi32>) outs(%235 : tensor<11x7xi32>) -> tensor<11x7xi32>
    %237 = math.floor %6 : tensor<11x2xf16>
    %238 = vector.broadcast %c949626383_i32 : i32 to vector<7xi32>
    %239 = vector.broadcast %true : i1 to vector<7xi1>
    %240 = vector.maskedload %alloc_9[%c1], %239, %238 : memref<2xi32>, vector<7xi1>, vector<7xi32> into vector<7xi32>
    %241 = vector.broadcast %174 : i64 to vector<15xi64>
    %242 = vector.broadcast %false_25 : i1 to vector<15xi1>
    %243 = vector.maskedload %alloc_16[%c1], %242, %241 : memref<2xi64>, vector<15xi1>, vector<15xi64> into vector<15xi64>
    %244 = vector.broadcast %true : i1 to vector<2x2xi1>
    %245 = vector.outerproduct %62, %61, %244 {kind = #vector.kind<maxsi>} : vector<2xi1>, vector<2xi1>
    %246 = arith.maxsi %c574062382_i64, %c469795614_i64 : i64
    %247 = vector.insert %c949626383_i32, %36 [1] : i32 into vector<2xi32>
    %expanded = tensor.expand_shape %143 [[0], [1, 2]] : tensor<11x2xi64> into tensor<11x2x1xi64>
    %248 = arith.addi %222, %extracted : i64
    %249 = math.powf %11, %11 : tensor<2xf32>
    %250 = index.casts %c29700_i16 : i16 to index
    %251 = vector.broadcast %c574062382_i64 : i64 to vector<15x15xi64>
    %252 = vector.outerproduct %241, %241, %251 {kind = #vector.kind<and>} : vector<15xi64>, vector<15xi64>
    %253 = vector.broadcast %c2 : index to vector<2xindex>
    vector.scatter %alloc_9[%c0] [%253], %61, %99 : memref<2xi32>, vector<2xindex>, vector<2xi1>, vector<2xi32>
    %254 = math.round %cst_3 : f32
    %255 = arith.subi %false_25, %true : i1
    %generated = tensor.generate %111, %79 {
    ^bb0(%arg2: index, %arg3: index):
      %from_elements_46 = tensor.from_elements %c949626383_i32, %c949626383_i32, %c949626383_i32, %c949626383_i32, %c949626383_i32, %c949626383_i32, %c949626383_i32, %c949626383_i32, %c949626383_i32, %c949626383_i32, %c949626383_i32, %c949626383_i32, %c949626383_i32, %c949626383_i32, %c949626383_i32, %c949626383_i32, %c949626383_i32, %c949626383_i32, %c949626383_i32, %c949626383_i32, %c949626383_i32, %c949626383_i32, %c949626383_i32, %c949626383_i32, %c949626383_i32, %c949626383_i32, %c949626383_i32, %c949626383_i32, %c949626383_i32, %c949626383_i32, %c949626383_i32, %c949626383_i32, %c949626383_i32, %c949626383_i32, %c949626383_i32, %c949626383_i32, %c949626383_i32, %c949626383_i32, %c949626383_i32, %c949626383_i32, %c949626383_i32, %c949626383_i32, %c949626383_i32, %c949626383_i32 : tensor<2x11x2xi32>
      %262 = affine.min affine_map<(d0, d1) -> (d1, d0 + 16, -d1)>(%175, %77)
      %263 = math.round %11 : tensor<2xf32>
      %264 = vector.broadcast %cst_3 : f32 to vector<11x2xf32>
      %265 = vector.multi_reduction <mul>, %123, %264 [0] : vector<2x11x2xf32> to vector<11x2xf32>
      tensor.yield %c468925637_i64 : i64
    } : tensor<?x?xi64>
    memref.store %cst_3, %alloc_18[%c4, %c0] : memref<11x2xf32>
    %alloc_44 = memref.alloc() : memref<11x2xi1>
    vector.print %30 : vector<2xi32>
    memref.copy %27, %150 : memref<2xi64> to memref<2xi64>
    %256 = index.floordivs %232, %97
    memref.copy %141, %alloc_24 : memref<2x11x2xi1> to memref<2x11x2xi1>
    %257 = tensor.empty() : tensor<2x11x2xf16>
    %258 = linalg.copy ins(%from_elements_31 : tensor<2x11x2xf16>) outs(%257 : tensor<2x11x2xf16>) -> tensor<2x11x2xf16>
    %259 = tensor.empty() : tensor<2x11xi16>
    %transposed = linalg.transpose ins(%1 : tensor<11x2xi16>) outs(%259 : tensor<2x11xi16>) permutation = [1, 0] 
    %alloc_45 = memref.alloc() : memref<2xi32>
    linalg.reduce ins(%8 : tensor<2x11x2xi32>) outs(%alloc_45 : memref<2xi32>) dimensions = [0, 1] 
      (%in: i32, %init: i32) {
        %inserted_46 = tensor.insert %c13697_i16 into %119[%c0, %c1] : tensor<11x2xi16>
        %262 = math.log10 %6 : tensor<11x2xf16>
        %263 = math.atan2 %cst_0, %cst_1 : f16
        %264 = arith.maxui %c574062382_i64, %174 : i64
        %265 = arith.remf %cst_2, %cst : f16
        %266 = arith.remf %cst_1, %cst : f16
        %267 = math.sqrt %cst_0 : f16
        affine.store %c949626383_i32, %alloc_12[%c5] : memref<2xi32>
        %c1_i32 = arith.constant 1 : i32
        linalg.yield %c1_i32 : i32
      }
    %260 = scf.parallel (%arg2) = (%231) to (%c7) step (%c6) init (%159) -> memref<2xi1> {
      %262 = arith.remf %cst_2, %cst_2 : f16
      %263 = math.sqrt %cst_1 : f16
      %264 = math.round %cst_3 : f32
      %265 = vector.broadcast %142 : index to vector<2xindex>
      vector.scatter %alloc_45[%c1] [%265], %62, %166 : memref<2xi32>, vector<2xindex>, vector<2xi1>, vector<2xi32>
      %266 = index.mul %121, %104
      %267 = arith.addf %cst_3, %cst_3 : f32
      %268 = arith.shrsi %false, %true : i1
      %cast_46 = tensor.cast %transposed : tensor<2x11xi16> to tensor<?x?xi16>
      %269 = arith.ori %true, %true : i1
      %270 = arith.divsi %c468925637_i64, %174 : i64
      %271 = index.mul %111, %83
      %272 = math.absi %10 : tensor<11x2xi32>
      affine.for %arg3 = 0 to 41 {
      }
      %273 = math.atan2 %cst, %cst_0 : f16
      %274 = tensor.empty() : tensor<11x2xi1>
      %mapped_47 = linalg.map ins(%from_elements_29, %12 : tensor<11x2xi1>, tensor<11x2xi1>) outs(%274 : tensor<11x2xi1>)
        (%in: i1, %in_49: i1) {
          %276 = arith.andi %in_49, %in_49 : i1
          %277 = arith.cmpi sge, %c949626383_i32, %c949626383_i32 : i32
          bufferization.dealloc_tensor %14 : tensor<2x11x2xi1>
          %splat_50 = tensor.splat %cst_0 : tensor<11x2xf16>
          %cast_51 = tensor.cast %257 : tensor<2x11x2xf16> to tensor<?x?x?xf16>
          %278 = vector.load %alloc_6[%c1, %c6, %c1] : memref<2x11x2xf32>, vector<2x11x2xf32>
          %279 = math.round %cst : f16
          %280 = arith.divui %extracted, %c468925637_i64 : i64
          %281 = arith.ori %false_25, %false : i1
          %282 = index.maxs %c8, %121
          %283 = index.divu %65, %rank_28
          %284 = math.ctlz %extracted_41 : i64
          %285 = vector.contract {indexing_maps = [affine_map<(d0) -> (d0)>, affine_map<(d0) -> (d0)>, affine_map<(d0) -> ()>], iterator_types = ["reduction"], kind = #vector.kind<or>} %240, %240, %c949626383_i32 : vector<7xi32>, vector<7xi32> into i32
          %286 = math.round %cst : f16
          memref.copy %alloc_19, %alloc_16 : memref<2xi64> to memref<2xi64>
          %287 = arith.shli %c-25155_i16, %c29700_i16 : i16
          %rank_52 = tensor.rank %20 : tensor<i64>
          %288 = vector.multi_reduction <xor>, %242, %242 [] : vector<15xi1> to vector<15xi1>
          %289 = arith.cmpi ugt, %c574062382_i64, %extracted : i64
          %290 = arith.muli %c469795614_i64, %c1124090300_i64 : i64
          %alloca = memref.alloca() : memref<11x2xi64>
          %rank_53 = tensor.rank %18 : tensor<2xi1>
          %291 = arith.divui %174, %222 : i64
          %292 = memref.atomic_rmw mins %c53372327_i64, %alloc_11[%c1, %c0] : (i64, memref<11x2xi64>) -> i64
          %293 = arith.minsi %extracted_41, %174 : i64
          %294 = arith.ceildivsi %c53372327_i64, %c574062382_i64 : i64
          %295 = bufferization.to_tensor %alloc_19 : memref<2xi64>
          %296 = vector.broadcast %cst_3 : f32 to vector<2x11x2xf32>
          %297 = vector.fma %296, %124, %123 : vector<2x11x2xf32>
          %298 = arith.floordivsi %c-25155_i16, %c29700_i16 : i16
          %299 = vector.broadcast %cst_3 : f32 to vector<11x2xf32>
          %300 = vector.contract {indexing_maps = [affine_map<(d0, d1, d2) -> (d2)>, affine_map<(d0, d1, d2) -> (d2, d0, d1)>, affine_map<(d0, d1, d2) -> (d0, d1)>], iterator_types = ["parallel", "parallel", "reduction"], kind = #vector.kind<mul>} %102, %202, %299 : vector<2xf32>, vector<2x11x2xf32> into vector<11x2xf32>
          %301 = vector.insert %c949626383_i32, %19 [0] : i32 into vector<2xi32>
          %302 = vector.transpose %54, [1, 0, 2] : vector<2x11x2xf32> to vector<11x2x2xf32>
          %true_54 = arith.constant true
          linalg.yield %true_54 : i1
        }
      %275 = arith.divf %cst_2, %cst : f16
      %alloc_48 = memref.alloc() : memref<2xi1>
      scf.reduce(%alloc_48)  : memref<2xi1> {
      ^bb0(%arg3: memref<2xi1>, %arg4: memref<2xi1>):
        %276 = vector.broadcast %cst_3 : f32 to vector<2x11x2xf32>
        %277 = vector.fma %276, %55, %124 : vector<2x11x2xf32>
        %278 = math.round %15 : tensor<2x11x2xf16>
        %279 = math.round %11 : tensor<2xf32>
        %280 = memref.atomic_rmw assign %cst_3, %alloc_6[%c0, %c5, %c0] : (f32, memref<2x11x2xf32>) -> f32
        %281 = math.ctpop %0 : tensor<2xi64>
        %282 = arith.maxsi %c1124090300_i64, %174 : i64
        %extracted_49 = tensor.extract %from_elements_30[%c5, %c0] : tensor<11x2xi16>
        affine.store %false, %alloc_48[%c10] : memref<2xi1>
        %alloc_50 = memref.alloc() : memref<2xi1>
        scf.reduce.return %alloc_50 : memref<2xi1>
      }
      scf.yield
    }
    %261 = affine.vector_load %alloc_6[%c0, %175, %190] : memref<2x11x2xf32>, vector<15xf32>
    affine.vector_store %101, %alloc_18[%120, %152] : memref<11x2xf32>, vector<2xf32>
    vector.print %19 : vector<2xi32>
    vector.print %30 : vector<2xi32>
    vector.print %36 : vector<2xi32>
    vector.print %41 : vector<i64>
    vector.print %51 : vector<i64>
    vector.print %54 : vector<2x11x2xf32>
    vector.print %55 : vector<2x11x2xf32>
    vector.print %61 : vector<2xi1>
    vector.print %62 : vector<2xi1>
    vector.print %69 : vector<i1>
    vector.print %75 : vector<2xi32>
    vector.print %99 : vector<2xi32>
    vector.print %101 : vector<2xf32>
    vector.print %102 : vector<2xf32>
    vector.print %123 : vector<2x11x2xf32>
    vector.print %124 : vector<2x11x2xf32>
    vector.print %130 : vector<11x2xf16>
    vector.print %138 : vector<i1>
    vector.print %166 : vector<2xi32>
    vector.print %186 : vector<2x2xf32>
    vector.print %201 : vector<2x11x2xf32>
    vector.print %202 : vector<2x11x2xf32>
    vector.print %233 : vector<1xi32>
    vector.print %238 : vector<7xi32>
    vector.print %239 : vector<7xi1>
    vector.print %240 : vector<7xi32>
    vector.print %241 : vector<15xi64>
    vector.print %242 : vector<15xi1>
    vector.print %243 : vector<15xi64>
    vector.print %261 : vector<15xf32>
    vector.print %c574062382_i64 : i64
    vector.print %c949626383_i32 : i32
    vector.print %c1124090300_i64 : i64
    vector.print %true : i1
    vector.print %cst : f16
    vector.print %cst_0 : f16
    vector.print %cst_1 : f16
    vector.print %cst_2 : f16
    vector.print %c29700_i16 : i16
    vector.print %c13697_i16 : i16
    vector.print %false : i1
    vector.print %cst_3 : f32
    vector.print %c469795614_i64 : i64
    vector.print %c53372327_i64 : i64
    vector.print %c-25155_i16 : i16
    vector.print %c468925637_i64 : i64
    vector.print %false_25 : i1
    vector.print %174 : i64
    vector.print %208 : i16
    vector.print %extracted : i64
    vector.print %222 : i64
    vector.print %extracted_41 : i64
    return
  }
}
