module {
  func.func @func1(%arg0: index, %arg1: tensor<5xi32>) {
    %c1217098576_i64 = arith.constant 1217098576 : i64
    %c-17794_i16 = arith.constant -17794 : i16
    %c411307815_i64 = arith.constant 411307815 : i64
    %cst = arith.constant 5.177600e+04 : f16
    %false = arith.constant false
    %c-15181_i16 = arith.constant -15181 : i16
    %cst_0 = arith.constant 2.385600e+04 : f16
    %false_1 = arith.constant false
    %cst_2 = arith.constant 3.596800e+04 : f16
    %c735914286_i64 = arith.constant 735914286 : i64
    %c384200544_i32 = arith.constant 384200544 : i32
    %cst_3 = arith.constant 0x4E172493 : f32
    %c1898176039_i32 = arith.constant 1898176039 : i32
    %false_4 = arith.constant false
    %c346347572_i64 = arith.constant 346347572 : i64
    %cst_5 = arith.constant 5.833600e+04 : f16
    %0 = tensor.empty() : tensor<11xi1>
    %1 = tensor.empty() : tensor<11xi1>
    %2 = tensor.empty() : tensor<5xi16>
    %3 = tensor.empty() : tensor<11xi64>
    %4 = tensor.empty() : tensor<11xi16>
    %5 = tensor.empty() : tensor<11xf32>
    %6 = tensor.empty() : tensor<5xi1>
    %7 = tensor.empty() : tensor<5xi32>
    %8 = tensor.empty() : tensor<11xf16>
    %9 = tensor.empty() : tensor<11x11x16xi32>
    %10 = tensor.empty() : tensor<11xf16>
    %11 = tensor.empty() : tensor<11xi32>
    %12 = tensor.empty() : tensor<11xi32>
    %13 = tensor.empty() : tensor<11xi64>
    %14 = tensor.empty() : tensor<11xi1>
    %15 = tensor.empty() : tensor<11x11x16xf16>
    %c0 = arith.constant 0 : index
    %c1 = arith.constant 1 : index
    %c2 = arith.constant 2 : index
    %c3 = arith.constant 3 : index
    %c4 = arith.constant 4 : index
    %c5 = arith.constant 5 : index
    %c6 = arith.constant 6 : index
    %c7 = arith.constant 7 : index
    %c8 = arith.constant 8 : index
    %c9 = arith.constant 9 : index
    %c10 = arith.constant 10 : index
    %c11 = arith.constant 11 : index
    %c12 = arith.constant 12 : index
    %c13 = arith.constant 13 : index
    %c14 = arith.constant 14 : index
    %c15 = arith.constant 15 : index
    %alloc = memref.alloc() : memref<5xf32>
    %alloc_6 = memref.alloc() : memref<11x11x16xi64>
    %alloc_7 = memref.alloc() : memref<11x11x16xf32>
    %alloc_8 = memref.alloc() : memref<11xi64>
    %alloc_9 = memref.alloc() : memref<5xi32>
    %alloc_10 = memref.alloc() : memref<11xf32>
    %alloc_11 = memref.alloc() : memref<11xi64>
    %alloc_12 = memref.alloc() : memref<11xi1>
    %alloc_13 = memref.alloc() : memref<11xi1>
    %alloc_14 = memref.alloc() : memref<11x11x16xi64>
    %alloc_15 = memref.alloc() : memref<11xi1>
    %alloc_16 = memref.alloc() : memref<5xf32>
    %alloc_17 = memref.alloc() : memref<11xf16>
    %alloc_18 = memref.alloc() : memref<5xi1>
    %alloc_19 = memref.alloc() : memref<11xf16>
    %alloc_20 = memref.alloc() : memref<5xi16>
    %16 = tensor.empty() : tensor<11x11x16xi32>
    %17 = linalg.copy ins(%9 : tensor<11x11x16xi32>) outs(%16 : tensor<11x11x16xi32>) -> tensor<11x11x16xi32>
    %18 = tensor.empty() : tensor<11xi64>
    %transposed = linalg.transpose ins(%3 : tensor<11xi64>) outs(%18 : tensor<11xi64>) permutation = [0] 
    %alloc_21 = memref.alloc() : memref<f32>
    linalg.reduce ins(%alloc : memref<5xf32>) outs(%alloc_21 : memref<f32>) dimensions = [0] 
      (%in: f32, %init: f32) {
        %246 = affine.min affine_map<(d0, d1, d2) -> (-d2 - (-d2) mod 8 - 16, (-d2) mod 8 - d1, 0)>(%c9, %c8, %c6)
        %247 = index.add %c8, %c5
        %248 = vector.splat %c0 : vector<11x11x16xindex>
        %249 = affine.for %arg2 = 0 to 115 iter_args(%arg3 = %c1898176039_i32) -> (i32) {
          affine.yield %arg3 : i32
        }
        %250 = vector.broadcast %c-15181_i16 : i16 to vector<11x11x16xi16>
        %251 = vector.broadcast %false_1 : i1 to vector<11x11x16xi1>
        %252 = vector.broadcast %c1898176039_i32 : i32 to vector<11x11x16xi32>
        %253 = vector.gather %alloc_20[%c1] [%252], %251, %250 : memref<5xi16>, vector<11x11x16xi32>, vector<11x11x16xi1>, vector<11x11x16xi16> into vector<11x11x16xi16>
        %254 = vector.broadcast %cst_2 : f16 to vector<11xf16>
        %255 = vector.flat_transpose %254 {columns = 11 : i32, rows = 1 : i32} : vector<11xf16> -> vector<11xf16>
        %256 = vector.bitcast %255 : vector<11xf16> to vector<11xf16>
        %257 = index.maxs %c11, %c14
        %cst_51 = arith.constant 1.000000e+00 : f32
        linalg.yield %cst_51 : f32
      }
    scf.parallel (%arg2, %arg3) = (%c3, %c10) to (%c4, %c8) step (%c14, %c7) {
      %246 = arith.minui %c411307815_i64, %c346347572_i64 : i64
      %247 = arith.floordivsi %c411307815_i64, %c411307815_i64 : i64
      %248 = affine.load %alloc_16[%c3] : memref<5xf32>
      %249 = bufferization.clone %alloc_11 : memref<11xi64> to memref<11xi64>
      %250 = index.maxu %c2, %c12
      %251 = index.sub %c0, %c7
      %252 = math.log10 %248 : f32
      %253 = arith.cmpf true, %cst_3, %248 : f32
      %from_elements = tensor.from_elements %248, %248, %cst_3, %cst_3, %248, %248, %248, %cst_3, %248, %248, %cst_3 : tensor<11xf32>
      %254 = vector.broadcast %c1898176039_i32 : i32 to vector<1xi32>
      %255 = vector.broadcast %c1898176039_i32 : i32 to vector<1xi32>
      %256 = vector.contract {indexing_maps = [affine_map<(d0) -> (d0)>, affine_map<(d0) -> (d0)>, affine_map<(d0) -> ()>], iterator_types = ["reduction"], kind = #vector.kind<xor>} %254, %255, %c384200544_i32 : vector<1xi32>, vector<1xi32> into i32
      %alloc_51 = memref.alloc() : memref<11xf32>
      memref.copy %alloc_10, %alloc_51 : memref<11xf32> to memref<11xf32>
      %257 = arith.andi %c735914286_i64, %c735914286_i64 : i64
      %258 = arith.andi %c1898176039_i32, %c1898176039_i32 : i32
      scf.if %false_4 {
        %263 = vector.broadcast %c384200544_i32 : i32 to vector<5xi32>
        %264 = vector.broadcast %false_4 : i1 to vector<5xi1>
        %265 = vector.gather %alloc_9[%c9] [%263], %264, %263 : memref<5xi32>, vector<5xi32>, vector<5xi1>, vector<5xi32> into vector<5xi32>
        %266 = vector.load %alloc_17[%c7] : memref<11xf16>, vector<11xf16>
        %267 = vector.transpose %254, [0] : vector<1xi32> to vector<1xi32>
        %268 = arith.minsi %c384200544_i32, %c384200544_i32 : i32
        %269 = vector.load %alloc_13[%c4] : memref<11xi1>, vector<11xi1>
        %270 = vector.broadcast %c346347572_i64 : i64 to vector<16x5x5xi64>
        %271 = vector.broadcast %c346347572_i64 : i64 to vector<16x5xi64>
        %dest_52, %accumulated_value_53 = vector.scan <mul>, %270, %271 {inclusive = true, reduction_dim = 1 : i64} : vector<16x5x5xi64>, vector<16x5xi64>
        %272 = bufferization.to_tensor %alloc_8 : memref<11xi64>
        %273 = tensor.empty() : tensor<5x16xi64>
        %274 = tensor.empty() : tensor<16x5xi64>
        %275 = tensor.empty() : tensor<5x5xi64>
        %276 = linalg.matmul ins(%273, %274 : tensor<5x16xi64>, tensor<16x5xi64>) outs(%275 : tensor<5x5xi64>) -> tensor<5x5xi64>
      } else {
        %263 = arith.remf %cst_3, %cst_3 : f32
        %264 = arith.muli %c346347572_i64, %c735914286_i64 : i64
        %265 = vector.broadcast %251 : index to vector<5xindex>
        %266 = vector.broadcast %false_1 : i1 to vector<5xi1>
        %267 = vector.broadcast %c-15181_i16 : i16 to vector<5xi16>
        vector.scatter %alloc_20[%c2] [%265], %266, %267 : memref<5xi16>, vector<5xindex>, vector<5xi1>, vector<5xi16>
        %268 = index.casts %c1898176039_i32 : i32 to index
        %269 = math.absf %15 : tensor<11x11x16xf16>
        %270 = arith.xori %c1217098576_i64, %c411307815_i64 : i64
        memref.assume_alignment %alloc, 16 : memref<5xf32>
        %271 = math.ctlz %c735914286_i64 : i64
      }
      %259 = vector.broadcast %cst_3 : f32 to vector<11xf32>
      %260 = vector.fma %259, %259, %259 : vector<11xf32>
      %261 = vector.broadcast %cst_3 : f32 to vector<11x11xf32>
      %262 = vector.outerproduct %259, %260, %261 {kind = #vector.kind<maxf>} : vector<11xf32>, vector<11xf32>
      scf.yield
    }
    %19 = affine.vector_load %alloc_19[%c2] : memref<11xf16>, vector<5xf16>
    affine.vector_store %19, %alloc_19[%c6] : memref<11xf16>, vector<5xf16>
    %20 = tensor.empty() : tensor<11xf16>
    %21 = tensor.empty() : tensor<f16>
    %22 = linalg.dot ins(%10, %20 : tensor<11xf16>, tensor<11xf16>) outs(%21 : tensor<f16>) -> tensor<f16>
    %23 = vector.broadcast %c-17794_i16 : i16 to vector<5xi16>
    %24 = vector.broadcast %false_1 : i1 to vector<5xi1>
    %25 = vector.maskedload %alloc_20[%c4], %24, %23 : memref<5xi16>, vector<5xi1>, vector<5xi16> into vector<5xi16>
    %26 = arith.andi %c1217098576_i64, %c735914286_i64 : i64
    vector.print %24 : vector<5xi1>
    %27 = index.casts %c11 : index to i32
    %28 = math.fpowi %10, %11 : tensor<11xf16>, tensor<11xi32>
    %29 = vector.transpose %24, [0] : vector<5xi1> to vector<5xi1>
    %30 = index.sub %c6, %c15
    %31 = arith.negf %cst_5 : f16
    %inserted = tensor.insert %c384200544_i32 into %11[%c10] : tensor<11xi32>
    %32 = vector.insert %c-15181_i16, %23 [3] : i16 into vector<5xi16>
    %33 = arith.divui %false_1, %false : i1
    %34 = vector.load %alloc_8[%c7] : memref<11xi64>, vector<11xi64>
    %35 = affine.min affine_map<(d0, d1, d2) -> ((d1 + d2 + 4 + d0) floordiv 8, d1 + d2, d1 + d2 + 4 + d0)>(%c8, %c6, %c6)
    %36 = index.divs %c6, %c2
    %inserted_22 = tensor.insert %c1898176039_i32 into %9[%c1, %c7, %c1] : tensor<11x11x16xi32>
    %37 = arith.shrsi %false_1, %false_4 : i1
    %38 = vector.transpose %25, [0] : vector<5xi16> to vector<5xi16>
    %39 = math.floor %10 : tensor<11xf16>
    %40 = memref.load %alloc_18[%c3] : memref<5xi1>
    %41 = math.sqrt %22 : tensor<f16>
    memref.store %c1217098576_i64, %alloc_11[%c2] : memref<11xi64>
    %42 = arith.cmpf one, %cst, %cst : f16
    %43 = arith.cmpf olt, %cst_0, %cst_2 : f16
    %44 = vector.splat %cst_2 : vector<5xf16>
    %45 = affine.max affine_map<(d0, d1, d2, d3) -> ((d1 mod 4) * 4, -d1)>(%c11, %c0, %c6, %c13)
    %46 = linalg.generic {indexing_maps = [affine_map<(d0, d1, d2) -> (d0, d1, d2)>, affine_map<(d0, d1, d2) -> (d0)>, affine_map<(d0, d1, d2) -> (d0, d1, d2)>], iterator_types = ["parallel", "parallel", "parallel"]} ins(%15, %10 : tensor<11x11x16xf16>, tensor<11xf16>) outs(%15 : tensor<11x11x16xf16>) {
    ^bb0(%in: f16, %in_51: f16, %out: f16):
      %246 = scf.if %false_4 -> (memref<11xi32>) {
        %275 = vector.bitcast %24 : vector<5xi1> to vector<5xi1>
        %276 = math.log10 %10 : tensor<11xf16>
        %277 = arith.maxf %cst_3, %cst_3 : f32
        %278 = math.tanh %cst_2 : f16
        vector.print %19 : vector<5xf16>
        %279 = arith.divui %c384200544_i32, %c384200544_i32 : i32
        %280 = index.floordivs %c2, %30
        %281 = vector.reduction <minsi>, %34 : vector<11xi64> into i64
        %alloc_57 = memref.alloc() : memref<11xi32>
        scf.yield %alloc_57 : memref<11xi32>
      } else {
        %275 = index.floordivs %35, %c5
        %extracted_57 = tensor.extract %16[%c3, %c3, %c5] : tensor<11x11x16xi32>
        memref.copy %alloc_15, %alloc_13 : memref<11xi1> to memref<11xi1>
        %276 = vector.transpose %24, [0] : vector<5xi1> to vector<5xi1>
        %277 = tensor.empty() : tensor<11xi64>
        %false_58 = index.bool.constant false
        %278 = vector.flat_transpose %19 {columns = 5 : i32, rows = 1 : i32} : vector<5xf16> -> vector<5xf16>
        memref.tensor_store %1, %alloc_13 : memref<11xi1>
        %alloc_59 = memref.alloc() : memref<11xi32>
        scf.yield %alloc_59 : memref<11xi32>
      }
      %247 = vector.splat %36 : vector<11x11x16xindex>
      %248 = math.fma %out, %in, %cst : f16
      %249 = math.absf %15 : tensor<11x11x16xf16>
      %250 = vector.broadcast %c384200544_i32 : i32 to vector<i32>
      %251 = vector.transfer_write %250, %7[%c11] : vector<i32>, tensor<5xi32>
      %252 = arith.minsi %c-15181_i16, %c-15181_i16 : i16
      %253 = arith.divf %cst_2, %in_51 : f16
      %254 = arith.cmpf uge, %cst, %in : f16
      %255 = index.mul %c6, %c7
      %false_52 = index.bool.constant false
      %256 = vector.broadcast %255 : index to vector<16xindex>
      %257 = vector.broadcast %false_52 : i1 to vector<16xi1>
      %258 = vector.broadcast %cst_3 : f32 to vector<16xf32>
      vector.scatter %alloc_16[%c3] [%256], %257, %258 : memref<5xf32>, vector<16xindex>, vector<16xi1>, vector<16xf32>
      %259 = arith.remui %false_1, %false_4 : i1
      %260 = math.tanh %cst_3 : f32
      %261 = arith.addf %cst_5, %cst_5 : f16
      %262 = math.absf %cst_5 : f16
      %263 = bufferization.clone %alloc : memref<5xf32> to memref<5xf32>
      %264 = math.log2 %8 : tensor<11xf16>
      %265 = arith.divsi %false, %false_52 : i1
      %266 = index.castu %false_1 : i1 to index
      %267 = vector.broadcast %false_4 : i1 to vector<i1>
      vector.transfer_write %267, %alloc_13[%35] : vector<i1>, memref<11xi1>
      %268 = tensor.empty() : tensor<11x11x16xf32>
      %269 = vector.create_mask %35 : vector<5xi1>
      affine.store %false_4, %alloc_15[%c0] : memref<11xi1>
      %270 = memref.alloca_scope  -> (i16) {
        %275 = arith.shrsi %c411307815_i64, %c346347572_i64 : i64
        %276 = arith.floordivsi %c1898176039_i32, %c1898176039_i32 : i32
        %277 = math.tanh %cst_3 : f32
        %cast_57 = tensor.cast %11 : tensor<11xi32> to tensor<?xi32>
        %278 = math.fpowi %in, %c1898176039_i32 : f16, i32
        %279 = tensor.empty() : tensor<5x5xi64>
        %280 = tensor.empty() : tensor<5x5xi64>
        %281 = linalg.matmul ins(%279, %279 : tensor<5x5xi64>, tensor<5x5xi64>) outs(%280 : tensor<5x5xi64>) -> tensor<5x5xi64>
        %282 = index.floordivs %c4, %c4
        %283 = math.fpowi %5, %11 : tensor<11xf32>, tensor<11xi32>
        %284 = math.fma %20, %8, %10 : tensor<11xf16>
        %285 = index.ceildivs %c2, %c4
        %286 = arith.xori %c1217098576_i64, %c735914286_i64 : i64
        %287 = math.ctpop %c346347572_i64 : i64
        %288 = arith.cmpf true, %cst_0, %cst : f16
        memref.assume_alignment %alloc, 8 : memref<5xf32>
        %c0_i32_58 = arith.constant 0 : i32
        %c0_i32_59 = arith.constant 0 : i32
        %289 = vector.transfer_read %12[%c11], %c0_i32_59 : tensor<11xi32>, vector<i32>
        %290 = math.exp2 %5 : tensor<11xf32>
        %291 = index.mul %c3, %c4
        %292 = tensor.empty() : tensor<11x11x16xf32>
        %293 = math.powf %20, %10 : tensor<11xf16>
        %294 = math.fpowi %cst_3, %c384200544_i32 : f32, i32
        %295 = arith.cmpf ogt, %cst_3, %cst_3 : f32
        %expanded_60 = tensor.expand_shape %15 [[0], [1], [2, 3]] : tensor<11x11x16xf16> into tensor<11x11x16x1xf16>
        %296 = arith.remsi %false_4, %false_1 : i1
        vector.print %269 : vector<5xi1>
        %297 = arith.minf %cst_2, %cst_0 : f16
        %298 = arith.negf %in : f16
        %299 = vector.reduction <maxsi>, %34 : vector<11xi64> into i64
        %alloc_61 = memref.alloc() : memref<f16>
        memref.tensor_store %21, %alloc_61 : memref<f16>
        %300 = arith.shrsi %false, %false_52 : i1
        %301 = arith.subi %c735914286_i64, %c411307815_i64 : i64
        %302 = vector.broadcast %cst_3 : f32 to vector<5xf32>
        %303 = vector.maskedload %alloc[%c1], %269, %302 : memref<5xf32>, vector<5xi1>, vector<5xf32> into vector<5xf32>
        vector.print %267 : vector<i1>
        memref.alloca_scope.return %c-17794_i16 : i16
      }
      %271 = scf.execute_region -> tensor<11xi1> {
        %275 = index.ceildivu %c12, %c14
        %276 = arith.ceildivsi %false_1, %false_1 : i1
        %277 = arith.shrsi %c-17794_i16, %270 : i16
        %278 = vector.reduction <minf>, %19 : vector<5xf16> into f16
        %279 = vector.shuffle %250, %250 [0, 1] : vector<i32>, vector<i32>
        %inserted_57 = tensor.insert %out into %22[] : tensor<f16>
        %280 = math.absf %5 : tensor<11xf32>
        %281 = arith.minsi %c-15181_i16, %270 : i16
        %282 = arith.shrui %c346347572_i64, %c735914286_i64 : i64
        memref.tensor_store %10, %alloc_17 : memref<11xf16>
        memref.copy %alloc_11, %alloc_8 : memref<11xi64> to memref<11xi64>
        %283 = arith.floordivsi %false_4, %false_1 : i1
        %284 = vector.transpose %267, [] : vector<i1> to vector<i1>
        %285 = index.casts %270 : i16 to index
        %286 = math.tanh %10 : tensor<11xf16>
        %287 = math.exp2 %8 : tensor<11xf16>
        scf.yield %1 : tensor<11xi1>
      }
      %272 = memref.atomic_rmw addf %cst_0, %alloc_19[%c6] : (f16, memref<11xf16>) -> f16
      %cast_53 = tensor.cast %10 : tensor<11xf16> to tensor<?xf16>
      %273 = tensor.empty(%35) : tensor<?xf32>
      %false_54 = index.bool.constant false
      %alloca_55 = memref.alloca() : memref<11xi16>
      %274 = math.ceil %21 : tensor<f16>
      %cast_56 = tensor.cast %0 : tensor<11xi1> to tensor<?xi1>
      linalg.yield %in : f16
    } -> tensor<11x11x16xf16>
    %inserted_23 = tensor.insert %c1898176039_i32 into %16[%c5, %c8, %c4] : tensor<11x11x16xi32>
    %47 = affine.if affine_set<(d0) : ((d0 mod 2 - 64) * 64 >= 0, d0 * 128 >= 0, d0 >= 0)>(%c9) -> memref<11x11x16xi64> {
      %246 = index.mul %c14, %c11
      %247 = vector.broadcast %c1217098576_i64 : i64 to vector<5xi64>
      %248 = affine.for %arg2 = 0 to 54 iter_args(%arg3 = %3) -> (tensor<11xi64>) {
        affine.yield %18 : tensor<11xi64>
      }
      %249 = arith.shli %c1898176039_i32, %c384200544_i32 : i32
      %250 = index.sub %c3, %36
      %251 = math.fma %cst_2, %cst_0, %cst_2 : f16
      %252 = math.absf %cst_3 : f32
      %expanded_51 = tensor.expand_shape %14 [[0, 1]] : tensor<11xi1> into tensor<11x1xi1>
      affine.yield %alloc_14 : memref<11x11x16xi64>
    } else {
      %246 = math.powf %cst, %cst_0 : f16
      %247 = affine.if affine_set<(d0, d1, d2) : ((-d1) ceildiv 16 - d1 >= 0, ((-d1) mod 128) * 16 >= 0, d2 >= 0, ((-d1) ceildiv 16) mod 4 == 0)>(%c15, %c7, %c10) -> i1 {
        memref.store %false_4, %alloc_13[%c2] : memref<11xi1>
        %252 = arith.addi %false_1, %false : i1
        %253 = affine.min affine_map<(d0, d1, d2) -> (-d1)>(%c6, %30, %36)
        %rank_52 = tensor.rank %15 : tensor<11x11x16xf16>
        %254 = tensor.empty(%c2) : tensor<?xi32>
        %255 = index.sub %c14, %c3
        %256 = index.mul %c10, %35
        %257 = arith.divui %c1898176039_i32, %c384200544_i32 : i32
        affine.yield %false_1 : i1
      } else {
        %252 = bufferization.clone %alloc_18 : memref<5xi1> to memref<5xi1>
        %253 = vector.reduction <add>, %19 : vector<5xf16> into f16
        memref.tensor_store %20, %alloc_19 : memref<11xf16>
        %254 = vector.broadcast %c12 : index to vector<11xindex>
        %255 = vector.broadcast %false_1 : i1 to vector<11xi1>
        vector.scatter %alloc_18[%c0] [%254], %255, %255 : memref<5xi1>, vector<11xindex>, vector<11xi1>, vector<11xi1>
        %256 = math.round %10 : tensor<11xf16>
        %257 = index.mul %c4, %c4
        %258 = arith.shrsi %c1217098576_i64, %c346347572_i64 : i64
        %259 = vector.broadcast %c12 : index to vector<11xindex>
        %260 = vector.broadcast %false_1 : i1 to vector<11xi1>
        vector.scatter %alloc_6[%c9, %c3, %c0] [%259], %260, %34 : memref<11x11x16xi64>, vector<11xindex>, vector<11xi1>, vector<11xi64>
        affine.yield %false_1 : i1
      }
      %248 = arith.divsi %c735914286_i64, %c411307815_i64 : i64
      %249 = arith.muli %c735914286_i64, %c346347572_i64 : i64
      %250 = vector.splat %c12 : vector<5xindex>
      scf.execute_region {
        %252 = math.log %cst_5 : f16
        %253 = index.divs %c4, %c2
        %254 = vector.broadcast %cst : f16 to vector<11xf16>
        %255 = math.absi %c1217098576_i64 : i64
        %256 = math.powf %15, %15 : tensor<11x11x16xf16>
        %257 = math.exp2 %cst_3 : f32
        %258 = vector.flat_transpose %254 {columns = 11 : i32, rows = 1 : i32} : vector<11xf16> -> vector<11xf16>
        %259 = arith.ceildivsi %c346347572_i64, %c346347572_i64 : i64
        %260 = math.round %15 : tensor<11x11x16xf16>
        %261 = arith.cmpf ult, %cst, %cst_2 : f16
        %262 = math.ctlz %c384200544_i32 : i32
        %263 = bufferization.to_tensor %alloc_8 : memref<11xi64>
        %264 = index.sub %35, %c6
        %265 = index.sub %c7, %264
        %266 = vector.shuffle %258, %19 [0, 2, 3, 5, 6, 7, 8, 9, 10, 11, 13, 14] : vector<11xf16>, vector<5xf16>
        %cast_52 = tensor.cast %11 : tensor<11xi32> to tensor<?xi32>
        scf.yield
      }
      %alloca_51 = memref.alloca() : memref<11x11x16xf32>
      %251 = math.fma %10, %8, %20 : tensor<11xf16>
      affine.yield %alloc_6 : memref<11x11x16xi64>
    }
    memref.copy %alloc_6, %alloc_14 : memref<11x11x16xi64> to memref<11x11x16xi64>
    %c0_i16 = arith.constant 0 : i16
    %c0_i16_24 = arith.constant 0 : i16
    %48 = vector.transfer_read %4[%c1], %c0_i16_24 : tensor<11xi16>, vector<i16>
    %rank = tensor.rank %3 : tensor<11xi64>
    memref.copy %alloc, %alloc_16 : memref<5xf32> to memref<5xf32>
    %49 = vector.broadcast %c346347572_i64 : i64 to vector<i64>
    %50 = vector.transfer_write %49, %13[%c4] : vector<i64>, tensor<11xi64>
    %51 = arith.ceildivsi %false_1, %false : i1
    %52 = arith.divsi %false_4, %false : i1
    %53 = bufferization.clone %alloc_18 : memref<5xi1> to memref<5xi1>
    %alloca = memref.alloca() : memref<5xi32>
    %54 = index.divs %c5, %c11
    memref.assume_alignment %alloc_6, 16 : memref<11x11x16xi64>
    %55 = arith.divf %cst_2, %cst_2 : f16
    %rank_25 = tensor.rank %transposed : tensor<11xi64>
    %56 = index.castu %c0 : index to i32
    %57 = math.powf %cst_5, %cst_5 : f16
    %58 = math.tanh %10 : tensor<11xf16>
    %59 = arith.cmpi uge, %false, %false : i1
    %60 = math.log10 %cst_3 : f32
    %61 = index.sub %36, %rank_25
    %62 = math.log10 %8 : tensor<11xf16>
    vector.print %19 : vector<5xf16>
    %63 = arith.addi %c-15181_i16, %c-17794_i16 : i16
    %64 = math.ctlz %9 : tensor<11x11x16xi32>
    %65 = arith.minf %cst_0, %cst : f16
    %66 = arith.ceildivsi %false_1, %false_1 : i1
    %67 = vector.broadcast %cst_3 : f32 to vector<11xf32>
    %68 = vector.fma %67, %67, %67 : vector<11xf32>
    %69 = arith.negf %cst_0 : f16
    %70 = arith.shli %c346347572_i64, %c346347572_i64 : i64
    memref.tensor_store %13, %alloc_11 : memref<11xi64>
    %71 = vector.broadcast %61 : index to vector<5xindex>
    vector.scatter %alloc_17[%c2] [%71], %24, %19 : memref<11xf16>, vector<5xindex>, vector<5xi1>, vector<5xf16>
    %72 = index.castu %c9 : index to i32
    %73 = affine.load %alloc_9[%c0] : memref<5xi32>
    %74 = math.absf %8 : tensor<11xf16>
    %75 = index.sub %rank, %c10
    %76 = affine.load %alloc_7[%c7, %c7, %c8] : memref<11x11x16xf32>
    %77 = affine.if affine_set<(d0) : ((d0 mod 2 - 64) * 64 >= 0, d0 * 128 >= 0, d0 >= 0)>(%c7) -> memref<11xf16> {
      %246 = arith.shrsi %c-17794_i16, %c-15181_i16 : i16
      %247 = memref.atomic_rmw mulf %cst, %alloc_19[%c2] : (f16, memref<11xf16>) -> f16
      %248 = tensor.empty() : tensor<11xf16>
      %alloc_51 = memref.alloc() : memref<11x11x16xi64>
      %249 = arith.minsi %false_1, %false_4 : i1
      memref.copy %alloc_18, %53 : memref<5xi1> to memref<5xi1>
      %250 = scf.while (%arg2 = %67) : (vector<11xf32>) -> vector<11xf32> {
        %252 = math.round %248 : tensor<11xf16>
        %253 = vector.multi_reduction <maxf>, %68, %cst_3 [0] : vector<11xf32> to f32
        %254 = tensor.empty() : tensor<11xi64>
        bufferization.dealloc_tensor %16 : tensor<11x11x16xi32>
        %255 = arith.maxf %253, %cst_3 : f32
        %256 = math.copysign %5, %5 : tensor<11xf32>
        %257 = arith.minsi %c411307815_i64, %c735914286_i64 : i64
        %258 = arith.minsi %c735914286_i64, %c1217098576_i64 : i64
        scf.condition(%false_4) %67 : vector<11xf32>
      } do {
      ^bb0(%arg2: vector<11xf32>):
        %252 = arith.shrui %c-15181_i16, %c-15181_i16 : i16
        %253 = index.maxs %c10, %rank
        %254 = arith.ceildivsi %false_1, %false : i1
        %255 = arith.addf %76, %76 : f32
        %true_52 = index.bool.constant true
        %256 = vector.reduction <add>, %24 : vector<5xi1> into i1
        %257 = arith.divui %73, %73 : i32
        %258 = vector.splat %73 : vector<11x11x16xi32>
        %extracted_53 = tensor.extract %7[%c2] : tensor<5xi32>
        %259 = vector.broadcast %c-15181_i16 : i16 to vector<11xi16>
        memref.copy %alloc_16, %alloc : memref<5xf32> to memref<5xf32>
        %260 = math.atan2 %5, %5 : tensor<11xf32>
        %261 = bufferization.to_tensor %alloc_14 : memref<11x11x16xi64>
        memref.copy %alloc_14, %alloc_6 : memref<11x11x16xi64> to memref<11x11x16xi64>
        %alloc_54 = memref.alloc() : memref<5xi64>
        %262 = vector.broadcast %cst_3 : f32 to vector<5xf32>
        %263 = vector.fma %262, %262, %262 : vector<5xf32>
        scf.yield %68 : vector<11xf32>
      }
      %251 = math.copysign %5, %5 : tensor<11xf32>
      affine.yield %alloc_17 : memref<11xf16>
    } else {
      %246 = vector.insertelement %c735914286_i64, %34[%c3 : index] : vector<11xi64>
      %247 = math.exp2 %8 : tensor<11xf16>
      vector.print %68 : vector<11xf32>
      %248 = math.ctlz %3 : tensor<11xi64>
      %249 = math.ipowi %11, %11 : tensor<11xi32>
      %250 = index.castu %false_1 : i1 to index
      affine.store %false_1, %53[%c3] : memref<5xi1>
      %251 = vector.flat_transpose %24 {columns = 5 : i32, rows = 1 : i32} : vector<5xi1> -> vector<5xi1>
      affine.yield %alloc_17 : memref<11xf16>
    }
    %78 = math.copysign %15, %15 : tensor<11x11x16xf16>
    %expanded = tensor.expand_shape %18 [[0, 1]] : tensor<11xi64> into tensor<11x1xi64>
    %79 = index.sub %c13, %c10
    %80 = arith.minf %cst_0, %cst_0 : f16
    %81 = math.ctlz %c735914286_i64 : i64
    %82 = math.log10 %8 : tensor<11xf16>
    %splat = tensor.splat %73 : tensor<11x11x16xi32>
    %83 = math.powf %cst_0, %cst : f16
    %84 = math.log %8 : tensor<11xf16>
    %85 = vector.insertelement %cst_3, %68[%c11 : index] : vector<11xf32>
    %86 = math.fpowi %10, %11 : tensor<11xf16>, tensor<11xi32>
    %87 = math.tanh %5 : tensor<11xf32>
    %88 = math.fpowi %5, %11 : tensor<11xf32>, tensor<11xi32>
    vector.print %19 : vector<5xf16>
    %c1_i32 = arith.constant 1 : i32
    %c0_i32 = arith.constant 0 : i32
    %89 = vector.transfer_read %alloc_9[%45], %c0_i32 : memref<5xi32>, vector<i32>
    %90 = memref.atomic_rmw mulf %76, %alloc[%c2] : (f32, memref<5xf32>) -> f32
    %91 = vector.broadcast %cst_3 : f32 to vector<11x11x16xf32>
    %92 = vector.fma %91, %91, %91 : vector<11x11x16xf32>
    %93 = arith.addf %cst_5, %cst : f16
    %94 = arith.minsi %c-17794_i16, %c0_i16 : i16
    %95 = math.atan2 %10, %10 : tensor<11xf16>
    %96 = tensor.empty(%rank_25, %c6) : tensor<?x?x16xi1>
    %97 = vector.broadcast %cst_3 : f32 to vector<11x16x11x16xf32>
    %98 = vector.contract {indexing_maps = [affine_map<(d0, d1, d2, d3, d4) -> (d4, d0, d1)>, affine_map<(d0, d1, d2, d3, d4) -> (d4, d2, d3)>, affine_map<(d0, d1, d2, d3, d4) -> (d0, d1, d2, d3)>], iterator_types = ["parallel", "parallel", "parallel", "parallel", "reduction"], kind = #vector.kind<minf>} %91, %91, %97 : vector<11x11x16xf32>, vector<11x11x16xf32> into vector<11x16x11x16xf32>
    %99 = arith.minsi %c1898176039_i32, %c1898176039_i32 : i32
    %100 = affine.for %arg2 = 0 to 6 iter_args(%arg3 = %7) -> (tensor<5xi32>) {
      affine.yield %7 : tensor<5xi32>
    }
    %101 = math.absi %c346347572_i64 : i64
    %102 = math.ctlz %transposed : tensor<11xi64>
    %103 = math.absi %c384200544_i32 : i32
    %104 = math.log10 %5 : tensor<11xf32>
    %105 = vector.transpose %68, [0] : vector<11xf32> to vector<11xf32>
    %cast = tensor.cast %3 : tensor<11xi64> to tensor<?xi64>
    %106 = math.exp %5 : tensor<11xf32>
    %107 = arith.muli %c346347572_i64, %c1217098576_i64 : i64
    memref.store %c411307815_i64, %alloc_6[%c2, %c10, %c1] : memref<11x11x16xi64>
    bufferization.dealloc_tensor %22 : tensor<f16>
    %108 = math.ctpop %c384200544_i32 : i32
    %109 = vector.flat_transpose %19 {columns = 5 : i32, rows = 1 : i32} : vector<5xf16> -> vector<5xf16>
    %110 = math.fma %5, %5, %5 : tensor<11xf32>
    %111 = index.maxu %35, %c3
    %112 = arith.muli %73, %73 : i32
    %113 = math.atan %15 : tensor<11x11x16xf16>
    %114 = vector.reduction <mul>, %67 : vector<11xf32> into f32
    %115 = vector.flat_transpose %34 {columns = 11 : i32, rows = 1 : i32} : vector<11xi64> -> vector<11xi64>
    %116 = arith.divui %73, %73 : i32
    %117 = index.divs %c14, %c7
    %cast_26 = tensor.cast %20 : tensor<11xf16> to tensor<?xf16>
    %118 = index.mul %35, %c1
    %119 = affine.if affine_set<(d0) : ((d0 mod 128) * 2 == 0)>(%c8) -> f16 {
      %246 = affine.min affine_map<(d0) -> (d0 * 128, d0 * -9, d0 * 8, d0 * -2)>(%35)
      %247 = index.mul %111, %c10
      %248 = index.sub %c15, %c13
      %249 = bufferization.to_tensor %alloc_15 : memref<11xi1>
      %alloc_51 = memref.alloc() : memref<1x5xi64>
      %250 = tensor.empty() : tensor<11x5xi64>
      %251 = linalg.matmul ins(%expanded, %alloc_51 : tensor<11x1xi64>, memref<1x5xi64>) outs(%250 : tensor<11x5xi64>) -> tensor<11x5xi64>
      %rank_52 = tensor.rank %3 : tensor<11xi64>
      %252 = vector.broadcast %c735914286_i64 : i64 to vector<5xi64>
      %253 = vector.broadcast %c1898176039_i32 : i32 to vector<5xi32>
      %254 = vector.gather %alloc_11[%c12] [%253], %24, %252 : memref<11xi64>, vector<5xi32>, vector<5xi1>, vector<5xi64> into vector<5xi64>
      %255 = math.log10 %8 : tensor<11xf16>
      affine.yield %cst_5 : f16
    } else {
      %246 = math.floor %5 : tensor<11xf32>
      %247 = math.sqrt %8 : tensor<11xf16>
      bufferization.dealloc_tensor %cast : tensor<?xi64>
      %248 = index.sub %35, %c2
      %249 = arith.xori %c1_i32, %c1898176039_i32 : i32
      %250 = vector.broadcast %cst_3 : f32 to vector<5xf32>
      %251 = vector.fma %250, %250, %250 : vector<5xf32>
      %252 = arith.addf %cst, %cst_5 : f16
      %253 = arith.minsi %c346347572_i64, %c411307815_i64 : i64
      affine.yield %cst : f16
    }
    %extracted = tensor.extract %splat[%c3, %c8, %c11] : tensor<11x11x16xi32>
    %120 = affine.min affine_map<(d0) -> (0)>(%c4)
    %121 = vector.broadcast %76 : f32 to vector<16xf32>
    %122 = vector.broadcast %false_1 : i1 to vector<16xi1>
    %123 = vector.maskedload %alloc_16[%c2], %122, %121 : memref<5xf32>, vector<16xi1>, vector<16xf32> into vector<16xf32>
    %124 = math.fma %10, %8, %20 : tensor<11xf16>
    %125 = index.divu %c7, %c11
    %126 = index.maxu %30, %75
    %127 = index.sub %c13, %117
    %inserted_27 = tensor.insert %false into %0[%c0] : tensor<11xi1>
    %128 = math.atan %5 : tensor<11xf32>
    %129 = vector.bitcast %25 : vector<5xi16> to vector<5xf16>
    %130 = vector.bitcast %34 : vector<11xi64> to vector<11xi64>
    %131 = vector.broadcast %false_4 : i1 to vector<i1>
    %132 = vector.transfer_write %131, %1[%c10] : vector<i1>, tensor<11xi1>
    %133 = math.ceil %cst_5 : f16
    %134 = vector.shuffle %23, %25 [0, 2, 8, 9] : vector<5xi16>, vector<5xi16>
    %135 = vector.broadcast %cst_3 : f32 to vector<11x11xf32>
    %dest, %accumulated_value = vector.scan <minf>, %91, %135 {inclusive = true, reduction_dim = 2 : i64} : vector<11x11x16xf32>, vector<11x11xf32>
    %136 = arith.divsi %false_4, %false_1 : i1
    %137 = arith.remui %false, %false_1 : i1
    memref.copy %alloc_16, %alloc : memref<5xf32> to memref<5xf32>
    %138 = math.fpowi %5, %11 : tensor<11xf32>, tensor<11xi32>
    %139 = math.exp %8 : tensor<11xf16>
    %140 = arith.remsi %c1217098576_i64, %c1217098576_i64 : i64
    %141 = math.ctpop %c1898176039_i32 : i32
    %142 = math.fma %20, %20, %8 : tensor<11xf16>
    %143 = tensor.empty() : tensor<11xi64>
    %alloca_28 = memref.alloca() : memref<5xi32>
    %144 = arith.divsi %false_4, %false_4 : i1
    %145 = arith.addf %cst, %cst_2 : f16
    %alloca_29 = memref.alloca() : memref<11xf16>
    %146 = math.fma %10, %10, %8 : tensor<11xf16>
    %alloc_30 = memref.alloc() : memref<11x11x16xf32>
    %147 = affine.if affine_set<(d0) : ((d0 ceildiv 4) floordiv 2 == 0)>(%c4) -> memref<11xi32> {
      %c1_i32_51 = arith.constant 1 : i32
      %c0_i32_52 = arith.constant 0 : i32
      %246 = vector.transfer_read %12[%c0], %c0_i32_52 : tensor<11xi32>, vector<i32>
      %247 = vector.broadcast %76 : f32 to vector<11xf32>
      %248 = vector.fma %247, %67, %67 : vector<11xf32>
      %249 = math.round %cst : f16
      %250 = math.ctlz %1 : tensor<11xi1>
      %251 = scf.while (%arg2 = %c1217098576_i64) : (i64) -> i64 {
        %254 = math.powf %22, %22 : tensor<f16>
        %255 = math.ctlz %expanded : tensor<11x1xi64>
        %256 = math.fpowi %8, %11 : tensor<11xf16>, tensor<11xi32>
        %extracted_54 = tensor.extract %splat[%c0, %c5, %c6] : tensor<11x11x16xi32>
        %257 = vector.broadcast %extracted_54 : i32 to vector<11xi32>
        %258 = vector.broadcast %false_1 : i1 to vector<11xi1>
        %259 = vector.gather %9[%35, %125, %79] [%257], %258, %257 : tensor<11x11x16xi32>, vector<11xi32>, vector<11xi1>, vector<11xi32> into vector<11xi32>
        %260 = math.round %cst_2 : f16
        %261 = index.floordivs %75, %c4
        %262 = vector.reduction <add>, %121 : vector<16xf32> into f32
        scf.condition(%false) %c346347572_i64 : i64
      } do {
      ^bb0(%arg2: i64):
        %alloc_54 = memref.alloc() : memref<11xi16>
        %254 = vector.broadcast %c-17794_i16 : i16 to vector<11xi16>
        %255 = vector.broadcast %false_4 : i1 to vector<11xi1>
        %256 = vector.broadcast %c1_i32 : i32 to vector<11xi32>
        %257 = vector.gather %alloc_54[%c3] [%256], %255, %254 : memref<11xi16>, vector<11xi32>, vector<11xi1>, vector<11xi16> into vector<11xi16>
        %258 = arith.addf %cst_0, %cst_5 : f16
        %259 = index.divs %c2, %c9
        %260 = tensor.empty() : tensor<1x5xi64>
        %261 = tensor.empty() : tensor<11x5xi64>
        %262 = linalg.matmul ins(%expanded, %260 : tensor<11x1xi64>, tensor<1x5xi64>) outs(%261 : tensor<11x5xi64>) -> tensor<11x5xi64>
        %alloca_55 = memref.alloca() : memref<11xi32>
        %263 = math.exp %21 : tensor<f16>
        %264 = index.sub %c13, %36
        %265 = math.exp %cst : f16
        %266 = vector.insertelement %cst_3, %247[%c2 : index] : vector<11xf32>
        %267 = vector.broadcast %76 : f32 to vector<11xf32>
        %268 = vector.fma %267, %68, %68 : vector<11xf32>
        %269 = vector.insertelement %cst_3, %123[%75 : index] : vector<16xf32>
        %collapsed = tensor.collapse_shape %9 [[0, 1], [2]] : tensor<11x11x16xi32> into tensor<121x16xi32>
        %270 = arith.divsi %c411307815_i64, %c411307815_i64 : i64
        %271 = vector.broadcast %cst_3 : f32 to vector<5xf32>
        %272 = vector.fma %271, %271, %271 : vector<5xf32>
        %273 = math.ceil %cst_3 : f32
        %274 = math.powf %15, %15 : tensor<11x11x16xf16>
        scf.yield %c411307815_i64 : i64
      }
      %252 = arith.shrsi %c-15181_i16, %c0_i16 : i16
      scf.execute_region {
        %254 = arith.minui %c411307815_i64, %c735914286_i64 : i64
        memref.store %cst_3, %alloc[%c4] : memref<5xf32>
        %255 = math.exp2 %5 : tensor<11xf32>
        %256 = math.ipowi %c384200544_i32, %c1_i32 : i32
        %257 = index.casts %c0_i16 : i16 to index
        %258 = index.divs %c4, %45
        %259 = index.casts %c411307815_i64 : i64 to index
        %260 = vector.broadcast %cst_0 : f16 to vector<11xf16>
        %261 = index.ceildivu %126, %c11
        %262 = index.maxs %c10, %126
        %263 = vector.load %alloc_9[%c1] : memref<5xi32>, vector<11xi32>
        %264 = math.tanh %cst : f16
        %265 = arith.muli %c1_i32, %c1_i32_51 : i32
        %266 = vector.broadcast %false_4 : i1 to vector<11xi1>
        %267 = vector.maskedload %53[%c4], %266, %266 : memref<5xi1>, vector<11xi1>, vector<11xi1> into vector<11xi1>
        %268 = vector.insertelement %c735914286_i64, %49[] : vector<i64>
        %269 = vector.bitcast %129 : vector<5xf16> to vector<5xf16>
        scf.yield
      }
      %253 = arith.remui %c1217098576_i64, %c411307815_i64 : i64
      %alloc_53 = memref.alloc() : memref<11xi32>
      affine.yield %alloc_53 : memref<11xi32>
    } else {
      %246 = math.fma %5, %5, %5 : tensor<11xf32>
      %247 = index.sub %c2, %120
      %248 = index.castu %35 : index to i32
      %249 = vector.transpose %115, [0] : vector<11xi64> to vector<11xi64>
      %250 = arith.muli %73, %c1_i32 : i32
      %251 = index.add %c14, %247
      %from_elements = tensor.from_elements %c735914286_i64, %c346347572_i64, %c1217098576_i64, %c346347572_i64, %c346347572_i64 : tensor<5xi64>
      %252 = vector.broadcast %cst_3 : f32 to vector<11x11xf32>
      %253 = vector.contract {indexing_maps = [affine_map<(d0, d1, d2) -> (d2)>, affine_map<(d0, d1, d2) -> (d0, d1, d2)>, affine_map<(d0, d1, d2) -> (d0, d1)>], iterator_types = ["parallel", "parallel", "reduction"], kind = #vector.kind<add>} %121, %91, %252 : vector<16xf32>, vector<11x11x16xf32> into vector<11x11xf32>
      %alloc_51 = memref.alloc() : memref<11xi32>
      affine.yield %alloc_51 : memref<11xi32>
    }
    %148 = math.fpowi %10, %12 : tensor<11xf16>, tensor<11xi32>
    %149 = math.ipowi %3, %143 : tensor<11xi64>
    %inserted_31 = tensor.insert %c1_i32 into %11[%c3] : tensor<11xi32>
    %expanded_32 = tensor.expand_shape %6 [[0, 1]] : tensor<5xi1> into tensor<5x1xi1>
    %150 = index.sub %120, %c9
    %151 = index.divs %79, %61
    %152 = math.exp %8 : tensor<11xf16>
    %153 = math.exp2 %8 : tensor<11xf16>
    %generated = tensor.generate %35 {
    ^bb0(%arg2: index):
      bufferization.dealloc_tensor %expanded_32 : tensor<5x1xi1>
      %rank_51 = tensor.rank %9 : tensor<11x11x16xi32>
      %246 = arith.minf %cst, %cst : f16
      %247 = vector.broadcast %cst_2 : f16 to vector<11xf16>
      tensor.yield %extracted : i32
    } : tensor<?xi32>
    %extracted_33 = tensor.extract %splat[%c6, %c7, %c6] : tensor<11x11x16xi32>
    %154 = math.absi %11 : tensor<11xi32>
    %155 = arith.addi %c735914286_i64, %c346347572_i64 : i64
    %156 = scf.if %false_4 -> (memref<11xi1>) {
      %246 = math.tanh %8 : tensor<11xf16>
      %247 = math.rsqrt %22 : tensor<f16>
      %248 = index.casts %c384200544_i32 : i32 to index
      %249 = arith.floordivsi %c1217098576_i64, %c735914286_i64 : i64
      %alloca_51 = memref.alloca() : memref<11xf32>
      %250 = math.fpowi %cst_2, %c1898176039_i32 : f16, i32
      %251 = index.maxs %120, %111
      %252 = affine.load %alloc_6[%c8, %c9, %c9] : memref<11x11x16xi64>
      scf.yield %alloc_13 : memref<11xi1>
    } else {
      %246 = affine.for %arg2 = 0 to 84 iter_args(%arg3 = %alloc_9) -> (memref<5xi32>) {
        affine.yield %alloc_9 : memref<5xi32>
      }
      %247 = arith.addf %cst, %cst_2 : f16
      %248 = arith.maxui %c384200544_i32, %c384200544_i32 : i32
      %249 = vector.reduction <and>, %122 : vector<16xi1> into i1
      %extracted_51 = tensor.extract %20[%c4] : tensor<11xf16>
      %250 = arith.ceildivsi %c1_i32, %extracted : i32
      %rank_52 = tensor.rank %12 : tensor<11xi32>
      %251 = affine.if affine_set<(d0, d1) : ((d1 + d0) * 2 - 4 >= 0, d1 - 32 == 0, d1 + (d1 + d0) * 2 >= 0, 0 >= 0)>(%c6, %c11) -> memref<11x11x16xi64> {
        %252 = vector.broadcast %76 : f32 to vector<5xf32>
        %253 = vector.fma %252, %252, %252 : vector<5xf32>
        %254 = vector.insertelement %c1217098576_i64, %115[%125 : index] : vector<11xi64>
        %255 = vector.maskedload %alloc_18[%c4], %24, %24 : memref<5xi1>, vector<5xi1>, vector<5xi1> into vector<5xi1>
        %256 = math.ceil %8 : tensor<11xf16>
        %extracted_53 = tensor.extract %5[%c10] : tensor<11xf32>
        %257 = vector.broadcast %76 : f32 to vector<5xf32>
        %258 = vector.broadcast %false_1 : i1 to vector<i1>
        %259 = vector.transfer_write %258, %6[%35] : vector<i1>, tensor<5xi1>
        %260 = math.exp %10 : tensor<11xf16>
        affine.yield %alloc_14 : memref<11x11x16xi64>
      } else {
        %alloca_53 = memref.alloca() : memref<5xf32>
        %252 = arith.xori %c346347572_i64, %c1217098576_i64 : i64
        %cst_54 = arith.constant 0x4D8166B0 : f32
        %253 = index.maxs %127, %75
        %254 = arith.mulf %cst_2, %cst : f16
        %255 = arith.cmpf oeq, %cst_2, %cst_2 : f16
        %true_55 = index.bool.constant true
        %256 = vector.shuffle %49, %49 [0, 1] : vector<i64>, vector<i64>
        affine.yield %alloc_14 : memref<11x11x16xi64>
      }
      scf.yield %alloc_13 : memref<11xi1>
    }
    %157 = arith.muli %false_1, %false_4 : i1
    %158 = affine.max affine_map<(d0) -> (d0 + 1, 1, -3)>(%c0)
    %159 = math.atan2 %cst, %cst_0 : f16
    %160 = affine.for %arg2 = 0 to 116 iter_args(%arg3 = %73) -> (i32) {
      affine.yield %73 : i32
    }
    %161 = arith.floordivsi %73, %extracted_33 : i32
    %162 = vector.maskedload %alloc_7[%c0, %c6, %c13], %122, %121 : memref<11x11x16xf32>, vector<16xi1>, vector<16xf32> into vector<16xf32>
    %true = index.bool.constant true
    %cst_34 = arith.constant 1.052800e+04 : f16
    %163 = math.exp %5 : tensor<11xf32>
    %164 = vector.splat %150 : vector<11x11x16xindex>
    %165 = math.exp2 %20 : tensor<11xf16>
    %166 = affine.for %arg2 = 0 to 16 iter_args(%arg3 = %123) -> (vector<16xf32>) {
      affine.yield %162 : vector<16xf32>
    }
    %true_35 = arith.constant true
    %167 = bufferization.to_memref %7 : memref<5xi32>
    %168 = affine.min affine_map<(d0) -> (d0 - 32, (d0 + 4) ceildiv 32)>(%118)
    %169 = vector.extract_strided_slice %122 {offsets = [7], sizes = [2], strides = [1]} : vector<16xi1> to vector<2xi1>
    %170 = vector.broadcast %c735914286_i64 : i64 to vector<5xi64>
    %171 = vector.maskedload %alloc_11[%c6], %24, %170 : memref<11xi64>, vector<5xi1>, vector<5xi64> into vector<5xi64>
    %c1136097543_i64 = arith.constant 1136097543 : i64
    %c716076606_i64 = arith.constant 716076606 : i64
    %c0_i32_36 = arith.constant 0 : i32
    %172 = vector.transfer_read %7[%36], %c0_i32_36 : tensor<5xi32>, vector<i32>
    %false_37 = arith.constant false
    %173 = index.divs %c1, %120
    %174 = arith.minsi %extracted_33, %extracted : i32
    bufferization.dealloc_tensor %15 : tensor<11x11x16xf16>
    %cast_38 = tensor.cast %10 : tensor<11xf16> to tensor<?xf16>
    %175 = index.add %30, %c11
    %176 = arith.ceildivsi %c1_i32, %73 : i32
    %177 = bufferization.to_tensor %alloc_9 : memref<5xi32>
    %178 = math.atan2 %cst_0, %cst_0 : f16
    %alloc_39 = memref.alloc() : memref<1x16xi1>
    %179 = tensor.empty() : tensor<5x16xi1>
    %180 = linalg.matmul ins(%expanded_32, %alloc_39 : tensor<5x1xi1>, memref<1x16xi1>) outs(%179 : tensor<5x16xi1>) -> tensor<5x16xi1>
    vector.print %25 : vector<5xi16>
    %181 = math.log10 %15 : tensor<11x11x16xf16>
    %182 = math.tan %8 : tensor<11xf16>
    %183 = math.roundeven %21 : tensor<f16>
    %184 = arith.divf %cst_3, %cst_3 : f32
    %expanded_40 = tensor.expand_shape %8 [[0, 1]] : tensor<11xf16> into tensor<11x1xf16>
    %185 = index.castu %c411307815_i64 : i64 to index
    memref.assume_alignment %alloc_18, 4 : memref<5xi1>
    %186 = arith.remsi %c384200544_i32, %extracted : i32
    %187 = arith.shrui %c0_i32_36, %c1_i32 : i32
    %188 = vector.shuffle %169, %24 [0, 2, 4, 5] : vector<2xi1>, vector<5xi1>
    %189 = vector.insertelement %false_4, %131[] : vector<i1>
    %190 = math.log10 %22 : tensor<f16>
    %191 = vector.reduction <xor>, %34 : vector<11xi64> into i64
    %192 = index.mul %117, %125
    %193 = arith.maxf %cst_0, %cst_5 : f16
    %194 = vector.reduction <xor>, %24 : vector<5xi1> into i1
    %195 = arith.shrsi %c0_i16, %c-17794_i16 : i16
    %196 = math.absf %cst_2 : f16
    %197 = scf.execute_region -> vector<11xi32> {
      %246 = vector.create_mask %118 : vector<5xi1>
      %247 = affine.load %alloc_6[%c6, %c1, %c6] : memref<11x11x16xi64>
      %248 = vector.broadcast %c1217098576_i64 : i64 to vector<11x11x16xi64>
      %249 = vector.broadcast %true : i1 to vector<11x11x16xi1>
      %250 = vector.broadcast %extracted : i32 to vector<11x11x16xi32>
      %251 = vector.gather %alloc_8[%75] [%250], %249, %248 : memref<11xi64>, vector<11x11x16xi32>, vector<11x11x16xi1>, vector<11x11x16xi64> into vector<11x11x16xi64>
      %252 = math.ipowi %12, %12 : tensor<11xi32>
      %253 = arith.shrsi %c0_i32_36, %c1_i32 : i32
      %254 = math.log10 %cst_5 : f16
      %255 = math.fma %expanded_40, %expanded_40, %expanded_40 : tensor<11x1xf16>
      %256 = math.fma %cst_3, %cst_3, %cst_3 : f32
      %257 = arith.divsi %c1217098576_i64, %c411307815_i64 : i64
      bufferization.dealloc_tensor %transposed : tensor<11xi64>
      %258 = index.castu %175 : index to i32
      %259 = memref.atomic_rmw addf %76, %alloc_7[%c2, %c4, %c3] : (f32, memref<11x11x16xf32>) -> f32
      %260 = affine.load %alloc_9[%c6] : memref<5xi32>
      %261 = vector.insertelement %true, %169[%79 : index] : vector<2xi1>
      %262 = memref.realloc %alloc_8 : memref<11xi64> to memref<16xi64>
      bufferization.dealloc_tensor %6 : tensor<5xi1>
      %263 = vector.broadcast %extracted_33 : i32 to vector<11xi32>
      scf.yield %263 : vector<11xi32>
    }
    %198 = arith.cmpf ord, %cst_0, %cst : f16
    %199 = arith.divsi %c411307815_i64, %c1217098576_i64 : i64
    %expanded_41 = tensor.expand_shape %4 [[0, 1]] : tensor<11xi16> into tensor<11x1xi16>
    %200 = affine.if affine_set<(d0) : ((d0 mod 128) * 2 == 0)>(%c14) -> memref<5xf16> {
      %246 = math.absi %transposed : tensor<11xi64>
      %247 = memref.atomic_rmw assign %cst, %alloc_17[%c2] : (f16, memref<11xf16>) -> f16
      %inserted_51 = tensor.insert %c1217098576_i64 into %expanded[%c5, %c0] : tensor<11x1xi64>
      %248 = vector.broadcast %76 : f32 to vector<11x11x16xf32>
      %249 = arith.addf %cst_2, %cst_0 : f16
      %250 = index.sub %rank, %c0
      %251 = math.absf %10 : tensor<11xf16>
      %252 = arith.minsi %c1217098576_i64, %c346347572_i64 : i64
      %alloc_52 = memref.alloc() : memref<5xf16>
      affine.yield %alloc_52 : memref<5xf16>
    } else {
      %246 = affine.load %156[%c3] : memref<11xi1>
      %247 = math.ceil %20 : tensor<11xf16>
      %rank_51 = tensor.rank %5 : tensor<11xf32>
      %248 = tensor.empty() : tensor<11xi1>
      %249 = index.castu %246 : i1 to index
      %250 = math.log %20 : tensor<11xf16>
      %extracted_52 = tensor.extract %splat[%c6, %c7, %c11] : tensor<11x11x16xi32>
      %alloca_53 = memref.alloca() : memref<11x11x16xf32>
      %alloc_54 = memref.alloc() : memref<5xf16>
      affine.yield %alloc_54 : memref<5xf16>
    }
    memref.copy %alloc_16, %alloc : memref<5xf32> to memref<5xf32>
    %201 = bufferization.clone %alloc_13 : memref<11xi1> to memref<11xi1>
    %202 = affine.for %arg2 = 0 to 49 iter_args(%arg3 = %rank) -> (index) {
      affine.yield %30 : index
    }
    %203 = scf.execute_region -> i32 {
      %246 = math.log10 %22 : tensor<f16>
      %extracted_51 = tensor.extract %14[%c7] : tensor<11xi1>
      %rank_52 = tensor.rank %8 : tensor<11xf16>
      %inserted_53 = tensor.insert %cst_2 into %8[%c10] : tensor<11xf16>
      %247 = math.ipowi %c0_i16, %c-17794_i16 : i16
      %248 = arith.shrsi %false_4, %extracted_51 : i1
      %249 = vector.insertelement %false_1, %122[%c12 : index] : vector<16xi1>
      %250 = arith.remui %false, %extracted_51 : i1
      memref.copy %201, %156 : memref<11xi1> to memref<11xi1>
      memref.store %c0_i32_36, %167[%c0] : memref<5xi32>
      %251 = math.fma %76, %76, %cst_3 : f32
      %extracted_54 = tensor.extract %14[%c2] : tensor<11xi1>
      %252 = arith.minsi %false, %extracted_54 : i1
      %253 = arith.minsi %c411307815_i64, %c1217098576_i64 : i64
      %254 = vector.load %alloc_18[%c2] : memref<5xi1>, vector<11x11x16xi1>
      scf.execute_region {
        %255 = index.castu %c8 : index to i32
        %alloc_55 = memref.alloc() : memref<11x11x16xf32>
        memref.copy %alloc_7, %alloc_55 : memref<11x11x16xf32> to memref<11x11x16xf32>
        %256 = math.ctlz %143 : tensor<11xi64>
        %257 = math.log10 %15 : tensor<11x11x16xf16>
        %258 = arith.muli %extracted_51, %false : i1
        %expanded_56 = tensor.expand_shape %4 [[0, 1]] : tensor<11xi16> into tensor<11x1xi16>
        %259 = index.divu %c15, %c12
        %260 = vector.broadcast %c1898176039_i32 : i32 to vector<5xi32>
        %261 = vector.maskedload %167[%c4], %24, %260 : memref<5xi32>, vector<5xi1>, vector<5xi32> into vector<5xi32>
        %262 = arith.addf %cst_3, %76 : f32
        %263 = index.sub %158, %30
        %264 = vector.flat_transpose %162 {columns = 4 : i32, rows = 4 : i32} : vector<16xf32> -> vector<16xf32>
        %265 = math.expm1 %cst_3 : f32
        %266 = math.log10 %5 : tensor<11xf32>
        %267 = memref.load %alloc_14[%c5, %c5, %c10] : memref<11x11x16xi64>
        %268 = affine.apply affine_map<(d0) -> (d0)>(%c12)
        %269 = vector.insertelement %c411307815_i64, %130[%c2 : index] : vector<11xi64>
        scf.yield
      }
      scf.yield %extracted : i32
    }
    %alloc_42 = memref.alloc() : memref<11xi32>
    memref.tensor_store %11, %alloc_42 : memref<11xi32>
    %204 = arith.maxui %c735914286_i64, %c411307815_i64 : i64
    %splat_43 = tensor.splat %cst_2 : tensor<11xf16>
    %205 = linalg.generic {indexing_maps = [affine_map<(d0, d1, d2) -> (d0, d1, d2)>], iterator_types = ["parallel", "parallel", "parallel"]} outs(%15 : tensor<11x11x16xf16>) {
    ^bb0(%out: f16):
      scf.index_switch %111 
      case 1 {
        %274 = math.exp2 %expanded_40 : tensor<11x1xf16>
        %275 = math.ctpop %splat : tensor<11x11x16xi32>
        vector.print %115 : vector<11xi64>
        %276 = arith.minsi %73, %extracted : i32
        %alloc_53 = memref.alloc() : memref<11x11x16xf16>
        memref.tensor_store %15, %alloc_53 : memref<11x11x16xf16>
        %cast_54 = tensor.cast %8 : tensor<11xf16> to tensor<?xf16>
        %277 = vector.insert %c1217098576_i64, %115 [1] : i64 into vector<11xi64>
        %278 = vector.broadcast %cst_5 : f16 to vector<f16>
        %279 = vector.transfer_write %278, %8[%c12] : vector<f16>, tensor<11xf16>
        %280 = memref.load %alloc_6[%c0, %c0, %c0] : memref<11x11x16xi64>
        %281 = vector.broadcast %c0_i32_36 : i32 to vector<5xi32>
        %282 = math.exp %22 : tensor<f16>
        %283 = vector.broadcast %120 : index to vector<16xindex>
        %284 = vector.broadcast %extracted : i32 to vector<16xi32>
        vector.scatter %167[%c4] [%283], %122, %284 : memref<5xi32>, vector<16xindex>, vector<16xi1>, vector<16xi32>
        %285 = math.expm1 %20 : tensor<11xf16>
        %286 = math.floor %out : f16
        %287 = math.atan2 %cst, %cst_2 : f16
        %288 = arith.maxf %cst_5, %cst : f16
        scf.yield
      }
      case 2 {
        %274 = math.log10 %10 : tensor<11xf16>
        %275 = math.rsqrt %5 : tensor<11xf32>
        %276 = math.fma %15, %15, %15 : tensor<11x11x16xf16>
        %277 = affine.load %167[%c9] : memref<5xi32>
        %278 = arith.maxf %76, %cst_3 : f32
        %inserted_53 = tensor.insert %false into %1[%c1] : tensor<11xi1>
        %279 = vector.shuffle %25, %25 [0, 3, 4, 7, 8] : vector<5xi16>, vector<5xi16>
        %280 = vector.broadcast %76 : f32 to vector<11x11xf32>
        %dest_54, %accumulated_value_55 = vector.scan <add>, %92, %280 {inclusive = false, reduction_dim = 2 : i64} : vector<11x11x16xf32>, vector<11x11xf32>
        %281 = math.fpowi %cst_0, %extracted_33 : f16, i32
        bufferization.dealloc_tensor %1 : tensor<11xi1>
        %282 = bufferization.to_memref %expanded_41 : memref<11x1xi16>
        %283 = vector.shuffle %129, %109 [3, 5, 9] : vector<5xf16>, vector<5xf16>
        %284 = affine.min affine_map<(d0, d1) -> ((-d1 + d0) mod 8, -d1 + d0)>(%120, %158)
        %285 = arith.divf %cst_2, %cst : f16
        %286 = affine.min affine_map<(d0, d1) -> ((-d1 - 1) * 2 + 16)>(%120, %30)
        %287 = math.ctpop %7 : tensor<5xi32>
        scf.yield
      }
      case 3 {
        %274 = math.exp2 %expanded_40 : tensor<11x1xf16>
        %275 = memref.load %167[%c1] : memref<5xi32>
        %276 = affine.min affine_map<(d0, d1, d2) -> (d0, d1 * 2, (d1 mod 32) ceildiv 128)>(%175, %c1, %125)
        %alloca_53 = memref.alloca() : memref<11x11x16xf16>
        %277 = affine.min affine_map<(d0) -> ((d0 - 32) * -64, 128)>(%61)
        %278 = arith.remf %cst_2, %cst_0 : f16
        memref.copy %alloc_9, %167 : memref<5xi32> to memref<5xi32>
        bufferization.dealloc_tensor %14 : tensor<11xi1>
        %279 = arith.divui %c0_i32_36, %c384200544_i32 : i32
        %280 = index.sub %54, %158
        vector.print %130 : vector<11xi64>
        %281 = vector.maskedload %alloc_17[%c10], %24, %109 : memref<11xf16>, vector<5xi1>, vector<5xf16> into vector<5xf16>
        %282 = arith.minf %cst_0, %cst : f16
        %283 = math.powf %cst_3, %76 : f32
        %284 = math.powf %8, %10 : tensor<11xf16>
        %285 = math.exp2 %out : f16
        scf.yield
      }
      case 4 {
        %274 = arith.muli %c0_i16, %c-15181_i16 : i16
        %275 = math.exp2 %cst : f16
        memref.assume_alignment %alloc_7, 16 : memref<11x11x16xf32>
        %c1510808330_i32 = arith.constant 1510808330 : i32
        %276 = bufferization.to_tensor %alloc_20 : memref<5xi16>
        %277 = affine.max affine_map<(d0, d1, d2) -> (d0, (-(d0 - 32)) floordiv 32)>(%173, %c2, %c1)
        %278 = arith.muli %c0_i16, %c-17794_i16 : i16
        %279 = math.log %8 : tensor<11xf16>
        %280 = vector.load %alloc_19[%c10] : memref<11xf16>, vector<11xf16>
        %281 = arith.addf %cst_0, %cst : f16
        %282 = math.round %cst_0 : f16
        %283 = index.castu %173 : index to i32
        %284 = vector.flat_transpose %162 {columns = 4 : i32, rows = 4 : i32} : vector<16xf32> -> vector<16xf32>
        %285 = arith.minsi %73, %extracted_33 : i32
        vector.print %92 : vector<11x11x16xf32>
        %rank_53 = tensor.rank %15 : tensor<11x11x16xf16>
        scf.yield
      }
      default {
        %274 = index.divs %35, %173
        memref.copy %alloc_17, %alloc_19 : memref<11xf16> to memref<11xf16>
        %275 = arith.maxf %76, %76 : f32
        %276 = index.maxs %c10, %125
        vector.print %109 : vector<5xf16>
        %from_elements_53 = tensor.from_elements %cst_2, %cst_5, %cst_2, %cst_2, %out, %cst_2, %cst_2, %out, %cst, %cst_0, %cst_0 : tensor<11xf16>
        %277 = index.mul %192, %c2
        %278 = arith.shrsi %c0_i32_36, %73 : i32
        %279 = vector.splat %c13 : vector<11xindex>
        vector.print %123 : vector<16xf32>
        %280 = arith.divui %extracted_33, %extracted_33 : i32
        %281 = arith.divf %cst_5, %cst : f16
        %282 = math.atan %8 : tensor<11xf16>
        %283 = bufferization.clone %alloc_20 : memref<5xi16> to memref<5xi16>
        vector.print %49 : vector<i64>
        %284 = arith.maxf %76, %cst_3 : f32
      }
      %246 = math.atan2 %10, %20 : tensor<11xf16>
      %247 = math.powf %out, %out : f16
      %248 = memref.realloc %alloc_8 : memref<11xi64> to memref<5xi64>
      %from_elements = tensor.from_elements %c411307815_i64, %c411307815_i64, %c1217098576_i64, %c411307815_i64, %c1217098576_i64 : tensor<5xi64>
      %249 = tensor.empty() : tensor<11x16xf16>
      %250 = linalg.generic {indexing_maps = [affine_map<(d0, d1, d2) -> (d1, d2)>, affine_map<(d0, d1, d2) -> (d0, d1, d2)>], iterator_types = ["parallel", "parallel", "parallel"]} ins(%249 : tensor<11x16xf16>) outs(%15 : tensor<11x11x16xf16>) {
      ^bb0(%in: f16, %out_53: f16):
        %274 = tensor.empty() : tensor<5xf32>
        %275 = vector.broadcast %false_4 : i1 to vector<11x11x16xi1>
        %276 = vector.broadcast %extracted_33 : i32 to vector<11x11x16xi32>
        %277 = vector.gather %274[%79] [%276], %275, %91 : tensor<5xf32>, vector<11x11x16xi32>, vector<11x11x16xi1>, vector<11x11x16xf32> into vector<11x11x16xf32>
        %278 = vector.contract {indexing_maps = [affine_map<(d0) -> (d0)>, affine_map<(d0) -> (d0)>, affine_map<(d0) -> ()>], iterator_types = ["reduction"], kind = #vector.kind<minsi>} %34, %34, %c735914286_i64 : vector<11xi64>, vector<11xi64> into i64
        %279 = arith.minsi %c0_i32_36, %73 : i32
        %280 = vector.splat %35 : vector<5xindex>
        %281 = vector.reduction <add>, %19 : vector<5xf16> into f16
        %282 = arith.addi %c-17794_i16, %c0_i16 : i16
        %283 = memref.load %alloc_18[%c3] : memref<5xi1>
        %284 = math.exp2 %in : f16
        %285 = vector.bitcast %162 : vector<16xf32> to vector<16xf32>
        %286 = arith.shli %c735914286_i64, %c411307815_i64 : i64
        memref.assume_alignment %201, 16 : memref<11xi1>
        memref.store %true, %alloc_18[%c3] : memref<5xi1>
        %287 = arith.shrsi %false_1, %true : i1
        %288 = arith.divsi %c411307815_i64, %c411307815_i64 : i64
        %289 = arith.minsi %c1_i32, %c0_i32_36 : i32
        %290 = math.log10 %15 : tensor<11x11x16xf16>
        %291 = math.round %5 : tensor<11xf32>
        %292 = arith.addi %c411307815_i64, %c411307815_i64 : i64
        %293 = vector.broadcast %c5 : index to vector<5xindex>
        vector.scatter %alloc_20[%c2] [%293], %24, %25 : memref<5xi16>, vector<5xindex>, vector<5xi1>, vector<5xi16>
        %294 = arith.maxf %cst, %cst_5 : f16
        %295 = arith.remsi %c-15181_i16, %c-15181_i16 : i16
        %296 = vector.bitcast %19 : vector<5xf16> to vector<5xi16>
        %297 = index.mul %151, %c4
        %298 = tensor.empty() : tensor<11x11x16xi32>
        %299 = arith.divf %76, %76 : f32
        %300 = index.maxu %173, %297
        %301 = arith.divui %c1898176039_i32, %203 : i32
        %302 = arith.minsi %c0_i32_36, %extracted_33 : i32
        %303 = math.tanh %out_53 : f16
        %false_54 = index.bool.constant false
        %304 = memref.load %alloc_11[%c1] : memref<11xi64>
        %305 = vector.multi_reduction <maxf>, %67, %68 [] : vector<11xf32> to vector<11xf32>
        linalg.yield %cst_5 : f16
      } -> tensor<11x11x16xf16>
      %251 = math.powf %10, %10 : tensor<11xf16>
      %252 = memref.realloc %alloc_17 : memref<11xf16> to memref<11xf16>
      %253 = vector.reduction <minf>, %121 : vector<16xf32> into f32
      %from_elements_51 = tensor.from_elements %false, %false_1, %false, %true, %false_1, %true, %false_4, %false_4, %false, %false, %true : tensor<11xi1>
      %254 = math.expm1 %20 : tensor<11xf16>
      %255 = math.exp2 %21 : tensor<f16>
      %256 = index.mul %75, %36
      %257 = tensor.empty() : tensor<11xi32>
      %258 = tensor.empty() : tensor<16x11x11xi32>
      %259 = linalg.generic {indexing_maps = [affine_map<(d0, d1, d2) -> (d2, d0, d1)>, affine_map<(d0, d1, d2) -> (d0, d1, d2)>], iterator_types = ["parallel", "parallel", "parallel"]} ins(%258 : tensor<16x11x11xi32>) outs(%16 : tensor<11x11x16xi32>) {
      ^bb0(%in: i32, %out_53: i32):
        %274 = tensor.empty() : tensor<11x11x16xf16>
        %275 = arith.minsi %in, %extracted_33 : i32
        memref.copy %alloc_15, %156 : memref<11xi1> to memref<11xi1>
        %276 = math.log10 %8 : tensor<11xf16>
        %277 = vector.transpose %25, [0] : vector<5xi16> to vector<5xi16>
        %278 = vector.broadcast %73 : i32 to vector<11xi32>
        %279 = vector.broadcast %false_1 : i1 to vector<11xi1>
        %280 = vector.maskedload %alloc_9[%c2], %279, %278 : memref<5xi32>, vector<11xi1>, vector<11xi32> into vector<11xi32>
        %281 = vector.transpose %91, [1, 0, 2] : vector<11x11x16xf32> to vector<11x11x16xf32>
        %282 = bufferization.clone %alloc_6 : memref<11x11x16xi64> to memref<11x11x16xi64>
        %283 = arith.shrui %c0_i32_36, %out_53 : i32
        %284 = index.divs %150, %c2
        %285 = vector.broadcast %76 : f32 to vector<11xf32>
        %286 = vector.fma %285, %67, %67 : vector<11xf32>
        %287 = math.ipowi %c-17794_i16, %c-17794_i16 : i16
        %288 = tensor.empty() : tensor<11xi32>
        %289 = vector.splat %in : vector<5xi32>
        %290 = index.mul %45, %c14
        %291 = index.divs %c0, %c7
        %292 = index.maxs %30, %284
        %293 = arith.floordivsi %extracted_33, %extracted : i32
        %294 = index.castu %extracted_33 : i32 to index
        %295 = tensor.empty() : tensor<11x11x16xi16>
        %296 = math.powf %10, %10 : tensor<11xf16>
        %297 = affine.apply affine_map<(d0, d1, d2) -> (d1 floordiv 32)>(%120, %120, %rank_25)
        %298 = arith.shrui %c0_i32_36, %c0_i32_36 : i32
        %299 = arith.minui %c1217098576_i64, %c411307815_i64 : i64
        %300 = vector.gather %11[%c4] [%278], %279, %278 : tensor<11xi32>, vector<11xi32>, vector<11xi1>, vector<11xi32> into vector<11xi32>
        %301 = math.atan2 %out, %cst_2 : f16
        affine.store %false, %alloc_13[%c10] : memref<11xi1>
        %302 = index.divs %150, %158
        %303 = vector.transpose %286, [0] : vector<11xf32> to vector<11xf32>
        %304 = vector.broadcast %c735914286_i64 : i64 to vector<16xi64>
        %305 = vector.maskedload %alloc_6[%c6, %c2, %c7], %122, %304 : memref<11x11x16xi64>, vector<16xi1>, vector<16xi64> into vector<16xi64>
        %306 = math.atan %10 : tensor<11xf16>
        %307 = arith.muli %false_1, %true : i1
        linalg.yield %203 : i32
      } -> tensor<11x11x16xi32>
      %260 = math.tanh %5 : tensor<11xf32>
      %261 = vector.transpose %115, [0] : vector<11xi64> to vector<11xi64>
      scf.if %false_1 {
        %274 = math.log2 %8 : tensor<11xf16>
        %275 = math.log10 %20 : tensor<11xf16>
        %276 = vector.flat_transpose %67 {columns = 11 : i32, rows = 1 : i32} : vector<11xf32> -> vector<11xf32>
        %277 = vector.broadcast %76 : f32 to vector<11x11x16xf32>
        %278 = vector.fma %277, %277, %277 : vector<11x11x16xf32>
        %279 = math.exp2 %10 : tensor<11xf16>
        %280 = arith.divui %c0_i32_36, %203 : i32
        %281 = math.fma %15, %15, %15 : tensor<11x11x16xf16>
        %282 = arith.minf %cst_5, %cst_0 : f16
      }
      %262 = index.sub %c3, %30
      %263 = arith.divf %cst_0, %cst : f16
      memref.store %c735914286_i64, %alloc_6[%c10, %c1, %c6] : memref<11x11x16xi64>
      %264 = index.divs %61, %35
      %265 = arith.shli %c-17794_i16, %c-17794_i16 : i16
      %266 = scf.execute_region -> memref<11xi16> {
        %274 = index.castu %73 : i32 to index
        %275 = arith.addf %cst_0, %cst_0 : f16
        %276 = arith.shrsi %203, %73 : i32
        %277 = math.atan2 %5, %5 : tensor<11xf32>
        %278 = vector.broadcast %cst : f16 to vector<16xf16>
        %279 = vector.maskedload %alloc_19[%c9], %122, %278 : memref<11xf16>, vector<16xi1>, vector<16xf16> into vector<16xf16>
        %280 = math.powf %cst_3, %cst_3 : f32
        %281 = vector.transpose %91, [0, 1, 2] : vector<11x11x16xf32> to vector<11x11x16xf32>
        %282 = arith.minf %cst, %cst : f16
        %283 = arith.minf %cst, %cst_0 : f16
        %284 = arith.floordivsi %false_1, %true : i1
        %285 = math.round %21 : tensor<f16>
        memref.copy %alloc_17, %alloc_19 : memref<11xf16> to memref<11xf16>
        %286 = index.sizeof
        %287 = math.powf %20, %splat_43 : tensor<11xf16>
        %288 = arith.maxf %out, %cst : f16
        %false_53 = index.bool.constant false
        %alloc_54 = memref.alloc() : memref<11xi16>
        scf.yield %alloc_54 : memref<11xi16>
      }
      %267 = memref.realloc %alloc_10 : memref<11xf32> to memref<16xf32>
      %268 = index.divs %c8, %117
      %269 = arith.shrui %true, %false_4 : i1
      %270 = index.castu %c1_i32 : i32 to index
      %271 = math.round %76 : f32
      %272 = vector.flat_transpose %109 {columns = 5 : i32, rows = 1 : i32} : vector<5xf16> -> vector<5xf16>
      %273 = math.rsqrt %5 : tensor<11xf32>
      %cast_52 = tensor.cast %8 : tensor<11xf16> to tensor<?xf16>
      linalg.yield %cst_2 : f16
    } -> tensor<11x11x16xf16>
    %206 = math.absf %cst_0 : f16
    %inserted_44 = tensor.insert %c384200544_i32 into %17[%c3, %c7, %c15] : tensor<11x11x16xi32>
    %207 = vector.shuffle %34, %115 [1, 3, 6, 8, 9, 12, 13, 15, 19, 21] : vector<11xi64>, vector<11xi64>
    %208 = vector.shuffle %170, %34 [1, 2, 3, 4, 6, 9, 11, 13, 15] : vector<5xi64>, vector<11xi64>
    %rank_45 = tensor.rank %16 : tensor<11x11x16xi32>
    %209 = index.add %c12, %168
    %210 = arith.floordivsi %73, %c0_i32_36 : i32
    %211 = math.log %15 : tensor<11x11x16xf16>
    scf.execute_region {
      %246 = arith.addf %cst, %cst : f16
      %alloc_51 = memref.alloc() : memref<11xi32>
      memref.tensor_store %7, %alloc_9 : memref<5xi32>
      %247 = index.sub %150, %c0
      %248 = index.add %45, %c5
      %249 = index.maxu %c7, %247
      %250 = math.ceil %10 : tensor<11xf16>
      %alloca_52 = memref.alloca() : memref<11xf32>
      memref.store %false_1, %alloc_12[%c1] : memref<11xi1>
      %251 = arith.muli %c0_i32_36, %c384200544_i32 : i32
      %rank_53 = tensor.rank %20 : tensor<11xf16>
      %alloca_54 = memref.alloca() : memref<11x11x16xi1>
      %252 = vector.contract {indexing_maps = [affine_map<(d0) -> (d0)>, affine_map<(d0) -> (d0)>, affine_map<(d0) -> ()>], iterator_types = ["reduction"], kind = #vector.kind<add>} %23, %25, %c-17794_i16 : vector<5xi16>, vector<5xi16> into i16
      %253 = math.exp2 %splat_43 : tensor<11xf16>
      %rank_55 = tensor.rank %17 : tensor<11x11x16xi32>
      %c0_i64 = arith.constant 0 : i64
      %c0_i64_56 = arith.constant 0 : i64
      %254 = vector.transfer_read %alloc_6[%45, %118, %79], %c0_i64_56 {permutation_map = affine_map<(d0, d1, d2) -> (0, d1)>} : memref<11x11x16xi64>, vector<11x16xi64>
      scf.yield
    }
    %212 = arith.minsi %c384200544_i32, %73 : i32
    %false_46 = index.bool.constant false
    %213 = arith.ceildivsi %c0_i32_36, %c384200544_i32 : i32
    %214 = scf.if %false_1 -> (i16) {
      %246 = math.exp %76 : f32
      %247 = index.maxs %118, %75
      %expanded_51 = tensor.expand_shape %18 [[0, 1]] : tensor<11xi64> into tensor<11x1xi64>
      %248 = math.log2 %cst_3 : f32
      memref.store %cst_3, %alloc[%c1] : memref<5xf32>
      %249 = index.add %61, %c2
      %rank_52 = tensor.rank %2 : tensor<5xi16>
      memref.tensor_store %2, %alloc_20 : memref<5xi16>
      scf.yield %c0_i16 : i16
    } else {
      %246 = index.mul %79, %30
      %247 = vector.reduction <maxf>, %121 : vector<16xf32> into f32
      %248 = math.round %5 : tensor<11xf32>
      vector.print %67 : vector<11xf32>
      %false_51 = index.bool.constant false
      %249 = index.divs %rank_25, %c2
      %250 = index.casts %true : i1 to index
      %251 = index.maxs %rank, %150
      scf.yield %c0_i16 : i16
    }
    %true_47 = index.bool.constant true
    %215 = arith.cmpf uge, %76, %76 : f32
    %216 = index.casts %54 : index to i32
    %217 = tensor.empty() : tensor<5xf32>
    %218 = vector.reduction <xor>, %24 : vector<5xi1> into i1
    %219 = memref.load %alloc_18[%c4] : memref<5xi1>
    %220 = vector.bitcast %23 : vector<5xi16> to vector<5xi16>
    %221 = index.divs %127, %c8
    %222 = math.log10 %10 : tensor<11xf16>
    %alloc_48 = memref.alloc() : memref<1x11xi1>
    %223 = tensor.empty() : tensor<5x11xi1>
    %224 = linalg.matmul ins(%expanded_32, %alloc_48 : tensor<5x1xi1>, memref<1x11xi1>) outs(%223 : tensor<5x11xi1>) -> tensor<5x11xi1>
    %225 = math.round %cst_5 : f16
    %226 = arith.maxf %cst_3, %cst_3 : f32
    %227 = vector.broadcast %76 : f32 to vector<11xf32>
    %228 = vector.fma %227, %67, %67 : vector<11xf32>
    %229 = scf.execute_region -> vector<11x11x16xi32> {
      %246 = math.exp2 %20 : tensor<11xf16>
      %247 = bufferization.clone %alloc_18 : memref<5xi1> to memref<5xi1>
      %248 = vector.maskedload %alloc_12[%c6], %122, %122 : memref<11xi1>, vector<16xi1>, vector<16xi1> into vector<16xi1>
      %249 = vector.maskedload %53[%c4], %248, %248 : memref<5xi1>, vector<16xi1>, vector<16xi1> into vector<16xi1>
      %250 = math.absf %8 : tensor<11xf16>
      %251 = vector.matrix_multiply %121, %227 {lhs_columns = 1 : i32, lhs_rows = 16 : i32, rhs_columns = 11 : i32} : (vector<16xf32>, vector<11xf32>) -> vector<176xf32>
      %alloc_51 = memref.alloc() : memref<16xf16>
      %252 = linalg.generic {indexing_maps = [affine_map<(d0, d1, d2) -> (d2)>, affine_map<(d0, d1, d2) -> (d0, d1, d2)>], iterator_types = ["parallel", "parallel", "parallel"]} ins(%alloc_51 : memref<16xf16>) outs(%15 : tensor<11x11x16xf16>) {
      ^bb0(%in: f16, %out: f16):
        %263 = vector.transpose %109, [0] : vector<5xf16> to vector<5xf16>
        %264 = arith.maxui %c-17794_i16, %c0_i16 : i16
        %265 = math.cos %cst_5 : f16
        %266 = arith.divsi %c346347572_i64, %c1217098576_i64 : i64
        %267 = arith.divui %c1217098576_i64, %c346347572_i64 : i64
        %268 = arith.cmpi ne, %false_46, %false_4 : i1
        %269 = math.atan2 %21, %22 : tensor<f16>
        %270 = arith.minui %false_4, %true : i1
        %rank_52 = tensor.rank %3 : tensor<11xi64>
        %271 = index.divs %c10, %168
        %272 = vector.load %alloc_12[%c9] : memref<11xi1>, vector<5xi1>
        %extracted_53 = tensor.extract %10[%c7] : tensor<11xf16>
        %inserted_54 = tensor.insert %cst into %cast_26[%c0] : tensor<?xf16>
        %273 = vector.broadcast %76 : f32 to vector<11x16xf32>
        %dest_55, %accumulated_value_56 = vector.scan <add>, %92, %273 {inclusive = true, reduction_dim = 0 : i64} : vector<11x11x16xf32>, vector<11x16xf32>
        %274 = math.powf %22, %21 : tensor<f16>
        %275 = math.ctpop %177 : tensor<5xi32>
        %276 = arith.addi %c0_i16, %c-15181_i16 : i16
        %277 = arith.minsi %c1217098576_i64, %c346347572_i64 : i64
        %278 = vector.broadcast %76 : f32 to vector<11x11xf32>
        %dest_57, %accumulated_value_58 = vector.scan <maxf>, %91, %278 {inclusive = true, reduction_dim = 2 : i64} : vector<11x11x16xf32>, vector<11x11xf32>
        %from_elements = tensor.from_elements %extracted_53, %cst_2, %in, %out, %cst_0 : tensor<5xf16>
        %279 = arith.shli %c411307815_i64, %c1217098576_i64 : i64
        %280 = vector.splat %125 : vector<11x11x16xindex>
        %281 = vector.reduction <maxui>, %115 : vector<11xi64> into i64
        %splat_59 = tensor.splat %c735914286_i64 : tensor<11xi64>
        %282 = math.round %from_elements : tensor<5xf16>
        memref.store %false_1, %201[%c0] : memref<11xi1>
        %283 = math.round %15 : tensor<11x11x16xf16>
        %284 = bufferization.to_tensor %alloc_20 : memref<5xi16>
        %285 = index.divs %rank_45, %c1
        %286 = index.sub %36, %c12
        %287 = math.ipowi %c346347572_i64, %c1217098576_i64 : i64
        %alloc_60 = memref.alloc() : memref<11xi64>
        linalg.yield %extracted_53 : f16
      } -> tensor<11x11x16xf16>
      %253 = vector.reduction <or>, %122 : vector<16xi1> into i1
      %254 = index.maxs %c6, %rank
      %255 = vector.broadcast %extracted : i32 to vector<5xi32>
      %256 = vector.gather %alloc_19[%209] [%255], %24, %19 : memref<11xf16>, vector<5xi32>, vector<5xi1>, vector<5xf16> into vector<5xf16>
      scf.execute_region {
        %263 = bufferization.to_tensor %alloc_17 : memref<11xf16>
        %264 = affine.load %alloc_13[%c6] : memref<11xi1>
        %from_elements = tensor.from_elements %76, %cst_3, %cst_3, %cst_3, %cst_3, %cst_3, %cst_3, %cst_3, %cst_3, %cst_3, %cst_3 : tensor<11xf32>
        %265 = vector.reduction <minf>, %251 : vector<176xf32> into f32
        %266 = math.atan %5 : tensor<11xf32>
        %267 = vector.shuffle %121, %251 [0, 1, 2, 3, 4, 5, 6, 8, 9, 10, 11, 13, 14, 15, 19, 21, 22, 24, 25, 26, 28, 33, 35, 36, 37, 38, 40, 42, 43, 44, 46, 47, 48, 49, 51, 52, 54, 56, 61, 62, 67, 68, 72, 74, 75, 76, 77, 79, 80, 82, 84, 85, 86, 88, 89, 90, 93, 98, 99, 100, 101, 104, 106, 108, 109, 111, 112, 113, 114, 115, 116, 117, 118, 120, 122, 123, 124, 126, 127, 129, 130, 131, 132, 135, 136, 138, 142, 146, 149, 150, 151, 154, 156, 158, 159, 160, 161, 162, 163, 164, 165, 166, 170, 173, 174, 177, 180, 182, 183, 184, 186, 187, 188] : vector<16xf32>, vector<176xf32>
        %268 = arith.minf %cst_5, %cst_0 : f16
        %269 = affine.max affine_map<(d0, d1, d2, d3) -> (d0 * 2, 36, d3 + d0 * 2, 0)>(%c7, %rank_25, %c7, %118)
        %270 = arith.minsi %true, %264 : i1
        %271 = vector.gather %0[%rank_25] [%255], %24, %24 : tensor<11xi1>, vector<5xi32>, vector<5xi1>, vector<5xi1> into vector<5xi1>
        %272 = vector.shuffle %25, %23 [0, 2, 6, 9] : vector<5xi16>, vector<5xi16>
        %273 = index.sub %158, %c7
        %274 = vector.transpose %121, [0] : vector<16xf32> to vector<16xf32>
        %275 = vector.bitcast %122 : vector<16xi1> to vector<16xi1>
        %276 = vector.broadcast %true_47 : i1 to vector<11xi1>
        %277 = vector.broadcast %c1898176039_i32 : i32 to vector<11xi32>
        %278 = vector.gather %6[%254] [%277], %276, %276 : tensor<5xi1>, vector<11xi32>, vector<11xi1>, vector<11xi1> into vector<11xi1>
        %279 = vector.load %alloc_7[%c2, %c0, %c7] : memref<11x11x16xf32>, vector<11x11x16xf32>
        scf.yield
      }
      %257 = index.ceildivu %126, %c14
      %258 = math.atan2 %76, %76 : f32
      %259 = arith.shli %c384200544_i32, %73 : i32
      %260 = arith.remf %cst_5, %cst_2 : f16
      %261 = math.log10 %5 : tensor<11xf32>
      %262 = vector.broadcast %c0_i32_36 : i32 to vector<11x11x16xi32>
      scf.yield %262 : vector<11x11x16xi32>
    }
    %230 = math.powf %8, %splat_43 : tensor<11xf16>
    memref.store %false_46, %alloc_15[%c2] : memref<11xi1>
    %231 = index.divs %c10, %c4
    %232 = arith.shrsi %c1_i32, %c1898176039_i32 : i32
    %233 = arith.minsi %extracted_33, %extracted : i32
    %234 = vector.shuffle %122, %24 [2, 3, 4, 8, 9, 10, 11, 15, 17] : vector<16xi1>, vector<5xi1>
    %235 = index.castu %158 : index to i32
    %236 = arith.minsi %c411307815_i64, %c1217098576_i64 : i64
    %237 = arith.xori %c384200544_i32, %extracted : i32
    %238 = arith.floordivsi %true, %true : i1
    %239 = math.floor %cst : f16
    %240 = arith.addf %76, %cst_3 : f32
    %241 = tensor.empty() : tensor<11xf16>
    %242 = linalg.copy ins(%splat_43 : tensor<11xf16>) outs(%241 : tensor<11xf16>) -> tensor<11xf16>
    %243 = tensor.empty() : tensor<16x11x11xi32>
    %transposed_49 = linalg.transpose ins(%17 : tensor<11x11x16xi32>) outs(%243 : tensor<16x11x11xi32>) permutation = [2, 0, 1] 
    %alloc_50 = memref.alloc() : memref<11x11xi32>
    linalg.reduce ins(%243 : tensor<16x11x11xi32>) outs(%alloc_50 : memref<11x11xi32>) dimensions = [0] 
      (%in: i32, %init: i32) {
        %246 = vector.insertelement %cst_0, %129[%209 : index] : vector<5xf16>
        %247 = index.castu %false_1 : i1 to index
        %248 = arith.divf %76, %cst_3 : f32
        %249 = arith.remsi %c346347572_i64, %c1217098576_i64 : i64
        %250 = index.floordivs %c10, %rank
        %251 = arith.divf %cst_5, %cst_2 : f16
        %252 = memref.atomic_rmw maxu %c735914286_i64, %alloc_14[%c2, %c7, %c4] : (i64, memref<11x11x16xi64>) -> i64
        %253 = bufferization.clone %alloc_21 : memref<f32> to memref<f32>
        %c1_i32_51 = arith.constant 1 : i32
        linalg.yield %c1_i32_51 : i32
      }
    %244 = scf.parallel (%arg2) = (%175) to (%168) step (%c4) init (%115) -> vector<11xi64> {
      %cast_51 = tensor.cast %transposed_49 : tensor<16x11x11xi32> to tensor<?x?x?xi32>
      %246 = affine.for %arg3 = 0 to 102 iter_args(%arg4 = %c9) -> (index) {
        affine.yield %36 : index
      }
      %247 = index.maxu %209, %c7
      vector.print %169 : vector<2xi1>
      bufferization.dealloc_tensor %9 : tensor<11x11x16xi32>
      memref.copy %201, %156 : memref<11xi1> to memref<11xi1>
      %248 = math.atan %241 : tensor<11xf16>
      %249 = math.ctlz %6 : tensor<5xi1>
      %250 = affine.min affine_map<(d0, d1, d2, d3) -> (d0, d0 + d1, (d1 mod 128) * 2)>(%192, %35, %221, %150)
      %251 = arith.addf %cst_3, %cst_3 : f32
      %252 = tensor.empty() : tensor<11xi64>
      %mapped = linalg.map ins(%alloc_8, %alloc_11, %18 : memref<11xi64>, memref<11xi64>, tensor<11xi64>) outs(%252 : tensor<11xi64>)
        (%in: i64, %in_52: i64, %in_53: i64) {
          %257 = math.absi %c1898176039_i32 : i32
          %258 = math.log10 %242 : tensor<11xf16>
          %259 = math.round %5 : tensor<11xf32>
          vector.print %115 : vector<11xi64>
          %260 = math.fpowi %76, %203 : f32, i32
          %261 = affine.min affine_map<(d0, d1, d2, d3) -> ((d2 * 30) ceildiv 128, d1, (d2 * 30) ceildiv 128)>(%c5, %rank_45, %111, %rank_25)
          %262 = index.maxs %c8, %c4
          memref.copy %alloc_18, %53 : memref<5xi1> to memref<5xi1>
          %263 = index.sub %185, %c12
          %264 = arith.minf %cst_0, %cst_5 : f16
          %265 = index.mul %261, %231
          %266 = tensor.empty() : tensor<1x5xf16>
          %267 = tensor.empty() : tensor<11x5xf16>
          %268 = linalg.matmul ins(%expanded_40, %266 : tensor<11x1xf16>, tensor<1x5xf16>) outs(%267 : tensor<11x5xf16>) -> tensor<11x5xf16>
          %269 = math.fpowi %5, %11 : tensor<11xf32>, tensor<11xi32>
          %270 = memref.load %alloc_16[%c0] : memref<5xf32>
          %271 = index.divs %127, %118
          %272 = affine.max affine_map<(d0, d1) -> (d1 + 32, d0, d1 floordiv 64, d0 + d1 - (d1 + 32) + 16)>(%125, %c13)
          %273 = tensor.empty() : tensor<1x16xf16>
          %274 = tensor.empty() : tensor<11x16xf16>
          %275 = linalg.matmul ins(%expanded_40, %273 : tensor<11x1xf16>, tensor<1x16xf16>) outs(%274 : tensor<11x16xf16>) -> tensor<11x16xf16>
          %276 = index.maxu %247, %35
          %c772123116_i64 = arith.constant 772123116 : i64
          %277 = vector.reduction <add>, %121 : vector<16xf32> into f32
          %278 = index.maxs %272, %192
          %279 = vector.broadcast %76 : f32 to vector<11x16xf32>
          %dest_54, %accumulated_value_55 = vector.scan <mul>, %92, %279 {inclusive = true, reduction_dim = 1 : i64} : vector<11x11x16xf32>, vector<11x16xf32>
          %280 = arith.maxf %cst_2, %cst_2 : f16
          %281 = math.expm1 %10 : tensor<11xf16>
          %cast_56 = tensor.cast %7 : tensor<5xi32> to tensor<?xi32>
          %282 = arith.remui %c384200544_i32, %c1_i32 : i32
          %283 = vector.broadcast %127 : index to vector<5xindex>
          vector.scatter %alloc_15[%c4] [%283], %24, %24 : memref<11xi1>, vector<5xindex>, vector<5xi1>, vector<5xi1>
          %284 = math.ceil %splat_43 : tensor<11xf16>
          %285 = math.tanh %5 : tensor<11xf32>
          %286 = arith.shrui %extracted_33, %c0_i32_36 : i32
          %287 = vector.insertelement %76, %162[%118 : index] : vector<16xf32>
          %288 = arith.muli %c0_i16, %c-15181_i16 : i16
          %c1_i64 = arith.constant 1 : i64
          linalg.yield %c1_i64 : i64
        }
      memref.store %true_47, %alloc_18[%c4] : memref<5xi1>
      %253 = memref.alloca_scope  -> (f32) {
        %257 = index.castu %c346347572_i64 : i64 to index
        %258 = arith.remsi %c384200544_i32, %extracted_33 : i32
        %259 = math.powf %22, %21 : tensor<f16>
        vector.print %228 : vector<11xf32>
        %260 = arith.shrsi %c1217098576_i64, %c735914286_i64 : i64
        %261 = arith.ceildivsi %214, %c-15181_i16 : i16
        %262 = math.atan %cst_5 : f16
        %263 = vector.broadcast %cst_0 : f16 to vector<f16>
        vector.transfer_write %263, %alloc_17[%rank] : vector<f16>, memref<11xf16>
        %264 = index.maxs %rank_25, %250
        %265 = arith.maxui %c1898176039_i32, %c1898176039_i32 : i32
        %266 = math.ctlz %203 : i32
        %267 = vector.flat_transpose %227 {columns = 11 : i32, rows = 1 : i32} : vector<11xf32> -> vector<11xf32>
        %268 = vector.broadcast %cst_2 : f16 to vector<11x11x16xf16>
        %269 = index.maxs %151, %264
        %270 = index.floordivs %c11, %120
        %alloca_52 = memref.alloca() : memref<11xi16>
        %271 = arith.shrsi %true, %false_1 : i1
        %272 = vector.reduction <maxf>, %121 : vector<16xf32> into f32
        %273 = arith.shrui %c1_i32, %c1898176039_i32 : i32
        %274 = vector.broadcast %true : i1 to vector<i1>
        %275 = vector.transfer_write %274, %14[%185] : vector<i1>, tensor<11xi1>
        vector.print %228 : vector<11xf32>
        %276 = math.exp %20 : tensor<11xf16>
        %277 = arith.shrui %c1_i32, %extracted_33 : i32
        %278 = arith.minf %cst_3, %cst_3 : f32
        %279 = bufferization.to_tensor %alloc_21 : memref<f32>
        %280 = bufferization.clone %alloc_17 : memref<11xf16> to memref<11xf16>
        %281 = vector.broadcast %cst : f16 to vector<11xf16>
        %282 = arith.cmpf true, %76, %76 : f32
        %283 = arith.minsi %73, %203 : i32
        %284 = arith.andi %false_4, %true : i1
        %285 = math.atan %10 : tensor<11xf16>
        %286 = index.sub %250, %c11
        memref.alloca_scope.return %cst_3 : f32
      }
      %254 = math.powf %15, %15 : tensor<11x11x16xf16>
      %255 = arith.ori %c411307815_i64, %c1217098576_i64 : i64
      memref.store %true_47, %201[%c7] : memref<11xi1>
      %256 = vector.broadcast %c346347572_i64 : i64 to vector<11xi64>
      scf.reduce(%256)  : vector<11xi64> {
      ^bb0(%arg3: vector<11xi64>, %arg4: vector<11xi64>):
        %extracted_52 = tensor.extract %3[%c9] : tensor<11xi64>
        %257 = vector.insertelement %214, %23[%c11 : index] : vector<5xi16>
        %258 = arith.minf %cst_2, %cst : f16
        %259 = index.divu %rank, %175
        %260 = vector.splat %54 : vector<11xindex>
        %261 = arith.muli %203, %73 : i32
        bufferization.dealloc_tensor %expanded_41 : tensor<11x1xi16>
        %262 = vector.load %alloc_12[%c2] : memref<11xi1>, vector<11xi1>
        %263 = vector.broadcast %c411307815_i64 : i64 to vector<11xi64>
        scf.reduce.return %263 : vector<11xi64>
      }
      scf.yield
    }
    %245 = affine.vector_load %alloc_12[%209] : memref<11xi1>, vector<16xi1>
    affine.vector_store %19, %alloc_19[%111] : memref<11xf16>, vector<5xf16>
    vector.print %19 : vector<5xf16>
    vector.print %23 : vector<5xi16>
    vector.print %24 : vector<5xi1>
    vector.print %25 : vector<5xi16>
    vector.print %34 : vector<11xi64>
    vector.print %49 : vector<i64>
    vector.print %67 : vector<11xf32>
    vector.print %68 : vector<11xf32>
    vector.print %91 : vector<11x11x16xf32>
    vector.print %92 : vector<11x11x16xf32>
    vector.print %109 : vector<5xf16>
    vector.print %115 : vector<11xi64>
    vector.print %121 : vector<16xf32>
    vector.print %122 : vector<16xi1>
    vector.print %123 : vector<16xf32>
    vector.print %129 : vector<5xf16>
    vector.print %130 : vector<11xi64>
    vector.print %131 : vector<i1>
    vector.print %162 : vector<16xf32>
    vector.print %169 : vector<2xi1>
    vector.print %170 : vector<5xi64>
    vector.print %171 : vector<5xi64>
    vector.print %220 : vector<5xi16>
    vector.print %227 : vector<11xf32>
    vector.print %228 : vector<11xf32>
    vector.print %245 : vector<16xi1>
    vector.print %c1217098576_i64 : i64
    vector.print %c-17794_i16 : i16
    vector.print %c411307815_i64 : i64
    vector.print %cst : f16
    vector.print %false : i1
    vector.print %c-15181_i16 : i16
    vector.print %cst_0 : f16
    vector.print %false_1 : i1
    vector.print %cst_2 : f16
    vector.print %c735914286_i64 : i64
    vector.print %c384200544_i32 : i32
    vector.print %cst_3 : f32
    vector.print %c1898176039_i32 : i32
    vector.print %false_4 : i1
    vector.print %c346347572_i64 : i64
    vector.print %cst_5 : f16
    vector.print %c0_i16 : i16
    vector.print %73 : i32
    vector.print %76 : f32
    vector.print %c1_i32 : i32
    vector.print %extracted : i32
    vector.print %extracted_33 : i32
    vector.print %true : i1
    vector.print %c0_i32_36 : i32
    vector.print %203 : i32
    vector.print %false_46 : i1
    vector.print %214 : i16
    vector.print %true_47 : i1
    return
  }
}
