module {
  func.func @func1(%arg0: memref<14x14xf16>, %arg1: i64, %arg2: vector<16x11xi64>) {
    %c644607405_i32 = arith.constant 644607405 : i32
    %c1508905138_i64 = arith.constant 1508905138 : i64
    %c18917_i16 = arith.constant 18917 : i16
    %cst = arith.constant 3.529600e+04 : f16
    %c1199270634_i64 = arith.constant 1199270634 : i64
    %c1313612593_i64 = arith.constant 1313612593 : i64
    %true = arith.constant true
    %cst_0 = arith.constant 1.77635379E+9 : f32
    %true_1 = arith.constant true
    %c766674261_i32 = arith.constant 766674261 : i32
    %cst_2 = arith.constant 5.084800e+04 : f16
    %c928860611_i32 = arith.constant 928860611 : i32
    %false = arith.constant false
    %c-23065_i16 = arith.constant -23065 : i16
    %c1581681977_i32 = arith.constant 1581681977 : i32
    %c614314845_i64 = arith.constant 614314845 : i64
    %0 = tensor.empty() : tensor<16x14xi1>
    %1 = tensor.empty() : tensor<16x11xi1>
    %2 = tensor.empty() : tensor<16x11xf32>
    %3 = tensor.empty() : tensor<16x14xi64>
    %4 = tensor.empty() : tensor<16x14xi16>
    %5 = tensor.empty() : tensor<16x14xf16>
    %6 = tensor.empty() : tensor<16x11x14xi16>
    %7 = tensor.empty() : tensor<16x11xf16>
    %8 = tensor.empty() : tensor<16x14xi1>
    %9 = tensor.empty() : tensor<16x11xi1>
    %10 = tensor.empty() : tensor<16x14xi1>
    %11 = tensor.empty() : tensor<16x11xi32>
    %12 = tensor.empty() : tensor<16x14xf32>
    %13 = tensor.empty() : tensor<16x11xi64>
    %14 = tensor.empty() : tensor<14x14xf16>
    %15 = tensor.empty() : tensor<16x11x14xf32>
    %c0 = arith.constant 0 : index
    %c1 = arith.constant 1 : index
    %c2 = arith.constant 2 : index
    %c3 = arith.constant 3 : index
    %c4 = arith.constant 4 : index
    %c5 = arith.constant 5 : index
    %c6 = arith.constant 6 : index
    %c7 = arith.constant 7 : index
    %c8 = arith.constant 8 : index
    %c9 = arith.constant 9 : index
    %c10 = arith.constant 10 : index
    %c11 = arith.constant 11 : index
    %c12 = arith.constant 12 : index
    %c13 = arith.constant 13 : index
    %c14 = arith.constant 14 : index
    %c15 = arith.constant 15 : index
    %alloc = memref.alloc() : memref<16x14xf32>
    %alloc_3 = memref.alloc() : memref<14x14xi32>
    %alloc_4 = memref.alloc() : memref<16x14xf16>
    %alloc_5 = memref.alloc() : memref<16x11x14xf16>
    %alloc_6 = memref.alloc() : memref<16x11xf32>
    %alloc_7 = memref.alloc() : memref<16x14xf32>
    %alloc_8 = memref.alloc() : memref<14x14xi1>
    %alloc_9 = memref.alloc() : memref<16x14xf16>
    %alloc_10 = memref.alloc() : memref<14x14xi32>
    %alloc_11 = memref.alloc() : memref<16x11xi1>
    %alloc_12 = memref.alloc() : memref<16x14xi32>
    %alloc_13 = memref.alloc() : memref<14x14xi1>
    %alloc_14 = memref.alloc() : memref<16x11xi16>
    %alloc_15 = memref.alloc() : memref<16x11xi32>
    %alloc_16 = memref.alloc() : memref<14x14xf16>
    %alloc_17 = memref.alloc() : memref<16x11x14xf32>
    %16 = tensor.empty() : tensor<16x14xf16>
    %17 = linalg.copy ins(%5 : tensor<16x14xf16>) outs(%16 : tensor<16x14xf16>) -> tensor<16x14xf16>
    %alloc_18 = memref.alloc() : memref<14x16xf16>
    linalg.transpose ins(%5 : tensor<16x14xf16>) outs(%alloc_18 : memref<14x16xf16>) permutation = [1, 0] 
    %alloc_19 = memref.alloc() : memref<14xi1>
    linalg.reduce ins(%10 : tensor<16x14xi1>) outs(%alloc_19 : memref<14xi1>) dimensions = [0] 
      (%in: i1, %init: i1) {
        %283 = math.expm1 %cst_2 : f16
        %284 = arith.remf %cst, %cst : f16
        %285 = math.tan %cst_2 : f16
        %286 = vector.broadcast %false : i1 to vector<1xi1>
        %287 = vector.broadcast %init : i1 to vector<1xi1>
        %288 = vector.contract {indexing_maps = [affine_map<(d0) -> (d0)>, affine_map<(d0) -> (d0)>, affine_map<(d0) -> ()>], iterator_types = ["reduction"], kind = #vector.kind<maxsi>} %286, %287, %true_1 : vector<1xi1>, vector<1xi1> into i1
        %289 = math.fma %5, %5, %5 : tensor<16x14xf16>
        %290 = arith.minui %c766674261_i32, %c1581681977_i32 : i32
        %291 = arith.addi %c1581681977_i32, %c766674261_i32 : i32
        %292 = memref.realloc %alloc_19 : memref<14xi1> to memref<13xi1>
        %true_36 = arith.constant true
        linalg.yield %true_36 : i1
      }
    %18 = scf.parallel (%arg3, %arg4) = (%c9, %c13) to (%c15, %c3) step (%c3, %c3) init (%c1508905138_i64) -> i64 {
      %283 = arith.maxui %true_1, %false : i1
      %284 = math.rsqrt %12 : tensor<16x14xf32>
      %285 = arith.remf %cst_0, %cst_0 : f32
      %286 = index.sub %c3, %c11
      %287 = vector.broadcast %true_1 : i1 to vector<1xi1>
      %288 = vector.extract %287[0] : vector<1xi1>
      affine.for %arg5 = 0 to 29 {
      }
      %289 = vector.extract %287[0] : vector<1xi1>
      %290 = vector.shuffle %287, %287 [0] : vector<1xi1>, vector<1xi1>
      %291 = vector.contract {indexing_maps = [affine_map<(d0) -> (d0)>, affine_map<(d0) -> (d0)>, affine_map<(d0) -> ()>], iterator_types = ["reduction"], kind = #vector.kind<maxui>} %287, %287, %true : vector<1xi1>, vector<1xi1> into i1
      %rank_36 = tensor.rank %15 : tensor<16x11x14xf32>
      %292 = vector.transpose %287, [0] : vector<1xi1> to vector<1xi1>
      %293 = index.ceildivs %c7, %c13
      %294 = arith.mulf %cst, %cst : f16
      %295 = math.copysign %5, %5 : tensor<16x14xf16>
      %296 = vector.create_mask %c15, %arg4, %c3 : vector<16x11x14xi1>
      %297 = bufferization.clone %alloc_8 : memref<14x14xi1> to memref<14x14xi1>
      %c0_i64 = arith.constant 0 : i64
      scf.reduce(%c0_i64)  : i64 {
      ^bb0(%arg5: i64, %arg6: i64):
        %298 = arith.minf %cst, %cst_2 : f16
        %alloc_37 = memref.alloc() : memref<16x11xi1>
        %299 = arith.xori %c18917_i16, %c-23065_i16 : i16
        %300 = math.roundeven %2 : tensor<16x11xf32>
        memref.assume_alignment %alloc_4, 8 : memref<16x14xf16>
        %301 = vector.broadcast %false : i1 to vector<1x1xi1>
        %302 = vector.outerproduct %287, %287, %301 {kind = #vector.kind<minsi>} : vector<1xi1>, vector<1xi1>
        %303 = memref.atomic_rmw addf %cst, %alloc_18[%c1, %c9] : (f16, memref<14x16xf16>) -> f16
        %304 = memref.realloc %alloc_19 : memref<14xi1> to memref<11xi1>
        %c0_i64_38 = arith.constant 0 : i64
        scf.reduce.return %c0_i64_38 : i64
      }
      scf.yield
    }
    %19 = affine.vector_load %alloc_5[%c1, %c2, %c3] : memref<16x11x14xf16>, vector<13xf16>
    affine.vector_store %19, %alloc_4[%c8, %c0] : memref<16x14xf16>, vector<13xf16>
    %alloc_20 = memref.alloc() : memref<14xi1>
    %20 = tensor.empty() : tensor<i1>
    %21 = linalg.dot ins(%alloc_19, %alloc_20 : memref<14xi1>, memref<14xi1>) outs(%20 : tensor<i1>) -> tensor<i1>
    %22 = affine.for %arg3 = 0 to 60 iter_args(%arg4 = %1) -> (tensor<16x11xi1>) {
      affine.yield %9 : tensor<16x11xi1>
    }
    %23 = arith.floordivsi %true_1, %false : i1
    %24 = tensor.empty() : tensor<16x11x14xi32>
    %25 = math.fpowi %15, %24 : tensor<16x11x14xf32>, tensor<16x11x14xi32>
    %26 = vector.broadcast %true : i1 to vector<16x11xi1>
    %27 = bufferization.to_tensor %alloc_13 : memref<14x14xi1>
    %28 = math.log %2 : tensor<16x11xf32>
    %rank = tensor.rank %6 : tensor<16x11x14xi16>
    %29 = arith.minui %c766674261_i32, %c1581681977_i32 : i32
    %30 = index.ceildivu %c7, %c11
    %31 = arith.remui %c766674261_i32, %c1581681977_i32 : i32
    %32 = bufferization.clone %alloc_20 : memref<14xi1> to memref<14xi1>
    %33 = bufferization.clone %alloc : memref<16x14xf32> to memref<16x14xf32>
    %34 = bufferization.to_memref %1 : memref<16x11xi1>
    %35 = math.sqrt %2 : tensor<16x11xf32>
    %36 = vector.contract {indexing_maps = [affine_map<(d0) -> (d0)>, affine_map<(d0) -> (d0)>, affine_map<(d0) -> ()>], iterator_types = ["reduction"], kind = #vector.kind<add>} %19, %19, %cst : vector<13xf16>, vector<13xf16> into f16
    %37 = affine.if affine_set<(d0, d1) : (d0 == 0)>(%c9, %c7) -> i64 {
      %283 = memref.load %alloc_6[%c6, %c1] : memref<16x11xf32>
      %284 = scf.while (%arg3 = %c1581681977_i32) : (i32) -> i32 {
        %288 = arith.remf %cst_0, %cst_0 : f32
        %289 = math.ctpop %c18917_i16 : i16
        %290 = vector.broadcast %c18917_i16 : i16 to vector<16x14xi16>
        %291 = vector.broadcast %false : i1 to vector<16x14xi1>
        %292 = vector.broadcast %c766674261_i32 : i32 to vector<16x14xi32>
        %293 = vector.gather %6[%c6, %c0, %c3] [%292], %291, %290 : tensor<16x11x14xi16>, vector<16x14xi32>, vector<16x14xi1>, vector<16x14xi16> into vector<16x14xi16>
        %294 = math.tanh %14 : tensor<14x14xf16>
        %295 = arith.shli %c1313612593_i64, %c614314845_i64 : i64
        %296 = affine.apply affine_map<(d0, d1, d2) -> (d0 * 8)>(%c3, %c0, %c4)
        %297 = vector.matrix_multiply %19, %19 {lhs_columns = 13 : i32, lhs_rows = 1 : i32, rhs_columns = 1 : i32} : (vector<13xf16>, vector<13xf16>) -> vector<1xf16>
        %rank_37 = tensor.rank %10 : tensor<16x14xi1>
        scf.condition(%false) %c766674261_i32 : i32
      } do {
      ^bb0(%arg3: i32):
        %288 = memref.atomic_rmw mins %c644607405_i32, %alloc_12[%c4, %c9] : (i32, memref<16x14xi32>) -> i32
        %289 = arith.ceildivsi %c-23065_i16, %c18917_i16 : i16
        %290 = vector.broadcast %false : i1 to vector<14xi1>
        %291 = vector.maskedload %alloc_20[%c6], %290, %290 : memref<14xi1>, vector<14xi1>, vector<14xi1> into vector<14xi1>
        %292 = bufferization.clone %alloc_8 : memref<14x14xi1> to memref<14x14xi1>
        %293 = index.ceildivu %rank, %c0
        %294 = arith.minsi %true, %true : i1
        %295 = arith.remui %false, %false : i1
        %296 = index.maxu %c2, %c6
        %297 = arith.addi %c928860611_i32, %c766674261_i32 : i32
        %298 = index.maxu %c14, %296
        %299 = vector.broadcast %cst : f16 to vector<13x13xf16>
        %300 = vector.outerproduct %19, %19, %299 {kind = #vector.kind<maxf>} : vector<13xf16>, vector<13xf16>
        %301 = bufferization.to_tensor %alloc_9 : memref<16x14xf16>
        %302 = math.roundeven %14 : tensor<14x14xf16>
        %303 = tensor.empty() : tensor<16x14xi64>
        %cst_37 = arith.constant 1.000000e+00 : f32
        %304 = vector.transfer_read %33[%c7, %c10], %cst_37 : memref<16x14xf32>, vector<f32>
        %305 = vector.broadcast %true_1 : i1 to vector<16xi1>
        %dest_38, %accumulated_value_39 = vector.scan <maxui>, %26, %305 {inclusive = false, reduction_dim = 1 : i64} : vector<16x11xi1>, vector<16xi1>
        scf.yield %arg3 : i32
      }
      memref.tensor_store %15, %alloc_17 : memref<16x11x14xf32>
      scf.index_switch %c7 
      case 1 {
        %288 = math.log1p %cst_0 : f32
        %289 = affine.load %alloc_16[%c9, %c8] : memref<14x14xf16>
        %290 = index.ceildivs %c15, %c5
        %291 = math.cos %cst_2 : f16
        %292 = vector.extract %19[4] : vector<13xf16>
        %293 = math.atan %cst_0 : f32
        %294 = math.atan %15 : tensor<16x11x14xf32>
        %cst_37 = arith.constant 0x4E4C1429 : f32
        %295 = vector.broadcast %c5 : index to vector<13xindex>
        %296 = vector.broadcast %true : i1 to vector<13xi1>
        %297 = vector.broadcast %cst_0 : f32 to vector<13xf32>
        vector.scatter %alloc_6[%c8, %c2] [%295], %296, %297 : memref<16x11xf32>, vector<13xindex>, vector<13xi1>, vector<13xf32>
        %298 = vector.broadcast %true : i1 to vector<11xi1>
        %dest_38, %accumulated_value_39 = vector.scan <or>, %26, %298 {inclusive = true, reduction_dim = 0 : i64} : vector<16x11xi1>, vector<11xi1>
        %cst_40 = arith.constant 1.000000e+00 : f32
        %cst_41 = arith.constant 0.000000e+00 : f32
        %299 = vector.transfer_read %12[%c0, %rank], %cst_41 : tensor<16x14xf32>, vector<f32>
        %300 = arith.addf %cst, %cst_2 : f16
        %301 = vector.insertelement %cst_2, %19[%c7 : index] : vector<13xf16>
        %302 = arith.cmpf ord, %cst_0, %cst_40 : f32
        %303 = math.absf %289 : f16
        %304 = index.sizeof
        scf.yield
      }
      case 2 {
        %288 = arith.shli %c766674261_i32, %c644607405_i32 : i32
        %289 = vector.load %34[%c3, %c1] : memref<16x11xi1>, vector<16x14xi1>
        %290 = affine.max affine_map<(d0, d1, d2, d3) -> (d3 * 4)>(%c8, %c8, %c5, %30)
        %291 = arith.addf %cst, %cst : f16
        %292 = arith.shrsi %c1313612593_i64, %c614314845_i64 : i64
        %293 = arith.shli %c614314845_i64, %c614314845_i64 : i64
        %false_37 = arith.constant false
        %294 = vector.transfer_read %alloc_20[%c11], %false_37 : memref<14xi1>, vector<i1>
        %295 = index.sizeof
        %296 = math.fpowi %7, %11 : tensor<16x11xf16>, tensor<16x11xi32>
        %297 = index.ceildivs %c14, %c11
        %298 = bufferization.to_memref %15 : memref<16x11x14xf32>
        %299 = affine.apply affine_map<(d0, d1, d2, d3) -> (d0)>(%c3, %c13, %c13, %rank)
        %300 = math.ctpop %c1313612593_i64 : i64
        %301 = affine.max affine_map<(d0, d1, d2, d3) -> (d3 * 8, -d0, d3 + 8, d0 * 32)>(%c14, %c6, %c0, %c0)
        %302 = vector.broadcast %false : i1 to vector<16xi1>
        %dest_38, %accumulated_value_39 = vector.scan <minsi>, %289, %302 {inclusive = false, reduction_dim = 1 : i64} : vector<16x14xi1>, vector<16xi1>
        %303 = index.ceildivu %c15, %c12
        scf.yield
      }
      case 3 {
        %288 = arith.mulf %cst_2, %cst_2 : f16
        %289 = vector.reduction <mul>, %19 : vector<13xf16> into f16
        %290 = vector.broadcast %c18917_i16 : i16 to vector<16xi16>
        %291 = vector.broadcast %true : i1 to vector<16xi1>
        %292 = vector.maskedload %alloc_14[%c6, %c2], %291, %290 : memref<16x11xi16>, vector<16xi1>, vector<16xi16> into vector<16xi16>
        %293 = tensor.empty() : tensor<16x14xi1>
        %294 = linalg.matmul ins(%10, %27 : tensor<16x14xi1>, tensor<14x14xi1>) outs(%293 : tensor<16x14xi1>) -> tensor<16x14xi1>
        %295 = vector.broadcast %cst_0 : f32 to vector<13xf32>
        vector.transfer_write %295, %33[%c8, %c12] {permutation_map = affine_map<(d0, d1) -> (d0)>} : vector<13xf32>, memref<16x14xf32>
        %alloc_37 = memref.alloc() : memref<i1>
        memref.tensor_store %21, %alloc_37 : memref<i1>
        %alloc_38 = memref.alloc() : memref<11x16xi64>
        %296 = tensor.empty() : tensor<16x16xi64>
        %297 = linalg.matmul ins(%13, %alloc_38 : tensor<16x11xi64>, memref<11x16xi64>) outs(%296 : tensor<16x16xi64>) -> tensor<16x16xi64>
        %298 = math.cos %5 : tensor<16x14xf16>
        %299 = bufferization.clone %alloc_20 : memref<14xi1> to memref<14xi1>
        %alloc_39 = memref.alloc() : memref<11x14xi32>
        %300 = tensor.empty() : tensor<16x14xi32>
        %301 = linalg.matmul ins(%11, %alloc_39 : tensor<16x11xi32>, memref<11x14xi32>) outs(%300 : tensor<16x14xi32>) -> tensor<16x14xi32>
        %302 = arith.mulf %cst_0, %cst_0 : f32
        %303 = math.tanh %14 : tensor<14x14xf16>
        %304 = arith.shli %c766674261_i32, %c644607405_i32 : i32
        %305 = vector.extract_strided_slice %291 {offsets = [4], sizes = [1], strides = [1]} : vector<16xi1> to vector<1xi1>
        %306 = memref.atomic_rmw mulf %cst_0, %alloc_7[%c1, %c11] : (f32, memref<16x14xf32>) -> f32
        %307 = vector.broadcast %false : i1 to vector<11x11xi1>
        %308 = vector.contract {indexing_maps = [affine_map<(d0, d1, d2) -> (d2, d0)>, affine_map<(d0, d1, d2) -> (d2, d1)>, affine_map<(d0, d1, d2) -> (d0, d1)>], iterator_types = ["parallel", "parallel", "reduction"], kind = #vector.kind<maxsi>} %26, %26, %307 : vector<16x11xi1>, vector<16x11xi1> into vector<11x11xi1>
        scf.yield
      }
      case 4 {
        %288 = affine.max affine_map<(d0, d1) -> (d0 * -3)>(%rank, %c13)
        %289 = index.add %c13, %c11
        memref.store %cst_0, %alloc_6[%c3, %c4] : memref<16x11xf32>
        %290 = arith.minui %c1199270634_i64, %c1508905138_i64 : i64
        %291 = math.rsqrt %5 : tensor<16x14xf16>
        %292 = arith.shrsi %c644607405_i32, %c766674261_i32 : i32
        %rank_37 = tensor.rank %4 : tensor<16x14xi16>
        %293 = arith.cmpf uno, %cst_0, %cst_0 : f32
        %294 = arith.minui %c766674261_i32, %c928860611_i32 : i32
        %295 = index.divs %c0, %c9
        %296 = index.ceildivu %c5, %c14
        %297 = vector.broadcast %c0 : index to vector<13xindex>
        %298 = vector.broadcast %false : i1 to vector<13xi1>
        %299 = vector.broadcast %c1581681977_i32 : i32 to vector<13xi32>
        vector.scatter %alloc_15[%c5, %c5] [%297], %298, %299 : memref<16x11xi32>, vector<13xindex>, vector<13xi1>, vector<13xi32>
        %300 = arith.minui %c-23065_i16, %c-23065_i16 : i16
        %301 = math.sqrt %cst_2 : f16
        %302 = index.ceildivs %c7, %c6
        %303 = vector.flat_transpose %19 {columns = 13 : i32, rows = 1 : i32} : vector<13xf16> -> vector<13xf16>
        scf.yield
      }
      default {
        %288 = math.ctpop %6 : tensor<16x11x14xi16>
        %289 = index.castu %30 : index to i32
        %cst_37 = arith.constant 1.000000e+00 : f16
        %cst_38 = arith.constant 0.000000e+00 : f16
        %290 = vector.transfer_read %16[%c11, %c1], %cst_38 : tensor<16x14xf16>, vector<f16>
        %291 = index.ceildivs %c0, %c8
        %292 = math.ctpop %4 : tensor<16x14xi16>
        %293 = arith.subi %c1313612593_i64, %c1508905138_i64 : i64
        %294 = index.casts %c12 : index to i32
        %295 = index.casts %c1581681977_i32 : i32 to index
        %296 = math.absf %7 : tensor<16x11xf16>
        %297 = math.ctpop %true_1 : i1
        %298 = memref.atomic_rmw maxu %c18917_i16, %alloc_14[%c7, %c6] : (i16, memref<16x11xi16>) -> i16
        %299 = arith.addi %c18917_i16, %c18917_i16 : i16
        %300 = math.log1p %cst_0 : f32
        %301 = index.sizeof
        %302 = vector.shuffle %19, %19 [2, 7, 8, 10, 11, 13, 16, 19, 20, 21, 22, 23] : vector<13xf16>, vector<13xf16>
        %303 = index.casts %c18917_i16 : i16 to index
      }
      %285 = index.divs %c12, %c14
      %286 = affine.max affine_map<(d0, d1, d2) -> (d2 mod 8 + d2 - d2 floordiv 8, -(d1 - d0), (d1 - d0) ceildiv 8)>(%285, %rank, %c7)
      %true_36 = index.bool.constant true
      %287 = arith.maxui %c18917_i16, %c18917_i16 : i16
      affine.yield %c1199270634_i64 : i64
    } else {
      %283 = arith.andi %c-23065_i16, %c-23065_i16 : i16
      %284 = scf.if %true_1 -> (memref<16x11xf16>) {
        %291 = vector.insertelement %cst, %19[%c9 : index] : vector<13xf16>
        %292 = index.add %c5, %c4
        %alloc_36 = memref.alloc() : memref<11x13xf16>
        %293 = tensor.empty() : tensor<16x13xf16>
        %294 = linalg.matmul ins(%7, %alloc_36 : tensor<16x11xf16>, memref<11x13xf16>) outs(%293 : tensor<16x13xf16>) -> tensor<16x13xf16>
        %295 = bufferization.clone %alloc_14 : memref<16x11xi16> to memref<16x11xi16>
        %296 = arith.andi %c1581681977_i32, %c1581681977_i32 : i32
        bufferization.dealloc_tensor %10 : tensor<16x14xi1>
        %297 = index.sizeof
        %298 = vector.bitcast %19 : vector<13xf16> to vector<13xf16>
        %alloc_37 = memref.alloc() : memref<16x11xf16>
        scf.yield %alloc_37 : memref<16x11xf16>
      } else {
        %291 = math.log %7 : tensor<16x11xf16>
        %292 = bufferization.clone %alloc_19 : memref<14xi1> to memref<14xi1>
        %293 = arith.divsi %c1508905138_i64, %c614314845_i64 : i64
        %294 = vector.broadcast %cst_2 : f16 to vector<13x13xf16>
        %295 = vector.outerproduct %19, %19, %294 {kind = #vector.kind<add>} : vector<13xf16>, vector<13xf16>
        %296 = index.casts %c-23065_i16 : i16 to index
        %297 = arith.divsi %true, %true : i1
        bufferization.dealloc_tensor %3 : tensor<16x14xi64>
        %298 = math.round %2 : tensor<16x11xf32>
        %alloc_36 = memref.alloc() : memref<16x11xf16>
        scf.yield %alloc_36 : memref<16x11xf16>
      }
      %285 = arith.divf %cst_2, %cst_2 : f16
      %286 = tensor.empty() : tensor<14x14xi32>
      %287 = math.fpowi %14, %286 : tensor<14x14xf16>, tensor<14x14xi32>
      %288 = math.round %5 : tensor<16x14xf16>
      %289 = math.round %2 : tensor<16x11xf32>
      %alloca = memref.alloca() : memref<16x11xi64>
      %290 = arith.divsi %c1508905138_i64, %c1199270634_i64 : i64
      affine.yield %c1199270634_i64 : i64
    }
    %38 = vector.broadcast %cst_0 : f32 to vector<16x14xf32>
    %39 = vector.fma %38, %38, %38 : vector<16x14xf32>
    %40 = math.tan %15 : tensor<16x11x14xf32>
    memref.assume_alignment %alloc_18, 8 : memref<14x16xf16>
    %41 = arith.divf %cst, %cst_2 : f16
    %42 = math.exp %2 : tensor<16x11xf32>
    vector.print %19 : vector<13xf16>
    %43 = math.atan %17 : tensor<16x14xf16>
    %44 = scf.while (%arg3 = %alloc_19) : (memref<14xi1>) -> memref<14xi1> {
      %283 = vector.insertelement %cst, %19[%rank : index] : vector<13xf16>
      memref.assume_alignment %alloc_11, 4 : memref<16x11xi1>
      %284 = vector.extract_strided_slice %38 {offsets = [9], sizes = [2], strides = [1]} : vector<16x14xf32> to vector<2x14xf32>
      %285 = bufferization.clone %arg3 : memref<14xi1> to memref<14xi1>
      %286 = scf.while (%arg4 = %cst_2) : (f16) -> f16 {
        %290 = vector.extract_strided_slice %26 {offsets = [8], sizes = [4], strides = [1]} : vector<16x11xi1> to vector<4x11xi1>
        %291 = arith.maxui %c1313612593_i64, %c1313612593_i64 : i64
        %292 = memref.atomic_rmw addi %c-23065_i16, %alloc_14[%c13, %c0] : (i16, memref<16x11xi16>) -> i16
        %293 = math.atan2 %17, %16 : tensor<16x14xf16>
        %alloc_38 = memref.alloc() : memref<16x14xi1>
        memref.tensor_store %10, %alloc_38 : memref<16x14xi1>
        %294 = arith.shrsi %c18917_i16, %c-23065_i16 : i16
        %295 = bufferization.clone %alloc_12 : memref<16x14xi32> to memref<16x14xi32>
        %296 = math.sqrt %15 : tensor<16x11x14xf32>
        scf.condition(%true) %cst_2 : f16
      } do {
      ^bb0(%arg4: f16):
        %290 = bufferization.to_tensor %alloc_16 : memref<14x14xf16>
        %rank_38 = tensor.rank %8 : tensor<16x14xi1>
        %291 = math.expm1 %14 : tensor<14x14xf16>
        %292 = vector.insertelement %arg4, %19[%c0 : index] : vector<13xf16>
        %293 = math.round %cst_2 : f16
        %294 = math.rsqrt %12 : tensor<16x14xf32>
        %295 = vector.broadcast %c2 : index to vector<11xindex>
        %296 = vector.broadcast %true_1 : i1 to vector<11xi1>
        vector.scatter %alloc_8[%c5, %c7] [%295], %296, %296 : memref<14x14xi1>, vector<11xindex>, vector<11xi1>, vector<11xi1>
        %297 = tensor.empty() : tensor<16x11x14xf32>
        %298 = math.tan %12 : tensor<16x14xf32>
        bufferization.dealloc_tensor %11 : tensor<16x11xi32>
        %299 = arith.shli %c1313612593_i64, %c614314845_i64 : i64
        %300 = vector.broadcast %c644607405_i32 : i32 to vector<14xi32>
        %301 = vector.broadcast %false : i1 to vector<14xi1>
        %302 = vector.maskedload %alloc_12[%c11, %c6], %301, %300 : memref<16x14xi32>, vector<14xi1>, vector<14xi32> into vector<14xi32>
        %303 = index.add %c8, %c9
        %304 = math.cttz %c928860611_i32 : i32
        %305 = bufferization.clone %alloc_4 : memref<16x14xf16> to memref<16x14xf16>
        %306 = index.casts %303 : index to i32
        scf.yield %cst : f16
      }
      %287 = vector.broadcast %cst_0 : f32 to vector<16xf32>
      %dest_36, %accumulated_value_37 = vector.scan <maxf>, %39, %287 {inclusive = true, reduction_dim = 1 : i64} : vector<16x14xf32>, vector<16xf32>
      %288 = math.exp2 %15 : tensor<16x11x14xf32>
      %289 = scf.index_switch %c15 -> index 
      case 1 {
        %290 = arith.addi %c18917_i16, %c18917_i16 : i16
        %291 = arith.cmpi sle, %true_1, %true : i1
        %292 = math.sqrt %2 : tensor<16x11xf32>
        %293 = arith.cmpi ugt, %c644607405_i32, %c928860611_i32 : i32
        %294 = math.tanh %7 : tensor<16x11xf16>
        %295 = vector.extract_strided_slice %38 {offsets = [0], sizes = [3], strides = [1]} : vector<16x14xf32> to vector<3x14xf32>
        %296 = vector.broadcast %cst_0 : f32 to vector<14x14xf32>
        %297 = vector.contract {indexing_maps = [affine_map<(d0, d1, d2) -> (d2, d0)>, affine_map<(d0, d1, d2) -> (d2, d1)>, affine_map<(d0, d1, d2) -> (d0, d1)>], iterator_types = ["parallel", "parallel", "reduction"], kind = #vector.kind<mul>} %38, %39, %296 : vector<16x14xf32>, vector<16x14xf32> into vector<14x14xf32>
        %298 = arith.andi %c1199270634_i64, %c1508905138_i64 : i64
        %299 = math.cttz %c1508905138_i64 : i64
        %300 = arith.divsi %c928860611_i32, %c644607405_i32 : i32
        %301 = math.cos %cst_2 : f16
        %302 = math.log2 %2 : tensor<16x11xf32>
        %303 = vector.broadcast %true : i1 to vector<13xi1>
        %304 = vector.maskedload %alloc_19[%c11], %303, %303 : memref<14xi1>, vector<13xi1>, vector<13xi1> into vector<13xi1>
        %305 = math.roundeven %15 : tensor<16x11x14xf32>
        %306 = math.ipowi %3, %3 : tensor<16x14xi64>
        %307 = bufferization.to_memref %5 : memref<16x14xf16>
        scf.yield %c0 : index
      }
      default {
        %290 = math.expm1 %cst_2 : f16
        %291 = vector.create_mask %c3, %c5 : vector<16x14xi1>
        bufferization.dealloc_tensor %3 : tensor<16x14xi64>
        %292 = arith.maxui %true_1, %false : i1
        bufferization.dealloc_tensor %11 : tensor<16x11xi32>
        %293 = affine.load %alloc_4[%c7, %c13] : memref<16x14xf16>
        %294 = bufferization.to_tensor %alloc_17 : memref<16x11x14xf32>
        %295 = affine.load %alloc_13[%c9, %c3] : memref<14x14xi1>
        %splat = tensor.splat %cst : tensor<16x11xf16>
        %296 = index.ceildivu %c15, %c7
        %297 = math.log %294 : tensor<16x11x14xf32>
        %298 = memref.load %alloc_19[%c13] : memref<14xi1>
        %299 = math.log10 %2 : tensor<16x11xf32>
        %300 = math.ipowi %21, %21 : tensor<i1>
        affine.store %c644607405_i32, %alloc_10[%c14, %c14] : memref<14x14xi32>
        %301 = vector.broadcast %293 : f16 to vector<13x13xf16>
        %302 = vector.outerproduct %19, %19, %301 {kind = #vector.kind<add>} : vector<13xf16>, vector<13xf16>
        scf.yield %c8 : index
      }
      scf.condition(%true_1) %alloc_20 : memref<14xi1>
    } do {
    ^bb0(%arg3: memref<14xi1>):
      %283 = affine.apply affine_map<(d0, d1) -> (d0 floordiv 32 - d0)>(%c7, %c1)
      %284 = vector.create_mask %c0, %283, %c10 : vector<16x11x14xi1>
      %285 = arith.addf %cst_2, %cst_2 : f16
      %286 = scf.if %true -> (memref<16x11x14xi1>) {
        %300 = math.copysign %12, %12 : tensor<16x14xf32>
        %301 = vector.bitcast %39 : vector<16x14xf32> to vector<16x14xf32>
        %302 = vector.shuffle %301, %301 [0, 3, 4, 6, 7, 8, 11, 12, 13, 15, 19, 20, 21, 24, 29, 31] : vector<16x14xf32>, vector<16x14xf32>
        %303 = index.maxs %c10, %30
        %304 = affine.apply affine_map<(d0, d1, d2, d3) -> (-((d3 * 2) mod 4))>(%c4, %c3, %30, %rank)
        %305 = math.rsqrt %15 : tensor<16x11x14xf32>
        %306 = math.roundeven %cst_0 : f32
        %307 = math.sqrt %7 : tensor<16x11xf16>
        %alloc_40 = memref.alloc() : memref<16x11x14xi1>
        scf.yield %alloc_40 : memref<16x11x14xi1>
      } else {
        %alloca = memref.alloca() : memref<16x11x14xi1>
        %300 = math.ctlz %0 : tensor<16x14xi1>
        %from_elements_40 = tensor.from_elements %cst_2, %cst, %cst_2, %cst, %cst_2, %cst_2, %cst, %cst_2, %cst, %cst, %cst, %cst, %cst, %cst_2, %cst, %cst_2, %cst, %cst, %cst, %cst_2, %cst_2, %cst_2, %cst_2, %cst_2, %cst, %cst, %cst_2, %cst_2, %cst_2, %cst, %cst, %cst_2, %cst, %cst_2, %cst, %cst, %cst, %cst, %cst, %cst, %cst, %cst, %cst, %cst_2, %cst, %cst_2, %cst_2, %cst, %cst_2, %cst, %cst_2, %cst_2, %cst_2, %cst, %cst_2, %cst, %cst_2, %cst_2, %cst, %cst_2, %cst, %cst_2, %cst, %cst, %cst_2, %cst, %cst, %cst, %cst_2, %cst, %cst_2, %cst_2, %cst_2, %cst_2, %cst_2, %cst, %cst_2, %cst, %cst, %cst_2, %cst_2, %cst, %cst_2, %cst, %cst, %cst_2, %cst, %cst_2, %cst_2, %cst_2, %cst, %cst_2, %cst, %cst_2, %cst_2, %cst, %cst, %cst, %cst, %cst_2, %cst, %cst, %cst_2, %cst_2, %cst_2, %cst, %cst_2, %cst_2, %cst, %cst, %cst_2, %cst_2, %cst, %cst, %cst, %cst, %cst, %cst, %cst, %cst, %cst, %cst, %cst, %cst_2, %cst, %cst_2, %cst_2, %cst, %cst_2, %cst_2, %cst_2, %cst, %cst_2, %cst, %cst_2, %cst_2, %cst_2, %cst_2, %cst_2, %cst_2, %cst, %cst, %cst, %cst_2, %cst, %cst_2, %cst_2, %cst_2, %cst_2, %cst_2, %cst, %cst_2, %cst, %cst_2, %cst, %cst, %cst, %cst, %cst, %cst, %cst_2, %cst, %cst_2, %cst, %cst_2, %cst, %cst, %cst, %cst_2, %cst, %cst, %cst_2, %cst_2, %cst_2, %cst, %cst, %cst_2, %cst_2, %cst, %cst_2, %cst, %cst, %cst_2, %cst, %cst, %cst_2, %cst_2, %cst, %cst_2, %cst_2, %cst_2, %cst, %cst, %cst, %cst, %cst_2 : tensor<14x14xf16>
        %301 = vector.matrix_multiply %19, %19 {lhs_columns = 13 : i32, lhs_rows = 1 : i32, rhs_columns = 1 : i32} : (vector<13xf16>, vector<13xf16>) -> vector<1xf16>
        %c0_i64 = arith.constant 0 : i64
        %c0_i64_41 = arith.constant 0 : i64
        %302 = vector.transfer_read %13[%c3, %c11], %c0_i64_41 {permutation_map = affine_map<(d0, d1) -> (0)>} : tensor<16x11xi64>, vector<11xi64>
        %303 = vector.broadcast %c0_i64 : i64 to vector<16x14xi64>
        %304 = index.ceildivs %30, %283
        %305 = affine.apply affine_map<(d0, d1, d2, d3) -> (-((d3 * 2) mod 4))>(%c1, %c0, %c6, %rank)
        %alloc_42 = memref.alloc() : memref<16x11x14xi1>
        scf.yield %alloc_42 : memref<16x11x14xi1>
      }
      %287 = vector.broadcast %false : i1 to vector<11x11xi1>
      %288 = vector.contract {indexing_maps = [affine_map<(d0, d1, d2) -> (d2, d0)>, affine_map<(d0, d1, d2) -> (d2, d1)>, affine_map<(d0, d1, d2) -> (d0, d1)>], iterator_types = ["parallel", "parallel", "reduction"], kind = #vector.kind<minui>} %26, %26, %287 : vector<16x11xi1>, vector<16x11xi1> into vector<11x11xi1>
      %alloc_36 = memref.alloc() : memref<16x11xi64>
      %289 = vector.broadcast %c1508905138_i64 : i64 to vector<16x11x14xi64>
      %290 = vector.broadcast %c644607405_i32 : i32 to vector<16x11x14xi32>
      %291 = vector.gather %alloc_36[%c10, %c12] [%290], %284, %289 : memref<16x11xi64>, vector<16x11x14xi32>, vector<16x11x14xi1>, vector<16x11x14xi64> into vector<16x11x14xi64>
      %292 = memref.load %alloc_4[%c14, %c11] : memref<16x14xf16>
      %293 = math.atan2 %16, %5 : tensor<16x14xf16>
      %294 = affine.apply affine_map<(d0, d1, d2, d3) -> (d0)>(%c15, %c2, %c14, %c3)
      %true_37 = index.bool.constant true
      %splat = tensor.splat %c1581681977_i32 : tensor<16x14xi32>
      %295 = vector.broadcast %true : i1 to vector<11x14xi1>
      %dest_38, %accumulated_value_39 = vector.scan <add>, %284, %295 {inclusive = true, reduction_dim = 0 : i64} : vector<16x11x14xi1>, vector<11x14xi1>
      %296 = math.log %16 : tensor<16x14xf16>
      %297 = vector.splat %c9 : vector<14x14xindex>
      %298 = vector.extract_strided_slice %289 {offsets = [2, 1], sizes = [12, 10], strides = [1, 1]} : vector<16x11x14xi64> to vector<12x10x14xi64>
      %299 = math.cttz %splat : tensor<16x14xi32>
      scf.yield %alloc_20 : memref<14xi1>
    }
    %45 = math.roundeven %cst_2 : f16
    %46 = math.expm1 %7 : tensor<16x11xf16>
    affine.for %arg3 = 0 to 75 {
    }
    %47 = arith.cmpf false, %cst, %cst : f16
    %48 = math.copysign %5, %16 : tensor<16x14xf16>
    %49 = vector.insertelement %cst, %19[%c2 : index] : vector<13xf16>
    memref.tensor_store %9, %34 : memref<16x11xi1>
    %50 = vector.insertelement %cst_2, %19[%c3 : index] : vector<13xf16>
    %51 = math.round %cst_0 : f32
    %52 = affine.if affine_set<(d0) : (d0 == 0)>(%c8) -> i1 {
      %283 = affine.apply affine_map<(d0, d1) -> (-(d1 floordiv 8) + 2)>(%c15, %c5)
      %284 = bufferization.clone %alloc : memref<16x14xf32> to memref<16x14xf32>
      %285 = math.sqrt %14 : tensor<14x14xf16>
      %286 = vector.broadcast %false : i1 to vector<11xi1>
      %287 = vector.maskedload %alloc_8[%c10, %c5], %286, %286 : memref<14x14xi1>, vector<11xi1>, vector<11xi1> into vector<11xi1>
      %288 = vector.create_mask %c3, %c1 : vector<16x11xi1>
      %289 = affine.if affine_set<(d0) : (d0 == 0)>(%c14) -> memref<14x14xf16> {
        %291 = arith.addi %c1199270634_i64, %c1199270634_i64 : i64
        %292 = index.add %c5, %c7
        %293 = index.floordivs %c4, %30
        %294 = index.maxu %30, %c1
        %295 = index.maxs %c0, %c9
        %296 = tensor.empty() : tensor<16x11xi16>
        %297 = vector.broadcast %c12 : index to vector<11xindex>
        %298 = vector.broadcast %cst_0 : f32 to vector<11xf32>
        vector.scatter %alloc[%c3, %c0] [%297], %286, %298 : memref<16x14xf32>, vector<11xindex>, vector<11xi1>, vector<11xf32>
        %299 = arith.floordivsi %c766674261_i32, %c644607405_i32 : i32
        affine.yield %alloc_16 : memref<14x14xf16>
      } else {
        %291 = arith.shli %c1313612593_i64, %c614314845_i64 : i64
        %true_36 = arith.constant true
        %292 = arith.shrui %c1313612593_i64, %c1313612593_i64 : i64
        %293 = math.cos %7 : tensor<16x11xf16>
        %294 = affine.max affine_map<(d0) -> (((d0 mod 4) mod 32) * 4, d0 floordiv 8 - (d0 - 64) + d0 mod 64 - 8, d0 - 64)>(%c0)
        %295 = math.roundeven %14 : tensor<14x14xf16>
        %296 = index.maxu %c1, %rank
        %297 = bufferization.clone %alloc_20 : memref<14xi1> to memref<14xi1>
        affine.yield %alloc_16 : memref<14x14xf16>
      }
      %290 = arith.remui %c1199270634_i64, %c614314845_i64 : i64
      bufferization.dealloc_tensor %12 : tensor<16x14xf32>
      affine.yield %true : i1
    } else {
      %283 = math.copysign %7, %7 : tensor<16x11xf16>
      %284 = arith.negf %cst_0 : f32
      %285 = arith.minsi %c-23065_i16, %c-23065_i16 : i16
      %286 = bufferization.clone %alloc_5 : memref<16x11x14xf16> to memref<16x11x14xf16>
      %287 = arith.maxsi %c1313612593_i64, %c1313612593_i64 : i64
      %288 = math.sqrt %cst : f16
      %289 = vector.insertelement %cst, %19[%c4 : index] : vector<13xf16>
      %290 = math.roundeven %7 : tensor<16x11xf16>
      affine.yield %true_1 : i1
    }
    %53 = vector.broadcast %cst : f16 to vector<13x13xf16>
    %54 = vector.outerproduct %19, %19, %53 {kind = #vector.kind<add>} : vector<13xf16>, vector<13xf16>
    %55 = arith.shrui %c614314845_i64, %c1508905138_i64 : i64
    %56 = index.sizeof
    %57 = scf.while (%arg3 = %alloc_4) : (memref<16x14xf16>) -> memref<16x14xf16> {
      %283 = vector.broadcast %cst_0 : f32 to vector<14xf32>
      %dest_36, %accumulated_value_37 = vector.scan <mul>, %39, %283 {inclusive = false, reduction_dim = 0 : i64} : vector<16x14xf32>, vector<14xf32>
      %284 = math.tanh %12 : tensor<16x14xf32>
      %285 = vector.transpose %26, [0, 1] : vector<16x11xi1> to vector<16x11xi1>
      %286 = arith.divf %cst, %cst_2 : f16
      %287 = arith.remf %cst_2, %cst : f16
      %288 = vector.broadcast %false : i1 to vector<11xi1>
      %289 = vector.maskedload %alloc_11[%c11, %c5], %288, %288 : memref<16x11xi1>, vector<11xi1>, vector<11xi1> into vector<11xi1>
      %alloca = memref.alloca() : memref<16x14xi1>
      %290 = arith.cmpf ord, %cst_0, %cst_0 : f32
      scf.condition(%true_1) %arg3 : memref<16x14xf16>
    } do {
    ^bb0(%arg3: memref<16x14xf16>):
      memref.alloca_scope  {
        %297 = vector.insert %cst_2, %19 [11] : f16 into vector<13xf16>
        %298 = index.sub %c12, %c2
        %alloca = memref.alloca() : memref<16x14xf16>
        %true_37 = index.bool.constant true
        %299 = vector.transpose %19, [0] : vector<13xf16> to vector<13xf16>
        %300 = math.ctlz %10 : tensor<16x14xi1>
        %301 = bufferization.clone %33 : memref<16x14xf32> to memref<16x14xf32>
        %302 = memref.atomic_rmw assign %cst_2, %arg3[%c8, %c5] : (f16, memref<16x14xf16>) -> f16
        %303 = affine.apply affine_map<(d0, d1, d2) -> (d0 * 8)>(%298, %c11, %c15)
        %304 = vector.splat %c644607405_i32 : vector<16x11x14xi32>
        %305 = arith.ceildivsi %c1508905138_i64, %c1199270634_i64 : i64
        %306 = arith.divf %cst, %cst : f16
        %307 = index.casts %c1 : index to i32
        %308 = arith.mulf %cst_0, %cst_0 : f32
        %inserted_38 = tensor.insert %cst_0 into %15[%c10, %c5, %c6] : tensor<16x11x14xf32>
        %309 = math.ipowi %false, %true : i1
        bufferization.dealloc_tensor %4 : tensor<16x14xi16>
        %310 = vector.bitcast %26 : vector<16x11xi1> to vector<16x11xi1>
        %false_39 = index.bool.constant false
        %311 = arith.divf %cst_2, %cst_2 : f16
        %312 = arith.maxui %false, %true_37 : i1
        %313 = index.add %c6, %c14
        %314 = bufferization.clone %alloc_20 : memref<14xi1> to memref<14xi1>
        %315 = memref.atomic_rmw minf %cst_2, %alloc_16[%c6, %c13] : (f16, memref<14x14xf16>) -> f16
        %316 = arith.floordivsi %true_37, %false_39 : i1
        %317 = index.ceildivs %c10, %30
        %318 = index.floordivs %c9, %303
        %319 = math.floor %7 : tensor<16x11xf16>
        %extracted_40 = tensor.extract %17[%c7, %c10] : tensor<16x14xf16>
        %extracted_41 = tensor.extract %16[%c11, %c6] : tensor<16x14xf16>
        %320 = math.ctpop %c1508905138_i64 : i64
        %321 = math.log2 %15 : tensor<16x11x14xf32>
      }
      affine.store %c1581681977_i32, %alloc_15[%c13, %c14] : memref<16x11xi32>
      %expanded_36 = tensor.expand_shape %13 [[0], [1, 2]] : tensor<16x11xi64> into tensor<16x11x1xi64>
      %283 = index.ceildivs %c2, %c8
      %284 = vector.broadcast %c15 : index to vector<16xindex>
      %285 = vector.broadcast %true : i1 to vector<16xi1>
      %286 = vector.broadcast %c928860611_i32 : i32 to vector<16xi32>
      vector.scatter %alloc_15[%c13, %c4] [%284], %285, %286 : memref<16x11xi32>, vector<16xindex>, vector<16xi1>, vector<16xi32>
      %287 = arith.addf %cst, %cst_2 : f16
      %extracted = tensor.extract %3[%c14, %c12] : tensor<16x14xi64>
      %288 = index.ceildivu %c11, %30
      %289 = vector.shuffle %39, %38 [0, 1, 4, 6, 7, 9, 10, 12, 19, 20, 21, 22, 23, 24, 25, 26, 27, 28] : vector<16x14xf32>, vector<16x14xf32>
      %290 = vector.shuffle %38, %38 [0, 1, 2, 5, 7, 8, 9, 10, 11, 13, 18, 20, 21, 22, 26, 28, 29, 30, 31] : vector<16x14xf32>, vector<16x14xf32>
      %291 = vector.broadcast %extracted : i64 to vector<14x14xi64>
      %292 = math.sqrt %12 : tensor<16x14xf32>
      %293 = vector.contract {indexing_maps = [affine_map<(d0) -> (d0)>, affine_map<(d0) -> (d0)>, affine_map<(d0) -> ()>], iterator_types = ["reduction"], kind = #vector.kind<mul>} %19, %19, %cst : vector<13xf16>, vector<13xf16> into f16
      %294 = affine.apply affine_map<(d0, d1, d2) -> (d0 * 8)>(%c8, %c13, %283)
      %295 = math.ipowi %c1313612593_i64, %c1199270634_i64 : i64
      %296 = math.cttz %c1508905138_i64 : i64
      scf.yield %alloc_4 : memref<16x14xf16>
    }
    %rank_21 = tensor.rank %27 : tensor<14x14xi1>
    %58 = arith.remui %c1581681977_i32, %c1581681977_i32 : i32
    %59 = index.add %rank, %c8
    %60 = arith.ceildivsi %c928860611_i32, %c1581681977_i32 : i32
    %61 = memref.realloc %alloc_20 : memref<14xi1> to memref<14xi1>
    %62 = affine.apply affine_map<(d0, d1) -> (-(d1 floordiv 8) + 2)>(%c7, %59)
    %63 = math.log %2 : tensor<16x11xf32>
    %64 = vector.broadcast %c11 : index to vector<13xindex>
    %65 = vector.broadcast %false : i1 to vector<13xi1>
    vector.scatter %alloc_19[%c13] [%64], %65, %65 : memref<14xi1>, vector<13xindex>, vector<13xi1>, vector<13xi1>
    %generated = tensor.generate %56, %c1 {
    ^bb0(%arg3: index, %arg4: index):
      %283 = memref.realloc %alloc_19 : memref<14xi1> to memref<16xi1>
      %284 = vector.transpose %26, [0, 1] : vector<16x11xi1> to vector<16x11xi1>
      %inserted_36 = tensor.insert %cst_0 into %2[%c13, %c9] : tensor<16x11xf32>
      %285 = arith.cmpf oeq, %cst, %cst : f16
      tensor.yield %c1581681977_i32 : i32
    } : tensor<?x?xi32>
    %66 = vector.broadcast %cst_0 : f32 to vector<16xf32>
    %67 = vector.multi_reduction <maxf>, %38, %66 [1] : vector<16x14xf32> to vector<16xf32>
    %68 = index.maxu %c8, %c12
    %69 = bufferization.clone %alloc_10 : memref<14x14xi32> to memref<14x14xi32>
    %70 = vector.extract_strided_slice %66 {offsets = [5], sizes = [6], strides = [1]} : vector<16xf32> to vector<6xf32>
    %71 = scf.index_switch %68 -> memref<16x11x14xf32> 
    case 1 {
      %inserted_36 = tensor.insert %cst into %17[%c5, %c5] : tensor<16x14xf16>
      %alloc_37 = memref.alloc() : memref<11x16xf32>
      %283 = tensor.empty() : tensor<16x16xf32>
      %284 = linalg.matmul ins(%2, %alloc_37 : tensor<16x11xf32>, memref<11x16xf32>) outs(%283 : tensor<16x16xf32>) -> tensor<16x16xf32>
      affine.store %cst_0, %alloc_17[%c9, %c1, %c10] : memref<16x11x14xf32>
      %285 = vector.shuffle %19, %19 [3, 4, 10, 11, 13, 16, 20, 21] : vector<13xf16>, vector<13xf16>
      %286 = arith.remf %cst_0, %cst_0 : f32
      %287 = math.rsqrt %2 : tensor<16x11xf32>
      %288 = arith.remf %cst_2, %cst_2 : f16
      %289 = vector.broadcast %false : i1 to vector<16x11xi1>
      %290 = arith.divsi %c-23065_i16, %c18917_i16 : i16
      %291 = arith.maxf %cst_0, %cst_0 : f32
      %292 = arith.xori %c1199270634_i64, %c1199270634_i64 : i64
      affine.store %cst_2, %alloc_5[%c15, %c6, %c8] : memref<16x11x14xf16>
      %293 = math.sqrt %14 : tensor<14x14xf16>
      %294 = math.cos %7 : tensor<16x11xf16>
      %inserted_38 = tensor.insert %cst_2 into %5[%c15, %c13] : tensor<16x14xf16>
      memref.assume_alignment %alloc, 4 : memref<16x14xf32>
      scf.yield %alloc_17 : memref<16x11x14xf32>
    }
    case 2 {
      %283 = arith.maxui %false, %false : i1
      %284 = vector.splat %c18917_i16 : vector<16x14xi16>
      %285 = scf.while (%arg3 = %true_1) : (i1) -> i1 {
        %296 = math.round %5 : tensor<16x14xf16>
        %297 = math.fma %5, %5, %5 : tensor<16x14xf16>
        %inserted_40 = tensor.insert %c1313612593_i64 into %13[%c12, %c4] : tensor<16x11xi64>
        %298 = vector.bitcast %19 : vector<13xf16> to vector<13xi16>
        %299 = math.round %17 : tensor<16x14xf16>
        %300 = affine.max affine_map<(d0, d1, d2, d3) -> (d0 ceildiv 64, d3 ceildiv 8, d0 ceildiv 64 + 128)>(%c11, %c14, %c13, %c14)
        %301 = vector.transpose %39, [0, 1] : vector<16x14xf32> to vector<16x14xf32>
        bufferization.dealloc_tensor %4 : tensor<16x14xi16>
        scf.condition(%arg3) %true : i1
      } do {
      ^bb0(%arg3: i1):
        %296 = vector.broadcast %cst_0 : f32 to vector<14x14xf32>
        %297 = math.sqrt %2 : tensor<16x11xf32>
        %298 = vector.bitcast %296 : vector<14x14xf32> to vector<14x14xf32>
        %299 = vector.broadcast %c18917_i16 : i16 to vector<16x14xi16>
        %300 = math.atan2 %12, %12 : tensor<16x14xf32>
        vector.print %19 : vector<13xf16>
        %301 = index.sub %rank, %c11
        %302 = tensor.empty() : tensor<14x14xf32>
        %303 = tensor.empty() : tensor<16x14xf32>
        %304 = linalg.matmul ins(%12, %302 : tensor<16x14xf32>, tensor<14x14xf32>) outs(%303 : tensor<16x14xf32>) -> tensor<16x14xf32>
        %305 = index.ceildivu %c13, %56
        %306 = vector.splat %true : vector<16x11xi1>
        %expanded_40 = tensor.expand_shape %6 [[0], [1], [2, 3]] : tensor<16x11x14xi16> into tensor<16x11x14x1xi16>
        %307 = vector.broadcast %cst_0 : f32 to vector<14xf32>
        %308 = vector.contract {indexing_maps = [affine_map<(d0, d1) -> (d1, d0)>, affine_map<(d0, d1) -> (d1)>, affine_map<(d0, d1) -> (d0)>], iterator_types = ["parallel", "reduction"], kind = #vector.kind<add>} %38, %66, %307 : vector<16x14xf32>, vector<16xf32> into vector<14xf32>
        %309 = math.round %303 : tensor<16x14xf32>
        %310 = vector.extract %38[8] : vector<16x14xf32>
        %311 = affine.load %33[%c11, %c3] : memref<16x14xf32>
        %312 = arith.minf %cst_2, %cst : f16
        scf.yield %true_1 : i1
      }
      %rank_36 = tensor.rank %0 : tensor<16x14xi1>
      %286 = arith.cmpf ole, %cst, %cst_2 : f16
      %287 = bufferization.clone %alloc_4 : memref<16x14xf16> to memref<16x14xf16>
      vector.print %70 : vector<6xf32>
      %288 = math.fma %17, %16, %16 : tensor<16x14xf16>
      %289 = bufferization.to_memref %20 : memref<i1>
      %290 = vector.extract_strided_slice %38 {offsets = [6], sizes = [7], strides = [1]} : vector<16x14xf32> to vector<7x14xf32>
      %291 = math.rsqrt %5 : tensor<16x14xf16>
      %292 = arith.divf %cst, %cst_2 : f16
      %293 = arith.shrui %c1508905138_i64, %c1199270634_i64 : i64
      %294 = vector.broadcast %false : i1 to vector<16xi1>
      %dest_37, %accumulated_value_38 = vector.scan <minui>, %26, %294 {inclusive = false, reduction_dim = 1 : i64} : vector<16x11xi1>, vector<16xi1>
      %inserted_39 = tensor.insert %c1581681977_i32 into %11[%c3, %c8] : tensor<16x11xi32>
      %295 = math.log2 %2 : tensor<16x11xf32>
      scf.yield %alloc_17 : memref<16x11x14xf32>
    }
    case 3 {
      %283 = affine.apply affine_map<(d0, d1, d2, d3) -> (d0)>(%c5, %c0, %c2, %c1)
      %284 = arith.remf %cst_0, %cst_0 : f32
      %285 = linalg.generic {indexing_maps = [affine_map<(d0, d1, d2) -> (d0, d1, d2)>], iterator_types = ["parallel", "parallel", "parallel"]} outs(%6 : tensor<16x11x14xi16>) {
      ^bb0(%out: i16):
        %300 = index.sizeof
        %301 = math.copysign %7, %7 : tensor<16x11xf16>
        %302 = arith.ceildivsi %c614314845_i64, %c1199270634_i64 : i64
        %303 = arith.minf %cst, %cst : f16
        %304 = arith.addf %cst_0, %cst_0 : f32
        %305 = vector.broadcast %cst_0 : f32 to vector<14xf32>
        %306 = vector.contract {indexing_maps = [affine_map<(d0, d1) -> (d1)>, affine_map<(d0, d1) -> (d1, d0)>, affine_map<(d0, d1) -> (d0)>], iterator_types = ["parallel", "reduction"], kind = #vector.kind<mul>} %66, %39, %305 : vector<16xf32>, vector<16x14xf32> into vector<14xf32>
        %307 = vector.bitcast %38 : vector<16x14xf32> to vector<16x14xf32>
        %308 = math.atan2 %16, %5 : tensor<16x14xf16>
        %309 = math.expm1 %7 : tensor<16x11xf16>
        %310 = tensor.empty() : tensor<16x14xi32>
        %311 = math.fpowi %5, %310 : tensor<16x14xf16>, tensor<16x14xi32>
        %312 = arith.addf %cst, %cst_2 : f16
        %alloc_36 = memref.alloc() : memref<i1>
        memref.tensor_store %20, %alloc_36 : memref<i1>
        bufferization.dealloc_tensor %10 : tensor<16x14xi1>
        %313 = tensor.empty() : tensor<16x14xi1>
        %314 = linalg.matmul ins(%0, %27 : tensor<16x14xi1>, tensor<14x14xi1>) outs(%313 : tensor<16x14xi1>) -> tensor<16x14xi1>
        %315 = vector.broadcast %true_1 : i1 to vector<11xi1>
        %316 = vector.insert %315, %26 [2] : vector<11xi1> into vector<16x11xi1>
        %317 = index.sizeof
        %318 = math.round %15 : tensor<16x11x14xf32>
        %319 = arith.cmpf ogt, %cst_0, %cst_0 : f32
        memref.assume_alignment %alloc_15, 1 : memref<16x11xi32>
        %cst_37 = arith.constant 0x4E66E659 : f32
        %320 = vector.broadcast %true_1 : i1 to vector<13xi1>
        %321 = vector.maskedload %alloc_11[%c13, %c7], %320, %320 : memref<16x11xi1>, vector<13xi1>, vector<13xi1> into vector<13xi1>
        %322 = index.add %c1, %c5
        %323 = math.exp2 %5 : tensor<16x14xf16>
        %324 = math.round %7 : tensor<16x11xf16>
        %325 = memref.atomic_rmw assign %cst, %alloc_9[%c15, %c1] : (f16, memref<16x14xf16>) -> f16
        %326 = math.ctpop %c1508905138_i64 : i64
        %327 = arith.floordivsi %out, %c-23065_i16 : i16
        %328 = index.ceildivu %c4, %322
        %329 = index.casts %c5 : index to i32
        %330 = vector.extract %320[10] : vector<13xi1>
        %331 = tensor.empty() : tensor<16x14xi1>
        %332 = linalg.matmul ins(%0, %27 : tensor<16x14xi1>, tensor<14x14xi1>) outs(%331 : tensor<16x14xi1>) -> tensor<16x14xi1>
        %alloca = memref.alloca() : memref<16x11xf32>
        linalg.yield %c-23065_i16 : i16
      } -> tensor<16x11x14xi16>
      %286 = vector.broadcast %cst : f16 to vector<f16>
      vector.transfer_write %286, %alloc_9[%c1, %c0] : vector<f16>, memref<16x14xf16>
      %287 = math.powf %7, %7 : tensor<16x11xf16>
      %288 = vector.broadcast %cst_0 : f32 to vector<14x14xf32>
      %289 = vector.contract {indexing_maps = [affine_map<(d0, d1, d2) -> (d2, d0)>, affine_map<(d0, d1, d2) -> (d2, d1)>, affine_map<(d0, d1, d2) -> (d0, d1)>], iterator_types = ["parallel", "parallel", "reduction"], kind = #vector.kind<mul>} %38, %39, %288 : vector<16x14xf32>, vector<16x14xf32> into vector<14x14xf32>
      %290 = affine.if affine_set<(d0, d1) : (d1 * 4 - (d0 * 2) mod 64 >= 0, (d1 * 4) floordiv 32 >= 0, d1 * 4 - (d0 * 2) mod 64 == 0, d1 * 4 - (d0 * 2) mod 64 >= 0)>(%c7, %c5) -> memref<16x11xi32> {
        %300 = tensor.empty() : tensor<14x14xi32>
        %301 = math.fpowi %14, %300 : tensor<14x14xf16>, tensor<14x14xi32>
        %alloc_36 = memref.alloc() : memref<16x14xi16>
        %302 = vector.broadcast %c18917_i16 : i16 to vector<16x11x14xi16>
        %303 = vector.broadcast %false : i1 to vector<16x11x14xi1>
        %304 = vector.broadcast %c766674261_i32 : i32 to vector<16x11x14xi32>
        %305 = vector.gather %alloc_36[%c1, %c10] [%304], %303, %302 : memref<16x14xi16>, vector<16x11x14xi32>, vector<16x11x14xi1>, vector<16x11x14xi16> into vector<16x11x14xi16>
        %306 = math.roundeven %7 : tensor<16x11xf16>
        %307 = index.castu %c928860611_i32 : i32 to index
        %308 = arith.cmpf ogt, %cst_0, %cst_0 : f32
        %309 = arith.addf %cst_2, %cst : f16
        %310 = index.add %c15, %c7
        %rank_37 = tensor.rank %8 : tensor<16x14xi1>
        affine.yield %alloc_15 : memref<16x11xi32>
      } else {
        %300 = index.add %62, %56
        %301 = affine.apply affine_map<(d0) -> (d0 floordiv 4)>(%62)
        %302 = arith.minui %false, %true : i1
        %303 = math.fpowi %7, %11 : tensor<16x11xf16>, tensor<16x11xi32>
        %304 = math.ctpop %11 : tensor<16x11xi32>
        %305 = bufferization.clone %34 : memref<16x11xi1> to memref<16x11xi1>
        %306 = memref.atomic_rmw addf %cst_0, %alloc_6[%c8, %c3] : (f32, memref<16x11xf32>) -> f32
        %307 = math.expm1 %cst_2 : f16
        affine.yield %alloc_15 : memref<16x11xi32>
      }
      %291 = arith.minui %false, %true : i1
      %292 = index.maxu %c14, %30
      %293 = math.atan2 %7, %7 : tensor<16x11xf16>
      %294 = math.ipowi %9, %1 : tensor<16x11xi1>
      %295 = memref.realloc %alloc_19 : memref<14xi1> to memref<13xi1>
      %296 = math.log1p %2 : tensor<16x11xf32>
      %297 = vector.load %34[%c6, %c2] : memref<16x11xi1>, vector<16x11x14xi1>
      %298 = math.cos %7 : tensor<16x11xf16>
      %299 = vector.shuffle %39, %39 [0, 2, 4, 6, 7, 9, 10, 11, 12, 14, 18, 22, 23, 25, 26, 29, 30] : vector<16x14xf32>, vector<16x14xf32>
      scf.yield %alloc_17 : memref<16x11x14xf32>
    }
    default {
      %283 = vector.bitcast %19 : vector<13xf16> to vector<13xf16>
      %284 = math.roundeven %5 : tensor<16x14xf16>
      %285 = arith.mulf %cst_2, %cst : f16
      memref.store %false, %alloc_8[%c2, %c6] : memref<14x14xi1>
      %286 = arith.addi %c1199270634_i64, %c1199270634_i64 : i64
      %287 = vector.transpose %66, [0] : vector<16xf32> to vector<16xf32>
      %alloc_36 = memref.alloc() : memref<16x11x14xf16>
      %288 = memref.load %alloc_13[%c4, %c1] : memref<14x14xi1>
      %289 = arith.floordivsi %true_1, %true : i1
      %290 = index.add %c8, %c4
      %291 = arith.floordivsi %true, %false : i1
      %extracted = tensor.extract %8[%c11, %c1] : tensor<16x14xi1>
      %292 = scf.while (%arg3 = %c1508905138_i64) : (i64) -> i64 {
        %296 = vector.load %alloc_9[%c3, %c3] : memref<16x14xf16>, vector<16x11x14xf16>
        %297 = index.castu %c644607405_i32 : i32 to index
        %298 = math.ctlz %6 : tensor<16x11x14xi16>
        %299 = math.expm1 %2 : tensor<16x11xf32>
        %300 = tensor.empty() : tensor<16x14xi32>
        %301 = arith.negf %cst_2 : f16
        %302 = math.round %5 : tensor<16x14xf16>
        %303 = math.round %cst : f16
        scf.condition(%true) %c1313612593_i64 : i64
      } do {
      ^bb0(%arg3: i64):
        %296 = vector.insertelement %cst_2, %283[%c0 : index] : vector<13xf16>
        %297 = arith.muli %c766674261_i32, %c644607405_i32 : i32
        %298 = math.ctpop %c1313612593_i64 : i64
        %299 = vector.bitcast %70 : vector<6xf32> to vector<6xf32>
        %300 = affine.max affine_map<(d0) -> (d0 floordiv 2 - 20)>(%c11)
        %301 = affine.apply affine_map<(d0, d1, d2) -> ((d1 + d0 - 32) ceildiv 64 + 16)>(%c9, %c3, %300)
        %302 = arith.cmpf ogt, %cst_2, %cst_2 : f16
        %303 = math.expm1 %7 : tensor<16x11xf16>
        %304 = arith.cmpf ogt, %cst_2, %cst_2 : f16
        %alloc_37 = memref.alloc() : memref<16x14xi64>
        %305 = vector.broadcast %c614314845_i64 : i64 to vector<14x14xi64>
        %306 = vector.broadcast %extracted : i1 to vector<14x14xi1>
        %307 = vector.broadcast %c644607405_i32 : i32 to vector<14x14xi32>
        %308 = vector.gather %alloc_37[%30, %c2] [%307], %306, %305 : memref<16x14xi64>, vector<14x14xi32>, vector<14x14xi1>, vector<14x14xi64> into vector<14x14xi64>
        %309 = index.add %68, %68
        %310 = math.tan %15 : tensor<16x11x14xf32>
        memref.assume_alignment %alloc_11, 4 : memref<16x11xi1>
        %311 = affine.load %alloc_16[%c13, %c2] : memref<14x14xf16>
        %expanded_38 = tensor.expand_shape %10 [[0], [1, 2]] : tensor<16x14xi1> into tensor<16x14x1xi1>
        %312 = arith.minui %c1508905138_i64, %c1508905138_i64 : i64
        scf.yield %c1508905138_i64 : i64
      }
      %293 = memref.atomic_rmw minu %c644607405_i32, %alloc_10[%c6, %c4] : (i32, memref<14x14xi32>) -> i32
      %294 = vector.load %alloc[%c10, %c7] : memref<16x14xf32>, vector<16x11xf32>
      %295 = affine.max affine_map<(d0) -> (((d0 ceildiv 64) mod 8) ceildiv 2 + d0, ((d0 + (d0 ceildiv 64) mod 8) mod 4) floordiv 128, ((d0 ceildiv 64) mod 8) ceildiv 2 + d0)>(%c10)
      scf.yield %alloc_17 : memref<16x11x14xf32>
    }
    %72 = arith.divf %cst_2, %cst_2 : f16
    %73 = index.maxs %c8, %rank_21
    %74 = bufferization.clone %alloc_13 : memref<14x14xi1> to memref<14x14xi1>
    scf.execute_region {
      memref.assume_alignment %alloc_14, 1 : memref<16x11xi16>
      %283 = vector.broadcast %cst_0 : f32 to vector<16x14xf32>
      %284 = vector.fma %283, %38, %283 : vector<16x14xf32>
      %285 = arith.maxf %cst_2, %cst_2 : f16
      %286 = math.powf %14, %14 : tensor<14x14xf16>
      %287 = vector.broadcast %56 : index to vector<14xindex>
      %288 = vector.broadcast %false : i1 to vector<14xi1>
      %289 = vector.broadcast %c766674261_i32 : i32 to vector<14xi32>
      vector.scatter %alloc_10[%c6, %c5] [%287], %288, %289 : memref<14x14xi32>, vector<14xindex>, vector<14xi1>, vector<14xi32>
      %290 = arith.negf %cst_0 : f32
      %291 = arith.cmpf olt, %cst_2, %cst_2 : f16
      %292 = math.absf %7 : tensor<16x11xf16>
      %293 = arith.andi %c1581681977_i32, %c1581681977_i32 : i32
      %294 = vector.broadcast %73 : index to vector<16xindex>
      %295 = vector.broadcast %true : i1 to vector<16xi1>
      vector.scatter %alloc_6[%c6, %c4] [%294], %295, %66 : memref<16x11xf32>, vector<16xindex>, vector<16xi1>, vector<16xf32>
      %296 = math.log %7 : tensor<16x11xf16>
      %297 = math.exp2 %7 : tensor<16x11xf16>
      %298 = index.maxu %c6, %68
      %299 = math.ipowi %20, %21 : tensor<i1>
      %300 = affine.apply affine_map<(d0, d1) -> (d0 floordiv 32 - d0)>(%c1, %c3)
      %301 = math.atan2 %15, %15 : tensor<16x11x14xf32>
      scf.yield
    }
    memref.assume_alignment %alloc_3, 4 : memref<14x14xi32>
    %75 = math.ipowi %9, %1 : tensor<16x11xi1>
    %76 = vector.load %alloc_16[%c2, %c9] : memref<14x14xf16>, vector<16x11xf16>
    %77 = math.log2 %15 : tensor<16x11x14xf32>
    %78 = scf.if %true_1 -> (i16) {
      %283 = vector.broadcast %cst_0 : f32 to vector<16x11x14xf32>
      %284 = vector.broadcast %true : i1 to vector<16x11x14xi1>
      %285 = vector.broadcast %c766674261_i32 : i32 to vector<16x11x14xi32>
      %286 = vector.gather %alloc_17[%c10, %30, %c14] [%285], %284, %283 : memref<16x11x14xf32>, vector<16x11x14xi32>, vector<16x11x14xi1>, vector<16x11x14xf32> into vector<16x11x14xf32>
      %287 = index.floordivs %c1, %c8
      %288 = math.exp %7 : tensor<16x11xf16>
      %289 = arith.remsi %c1313612593_i64, %c614314845_i64 : i64
      %290 = math.tanh %2 : tensor<16x11xf32>
      %291 = arith.andi %c1508905138_i64, %c1199270634_i64 : i64
      %292 = math.cttz %1 : tensor<16x11xi1>
      %293 = vector.extract_strided_slice %38 {offsets = [14], sizes = [2], strides = [1]} : vector<16x14xf32> to vector<2x14xf32>
      scf.yield %c18917_i16 : i16
    } else {
      %283 = arith.minui %true, %false : i1
      %284 = vector.broadcast %cst_0 : f32 to vector<14x14xf32>
      %285 = vector.contract {indexing_maps = [affine_map<(d0, d1, d2) -> (d2, d0)>, affine_map<(d0, d1, d2) -> (d2, d1)>, affine_map<(d0, d1, d2) -> (d0, d1)>], iterator_types = ["parallel", "parallel", "reduction"], kind = #vector.kind<maxf>} %39, %38, %284 : vector<16x14xf32>, vector<16x14xf32> into vector<14x14xf32>
      %286 = vector.broadcast %cst_0 : f32 to vector<14x14xf32>
      %287 = vector.contract {indexing_maps = [affine_map<(d0, d1, d2) -> (d2, d0)>, affine_map<(d0, d1, d2) -> (d2, d1)>, affine_map<(d0, d1, d2) -> (d0, d1)>], iterator_types = ["parallel", "parallel", "reduction"], kind = #vector.kind<minf>} %38, %38, %286 : vector<16x14xf32>, vector<16x14xf32> into vector<14x14xf32>
      %288 = scf.execute_region -> i1 {
        %293 = vector.reduction <maxf>, %70 : vector<6xf32> into f32
        %294 = arith.addi %c1581681977_i32, %c1581681977_i32 : i32
        %c0_i32 = arith.constant 0 : i32
        %295 = vector.transfer_read %69[%c9, %30], %c0_i32 : memref<14x14xi32>, vector<i32>
        %296 = vector.broadcast %c1581681977_i32 : i32 to vector<14x14xi32>
        %297 = vector.broadcast %false : i1 to vector<14x14xi1>
        %298 = vector.gather %alloc_15[%30, %62] [%296], %297, %296 : memref<16x11xi32>, vector<14x14xi32>, vector<14x14xi1>, vector<14x14xi32> into vector<14x14xi32>
        %299 = vector.flat_transpose %19 {columns = 13 : i32, rows = 1 : i32} : vector<13xf16> -> vector<13xf16>
        %300 = vector.bitcast %296 : vector<14x14xi32> to vector<14x14xi32>
        %301 = arith.shrsi %c1199270634_i64, %c1508905138_i64 : i64
        %302 = arith.addf %cst, %cst : f16
        %303 = vector.insertelement %cst_0, %70[%c3 : index] : vector<6xf32>
        %304 = index.castu %c928860611_i32 : i32 to index
        %305 = affine.apply affine_map<(d0, d1, d2, d3) -> (-64)>(%c2, %c13, %c3, %c8)
        %alloc_36 = memref.alloc() : memref<16x11xf16>
        memref.tensor_store %7, %alloc_36 : memref<16x11xf16>
        %306 = vector.insertelement %cst, %19[%56 : index] : vector<13xf16>
        %307 = arith.cmpf olt, %cst, %cst_2 : f16
        %308 = index.ceildivu %c0, %rank
        %309 = arith.minui %c644607405_i32, %c928860611_i32 : i32
        scf.yield %false : i1
      }
      %289 = arith.negf %cst_0 : f32
      %290 = index.ceildivu %68, %c7
      %291 = math.expm1 %14 : tensor<14x14xf16>
      %292 = math.tan %14 : tensor<14x14xf16>
      scf.yield %c18917_i16 : i16
    }
    memref.assume_alignment %69, 8 : memref<14x14xi32>
    %collapsed = tensor.collapse_shape %27 [[0, 1]] : tensor<14x14xi1> into tensor<196xi1>
    %alloc_22 = memref.alloc() : memref<11x16xi16>
    %79 = linalg.generic {indexing_maps = [affine_map<(d0, d1, d2) -> (d0, d2)>, affine_map<(d0, d1, d2) -> (d1, d0)>, affine_map<(d0, d1, d2) -> (d0, d1, d2)>], iterator_types = ["parallel", "parallel", "parallel"]} ins(%4, %alloc_22 : tensor<16x14xi16>, memref<11x16xi16>) outs(%6 : tensor<16x11x14xi16>) {
    ^bb0(%in: i16, %in_36: i16, %out: i16):
      memref.assume_alignment %alloc_10, 4 : memref<14x14xi32>
      %283 = vector.broadcast %c8 : index to vector<11xindex>
      %284 = vector.broadcast %true_1 : i1 to vector<11xi1>
      %285 = vector.broadcast %cst_0 : f32 to vector<11xf32>
      vector.scatter %alloc_17[%c3, %c1, %c2] [%283], %284, %285 : memref<16x11x14xf32>, vector<11xindex>, vector<11xi1>, vector<11xf32>
      %286 = math.absf %2 : tensor<16x11xf32>
      %287 = math.absi %27 : tensor<14x14xi1>
      %alloc_37 = memref.alloc() : memref<11x16xi1>
      %288 = tensor.empty() : tensor<16x16xi1>
      %289 = linalg.matmul ins(%9, %alloc_37 : tensor<16x11xi1>, memref<11x16xi1>) outs(%288 : tensor<16x16xi1>) -> tensor<16x16xi1>
      %290 = index.maxu %c0, %rank
      %291 = vector.broadcast %cst_0 : f32 to vector<6x6xf32>
      %292 = vector.outerproduct %70, %70, %291 {kind = #vector.kind<mul>} : vector<6xf32>, vector<6xf32>
      %293 = scf.execute_region -> index {
        %317 = math.log10 %cst_2 : f16
        %true_38 = index.bool.constant true
        %318 = arith.minf %cst_2, %cst : f16
        %319 = index.casts %c644607405_i32 : i32 to index
        %320 = arith.subi %out, %c18917_i16 : i16
        %321 = arith.ceildivsi %c1313612593_i64, %c1199270634_i64 : i64
        %inserted_39 = tensor.insert %78 into %6[%c2, %c8, %c9] : tensor<16x11x14xi16>
        %cst_40 = arith.constant 2.027200e+04 : f16
        %322 = arith.ceildivsi %c18917_i16, %c18917_i16 : i16
        %323 = math.ctpop %3 : tensor<16x14xi64>
        %324 = vector.broadcast %319 : index to vector<16xindex>
        %325 = vector.broadcast %true : i1 to vector<16xi1>
        %326 = vector.broadcast %cst_2 : f16 to vector<16xf16>
        vector.scatter %alloc_9[%c8, %c7] [%324], %325, %326 : memref<16x14xf16>, vector<16xindex>, vector<16xi1>, vector<16xf16>
        %327 = vector.broadcast %false : i1 to vector<16x14xi1>
        %328 = vector.bitcast %70 : vector<6xf32> to vector<6xf32>
        %329 = arith.xori %c-23065_i16, %c-23065_i16 : i16
        %330 = arith.maxsi %c-23065_i16, %c18917_i16 : i16
        %331 = math.ipowi %9, %9 : tensor<16x11xi1>
        scf.yield %c15 : index
      }
      %294 = math.exp2 %15 : tensor<16x11x14xf32>
      %295 = index.castu %c7 : index to i32
      %296 = math.round %17 : tensor<16x14xf16>
      %297 = tensor.empty() : tensor<14x14xf32>
      %298 = index.castu %c18917_i16 : i16 to index
      %299 = bufferization.clone %alloc_12 : memref<16x14xi32> to memref<16x14xi32>
      %300 = math.log10 %cst_2 : f16
      %301 = vector.bitcast %66 : vector<16xf32> to vector<16xf32>
      %302 = index.ceildivu %c11, %73
      %303 = arith.addi %78, %c18917_i16 : i16
      %304 = math.absf %cst : f16
      %305 = math.rsqrt %14 : tensor<14x14xf16>
      %306 = math.rsqrt %2 : tensor<16x11xf32>
      %307 = math.rsqrt %7 : tensor<16x11xf16>
      scf.if %false {
        %317 = affine.max affine_map<(d0, d1, d2, d3) -> ((d1 + d1 mod 64) * -128, d2 ceildiv 64, d1 mod 64 + 2)>(%68, %73, %56, %c3)
        %318 = index.add %59, %c6
        %319 = arith.minui %78, %in_36 : i16
        %320 = math.sqrt %16 : tensor<16x14xf16>
        %321 = math.log %14 : tensor<14x14xf16>
        %322 = math.ceil %5 : tensor<16x14xf16>
        %323 = vector.insertelement %cst_0, %301[%c11 : index] : vector<16xf32>
        %324 = memref.realloc %alloc_20 : memref<14xi1> to memref<16xi1>
      }
      %308 = memref.realloc %alloc_20 : memref<14xi1> to memref<14xi1>
      %309 = math.log1p %cst_2 : f16
      %310 = affine.load %299[%c5, %c15] : memref<16x14xi32>
      %311 = vector.bitcast %76 : vector<16x11xf16> to vector<16x11xf16>
      %312 = math.round %cst_0 : f32
      %313 = vector.shuffle %70, %66 [0, 1, 3, 6, 7, 8, 10, 12, 13, 14, 15] : vector<6xf32>, vector<16xf32>
      %314 = affine.apply affine_map<(d0) -> (((-(d0 ceildiv 64)) floordiv 8) * 8)>(%c7)
      %315 = arith.andi %in, %out : i16
      %316 = arith.mulf %cst_0, %cst_0 : f32
      linalg.yield %in_36 : i16
    } -> tensor<16x11x14xi16>
    %80 = vector.transpose %70, [0] : vector<6xf32> to vector<6xf32>
    %81 = arith.maxui %c644607405_i32, %c1581681977_i32 : i32
    %82 = affine.apply affine_map<(d0, d1, d2, d3) -> (-((d3 * 2) mod 4))>(%c3, %c9, %c3, %c1)
    %83 = math.rsqrt %12 : tensor<16x14xf32>
    %84 = math.absf %7 : tensor<16x11xf16>
    %85 = vector.broadcast %cst_0 : f32 to vector<14xf32>
    %dest, %accumulated_value = vector.scan <minf>, %39, %85 {inclusive = false, reduction_dim = 0 : i64} : vector<16x14xf32>, vector<14xf32>
    %86 = vector.splat %59 : vector<14x14xindex>
    %87 = tensor.empty() : tensor<16x14xi32>
    %88 = math.fpowi %16, %87 : tensor<16x14xf16>, tensor<16x14xi32>
    %89 = vector.shuffle %39, %39 [0, 1, 2, 3, 6, 12, 14, 16, 18, 20, 24, 25, 27] : vector<16x14xf32>, vector<16x14xf32>
    %90 = vector.broadcast %c9 : index to vector<13xindex>
    %91 = vector.broadcast %true : i1 to vector<13xi1>
    %92 = vector.broadcast %cst_0 : f32 to vector<13xf32>
    vector.scatter %alloc_17[%c6, %c0, %c11] [%90], %91, %92 : memref<16x11x14xf32>, vector<13xindex>, vector<13xi1>, vector<13xf32>
    %93 = arith.maxui %c766674261_i32, %c1581681977_i32 : i32
    %94 = vector.extract_strided_slice %26 {offsets = [5], sizes = [8], strides = [1]} : vector<16x11xi1> to vector<8x11xi1>
    %95 = vector.splat %73 : vector<16x14xindex>
    %96 = arith.divf %cst_0, %cst_0 : f32
    %97 = math.round %14 : tensor<14x14xf16>
    %98 = math.ipowi %c1581681977_i32, %c928860611_i32 : i32
    %99 = vector.flat_transpose %19 {columns = 13 : i32, rows = 1 : i32} : vector<13xf16> -> vector<13xf16>
    %100 = arith.addi %true_1, %true : i1
    %101 = arith.xori %c-23065_i16, %78 : i16
    %102 = bufferization.clone %alloc_13 : memref<14x14xi1> to memref<14x14xi1>
    %103 = math.round %16 : tensor<16x14xf16>
    %104 = vector.flat_transpose %19 {columns = 13 : i32, rows = 1 : i32} : vector<13xf16> -> vector<13xf16>
    %105 = bufferization.to_tensor %alloc_9 : memref<16x14xf16>
    %106 = math.absf %12 : tensor<16x14xf32>
    %107 = math.absf %14 : tensor<14x14xf16>
    %108 = index.casts %c644607405_i32 : i32 to index
    %109 = memref.realloc %32 : memref<14xi1> to memref<13xi1>
    %110 = affine.apply affine_map<(d0, d1, d2, d3) -> (d3 floordiv 8)>(%68, %68, %c4, %30)
    %111 = arith.divf %cst_2, %cst_2 : f16
    %112 = index.maxu %c7, %c12
    %113 = affine.for %arg3 = 0 to 39 iter_args(%arg4 = %false) -> (i1) {
      affine.yield %false : i1
    }
    %114 = vector.shuffle %38, %39 [0, 1, 2, 4, 5, 6, 7, 8, 11, 16, 18, 21, 24, 27, 28, 30, 31] : vector<16x14xf32>, vector<16x14xf32>
    %115 = index.floordivs %108, %c8
    %rank_23 = tensor.rank %16 : tensor<16x14xf16>
    %116 = bufferization.clone %69 : memref<14x14xi32> to memref<14x14xi32>
    %117 = index.mul %c0, %112
    %118 = index.castu %56 : index to i32
    %119 = math.tanh %7 : tensor<16x11xf16>
    %120 = math.log %5 : tensor<16x14xf16>
    %121 = math.sqrt %17 : tensor<16x14xf16>
    %122 = bufferization.clone %alloc : memref<16x14xf32> to memref<16x14xf32>
    %123 = bufferization.to_tensor %alloc_13 : memref<14x14xi1>
    %124 = tensor.empty() : tensor<14xf32>
    %125 = tensor.empty() : tensor<14x16xf32>
    %126 = linalg.generic {indexing_maps = [affine_map<(d0, d1, d2) -> (d2)>, affine_map<(d0, d1, d2) -> (d0, d2)>, affine_map<(d0, d1, d2) -> (d2, d0)>, affine_map<(d0, d1, d2) -> (d0, d1, d2)>], iterator_types = ["parallel", "parallel", "parallel"]} ins(%124, %alloc, %125 : tensor<14xf32>, memref<16x14xf32>, tensor<14x16xf32>) outs(%15 : tensor<16x11x14xf32>) {
    ^bb0(%in: f32, %in_36: f32, %in_37: f32, %out: f32):
      %283 = vector.broadcast %c644607405_i32 : i32 to vector<11xi32>
      %284 = vector.broadcast %false : i1 to vector<11xi1>
      %285 = vector.maskedload %alloc_3[%c4, %c7], %284, %283 : memref<14x14xi32>, vector<11xi1>, vector<11xi32> into vector<11xi32>
      %286 = arith.shrui %c614314845_i64, %c1313612593_i64 : i64
      %c1579672575_i32 = arith.constant 1579672575 : i32
      %287 = index.floordivs %59, %rank_21
      %288 = math.copysign %in, %out : f32
      %289 = index.ceildivu %rank_21, %c5
      %290 = bufferization.to_memref %8 : memref<16x14xi1>
      %291 = math.fpowi %out, %c644607405_i32 : f32, i32
      %292 = arith.ceildivsi %c614314845_i64, %c1199270634_i64 : i64
      %293 = index.sizeof
      %294 = affine.load %33[%c0, %c8] : memref<16x14xf32>
      %295 = arith.cmpf ogt, %in_36, %294 : f32
      %296 = math.exp %294 : f32
      %297 = math.fma %14, %14, %14 : tensor<14x14xf16>
      %298 = scf.while (%arg3 = %38) : (vector<16x14xf32>) -> vector<16x14xf32> {
        %317 = index.floordivs %c14, %62
        %318 = arith.cmpi sgt, %c18917_i16, %c-23065_i16 : i16
        %319 = index.divs %rank, %c1
        %320 = arith.maxsi %78, %c-23065_i16 : i16
        %321 = arith.cmpf oge, %out, %in_37 : f32
        %cast_39 = tensor.cast %14 : tensor<14x14xf16> to tensor<?x?xf16>
        %322 = tensor.empty() : tensor<16x14xi16>
        %323 = math.round %cst_0 : f32
        scf.condition(%false) %39 : vector<16x14xf32>
      } do {
      ^bb0(%arg3: vector<16x14xf32>):
        %317 = index.sizeof
        %false_39 = arith.constant false
        %false_40 = arith.constant false
        %318 = vector.transfer_read %0[%c15, %62], %false_40 {permutation_map = affine_map<(d0, d1) -> (0)>} : tensor<16x14xi1>, vector<14xi1>
        %319 = index.add %287, %c5
        %320 = arith.divsi %78, %78 : i16
        %321 = math.expm1 %105 : tensor<16x14xf16>
        %322 = index.ceildivu %rank_23, %c5
        %323 = arith.negf %out : f32
        %324 = arith.ori %c928860611_i32, %c928860611_i32 : i32
        %325 = vector.create_mask %c4, %c9 : vector<16x11xi1>
        %326 = vector.broadcast %c928860611_i32 : i32 to vector<13xi32>
        %327 = vector.broadcast %true : i1 to vector<13xi1>
        %328 = vector.maskedload %alloc_10[%c6, %c13], %327, %326 : memref<14x14xi32>, vector<13xi1>, vector<13xi32> into vector<13xi32>
        %329 = math.cos %17 : tensor<16x14xf16>
        %330 = index.sizeof
        %331 = vector.broadcast %c18917_i16 : i16 to vector<14xi16>
        %332 = vector.transfer_write %331, %4[%c1, %317] {permutation_map = affine_map<(d0, d1) -> (d0)>} : vector<14xi16>, tensor<16x14xi16>
        %333 = vector.transpose %26, [1, 0] : vector<16x11xi1> to vector<11x16xi1>
        %334 = vector.transpose %26, [0, 1] : vector<16x11xi1> to vector<16x11xi1>
        %335 = math.sqrt %cst : f16
        scf.yield %38 : vector<16x14xf32>
      }
      %299 = affine.min affine_map<(d0, d1, d2, d3) -> (d3 + d1 - 4, d3 floordiv 4, d3 floordiv 4)>(%c6, %c9, %c0, %c2)
      %300 = vector.broadcast %in_36 : f32 to vector<6x6xf32>
      %301 = vector.outerproduct %70, %70, %300 {kind = #vector.kind<minf>} : vector<6xf32>, vector<6xf32>
      %302 = arith.floordivsi %c614314845_i64, %c1508905138_i64 : i64
      %303 = index.sizeof
      %304 = math.log %2 : tensor<16x11xf32>
      %305 = vector.maskedload %alloc_8[%c11, %c5], %284, %284 : memref<14x14xi1>, vector<11xi1>, vector<11xi1> into vector<11xi1>
      %306 = arith.shrsi %c766674261_i32, %c766674261_i32 : i32
      %307 = affine.load %alloc_8[%c8, %c4] : memref<14x14xi1>
      %308 = vector.insertelement %cst, %19[%287 : index] : vector<13xf16>
      %309 = tensor.empty() : tensor<14xf32>
      %310 = linalg.generic {indexing_maps = [affine_map<(d0, d1, d2) -> (d2)>, affine_map<(d0, d1, d2) -> (d0, d1, d2)>], iterator_types = ["parallel", "parallel", "parallel"]} ins(%309 : tensor<14xf32>) outs(%15 : tensor<16x11x14xf32>) {
      ^bb0(%in_39: f32, %out_40: f32):
        %317 = arith.remui %true_1, %true_1 : i1
        %alloc_41 = memref.alloc() : memref<16x11x14xf32>
        %318 = arith.mulf %out_40, %out : f32
        %319 = memref.realloc %alloc_19 : memref<14xi1> to memref<13xi1>
        affine.store %true_1, %alloc_11[%c5, %c15] : memref<16x11xi1>
        %320 = arith.addi %c928860611_i32, %c928860611_i32 : i32
        %321 = arith.divsi %c1508905138_i64, %c1508905138_i64 : i64
        %322 = arith.divf %in_39, %294 : f32
        %323 = index.ceildivs %c0, %c9
        %false_42 = arith.constant false
        %324 = vector.transfer_read %9[%c12, %303], %false_42 : tensor<16x11xi1>, vector<i1>
        %325 = vector.broadcast %in_39 : f32 to vector<11xf32>
        %326 = vector.maskedload %alloc_17[%c8, %c6, %c4], %284, %325 : memref<16x11x14xf32>, vector<11xi1>, vector<11xf32> into vector<11xf32>
        %327 = vector.broadcast %false_42 : i1 to vector<8xi1>
        %328 = vector.contract {indexing_maps = [affine_map<(d0, d1) -> (d0, d1)>, affine_map<(d0, d1) -> (d1)>, affine_map<(d0, d1) -> (d0)>], iterator_types = ["parallel", "reduction"], kind = #vector.kind<minui>} %94, %305, %327 : vector<8x11xi1>, vector<11xi1> into vector<8xi1>
        %329 = math.rsqrt %cst_2 : f16
        %330 = arith.shli %c18917_i16, %c18917_i16 : i16
        %cst_43 = arith.constant 0x4DFDE356 : f32
        %331 = memref.load %alloc_17[%c15, %c6, %c5] : memref<16x11x14xf32>
        %332 = vector.extract_strided_slice %39 {offsets = [9], sizes = [7], strides = [1]} : vector<16x14xf32> to vector<7x14xf32>
        %333 = memref.realloc %32 : memref<14xi1> to memref<13xi1>
        %334 = memref.load %alloc_20[%c2] : memref<14xi1>
        %335 = vector.broadcast %false_42 : i1 to vector<8xi1>
        %336 = vector.multi_reduction <and>, %94, %335 [1] : vector<8x11xi1> to vector<8xi1>
        %337 = arith.addf %in_37, %in_39 : f32
        %338 = math.sqrt %7 : tensor<16x11xf16>
        %339 = arith.remsi %c18917_i16, %c18917_i16 : i16
        %340 = math.exp %2 : tensor<16x11xf32>
        %341 = vector.create_mask %293, %c13, %c10 : vector<16x11x14xi1>
        %342 = vector.splat %true : vector<16x11xi1>
        %inserted_44 = tensor.insert %c1313612593_i64 into %13[%c10, %c2] : tensor<16x11xi64>
        bufferization.dealloc_tensor %2 : tensor<16x11xf32>
        %343 = arith.cmpf ogt, %cst, %cst : f16
        %344 = math.tan %in : f32
        %345 = index.sizeof
        affine.store %in_37, %alloc[%c14, %c9] : memref<16x14xf32>
        linalg.yield %cst_0 : f32
      } -> tensor<16x11x14xf32>
      %alloc_38 = memref.alloc() : memref<i1>
      memref.tensor_store %20, %alloc_38 : memref<i1>
      %311 = math.fpowi %out, %c928860611_i32 : f32, i32
      %312 = affine.if affine_set<(d0) : (d0 == 0)>(%c10) -> f32 {
        %317 = arith.minui %c-23065_i16, %c18917_i16 : i16
        %318 = vector.broadcast %out : f32 to vector<16x11xf32>
        %319 = vector.fma %318, %318, %318 : vector<16x11xf32>
        %320 = vector.extract_strided_slice %104 {offsets = [3], sizes = [8], strides = [1]} : vector<13xf16> to vector<8xf16>
        %expanded_39 = tensor.expand_shape %123 [[0], [1, 2]] : tensor<14x14xi1> into tensor<14x14x1xi1>
        %321 = index.add %c6, %62
        %322 = math.ctpop %1 : tensor<16x11xi1>
        %323 = math.exp2 %cst_2 : f16
        %324 = arith.floordivsi %c-23065_i16, %78 : i16
        affine.yield %294 : f32
      } else {
        %317 = math.exp %17 : tensor<16x14xf16>
        memref.tensor_store %27, %alloc_13 : memref<14x14xi1>
        %318 = vector.shuffle %39, %39 [1, 3, 4, 6, 7, 9, 10, 13, 15, 19, 23, 24, 26, 27, 28, 31] : vector<16x14xf32>, vector<16x14xf32>
        %319 = bufferization.clone %alloc_8 : memref<14x14xi1> to memref<14x14xi1>
        %320 = index.divs %c1, %c12
        %321 = math.copysign %14, %14 : tensor<14x14xf16>
        %322 = arith.minf %cst_2, %cst : f16
        %323 = bufferization.to_memref %8 : memref<16x14xi1>
        affine.yield %in_37 : f32
      }
      %313 = math.cos %105 : tensor<16x14xf16>
      %314 = arith.minui %307, %true : i1
      %315 = scf.while (%arg3 = %alloc_14) : (memref<16x11xi16>) -> memref<16x11xi16> {
        memref.tensor_store %105, %alloc_9 : memref<16x14xf16>
        %317 = vector.insertelement %294, %70[%287 : index] : vector<6xf32>
        %318 = vector.matrix_multiply %104, %99 {lhs_columns = 13 : i32, lhs_rows = 1 : i32, rhs_columns = 1 : i32} : (vector<13xf16>, vector<13xf16>) -> vector<1xf16>
        memref.assume_alignment %alloc_19, 2 : memref<14xi1>
        memref.copy %alloc_4, %alloc_9 : memref<16x14xf16> to memref<16x14xf16>
        %319 = vector.contract {indexing_maps = [affine_map<(d0) -> (d0)>, affine_map<(d0) -> (d0)>, affine_map<(d0) -> ()>], iterator_types = ["reduction"], kind = #vector.kind<add>} %283, %283, %c1581681977_i32 : vector<11xi32>, vector<11xi32> into i32
        %320 = tensor.empty() : tensor<16x14xi1>
        %321 = linalg.matmul ins(%0, %27 : tensor<16x14xi1>, tensor<14x14xi1>) outs(%320 : tensor<16x14xi1>) -> tensor<16x14xi1>
        %cst_39 = arith.constant 1.000000e+00 : f32
        %322 = vector.transfer_read %alloc_6[%299, %c5], %cst_39 : memref<16x11xf32>, vector<14xf32>
        scf.condition(%false) %arg3 : memref<16x11xi16>
      } do {
      ^bb0(%arg3: memref<16x11xi16>):
        %317 = arith.remf %in_36, %out : f32
        %318 = vector.broadcast %c1313612593_i64 : i64 to vector<14x14xi64>
        %319 = vector.broadcast %true_1 : i1 to vector<14x14xi1>
        %320 = vector.broadcast %c644607405_i32 : i32 to vector<14x14xi32>
        %321 = vector.gather %3[%56, %59] [%320], %319, %318 : tensor<16x14xi64>, vector<14x14xi32>, vector<14x14xi1>, vector<14x14xi64> into vector<14x14xi64>
        %322 = arith.divf %in_36, %294 : f32
        %323 = vector.broadcast %c12 : index to vector<16xindex>
        %324 = vector.broadcast %false : i1 to vector<16xi1>
        vector.scatter %290[%c13, %c6] [%323], %324, %324 : memref<16x14xi1>, vector<16xindex>, vector<16xi1>, vector<16xi1>
        %325 = arith.divsi %true, %false : i1
        %326 = arith.remf %in, %cst_0 : f32
        %327 = vector.contract {indexing_maps = [affine_map<(d0) -> (d0)>, affine_map<(d0) -> (d0)>, affine_map<(d0) -> ()>], iterator_types = ["reduction"], kind = #vector.kind<and>} %285, %285, %c644607405_i32 : vector<11xi32>, vector<11xi32> into i32
        %true_39 = index.bool.constant true
        %328 = arith.ceildivsi %c928860611_i32, %c644607405_i32 : i32
        %329 = arith.minui %307, %true_1 : i1
        %cast_40 = tensor.cast %8 : tensor<16x14xi1> to tensor<?x?xi1>
        %330 = math.tan %14 : tensor<14x14xf16>
        %331 = affine.load %alloc_4[%c10, %c3] : memref<16x14xf16>
        memref.store %cst_2, %alloc_9[%c13, %c3] : memref<16x14xf16>
        %332 = arith.cmpi uge, %false, %false : i1
        %333 = math.sqrt %in_36 : f32
        scf.yield %alloc_14 : memref<16x11xi16>
      }
      %316 = arith.mulf %in_36, %cst_0 : f32
      linalg.yield %out : f32
    } -> tensor<16x11x14xf32>
    %127 = index.divs %c4, %c5
    %128 = memref.load %alloc_19[%c2] : memref<14xi1>
    %129 = arith.remui %c614314845_i64, %c1313612593_i64 : i64
    %130 = vector.splat %62 : vector<16x14xindex>
    %131 = vector.contract {indexing_maps = [affine_map<(d0) -> (d0)>, affine_map<(d0) -> (d0)>, affine_map<(d0) -> ()>], iterator_types = ["reduction"], kind = #vector.kind<add>} %99, %19, %cst : vector<13xf16>, vector<13xf16> into f16
    %132 = math.ipowi %13, %13 : tensor<16x11xi64>
    %133 = index.ceildivu %82, %c12
    %134 = index.floordivs %c1, %c2
    %135 = math.powf %cst, %cst_2 : f16
    %136 = vector.extract_strided_slice %94 {offsets = [3], sizes = [5], strides = [1]} : vector<8x11xi1> to vector<5x11xi1>
    %137 = vector.extract %99[6] : vector<13xf16>
    %138 = math.round %cst_0 : f32
    %139 = vector.extract_strided_slice %76 {offsets = [3], sizes = [3], strides = [1]} : vector<16x11xf16> to vector<3x11xf16>
    %140 = vector.broadcast %cst_2 : f16 to vector<14xf16>
    %141 = vector.broadcast %true_1 : i1 to vector<14xi1>
    %142 = vector.maskedload %alloc_5[%c2, %c5, %c10], %141, %140 : memref<16x11x14xf16>, vector<14xi1>, vector<14xf16> into vector<14xf16>
    %143 = arith.shrsi %c1581681977_i32, %c928860611_i32 : i32
    %collapsed_24 = tensor.collapse_shape %12 [[0, 1]] : tensor<16x14xf32> into tensor<224xf32>
    %144 = memref.load %alloc_16[%c1, %c10] : memref<14x14xf16>
    %145 = bufferization.to_tensor %alloc_16 : memref<14x14xf16>
    %146 = affine.max affine_map<(d0, d1) -> ((d1 floordiv 8) * 2, -d1 + 32, d1 floordiv 8, d0)>(%c12, %115)
    %147 = index.maxs %c8, %112
    %148 = arith.mulf %cst_0, %cst_0 : f32
    %149 = vector.broadcast %cst : f16 to vector<11xf16>
    %dest_25, %accumulated_value_26 = vector.scan <mul>, %139, %149 {inclusive = true, reduction_dim = 0 : i64} : vector<3x11xf16>, vector<11xf16>
    %150 = vector.insertelement %cst, %99[%30 : index] : vector<13xf16>
    %151 = arith.maxui %c614314845_i64, %c1508905138_i64 : i64
    %152 = math.ctpop %c18917_i16 : i16
    %153 = vector.multi_reduction <and>, %26, %26 [] : vector<16x11xi1> to vector<16x11xi1>
    %154 = index.castu %rank_21 : index to i32
    %155 = index.ceildivu %c1, %rank_21
    %156 = vector.insertelement %cst, %104[%147 : index] : vector<13xf16>
    %157 = math.sqrt %105 : tensor<16x14xf16>
    %158 = index.sizeof
    %159 = affine.if affine_set<(d0) : (d0 == 0)>(%c11) -> memref<16x11xi16> {
      %283 = index.sub %c5, %rank_23
      %284 = vector.insertelement %cst_2, %104[%82 : index] : vector<13xf16>
      %285 = vector.broadcast %true_1 : i1 to vector<11xi1>
      %286 = vector.multi_reduction <minsi>, %94, %285 [0] : vector<8x11xi1> to vector<11xi1>
      %287 = vector.multi_reduction <add>, %66, %66 [] : vector<16xf32> to vector<16xf32>
      %288 = bufferization.clone %alloc_16 : memref<14x14xf16> to memref<14x14xf16>
      %289 = math.tan %7 : tensor<16x11xf16>
      %290 = math.ctlz %0 : tensor<16x14xi1>
      %291 = memref.load %288[%c6, %c9] : memref<14x14xf16>
      affine.yield %alloc_14 : memref<16x11xi16>
    } else {
      %283 = index.maxu %rank_23, %133
      %284 = vector.insertelement %cst_2, %99[%c5 : index] : vector<13xf16>
      %285 = vector.broadcast %cst_2 : f16 to vector<16x11x14xf16>
      %286 = vector.broadcast %true : i1 to vector<16x11x14xi1>
      %287 = vector.broadcast %c1581681977_i32 : i32 to vector<16x11x14xi32>
      %288 = vector.gather %alloc_9[%c13, %c1] [%287], %286, %285 : memref<16x14xf16>, vector<16x11x14xi32>, vector<16x11x14xi1>, vector<16x11x14xf16> into vector<16x11x14xf16>
      %289 = arith.maxf %cst, %cst_2 : f16
      %290 = vector.gather %34[%62, %147] [%287], %286, %286 : memref<16x11xi1>, vector<16x11x14xi32>, vector<16x11x14xi1>, vector<16x11x14xi1> into vector<16x11x14xi1>
      %291 = vector.insertelement %cst_2, %99[%283 : index] : vector<13xf16>
      %292 = arith.minui %true_1, %false : i1
      %293 = math.absf %16 : tensor<16x14xf16>
      affine.yield %alloc_14 : memref<16x11xi16>
    }
    %160 = affine.load %69[%c2, %c12] : memref<14x14xi32>
    %161 = vector.insert %cst_0, %66 [13] : f32 into vector<16xf32>
    %162 = bufferization.clone %116 : memref<14x14xi32> to memref<14x14xi32>
    %163 = memref.load %162[%c2, %c8] : memref<14x14xi32>
    %164 = math.roundeven %145 : tensor<14x14xf16>
    %165 = arith.remsi %false, %true_1 : i1
    %166 = arith.ceildivsi %c1199270634_i64, %c1199270634_i64 : i64
    %167 = vector.splat %c1313612593_i64 : vector<16x14xi64>
    %168 = scf.while (%arg3 = %116) : (memref<14x14xi32>) -> memref<14x14xi32> {
      %283 = affine.if affine_set<(d0, d1, d2) : (d0 == 0, (-d0) floordiv 4 == 0, d2 * 2 >= 0, 0 == 0)>(%c13, %c15, %c6) -> memref<16x14xf16> {
        %290 = arith.maxui %c1508905138_i64, %c1199270634_i64 : i64
        %291 = arith.cmpf oge, %cst_0, %cst_0 : f32
        %292 = math.absf %12 : tensor<16x14xf32>
        %293 = math.log1p %cst : f16
        %294 = index.casts %c-23065_i16 : i16 to index
        %295 = arith.addi %c-23065_i16, %c18917_i16 : i16
        bufferization.dealloc_tensor %9 : tensor<16x11xi1>
        %296 = math.ceil %12 : tensor<16x14xf32>
        affine.yield %alloc_4 : memref<16x14xf16>
      } else {
        %290 = arith.addi %78, %c-23065_i16 : i16
        %alloc_36 = memref.alloc() : memref<16x11x14xi64>
        %291 = vector.broadcast %c1508905138_i64 : i64 to vector<16x11x14xi64>
        %292 = vector.broadcast %true : i1 to vector<16x11x14xi1>
        %293 = vector.broadcast %c928860611_i32 : i32 to vector<16x11x14xi32>
        %294 = vector.gather %alloc_36[%c11, %c6, %127] [%293], %292, %291 : memref<16x11x14xi64>, vector<16x11x14xi32>, vector<16x11x14xi1>, vector<16x11x14xi64> into vector<16x11x14xi64>
        %295 = arith.minf %cst, %cst : f16
        %296 = math.fpowi %7, %11 : tensor<16x11xf16>, tensor<16x11xi32>
        %297 = math.round %cst_0 : f32
        %298 = math.atan %cst_0 : f32
        %299 = arith.remui %c1581681977_i32, %c766674261_i32 : i32
        %300 = vector.transpose %26, [1, 0] : vector<16x11xi1> to vector<11x16xi1>
        affine.yield %alloc_4 : memref<16x14xf16>
      }
      scf.execute_region {
        %290 = index.ceildivu %127, %rank_21
        %291 = vector.broadcast %cst_0 : f32 to vector<13xf32>
        %292 = vector.broadcast %true_1 : i1 to vector<13xi1>
        %293 = vector.maskedload %33[%c3, %c4], %292, %291 : memref<16x14xf32>, vector<13xi1>, vector<13xf32> into vector<13xf32>
        memref.assume_alignment %alloc_4, 4 : memref<16x14xf16>
        %294 = arith.ceildivsi %c-23065_i16, %c-23065_i16 : i16
        %295 = vector.bitcast %66 : vector<16xf32> to vector<16xf32>
        %296 = vector.insertelement %cst_0, %66[%146 : index] : vector<16xf32>
        %297 = vector.broadcast %cst : f16 to vector<16x11x14xf16>
        %298 = vector.broadcast %true_1 : i1 to vector<16x11x14xi1>
        %299 = vector.broadcast %c928860611_i32 : i32 to vector<16x11x14xi32>
        %300 = vector.gather %alloc_5[%110, %c5, %c15] [%299], %298, %297 : memref<16x11x14xf16>, vector<16x11x14xi32>, vector<16x11x14xi1>, vector<16x11x14xf16> into vector<16x11x14xf16>
        %301 = math.ctpop %27 : tensor<14x14xi1>
        %302 = arith.remui %c1581681977_i32, %160 : i32
        %303 = math.cttz %9 : tensor<16x11xi1>
        %304 = vector.broadcast %c10 : index to vector<16xindex>
        %305 = vector.broadcast %true : i1 to vector<16xi1>
        %306 = vector.broadcast %c1581681977_i32 : i32 to vector<16xi32>
        vector.scatter %116[%c9, %c10] [%304], %305, %306 : memref<14x14xi32>, vector<16xindex>, vector<16xi1>, vector<16xi32>
        %307 = math.expm1 %cst_2 : f16
        %308 = arith.minf %cst_0, %cst_0 : f32
        %expanded_36 = tensor.expand_shape %7 [[0], [1, 2]] : tensor<16x11xf16> into tensor<16x11x1xf16>
        %309 = arith.floordivsi %c928860611_i32, %c928860611_i32 : i32
        %310 = math.rsqrt %12 : tensor<16x14xf32>
        scf.yield
      }
      %284 = index.ceildivu %c5, %c13
      %285 = arith.ceildivsi %c1199270634_i64, %c614314845_i64 : i64
      %286 = bufferization.clone %122 : memref<16x14xf32> to memref<16x14xf32>
      %287 = math.round %14 : tensor<14x14xf16>
      %288 = vector.reduction <add>, %70 : vector<6xf32> into f32
      %289 = arith.ceildivsi %c766674261_i32, %c1581681977_i32 : i32
      scf.condition(%true) %116 : memref<14x14xi32>
    } do {
    ^bb0(%arg3: memref<14x14xi32>):
      %283 = math.ctpop %24 : tensor<16x11x14xi32>
      %284 = bufferization.to_memref %collapsed : memref<196xi1>
      %285 = bufferization.to_memref %7 : memref<16x11xf16>
      %286 = tensor.empty() : tensor<14x14xf16>
      %287 = linalg.matmul ins(%145, %145 : tensor<14x14xf16>, tensor<14x14xf16>) outs(%286 : tensor<14x14xf16>) -> tensor<14x14xf16>
      %288 = math.exp2 %15 : tensor<16x11x14xf32>
      bufferization.dealloc_tensor %15 : tensor<16x11x14xf32>
      %289 = math.ceil %12 : tensor<16x14xf32>
      %290 = math.expm1 %12 : tensor<16x14xf32>
      affine.store %cst_2, %alloc_5[%c9, %c1, %c15] : memref<16x11x14xf16>
      %291 = index.ceildivs %c11, %68
      memref.store %true, %alloc_8[%c12, %c2] : memref<14x14xi1>
      %292 = index.maxu %c8, %146
      %293 = math.sqrt %cst_0 : f32
      %expanded_36 = tensor.expand_shape %9 [[0], [1, 2]] : tensor<16x11xi1> into tensor<16x11x1xi1>
      %294 = vector.broadcast %c6 : index to vector<14xindex>
      vector.scatter %alloc_5[%c15, %c1, %c8] [%294], %141, %142 : memref<16x11x14xf16>, vector<14xindex>, vector<14xi1>, vector<14xf16>
      %295 = math.copysign %7, %7 : tensor<16x11xf16>
      scf.yield %arg3 : memref<14x14xi32>
    }
    %169 = vector.broadcast %cst : f16 to vector<f16>
    %170 = vector.transfer_write %169, %5[%146, %c3] : vector<f16>, tensor<16x14xf16>
    %171 = memref.load %alloc_17[%c5, %c2, %c6] : memref<16x11x14xf32>
    %172 = vector.bitcast %38 : vector<16x14xf32> to vector<16x14xi32>
    %173 = math.fpowi %2, %11 : tensor<16x11xf32>, tensor<16x11xi32>
    %174 = math.log10 %collapsed_24 : tensor<224xf32>
    %175 = memref.realloc %32 : memref<14xi1> to memref<14xi1>
    %176 = math.round %2 : tensor<16x11xf32>
    %true_27 = index.bool.constant true
    %alloc_28 = memref.alloc() : memref<16x11x14xi16>
    %177 = arith.shrsi %78, %c-23065_i16 : i16
    %178 = vector.broadcast %cst_2 : f16 to vector<13x13xf16>
    %179 = vector.outerproduct %104, %99, %178 {kind = #vector.kind<mul>} : vector<13xf16>, vector<13xf16>
    %180 = math.sqrt %16 : tensor<16x14xf16>
    %181 = vector.broadcast %false : i1 to vector<16xi1>
    %182 = vector.maskedload %102[%c6, %c10], %181, %181 : memref<14x14xi1>, vector<16xi1>, vector<16xi1> into vector<16xi1>
    bufferization.dealloc_tensor %0 : tensor<16x14xi1>
    %183 = arith.remf %cst_2, %cst : f16
    %184 = index.ceildivs %59, %68
    %185 = bufferization.clone %33 : memref<16x14xf32> to memref<16x14xf32>
    %186 = vector.broadcast %c1581681977_i32 : i32 to vector<16x11xi32>
    vector.print %142 : vector<14xf16>
    %187 = vector.extract_strided_slice %181 {offsets = [3], sizes = [13], strides = [1]} : vector<16xi1> to vector<13xi1>
    %188 = bufferization.to_tensor %alloc_13 : memref<14x14xi1>
    %189 = arith.shrui %78, %c18917_i16 : i16
    %190 = affine.apply affine_map<(d0, d1) -> (-(d1 floordiv 8) + 2)>(%c11, %c8)
    %191 = math.expm1 %14 : tensor<14x14xf16>
    %192 = arith.ceildivsi %78, %c-23065_i16 : i16
    %193 = tensor.empty() : tensor<14x16xf32>
    %194 = tensor.empty() : tensor<11x14xf32>
    %195 = linalg.generic {indexing_maps = [affine_map<(d0, d1, d2) -> (d0, d1, d2)>, affine_map<(d0, d1, d2) -> (d2, d0)>, affine_map<(d0, d1, d2) -> (d1, d2)>, affine_map<(d0, d1, d2) -> (d0, d1, d2)>], iterator_types = ["parallel", "parallel", "parallel"]} ins(%alloc_17, %193, %194 : memref<16x11x14xf32>, tensor<14x16xf32>, tensor<11x14xf32>) outs(%15 : tensor<16x11x14xf32>) {
    ^bb0(%in: f32, %in_36: f32, %in_37: f32, %out: f32):
      %283 = scf.index_switch %62 -> index 
      case 1 {
        %311 = vector.reduction <add>, %140 : vector<14xf16> into f16
        %312 = arith.addf %in_37, %in : f32
        memref.tensor_store %5, %alloc_9 : memref<16x14xf16>
        %313 = arith.addi %78, %78 : i16
        %314 = math.absf %5 : tensor<16x14xf16>
        %315 = bufferization.to_memref %16 : memref<16x14xf16>
        %316 = affine.load %alloc[%c10, %c11] : memref<16x14xf32>
        %317 = math.absf %105 : tensor<16x14xf16>
        %318 = math.powf %cst_0, %in_36 : f32
        %319 = affine.load %34[%c14, %c11] : memref<16x11xi1>
        %320 = vector.broadcast %c766674261_i32 : i32 to vector<11xi32>
        %321 = vector.broadcast %true_27 : i1 to vector<11xi1>
        %322 = vector.maskedload %alloc_12[%c7, %c0], %321, %320 : memref<16x14xi32>, vector<11xi1>, vector<11xi32> into vector<11xi32>
        %323 = arith.addf %cst, %cst : f16
        %324 = memref.realloc %32 : memref<14xi1> to memref<13xi1>
        %325 = arith.shrsi %false, %false : i1
        %326 = vector.multi_reduction <add>, %181, %false [0] : vector<16xi1> to i1
        %327 = vector.multi_reduction <mul>, %70, %in [0] : vector<6xf32> to f32
        scf.yield %c8 : index
      }
      case 2 {
        %311 = arith.cmpf false, %cst_0, %in_36 : f32
        %312 = arith.remf %cst, %cst : f16
        %313 = arith.minui %true_27, %false : i1
        %314 = math.fma %cst_0, %in_36, %out : f32
        %315 = index.ceildivu %c12, %rank_21
        %316 = bufferization.to_tensor %alloc_19 : memref<14xi1>
        %317 = arith.ceildivsi %c1313612593_i64, %c1199270634_i64 : i64
        %318 = vector.broadcast %true : i1 to vector<11xi1>
        %319 = vector.insert %318, %26 [0] : vector<11xi1> into vector<16x11xi1>
        %320 = vector.contract {indexing_maps = [affine_map<(d0) -> (d0)>, affine_map<(d0) -> (d0)>, affine_map<(d0) -> ()>], iterator_types = ["reduction"], kind = #vector.kind<minsi>} %141, %141, %false : vector<14xi1>, vector<14xi1> into i1
        %321 = memref.atomic_rmw addf %in, %185[%c3, %c3] : (f32, memref<16x14xf32>) -> f32
        %322 = vector.broadcast %cst : f16 to vector<13x13xf16>
        %323 = vector.outerproduct %99, %99, %322 {kind = #vector.kind<add>} : vector<13xf16>, vector<13xf16>
        %expanded_43 = tensor.expand_shape %0 [[0], [1, 2]] : tensor<16x14xi1> into tensor<16x14x1xi1>
        %324 = math.copysign %145, %14 : tensor<14x14xf16>
        %325 = index.add %147, %110
        %326 = arith.cmpf uge, %in_36, %in : f32
        %327 = math.copysign %in, %cst_0 : f32
        scf.yield %c3 : index
      }
      default {
        %from_elements_43 = tensor.from_elements %cst_2, %cst, %cst_2, %cst_2, %cst, %cst, %cst, %cst_2, %cst, %cst, %cst, %cst_2, %cst, %cst, %cst, %cst, %cst_2, %cst_2, %cst_2, %cst_2, %cst, %cst, %cst_2, %cst, %cst, %cst_2, %cst_2, %cst_2, %cst, %cst_2, %cst, %cst, %cst_2, %cst_2, %cst_2, %cst_2, %cst, %cst, %cst, %cst, %cst_2, %cst_2, %cst_2, %cst_2, %cst_2, %cst_2, %cst_2, %cst_2, %cst_2, %cst, %cst_2, %cst, %cst_2, %cst_2, %cst, %cst, %cst_2, %cst_2, %cst, %cst_2, %cst, %cst_2, %cst_2, %cst_2, %cst, %cst_2, %cst, %cst, %cst_2, %cst_2, %cst_2, %cst_2, %cst_2, %cst, %cst, %cst_2, %cst_2, %cst_2, %cst, %cst_2, %cst_2, %cst, %cst_2, %cst, %cst, %cst_2, %cst_2, %cst, %cst_2, %cst_2, %cst_2, %cst, %cst, %cst_2, %cst, %cst_2, %cst, %cst, %cst, %cst_2, %cst_2, %cst_2, %cst_2, %cst, %cst, %cst_2, %cst, %cst, %cst_2, %cst_2, %cst_2, %cst, %cst, %cst, %cst, %cst, %cst, %cst, %cst_2, %cst, %cst, %cst, %cst_2, %cst, %cst, %cst, %cst, %cst_2, %cst, %cst, %cst_2, %cst, %cst_2, %cst, %cst, %cst_2, %cst, %cst, %cst_2, %cst, %cst_2, %cst_2, %cst_2, %cst_2, %cst_2, %cst, %cst_2, %cst_2, %cst, %cst, %cst_2, %cst_2, %cst, %cst_2, %cst_2, %cst_2, %cst_2, %cst, %cst, %cst, %cst_2, %cst, %cst, %cst, %cst_2, %cst, %cst_2, %cst, %cst_2, %cst, %cst, %cst, %cst_2, %cst, %cst, %cst_2, %cst, %cst_2, %cst, %cst, %cst_2, %cst, %cst, %cst_2, %cst_2, %cst_2, %cst_2, %cst_2, %cst_2, %cst, %cst_2, %cst, %cst, %cst_2, %cst, %cst, %cst_2, %cst_2, %cst_2, %cst, %cst_2, %cst, %cst, %cst_2, %cst, %cst_2, %cst, %cst, %cst, %cst, %cst, %cst_2, %cst, %cst, %cst, %cst, %cst_2, %cst, %cst, %cst, %cst, %cst, %cst_2, %cst, %cst, %cst, %cst, %cst_2, %cst, %cst_2, %cst_2, %cst_2, %cst_2, %cst_2, %cst_2, %cst, %cst_2, %cst, %cst, %cst_2, %cst_2, %cst_2, %cst_2, %cst_2, %cst_2, %cst_2, %cst_2, %cst, %cst_2, %cst_2, %cst_2, %cst, %cst_2, %cst_2, %cst, %cst_2, %cst, %cst_2, %cst_2, %cst_2, %cst, %cst_2, %cst, %cst_2, %cst_2, %cst, %cst, %cst_2, %cst, %cst, %cst_2, %cst_2, %cst_2, %cst, %cst_2, %cst_2, %cst, %cst, %cst_2, %cst_2, %cst, %cst_2, %cst, %cst, %cst, %cst_2, %cst, %cst, %cst_2, %cst, %cst_2, %cst, %cst, %cst, %cst, %cst, %cst_2, %cst, %cst_2, %cst_2, %cst_2, %cst_2, %cst_2, %cst_2, %cst, %cst_2, %cst, %cst_2, %cst_2, %cst, %cst_2, %cst_2, %cst_2, %cst_2, %cst, %cst, %cst_2, %cst_2, %cst, %cst_2, %cst_2, %cst, %cst_2, %cst, %cst_2, %cst, %cst_2, %cst, %cst, %cst_2, %cst_2, %cst, %cst, %cst, %cst_2, %cst, %cst, %cst_2, %cst, %cst, %cst_2, %cst_2, %cst_2, %cst_2, %cst, %cst_2, %cst, %cst, %cst, %cst, %cst, %cst_2, %cst, %cst_2, %cst_2, %cst_2, %cst_2, %cst, %cst_2, %cst_2, %cst_2, %cst_2, %cst, %cst, %cst, %cst, %cst, %cst, %cst, %cst_2, %cst_2, %cst_2, %cst_2, %cst, %cst, %cst, %cst, %cst, %cst_2, %cst, %cst_2, %cst_2, %cst, %cst_2, %cst, %cst, %cst_2, %cst, %cst_2, %cst, %cst, %cst, %cst, %cst, %cst, %cst, %cst_2, %cst_2, %cst, %cst, %cst_2, %cst, %cst_2, %cst_2, %cst, %cst, %cst, %cst_2, %cst, %cst_2, %cst, %cst_2, %cst, %cst_2, %cst_2, %cst, %cst_2, %cst_2, %cst, %cst, %cst, %cst, %cst_2, %cst, %cst_2, %cst_2, %cst, %cst_2, %cst, %cst, %cst, %cst, %cst_2, %cst_2, %cst_2, %cst_2, %cst_2, %cst_2, %cst_2, %cst, %cst, %cst, %cst_2, %cst, %cst, %cst, %cst_2, %cst_2, %cst_2, %cst, %cst_2, %cst, %cst_2, %cst_2, %cst_2, %cst_2, %cst, %cst, %cst_2, %cst, %cst_2, %cst, %cst_2, %cst_2, %cst_2, %cst_2, %cst, %cst_2, %cst, %cst_2, %cst, %cst_2, %cst, %cst_2, %cst_2, %cst, %cst, %cst_2, %cst, %cst_2, %cst_2, %cst, %cst_2, %cst_2, %cst, %cst, %cst_2, %cst_2, %cst, %cst, %cst, %cst_2, %cst_2, %cst_2, %cst, %cst, %cst_2, %cst_2, %cst, %cst_2, %cst_2, %cst, %cst, %cst_2, %cst, %cst_2, %cst_2, %cst, %cst_2, %cst_2, %cst_2, %cst_2, %cst_2, %cst_2, %cst, %cst_2, %cst_2, %cst_2, %cst_2, %cst_2, %cst_2, %cst_2, %cst, %cst, %cst, %cst_2, %cst, %cst_2, %cst, %cst_2, %cst_2, %cst, %cst, %cst_2, %cst, %cst_2, %cst, %cst, %cst, %cst, %cst_2, %cst_2, %cst_2, %cst_2, %cst, %cst, %cst, %cst, %cst_2, %cst_2, %cst, %cst_2, %cst_2, %cst, %cst, %cst_2, %cst, %cst_2, %cst, %cst_2, %cst, %cst, %cst_2, %cst_2, %cst_2, %cst, %cst_2, %cst, %cst, %cst, %cst_2, %cst, %cst_2, %cst, %cst_2, %cst, %cst, %cst_2, %cst_2, %cst, %cst_2, %cst, %cst_2, %cst_2, %cst_2, %cst, %cst_2, %cst_2, %cst_2, %cst, %cst_2, %cst_2, %cst, %cst_2, %cst_2, %cst, %cst_2, %cst_2, %cst_2, %cst_2, %cst, %cst, %cst_2, %cst_2, %cst, %cst, %cst_2, %cst_2, %cst, %cst, %cst_2, %cst, %cst_2, %cst, %cst, %cst, %cst_2, %cst_2, %cst_2, %cst_2, %cst, %cst_2, %cst_2, %cst, %cst, %cst, %cst, %cst_2, %cst_2, %cst_2, %cst, %cst, %cst_2, %cst, %cst, %cst, %cst, %cst_2, %cst_2, %cst, %cst_2, %cst, %cst, %cst_2, %cst, %cst, %cst, %cst, %cst, %cst, %cst_2, %cst_2, %cst_2, %cst_2, %cst_2, %cst_2, %cst, %cst, %cst, %cst_2, %cst_2, %cst, %cst, %cst_2, %cst, %cst_2, %cst_2, %cst_2, %cst_2, %cst, %cst_2, %cst_2, %cst, %cst, %cst, %cst, %cst, %cst_2, %cst_2, %cst_2, %cst_2, %cst_2, %cst, %cst, %cst, %cst, %cst_2, %cst_2, %cst, %cst_2, %cst, %cst_2, %cst_2, %cst, %cst, %cst, %cst_2, %cst_2, %cst_2, %cst_2, %cst_2, %cst, %cst, %cst_2, %cst, %cst, %cst_2, %cst, %cst, %cst_2, %cst, %cst, %cst, %cst_2, %cst_2, %cst, %cst, %cst_2, %cst_2, %cst_2, %cst_2, %cst_2, %cst, %cst, %cst_2, %cst_2, %cst_2, %cst_2, %cst, %cst_2, %cst_2, %cst, %cst, %cst_2, %cst_2, %cst, %cst, %cst_2, %cst, %cst_2, %cst_2, %cst_2, %cst, %cst_2, %cst_2, %cst, %cst, %cst, %cst, %cst, %cst, %cst, %cst, %cst_2, %cst_2, %cst, %cst, %cst, %cst, %cst_2, %cst, %cst, %cst, %cst, %cst, %cst, %cst_2, %cst, %cst_2, %cst_2, %cst_2, %cst, %cst, %cst_2, %cst, %cst, %cst, %cst, %cst, %cst, %cst_2, %cst, %cst, %cst_2, %cst, %cst, %cst, %cst, %cst_2, %cst_2, %cst_2, %cst_2, %cst_2, %cst_2, %cst, %cst, %cst, %cst_2, %cst_2, %cst_2, %cst, %cst, %cst, %cst_2, %cst_2, %cst_2, %cst_2, %cst, %cst, %cst, %cst_2, %cst_2, %cst, %cst_2, %cst, %cst, %cst_2, %cst, %cst, %cst, %cst, %cst_2, %cst, %cst, %cst_2, %cst_2, %cst, %cst, %cst_2, %cst, %cst_2, %cst_2, %cst, %cst_2, %cst, %cst_2, %cst, %cst, %cst, %cst, %cst, %cst, %cst, %cst, %cst, %cst, %cst_2, %cst, %cst, %cst, %cst, %cst_2, %cst_2, %cst, %cst_2, %cst_2, %cst_2, %cst_2, %cst_2, %cst, %cst, %cst_2, %cst_2, %cst, %cst_2, %cst_2, %cst, %cst, %cst_2, %cst_2, %cst, %cst_2, %cst_2, %cst, %cst, %cst, %cst, %cst, %cst, %cst, %cst_2, %cst_2, %cst, %cst_2, %cst, %cst, %cst, %cst, %cst, %cst_2, %cst, %cst, %cst, %cst_2, %cst_2, %cst, %cst_2, %cst, %cst_2, %cst, %cst_2, %cst_2, %cst, %cst, %cst, %cst, %cst_2, %cst_2, %cst_2, %cst, %cst, %cst_2, %cst, %cst, %cst, %cst, %cst_2, %cst, %cst, %cst_2, %cst, %cst_2, %cst, %cst, %cst, %cst, %cst, %cst, %cst_2, %cst, %cst_2, %cst_2, %cst, %cst, %cst, %cst_2, %cst_2, %cst_2, %cst_2, %cst_2, %cst_2, %cst, %cst_2, %cst_2, %cst, %cst_2, %cst, %cst_2, %cst, %cst_2, %cst_2, %cst_2, %cst, %cst, %cst_2, %cst_2, %cst_2, %cst_2, %cst_2, %cst_2, %cst, %cst, %cst_2, %cst, %cst, %cst, %cst_2, %cst_2, %cst_2, %cst, %cst_2, %cst, %cst_2, %cst, %cst_2, %cst, %cst, %cst_2, %cst_2, %cst_2, %cst_2, %cst, %cst_2, %cst_2, %cst, %cst, %cst, %cst_2, %cst_2, %cst, %cst, %cst, %cst_2, %cst, %cst, %cst, %cst, %cst, %cst_2, %cst, %cst, %cst_2, %cst_2, %cst, %cst_2, %cst, %cst_2, %cst_2, %cst, %cst, %cst, %cst, %cst_2, %cst_2, %cst, %cst_2, %cst, %cst_2, %cst_2, %cst_2, %cst, %cst_2, %cst_2, %cst_2, %cst, %cst, %cst_2, %cst, %cst_2, %cst_2, %cst, %cst_2, %cst_2, %cst_2, %cst_2, %cst_2, %cst_2, %cst_2, %cst_2, %cst, %cst, %cst_2, %cst_2, %cst, %cst, %cst_2, %cst, %cst_2, %cst, %cst_2, %cst, %cst, %cst_2, %cst, %cst, %cst, %cst_2, %cst, %cst, %cst_2, %cst_2, %cst_2, %cst, %cst, %cst_2, %cst_2, %cst, %cst_2, %cst_2, %cst, %cst_2, %cst_2, %cst, %cst, %cst_2, %cst_2, %cst, %cst, %cst, %cst, %cst_2, %cst_2, %cst_2, %cst_2, %cst_2, %cst_2, %cst_2, %cst_2, %cst, %cst, %cst_2, %cst, %cst_2, %cst, %cst, %cst_2, %cst, %cst, %cst, %cst_2, %cst, %cst_2, %cst, %cst_2, %cst, %cst, %cst, %cst_2, %cst_2, %cst_2, %cst_2, %cst, %cst, %cst, %cst, %cst_2, %cst_2, %cst_2, %cst_2, %cst, %cst, %cst_2, %cst_2, %cst, %cst_2, %cst, %cst_2, %cst, %cst_2, %cst_2, %cst, %cst_2, %cst, %cst, %cst, %cst, %cst_2, %cst_2, %cst, %cst, %cst, %cst, %cst_2, %cst, %cst, %cst, %cst_2, %cst, %cst_2, %cst_2, %cst_2, %cst, %cst_2, %cst, %cst, %cst, %cst_2, %cst_2, %cst, %cst, %cst, %cst, %cst, %cst_2, %cst_2, %cst, %cst, %cst, %cst, %cst, %cst_2, %cst_2, %cst_2, %cst, %cst, %cst_2, %cst_2, %cst, %cst_2, %cst, %cst_2, %cst_2, %cst, %cst, %cst, %cst_2, %cst_2, %cst_2, %cst, %cst, %cst_2, %cst_2, %cst_2, %cst_2, %cst, %cst_2, %cst_2, %cst_2, %cst_2, %cst, %cst, %cst, %cst_2, %cst_2, %cst, %cst, %cst_2, %cst_2, %cst, %cst_2, %cst_2, %cst_2, %cst, %cst_2, %cst, %cst_2, %cst, %cst_2, %cst_2, %cst_2, %cst, %cst_2, %cst, %cst_2, %cst, %cst, %cst, %cst_2, %cst, %cst, %cst, %cst, %cst, %cst, %cst_2, %cst_2, %cst, %cst, %cst_2, %cst, %cst, %cst_2, %cst, %cst_2, %cst_2, %cst, %cst, %cst_2, %cst_2, %cst, %cst_2, %cst, %cst, %cst, %cst, %cst, %cst_2, %cst, %cst, %cst_2, %cst_2, %cst_2, %cst_2, %cst, %cst, %cst, %cst, %cst, %cst_2, %cst_2, %cst_2, %cst, %cst_2, %cst_2, %cst, %cst_2, %cst_2, %cst, %cst_2, %cst, %cst, %cst, %cst_2, %cst_2, %cst_2, %cst_2, %cst, %cst, %cst, %cst_2, %cst_2, %cst_2, %cst_2, %cst, %cst_2, %cst_2, %cst, %cst_2, %cst_2, %cst_2, %cst_2, %cst, %cst_2, %cst_2, %cst_2, %cst, %cst_2, %cst, %cst_2, %cst, %cst, %cst_2, %cst, %cst, %cst_2, %cst, %cst_2, %cst, %cst_2, %cst_2, %cst, %cst_2, %cst_2, %cst, %cst, %cst_2, %cst, %cst, %cst_2, %cst_2, %cst, %cst_2, %cst, %cst_2, %cst_2, %cst_2, %cst, %cst_2, %cst, %cst, %cst_2, %cst, %cst_2, %cst, %cst, %cst, %cst_2, %cst, %cst_2, %cst_2, %cst_2, %cst_2, %cst_2, %cst_2, %cst_2, %cst, %cst, %cst_2, %cst, %cst, %cst_2, %cst, %cst, %cst, %cst, %cst_2, %cst, %cst_2, %cst_2, %cst, %cst_2, %cst, %cst_2, %cst, %cst, %cst_2, %cst_2, %cst, %cst_2, %cst, %cst_2, %cst_2, %cst, %cst, %cst, %cst, %cst, %cst, %cst, %cst_2, %cst, %cst, %cst_2, %cst_2, %cst, %cst_2, %cst_2, %cst_2, %cst_2, %cst, %cst, %cst_2, %cst_2, %cst, %cst, %cst, %cst, %cst, %cst, %cst, %cst, %cst_2, %cst, %cst, %cst, %cst, %cst_2, %cst_2, %cst_2, %cst, %cst, %cst, %cst, %cst, %cst_2, %cst, %cst, %cst_2, %cst, %cst_2, %cst, %cst, %cst_2, %cst, %cst, %cst_2, %cst, %cst_2, %cst_2, %cst, %cst, %cst, %cst, %cst, %cst, %cst, %cst, %cst_2, %cst, %cst_2, %cst, %cst_2, %cst, %cst_2, %cst, %cst, %cst, %cst, %cst_2, %cst, %cst_2, %cst_2, %cst, %cst_2, %cst_2, %cst_2, %cst, %cst, %cst_2, %cst, %cst, %cst, %cst_2, %cst, %cst_2, %cst_2, %cst, %cst_2, %cst, %cst_2, %cst_2, %cst_2, %cst_2, %cst, %cst, %cst, %cst_2, %cst_2, %cst, %cst, %cst, %cst, %cst_2, %cst_2, %cst, %cst, %cst_2, %cst_2, %cst, %cst_2, %cst_2, %cst_2, %cst, %cst, %cst_2, %cst, %cst_2, %cst, %cst, %cst_2, %cst, %cst_2, %cst_2, %cst, %cst_2, %cst, %cst_2, %cst, %cst_2, %cst, %cst, %cst, %cst, %cst_2, %cst_2, %cst, %cst_2, %cst, %cst, %cst, %cst, %cst_2, %cst_2, %cst, %cst_2, %cst, %cst, %cst, %cst, %cst_2, %cst_2, %cst, %cst, %cst_2, %cst, %cst, %cst_2, %cst_2, %cst, %cst, %cst, %cst, %cst_2, %cst, %cst_2, %cst_2, %cst_2, %cst_2, %cst_2, %cst, %cst_2, %cst, %cst, %cst, %cst, %cst, %cst, %cst_2, %cst_2, %cst_2, %cst_2, %cst_2, %cst, %cst, %cst, %cst_2, %cst, %cst_2, %cst, %cst_2, %cst_2, %cst, %cst_2, %cst_2, %cst_2, %cst_2, %cst, %cst_2, %cst, %cst, %cst_2, %cst_2, %cst_2, %cst, %cst_2, %cst_2, %cst, %cst_2, %cst, %cst, %cst, %cst, %cst_2, %cst_2, %cst, %cst_2, %cst_2, %cst, %cst, %cst, %cst_2, %cst_2, %cst_2, %cst_2, %cst_2, %cst_2, %cst, %cst, %cst, %cst, %cst_2, %cst_2, %cst_2, %cst_2, %cst, %cst, %cst, %cst_2, %cst_2, %cst_2, %cst_2, %cst, %cst_2, %cst, %cst, %cst_2, %cst_2, %cst, %cst, %cst_2, %cst, %cst_2, %cst, %cst_2, %cst, %cst, %cst_2, %cst, %cst, %cst, %cst, %cst_2, %cst, %cst_2, %cst_2, %cst, %cst_2, %cst, %cst, %cst_2, %cst, %cst, %cst_2, %cst_2, %cst_2, %cst, %cst_2, %cst_2, %cst_2, %cst_2, %cst_2, %cst_2, %cst, %cst, %cst_2, %cst_2, %cst, %cst, %cst_2, %cst, %cst_2, %cst, %cst, %cst_2, %cst_2, %cst_2, %cst_2, %cst_2, %cst_2, %cst, %cst, %cst, %cst, %cst_2, %cst, %cst, %cst, %cst, %cst_2, %cst, %cst, %cst_2, %cst_2, %cst, %cst_2, %cst, %cst, %cst_2, %cst_2, %cst, %cst, %cst_2, %cst_2, %cst_2, %cst, %cst, %cst, %cst, %cst, %cst_2, %cst_2, %cst_2, %cst, %cst_2, %cst_2, %cst, %cst_2, %cst_2, %cst, %cst_2, %cst_2, %cst, %cst_2, %cst, %cst_2, %cst, %cst, %cst_2, %cst, %cst_2, %cst_2, %cst, %cst, %cst, %cst, %cst, %cst_2, %cst, %cst_2, %cst_2, %cst_2, %cst_2, %cst_2, %cst, %cst, %cst, %cst, %cst_2, %cst, %cst, %cst_2, %cst, %cst, %cst_2, %cst_2, %cst_2, %cst_2, %cst, %cst_2, %cst, %cst_2, %cst, %cst_2, %cst_2, %cst_2, %cst_2, %cst_2, %cst_2, %cst, %cst_2, %cst, %cst_2, %cst_2, %cst_2, %cst_2, %cst, %cst, %cst_2, %cst, %cst, %cst_2, %cst_2, %cst_2, %cst_2, %cst, %cst, %cst_2, %cst_2, %cst_2, %cst_2, %cst, %cst, %cst_2, %cst_2, %cst_2, %cst, %cst, %cst, %cst_2, %cst, %cst_2, %cst_2, %cst, %cst_2, %cst, %cst, %cst_2, %cst, %cst, %cst, %cst, %cst, %cst, %cst, %cst, %cst, %cst_2, %cst, %cst_2, %cst_2, %cst_2, %cst, %cst_2, %cst, %cst, %cst_2, %cst_2, %cst, %cst_2, %cst_2, %cst_2, %cst_2, %cst_2, %cst, %cst, %cst, %cst, %cst_2, %cst, %cst_2, %cst, %cst_2, %cst_2, %cst_2, %cst, %cst_2, %cst_2, %cst, %cst, %cst_2, %cst, %cst, %cst, %cst_2, %cst_2, %cst_2, %cst_2, %cst_2, %cst, %cst_2, %cst, %cst_2, %cst_2, %cst, %cst_2, %cst_2, %cst_2, %cst, %cst_2, %cst, %cst, %cst, %cst_2, %cst_2, %cst, %cst_2, %cst_2, %cst_2, %cst_2, %cst_2, %cst_2, %cst_2, %cst, %cst_2, %cst_2, %cst, %cst, %cst, %cst, %cst_2, %cst_2, %cst, %cst, %cst_2, %cst, %cst_2, %cst_2, %cst_2, %cst, %cst_2, %cst, %cst_2, %cst, %cst_2, %cst, %cst_2, %cst_2, %cst_2, %cst, %cst, %cst_2, %cst, %cst, %cst, %cst_2, %cst, %cst_2, %cst, %cst, %cst, %cst, %cst_2, %cst_2, %cst_2, %cst_2, %cst, %cst_2, %cst, %cst_2, %cst_2, %cst_2, %cst_2, %cst, %cst, %cst_2, %cst, %cst_2, %cst_2, %cst_2, %cst, %cst_2, %cst, %cst_2, %cst_2, %cst, %cst, %cst_2, %cst_2, %cst, %cst_2, %cst_2, %cst_2, %cst, %cst_2, %cst, %cst, %cst, %cst, %cst_2, %cst, %cst, %cst, %cst, %cst, %cst_2, %cst, %cst, %cst, %cst_2, %cst, %cst_2, %cst, %cst, %cst, %cst, %cst_2, %cst_2, %cst, %cst, %cst, %cst, %cst, %cst_2, %cst_2, %cst, %cst_2, %cst_2, %cst, %cst, %cst_2, %cst_2, %cst, %cst_2, %cst_2, %cst_2, %cst, %cst_2, %cst_2, %cst_2, %cst, %cst_2, %cst, %cst_2, %cst, %cst_2, %cst_2, %cst, %cst, %cst, %cst, %cst_2, %cst, %cst, %cst_2, %cst, %cst_2, %cst_2, %cst, %cst, %cst_2, %cst_2, %cst_2, %cst_2, %cst_2, %cst, %cst, %cst_2, %cst, %cst, %cst, %cst, %cst_2, %cst_2, %cst_2, %cst_2, %cst, %cst, %cst_2, %cst, %cst_2, %cst, %cst, %cst, %cst, %cst_2, %cst, %cst, %cst_2, %cst_2, %cst, %cst_2, %cst, %cst_2, %cst_2, %cst_2, %cst, %cst_2, %cst_2, %cst, %cst, %cst_2, %cst, %cst, %cst_2, %cst, %cst_2, %cst, %cst, %cst, %cst_2, %cst_2, %cst_2, %cst_2, %cst_2, %cst_2, %cst, %cst, %cst_2, %cst, %cst, %cst, %cst_2, %cst, %cst_2, %cst_2, %cst, %cst_2, %cst, %cst, %cst_2, %cst_2, %cst_2, %cst, %cst, %cst_2, %cst, %cst, %cst_2, %cst, %cst_2, %cst_2, %cst, %cst, %cst_2, %cst_2, %cst, %cst, %cst, %cst_2, %cst, %cst, %cst, %cst_2, %cst_2, %cst, %cst, %cst_2, %cst_2, %cst_2, %cst, %cst_2, %cst_2, %cst_2, %cst, %cst_2, %cst, %cst_2, %cst, %cst, %cst_2, %cst_2, %cst, %cst_2, %cst_2, %cst, %cst_2, %cst_2, %cst_2, %cst_2, %cst, %cst_2, %cst, %cst_2, %cst_2, %cst_2, %cst_2, %cst_2, %cst, %cst_2, %cst, %cst_2, %cst_2, %cst, %cst, %cst, %cst, %cst_2, %cst, %cst, %cst_2, %cst, %cst_2, %cst, %cst, %cst, %cst_2, %cst, %cst, %cst_2, %cst_2, %cst_2, %cst_2, %cst_2, %cst, %cst, %cst, %cst, %cst, %cst, %cst, %cst_2, %cst_2, %cst, %cst_2, %cst, %cst_2, %cst, %cst, %cst_2, %cst_2, %cst, %cst, %cst_2, %cst_2, %cst, %cst, %cst_2, %cst, %cst_2, %cst_2, %cst, %cst_2, %cst, %cst_2, %cst_2, %cst_2, %cst, %cst, %cst_2, %cst, %cst, %cst_2, %cst, %cst, %cst_2, %cst_2, %cst, %cst_2, %cst, %cst, %cst_2, %cst_2, %cst, %cst, %cst, %cst, %cst_2, %cst, %cst_2, %cst_2, %cst, %cst_2, %cst_2, %cst, %cst, %cst_2, %cst_2, %cst, %cst_2, %cst, %cst_2, %cst_2, %cst, %cst, %cst, %cst_2, %cst, %cst, %cst, %cst_2, %cst_2, %cst, %cst, %cst, %cst_2, %cst, %cst, %cst_2, %cst_2, %cst, %cst_2, %cst, %cst, %cst_2, %cst, %cst_2, %cst, %cst, %cst_2, %cst_2, %cst, %cst_2, %cst_2, %cst, %cst_2, %cst, %cst, %cst_2, %cst, %cst, %cst_2, %cst_2, %cst, %cst, %cst_2, %cst_2, %cst_2, %cst_2, %cst, %cst, %cst, %cst_2, %cst, %cst, %cst, %cst, %cst, %cst_2, %cst_2, %cst_2, %cst, %cst_2, %cst_2, %cst_2, %cst, %cst, %cst_2, %cst, %cst_2, %cst_2, %cst, %cst_2, %cst, %cst_2, %cst_2, %cst, %cst, %cst_2, %cst, %cst_2, %cst, %cst, %cst, %cst, %cst, %cst_2, %cst, %cst, %cst, %cst_2, %cst, %cst, %cst_2, %cst, %cst, %cst, %cst_2, %cst, %cst_2, %cst_2, %cst, %cst_2, %cst, %cst_2, %cst, %cst_2, %cst, %cst_2, %cst_2, %cst_2, %cst_2, %cst_2, %cst_2, %cst_2, %cst, %cst, %cst, %cst, %cst, %cst, %cst, %cst, %cst_2, %cst, %cst_2, %cst_2, %cst_2, %cst, %cst, %cst_2, %cst, %cst, %cst_2, %cst_2, %cst, %cst, %cst_2, %cst_2, %cst, %cst, %cst_2, %cst_2, %cst_2, %cst_2, %cst, %cst_2, %cst_2, %cst_2, %cst, %cst, %cst_2, %cst_2, %cst_2, %cst, %cst, %cst, %cst_2, %cst, %cst, %cst, %cst_2, %cst_2, %cst_2, %cst_2, %cst, %cst, %cst_2, %cst, %cst, %cst_2, %cst_2, %cst, %cst, %cst_2, %cst_2, %cst_2, %cst, %cst_2, %cst, %cst_2, %cst_2, %cst_2, %cst, %cst_2, %cst, %cst, %cst, %cst_2, %cst_2, %cst_2, %cst_2, %cst_2, %cst, %cst, %cst, %cst, %cst, %cst_2, %cst_2, %cst, %cst_2, %cst, %cst, %cst_2, %cst, %cst, %cst, %cst, %cst_2, %cst, %cst, %cst, %cst, %cst : tensor<16x11x14xf16>
        %false_44 = arith.constant false
        %311 = index.ceildivu %146, %c0
        %312 = math.rsqrt %in_37 : f32
        %313 = math.tan %2 : tensor<16x11xf32>
        %314 = math.exp %15 : tensor<16x11x14xf32>
        %315 = vector.insertelement %cst_0, %66[%c8 : index] : vector<16xf32>
        %316 = index.ceildivu %190, %190
        %317 = arith.floordivsi %c1199270634_i64, %c1313612593_i64 : i64
        %318 = arith.floordivsi %true_27, %true_1 : i1
        %319 = vector.bitcast %26 : vector<16x11xi1> to vector<16x11xi1>
        %320 = math.tanh %cst : f16
        %321 = vector.flat_transpose %142 {columns = 7 : i32, rows = 2 : i32} : vector<14xf16> -> vector<14xf16>
        %322 = arith.ceildivsi %160, %c1581681977_i32 : i32
        %323 = vector.broadcast %cst : f16 to vector<16x11xf16>
        %324 = vector.multi_reduction <minf>, %140, %cst_2 [0] : vector<14xf16> to f16
        scf.yield %rank : index
      }
      %284 = arith.minui %true_1, %true_27 : i1
      affine.for %arg3 = 0 to 122 {
      }
      %285 = arith.minf %cst_2, %cst : f16
      %286 = math.ctpop %c614314845_i64 : i64
      %inserted_38 = tensor.insert %cst into %7[%c11, %c2] : tensor<16x11xf16>
      %287 = arith.minui %c928860611_i32, %c1581681977_i32 : i32
      %inserted_39 = tensor.insert %cst into %5[%c1, %c7] : tensor<16x14xf16>
      affine.store %true_27, %alloc_11[%c7, %c0] : memref<16x11xi1>
      %288 = memref.atomic_rmw maxf %in, %alloc_17[%c1, %c0, %c9] : (f32, memref<16x11x14xf32>) -> f32
      %289 = math.atan %15 : tensor<16x11x14xf32>
      %290 = vector.broadcast %c644607405_i32 : i32 to vector<11xi32>
      %291 = vector.broadcast %true : i1 to vector<11xi1>
      %292 = vector.maskedload %alloc_10[%c5, %c13], %291, %290 : memref<14x14xi32>, vector<11xi1>, vector<11xi32> into vector<11xi32>
      %293 = vector.broadcast %c766674261_i32 : i32 to vector<i32>
      vector.transfer_write %293, %alloc_15[%rank_23, %c5] : vector<i32>, memref<16x11xi32>
      affine.for %arg3 = 0 to 76 {
      }
      %294 = arith.remf %cst, %cst_2 : f16
      %295 = math.exp2 %15 : tensor<16x11x14xf32>
      %296 = index.mul %c8, %rank_23
      %297 = bufferization.clone %alloc_20 : memref<14xi1> to memref<14xi1>
      %298 = index.sizeof
      %c-10144_i16 = arith.constant -10144 : i16
      %299 = vector.broadcast %in : f32 to vector<13xf32>
      %300 = vector.maskedload %33[%c3, %c6], %187, %299 : memref<16x14xf32>, vector<13xi1>, vector<13xf32> into vector<13xf32>
      %301 = math.ipowi %c928860611_i32, %c766674261_i32 : i32
      %302 = memref.load %alloc_14[%c13, %c9] : memref<16x11xi16>
      %303 = math.tan %out : f32
      %dest_40, %accumulated_value_41 = vector.scan <minsi>, %26, %291 {inclusive = false, reduction_dim = 0 : i64} : vector<16x11xi1>, vector<11xi1>
      memref.assume_alignment %alloc_15, 16 : memref<16x11xi32>
      %304 = index.ceildivs %112, %c1
      %305 = vector.broadcast %c766674261_i32 : i32 to vector<i32>
      vector.transfer_write %305, %162[%304, %190] : vector<i32>, memref<14x14xi32>
      %306 = math.roundeven %105 : tensor<16x14xf16>
      %307 = memref.load %alloc_13[%c7, %c1] : memref<14x14xi1>
      %308 = arith.remf %out, %cst_0 : f32
      %309 = tensor.empty() : tensor<14x16x11xi16>
      %alloc_42 = memref.alloc() : memref<11x14x16xi16>
      %310 = linalg.generic {indexing_maps = [affine_map<(d0, d1, d2) -> (d2, d0, d1)>, affine_map<(d0, d1, d2) -> (d1, d2, d0)>, affine_map<(d0, d1, d2) -> (d0, d1, d2)>], iterator_types = ["parallel", "parallel", "parallel"]} ins(%309, %alloc_42 : tensor<14x16x11xi16>, memref<11x14x16xi16>) outs(%6 : tensor<16x11x14xi16>) {
      ^bb0(%in_43: i16, %in_44: i16, %out_45: i16):
        %311 = arith.floordivsi %true_27, %true_1 : i1
        %312 = math.ipowi %6, %6 : tensor<16x11x14xi16>
        %313 = vector.insertelement %cst, %140[%304 : index] : vector<14xf16>
        %314 = vector.broadcast %true : i1 to vector<14x14xi1>
        %315 = vector.outerproduct %141, %141, %314 {kind = #vector.kind<xor>} : vector<14xi1>, vector<14xi1>
        %316 = math.ctpop %24 : tensor<16x11x14xi32>
        %317 = math.round %14 : tensor<14x14xf16>
        %318 = bufferization.clone %32 : memref<14xi1> to memref<14xi1>
        memref.assume_alignment %alloc_5, 4 : memref<16x11x14xf16>
        %cast_46 = tensor.cast %6 : tensor<16x11x14xi16> to tensor<?x?x?xi16>
        %319 = vector.load %alloc_19[%c5] : memref<14xi1>, vector<16x11x14xi1>
        %320 = index.ceildivu %127, %59
        %321 = vector.broadcast %c11 : index to vector<16xindex>
        %322 = vector.broadcast %cst : f16 to vector<16xf16>
        vector.scatter %alloc_5[%c7, %c1, %c10] [%321], %181, %322 : memref<16x11x14xf16>, vector<16xindex>, vector<16xi1>, vector<16xf16>
        %323 = affine.load %74[%c7, %c3] : memref<14x14xi1>
        %324 = math.round %14 : tensor<14x14xf16>
        %325 = vector.insertelement %cst_0, %70[%c13 : index] : vector<6xf32>
        %326 = math.round %in_36 : f32
        %327 = index.floordivs %296, %c10
        %328 = memref.atomic_rmw maxf %in_37, %185[%c14, %c2] : (f32, memref<16x14xf32>) -> f32
        %329 = bufferization.clone %102 : memref<14x14xi1> to memref<14x14xi1>
        %330 = vector.contract {indexing_maps = [affine_map<(d0) -> (d0)>, affine_map<(d0) -> (d0)>, affine_map<(d0) -> ()>], iterator_types = ["reduction"], kind = #vector.kind<mul>} %300, %300, %cst_0 : vector<13xf32>, vector<13xf32> into f32
        %331 = arith.cmpf une, %in_37, %in : f32
        %332 = bufferization.clone %alloc_7 : memref<16x14xf32> to memref<16x14xf32>
        %333 = index.maxu %59, %c15
        %334 = math.roundeven %12 : tensor<16x14xf32>
        %335 = arith.minf %in_36, %in_36 : f32
        %336 = memref.realloc %alloc_19 : memref<14xi1> to memref<16xi1>
        %alloc_47 = memref.alloc() : memref<11x16xi64>
        %337 = tensor.empty() : tensor<16x16xi64>
        %338 = linalg.matmul ins(%13, %alloc_47 : tensor<16x11xi64>, memref<11x16xi64>) outs(%337 : tensor<16x16xi64>) -> tensor<16x16xi64>
        %339 = vector.flat_transpose %187 {columns = 13 : i32, rows = 1 : i32} : vector<13xi1> -> vector<13xi1>
        %340 = arith.minui %323, %323 : i1
        %341 = arith.floordivsi %c766674261_i32, %160 : i32
        %342 = vector.flat_transpose %104 {columns = 13 : i32, rows = 1 : i32} : vector<13xf16> -> vector<13xf16>
        %c1_i32 = arith.constant 1 : i32
        %343 = vector.transfer_read %162[%134, %327], %c1_i32 : memref<14x14xi32>, vector<i32>
        linalg.yield %c-23065_i16 : i16
      } -> tensor<16x11x14xi16>
      linalg.yield %in : f32
    } -> tensor<16x11x14xf32>
    %196 = arith.remui %c644607405_i32, %c766674261_i32 : i32
    %197 = scf.while (%arg3 = %c1313612593_i64) : (i64) -> i64 {
      %283 = index.maxu %c12, %c3
      %284 = affine.load %alloc_17[%c3, %c11, %c13] : memref<16x11x14xf32>
      %splat = tensor.splat %true : tensor<16x11xi1>
      %285 = index.castu %arg3 : i64 to index
      bufferization.dealloc_tensor %1 : tensor<16x11xi1>
      %286 = arith.cmpf uno, %cst_2, %cst : f16
      %287 = arith.andi %c766674261_i32, %c928860611_i32 : i32
      %288 = math.expm1 %7 : tensor<16x11xf16>
      scf.condition(%true_1) %c1199270634_i64 : i64
    } do {
    ^bb0(%arg3: i64):
      %283 = arith.shrsi %c766674261_i32, %c766674261_i32 : i32
      %rank_36 = tensor.rank %4 : tensor<16x14xi16>
      %284 = vector.create_mask %c14, %56 : vector<16x11xi1>
      %285 = vector.insertelement %true_1, %187[%c3 : index] : vector<13xi1>
      %286 = vector.insertelement %cst_2, %104[%68 : index] : vector<13xf16>
      %alloc_37 = memref.alloc() : memref<14x16xf32>
      %287 = tensor.empty() : tensor<16x16xf32>
      %288 = linalg.matmul ins(%12, %alloc_37 : tensor<16x14xf32>, memref<14x16xf32>) outs(%287 : tensor<16x16xf32>) -> tensor<16x16xf32>
      %289 = scf.while (%arg4 = %142) : (vector<14xf16>) -> vector<14xf16> {
        %297 = vector.extract %141[2] : vector<14xi1>
        %298 = vector.splat %rank_21 : vector<16x11x14xindex>
        %299 = index.casts %c11 : index to i32
        %300 = arith.shli %true_1, %true : i1
        memref.assume_alignment %alloc_3, 4 : memref<14x14xi32>
        %301 = affine.apply affine_map<(d0, d1, d2, d3) -> (d0)>(%c8, %56, %c8, %108)
        %302 = memref.atomic_rmw mulf %cst, %alloc_16[%c5, %c11] : (f16, memref<14x14xf16>) -> f16
        %303 = arith.maxui %true_1, %false : i1
        scf.condition(%true_1) %142 : vector<14xf16>
      } do {
      ^bb0(%arg4: vector<14xf16>):
        %297 = vector.broadcast %false : i1 to vector<13xi1>
        %298 = vector.transfer_write %297, %9[%rank_23, %117] {permutation_map = affine_map<(d0, d1) -> (d0)>} : vector<13xi1>, tensor<16x11xi1>
        %299 = index.divs %112, %c10
        %300 = arith.remf %cst, %cst_2 : f16
        %301 = index.ceildivu %62, %c4
        %expanded_38 = tensor.expand_shape %0 [[0], [1, 2]] : tensor<16x14xi1> into tensor<16x14x1xi1>
        %302 = vector.maskedload %102[%c5, %c4], %141, %141 : memref<14x14xi1>, vector<14xi1>, vector<14xi1> into vector<14xi1>
        %303 = math.fpowi %cst_2, %c644607405_i32 : f16, i32
        %304 = arith.divf %cst_2, %cst_2 : f16
        %305 = vector.reduction <mul>, %104 : vector<13xf16> into f16
        %306 = vector.shuffle %66, %66 [3, 4, 5, 8, 10, 13, 15, 16, 18, 19, 21, 24, 25, 29, 30, 31] : vector<16xf32>, vector<16xf32>
        %307 = math.sqrt %17 : tensor<16x14xf16>
        %308 = math.atan %2 : tensor<16x11xf32>
        memref.assume_alignment %alloc_12, 8 : memref<16x14xi32>
        %309 = math.exp %cst_0 : f32
        %310 = vector.broadcast %c1581681977_i32 : i32 to vector<16xi32>
        %dest_39, %accumulated_value_40 = vector.scan <or>, %186, %310 {inclusive = false, reduction_dim = 1 : i64} : vector<16x11xi32>, vector<16xi32>
        %311 = math.roundeven %287 : tensor<16x16xf32>
        scf.yield %140 : vector<14xf16>
      }
      %290 = tensor.empty() : tensor<16x11x14xi16>
      %291 = math.round %2 : tensor<16x11xf32>
      affine.for %arg4 = 0 to 57 {
      }
      %292 = index.sub %c14, %c1
      %293 = index.casts %59 : index to i32
      %294 = affine.max affine_map<(d0) -> ((d0 ceildiv 128) floordiv 128, -(d0 - 2), d0 floordiv 4 - 16, d0 ceildiv 128)>(%rank_23)
      %295 = vector.reduction <maxsi>, %187 : vector<13xi1> into i1
      %296 = arith.divf %cst, %cst : f16
      memref.assume_alignment %alloc_9, 2 : memref<16x14xf16>
      scf.yield %arg3 : i64
    }
    %198 = index.maxs %c3, %184
    %199 = vector.broadcast %rank_23 : index to vector<11xindex>
    %200 = vector.broadcast %true_1 : i1 to vector<11xi1>
    vector.scatter %alloc_20[%c9] [%199], %200, %200 : memref<14xi1>, vector<11xindex>, vector<11xi1>, vector<11xi1>
    %201 = math.tanh %2 : tensor<16x11xf32>
    %202 = math.exp2 %cst : f16
    %203 = vector.splat %68 : vector<14x14xindex>
    %204 = vector.broadcast %c644607405_i32 : i32 to vector<14xi32>
    %205 = vector.maskedload %alloc_12[%c6, %c7], %141, %204 : memref<16x14xi32>, vector<14xi1>, vector<14xi32> into vector<14xi32>
    %206 = vector.broadcast %78 : i16 to vector<16xi16>
    %207 = vector.transfer_write %206, %6[%c12, %190, %rank_23] {permutation_map = affine_map<(d0, d1, d2) -> (d0)>} : vector<16xi16>, tensor<16x11x14xi16>
    %208 = math.copysign %7, %7 : tensor<16x11xf16>
    %209 = math.ctlz %0 : tensor<16x14xi1>
    %210 = vector.insertelement %cst_2, %104[%158 : index] : vector<13xf16>
    %211 = affine.load %alloc_19[%c6] : memref<14xi1>
    %212 = index.ceildivs %133, %62
    %213 = math.atan %collapsed_24 : tensor<224xf32>
    %c1_i64 = arith.constant 1 : i64
    %214 = vector.transfer_read %3[%c7, %c13], %c1_i64 : tensor<16x14xi64>, vector<11xi64>
    %215 = memref.load %alloc_12[%c12, %c3] : memref<16x14xi32>
    %216 = vector.broadcast %cst : f16 to vector<13x13xf16>
    %217 = vector.outerproduct %99, %19, %216 {kind = #vector.kind<mul>} : vector<13xf16>, vector<13xf16>
    %218 = affine.apply affine_map<(d0, d1, d2) -> (d0 * 8)>(%68, %133, %68)
    %219 = vector.broadcast %c1581681977_i32 : i32 to vector<14x14xi32>
    %220 = vector.outerproduct %205, %204, %219 {kind = #vector.kind<maxui>} : vector<14xi32>, vector<14xi32>
    %221 = vector.contract {indexing_maps = [affine_map<(d0) -> (d0)>, affine_map<(d0) -> (d0)>, affine_map<(d0) -> ()>], iterator_types = ["reduction"], kind = #vector.kind<add>} %99, %99, %cst_2 : vector<13xf16>, vector<13xf16> into f16
    %222 = math.rsqrt %15 : tensor<16x11x14xf32>
    %223 = math.ipowi %1, %1 : tensor<16x11xi1>
    %224 = math.log2 %15 : tensor<16x11x14xf32>
    %generated_29 = tensor.generate %68, %59 {
    ^bb0(%arg3: index, %arg4: index):
      %283 = math.ctpop %c1581681977_i32 : i32
      %284 = arith.minsi %c928860611_i32, %c928860611_i32 : i32
      %285 = vector.bitcast %205 : vector<14xi32> to vector<14xi32>
      %286 = arith.maxui %c928860611_i32, %c928860611_i32 : i32
      tensor.yield %cst_2 : f16
    } : tensor<?x?xf16>
    %225 = math.ctlz %c1_i64 : i64
    %226 = vector.broadcast %cst_0 : f32 to vector<11xf32>
    %227 = vector.broadcast %false : i1 to vector<11xi1>
    %228 = vector.maskedload %alloc_17[%c7, %c6, %c0], %227, %226 : memref<16x11x14xf32>, vector<11xi1>, vector<11xf32> into vector<11xf32>
    %229 = bufferization.clone %alloc : memref<16x14xf32> to memref<16x14xf32>
    %230 = tensor.empty() : tensor<16x11xi32>
    %231 = arith.maxf %cst, %cst : f16
    %232 = arith.floordivsi %c1508905138_i64, %c1199270634_i64 : i64
    %233 = affine.apply affine_map<(d0, d1) -> (-(d1 floordiv 8) + 2)>(%134, %59)
    %234 = index.casts %false : i1 to index
    %235 = memref.realloc %32 : memref<14xi1> to memref<13xi1>
    %236 = memref.load %32[%c7] : memref<14xi1>
    %expanded = tensor.expand_shape %10 [[0], [1, 2]] : tensor<16x14xi1> into tensor<16x14x1xi1>
    %237 = arith.remf %cst, %cst_2 : f16
    %238 = arith.minf %cst_2, %cst_2 : f16
    %239 = arith.remf %cst_2, %cst : f16
    %240 = vector.broadcast %cst : f16 to vector<16xf16>
    %dest_30, %accumulated_value_31 = vector.scan <minf>, %76, %240 {inclusive = false, reduction_dim = 1 : i64} : vector<16x11xf16>, vector<16xf16>
    %241 = arith.ceildivsi %78, %78 : i16
    %242 = arith.maxui %211, %false : i1
    %243 = index.sub %134, %c6
    %244 = math.floor %cst_2 : f16
    %245 = memref.atomic_rmw minf %cst_0, %122[%c14, %c1] : (f32, memref<16x14xf32>) -> f32
    %246 = arith.minui %c614314845_i64, %c1_i64 : i64
    %247 = vector.broadcast %184 : index to vector<13xindex>
    %248 = vector.broadcast %c928860611_i32 : i32 to vector<13xi32>
    vector.scatter %alloc_3[%c9, %c12] [%247], %187, %248 : memref<14x14xi32>, vector<13xindex>, vector<13xi1>, vector<13xi32>
    %rank_32 = tensor.rank %2 : tensor<16x11xf32>
    %249 = math.powf %14, %14 : tensor<14x14xf16>
    %250 = arith.addi %c-23065_i16, %78 : i16
    %251 = index.sizeof
    %252 = arith.maxf %cst_0, %cst_0 : f32
    %253 = index.ceildivs %62, %c4
    %254 = arith.minf %cst, %cst : f16
    %255 = bufferization.to_memref %2 : memref<16x11xf32>
    %256 = tensor.empty() : tensor<11x11xi64>
    %257 = tensor.empty() : tensor<16x11xi64>
    %258 = linalg.matmul ins(%13, %256 : tensor<16x11xi64>, tensor<11x11xi64>) outs(%257 : tensor<16x11xi64>) -> tensor<16x11xi64>
    %259 = math.tan %105 : tensor<16x14xf16>
    %260 = tensor.empty() : tensor<14xf32>
    %261 = linalg.generic {indexing_maps = [affine_map<(d0, d1, d2) -> (d0, d1)>, affine_map<(d0, d1, d2) -> (d0, d1, d2)>, affine_map<(d0, d1, d2) -> (d2)>, affine_map<(d0, d1, d2) -> (d0, d1, d2)>], iterator_types = ["parallel", "parallel", "parallel"]} ins(%2, %15, %260 : tensor<16x11xf32>, tensor<16x11x14xf32>, tensor<14xf32>) outs(%15 : tensor<16x11x14xf32>) {
    ^bb0(%in: f32, %in_36: f32, %in_37: f32, %out: f32):
      affine.store %cst_2, %alloc_4[%c0, %c4] : memref<16x14xf16>
      scf.index_switch %30 
      case 1 {
        %308 = index.casts %true_1 : i1 to index
        %309 = math.log %cst_2 : f16
        %310 = vector.shuffle %39, %38 [0, 3, 4, 6, 7, 10, 11, 13, 14, 15, 17, 20, 21, 23, 28, 29, 30] : vector<16x14xf32>, vector<16x14xf32>
        %311 = math.ceil %in_36 : f32
        %312 = math.ceil %5 : tensor<16x14xf16>
        %313 = vector.flat_transpose %204 {columns = 7 : i32, rows = 2 : i32} : vector<14xi32> -> vector<14xi32>
        %314 = arith.ceildivsi %c1_i64, %c1508905138_i64 : i64
        %315 = index.maxu %234, %rank
        %316 = math.tanh %cst_0 : f32
        %317 = index.maxu %243, %308
        %318 = arith.remui %c644607405_i32, %c928860611_i32 : i32
        %319 = arith.shli %true_1, %211 : i1
        %320 = vector.create_mask %198, %68, %rank_32 : vector<16x11x14xi1>
        %321 = math.cttz %1 : tensor<16x11xi1>
        %322 = math.roundeven %2 : tensor<16x11xf32>
        %323 = arith.mulf %in_37, %out : f32
        scf.yield
      }
      case 2 {
        %308 = math.tan %12 : tensor<16x14xf32>
        vector.print %206 : vector<16xi16>
        %309 = vector.insertelement %c644607405_i32, %204[%62 : index] : vector<14xi32>
        %310 = vector.broadcast %c928860611_i32 : i32 to vector<16xi32>
        %311 = vector.maskedload %alloc_10[%c13, %c11], %181, %310 : memref<14x14xi32>, vector<16xi1>, vector<16xi32> into vector<16xi32>
        %312 = math.cttz %c1581681977_i32 : i32
        %313 = vector.broadcast %160 : i32 to vector<11xi32>
        %314 = vector.insert %313, %186 [15] : vector<11xi32> into vector<16x11xi32>
        %315 = bufferization.to_tensor %33 : memref<16x14xf32>
        %316 = math.ipowi %257, %257 : tensor<16x11xi64>
        %317 = arith.mulf %in_36, %in : f32
        %318 = math.sqrt %in : f32
        %319 = math.ipowi %11, %11 : tensor<16x11xi32>
        %320 = arith.maxui %c928860611_i32, %c644607405_i32 : i32
        %321 = index.ceildivs %115, %253
        %322 = arith.minf %out, %in_36 : f32
        %323 = vector.insert %cst, %140 [6] : f16 into vector<14xf16>
        %324 = index.ceildivs %c2, %rank
        scf.yield
      }
      case 3 {
        %308 = vector.insertelement %false, %141[%184 : index] : vector<14xi1>
        %309 = tensor.empty() : tensor<16x14xf16>
        %310 = linalg.matmul ins(%5, %14 : tensor<16x14xf16>, tensor<14x14xf16>) outs(%309 : tensor<16x14xf16>) -> tensor<16x14xf16>
        %311 = index.add %115, %c5
        %312 = math.roundeven %2 : tensor<16x11xf32>
        %313 = math.atan %out : f32
        %314 = memref.realloc %alloc_20 : memref<14xi1> to memref<11xi1>
        %315 = vector.extract_strided_slice %142 {offsets = [1], sizes = [5], strides = [1]} : vector<14xf16> to vector<5xf16>
        %316 = arith.cmpf ole, %cst_0, %cst_0 : f32
        %317 = bufferization.clone %alloc_8 : memref<14x14xi1> to memref<14x14xi1>
        %318 = vector.splat %rank_32 : vector<14x14xindex>
        %319 = affine.apply affine_map<(d0, d1) -> (d1 * 4)>(%rank_23, %251)
        %320 = math.absf %cst : f16
        memref.store %c644607405_i32, %116[%c2, %c9] : memref<14x14xi32>
        %expanded_43 = tensor.expand_shape %2 [[0], [1, 2]] : tensor<16x11xf32> into tensor<16x11x1xf32>
        %321 = math.roundeven %expanded_43 : tensor<16x11x1xf32>
        %322 = vector.broadcast %in_36 : f32 to vector<13x13xf32>
        %323 = vector.transfer_write %322, %15[%c4, %c8, %c5] {permutation_map = affine_map<(d0, d1, d2) -> (d0, d1)>} : vector<13x13xf32>, tensor<16x11x14xf32>
        scf.yield
      }
      default {
        %308 = math.ctlz %c1199270634_i64 : i64
        %309 = arith.cmpi ne, %c1508905138_i64, %c1313612593_i64 : i64
        %310 = math.exp %7 : tensor<16x11xf16>
        %311 = index.mul %59, %c13
        %312 = arith.mulf %in_36, %in_36 : f32
        %313 = index.ceildivu %251, %127
        memref.store %211, %34[%c14, %c4] : memref<16x11xi1>
        %314 = arith.minsi %78, %c18917_i16 : i16
        %315 = arith.remf %cst_0, %in_37 : f32
        %316 = index.maxs %c6, %110
        %317 = arith.divf %out, %in_37 : f32
        %318 = arith.minui %c644607405_i32, %c644607405_i32 : i32
        %319 = math.absf %14 : tensor<14x14xf16>
        memref.assume_alignment %alloc_18, 2 : memref<14x16xf16>
        %320 = vector.broadcast %false : i1 to vector<5xi1>
        %321 = vector.contract {indexing_maps = [affine_map<(d0, d1) -> (d1)>, affine_map<(d0, d1) -> (d0, d1)>, affine_map<(d0, d1) -> (d0)>], iterator_types = ["parallel", "reduction"], kind = #vector.kind<minui>} %227, %136, %320 : vector<11xi1>, vector<5x11xi1> into vector<5xi1>
        %from_elements_43 = tensor.from_elements %c644607405_i32, %c928860611_i32, %c1581681977_i32, %c766674261_i32, %160, %c644607405_i32, %160, %160, %c1581681977_i32, %160, %c928860611_i32, %c644607405_i32, %160, %160, %c928860611_i32, %c644607405_i32, %c766674261_i32, %c644607405_i32, %160, %c1581681977_i32, %c1581681977_i32, %c1581681977_i32, %c644607405_i32, %c766674261_i32, %160, %c766674261_i32, %c1581681977_i32, %c644607405_i32, %c1581681977_i32, %c1581681977_i32, %c644607405_i32, %c766674261_i32, %c1581681977_i32, %c928860611_i32, %c928860611_i32, %c766674261_i32, %c644607405_i32, %c1581681977_i32, %160, %160, %160, %c1581681977_i32, %160, %c1581681977_i32, %c644607405_i32, %c928860611_i32, %c1581681977_i32, %c1581681977_i32, %c928860611_i32, %160, %c1581681977_i32, %160, %c644607405_i32, %c1581681977_i32, %c928860611_i32, %c1581681977_i32, %c644607405_i32, %c928860611_i32, %c644607405_i32, %160, %c928860611_i32, %c644607405_i32, %c928860611_i32, %160, %c766674261_i32, %c644607405_i32, %c766674261_i32, %c644607405_i32, %c766674261_i32, %160, %c644607405_i32, %c928860611_i32, %c1581681977_i32, %c928860611_i32, %c644607405_i32, %c928860611_i32, %c1581681977_i32, %160, %c1581681977_i32, %c644607405_i32, %c644607405_i32, %c766674261_i32, %160, %c766674261_i32, %c1581681977_i32, %c928860611_i32, %c644607405_i32, %c644607405_i32, %c1581681977_i32, %c928860611_i32, %c644607405_i32, %160, %c928860611_i32, %c644607405_i32, %c766674261_i32, %c928860611_i32, %c766674261_i32, %c1581681977_i32, %c766674261_i32, %c766674261_i32, %c1581681977_i32, %160, %c644607405_i32, %c928860611_i32, %c928860611_i32, %160, %c1581681977_i32, %c928860611_i32, %c644607405_i32, %160, %160, %c928860611_i32, %160, %160, %c766674261_i32, %c928860611_i32, %c644607405_i32, %c928860611_i32, %c644607405_i32, %c644607405_i32, %c766674261_i32, %c644607405_i32, %c1581681977_i32, %c766674261_i32, %c1581681977_i32, %160, %c644607405_i32, %c644607405_i32, %c644607405_i32, %160, %c644607405_i32, %c766674261_i32, %c1581681977_i32, %c766674261_i32, %c644607405_i32, %c766674261_i32, %c644607405_i32, %c766674261_i32, %c1581681977_i32, %c928860611_i32, %c766674261_i32, %c766674261_i32, %c928860611_i32, %c644607405_i32, %c1581681977_i32, %c928860611_i32, %c928860611_i32, %c928860611_i32, %c766674261_i32, %c1581681977_i32, %160, %c644607405_i32, %c766674261_i32, %c766674261_i32, %c644607405_i32, %c1581681977_i32, %c766674261_i32, %160, %c1581681977_i32, %c766674261_i32, %c1581681977_i32, %160, %c766674261_i32, %c766674261_i32, %c1581681977_i32, %c928860611_i32, %c1581681977_i32, %c928860611_i32, %c928860611_i32, %c766674261_i32, %c1581681977_i32, %c766674261_i32, %c1581681977_i32, %c928860611_i32, %160, %c928860611_i32, %c928860611_i32, %c1581681977_i32, %c644607405_i32, %160, %c644607405_i32, %c644607405_i32, %c928860611_i32, %c1581681977_i32, %c928860611_i32, %c928860611_i32, %c928860611_i32, %c766674261_i32, %c644607405_i32, %c1581681977_i32, %c928860611_i32, %c766674261_i32, %160, %c766674261_i32, %c644607405_i32, %c928860611_i32, %c928860611_i32, %c1581681977_i32, %c1581681977_i32, %160, %c1581681977_i32, %c1581681977_i32, %c766674261_i32, %160, %c928860611_i32, %c644607405_i32, %c766674261_i32, %c766674261_i32, %c1581681977_i32, %160, %c644607405_i32, %c928860611_i32, %c1581681977_i32, %c766674261_i32, %160, %c928860611_i32, %160, %c644607405_i32, %c1581681977_i32, %c928860611_i32, %160, %160, %c766674261_i32, %c644607405_i32, %c644607405_i32, %c1581681977_i32, %c766674261_i32, %c1581681977_i32, %160, %c928860611_i32, %c928860611_i32, %160, %c766674261_i32, %c644607405_i32, %c928860611_i32, %c928860611_i32, %c928860611_i32, %c928860611_i32, %c766674261_i32, %c766674261_i32, %c928860611_i32, %c644607405_i32, %c766674261_i32, %c766674261_i32, %c766674261_i32, %c1581681977_i32, %c1581681977_i32, %c644607405_i32, %c1581681977_i32, %c928860611_i32, %160, %c644607405_i32, %c1581681977_i32, %160, %c928860611_i32, %c1581681977_i32, %c766674261_i32, %c928860611_i32, %c928860611_i32, %c644607405_i32, %c928860611_i32, %c644607405_i32, %c766674261_i32, %c1581681977_i32, %c928860611_i32, %c928860611_i32, %160, %160, %c1581681977_i32, %c766674261_i32, %c766674261_i32, %c1581681977_i32, %c928860611_i32, %c644607405_i32, %c766674261_i32, %160, %c1581681977_i32, %c1581681977_i32, %160, %c1581681977_i32, %160, %c766674261_i32, %160, %c644607405_i32, %c928860611_i32, %c1581681977_i32, %160, %c644607405_i32, %c766674261_i32, %c1581681977_i32, %c766674261_i32, %c766674261_i32, %c928860611_i32, %c766674261_i32, %c766674261_i32, %c1581681977_i32, %c644607405_i32, %c1581681977_i32, %c928860611_i32, %c766674261_i32, %160, %c1581681977_i32, %c644607405_i32, %c644607405_i32, %160, %160, %c644607405_i32, %c766674261_i32, %160, %160, %c766674261_i32, %160, %160, %c928860611_i32, %c644607405_i32, %c766674261_i32, %c1581681977_i32, %c766674261_i32, %c928860611_i32, %c928860611_i32, %c644607405_i32, %c644607405_i32, %c1581681977_i32, %c928860611_i32, %c928860611_i32, %c766674261_i32, %c644607405_i32, %c1581681977_i32, %160, %160, %160, %c644607405_i32, %c928860611_i32, %160, %160, %c644607405_i32, %160, %c928860611_i32, %c928860611_i32, %c928860611_i32, %c928860611_i32, %c928860611_i32, %c1581681977_i32, %c928860611_i32, %160, %160, %160, %c1581681977_i32, %c928860611_i32, %c644607405_i32, %c766674261_i32, %c766674261_i32, %160, %c1581681977_i32, %160, %160, %c928860611_i32, %c766674261_i32, %c1581681977_i32, %c1581681977_i32, %c766674261_i32, %160, %c644607405_i32, %c928860611_i32, %160, %c1581681977_i32, %c644607405_i32, %160, %c766674261_i32, %c766674261_i32, %c928860611_i32, %160, %160, %c1581681977_i32, %c644607405_i32, %c1581681977_i32, %c928860611_i32, %c766674261_i32, %c766674261_i32, %c1581681977_i32, %c766674261_i32, %c766674261_i32, %160, %c644607405_i32, %160, %c1581681977_i32, %160, %c1581681977_i32, %c644607405_i32, %c1581681977_i32, %c1581681977_i32, %160, %c928860611_i32, %160, %c928860611_i32, %c766674261_i32, %160, %c644607405_i32, %c644607405_i32, %c766674261_i32, %c1581681977_i32, %c1581681977_i32, %c644607405_i32, %c644607405_i32, %c766674261_i32, %c928860611_i32, %c766674261_i32, %c766674261_i32, %160, %c644607405_i32, %c1581681977_i32, %c928860611_i32, %c1581681977_i32, %c928860611_i32, %160, %160, %160, %c766674261_i32, %c644607405_i32, %c928860611_i32, %c766674261_i32, %160, %c644607405_i32, %c766674261_i32, %c928860611_i32, %160, %c1581681977_i32, %c928860611_i32, %160, %c1581681977_i32, %c766674261_i32, %160, %c644607405_i32, %c766674261_i32, %c766674261_i32, %c1581681977_i32, %c928860611_i32, %c1581681977_i32, %c766674261_i32, %c644607405_i32, %c1581681977_i32, %160, %c1581681977_i32, %c766674261_i32, %c644607405_i32, %c644607405_i32, %c928860611_i32, %c644607405_i32, %160, %160, %160, %160, %160, %160, %c928860611_i32, %c766674261_i32, %c766674261_i32, %c644607405_i32, %c644607405_i32, %c644607405_i32, %c928860611_i32, %c766674261_i32, %c1581681977_i32, %c766674261_i32, %c1581681977_i32, %c766674261_i32, %c1581681977_i32, %c766674261_i32, %c928860611_i32, %c766674261_i32, %160, %c644607405_i32, %c928860611_i32, %c928860611_i32, %c644607405_i32, %c1581681977_i32, %160, %160, %c1581681977_i32, %c644607405_i32, %160, %c644607405_i32, %c644607405_i32, %c928860611_i32, %c644607405_i32, %160, %c644607405_i32, %c766674261_i32, %160, %160, %160, %160, %c644607405_i32, %c928860611_i32, %c766674261_i32, %c644607405_i32, %c928860611_i32, %c928860611_i32, %c644607405_i32, %160, %c1581681977_i32, %160, %c1581681977_i32, %c1581681977_i32, %c928860611_i32, %c1581681977_i32, %c1581681977_i32, %c928860611_i32, %160, %160, %c644607405_i32, %c928860611_i32, %c1581681977_i32, %c766674261_i32, %160, %c1581681977_i32, %c1581681977_i32, %c1581681977_i32, %c644607405_i32, %c1581681977_i32, %c644607405_i32, %c644607405_i32, %c928860611_i32, %c644607405_i32, %c928860611_i32, %160, %c928860611_i32, %160, %c1581681977_i32, %c766674261_i32, %c766674261_i32, %c766674261_i32, %c928860611_i32, %c766674261_i32, %c928860611_i32, %c644607405_i32, %c928860611_i32, %160, %160, %c766674261_i32, %c766674261_i32, %c766674261_i32, %c1581681977_i32, %c766674261_i32, %160, %160, %c766674261_i32, %c1581681977_i32, %160, %c644607405_i32, %c928860611_i32, %c644607405_i32, %c1581681977_i32, %c766674261_i32, %c1581681977_i32, %c766674261_i32, %c1581681977_i32, %c644607405_i32, %c1581681977_i32, %c928860611_i32, %c644607405_i32, %c928860611_i32, %c766674261_i32, %c644607405_i32, %c644607405_i32, %c766674261_i32, %c928860611_i32, %c644607405_i32, %c928860611_i32, %c766674261_i32, %c928860611_i32, %c644607405_i32, %c1581681977_i32, %c1581681977_i32, %c1581681977_i32, %c928860611_i32, %c644607405_i32, %c1581681977_i32, %c928860611_i32, %c766674261_i32, %160, %c644607405_i32, %c766674261_i32, %c644607405_i32, %c766674261_i32, %160, %c928860611_i32, %160, %c766674261_i32, %c644607405_i32, %160, %c766674261_i32, %c1581681977_i32, %c1581681977_i32, %160, %160, %160, %c644607405_i32, %c766674261_i32, %c644607405_i32, %c766674261_i32, %c1581681977_i32, %c928860611_i32, %c644607405_i32, %c928860611_i32, %c766674261_i32, %c928860611_i32, %c1581681977_i32, %c1581681977_i32, %c644607405_i32, %c766674261_i32, %c928860611_i32, %c928860611_i32, %c644607405_i32, %160, %c644607405_i32, %c1581681977_i32, %c644607405_i32, %c1581681977_i32, %c928860611_i32, %c1581681977_i32, %c766674261_i32, %c766674261_i32, %c1581681977_i32, %c644607405_i32, %c766674261_i32, %c766674261_i32, %c644607405_i32, %c766674261_i32, %160, %c644607405_i32, %160, %c928860611_i32, %160, %c644607405_i32, %c644607405_i32, %c766674261_i32, %c766674261_i32, %c766674261_i32, %c1581681977_i32, %c644607405_i32, %c644607405_i32, %c1581681977_i32, %c644607405_i32, %c928860611_i32, %c644607405_i32, %c1581681977_i32, %c766674261_i32, %c766674261_i32, %c928860611_i32, %160, %c644607405_i32, %c928860611_i32, %c1581681977_i32, %160, %c644607405_i32, %c644607405_i32, %160, %160, %c1581681977_i32, %160, %c766674261_i32, %160, %c766674261_i32, %c928860611_i32, %160, %160, %c928860611_i32, %c644607405_i32, %c766674261_i32, %c1581681977_i32, %c1581681977_i32, %c644607405_i32, %c766674261_i32, %c1581681977_i32, %c928860611_i32, %c766674261_i32, %c644607405_i32, %c644607405_i32, %c928860611_i32, %c1581681977_i32, %c1581681977_i32, %c644607405_i32, %c766674261_i32, %c1581681977_i32, %160, %c928860611_i32, %c1581681977_i32, %c928860611_i32, %c766674261_i32, %c766674261_i32, %160, %160, %160, %c766674261_i32, %160, %c1581681977_i32, %c644607405_i32, %c644607405_i32, %c1581681977_i32, %c766674261_i32, %c928860611_i32, %c928860611_i32, %c928860611_i32, %c766674261_i32, %160, %c644607405_i32, %160, %160, %c766674261_i32, %160, %160, %160, %c1581681977_i32, %c1581681977_i32, %c928860611_i32, %c644607405_i32, %c644607405_i32, %160, %c766674261_i32, %c644607405_i32, %c928860611_i32, %c928860611_i32, %c1581681977_i32, %c1581681977_i32, %c644607405_i32, %160, %160, %c644607405_i32, %160, %c644607405_i32, %c644607405_i32, %c766674261_i32, %c1581681977_i32, %c1581681977_i32, %c928860611_i32, %c928860611_i32, %160, %160, %160, %c928860611_i32, %c766674261_i32, %c928860611_i32, %160, %c1581681977_i32, %c1581681977_i32, %160, %160, %160, %c766674261_i32, %c644607405_i32, %c928860611_i32, %c644607405_i32, %c766674261_i32, %160, %c1581681977_i32, %c928860611_i32, %c644607405_i32, %c644607405_i32, %160, %c644607405_i32, %c644607405_i32, %c928860611_i32, %160, %160, %c766674261_i32, %c766674261_i32, %c644607405_i32, %c1581681977_i32, %c1581681977_i32, %160, %c766674261_i32, %c928860611_i32, %c928860611_i32, %c1581681977_i32, %c644607405_i32, %c644607405_i32, %c766674261_i32, %160, %c766674261_i32, %c1581681977_i32, %c928860611_i32, %c766674261_i32, %160, %160, %160, %c928860611_i32, %160, %160, %c1581681977_i32, %c644607405_i32, %c1581681977_i32, %c1581681977_i32, %c766674261_i32, %c928860611_i32, %160, %c928860611_i32, %c928860611_i32, %c644607405_i32, %c766674261_i32, %c928860611_i32, %c928860611_i32, %c766674261_i32, %c1581681977_i32, %c644607405_i32, %c766674261_i32, %c928860611_i32, %c928860611_i32, %c1581681977_i32, %c766674261_i32, %c928860611_i32, %c928860611_i32, %c644607405_i32, %c1581681977_i32, %c1581681977_i32, %c644607405_i32, %160, %c644607405_i32, %c766674261_i32, %c766674261_i32, %c766674261_i32, %c1581681977_i32, %c1581681977_i32, %c644607405_i32, %c644607405_i32, %c644607405_i32, %c1581681977_i32, %c766674261_i32, %c928860611_i32, %160, %c766674261_i32, %c1581681977_i32, %c928860611_i32, %c1581681977_i32, %c928860611_i32, %c644607405_i32, %c928860611_i32, %c766674261_i32, %c928860611_i32, %c644607405_i32, %c644607405_i32, %160, %160, %160, %160, %160, %c766674261_i32, %c1581681977_i32, %160, %160, %160, %c644607405_i32, %c928860611_i32, %c1581681977_i32, %c644607405_i32, %c1581681977_i32, %c928860611_i32, %160, %c766674261_i32, %c766674261_i32, %c1581681977_i32, %c766674261_i32, %c644607405_i32, %160, %c766674261_i32, %c928860611_i32, %160, %c1581681977_i32, %c644607405_i32, %c766674261_i32, %c928860611_i32, %c766674261_i32, %160, %160, %c766674261_i32, %c766674261_i32, %c928860611_i32, %c1581681977_i32, %c644607405_i32, %c1581681977_i32, %c928860611_i32, %c766674261_i32, %c1581681977_i32, %c766674261_i32, %c1581681977_i32, %c766674261_i32, %c1581681977_i32, %c928860611_i32, %c928860611_i32, %c1581681977_i32, %c928860611_i32, %c1581681977_i32, %c1581681977_i32, %c766674261_i32, %c766674261_i32, %c644607405_i32, %c644607405_i32, %160, %c1581681977_i32, %c644607405_i32, %c928860611_i32, %160, %c1581681977_i32, %c1581681977_i32, %c1581681977_i32, %c644607405_i32, %c928860611_i32, %c928860611_i32, %c928860611_i32, %c644607405_i32, %c766674261_i32, %c1581681977_i32, %c766674261_i32, %c928860611_i32, %c928860611_i32, %c766674261_i32, %160, %160, %160, %c644607405_i32, %c644607405_i32, %c1581681977_i32, %160, %c928860611_i32, %c1581681977_i32, %160, %c644607405_i32, %c928860611_i32, %c1581681977_i32, %160, %160, %c766674261_i32, %c1581681977_i32, %160, %c1581681977_i32, %c928860611_i32, %c766674261_i32, %160, %160, %c928860611_i32, %c766674261_i32, %c766674261_i32, %c928860611_i32, %c1581681977_i32, %160, %c766674261_i32, %c644607405_i32, %c766674261_i32, %c1581681977_i32, %c644607405_i32, %c928860611_i32, %c1581681977_i32, %c928860611_i32, %c644607405_i32, %c644607405_i32, %c644607405_i32, %c644607405_i32, %160, %c644607405_i32, %c766674261_i32, %c644607405_i32, %160, %c766674261_i32, %c766674261_i32, %c928860611_i32, %c766674261_i32, %c928860611_i32, %c928860611_i32, %c928860611_i32, %160, %c1581681977_i32, %160, %c766674261_i32, %c644607405_i32, %160, %160, %c928860611_i32, %c928860611_i32, %c766674261_i32, %c766674261_i32, %c644607405_i32, %c1581681977_i32, %c644607405_i32, %c928860611_i32, %160, %c766674261_i32, %160, %160, %c928860611_i32, %c928860611_i32, %c766674261_i32, %c1581681977_i32, %c766674261_i32, %c644607405_i32, %c1581681977_i32, %c1581681977_i32, %c928860611_i32, %160, %c644607405_i32, %c766674261_i32, %c928860611_i32, %c1581681977_i32, %c1581681977_i32, %c1581681977_i32, %c644607405_i32, %c1581681977_i32, %160, %c766674261_i32, %c766674261_i32, %c644607405_i32, %c928860611_i32, %c928860611_i32, %160, %c644607405_i32, %c766674261_i32, %c1581681977_i32, %c928860611_i32, %c766674261_i32, %c1581681977_i32, %c644607405_i32, %160, %160, %c644607405_i32, %c766674261_i32, %160, %c644607405_i32, %c766674261_i32, %160, %160, %160, %c644607405_i32, %160, %160, %c766674261_i32, %160, %160, %c644607405_i32, %160, %c644607405_i32, %c1581681977_i32, %c1581681977_i32, %c928860611_i32, %160, %c766674261_i32, %c928860611_i32, %c928860611_i32, %c928860611_i32, %160, %c766674261_i32, %160, %c1581681977_i32, %c1581681977_i32, %c1581681977_i32, %c766674261_i32, %c928860611_i32, %c644607405_i32, %160, %c928860611_i32, %c766674261_i32, %160, %c1581681977_i32, %c644607405_i32, %160, %c644607405_i32, %c928860611_i32, %c928860611_i32, %c928860611_i32, %160, %c766674261_i32, %160, %c928860611_i32, %160, %c928860611_i32, %160, %c1581681977_i32, %c928860611_i32, %c928860611_i32, %160, %c1581681977_i32, %c1581681977_i32, %c1581681977_i32, %c644607405_i32, %c928860611_i32, %c766674261_i32, %c1581681977_i32, %c928860611_i32, %c766674261_i32, %c1581681977_i32, %160, %c928860611_i32, %c766674261_i32, %c928860611_i32, %160, %c644607405_i32, %c928860611_i32, %c644607405_i32, %c766674261_i32, %c766674261_i32, %c1581681977_i32, %160, %c766674261_i32, %c928860611_i32, %c644607405_i32, %c644607405_i32, %c766674261_i32, %c928860611_i32, %c928860611_i32, %c644607405_i32, %c928860611_i32, %c644607405_i32, %c1581681977_i32, %c928860611_i32, %c644607405_i32, %c928860611_i32, %c644607405_i32, %160, %c1581681977_i32, %c928860611_i32, %c1581681977_i32, %c766674261_i32, %c644607405_i32, %160, %c928860611_i32, %c766674261_i32, %c1581681977_i32, %c1581681977_i32, %c766674261_i32, %c766674261_i32, %160, %c928860611_i32, %c766674261_i32, %160, %c1581681977_i32, %c1581681977_i32, %c644607405_i32, %c644607405_i32, %c1581681977_i32, %c928860611_i32, %c1581681977_i32, %c928860611_i32, %c928860611_i32, %c1581681977_i32, %c766674261_i32, %160, %c644607405_i32, %c644607405_i32, %c644607405_i32, %c928860611_i32, %c1581681977_i32, %c928860611_i32, %c928860611_i32, %c1581681977_i32, %c766674261_i32, %c928860611_i32, %c766674261_i32, %c1581681977_i32, %c928860611_i32, %c766674261_i32, %c644607405_i32, %160, %c928860611_i32, %c644607405_i32, %c928860611_i32, %160, %c766674261_i32, %c1581681977_i32, %c1581681977_i32, %c644607405_i32, %c928860611_i32, %c1581681977_i32, %c928860611_i32, %160, %c928860611_i32, %c1581681977_i32, %c766674261_i32, %160, %c766674261_i32, %c766674261_i32, %c1581681977_i32, %c928860611_i32, %c1581681977_i32, %160, %c928860611_i32, %c928860611_i32, %c766674261_i32, %c644607405_i32, %c644607405_i32, %c928860611_i32, %160, %c928860611_i32, %c644607405_i32, %c928860611_i32, %160, %c766674261_i32, %c766674261_i32, %c1581681977_i32, %c644607405_i32, %c644607405_i32, %c928860611_i32, %160, %c766674261_i32, %c644607405_i32, %160, %c644607405_i32, %c928860611_i32, %c766674261_i32, %c766674261_i32, %c766674261_i32, %160, %c1581681977_i32, %160, %160, %160, %160, %160, %c1581681977_i32, %160, %160, %c766674261_i32, %c766674261_i32, %c644607405_i32, %160, %c1581681977_i32, %c928860611_i32, %c928860611_i32, %160, %c644607405_i32, %c928860611_i32, %c1581681977_i32, %c1581681977_i32, %c644607405_i32, %c644607405_i32, %c928860611_i32, %c644607405_i32, %c766674261_i32, %160, %c928860611_i32, %c1581681977_i32, %c644607405_i32, %c1581681977_i32, %c1581681977_i32, %c766674261_i32, %c644607405_i32, %c928860611_i32, %c766674261_i32, %c1581681977_i32, %160, %c644607405_i32, %160, %c644607405_i32, %c928860611_i32, %160, %c766674261_i32, %c766674261_i32, %c928860611_i32, %c928860611_i32, %c928860611_i32, %c766674261_i32, %c1581681977_i32, %c644607405_i32, %c766674261_i32, %c1581681977_i32, %c1581681977_i32, %c766674261_i32, %160, %160, %c644607405_i32, %c766674261_i32, %c928860611_i32, %c1581681977_i32, %c644607405_i32, %160, %c644607405_i32, %c766674261_i32, %160, %160, %c928860611_i32, %c644607405_i32, %c928860611_i32, %c766674261_i32, %160, %c644607405_i32, %c928860611_i32, %160, %c644607405_i32, %c644607405_i32, %c644607405_i32, %c928860611_i32, %c644607405_i32, %c928860611_i32, %160, %c644607405_i32, %160, %c766674261_i32, %c766674261_i32, %c928860611_i32, %c644607405_i32, %c766674261_i32, %160, %160, %c644607405_i32, %c1581681977_i32, %c1581681977_i32, %c928860611_i32, %c644607405_i32, %c644607405_i32, %c1581681977_i32, %c928860611_i32, %c64…
        %310 = bufferization.clone %116 : memref<14x14xi32> to memref<14x14xi32>
        %311 = arith.remf %in, %in_36 : f32
        %312 = bufferization.to_memref %6 : memref<16x11x14xi16>
        %313 = vector.broadcast %c614314845_i64 : i64 to vector<16x11xi64>
        %314 = vector.extract %19[1] : vector<13xf16>
        %315 = arith.minsi %true, %true_1 : i1
        %cst_43 = arith.constant 4.752000e+04 : f16
        %316 = arith.minui %true_27, %211 : i1
        %317 = math.atan %12 : tensor<16x14xf32>
        %318 = vector.broadcast %c3 : index to vector<14xindex>
        vector.scatter %33[%c8, %c2] [%318], %141, %309 : memref<16x14xf32>, vector<14xindex>, vector<14xi1>, vector<14xf32>
        %319 = arith.shli %c614314845_i64, %c1508905138_i64 : i64
        %320 = vector.load %alloc_16[%c13, %c6] : memref<14x14xf16>, vector<16x14xf16>
        %321 = vector.shuffle %172, %172 [0, 2, 4, 5, 6, 7, 8, 10, 13, 14, 16, 18, 19, 22, 23, 25, 27, 29, 30] : vector<16x14xi32>, vector<16x14xi32>
        %322 = arith.addf %in_36, %in_37 : f32
        %323 = math.ctpop %21 : tensor<i1>
      }
      %290 = math.roundeven %in_37 : f32
      %291 = arith.cmpf uge, %cst_0, %in_36 : f32
      %292 = vector.extract_strided_slice %66 {offsets = [13], sizes = [3], strides = [1]} : vector<16xf32> to vector<3xf32>
      %293 = math.absf %in_36 : f32
      %294 = vector.splat %c10 : vector<16x11xindex>
      %295 = vector.shuffle %94, %26 [3, 4, 5, 6, 7, 8, 9, 13, 17, 20] : vector<8x11xi1>, vector<16x11xi1>
      %296 = vector.multi_reduction <maxf>, %104, %104 [] : vector<13xf16> to vector<13xf16>
      %297 = arith.remui %true_1, %211 : i1
      %inserted_39 = tensor.insert %cst_2 into %5[%c10, %c10] : tensor<16x14xf16>
      %298 = math.ctlz %87 : tensor<16x14xi32>
      %dest_40, %accumulated_value_41 = vector.scan <maxsi>, %136, %227 {inclusive = false, reduction_dim = 0 : i64} : vector<5x11xi1>, vector<11xi1>
      %299 = math.tanh %17 : tensor<16x14xf16>
      %300 = arith.cmpi ule, %c18917_i16, %78 : i16
      %301 = math.fpowi %15, %24 : tensor<16x11x14xf32>, tensor<16x11x14xi32>
      %302 = memref.atomic_rmw maxf %cst_0, %122[%c5, %c10] : (f32, memref<16x14xf32>) -> f32
      memref.assume_alignment %alloc_5, 2 : memref<16x11x14xf16>
      %303 = arith.remui %c1313612593_i64, %c1508905138_i64 : i64
      %304 = arith.minui %c766674261_i32, %c928860611_i32 : i32
      %305 = math.rsqrt %14 : tensor<14x14xf16>
      %306 = vector.insertelement %in_37, %228[%rank_21 : index] : vector<11xf32>
      %false_42 = arith.constant false
      %307 = vector.transfer_read %9[%108, %146], %false_42 : tensor<16x11xi1>, vector<i1>
      linalg.yield %cst_0 : f32
    } -> tensor<16x11x14xf32>
    %262 = bufferization.to_memref %27 : memref<14x14xi1>
    %263 = affine.max affine_map<(d0, d1) -> (d1 ceildiv 16, d0 + d1 - d0, d0 + 24, d0 + d1 + 8)>(%253, %198)
    %264 = affine.apply affine_map<(d0) -> (((-(d0 ceildiv 64)) floordiv 8) * 8)>(%115)
    %265 = index.castu %c1508905138_i64 : i64 to index
    %266 = index.add %rank_21, %127
    %267 = vector.maskedload %alloc_5[%c1, %c9, %c8], %187, %99 : memref<16x11x14xf16>, vector<13xi1>, vector<13xf16> into vector<13xf16>
    %268 = memref.alloca_scope  -> (i1) {
      %alloc_36 = memref.alloc() : memref<11x13xi1>
      %283 = tensor.empty() : tensor<16x13xi1>
      %284 = linalg.matmul ins(%9, %alloc_36 : tensor<16x11xi1>, memref<11x13xi1>) outs(%283 : tensor<16x13xi1>) -> tensor<16x13xi1>
      %285 = tensor.empty() : tensor<16x11xi1>
      %286 = tensor.empty() : tensor<14x14xi64>
      %287 = tensor.empty() : tensor<16x14xi64>
      %288 = linalg.matmul ins(%3, %286 : tensor<16x14xi64>, tensor<14x14xi64>) outs(%287 : tensor<16x14xi64>) -> tensor<16x14xi64>
      scf.index_switch %251 
      case 1 {
        %312 = vector.insertelement %cst, %140[%155 : index] : vector<14xf16>
        %313 = vector.broadcast %cst_0 : f32 to vector<16x11x14xf32>
        %true_39 = index.bool.constant true
        %314 = vector.broadcast %cst_2 : f16 to vector<f16>
        %315 = vector.transfer_write %314, %14[%59, %c0] : vector<f16>, tensor<14x14xf16>
        %316 = arith.addi %true_1, %true_27 : i1
        %317 = arith.divf %cst_0, %cst_0 : f32
        %318 = vector.contract {indexing_maps = [affine_map<(d0) -> (d0)>, affine_map<(d0) -> (d0)>, affine_map<(d0) -> ()>], iterator_types = ["reduction"], kind = #vector.kind<maxf>} %99, %267, %cst : vector<13xf16>, vector<13xf16> into f16
        %319 = math.ctlz %6 : tensor<16x11x14xi16>
        %320 = memref.atomic_rmw addf %cst_2, %alloc_4[%c7, %c10] : (f16, memref<16x14xf16>) -> f16
        %321 = affine.apply affine_map<(d0, d1, d2, d3) -> (d0)>(%218, %rank_32, %158, %c0)
        %322 = index.add %115, %234
        %323 = arith.minsi %c18917_i16, %78 : i16
        %324 = arith.shrsi %c928860611_i32, %c1581681977_i32 : i32
        %325 = memref.realloc %alloc_19 : memref<14xi1> to memref<13xi1>
        %326 = vector.splat %c1508905138_i64 : vector<16x11xi64>
        %327 = arith.ceildivsi %c644607405_i32, %c928860611_i32 : i32
        scf.yield
      }
      case 2 {
        %312 = vector.broadcast %true_1 : i1 to vector<14x14xi1>
        %313 = vector.outerproduct %141, %141, %312 {kind = #vector.kind<mul>} : vector<14xi1>, vector<14xi1>
        %314 = tensor.empty() : tensor<11x13xi32>
        %315 = tensor.empty() : tensor<16x13xi32>
        %316 = linalg.matmul ins(%230, %314 : tensor<16x11xi32>, tensor<11x13xi32>) outs(%315 : tensor<16x13xi32>) -> tensor<16x13xi32>
        memref.assume_alignment %alloc_12, 8 : memref<16x14xi32>
        %317 = arith.mulf %cst, %cst : f16
        %318 = vector.broadcast %c-23065_i16 : i16 to vector<16x11xi16>
        %319 = vector.gather %alloc_14[%62, %265] [%186], %26, %318 : memref<16x11xi16>, vector<16x11xi32>, vector<16x11xi1>, vector<16x11xi16> into vector<16x11xi16>
        %320 = index.casts %true_27 : i1 to index
        %321 = math.log10 %collapsed_24 : tensor<224xf32>
        %322 = arith.minsi %c1508905138_i64, %c614314845_i64 : i64
        memref.assume_alignment %116, 8 : memref<14x14xi32>
        %323 = arith.ceildivsi %c1199270634_i64, %c1_i64 : i64
        bufferization.dealloc_tensor %105 : tensor<16x14xf16>
        %alloc_39 = memref.alloc() : memref<14x14xf32>
        %324 = vector.broadcast %cst_0 : f32 to vector<16x11x14xf32>
        %325 = vector.broadcast %true_27 : i1 to vector<16x11x14xi1>
        %326 = vector.broadcast %160 : i32 to vector<16x11x14xi32>
        %327 = vector.gather %alloc_39[%134, %82] [%326], %325, %324 : memref<14x14xf32>, vector<16x11x14xi32>, vector<16x11x14xi1>, vector<16x11x14xf32> into vector<16x11x14xf32>
        %c19828_i16 = arith.constant 19828 : i16
        %328 = vector.broadcast %c1199270634_i64 : i64 to vector<16x11x14xi64>
        %splat = tensor.splat %c1508905138_i64 : tensor<14x14xi64>
        %329 = vector.broadcast %160 : i32 to vector<16xi32>
        %330 = vector.maskedload %alloc_12[%c15, %c6], %182, %329 : memref<16x14xi32>, vector<16xi1>, vector<16xi32> into vector<16xi32>
        scf.yield
      }
      case 3 {
        %312 = vector.extract_strided_slice %39 {offsets = [1], sizes = [5], strides = [1]} : vector<16x14xf32> to vector<5x14xf32>
        %313 = tensor.empty() : tensor<224xi32>
        %314 = math.fpowi %collapsed_24, %313 : tensor<224xf32>, tensor<224xi32>
        %315 = bufferization.clone %229 : memref<16x14xf32> to memref<16x14xf32>
        %316 = index.maxu %146, %c11
        %317 = arith.cmpf une, %cst_0, %cst_0 : f32
        %318 = arith.addi %c-23065_i16, %78 : i16
        %319 = bufferization.clone %alloc_10 : memref<14x14xi32> to memref<14x14xi32>
        %320 = arith.addf %cst, %cst_2 : f16
        %321 = math.copysign %12, %12 : tensor<16x14xf32>
        %322 = arith.divf %cst_0, %cst_0 : f32
        %323 = vector.extract_strided_slice %172 {offsets = [4], sizes = [12], strides = [1]} : vector<16x14xi32> to vector<12x14xi32>
        %324 = arith.shrsi %true_1, %true_1 : i1
        %325 = tensor.empty() : tensor<14x14xf16>
        %326 = linalg.matmul ins(%14, %145 : tensor<14x14xf16>, tensor<14x14xf16>) outs(%325 : tensor<14x14xf16>) -> tensor<14x14xf16>
        %327 = math.absf %cst_2 : f16
        %328 = arith.addf %cst, %cst : f16
        %329 = memref.atomic_rmw andi %c928860611_i32, %69[%c1, %c12] : (i32, memref<14x14xi32>) -> i32
        scf.yield
      }
      default {
        %312 = arith.divsi %c-23065_i16, %c18917_i16 : i16
        %313 = math.tanh %15 : tensor<16x11x14xf32>
        %314 = math.expm1 %5 : tensor<16x14xf16>
        %315 = arith.remui %c1508905138_i64, %c1508905138_i64 : i64
        %316 = math.ctlz %8 : tensor<16x14xi1>
        %317 = vector.insertelement %cst_0, %226[%30 : index] : vector<11xf32>
        %318 = math.roundeven %105 : tensor<16x14xf16>
        %319 = arith.maxf %cst, %cst_2 : f16
        %320 = bufferization.to_memref %collapsed_24 : memref<224xf32>
        %from_elements_39 = tensor.from_elements %c18917_i16, %c18917_i16, %c-23065_i16, %c18917_i16, %c-23065_i16, %c-23065_i16, %c-23065_i16, %78, %c18917_i16, %c-23065_i16, %c-23065_i16, %78, %c-23065_i16, %c18917_i16, %78, %c18917_i16, %c-23065_i16, %c-23065_i16, %c18917_i16, %c18917_i16, %c18917_i16, %c-23065_i16, %c-23065_i16, %c18917_i16, %78, %c18917_i16, %c-23065_i16, %c-23065_i16, %c-23065_i16, %c-23065_i16, %c18917_i16, %c18917_i16, %c18917_i16, %c18917_i16, %78, %c18917_i16, %78, %78, %c-23065_i16, %c-23065_i16, %78, %c18917_i16, %c18917_i16, %c-23065_i16, %c18917_i16, %78, %78, %c-23065_i16, %c-23065_i16, %78, %c-23065_i16, %c18917_i16, %78, %c-23065_i16, %c18917_i16, %78, %c-23065_i16, %c18917_i16, %c18917_i16, %78, %c18917_i16, %78, %c-23065_i16, %c18917_i16, %c-23065_i16, %c-23065_i16, %c-23065_i16, %c-23065_i16, %c18917_i16, %c-23065_i16, %c-23065_i16, %c18917_i16, %c18917_i16, %78, %c-23065_i16, %78, %c-23065_i16, %c-23065_i16, %78, %c18917_i16, %78, %c-23065_i16, %c-23065_i16, %78, %78, %c-23065_i16, %c-23065_i16, %78, %c-23065_i16, %c18917_i16, %78, %c18917_i16, %c18917_i16, %78, %78, %c-23065_i16, %c18917_i16, %c18917_i16, %78, %c-23065_i16, %78, %c18917_i16, %c18917_i16, %78, %c-23065_i16, %78, %c-23065_i16, %78, %c-23065_i16, %c-23065_i16, %78, %78, %c18917_i16, %c18917_i16, %78, %c-23065_i16, %c-23065_i16, %c18917_i16, %78, %c-23065_i16, %c-23065_i16, %c-23065_i16, %c18917_i16, %c-23065_i16, %c-23065_i16, %78, %78, %c-23065_i16, %c-23065_i16, %c18917_i16, %c-23065_i16, %78, %c-23065_i16, %c18917_i16, %78, %78, %78, %78, %c18917_i16, %c18917_i16, %c18917_i16, %c-23065_i16, %78, %c18917_i16, %c18917_i16, %c-23065_i16, %c-23065_i16, %c-23065_i16, %c-23065_i16, %c18917_i16, %c18917_i16, %78, %78, %c18917_i16, %c-23065_i16, %c18917_i16, %c18917_i16, %c18917_i16, %c18917_i16, %c-23065_i16, %78, %c-23065_i16, %78, %78, %c18917_i16, %78, %c-23065_i16, %c18917_i16, %c-23065_i16, %c18917_i16, %78, %c-23065_i16, %c-23065_i16, %c-23065_i16, %78, %c18917_i16, %c-23065_i16, %c18917_i16, %78, %c18917_i16, %c-23065_i16, %78, %c-23065_i16, %c18917_i16, %c-23065_i16, %c18917_i16, %c18917_i16, %c18917_i16, %78, %c18917_i16, %c18917_i16, %78, %78, %c18917_i16, %c18917_i16, %c18917_i16, %c18917_i16, %c-23065_i16, %78, %78, %c-23065_i16, %c18917_i16, %c-23065_i16, %78, %c-23065_i16, %78, %c-23065_i16, %78, %c-23065_i16, %c18917_i16, %c18917_i16, %78, %c-23065_i16, %c18917_i16, %c-23065_i16, %78, %78, %78, %c-23065_i16, %78, %c-23065_i16, %c18917_i16, %c18917_i16, %c-23065_i16, %c-23065_i16, %c-23065_i16, %78, %78, %78, %78, %78, %78, %c18917_i16, %c18917_i16, %78, %c-23065_i16, %78, %78, %78, %c-23065_i16, %c18917_i16, %78, %c18917_i16, %c18917_i16, %78, %c-23065_i16, %c-23065_i16, %c-23065_i16, %c18917_i16, %c-23065_i16, %c18917_i16, %78, %c18917_i16, %c18917_i16, %c-23065_i16, %c18917_i16, %c18917_i16, %78, %c-23065_i16, %c-23065_i16, %78, %78, %78, %c-23065_i16, %c18917_i16, %78, %c-23065_i16, %c-23065_i16, %c-23065_i16, %c18917_i16, %c-23065_i16, %78, %c18917_i16, %c-23065_i16, %78, %c-23065_i16, %c-23065_i16, %78, %c18917_i16, %c-23065_i16, %c18917_i16, %c18917_i16, %c-23065_i16, %c18917_i16, %c18917_i16, %78, %c18917_i16, %78, %78, %78, %c-23065_i16, %c-23065_i16, %c-23065_i16, %c-23065_i16, %78, %c18917_i16, %78, %c-23065_i16, %78, %c18917_i16, %78, %78, %c18917_i16, %c-23065_i16, %c-23065_i16, %c-23065_i16, %78, %c18917_i16, %c-23065_i16, %c18917_i16, %78, %c18917_i16, %c18917_i16, %78, %c18917_i16, %c18917_i16, %c-23065_i16, %78, %78, %78, %c18917_i16, %c18917_i16, %c18917_i16, %78, %c18917_i16, %78, %c18917_i16, %c-23065_i16, %c18917_i16, %c18917_i16, %c-23065_i16, %78, %c18917_i16, %c-23065_i16, %78, %c18917_i16, %78, %c-23065_i16, %78, %c-23065_i16, %78, %c18917_i16, %c-23065_i16, %c-23065_i16, %c18917_i16, %c18917_i16, %c-23065_i16, %c18917_i16, %c-23065_i16, %c18917_i16, %78, %c18917_i16, %c-23065_i16, %c-23065_i16, %c18917_i16, %c-23065_i16, %c-23065_i16, %c-23065_i16, %c18917_i16, %c-23065_i16, %c-23065_i16, %c18917_i16, %c18917_i16, %c-23065_i16, %c-23065_i16, %78, %78, %c-23065_i16, %c18917_i16, %c-23065_i16, %c18917_i16, %78, %c-23065_i16, %c-23065_i16, %c18917_i16, %78, %c18917_i16, %c18917_i16, %78, %78, %78, %78, %c-23065_i16, %c18917_i16, %78, %c-23065_i16, %78, %c18917_i16, %78, %78, %78, %c-23065_i16, %78, %78, %78, %c-23065_i16, %c-23065_i16, %78, %78, %c-23065_i16, %78, %c-23065_i16, %c-23065_i16, %c18917_i16, %c18917_i16, %c-23065_i16, %c-23065_i16, %78, %c-23065_i16, %78, %c-23065_i16, %78, %78, %c-23065_i16, %c18917_i16, %78, %c18917_i16, %c-23065_i16, %c-23065_i16, %c18917_i16, %c18917_i16, %78, %c18917_i16, %c-23065_i16, %c-23065_i16, %78, %c18917_i16, %c18917_i16, %78, %c-23065_i16, %c18917_i16, %c-23065_i16, %c-23065_i16, %c18917_i16, %c-23065_i16, %c-23065_i16, %78, %c-23065_i16, %78, %c18917_i16, %c18917_i16, %c18917_i16, %c18917_i16, %c18917_i16, %c-23065_i16, %78, %c18917_i16, %c18917_i16, %c18917_i16, %c18917_i16, %c-23065_i16, %c18917_i16, %c-23065_i16, %c18917_i16, %78, %c18917_i16, %c18917_i16, %c-23065_i16, %c-23065_i16, %c18917_i16, %c18917_i16, %c18917_i16, %c-23065_i16, %c-23065_i16, %c18917_i16, %c18917_i16, %78, %c-23065_i16, %c18917_i16, %c-23065_i16, %c-23065_i16, %c18917_i16, %c-23065_i16, %c18917_i16, %78, %78, %c-23065_i16, %c-23065_i16, %78, %c-23065_i16, %c-23065_i16, %c18917_i16, %78, %c18917_i16, %78, %c18917_i16, %c18917_i16, %78, %c18917_i16, %c18917_i16, %c-23065_i16, %78, %c-23065_i16, %c-23065_i16, %c18917_i16, %c18917_i16, %c18917_i16, %78, %78, %78, %c-23065_i16, %c18917_i16, %78, %78, %c-23065_i16, %c-23065_i16, %c-23065_i16, %78, %c-23065_i16, %c18917_i16, %c-23065_i16, %c18917_i16, %c-23065_i16, %c-23065_i16, %78, %c18917_i16, %78, %c18917_i16, %78, %c-23065_i16, %c-23065_i16, %c18917_i16, %c18917_i16, %c-23065_i16, %c18917_i16, %c18917_i16, %c18917_i16, %78, %c-23065_i16, %c18917_i16, %c-23065_i16, %78, %78, %c18917_i16, %c-23065_i16, %78, %c18917_i16, %78, %78, %c-23065_i16, %78, %c-23065_i16, %c-23065_i16, %78, %78, %c-23065_i16, %c18917_i16, %c-23065_i16, %c-23065_i16, %c18917_i16, %c18917_i16, %78, %c18917_i16, %78, %c-23065_i16, %78, %c-23065_i16, %c-23065_i16, %78, %c18917_i16, %78, %c-23065_i16, %78, %c-23065_i16, %78, %c18917_i16, %78, %c-23065_i16, %78, %c-23065_i16, %c18917_i16, %78, %c-23065_i16, %c18917_i16, %78, %78, %c-23065_i16, %78, %78, %c18917_i16, %c18917_i16, %c-23065_i16, %78, %c-23065_i16, %c-23065_i16, %c18917_i16, %c18917_i16, %c18917_i16, %78, %c-23065_i16, %78, %c-23065_i16, %c-23065_i16, %c-23065_i16, %c-23065_i16, %c18917_i16, %c18917_i16, %78, %c-23065_i16, %c-23065_i16, %c-23065_i16, %c18917_i16, %c18917_i16, %c18917_i16, %78, %c-23065_i16, %c-23065_i16, %c-23065_i16, %78, %78, %c-23065_i16, %c-23065_i16, %78, %78, %c18917_i16, %c-23065_i16, %c-23065_i16, %78, %c18917_i16, %c-23065_i16, %c18917_i16, %c18917_i16, %78, %c-23065_i16, %c-23065_i16, %78, %c18917_i16, %78, %78, %c18917_i16, %c-23065_i16, %78, %c-23065_i16, %c18917_i16, %78, %78, %c-23065_i16, %c-23065_i16, %c-23065_i16, %78, %c18917_i16, %c-23065_i16, %78, %78, %c18917_i16, %c18917_i16, %c18917_i16, %c-23065_i16, %c18917_i16, %78, %c18917_i16, %c18917_i16, %c-23065_i16, %78, %78, %c18917_i16, %78, %c18917_i16, %78, %c18917_i16, %78, %c18917_i16, %c18917_i16, %c-23065_i16, %c18917_i16, %78, %c-23065_i16, %78, %c-23065_i16, %78, %c18917_i16, %c-23065_i16, %78, %c-23065_i16, %c18917_i16, %78, %c-23065_i16, %78, %78, %78, %c18917_i16, %c-23065_i16, %78, %c18917_i16, %c18917_i16, %c-23065_i16, %c18917_i16, %c18917_i16, %c18917_i16, %c18917_i16, %c18917_i16, %78, %c18917_i16, %c-23065_i16, %c-23065_i16, %c-23065_i16, %c18917_i16, %c-23065_i16, %c18917_i16, %c18917_i16, %c-23065_i16, %c-23065_i16, %78, %c-23065_i16, %c18917_i16, %c18917_i16, %78, %78, %c-23065_i16, %c18917_i16, %c18917_i16, %78, %78, %c-23065_i16, %c18917_i16, %c-23065_i16, %78, %c-23065_i16, %c-23065_i16, %c18917_i16, %c18917_i16, %78, %c18917_i16, %c-23065_i16, %c-23065_i16, %c18917_i16, %c18917_i16, %78, %78, %78, %78, %78, %c18917_i16, %78, %78, %c18917_i16, %78, %c18917_i16, %c18917_i16, %c18917_i16, %78, %78, %c-23065_i16, %78, %78, %78, %c18917_i16, %78, %c18917_i16, %c18917_i16, %c18917_i16, %c-23065_i16, %78, %c18917_i16, %c18917_i16, %c18917_i16, %c18917_i16, %c-23065_i16, %78, %c18917_i16, %c18917_i16, %78, %c18917_i16, %c18917_i16, %c18917_i16, %78, %c-23065_i16, %c18917_i16, %78, %c18917_i16, %c-23065_i16, %c18917_i16, %78, %78, %c-23065_i16, %c-23065_i16, %78, %c-23065_i16, %c18917_i16, %c18917_i16, %78, %c18917_i16, %78, %c18917_i16, %c18917_i16, %c18917_i16, %c18917_i16, %c18917_i16, %78, %c-23065_i16, %78, %c18917_i16, %78, %c-23065_i16, %78, %c-23065_i16, %c-23065_i16, %78, %c-23065_i16, %c18917_i16, %c-23065_i16, %78, %78, %c-23065_i16, %c-23065_i16, %c-23065_i16, %c18917_i16, %78, %c18917_i16, %78, %c-23065_i16, %c18917_i16, %c-23065_i16, %78, %c-23065_i16, %78, %c-23065_i16, %c18917_i16, %c-23065_i16, %c18917_i16, %c-23065_i16, %78, %c-23065_i16, %c-23065_i16, %78, %78, %c-23065_i16, %c-23065_i16, %c18917_i16, %78, %c18917_i16, %c-23065_i16, %c18917_i16, %c-23065_i16, %c-23065_i16, %c-23065_i16, %c-23065_i16, %c-23065_i16, %c-23065_i16, %c-23065_i16, %78, %78, %78, %78, %78, %c-23065_i16, %78, %c18917_i16, %c-23065_i16, %c18917_i16, %c-23065_i16, %c18917_i16, %78, %78, %c-23065_i16, %c18917_i16, %c-23065_i16, %c18917_i16, %78, %c-23065_i16, %78, %c18917_i16, %78, %c-23065_i16, %78, %78, %c-23065_i16, %78, %c-23065_i16, %c18917_i16, %c18917_i16, %c18917_i16, %c18917_i16, %c-23065_i16, %c-23065_i16, %78, %78, %78, %c18917_i16, %c-23065_i16, %78, %78, %c18917_i16, %c18917_i16, %78, %78, %c-23065_i16, %c18917_i16, %c18917_i16, %78, %c18917_i16, %c-23065_i16, %78, %c-23065_i16, %78, %78, %78, %c-23065_i16, %78, %78, %78, %c18917_i16, %78, %c18917_i16, %c-23065_i16, %78, %c18917_i16, %c-23065_i16, %78, %c18917_i16, %c18917_i16, %c-23065_i16, %c18917_i16, %c-23065_i16, %c-23065_i16, %78, %78, %78, %c-23065_i16, %78, %c-23065_i16, %c-23065_i16, %c18917_i16, %78, %c-23065_i16, %78, %c18917_i16, %c-23065_i16, %c-23065_i16, %c18917_i16, %c18917_i16, %c18917_i16, %c-23065_i16, %78, %c18917_i16, %c18917_i16, %c18917_i16, %78, %78, %c18917_i16, %78, %c-23065_i16, %c-23065_i16, %78, %78, %78, %c18917_i16, %c18917_i16, %78, %78, %78, %78, %c18917_i16, %c18917_i16, %c-23065_i16, %c18917_i16, %c-23065_i16, %78, %78, %78, %c-23065_i16, %c-23065_i16, %c18917_i16, %c-23065_i16, %c18917_i16, %c-23065_i16, %c18917_i16, %c18917_i16, %c-23065_i16, %c18917_i16, %78, %c18917_i16, %c-23065_i16, %78, %c18917_i16, %c18917_i16, %c18917_i16, %c18917_i16, %78, %78, %78, %c18917_i16, %78, %c18917_i16, %c-23065_i16, %78, %78, %c18917_i16, %c-23065_i16, %c18917_i16, %c-23065_i16, %c18917_i16, %78, %c-23065_i16, %c18917_i16, %78, %78, %c-23065_i16, %c18917_i16, %c18917_i16, %78, %c18917_i16, %78, %c18917_i16, %78, %c-23065_i16, %78, %78, %78, %c-23065_i16, %78, %78, %c18917_i16, %c18917_i16, %78, %c18917_i16, %c18917_i16, %c18917_i16, %78, %c18917_i16, %c-23065_i16, %c18917_i16, %c18917_i16, %78, %78, %c-23065_i16, %c18917_i16, %78, %c18917_i16, %c-23065_i16, %c-23065_i16, %c-23065_i16, %c18917_i16, %78, %c18917_i16, %c-23065_i16, %c-23065_i16, %78, %78, %78, %c18917_i16, %c18917_i16, %c-23065_i16, %78, %c-23065_i16, %c18917_i16, %c18917_i16, %78, %78, %78, %c18917_i16, %c18917_i16, %78, %c-23065_i16, %c18917_i16, %c18917_i16, %78, %c18917_i16, %c18917_i16, %c-23065_i16, %c18917_i16, %78, %c18917_i16, %c-23065_i16, %c-23065_i16, %c-23065_i16, %c-23065_i16, %c18917_i16, %c-23065_i16, %78, %78, %c18917_i16, %78, %c-23065_i16, %c18917_i16, %c18917_i16, %c18917_i16, %78, %c18917_i16, %78, %c18917_i16, %c18917_i16, %78, %c-23065_i16, %c18917_i16, %78, %c-23065_i16, %78, %c-23065_i16, %c18917_i16, %78, %c18917_i16, %c-23065_i16, %c18917_i16, %c-23065_i16, %c-23065_i16, %c-23065_i16, %c18917_i16, %c18917_i16, %78, %c-23065_i16, %c-23065_i16, %c-23065_i16, %78, %78, %c-23065_i16, %c-23065_i16, %c18917_i16, %78, %78, %c18917_i16, %c18917_i16, %78, %c18917_i16, %c18917_i16, %c-23065_i16, %c18917_i16, %c18917_i16, %c18917_i16, %78, %c18917_i16, %c18917_i16, %78, %c18917_i16, %78, %c-23065_i16, %c18917_i16, %c-23065_i16, %78, %c-23065_i16, %c18917_i16, %c-23065_i16, %c18917_i16, %c18917_i16, %c18917_i16, %c18917_i16, %78, %c18917_i16, %78, %78, %c18917_i16, %78, %c-23065_i16, %c-23065_i16, %78, %c18917_i16, %c-23065_i16, %78, %78, %c18917_i16, %c18917_i16, %78, %78, %78, %c18917_i16, %c-23065_i16, %78, %c-23065_i16, %c18917_i16, %c18917_i16, %78, %c-23065_i16, %c18917_i16, %78, %c-23065_i16, %78, %c-23065_i16, %78, %78, %c18917_i16, %c18917_i16, %c-23065_i16, %78, %78, %78, %c18917_i16, %c-23065_i16, %c18917_i16, %c18917_i16, %78, %c18917_i16, %78, %c18917_i16, %c18917_i16, %c-23065_i16, %c-23065_i16, %78, %c18917_i16, %c18917_i16, %c18917_i16, %c18917_i16, %78, %78, %c18917_i16, %c18917_i16, %c-23065_i16, %c18917_i16, %c-23065_i16, %c18917_i16, %c-23065_i16, %c18917_i16, %78, %c-23065_i16, %78, %78, %c18917_i16, %c-23065_i16, %c18917_i16, %c18917_i16, %c18917_i16, %78, %c18917_i16, %c-23065_i16, %78, %c18917_i16, %c-23065_i16, %78, %c-23065_i16, %c18917_i16, %c-23065_i16, %c-23065_i16, %c-23065_i16, %c-23065_i16, %c-23065_i16, %c-23065_i16, %c18917_i16, %c18917_i16, %78, %c-23065_i16, %c18917_i16, %78, %78, %c18917_i16, %c18917_i16, %c18917_i16, %c18917_i16, %78, %c18917_i16, %c18917_i16, %78, %c18917_i16, %c-23065_i16, %78, %c18917_i16, %c-23065_i16, %78, %c18917_i16, %78, %c18917_i16, %78, %c-23065_i16, %78, %78, %c-23065_i16, %c18917_i16, %c-23065_i16, %c18917_i16, %c-23065_i16, %c18917_i16, %c-23065_i16, %c-23065_i16, %c-23065_i16, %c-23065_i16, %78, %c18917_i16, %c-23065_i16, %c-23065_i16, %c18917_i16, %78, %c-23065_i16, %c-23065_i16, %c-23065_i16, %c-23065_i16, %c18917_i16, %78, %c-23065_i16, %c-23065_i16, %78, %c-23065_i16, %c18917_i16, %78, %c18917_i16, %78, %c-23065_i16, %c18917_i16, %78, %c-23065_i16, %c18917_i16, %c-23065_i16, %c-23065_i16, %c-23065_i16, %c-23065_i16, %c18917_i16, %78, %c-23065_i16, %c18917_i16, %c-23065_i16, %c-23065_i16, %c-23065_i16, %c18917_i16, %c18917_i16, %c18917_i16, %78, %c18917_i16, %c-23065_i16, %78, %c18917_i16, %78, %c-23065_i16, %c-23065_i16, %c18917_i16, %c-23065_i16, %78, %78, %c-23065_i16, %78, %c18917_i16, %c18917_i16, %c18917_i16, %c-23065_i16, %c18917_i16, %c18917_i16, %78, %c-23065_i16, %c18917_i16, %c-23065_i16, %78, %78, %78, %78, %78, %c-23065_i16, %c-23065_i16, %c18917_i16, %78, %c-23065_i16, %c-23065_i16, %c18917_i16, %78, %c18917_i16, %c-23065_i16, %c-23065_i16, %c-23065_i16, %78, %c-23065_i16, %c18917_i16, %78, %c18917_i16, %c18917_i16, %c-23065_i16, %78, %78, %c-23065_i16, %c-23065_i16, %78, %c-23065_i16, %c-23065_i16, %c-23065_i16, %c-23065_i16, %c18917_i16, %c-23065_i16, %78, %c-23065_i16, %c-23065_i16, %c-23065_i16, %c-23065_i16, %c-23065_i16, %c18917_i16, %78, %c-23065_i16, %c18917_i16, %c18917_i16, %78, %c18917_i16, %c18917_i16, %c-23065_i16, %78, %c-23065_i16, %c18917_i16, %c-23065_i16, %78, %78, %c-23065_i16, %c18917_i16, %78, %c-23065_i16, %c18917_i16, %c18917_i16, %78, %c-23065_i16, %c-23065_i16, %78, %c18917_i16, %c-23065_i16, %c18917_i16, %78, %c18917_i16, %c18917_i16, %c-23065_i16, %c18917_i16, %c-23065_i16, %c-23065_i16, %c18917_i16, %c-23065_i16, %c-23065_i16, %78, %c-23065_i16, %78, %c18917_i16, %c18917_i16, %78, %c18917_i16, %78, %c-23065_i16, %c18917_i16, %c18917_i16, %c-23065_i16, %c-23065_i16, %c-23065_i16, %78, %c18917_i16, %c18917_i16, %c-23065_i16, %c-23065_i16, %78, %c-23065_i16, %c18917_i16, %78, %c-23065_i16, %78, %c-23065_i16, %c-23065_i16, %c-23065_i16, %78, %78, %c-23065_i16, %c18917_i16, %78, %78, %c18917_i16, %c-23065_i16, %c18917_i16, %c-23065_i16, %c-23065_i16, %c-23065_i16, %78, %c18917_i16, %c-23065_i16, %c-23065_i16, %c-23065_i16, %c-23065_i16, %c-23065_i16, %78, %78, %78, %78, %c-23065_i16, %c18917_i16, %c18917_i16, %c-23065_i16, %c18917_i16, %78, %c18917_i16, %78, %c-23065_i16, %c18917_i16, %c18917_i16, %c-23065_i16, %c-23065_i16, %78, %c18917_i16, %c18917_i16, %c-23065_i16, %c-23065_i16, %c18917_i16, %78, %78, %78, %78, %c-23065_i16, %78, %78, %c18917_i16, %c18917_i16, %78, %c-23065_i16, %78, %c18917_i16, %c-23065_i16, %78, %78, %78, %78, %78, %78, %c-23065_i16, %c-23065_i16, %78, %78, %c18917_i16, %c18917_i16, %c-23065_i16, %78, %c18917_i16, %c18917_i16, %c-23065_i16, %c18917_i16, %c-23065_i16, %c18917_i16, %c18917_i16, %78, %c18917_i16, %78, %c-23065_i16, %78, %c18917_i16, %c-23065_i16, %c18917_i16, %c18917_i16, %c18917_i16, %78, %c18917_i16, %78, %c-23065_i16, %c18917_i16, %78, %c18917_i16, %c18917_i16, %c18917_i16, %c-23065_i16, %c-23065_i16, %c-23065_i16, %78, %78, %c-23065_i16, %c18917_i16, %c-23065_i16, %78, %78, %c18917_i16, %78, %c-23065_i16, %78, %78, %78, %c18917_i16, %c-23065_i16, %c-23065_i16, %78, %78, %c18917_i16, %c18917_i16, %78, %c-23065_i16, %c18917_i16, %c-23065_i16, %c18917_i16, %c18917_i16, %c-23065_i16, %c18917_i16, %78, %78, %c18917_i16, %c-23065_i16, %c-23065_i16, %78, %c18917_i16, %78, %c-23065_i16, %78, %78, %78, %c18917_i16, %c-23065_i16, %c18917_i16, %c-23065_i16, %c-23065_i16, %c18917_i16, %c-23065_i16, %c18917_i16, %78, %c18917_i16, %78, %78, %c-23065_i16, %c18917_i16, %c-23065_i16, %78, %c18917_i16, %78, %c18917_i16, %78, %c-23065_i16, %c18917_i16, %c-23065_i16, %c-23065_i16, %c18917_i16, %78, %c-23065_i16, %78, %78, %78, %c18917_i16, %c-23065_i16, %78, %78, %c-23065_i16, %78, %c-23065_i16, %c-23065_i16, %78, %c-23065_i16, %c18917_i16, %c18917_i16, %78, %c-23065_i16, %78, %78, %c18917_i16, %c-23065_i16, %c18917_i16, %c-23065_i16, %78, %78, %c18917_i16, %c-23065_i16, %c18917_i16, %c18917_i16, %78, %c18917_i16, %78, %c-23065_i16, %78, %78, %c18917_i16, %78, %c18917_i16, %c-23065_i16, %c18917_i16, %c-23065_i16, %c-23065_i16, %c-23065_i16, %78, %c-23065_i16, %c18917_i16, %c-23065_i16, %c-23065_i16, %c-23065_i16, %c-23065_i16, %c18917_i16, %78, %c-23065_i16, %c-23065_i16, %c18917_i16, %78, %c-23065_i16, %78, %c-23065_i16, %78, %78, %78, %c18917_i16, %c-23065_i16, %c-23065_i16, %78, %78, %c18917_i16, %c-23065_i16, %78, %78, %78, %78, %c-23065_i16, %78, %c-23065_i16, %78, %c18917_i16, %c-23065_i16, %c18917_i16, %c-23065_i16, %c-23065_i16, %78, %78, %c18917_i16, %78, %c18917_i16, %c-23065_i16, %78, %c-23065_i16, %c-23065_i16, %78, %c18917_i16, %c-23065_i16, %c-23065_i16, %78, %c-23065_i16, %78, %78, %c-23065_i16, %c-23065_i16, %78, %c18917_i16, %c-23065_i16, %c-23065_i16, %78, %c-23065_i16, %c-23065_i16, %c18917_i16, %c18917_i16, %78, %c-23065_i16, %c18917_i16, %c18917_i16, %78, %78, %78, %78, %c18917_i16, %c-23065_i16, %c18917_i16, %c-23065_i16, %c18917_i16, %c18917_i16, %c-23065_i16, %c-23065_i16, %c-23065_i16, %c-23065_i16, %c18917_i16, %c18917_i16, %c-23065_i16, %c18917_i16, %c-23065_i16, %c-23065_i16, %c-23065_i16, %c18917_i16, %78, %c18917_i16, %c-23065_i16, %c-23065_i16, %c18917_i16, %c-23065_i16, %c-23065_i16, %78, %c18917_i16, %c18917_i16, %78, %78, %c-23065_i16, %c18917_i16, %c18917_i16, %78, %c-23065_i16, %c18917_i16, %78, %78, %78, %78, %c18917_i16, %c-23065_i16, %c18917_i16, %78, %c18917_i16, %78, %78, %78, %c18917_i16, %c18917_i16, %c-23065_i16, %c18917_i16, %c18917_i16, %c-23065_i16, %c-23065_i16, %78, %c-23065_i16, %78, %78, %78, %c18917_i16, %78, %c18917_i16, %78, %c-23065_i16, %78, %c-23065_i16, %c-23065_i16, %78, %c-23065_i16, %c-23065_i16, %78, %c18917_i16, %c-23065_i16, %c-23065_i16, %c18917_i16, %78, %c-23065_i16, %c-23065_i16, %78, %c18917_i16, %c-23065_i16, %c18917_i16, %c18917_i16, %c18917_i16, %78, %c18917_i16, %78, %c-23065_i16, %c18917_i16, %c-23065_i16, %c18917_i16, %c18917_i16, %c18917_i16, %c18917_i16, %78, %c-23065_i16, %78, %c-23065_i16, %c-23065_i16, %c-23065_i16, %c18917_i16, %c18917_i16, %78, %c-23065_i16, %78, %78, %c-23065_i16, %78, %c-23065_i16, %c18917_i16, %c18917_i16, %c18917_i16, %c18917_i16, %78, %78, %c18917_i16, %c-23065_i16, %c-23065_i16, %c18917_i16, %78, %c-23065_i16, %c18917_i16, %c-23065_i16, %c-23065_i16, %c-23065_i16, %c-23065_i16, %c-23065_i16, %c-23065_i16, %c-23065_i16, %78, %c18917_i16, %c18917_i16, %78, %78, %c18917_i16, %78, %c-23065_i16, %c-23065_i16, %c18917_i16, %c18917_i16, %78, %c18917_i16, %c18917_i16, %c18917_i16, %c-23065_i16, %c-23065_i16, %78, %78, %78, %78, %78, %c-23065_i16, %78, %78, %c-23065_i16, %c-23065_i16, %c18917_i16, %c-23065_i16, %c18917_i16, %c-23065_i16, %c-23065_i16, %c18917_i16, %c-23065_i16, %c-23065_i16, %c-23065_i16, %78, %78, %c-23065_i16, %c18917_i16, %78, %c18917_i16, %c18917_i16, %78, %c-23065_i16, %c18917_i16, %c18917_i16, %78, %c-23065_i16, %c-23065_i16, %78, %78, %c-23065_i16, %78, %78, %c-23065_i16, %78, %78, %c-23065_i16, %c18917_i16, %c18917_i16, %78, %c-23065_i16, %78, %78, %c-23065_i16, %c18917_i16, %c18917_i16, %c-23065_i16, %c18917_i16, %c-23065_i16, %c18917_i16, %78, %78, %c-23065_i16, %c-23065_i16, %78, %c-23065_i16, %c18917_i16, %78, %78, %c-23065_i16, %78, %c-23065_i16, %c-23065_i16, %c18917_i16, %c18917_i16, %c18917_i16, %c-23065_i16, %c18917_i16, %78, %c18917_i16, %78, %c-23065_i16, %c-23065_i16, %78, %c18917_i16, %78, %c18917_i16, %c18917_i16, %78, %78, %c18917_i16, %c18917_i16, %78, %c-23065_i16, %78, %c18917_i16, %c18917_i16, %c-23065_i16, %c18917_i16, %c-23065_i16, %c-23065_i16, %78, %c-23065_i16, %c-23065_i16, %c18917_i16, %c18917_i16, %c18917_i16, %78, %78, %c-23065_i16, %78, %78, %c-23065_i16, %c18917_i16, %78, %c-23065_i16, %c18917_i16, %78, %78, %c18917_i16, %c18917_i16, %78, %c-23065_i16, %78, %c18917_i16, %78, %c-23065_i16, %c18917_i16, %78, %c-23065_i16, %c-23065_i16, %c-23065_i16, %c18917_i16, %c-23065_i16, %c-23065_i16, %c-23065_i16, %78, %c-23065_i16, %78, %c18917_i16, %c-23065_i16, %c-23065_i16, %c18917_i16, %c-23065_i16, %78, %c18917_i16, %c18917_i16, %78, %78, %c-23065_i16, %c18917_i16, %c18917_i16, %78, %c18917_i16, %c18917_i16, %78, %78, %c-23065_i16, %c18917_i16, %c18917_i16, %78, %c18917_i16, %c-23065_i16, %c-23065_i16, %78, %78, %78, %78, %78, %c18917_i16, %78, %c18917_i16, %78, %c-23065_i16, %c18917_i16, %c18917_i16, %78, %78, %c-23065_i16, %c18917_i16, %78, %c-23065_i16, %c18917_i16, %78, %c-23065_i16, %c-23065_i16, %c18917_i16, %c18917_i16, %78, %78, %c-23065_i16, %c18917_i16, %c18917_i16, %78, %78, %c-23065_i16, %78, %c-23065_i16, %c18917_i16, %c-23065_i16, %c18917_i16, %c18917_i16, %78, %c18917_i16, %78, %c18917_i16, %c-23065_i16, %78, %c-23065_i16, %78, %c-23065_i16, %78, %78, %78, %78, %c18917_i16, %c-23065_i16, %c18917_i16, %78, %78, %c-23065_i16, %c18917_i16, %c-23065_i16, %c18917_i16, %78, %78, %78, %78, %78, %78, %78, %c18917_i16, %c18917_i16, %78, %78, %c18917_i16, %78, %78, %78, %c-23065_i16, %c18917_i16, %c-23065_i16, %c-23065_i16, %78, %c18917_i16, %c18917_i16, %c-23065_i16, %78, %78, %c18917_i16, %c18917_i16, %c18917_i16, %c-23065_i16, %78, %c-23065_i16, %c18917_i16, %c-23065_i16, %c18917_i16, %78, %c-23065_i16, %c18917_i16, %c18917_i16, %c18917_i16, %c-23065_i16, %78, %c18917_i16, %c18917_i16, %78, %c-23065_i16, %c18917_i16, %78, %c18917_i16, %c18917_i16, %78, %c-23065_i16, %c-23065_i16, %78, %c-23065_i16, %78, %c-23065_i16, %c-23065_i16, %c18917_i16, %c18917_i16, %c-23065_i16, %78, %c18917_i16, %c-23065_i16, %c18917_i16, %c18917_i16, %78, %c-23065_i16, %78, %c-23065_i16, %78, %c18917_i16, %c-23065_i16, %c18917_i16, %c18917_i16, %c-23065_i16, %c-23065_i16, %c18917_i16, %c-23065_i16, %c-23065_i16, %c-23065_i16, %c18917_i16, %c-23065_i16, %78, %c-23065_i16, %78, %78, %78, %78, %c18917_i16, %c-23065_i16, %c-23065_i16, %c18917_i16, %c18917_i16, %78, %c18917_i16, %c-23065_i16, %c-23065_i16, %78, %c18917_i16, %78, %78, %c18917_i16, %78, %78, %c-23065_i16, %c18917_i16, %78, %c18917_i16, %78, %78, %c-23065_i16, %c18917_i16, %78, %c18917_i16, %78, %c-23065_i16, %c-23065_i16, %78, %c18917_i16, %c-23065_i16, %c18917_i16, %c-23065_i16, %c18917_i16, %c-23065_i16, %c18917_i16, %c18917_i16, %c18917_i16, %78, %c-23065_i16, %c18917_i16, %c18917_i16, %c18917_i16, %c-23065_i16, %c18917_i16, %c18917_i16, %78, %78, %c-23065_i16, %c18917_i16, %78, %78, %78, %c-23065_i16, %c18917_i16, %c-23065_i16, %c18917_i16, %c-23065_i16, %c18917_i16, %c-23065_i16, %c18917_i16, %c-23065_i16, %c-23065_i16, %c-23065_i16, %c18917_i16, %78, %78, %c18917_i16, %c-23065_i16, %c-23065_i16, %78, %78, %c-23065_i16, %c18917_i16, %c18917_i16, %c18917_i16, %c-23065_i16, %c18917_i16, %c-23065_i16, %c18917_i16, %78, %c-23065_i16, %c18917_i16, %c18917_i16, %c-23065_i16, %78, %78, %c18917_i16, %c18917_i16, %c18917_i16, %78, %78, %78, %c18917_i16, %c18917_i16, %c-23065_i16, %78, %c18917_i16, %c18917_i16, %c-23065_i16, %c18917_i16, %c18917_i16, %78, %c-23065_i16, %78, %c18917_i16, %78, %78, %c-23065_i16, %c-23065_i16, %78, %c18917_i16, %c-23065_i16, %78, %78, %78, %c18917_i16, %78, %78, %c-23065_i16, %c18917_i16, %c18917_i16, %c-23065_i16, %78, %78, %c18917_i16, %c-23065_i16, %c-23065_i16, %78, %c18917_i16, %78, %78, %c18917_i16, %c-23065_i16, %78, %c18917_i16, %78, %78, %c-23065_i16, %c18917_i16, %78, %c-23065_i16, %78, %c18917_i16, %78, %c18917_i16, %c-23065_i16, %78, %c18917_i16, %c18917_i16, %78, %c-23065_i16, %c-23065_i16, %78, %78, %c18917_i16, %c-23065_i16, %c18917_i16, %c18917_i16, %78, %c18917_i16, %78, %c-23065_i16, %c18917_i16, %78, %c18917_i16, %c18917_i16, %c-23065_i16, %78, %78, %78, %c-23065_i16, %c18917_i16, %c-23065_i16, %c-23065_i16, %c-23065_i16, %c-23065_i16, %c18917_i16, %78, %c18917_i16, %c18917_i16, %c-23065_i16, %c-23065_i16, %78, %78, %78, %c-23065_i16, %c18917_i16, %c-23065_i16, %78, %78, %c18917_i16, %c-23065_i16, %c-23065_i16, %c-23065_i16, %c18917_i16, %c18917_i16, %c-23065_i16, %c18917_i16, %c-23065_i16, %c-23065_i16, %c18917_i16, %78, %78, %c18917_i16, %c-23065_i16, %78, %c-23065_i16, %c18917_i16, %c18917_i16, %c18917_i16, %c-23065_i16, %c-23065_i16, %c18917_i16, %c-23065_i16, %c18917_i16, %78, %c-23065_i16, %78, %78, %78, %c-23065_i16, %c18917_i16, %c-23065_i16, %c-23065_i16, %78, %c18917_i16, %78, %78, %c18917_i16, %c-23065_i16, %78, %c-23065_i16, %c18917_i16, %c18917_i16, %c18917_i16, %c18917_i16, %c-23065_i16, %c-23065_i16, %78, %78, %c-23065_i16, %78, %c-23065_i16, %78, %78, %c18917_i16, %c-23065_i16, %c-23065_i16, %78, %c-23065_i16, %c18917_i16, %78, %c-23065_i16, %78, %c18917_i16, %c18917_i16, %78, %c-23065_i16, %c-23065_i16, %c18917_i16, %c-23065_i16, %c18917_i16, %c-23065_i16, %c-23065_i16, %78, %c-23065_i16, %c-23065_i16, %c18917_i16, %c-23065_i16, %c18917_i16, %c18917_i16, %c18917_i16, %c18917_i16, %78, %78, %c-23065_i16, %c-23065_i16, %c18917_i16, %c-23065_i16, %c-23065_i16, %78, %c-23065_i16, %c-23065_i16, %c18917_i16, %c18917_i16, %c-23065_i16, %c-23065_i16, %c-23065_i16, %78, %78, %78 : tensor<16x11x14xi16>
        %321 = vector.splat %56 : vector<14x14xindex>
        %322 = math.exp2 %2 : tensor<16x11xf32>
        %323 = index.maxu %190, %c0
        %324 = arith.remf %cst, %cst : f16
        %inserted_40 = tensor.insert %c928860611_i32 into %generated[%c0, %c0] : tensor<?x?xi32>
        %325 = affine.load %262[%c14, %c0] : memref<14x14xi1>
      }
      %289 = arith.cmpi sge, %c1199270634_i64, %c1313612593_i64 : i64
      %290 = arith.shrsi %c1199270634_i64, %c1199270634_i64 : i64
      %291 = scf.while (%arg3 = %229) : (memref<16x14xf32>) -> memref<16x14xf32> {
        %312 = memref.atomic_rmw addf %cst_0, %185[%c4, %c10] : (f32, memref<16x14xf32>) -> f32
        %313 = arith.maxui %true_1, %true : i1
        %314 = math.log2 %5 : tensor<16x14xf16>
        %315 = vector.broadcast %cst : f16 to vector<11xf16>
        %316 = vector.maskedload %alloc_5[%c9, %c1, %c13], %227, %315 : memref<16x11x14xf16>, vector<11xi1>, vector<11xf16> into vector<11xf16>
        %317 = math.round %15 : tensor<16x11x14xf32>
        %318 = index.floordivs %c5, %c5
        %319 = index.casts %c1313612593_i64 : i64 to index
        %320 = math.exp %17 : tensor<16x14xf16>
        scf.condition(%211) %122 : memref<16x14xf32>
      } do {
      ^bb0(%arg3: memref<16x14xf32>):
        %312 = math.tanh %7 : tensor<16x11xf16>
        %313 = math.expm1 %15 : tensor<16x11x14xf32>
        bufferization.dealloc_tensor %13 : tensor<16x11xi64>
        %314 = math.fma %16, %16, %105 : tensor<16x14xf16>
        %315 = memref.load %alloc_4[%c0, %c10] : memref<16x14xf16>
        %316 = math.tan %15 : tensor<16x11x14xf32>
        %317 = math.roundeven %2 : tensor<16x11xf32>
        %318 = arith.maxui %true_27, %true_27 : i1
        %319 = arith.addf %cst_0, %cst_0 : f32
        affine.store %cst_0, %185[%c0, %c2] : memref<16x14xf32>
        %320 = math.exp2 %105 : tensor<16x14xf16>
        %321 = arith.shli %c1199270634_i64, %c1313612593_i64 : i64
        %322 = arith.negf %cst : f16
        %323 = index.castu %rank : index to i32
        %324 = vector.broadcast %false : i1 to vector<16x14xi1>
        %325 = math.atan %5 : tensor<16x14xf16>
        scf.yield %122 : memref<16x14xf32>
      }
      %292 = vector.splat %243 : vector<16x14xindex>
      bufferization.dealloc_tensor %24 : tensor<16x11x14xi32>
      %293 = affine.for %arg3 = 0 to 103 iter_args(%arg4 = %rank) -> (index) {
        affine.yield %112 : index
      }
      %294 = tensor.empty() : tensor<16x14xf32>
      %295 = vector.extract_strided_slice %228 {offsets = [5], sizes = [3], strides = [1]} : vector<11xf32> to vector<3xf32>
      %296 = math.ipowi %6, %6 : tensor<16x11x14xi16>
      %alloca = memref.alloca() : memref<16x14xi32>
      %297 = math.expm1 %5 : tensor<16x14xf16>
      %false_37 = index.bool.constant false
      %298 = arith.minsi %false_37, %211 : i1
      %alloc_38 = memref.alloc() : memref<16x14xi16>
      memref.tensor_store %4, %alloc_38 : memref<16x14xi16>
      %299 = index.maxu %c1, %198
      %300 = arith.addf %cst_0, %cst_0 : f32
      %301 = vector.transpose %139, [0, 1] : vector<3x11xf16> to vector<3x11xf16>
      memref.assume_alignment %262, 16 : memref<14x14xi1>
      %302 = math.rsqrt %12 : tensor<16x14xf32>
      %303 = arith.ceildivsi %c1_i64, %c1508905138_i64 : i64
      %304 = math.cttz %230 : tensor<16x11xi32>
      %305 = vector.broadcast %c766674261_i32 : i32 to vector<16x14xi32>
      %306 = math.ceil %12 : tensor<16x14xf32>
      %307 = index.castu %c3 : index to i32
      %308 = arith.divf %cst, %cst_2 : f16
      %309 = index.add %c13, %68
      %310 = math.tan %cst : f16
      %311 = bufferization.clone %alloc_16 : memref<14x14xf16> to memref<14x14xf16>
      memref.alloca_scope.return %211 : i1
    }
    %269 = index.add %c1, %147
    memref.tensor_store %27, %74 : memref<14x14xi1>
    %270 = index.ceildivu %233, %56
    %271 = math.cos %2 : tensor<16x11xf32>
    %272 = vector.extract_strided_slice %76 {offsets = [13], sizes = [1], strides = [1]} : vector<16x11xf16> to vector<1x11xf16>
    %273 = vector.maskedload %33[%c3, %c0], %227, %226 : memref<16x14xf32>, vector<11xi1>, vector<11xf32> into vector<11xf32>
    %from_elements = tensor.from_elements %cst_2, %cst, %cst, %cst, %cst, %cst_2, %cst, %cst, %cst, %cst_2, %cst, %cst_2, %cst, %cst_2, %cst, %cst, %cst, %cst_2, %cst_2, %cst_2, %cst, %cst, %cst, %cst, %cst, %cst_2, %cst_2, %cst_2, %cst_2, %cst, %cst_2, %cst_2, %cst, %cst_2, %cst_2, %cst, %cst, %cst_2, %cst_2, %cst_2, %cst_2, %cst_2, %cst, %cst, %cst_2, %cst, %cst_2, %cst, %cst_2, %cst, %cst, %cst_2, %cst_2, %cst_2, %cst, %cst_2, %cst_2, %cst, %cst_2, %cst, %cst, %cst_2, %cst, %cst_2, %cst, %cst, %cst_2, %cst_2, %cst, %cst_2, %cst_2, %cst, %cst_2, %cst, %cst, %cst_2, %cst_2, %cst, %cst_2, %cst, %cst, %cst_2, %cst, %cst_2, %cst_2, %cst_2, %cst_2, %cst, %cst_2, %cst_2, %cst_2, %cst, %cst_2, %cst, %cst, %cst_2, %cst_2, %cst_2, %cst, %cst, %cst_2, %cst_2, %cst_2, %cst_2, %cst, %cst, %cst_2, %cst, %cst_2, %cst, %cst_2, %cst, %cst_2, %cst_2, %cst, %cst_2, %cst, %cst, %cst, %cst, %cst, %cst, %cst_2, %cst, %cst_2, %cst, %cst_2, %cst, %cst_2, %cst, %cst_2, %cst, %cst_2, %cst_2, %cst, %cst_2, %cst, %cst_2, %cst, %cst, %cst, %cst_2, %cst, %cst, %cst, %cst, %cst_2, %cst_2, %cst, %cst_2, %cst, %cst, %cst_2, %cst, %cst, %cst, %cst_2, %cst, %cst, %cst, %cst_2, %cst_2, %cst, %cst, %cst_2, %cst_2, %cst_2, %cst_2, %cst_2, %cst, %cst_2, %cst, %cst, %cst, %cst_2, %cst_2, %cst, %cst, %cst_2, %cst_2, %cst_2, %cst_2, %cst_2, %cst, %cst, %cst, %cst_2, %cst, %cst_2, %cst_2, %cst_2, %cst_2, %cst_2, %cst, %cst_2, %cst, %cst_2, %cst, %cst, %cst_2, %cst_2, %cst, %cst, %cst_2, %cst, %cst, %cst, %cst_2, %cst_2, %cst, %cst, %cst_2, %cst, %cst_2, %cst, %cst, %cst_2, %cst, %cst, %cst_2, %cst_2, %cst, %cst, %cst : tensor<16x14xf16>
    %274 = arith.cmpi ne, %268, %true : i1
    memref.assume_alignment %116, 16 : memref<14x14xi32>
    %generated_33 = tensor.generate %c1, %117 {
    ^bb0(%arg3: index, %arg4: index):
      vector.print %99 : vector<13xf16>
      %cst_36 = arith.constant 1.000000e+00 : f32
      %cst_37 = arith.constant 0.000000e+00 : f32
      %283 = vector.transfer_read %alloc_17[%234, %264, %212], %cst_37 {permutation_map = affine_map<(d0, d1, d2) -> (0)>} : memref<16x11x14xf32>, vector<14xf32>
      %284 = index.castu %c614314845_i64 : i64 to index
      %285 = affine.load %alloc_20[%c5] : memref<14xi1>
      tensor.yield %c18917_i16 : i16
    } : tensor<?x?xi16>
    %275 = vector.splat %c2 : vector<16x11x14xindex>
    %cast = tensor.cast %20 : tensor<i1> to tensor<i1>
    %276 = math.roundeven %collapsed_24 : tensor<224xf32>
    %277 = math.ctpop %10 : tensor<16x14xi1>
    %278 = bufferization.to_tensor %alloc_15 : memref<16x11xi32>
    %279 = math.atan %2 : tensor<16x11xf32>
    %inserted = tensor.insert %c18917_i16 into %generated_33[%c0, %c0] : tensor<?x?xi16>
    %280 = tensor.empty() : tensor<16x14xf16>
    %281 = linalg.copy ins(%17 : tensor<16x14xf16>) outs(%280 : tensor<16x14xf16>) -> tensor<16x14xf16>
    %alloc_34 = memref.alloc() : memref<11x16xi1>
    linalg.transpose ins(%34 : memref<16x11xi1>) outs(%alloc_34 : memref<11x16xi1>) permutation = [1, 0] 
    %alloc_35 = memref.alloc() : memref<16x14xi32>
    linalg.reduce ins(%24 : tensor<16x11x14xi32>) outs(%alloc_35 : memref<16x14xi32>) dimensions = [1] 
      (%in: i32, %init: i32) {
        %283 = bufferization.clone %alloc_11 : memref<16x11xi1> to memref<16x11xi1>
        %284 = vector.reduction <minf>, %226 : vector<11xf32> into f32
        %285 = vector.splat %108 : vector<14x14xindex>
        %extracted = tensor.extract %from_elements[%c4, %c3] : tensor<16x14xf16>
        %286 = math.ipowi %20, %20 : tensor<i1>
        %287 = arith.mulf %cst, %cst_2 : f16
        %288 = vector.shuffle %206, %206 [1, 2, 3, 10, 12, 17, 19, 20, 21, 22, 26, 28, 29] : vector<16xi16>, vector<16xi16>
        %289 = vector.maskedload %alloc_11[%c9, %c6], %187, %187 : memref<16x11xi1>, vector<13xi1>, vector<13xi1> into vector<13xi1>
        %c1_i32 = arith.constant 1 : i32
        linalg.yield %c1_i32 : i32
      }
    scf.parallel (%arg3) = (%30) to (%264) step (%c12) {
      %283 = math.fpowi %12, %87 : tensor<16x14xf32>, tensor<16x14xi32>
      %284 = math.roundeven %105 : tensor<16x14xf16>
      %285 = index.add %218, %133
      %286 = bufferization.clone %102 : memref<14x14xi1> to memref<14x14xi1>
      %287 = math.absf %12 : tensor<16x14xf32>
      scf.execute_region {
        %302 = arith.maxui %c18917_i16, %c18917_i16 : i16
        %303 = vector.multi_reduction <minf>, %142, %cst [0] : vector<14xf16> to f16
        %304 = math.atan2 %7, %7 : tensor<16x11xf16>
        %305 = math.log1p %280 : tensor<16x14xf16>
        %306 = arith.floordivsi %268, %true_1 : i1
        %307 = vector.contract {indexing_maps = [affine_map<(d0) -> (d0)>, affine_map<(d0) -> (d0)>, affine_map<(d0) -> ()>], iterator_types = ["reduction"], kind = #vector.kind<add>} %141, %141, %true_27 : vector<14xi1>, vector<14xi1> into i1
        %308 = arith.remui %c1581681977_i32, %c1581681977_i32 : i32
        %309 = affine.apply affine_map<(d0, d1, d2, d3) -> (d0)>(%59, %c2, %c2, %c0)
        %310 = vector.bitcast %172 : vector<16x14xi32> to vector<16x14xi32>
        %expanded_36 = tensor.expand_shape %14 [[0], [1, 2]] : tensor<14x14xf16> into tensor<14x14x1xf16>
        %311 = arith.shli %160, %c644607405_i32 : i32
        %true_37 = arith.constant true
        %312 = vector.broadcast %false : i1 to vector<11x11xi1>
        %313 = vector.outerproduct %227, %227, %312 {kind = #vector.kind<minsi>} : vector<11xi1>, vector<11xi1>
        %314 = affine.load %alloc_17[%c2, %c12, %c15] : memref<16x11x14xf32>
        vector.print %186 : vector<16x11xi32>
        %315 = math.copysign %7, %7 : tensor<16x11xf16>
        scf.yield
      }
      %288 = vector.multi_reduction <mul>, %19, %cst_2 [0] : vector<13xf16> to f16
      %extracted = tensor.extract %5[%c8, %c9] : tensor<16x14xf16>
      %289 = arith.cmpf une, %cst_0, %cst_0 : f32
      %290 = scf.execute_region -> i64 {
        %302 = vector.broadcast %288 : f16 to vector<11x11xf16>
        %303 = vector.contract {indexing_maps = [affine_map<(d0, d1, d2) -> (d2, d0)>, affine_map<(d0, d1, d2) -> (d2, d1)>, affine_map<(d0, d1, d2) -> (d0, d1)>], iterator_types = ["parallel", "parallel", "reduction"], kind = #vector.kind<maxf>} %139, %139, %302 : vector<3x11xf16>, vector<3x11xf16> into vector<11x11xf16>
        %304 = math.log2 %extracted : f16
        %false_36 = arith.constant false
        %false_37 = arith.constant false
        %305 = vector.transfer_read %10[%c13, %127], %false_37 : tensor<16x14xi1>, vector<i1>
        %306 = math.atan2 %7, %7 : tensor<16x11xf16>
        %307 = arith.divf %288, %extracted : f16
        %308 = vector.extract_strided_slice %272 {offsets = [0], sizes = [1], strides = [1]} : vector<1x11xf16> to vector<1x11xf16>
        %309 = vector.extract_strided_slice %204 {offsets = [3], sizes = [11], strides = [1]} : vector<14xi32> to vector<11xi32>
        %310 = affine.apply affine_map<(d0, d1, d2, d3) -> (d0)>(%59, %158, %234, %68)
        %311 = vector.insertelement %extracted, %99[%c12 : index] : vector<13xf16>
        %312 = arith.divf %cst, %cst : f16
        %313 = vector.extract %228[5] : vector<11xf32>
        %314 = math.absf %14 : tensor<14x14xf16>
        %315 = math.rsqrt %5 : tensor<16x14xf16>
        %316 = vector.shuffle %228, %70 [2, 4, 5, 6, 7, 9, 13, 15] : vector<11xf32>, vector<6xf32>
        %317 = index.maxu %112, %264
        %318 = math.cttz %c1199270634_i64 : i64
        scf.yield %c1508905138_i64 : i64
      }
      %291 = tensor.empty() : tensor<14x14xi16>
      %292 = vector.broadcast %c-23065_i16 : i16 to vector<14x14xi16>
      %293 = vector.broadcast %false : i1 to vector<14x14xi1>
      %294 = vector.broadcast %c766674261_i32 : i32 to vector<14x14xi32>
      %295 = vector.gather %291[%251, %c13] [%294], %293, %292 : tensor<14x14xi16>, vector<14x14xi32>, vector<14x14xi1>, vector<14x14xi16> into vector<14x14xi16>
      %296 = index.floordivs %184, %c9
      %297 = index.ceildivu %190, %c15
      %298 = vector.broadcast %c9 : index to vector<13xindex>
      %299 = vector.broadcast %160 : i32 to vector<13xi32>
      vector.scatter %alloc_3[%c9, %c9] [%298], %187, %299 : memref<14x14xi32>, vector<13xindex>, vector<13xi1>, vector<13xi32>
      %300 = bufferization.to_tensor %alloc_14 : memref<16x11xi16>
      %301 = bufferization.clone %33 : memref<16x14xf32> to memref<16x14xf32>
      scf.yield
    }
    %282 = affine.vector_load %alloc_13[%147, %c14] : memref<14x14xi1>, vector<11xi1>
    affine.vector_store %282, %alloc_11[%198, %73] : memref<16x11xi1>, vector<11xi1>
    vector.print %19 : vector<13xf16>
    vector.print %26 : vector<16x11xi1>
    vector.print %38 : vector<16x14xf32>
    vector.print %39 : vector<16x14xf32>
    vector.print %66 : vector<16xf32>
    vector.print %70 : vector<6xf32>
    vector.print %76 : vector<16x11xf16>
    vector.print %94 : vector<8x11xi1>
    vector.print %99 : vector<13xf16>
    vector.print %104 : vector<13xf16>
    vector.print %136 : vector<5x11xi1>
    vector.print %139 : vector<3x11xf16>
    vector.print %140 : vector<14xf16>
    vector.print %141 : vector<14xi1>
    vector.print %142 : vector<14xf16>
    vector.print %169 : vector<f16>
    vector.print %172 : vector<16x14xi32>
    vector.print %181 : vector<16xi1>
    vector.print %182 : vector<16xi1>
    vector.print %186 : vector<16x11xi32>
    vector.print %187 : vector<13xi1>
    vector.print %204 : vector<14xi32>
    vector.print %205 : vector<14xi32>
    vector.print %206 : vector<16xi16>
    vector.print %226 : vector<11xf32>
    vector.print %227 : vector<11xi1>
    vector.print %228 : vector<11xf32>
    vector.print %267 : vector<13xf16>
    vector.print %272 : vector<1x11xf16>
    vector.print %273 : vector<11xf32>
    vector.print %282 : vector<11xi1>
    vector.print %c644607405_i32 : i32
    vector.print %c1508905138_i64 : i64
    vector.print %c18917_i16 : i16
    vector.print %cst : f16
    vector.print %c1199270634_i64 : i64
    vector.print %c1313612593_i64 : i64
    vector.print %true : i1
    vector.print %cst_0 : f32
    vector.print %true_1 : i1
    vector.print %c766674261_i32 : i32
    vector.print %cst_2 : f16
    vector.print %c928860611_i32 : i32
    vector.print %false : i1
    vector.print %c-23065_i16 : i16
    vector.print %c1581681977_i32 : i32
    vector.print %c614314845_i64 : i64
    vector.print %78 : i16
    vector.print %160 : i32
    vector.print %true_27 : i1
    vector.print %211 : i1
    vector.print %c1_i64 : i64
    vector.print %268 : i1
    return
  }
}
